DDQN/voidResults/3cyl_2000epDecay/Qtarget1200.pt (torch, 85935 bytes, 7 tensors)

fc.weight f4 [128, 19]
0.29986143 0.14858043 -0.1724644 0.2916646 0.43821296 0.066763975 0.0015867457 0.24537764
-0.17080224 -0.064858936 -0.22027613 0.009677368 0.17053929 0.18174776 0.16631389 -0.19847769
-0.22450693 0.19985645 -0.14596812 0.072058044 -0.69723326 0.036162317 0.5030226 0.056114547
0.2900993 0.123470046 0.2672155 0.35275236 0.07572157 0.10661956 -0.025179718 -0.14174421
-0.30198795 -0.26884618 -0.13786311 -0.19433407 -0.008710239 0.12680666 -0.41238296 0.36641818
-0.53928167 0.30664966 -0.92604315 0.39839175 -0.007493781 -0.020939061 -0.13975753 -0.033625856
-0.02435491 -0.093919136 0.11283298 0.051308397 -0.1769322 0.15164919 -0.06970469 -0.26167405
0.01415511 -0.009249538 0.042776957 0.20371304 -0.076706976 0.02177994 -0.16570124 0.050266072
-0.14170662 -0.015718594 -0.2175062 -0.1484364 0.16304667 -0.09358187 -0.13554719 -0.074567154
0.08735086 0.21122213 -0.17537227 -0.2015656 0.43032742 0.27487123 0.46043602 0.71941566
-0.30501467 -1.0187551 0.105332375 0.1842328 -0.240763 -0.10137184 0.17238858 0.078862324
-0.023489702 -0.048962574 -0.20506567 -0.046155024 0.2784452 0.13265747 -0.2694911 -0.059010107
-0.85849655 -0.21568441 0.072134666 -0.2725023 0.6222197 0.28136027 0.301712 0.28811148
0.0365883 -0.20610161 -0.080903076 -0.22648796 0.15070064 -0.041076712 -0.008774626 -0.22775762
-0.023886284 -0.23283754 0.09454642 -0.52135986 1.0575346 -0.4150577 0.0011602689 -0.52787274
0.16015287 -0.08918524 0.12697116 0.115485616 0.06341872 -0.044094305 -0.115382195 -0.1647005
-0.1974486 0.12682171 0.14167699 0.06045047 -0.26343158 -0.09843756 -0.06079486 0.015517041
-0.097729 -0.20151915 0.22270717 0.014795974 -0.17143607 0.15384047 0.07840891 -0.16619878
-0.14500692 0.10316463 -0.21489467 -0.2073287 0.08399381 -0.2199665 -0.21546054 0.10296978
-0.21670106 -0.19558507 0.17306183 -0.14483857 0.021935567 0.029662237 -0.16946575 -0.15484612
-0.13307026 0.0036982745 -0.20509921 -0.11985121 -0.10481827 0.15705673 0.033985958 -0.014813364
-0.17126593 -0.21028335 -0.054597393 -0.14672364 -0.90972215 -0.074216045 0.5373905 -0.018001556
0.46119708 0.44392186 0.43081677 0.3418004 0.26076865 0.13009623 -0.03986891 -0.28352982
-0.34773618 -0.32066172 -0.29904416 -0.23853083 0.087214656 -0.038979527 0.034410335 0.2940939
-0.11581972 -0.71849656 0.057881925 0.41330302 -0.28262985 0.011133551 -0.21445328 0.025177449
-0.19703153 0.1554365 -0.17220838 0.040730003 0.10345221 0.17163087 -0.03149921 0.12137658
-0.016096996 0.02359315 0.2875849 0.32932338 -0.8541747 -0.1574648 0.8473018 0.10336554
0.0011591171 -0.2001673 -0.10907781 0.06151247 0.14606811 0.020106168 -0.007925332 -0.05961125
0.118433766 0.20390335 0.013845737 -0.04712928 0.12764943 -0.027497608 0.6824039 -0.9746335
-0.20077883 0.9016954 -0.03452946 -0.20799235 0.20698445 -0.024644438 -0.14450286 -0.050529577
0.012232825 0.19363141 0.13519081 0.24242088 0.149878 -0.13180056 -0.21773566 -0.6024679
0.36793736 0.34216255 0.20575026 0.29124942 0.5105664 0.08906704 0.14625055 -0.1460679
00000000: 7087 993e 7825 183e 829a 30be 1055 953e
00000010: 735d e03e 8dbb 883d 5afa cf3a 4744 7b3e
00000020: c8e6 2ebe c3d4 84bd 1190 61be d38d 1e3c
00000030: daa1 2e3e 161c 3a3e 304e 2a3e bc3d 4bbe
00000040: 25e5 65be 2ba7 4c3e ab78 15be 2b93 933d
00000050: e17d 32bf f01e 143d 17c6 003f 5ed8 653d
00000060: e587 943e dddd fc3d 78d0 883e f59b b43e
00000070: e913 9b3d 5b5b da3d b245 cebc 6525 11be
00000080: 2a9e 9abe 35a6 89be fd2b 0dbe 83ff 46be
00000090: 64b5 0ebc 9bd9 013e dc23 d3be 2a9b bb3e
000000a0: 5d0e 0abf 2f01 9d3e 2a11 6dbf 01fa cb3e
000000b0: 648e f5bb 6588 abbc 991c 0fbe 44bb 09bd
000000c0: f383 c7bc ad58 c0bd fa14 e73d c128 523d
000000d0: b72d 35be ed49 1b3e 55c1 8ebd 24fa 85be
000000e0: d6ea 673c 608b 17bc e436 2f3d 279a 503e
000000f0: 8c18 9dbd d86b b23c 96ad 29be cce3 4d3d
00000100: 8a1b 11be 48c4 80bc f2b9 5ebe b6ff 17be
00000110: b5f5 263e daa7 bfbd e2cc 0abe aab6 98bd
00000120: 02e5 b23d 9d4a 583e ca94 33be 3667 4ebe
00000130: e053 dc3e ecbb 8c3e 45be eb3e a02b 383f
00000140: e22a 9cbe 9166 82bf 80b8 d73d 86a7 3c3e
00000150: 938a 76be 0a9c cfbd a286 303e 9282 a13d
00000160: 7a6d c0bc fb8c 48bd bcfc 51be 0d0d 3dbd
00000170: 5f90 8e3e 5cd7 073e bdfa 89be 95b4 71bd
00000180: 6ec6 5bbf 60dc 5cbe 57bb 933d 6c85 8bbe
00000190: ca49 1f3f 740e 903e ff79 9a3e 5983 933e
000001a0: 9ddd 153d 4d0c 53be 83b0 a5bd 76ec 67be
000001b0: 4551 1a3e 0e40 28bd 73c3 0fbc 4b39 69be
000001c0: 2bad c3bc f76c 6ebe 8ea1 c13d d777 05bf
000001d0: 4b5d 873f 7182 d4be 2a14 983a ab22 07bf
000001e0: 1dff 233e c0a6 b6bd ba04 023e b983 ec3d
000001f0: ade1 813d 3b9c 34bd 804d ecbd 3fa7 28be
00000200: f72f 4abe 8ddd 013e c613 113e e99a 773d
00000210: 81e0 86be a299 c9bd 0804 79bd 303b 7e3c
00000220: 2426 c8bd 095b 4ebe 590d 643e d06a 723c
00000230: f08c 2fbe 5b88 1d3e da94 a03d 0330 2abe
00000240: b27c 14be fa47 d33d 590d 5cbe fa4d 54be
00000250: f204 ac3d e63e 61be b0a1 5cbe d2e1 d23d
00000260: e2e6 5dbe 7447 48be 1f37 313e 9050 14be
00000270: 38b2 b33c 38fe f23c 6e88 2dbe fb8f 1ebe
00000280: 9243 08be c05e 723b 8705 52be 8d74 f5bd
00000290: f6aa d6bd 7bd3 203e dc34 0b3d c0b3 72bc
000002a0: 5660 2fbe 8554 57be 84a1 5fbd b93e 16be
000002b0: 8de3 68bf 95fe 97bd 6c92 093f 0078 93bc
000002c0: 0622 ec3e ba49 e33e 0494 dc3e 7600 af3e
000002d0: 7883 853e f237 053e 954d 23bd d22a 91be
000002e0: 7a0a b2be c62d a4be 511c 99be 6d41 74be
000002f0: 999d b23d ffa8 1fbd daf1 0c3d 7a93 963e
00000300: e432 edbd 64ef 37bf 9915 6d3d 749c d33e
00000310: dcb4 90be 7f69 363c a499 5bbe f040 ce3c
00000320: a2c2 49be bf2a 1f3e 6557 30be 81d4 263d
00000330: c1de d33d 01c0 2f3e 5105 01bd 4994 f83d
00000340: d9dd 83bc 6c46 c13c 543e 933e 139d a83e
00000350: 31ab 5abf 743e 21be c5e8 583f 50b1 d33d
00000360: 84ed 973a a8f8 4cbe 3064 dfbd 80f4 7b3d
00000370: e192 153e b1b5 a43c 40d9 01bc ed2a 74bd
00000380: 678d f23d 0acc 503e 3bd9 623c a20a 41bd
00000390: 88b6 023e aa42 e1bc 06b2 2e3f 9581 79bf
000003a0: f798 4dbe 82d5 663f c36e 0dbd f2fb 54be
000003b0: bbf3 533e 22e3 c9bc 8ff8 13be 1af8 4ebd
000003c0: 306c 483c 5047 463e 766f 0a3e 2e3d 783e
000003d0: 9e79 193e baf6 06be 19f6 5ebe 563b 1abf
000003e0: 4962 bc3e ee2f af3e 32b0 523e a51e 953e
000003f0: 7bb4 023f c868 b63d b4c2 153e d392 15be

fc.bias f4 [128]
-0.009666434 -0.12389908 0.3200556 -0.20028618 0.4363563 0.34399524 0.61478126 0.10777806
0.16399945 0.4707164 -0.0955168 0.4033925 0.5018523 0.24287428 -0.1788567 0.18115805
-0.20464498 0.18490402 -0.20100532 0.20476384 0.0963885 0.19557159 -0.033991516 0.015801683
1.9835491 -0.22334811 -0.17524177 0.12422016 -0.20199479 0.19842277 0.15802714 0.5999851
1.3883023 -0.17222877 -0.09002118 0.45430613 0.95857924 -0.06259677 0.21182393 0.4037655
-0.20707779 2.2613192 0.12222858 -0.069706306 0.50463396 -0.076252885 0.71252686 1.4718733
-0.2269937 -0.05468783 0.19692405 0.27363423 2.3044393 0.29663122 1.2207801 -0.21213214
0.122960076 -0.17596358 0.8117666 -0.0942875 0.06288324 1.388138 0.5980815 1.4667206
-0.28221634 -0.12193889 -0.119798005 0.13639586 -0.1841999 0.7812403 0.55541897 0.041458473
-0.09050174 0.5635097 1.2481139 -0.0053754346 0.7494769 0.9204833 -0.014844626 0.089215145
0.35842225 -0.070920244 0.47994867 -0.08238077 0.14461921 0.14338784 0.8120405 0.085211836
-0.20620012 -0.21558295 0.33568242 -0.18814367 1.050887 -0.10898159 -0.18055923 0.096376255
-0.1346725 -0.17216408 0.00924065 0.21018477 0.99402684 0.04105318 0.16997807 0.58686167
0.08400886 -0.064535886 0.20824881 0.0719579 -0.08125979 0.17380193 0.17903991 0.33786678
0.22419216 0.09620254 0.060171828 0.042042967 0.90953344 -0.2202 -0.1517736 0.007877752
0.9438754 0.36367786 -0.2285469 -0.19473821 0.49692908 1.3620815 1.3014265 1.1867754
00000000: f65f 1ebc cdbe fdbd 54de a33e d217 4dbe
00000010: 186a df3e 2520 b03e 4e62 1d3f beba dc3d
00000020: 79ef 273e bd01 f13e 509e c3bd 7689 ce3e
00000030: 6479 003f 09b4 783e 3626 37be 7f81 393e
00000040: 748e 51be 7b57 3d3e 57d4 4dbe 9dad 513e
00000050: 5567 c53d eb43 483e b03a 0bbd 8872 813c
00000060: f0e4 fd3f 5eb5 64be 9472 33be 2467 fe3d
00000070: b9d7 4ebe 572f 4b3e ded1 213e a098 193f
00000080: e4b3 b13f bd5c 30be 065d b8bd d09a e83e
00000090: 7365 753f bc32 80bd 5fe8 583e 5aba ce3e
000000a0: 330c 54be 74b9 1040 fa52 fa3d 2ec2 8ebd
000000b0: b12f 013f 792a 9cbd 2968 363f 5866 bc3f
000000c0: 0971 68be 5900 60bd 75a6 493e c919 8c3e
000000d0: ef7b 1340 0ce0 973e 8642 9c3f 2b39 59be
000000e0: 7ed2 fb3d cc2f 34be f0cf 4f3f ce19 c1bd
000000f0: eec8 803d 82ae b13f df1b 193f 80bd bb3f
00000100: a97e 90be 19bb f9bd a858 f5bd 5bab 0b3e
00000110: e69e 3cbe 5dff 473f f02f 0e3f 5cd0 293d
00000120: fa58 b9bd 2c42 103f 32c2 9f3f 6a24 b0bb
00000130: b8dd 3f3f cba4 6b3f e036 73bc 6eb6 b63d
00000140: 1f83 b73e a23e 91bd d5bb f53e 40b7 a8bd
00000150: 0f17 143e 43d4 123e e3e1 4f3f 8b83 ae3d
00000160: 2026 53be c7c1 5cbe 91de ab3e bca8 40be
00000170: 7783 863f bd31 dfbd 85e4 38be ea60 c53d
00000180: 96e7 09be c84b 30be 1866 173c ad3a 573e
00000190: 8b78 7e3f 6127 283d bb0e 2e3e 913c 163f
000001a0: d60c ac3d 642b 84bd 2d3f 553e aa5e 933d
000001b0: 886b a6bd 22f9 313e 3d56 373e e0fc ac3e
000001c0: a192 653e d605 c53d bc76 763d 3f35 2c3d
000001d0: 2fd7 683f 1c7c 61be 8a6a 1bbe b011 013c
000001e0: d1a1 713f fc33 ba3e 3308 6abe 7469 47be
000001f0: 7d6d fe3e b058 ae3f 2595 a63f 42e8 973f

hidden.0.weight f4 [128, 128]
0.03651285 0.065376036 -0.041408237 -0.061426185 0.10908078 -0.02899606 -0.023659792 0.063343845
-0.06833165 -0.0211389 -0.02948162 -0.0013528424 -0.008993596 -0.011159325 -0.011802889 -0.025556184
0.042463385 -0.053370457 0.0007053241 0.06609749 -0.046691645 0.024062203 0.056147806 -0.06257433
0.061950162 -0.06501242 0.06561694 0.072994284 0.007057026 0.07201877 0.01443257 -0.052187376
-0.013088018 -0.08309343 -0.03580638 0.05784579 0.055936236 -0.02606377 0.008679961 0.045633625
0.03151642 0.106657594 -0.049622256 0.001376256 0.020980427 0.03620967 -0.027296834 -0.08491223
-0.039754394 -0.046665736 -0.029138995 0.028627416 -0.08520164 0.06774188 -0.05615887 0.07660686
0.038572796 0.057538323 -0.0030929185 0.05817881 -0.014441557 0.016362563 0.07539733 -0.015532626
-0.006980767 -0.08393807 0.048569236 0.012347728 -0.065313235 -0.0009726804 0.08692986 0.03613644
0.017857809 -0.0058234003 0.10365367 -0.037495997 0.064279296 0.023583468 -0.08471545 0.02686549
0.13506992 -0.0052726422 0.028337287 0.06408159 0.014246175 -0.012019545 -0.08428567 -0.069298334
-0.008479406 0.052926697 0.077709556 -0.07827761 0.116741 -0.07249812 -0.0034179767 -0.041438244
-0.054039184 -0.07008277 -0.0621572 -0.0067476504 0.074369065 0.01352249 0.0029679313 0.03288553
-0.006526588 0.06511738 0.048059054 -0.05834672 0.033269636 0.06505868 0.01987321 0.015580998
-0.019192545 0.013552435 -0.06867764 -0.04927176 -0.05851522 -0.021910667 0.03256958 -0.018858656
0.04189781 -0.055579267 0.07797631 0.0051115155 0.14084983 -0.033571932 0.037705395 0.014197467
-0.08576585 0.0061004832 0.084823065 -0.0873831 -0.07305116 -0.07748472 0.056343738 -0.08739924
-0.013246335 0.046382 0.031336054 -0.038325932 0.0032859254 -0.005510189 0.061853923 -0.01450482
-0.010177113 -0.035178415 -0.07513443 0.07745925 0.04272034 -0.04989128 -0.06443606 0.052766763
0.0023710504 -0.0677038 -0.020367295 -0.034350578 -0.022119626 0.05440519 0.038449638 0.02847705
-0.015622375 0.0034475178 -0.063025154 0.075171754 -0.06758744 0.04604631 -0.07258923 -0.08739469
-0.08523356 0.014760217 -0.006755762 0.037056975 0.06679871 0.013488911 -0.055449247 0.004459472
-0.061117902 0.0014882516 -0.02931565 0.073421344 -0.07035617 0.05081506 0.015368476 -0.07457558
-0.07355259 -0.049643032 0.036766283 -0.074694455 -0.037974995 -0.012491749 -0.026086513 -0.077765755
0.047007583 -0.0057467585 0.048894502 0.08222919 -0.049819227 -0.06060352 -0.079149835 -0.012929998
-0.05117169 0.03766144 -0.001714718 0.044568226 0.043247245 -0.04419988 -0.02769814 -0.031710498
0.068326935 -0.030911848 -0.036125444 0.016068853 0.0148704145 0.06523424 0.046848528 0.043258183
-0.04558291 0.04427039 -0.010327015 0.030553438 0.040621415 -0.054684386 -0.01149933 0.010697924
-0.0636491 -0.07577856 -0.03763432 -0.040296853 -0.04187294 0.055634085 0.051783286 -0.033125497
-0.0019635037 0.02320221 -0.021084055 0.06628113 -0.052476596 0.07700928 0.052634336 -0.069133855
-0.07849839 -0.023852207 -0.043377176 -0.06843341 -0.01311941 0.05899196 -0.014821105 -0.08173316
0.016361028 -0.06833935 -0.012045249 0.028548084 0.058164172 -0.040578987 0.08301322 0.07384109
00000000: 808e 153d dfe3 853d af9b 29bd 069a 7bbd
00000010: be65 df3d 2589 edbc 2ed2 c1bc 6bba 813d
00000020: 77f1 8bbd 7d2b adbc 7083 f1bc dc51 b1ba
00000030: e059 13bc 9ad5 36bc e860 41bc 345b d1bc
00000040: 16ee 2d3d fb9a 5abd 80e5 383a 1f5e 873d
00000050: bd3f 3fbd 191e c53c 3efb 653d f826 80bd
00000060: 74bf 7d3d 3b25 85bd 2d62 863d 077e 953d
00000070: a03e e73b 947e 933d 9676 6c3c 6ec2 55bd
00000080: 206f 56bc e32c aabd b6a9 12bd b5ef 6c3d
00000090: 651d 653d b083 d5bc 6536 0e3c 53ea 3a3d
000000a0: 5d17 013d 4c6f da3d b540 4bbd 7d63 b43a
000000b0: 25df ab3c 9750 143d 9c9d dfbc 77e6 adbd
000000c0: 81d5 22bd 9224 3fbd e7b4 eebc 0b84 ea3c
000000d0: 337e aebd 41bc 8a3d d806 66bd 0fe4 9c3d
000000e0: 82fe 1d3d 4ead 6b3d 90b2 4abb e74c 6e3d
000000f0: 489c 6cbc c80a 863c ea69 9a3d 8e7c 7ebc
00000100: ebbe e4bb b9e7 abbd 89f0 463d 204e 4a3c
00000110: f2c2 85bd 7afb 7eba 4808 b23d ce03 143d
00000120: 8a4a 923c 39d2 bebb 6048 d43d 6795 19bd
00000130: dda4 833d 1e32 c13c 4b7f adbd 0415 dc3c
00000140: c54f 0a3e 21c6 acbb 9923 e83c 353d 833d
00000150: ca68 693c a0ed 44bc f79d acbd 49ec 8dbd
00000160: 35ed 0abc aac9 583d 3026 9f3d 0350 a0bd
00000170: e815 ef3d e579 94bd 2200 60bb 26bb 29bd
00000180: 3158 5dbd 8e87 8fbd 8c98 7ebd 651b ddbb
00000190: cf4e 983d 6f8d 5d3c a081 423b fab2 063d
000001a0: fddc d5bb 435c 853d 92d9 443d f8fc 6ebd
000001b0: be45 083d 7c3d 853d 24cd a23c 7147 7f3c
000001c0: af39 9dbc 080b 5e3c dda6 8cbd 2fd1 49bd
000001d0: a8ad 6fbd 007e b3bc ae67 053d 787d 9abc
000001e0: 0a9d 2b3d 16a7 63bd 0bb2 9f3d 807e a73b
000001f0: f03a 103e b982 09bd f970 1a3d 7e9c 683c
00000200: 02a6 afbd 90e6 c73b b7b7 ad3d e9f5 b2bd
00000210: d99b 95bd 4fb0 9ebd b1c8 663d 5ffe b2bd
00000220: 2807 59bc 0dfb 3d3d 3c5a 003d a7fb 1cbd
00000230: ae58 573b d18e b4bb 8a5a 7d3d a0a5 6dbc
00000240: e8bd 26bc 3e17 10bd 14e0 99bd f5a2 9e3d
00000250: 86fb 2e3d cc5a 4cbd 0ef7 83bd f621 583d
00000260: a063 1b3b 4aa8 8abd 50d9 a6bc 31b3 0cbd
00000270: 3834 b5bc fad7 5e3d 5e7d 1d3d b448 e93c
00000280: fdf4 7fbc c0ef 613b 5513 81bd a6f3 993d
00000290: 496b 8abd 0e9b 3c3d aaa9 94bd fdfb b2bd
000002a0: ef8e aebd d6d4 713c 705f ddbb 0ec9 173d
000002b0: c3cd 883d 9800 5d3c c01e 63bd c320 923b
000002c0: c456 7abd 7011 c33a 6027 f0bc ee5d 963d
000002d0: e516 90bd 7423 503d 0fcc 7b3c 15bb 98bd
000002e0: bea2 96bd 7e56 4bbd 3e98 163d 68f9 98bd
000002f0: ab8b 1bbd 31aa 4cbc 62b3 d5bc a743 9fbd
00000300: 068b 403d 4e4f bcbb 9a45 483d c767 a83d
00000310: 3f0f 4cbd 663b 78bd 4f19 a2bd 58d8 53bc
00000320: 6899 51bd e242 1a3d 63c0 e0ba 2c8d 363d
00000330: 0624 313d ef0a 35bd 36e7 e2bc dee2 01bd
00000340: feee 8b3d d83a fdbc 46f8 13bd d4a2 833c
00000350: 0aa3 733c 8799 853d 3ee4 3f3d 7e2f 313d
00000360: 25b5 3abd de54 353d a432 29bc 344b fa3c
00000370: a462 263d bcfc 5fbd b067 3cbc 5846 2f3c
00000380: 765a 82bd ca31 9bbd 7226 1abd 500e 25bd
00000390: f682 2bbd 91e0 633d b61a 543d 9aae 07bd
000003a0: 20ae 00bb 9012 be3c 78b8 acbc 67be 873d
000003b0: b3f1 56bd 0bb7 9d3d 1a97 573d 0d96 8dbd
000003c0: c4c3 a0bd b465 c3bc 44ac 31bd d126 8cbd
000003d0: cbf2 56bc 8ea1 713d 38d4 72bc b763 a7bd
000003e0: 9007 863c 80f5 8bbd 7059 45bc acdd e93c
000003f0: 8e3d 6e3d 2736 26bd d602 aa3d ff39 973d

hidden.0.bias f4 [128]
0.5999317 0.05035307 -0.5449059 -0.07974255 1.280106 1.6450688 0.9919932 0.4359371
-0.010954604 0.05402187 0.05582293 -0.07326421 -0.039667446 0.0352491 0.04011929 -0.3939924
-0.058960892 -0.0803014 0.3290191 0.3295636 -0.07729687 0.048047684 0.07922045 0.08569585
0.14352892 0.09846873 0.094613776 0.8273103 1.5030419 -0.19547768 0.58425236 0.57661986
0.43898416 0.030555345 1.0309913 -0.07531695 -0.018978143 0.8849459 0.07476951 0.06485364
-0.01785849 0.5111399 -0.05956196 1.6273255 -0.36744893 -0.5328714 0.07874261 -0.04469413
0.37060717 0.84071285 -0.050075427 -0.08121139 0.21364045 0.5769285 0.48650137 0.25314173
0.022202495 0.070184365 0.017496418 -0.32295364 0.49341363 0.20529154 -0.043859158 0.31520784
0.3731528 1.1670691 0.856061 1.1159147 -0.07155588 -0.06355827 -0.05367118 0.011465297
0.51902187 1.1854401 -0.052492455 1.1368155 1.4236995 -0.015568301 0.7525588 0.47422478
0.3993639 2.1342826 -0.16874439 0.80456525 0.068875484 0.040835436 0.09836436 -0.092136346
-0.50945324 -0.29033682 0.7620344 0.07612332 -0.19834472 -0.060421094 0.025347687 0.012946535
0.7445451 -0.16244295 0.7789577 -0.08636374 -0.07033313 0.07315229 0.07327379 0.03578625
0.51840484 0.7117323 0.021568624 0.08812387 0.43770635 1.0972747 0.003270026 0.018317156
3.1547635 1.6074694 -0.07038781 -0.08425106 -0.0838592 -0.10110499 1.1586342 0.043663807
1.3047277 -0.032913197 0.08356142 -0.43284023 0.38468382 0.91630954 -0.033638902 0.07318671
00000000: 2095 193f 053f 4e3d f47e 0bbf 1050 a3bd
00000010: 83da a33f 9d91 d23f 44f3 7d3f 2633 df3e
00000020: f07a 33bc 0946 5d3d 96a6 643d 8c0b 96bd
00000030: 557a 22bd 5c61 103d 2054 243d 5fb9 c9be
00000040: fa80 71bd 0f75 a4bd 3175 a83e 8fbc a83e
00000050: d24d 9ebd a6cd 443d 553e a23d 4e81 af3d
00000060: 3ff9 123e f9a9 c93d dec4 c13d 9cca 533f
00000070: ad63 c03f 4d2b 48be 9091 153f 5c9d 133f
00000080: 88c2 e03e 344f fa3c 86f7 833f c63f 9abd
00000090: 0d78 9bbc d18b 623f c220 993d fcd1 843d
000000a0: f84b 92bc 11da 023f 3ef7 73bd 344c d03f
000000b0: 4422 bcbe 436a 08bf ce43 a13d 3111 37bd
000000c0: 39c0 bd3e f538 573f e41b 4dbd 2852 a6bd
000000d0: 90c4 5a3e 96b1 133f b516 f93e cb9b 813e
000000e0: 02e2 b53c d2bc 8f3d a654 8f3c 2e5a a5be
000000f0: b6a0 fc3e f237 523e a9a5 33bd ec62 a13e
00000100: e20d bf3e 8562 953f d026 5b3f 4bd6 8e3f
00000110: e48b 92bd d72a 82bd 50d6 5bbd f1d8 3b3c
00000120: 9ede 043f 80bc 973f 5402 57bd 2c83 913f
00000130: c93b b63f 3012 7fbc b2a7 403f 97cd f23e
00000140: 6d79 cc3e 1698 0840 54cb 2cbe fdf7 4d3f
00000150: 970e 8d3d 0f43 273d 4173 c93d fbb1 bcbd
00000160: 876b 02bf 07a7 94be b014 433f 8be6 9b3d
00000170: e11a 4bbe 1c7c 77bd f4a5 cf3c b41d 543c
00000180: 829a 3e3f 7257 26be c669 473f 79df b0bd
00000190: d10a 90bd ded0 953d 9210 963d 9a94 123d
000001a0: 2eb6 043f 1734 363f afb0 b03c 4a7a b43d
000001b0: 0c1b e03e 7f73 8c3f ef4d 563b dc0d 963c
000001c0: a5e7 4940 8fc1 cd3f 7c27 90bd d28b acbd
000001d0: 5fbe abbd 2210 cfbd 204e 943f d2d8 323d
000001e0: 5101 a73f fdcf 06bd 4022 ab3d 3c9d ddbe
000001f0: 47f5 c43e 4393 6a3f f2c8 09bd eae2 953d

v.weight f4 [1, 128]
-0.14793375 -0.084534645 0.24738279 0.08214597 -0.32141766 -0.4017569 -0.23821887 -0.11173228
-0.0067188265 -0.095406756 0.050033934 0.06175116 0.022491945 -0.010254864 0.042102575 0.34030256
-0.06998253 0.013577014 -0.18927911 -0.08943187 0.012168772 -0.054489806 -0.0049909507 -0.009710475
-0.23757136 -0.0911235 -0.059940822 -0.20326288 -0.36868948 0.32573685 -0.2213722 -0.14470218
-0.103412576 0.19908112 -0.24617018 0.004828637 0.046920884 -0.22104834 -0.16066204 0.07296191
0.014622636 -0.14213595 0.07900533 -0.400467 0.37104443 0.34167638 -0.012999634 -0.010331099
-0.17050228 -0.20123352 0.08578076 -0.11290079 -0.28036544 -0.14824308 -0.19991755 -0.20335503
-0.04539646 -0.019167658 0.012331121 0.34398195 -0.13002723 -0.12532692 -0.030651748 -0.08027831
-0.15433635 -0.27464703 -0.20899388 -0.28538862 0.32701117 -0.030978179 -0.08464367 -0.0048240568
-0.20117582 -0.2914408 0.015910119 -0.28604797 -0.3400031 0.08022017 -0.18608363 -0.16646715
-0.112511806 -0.52072895 -0.056227274 -0.18638106 -0.12563232 0.30949655 -0.0934055 0.2601394
0.39756832 0.19877997 -0.18427338 -0.0069434494 0.16724087 0.11493184 0.038902182 -0.12397151
-0.1873971 0.56996214 -0.19630429 0.038400926 0.01316663 -0.08505756 -0.04482229 0.028211646
-0.1301229 -0.18291147 0.08853862 0.06057379 -0.21904874 -0.27050915 -0.12786935 -0.028889788
-0.76292616 -0.38818446 -0.07823501 0.0500659 0.00021856315 0.02514382 -0.28312156 -0.071064025
-0.3122356 -0.014633255 -0.057811487 0.3492424 -0.0896705 -0.22466199 -0.053554688 -0.027608933
00000000: f27b 17be 8020 adbd ea51 7d3e 253c a83d
00000010: db90 a4be 15b3 cdbe a6ef 73be e5d3 e4bd
00000020: 9a29 dcbb 9e64 c3bd 62f0 4c3d c9ee 7c3d
00000030: 0741 b83c 0404 28bc c073 2c3d 233c ae3e
00000040: 0053 8fbd 2072 5e3c 62d2 41be 0e28 b7bd
00000050: 875f 473c b430 5fbd 218b a3bb af18 1fbc
00000060: e845 73be f59e babd 8284 75bd 2524 50be
00000070: dec4 bcbe fbc6 a63e 65af 62be cf2c 14be
00000080: f9c9 d3bd ecdb 4b3e 0914 7cbe 8b39 9e3b
00000090: 1d30 403d 7f5a 62be 9784 24be 0e6d 953d
000000a0: c893 6f3c 168c 11be 8ccd a13d 030a cdbe
000000b0: 89f9 bd3e 35f0 ae3e 6bfc 54bc c543 29bc
000000c0: 2698 2ebe 2910 4ebe d3ad af3d 8838 e7bd
000000d0: 0f8c 8fbe 09cd 17be 30b7 4cbe 4d3c 50be
000000e0: a3f1 39bd 7e05 9dbc 7808 4a3c 671e b03e
000000f0: dc25 05be b355 00be 6019 fbbc f468 a4bd
00000100: 590a 1ebe 899e 8cbe 7e02 56be 751e 92be
00000110: 026e a73e f3c5 fdbc a959 adbd 1f13 9ebb
00000120: 0901 4ebe bb37 95be f055 823c e174 92be
00000130: e314 aebe 794a a43d b58c 3ebe 5d76 2abe
00000140: 976c e6bd 7e4e 05bf 924e 66bd adda 3ebe
00000150: c2a5 00be 5576 9e3e 624b bfbd fe30 853e
00000160: 138e cb3e fa8c 4b3e 29b2 3cbe e085 e3bb
00000170: 3141 2b3e 6261 eb3d e557 1f3d c6e4 fdbd
00000180: 06e5 3fbe 0ae9 113f fe03 49be 4a4a 1d3d
00000190: d9b8 573c a832 aebd 9497 37bd 1c1c e73c
000001a0: f03e 05be 254d 3bbe bc53 b53d 391c 783d
000001b0: 504e 60be 2d80 8abe 2ff0 02be 47aa ecbc
000001c0: 214f 43bf 1dc0 c6be ad39 a0bd e711 4d3d
000001d0: 192e 6539 6afa cd3c 4ff5 90be 048a 91bd
000001e0: 58dd 9fbe 52c0 6fbc bdcb 6cbd e6cf b23e
000001f0: 2ba5 b7bd cb0d 66be 295c 5bbd 212c e2bc

adv.weight f4 [12, 128]
0.040302806 0.06004816 0.009000042 0.03650055 -0.03508476 0.07856275 0.01565315 -0.05865842
0.06505668 0.017034134 -0.08187058 0.051962096 -0.024737608 -0.079467654 0.05864504 -0.02965956
-0.042425565 -0.00047501922 0.037707917 -0.02264223 0.06896584 -0.03929672 -0.06070526 -0.026720477
0.10836891 0.05120797 0.026862143 -0.015301114 0.014766202 -0.049762405 -0.081647046 -0.033628136
0.008442298 0.03569349 -0.010049826 0.07024821 -0.047263008 0.029445613 -0.023382688 0.06618354
-0.023902342 0.008273501 0.08599856 0.044314705 0.027095094 0.04120281 -0.036655135 0.06631647
-0.02000867 0.030505223 0.011659242 0.13132198 -0.058735237 0.027205452 -0.030323429 0.09176959
-0.0094037615 0.07715097 0.06311787 -0.032272317 0.031053908 -0.09159948 -0.0020409077 0.041032895
-0.04891871 0.01039787 0.027040401 -0.015993765 -0.006302024 -0.020410918 -0.009571131 0.045272965
0.019822935 -0.028967902 -0.020235673 -0.052258424 0.007493282 -0.010465995 0.0024507924 0.012725449
-0.0269296 0.017428176 -0.028369509 0.014616867 0.07543165 -0.11706072 0.03024711 -0.033252317
0.03545787 -0.02362316 0.0407995 -0.11783927 -0.0263844 0.07405681 -0.008776161 -0.015914502
-0.007260987 0.041243922 -0.0014422695 -0.038639043 0.048455376 -0.073600695 -0.018042577 -0.07553881
0.0018328282 0.009787194 -0.077656634 0.074817024 -0.029191336 -0.01067979 0.029597515 0.06666867
7.265679e-05 -0.004902362 -0.0654919 -0.078297004 -0.008464885 -0.020617684 0.014406882 0.04626388
0.019962972 -0.05693984 0.060943335 -0.018347986 -0.034056846 -0.031989213 -0.069782525 0.03383334
-0.03455039 -0.07905005 -0.014603348 0.002901502 -0.025469478 0.061393246 0.014393845 0.0048579467
-0.024742685 0.08275438 0.07573474 -0.04193553 0.064934656 -0.064630814 0.011426546 0.02297272
0.0699699 -0.038598124 0.02457944 0.039818335 0.003009355 0.027272373 0.0013800048 -0.076606356
0.014375866 -0.10190473 0.11745847 -0.028941128 -0.061289918 -0.084029645 0.14448583 -0.0114623355
-0.025824372 -0.08012071 0.041601855 -0.0026624945 -0.039650045 -0.03089051 -0.020369608 -0.010006763
-0.062970355 0.055422727 0.05129379 0.023120746 -0.094092116 -0.06650494 -0.0010679059 -0.057446145
0.044446968 0.0033586936 -0.034441773 -0.28699604 -0.058561217 0.022345018 0.0691173 0.028699024
0.075603686 -0.063690834 0.010976509 0.18380825 0.085443586 -0.07462997 -0.05942047 -0.05127533
-0.05300204 -0.011907619 0.043821055 0.035328068 0.05869099 0.06880289 -0.042402055 -0.06661491
-0.016168809 -0.054162957 -0.002180405 0.086518414 0.0134300655 -0.066483416 0.0093905 -0.027237123
-0.0531821 -0.05074825 -0.09269244 0.02172684 -0.07007693 0.07204632 -0.03768617 0.023312764
0.051626828 0.14934307 -0.03499111 0.06775325 0.19545236 0.06389227 -0.03072972 0.034753792
0.0011609303 -0.03355355 0.03293399 -0.01921407 -0.05561096 0.06809518 -0.08952114 0.06220921
0.036098372 0.026122479 -0.07466954 -0.030787116 -0.009137101 -0.023928413 0.06248101 0.0038406611
-0.0033653623 -0.053135 0.01764662 -0.027674504 0.046346966 0.08198138 -0.091428444 -0.071628526
0.00035777412 0.01727625 -0.006024036 -0.013739177 -0.0034136819 0.055046797 0.03660706 -0.034617648
00000000: 8e14 253d 0ff5 753d ea74 133c 9a81 153d
00000010: 0ab5 0fbd 82e5 a03d 093b 803c d043 70bd
00000020: 703c 853d 2b8b 8b3c c3ab a7bd 35d6 543d
00000030: 86a6 cabc f0bf a2bd c835 703d 9bf8 f2bc
00000040: 6ec6 2dbd 000c f9b9 9e73 1a3d 337c b9bc
00000050: f63d 8d3d 99f5 20bd 14a6 78bd e7e4 dabc
00000060: 85f0 dd3d 73bf 513d ff0d dc3c 86b1 7abc
00000070: f1ed 713c aad3 4bbd 9136 a7bd a8bd 09bd
00000080: 9051 0a3c 5633 123d 07a8 24bc 4bde 8f3d
00000090: db96 41bd ed37 f13c 0d8d bfbc 3c8b 873d
000000a0: d8ce c3bc 948d 073c 0320 b03d 5683 353d
000000b0: 88f6 dd3c 47c4 283d b223 16bd eed0 873d
000000c0: 39e9 a3bc 17e6 f93c 6806 3f3c 4579 063e
000000d0: 5c94 70bd f8dd de3c d768 f8bc b2f1 bb3d
000000e0: 3c12 1abc 5401 9e3d f143 813d fa2f 04bd
000000f0: c464 fe3c 8298 bbbd c0c0 05bb 1c12 283d
00000100: fc5e 48bd d45b 2a3c d583 dd3c 5b05 83bc
00000110: 3581 cebb cc34 a7bc 3cd0 1cbc 2570 393d
00000120: b563 a23c 184e edbc 48c5 a5bc ee0c 56bd
00000130: 358a f53b 9179 2bbc 799d 203b 677e 503c
00000140: 779b dcbc 89c5 8e3c 2c67 e8bc 957b 6f3c
00000150: e97b 9a3d 88bd efbd cac8 f73c 9533 08bd
00000160: 463c 113d 5b85 c1bc 601d 273d b755 f1bd
00000170: 1924 d8bc 19ab 973d e3c9 0fbc 215f 82bc
00000180: 93ed edbb 63ef 283d 890a bdba f943 1ebd
00000190: 2579 463d f6bb 96bd 07ce 93bc 17b4 9abd
000001a0: 823b f03a 785a 203c 710a 9fbd ab39 993d
000001b0: ab22 efbc 49fa 2ebc 7d76 f23c 9589 883d
000001c0: 515f 9838 fea3 a0bb 9e20 86bd 2e5a a0bd
000001d0: 4db0 0abc 6be6 a8bc d80a 6c3c 327f 3d3d
000001e0: 6389 a33c c039 69bd b89f 793d 844e 96bc
000001f0: 317f 0bbd 1f07 03bd 24ea 8ebd d494 0a3d
00000200: b684 0dbd fee4 a1bd e242 6fbc 2027 3e3b
00000210: 5ea5 d0bc 7c77 7b3d 29d4 6b3c 692f 9f3b
00000220: 2cb1 cabc 217b a93d d11a 9b3d 97c4 2bbd
00000230: 76fc 843d 295d 84bd 6836 3b3c 4931 bc3c
00000240: 614c 8f3d 1119 1ebd d25a c93c 8d18 233d
00000250: 9938 453b 506a df3c 47e1 b43a cbe3 9cbd
00000260: c188 6b3c 6db3 d0bd 118e f03d f215 edbc
00000270: 230b 7bbd bc17 acbd 18f4 133e 85cc 3bbc
00000280: a28d d3bc 5416 a4bd b566 2a3d 3f7d 2ebb
00000290: 1668 22bd 180e fdbc 2ade a6bc 68f3 23bc
000002a0: 9af6 80bd f102 633d 7019 523d b867 bd3c
000002b0: 5eb3 c0bd be33 88bd faf8 8bba a64c 6bbd
000002c0: 060e 363d 871d 5c3b d112 0dbd 25f1 92be
000002d0: e3dd 6fbd e60c b73c 5f8d 8d3d 371a eb3c
000002e0: 1bd6 9a3d 5770 82bd d1d6 333c 3b38 3c3e
000002f0: 0cfd ae3d 99d7 98bd e162 73bd 1506 52bd
00000300: ab18 59bd 2d18 43bc b57d 333d 2ab4 103d
00000310: f765 703d 88e8 8c3d c7ad 2dbd 666d 88bd
00000320: 7374 84bc fad9 5dbd 20e5 0ebb 9130 b13d
00000330: c709 5c3c 7528 88bd 9dda 193c 6320 dfbc
00000340: 79d5 59bd 66dd 4fbd 89d5 bdbd 7cfc b13c
00000350: 7e84 8fbd 058d 933d d05c 1abd 69fa be3c
00000360: a776 533d 64ed 183e d752 0fbd 37c2 8a3d
00000370: aa24 483e f3d9 823d e5bc fbbc fe59 0e3d
00000380: 5b2a 983a 726f 09bd cbe5 063d d366 9dbc
00000390: 51c8 63bd 7c75 8b3d dc56 b7bd 16cf 7e3d
000003a0: e3db 133d cffe d53c 58ec 98bd 4335 fcbc
000003b0: c7b3 15bc 8505 c4bc 16ec 7f3d 9ab3 7b3b
000003c0: 698d 5cbb 16a4 59bd a58f 903c a4b5 e2bc
000003d0: 51d6 3d3d dbe5 a73d d63e bbbd fab1 92bd
000003e0: a193 bb39 ec86 8d3c 4765 c5bb 491a 61bc
000003f0: 14b8 5fbb c078 613d 49f1 153d 3ccb 0dbd

adv.bias f4 [12]
0.11746527 -0.10972989 0.062559426 -0.06836519 0.102467954 -0.062024646 -0.020122565 -0.03156817
0.20864803 0.06700515 -0.017044537 -0.19150132
00000000: a291 f03d 11ba e0bd 281f 803d 0c03 8cbd
00000010: b8da d13d 8e0d 7ebd 14d8 a4bc a04d 01bd
00000020: d4a7 553e ff39 893d fca0 8bbc ec18 44be
