DDQN/voidResults/3cyl_2000epDecay/Qtarget2400.pt (torch, 85935 bytes, 7 tensors)

fc.weight f4 [128, 19]
000000 e1 b1 8b 3e 0a f9 fb 3d ec 23 a3 be f6 5b a3 3e
       0.27284148 0.1230336 -0.31863344 0.31906098
000010 70 1b 1b 3f 6b db fb 3d f6 48 52 bc 5c 40 6c 3e
       0.6058874 0.1229771 -0.012834778 0.23071426
000020 28 2d 3e be e9 38 a4 bd 41 fc 71 be 96 55 f4 bb
       -0.18571913 -0.08018667 -0.23631383 -0.0074564917
000030 a6 95 1b 3e 80 55 25 3e c8 d9 13 3e fb 09 63 be
       0.15193805 0.16145897 0.14438546 -0.22171776
000040 61 89 7e be 1f 0d 3a 3e e4 3c 0c be 1e f0 00 3e
       -0.24857093 0.18169068 -0.13695103 0.12591597
000050 c1 f7 57 bf 06 0c 37 3d 79 d0 36 3f 63 2b 52 3d
       -0.8436242 0.0446892 0.71411854 0.051310908
000060 6f a5 68 3e da f6 44 3e 8f 65 a3 3e 45 4d c6 3e
       0.22719358 0.19234791 0.3191342 0.38730827
000070 cc a5 be 3d e4 a8 dc 3d 82 79 1d bd e7 81 2a be
       0.09308967 0.10774401 -0.038445957 -0.16651116
000080 d7 30 ab be 5a bd 9b be ed 7b 2f be 5d ff 62 be
       -0.334357 -0.304179 -0.17137118 -0.22167726
000090 b9 ae fe bb 03 9c 16 3e f9 be e9 be 88 c3 9d 3e
       -0.0077722934 0.14707951 -0.45653513 0.3081324
0000a0 57 3c 14 bf 20 ce 8f 3e e2 d9 66 bf 06 89 ca 3e
       -0.5790457 0.28086948 -0.9017621 0.39557666
0000b0 cb 02 34 bd 10 34 64 bd 47 0a 31 be 19 72 85 bd
       -0.043947976 -0.055713713 -0.17289077 -0.06515903
0000c0 3a 7e 5e bd 87 91 fa bd 46 f1 af 3d de d8 d3 3c
       -0.054319598 -0.122347884 0.08590941 0.025860246
0000d0 7f c0 4d be 90 2a 04 3e 94 27 ba bd a4 a8 94 be
       -0.20092963 0.12906861 -0.0908958 -0.29034913
0000e0 37 bf 44 3a 60 8b 17 bc e4 36 2f 3d 27 9a 50 3e
       0.00075053 -0.009249538 0.042776957 0.20371304
0000f0 8c 18 9d bd d8 6b b2 3c 96 ad 29 be cc e3 4d 3d
       -0.076706976 0.02177994 -0.16570124 0.050266072
000100 8a 1b 11 be 48 c4 80 bc f2 b9 5e be b6 ff 17 be
       -0.14170662 -0.015718594 -0.2175062 -0.1484364
000110 b5 f5 26 3e da a7 bf bd e2 cc 0a be aa b6 98 bd
       0.16304667 -0.09358187 -0.13554719 -0.074567154
000120 02 e5 b2 3d 9d 4a 58 3e ca 94 33 be 36 67 4e be
       0.08735086 0.21122213 -0.17537227 -0.2015656
000130 2b 9d f8 3e b2 2d 6a 3e ef 48 d4 3e d6 10 4b 3f
       0.4855741 0.22868994 0.41461894 0.79322565
000140 a0 cf b9 be 53 99 98 bf de c7 98 3d a6 ae 22 3e
       -0.36291218 -1.1921791 0.07459997 0.15886936
000150 63 9f 84 be ce c2 e2 bd f2 ad 31 3e 6c e4 ba 3d
       -0.25902852 -0.11072312 0.17351511 0.09125599
000160 81 66 a7 b9 ce 66 8c bc 05 5a 2c be 0a 84 18 bc
       -0.00031929094 -0.017138865 -0.16831215 -0.009308824
000170 71 d2 9e 3e e7 6f 10 3e e9 69 86 be 94 7c 26 bc
       0.3101993 0.14105187 -0.26252678 -0.010161538
000180 25 15 69 bf 22 f1 1f be ec a2 1f 3e 7c a7 ad be
       -0.9104789 -0.15619329 0.15589494 -0.33916843
000190 20 ed 36 3f 47 9d 8f 3e 14 03 9d 3e c4 e2 97 3e
       0.71455574 0.2804968 0.3066641 0.29665196
0001a0 46 5c 40 3d e5 f7 47 be 21 76 91 bd 95 aa 60 be
       0.046963 -0.19528158 -0.071026094 -0.21940072
0001b0 8e 04 1c 3e 12 8c 45 bd 51 a2 e9 bc 78 12 87 be
       0.15236112 -0.048229285 -0.028519781 -0.26381278
0001c0 bd 8d be bc 8f 46 9e be a0 ff 45 3c e5 42 f0 be
       -0.023260945 -0.30913207 0.0120848715 -0.46926036
0001d0 34 91 6c 3f b6 e7 c0 be 87 e9 fd 3d f0 ff 11 bf
       0.9240906 -0.3767678 0.123980574 -0.57031155
0001e0 68 f7 f5 3d de 81 f0 bd c8 72 e2 3d 04 dc e3 3d
       0.120100796 -0.1174352 0.11057049 0.11125949
0001f0 3e 6e 92 3d 35 f3 c8 bc 29 1f b2 bd 8c 9f 07 be
       0.07149933 -0.024530033 -0.086973496 -0.13244456
000200 fb 93 2c be e9 67 13 3e 97 f7 0d 3e 72 b5 84 3d
       -0.16853325 0.14395107 0.1386398 0.064799204
000210 25 ab 87 be a2 99 c9 bd 08 04 79 bd 30 3b 7e 3c
       -0.2649776 -0.09843756 -0.06079486 0.015517041
000220 24 26 c8 bd 09 5b 4e be 59 0d 64 3e d0 6a 72 3c
       -0.097729 -0.20151915 0.22270717 0.014795974
000230 f0 8c 2f be 5b 88 1d 3e da 94 a0 3d 03 30 2a be
       -0.17143607 0.15384047 0.07840891 -0.16619878
000240 b2 7c 14 be fa 47 d3 3d 59 0d 5c be fa 4d 54 be
       -0.14500692 0.10316463 -0.21489467 -0.2073287
000250 f2 04 ac 3d e6 3e 61 be b0 a1 5c be d2 e1 d2 3d
       0.08399381 -0.2199665 -0.21546054 0.10296978
000260 e2 e6 5d be 74 47 48 be 1f 37 31 3e 90 50 14 be
       -0.21670106 -0.19558507 0.17306183 -0.14483857
000270 38 b2 b3 3c 38 fe f2 3c 6e 88 2d be fb 8f 1e be
       0.021935567 0.029662237 -0.16946575 -0.15484612
000280 92 43 08 be c0 5e 72 3b 87 05 52 be 8d 74 f5 bd
       -0.13307026 0.0036982745 -0.20509921 -0.11985121
000290 f6 aa d6 bd 7b d3 20 3e dc 34 0b 3d c0 b3 72 bc
       -0.10481827 0.15705673 0.033985958 -0.014813364
0002a0 56 60 2f be 85 54 57 be 84 a1 5f bd 17 8f 2d be
       -0.17126593 -0.21028335 -0.054597393 -0.16949116
0002b0 cd 7d 8f bf 83 e6 a7 bd bc 44 27 3f 82 a5 aa bc
       -1.1210266 -0.081982635 0.65339255 -0.020830873
0002c0 9c 86 f9 3e ef 80 03 3f c7 21 fe 3e 26 38 cc 3e
       0.4873551 0.5136861 0.49635145 0.39886588
0002d0 03 cf 9c 3e 60 bf 25 3e ea 43 c2 bc f8 1d 92 be
       0.30626687 0.16186285 -0.023714025 -0.2853849
0002e0 df fc bd be 7a 72 bd be 43 48 c2 be 5a ab b5 be
       -0.37106988 -0.370014 -0.37945756 -0.35482293
0002f0 c4 2d bb 3d 31 00 61 bd da f1 0c 3d 7a 93 96 3e
       0.091395885 -0.054931823 0.034410335 0.2940939
000300 e4 32 ed bd 64 ef 37 bf 99 15 6d 3d 74 9c d3 3e
       -0.11581972 -0.71849656 0.057881925 0.41330302
000310 dc b4 90 be 7f 69 36 3c a4 99 5b be f0 40 ce 3c
       -0.28262985 0.011133551 -0.21445328 0.025177449
000320 a2 c2 49 be bf 2a 1f 3e 65 57 30 be 81 d4 26 3d
       -0.19703153 0.1554365 -0.17220838 0.040730003
000330 c1 de d3 3d 01 c0 2f 3e 51 05 01 bd 49 94 f8 3d
       0.10345221 0.17163087 -0.03149921 0.12137658
000340 d9 dd 83 bc eb 0c bd 3c f4 aa 50 3e cc d6 a9 3e
       -0.016096996 0.023077449 0.20377713 0.3317169
000350 8f ab 99 bf 77 53 90 be d7 99 4f 3f 92 a5 07 3d
       -1.200548 -0.2818868 0.81094116 0.033116885
000360 80 2a 34 bd e8 ef 63 be 0e 44 e5 bd 86 ff 97 3d
       -0.043985844 -0.22259486 -0.11194621 0.07421784
000370 76 8a 2d 3e 6d 94 46 3d 20 dd 9b 3c ce 0b 27 bd
       0.1694735 0.048481394 0.019026339 -0.040782742
000380 f2 fa fa 3d 36 ba 3f 3e ec a6 27 3c 9b bc 6e bd
       0.12254895 0.18723378 0.010232668 -0.058285337
000390 58 98 1e 3e a2 08 12 bd 0f 61 34 3f 3e ed a4 bf
       0.15487802 -0.035652764 0.704606 -1.28849
0003a0 54 d7 f4 be f8 1b 85 3f f5 cc 0d be f4 ce 8d be
       -0.47820532 1.039916 -0.13847716 -0.27696955
0003b0 ae 7e 2e 3e 12 df 03 bd ae 3d 02 be 35 ac 5b bc
       0.17040512 -0.03219516 -0.12718841 -0.013407757
0003c0 8d 2e 81 3d 5f 8d 80 3e 33 ee 43 3e 88 fe 93 3e
       0.06307707 0.25107858 0.19133835 0.2890513
0003d0 87 50 37 3e f7 3c ff bd 9c 66 74 be 3a cd 57 bf
       0.17901812 -0.124628 -0.23867267 -0.84297526
0003e0 f5 04 4b 3e 3c bc e5 3e a2 b0 23 3e 3e 48 1c 3f
       0.1982611 0.44870174 0.15985349 0.6104773
0003f0 11 42 aa 3e 3f 46 8b 3d bc 0b fb 3d 51 a0 30 be
       0.3325353 0.06800508 0.122580975 -0.17248656

fc.bias f4 [128]
000000 25 72 24 bc 75 c4 35 be 12 98 a4 3e d2 17 4d be
       -0.01003698 -0.17750724 0.3214727 -0.20028618
000010 b6 fa 42 3f 4a 64 0d 3f 3d b1 52 3f be ba dc 3d
       0.76163805 0.55231154 0.82301694 0.10777806
000020 79 ef 27 3e 06 8f 40 3f 50 9e c3 bd 8b 4f 26 3f
       0.16399945 0.75218236 -0.0955168 0.6496512
000030 00 50 4d 3f 5f c4 3a 3e 36 26 37 be 7f 81 39 3e
       0.80200195 0.18238972 -0.1788567 0.18115805
000040 74 8e 51 be 7b 57 3d 3e 57 d4 4d be 9d ad 51 3e
       -0.20464498 0.18490402 -0.20100532 0.20476384
000050 14 bc 58 3e bd 94 48 3e b0 3a 0b bd 88 72 81 3c
       0.21165496 0.19587989 -0.033991516 0.015801683
000060 c6 c1 35 40 5e b5 64 be 94 72 33 be 24 67 fe 3d
       2.839952 -0.22334811 -0.17524177 0.12422016
000070 b9 d7 4e be 23 8f ab 3d de d1 21 3e 37 e6 5b 3f
       -0.20199479 0.083769105 0.15802714 0.85898155
000080 b1 59 f8 3f 40 29 5d be 06 5d b8 bd 9f 19 f0 3e
       1.9402372 -0.21597767 -0.09002118 0.46894547
000090 fd 20 ae 3f bc 32 80 bd 5f e8 58 3e dd c4 d8 3e
       1.3603817 -0.06259677 0.21182393 0.42337695
0000a0 33 0c 54 be a1 b6 4c 40 fa 52 fa 3d 2e c2 8e bd
       -0.20707779 3.1986468 0.12222858 -0.069706306
0000b0 39 da 0d 3f 38 23 9c bd a7 ad 85 3f 6b 4d 05 40
       0.55411106 -0.07623905 1.044362 2.0828502
0000c0 09 71 68 be 3f eb ba bc 75 a6 49 3e fd 3e 02 3f
       -0.2269937 -0.022817252 0.19692405 0.5087736
0000d0 8a f2 4e 40 27 27 f8 3e a6 3f da 3f 2b 39 59 be
       3.2335534 0.4846737 1.7050674 -0.21213214
0000e0 7e d2 fb 3d cc 2f 34 be d6 fc 90 3f ce 19 c1 bd
       0.122960076 -0.17596358 1.132716 -0.0942875
0000f0 ee c8 80 3d c6 f8 fa 3f d7 b6 64 3f 78 0f 06 40
       0.06288324 1.960717 0.8934149 2.0946941
000100 e6 0b 90 be 58 1e 0e be 82 48 f1 bd 5b ab 0b 3e
       -0.28134078 -0.13878763 -0.11781408 0.13639586
000110 e6 9e 3c be 3f 2a 89 3f 94 0c 4e 3f 5c d0 29 3d
       -0.1841999 1.0716017 0.8048794 0.041458473
000120 fa 58 b9 bd 71 0f 76 3f 94 ce ea 3f 71 45 ba bd
       -0.09050174 0.9611731 1.8344293 -0.09095276
000130 87 ff 81 3f a5 c4 aa 3f e0 36 73 bc 6e b6 b6 3d
       1.0156106 1.3341261 -0.014844626 0.089215145
000140 06 ff 11 3f 7c b6 92 bd ee 39 1f 3f 40 b7 a8 bd
       0.5702976 -0.071637124 0.6219777 -0.08238077
000150 ea aa a8 3e 43 d4 12 3e d1 a3 8e 3f 8b 83 ae 3d
       0.32942897 0.14338784 1.1143743 0.085211836
000160 73 cd 6c be c7 c1 5c be e6 94 0b 3f bc a8 40 be
       -0.23125248 -0.21558295 0.54524076 -0.18814367
000170 14 b0 c5 3f bd 31 df bd 68 4f 99 be ea 60 c5 3d
       1.544436 -0.10898159 -0.29943395 0.096376255
000180 01 14 08 be c8 4b 30 be 8b ed 16 3c 6e fd b9 3e
       -0.13288881 -0.17216408 0.009211908 0.36326164
000190 2e 3f b5 3f 81 99 d8 3d bb 0e 2e 3e 74 51 5e 3f
       1.4159906 0.105761535 0.16997807 0.8684304
0001a0 6c a4 ab 3d 64 2b 84 bd 2d 3f 55 3e aa 5e 93 3d
       0.0838097 -0.064535886 0.20824881 0.0719579
0001b0 88 6b a6 bd cf de b8 3e 3d 56 37 3e b1 c2 04 3f
       -0.08125979 0.3610749 0.17903991 0.51859576
0001c0 e6 6e a2 3e d6 05 c5 3d bc 76 76 3d 5a 65 57 3e
       0.31725234 0.09620254 0.060171828 0.21034756
0001d0 03 65 9f 3f 1c 7c 61 be 8a 6a 1b be b0 11 01 3c
       1.2452701 -0.2202 -0.1517736 0.007877752
0001e0 9d 95 b1 3f cf 99 05 3f 33 08 6a be 74 69 47 be
       1.3873783 0.5218782 -0.2285469 -0.19473821
0001f0 bb 55 07 3f e4 7b f6 3f c9 b8 ed 3f 57 15 d6 3f
       0.5286519 1.9256558 1.8572017 1.6725262

hidden.0.weight f4 [128, 128]
000000 7f 21 7d 3c 65 20 8f 3d 55 84 34 bd 06 9a 7b bd
       0.015449881 0.06988601 -0.044071514 -0.061426185
000010 da a5 d4 3d f1 23 17 bc e8 1d 8b 3b 6b ba 81 3d
       0.10383196 -0.009224878 0.0042455085 0.063343845
000020 77 f1 8b bd dd d9 74 3a 70 83 f1 bc 39 f0 db 3b
       -0.06833165 0.00093403255 -0.02948162 0.0067119864
000030 97 79 d1 3b e3 9c ca bc e8 60 41 bc 34 5b d1 bc
       0.0063926685 -0.024733013 -0.011802889 -0.025556184
000040 16 ee 2d 3d fb 9a 5a bd 80 e5 38 3a 1f 5e 87 3d
       0.042463385 -0.053370457 0.0007053241 0.06609749
000050 7a 01 22 bd 4a 37 cc 3c 3e fb 65 3d f8 26 80 bd
       -0.03955219 0.024928708 0.056147806 -0.06257433
000060 7c 48 82 3d 3b 25 85 bd 2d 62 86 3d 07 7e 95 3d
       0.063614815 -0.06501242 0.06561694 0.072994284
000070 a0 3e e7 3b 74 a0 67 3d 96 76 6c 3c 4d cd 67 bd
       0.007057026 0.056549504 0.01443257 -0.056592274
000080 14 3a 34 bc ba ba b6 bd b6 a9 12 bd 63 63 59 3d
       -0.011000175 -0.08922334 -0.03580638 0.0530733
000090 60 48 37 3d b0 83 d5 bc 65 36 0e 3c 3e 78 4a 3d
       0.044746757 -0.02606377 0.008679961 0.049431078
0000a0 5d 17 01 3d bb 87 b9 3d b5 40 4b bd 7d 63 b4 3a
       0.03151642 0.09059092 -0.049622256 0.001376256
0000b0 01 59 f0 b9 29 50 14 3d ab 5e 88 bc 18 77 b2 bd
       -0.0004584268 0.03620926 -0.016646704 -0.087141216
0000c0 81 d5 22 bd 46 80 62 bd e7 b4 ee bc c2 5a 9d 3c
       -0.039754394 -0.055298112 -0.029138995 0.019208316
0000d0 ca ec 91 bd 59 c4 9d 3d 1e 6b 63 bd 0f e4 9c 3d
       -0.07125242 0.07703466 -0.055522077 0.07660686
0000e0 82 fe 1d 3d 4e ad 6b 3d e3 84 59 bc e7 4c 6e 3d
       0.038572796 0.057538323 -0.013276312 0.05817881
0000f0 48 9c 6c bc 25 5b 72 3c aa 9f a1 3d 3b 27 ba bc
       -0.014441557 0.014792238 0.07891782 -0.022723785
000100 2b 02 e7 bb 03 ac b7 bd d5 95 4f 3d 20 4e 4a 3c
       -0.007049819 -0.089683555 0.05068 0.012347728
000110 f2 c2 85 bd cc 9c 63 3a 96 f3 a2 3d ce 03 14 3d
       -0.065313235 0.00086827273 0.079566166 0.03613644
000120 8a 4a 92 3c a0 91 c5 bc e3 cd b3 3d c2 b8 b8 bc
       0.017857809 -0.024117291 0.08779504 -0.022549037
000130 75 77 84 3d 70 66 6a 3c 4b 7f ad bd 04 15 dc 3c
       0.06468097 0.01430665 -0.08471545 0.02686549
000140 f6 e4 e4 3d bb cc a1 38 77 77 da 3c 35 3d 83 3d
       0.11176483 7.715212e-05 0.026668293 0.06408159
000150 d1 0f b6 3c a0 ed 44 bc 0d 60 a4 bd 49 ec 8d bd
       0.022224339 -0.012019545 -0.08026133 -0.069298334
000160 2f 27 44 bc aa c9 58 3d 50 ae 8c 3d 03 50 a0 bd
       -0.011972233 0.052926697 0.06869185 -0.07827761
000170 93 d3 e4 3d e5 79 94 bd c5 4c 8d bc 26 bb 29 bd
       0.11173167 -0.07249812 -0.01724852 -0.041438244
000180 f6 08 33 bd 8e 87 8f bd ae b0 7d bd 25 5d a6 ba
       -0.043709718 -0.07008277 -0.061936073 -0.0012692554
000190 b2 21 88 3d 12 f1 91 3c a0 81 42 3b d5 6f 11 3d
       0.06647052 0.017815147 0.0029679313 0.035507042
0001a0 e0 26 c8 bb 43 5c 85 3d 92 d9 44 3d f8 fc 6e bd
       -0.00610815 0.06511738 0.048059054 -0.05834672
0001b0 be 45 08 3d 3c 43 86 3d 24 cd a2 3c dd ac d0 3c
       0.033269636 0.06555793 0.01987321 0.025473053
0001c0 6e 99 e5 bc 08 0b 5e 3c dd a6 8c bd bf 4a 1e bd
       -0.028027263 0.013552435 -0.06867764 -0.038645502
0001d0 3a 36 65 bd 00 7e b3 bc ae 67 05 3d 78 7d 9a bc
       -0.055959918 -0.021910667 0.03256958 -0.018858656
0001e0 5b e2 d9 3c 98 a6 7b bd 0b b2 9f 3d 80 7e a7 3b
       0.026597193 -0.061438173 0.07797631 0.0051115155
0001f0 16 06 07 3e ef ad 20 bd ba c6 17 3d 1b 4b 97 3c
       0.13185915 -0.039228376 0.037054755 0.01846843
000200 34 bb ad bd 76 ad c7 3b b1 85 ad 3d e9 f5 b2 bd
       -0.08482972 0.006093676 0.08472765 -0.0873831
000210 c3 d0 a2 bd c2 b7 ba bd 44 19 56 3d 5f fe b2 bd
       -0.079499744 -0.0911708 0.05227019 -0.08739924
000220 28 07 59 bc 0f 60 1a 3d 3c 5a 00 3d fa f3 b4 bc
       -0.013246335 0.037689265 0.031336054 -0.022088993
000230 f3 0f 60 3c a6 82 6e bb 8a 5a 7d 3d a0 a5 6d bc
       0.013675678 -0.003639379 0.061853923 -0.01450482
000240 e8 bd 26 bc 3e 17 10 bd 14 e0 99 bd f5 a2 9e 3d
       -0.010177113 -0.035178415 -0.07513443 0.07745925
000250 ae dc 26 3d 35 59 4c bd 0e f7 83 bd f6 21 58 3d
       0.0407378 -0.049889762 -0.06443606 0.052766763
000260 ab 7f d0 bc 4a a8 8a bd 50 d9 a6 bc 31 b3 0c bd
       -0.025451502 -0.0677038 -0.020367295 -0.034350578
000270 38 34 b5 bc c7 b8 85 3d 5e 7d 1d 3d 44 7f bb 3c
       -0.022119626 0.06529384 0.038449638 0.022887833
000280 8b b4 a9 bc 4f ed 83 3b 55 13 81 bd e3 a0 99 3d
       -0.020715972 0.004026092 -0.063025154 0.0750139
000290 25 3e a8 bd 0e 9b 3c 3d aa a9 94 bd 6d 71 b1 bd
       -0.08214978 0.04604631 -0.07258923 -0.086642124
0002a0 ef 8e ae bd 4d 6e 2c 3d 70 5f dd bb 0e c9 17 3d
       -0.08523356 0.04209738 -0.006755762 0.037056975
0002b0 c9 f4 81 3d 98 00 5d 3c eb 21 a2 bd aa 27 89 bb
       0.06345517 0.013488911 -0.079166256 -0.0041856365
0002c0 c4 56 7a bd a6 6c ed 3b 60 27 f0 bc 99 60 c6 3d
       -0.061117902 0.007245618 -0.02931565 0.09686393
0002d0 a6 76 cf bd b4 88 7e 3d dd 9a 57 bc 15 bb 98 bd
       -0.10130052 0.06214209 -0.013159481 -0.07457558
0002e0 be a2 96 bd 7e 56 4b bd d9 e2 7f 3d 68 f9 98 bd
       -0.07355259 -0.049643032 0.0624722 -0.074694455
0002f0 ab 8b 1b bd ba ca 1d bc 43 d1 24 bd 92 22 9d bd
       -0.037974995 -0.009630853 -0.04023863 -0.076726094
000300 06 8b 40 3d 91 7c 9c bb b8 5a 49 3d c7 67 a8 3d
       0.047007583 -0.0047755917 0.04915878 0.08222919
000310 3f 0f 4c bd 6d 2a 8b bd b5 ae 6d bd 58 d8 53 bc
       -0.049819227 -0.067952015 -0.05802794 -0.012929998
000320 68 99 51 bd 09 ad b6 3d d4 df 7b ba f2 f9 76 3d
       -0.05117169 0.089197226 -0.0009608243 0.06029696
000330 33 c5 52 3d 3e bb 8c bd 36 e7 e2 bc de e2 01 bd
       0.051457595 -0.06871651 -0.02769814 -0.031710498
000340 c0 6f b9 3d 7d 06 fa bc b9 e9 0c bd d4 a2 83 3c
       0.09054518 -0.030520672 -0.034402583 0.016068853
000350 6a 09 45 3b 87 99 85 3d c6 5c 13 3d 7e 2f 31 3d
       0.0030065426 0.06523424 0.035977148 0.043258183
000360 74 87 38 bd de 54 35 3d ee 92 e9 bc 34 4b fa 3c
       -0.045051053 0.04427039 -0.028512444 0.030553438
000370 24 4f ea 3c bc fc 5f bd c9 7c ca bb 58 46 2f 3c
       0.02860219 -0.054684386 -0.0061794263 0.010697924
000380 2f 19 82 bd ca 31 9b bd 11 21 1a bd aa 52 2a bd
       -0.0635246 -0.07577856 -0.03762919 -0.04158274
000390 35 fd 3d bd a7 78 4c 3d b6 1a 54 3d ce e4 d8 bc
       -0.046384055 0.04991975 0.051783286 -0.02647629
0003a0 70 3f 00 bb 90 12 be 3c 78 b8 ac bc 67 be 87 3d
       -0.0019569062 0.02320221 -0.021084055 0.06628113
0003b0 b3 f1 56 bd f5 0a 8c 3d 1a 97 57 3d 60 af 6b bd
       -0.052476596 0.068380274 0.052634336 -0.057540298
0003c0 85 dc 82 bd b4 65 c3 bc 44 ac 31 bd 9f f5 97 bd
       -0.06389717 -0.023852207 -0.043377176 -0.074198954
0003d0 35 ed 8a bc 8e a1 71 3d 38 d4 72 bc b7 63 a7 bd
       -0.016958812 0.05899196 -0.014821105 -0.08173316
0003e0 96 54 bb 3c 1a bd 53 bd 70 59 45 bc ac dd e9 3c
       0.022867482 -0.051694013 -0.012045249 0.028548084
0003f0 25 61 75 3d c5 7f 31 bd 7b a5 8c 3d 9c fa 95 3d
       0.059907097 -0.04333474 0.068675004 0.073231906

hidden.0.bias f4 [128]
000000 27 c4 71 3f 75 a8 59 3d d5 00 33 bf 10 50 a3 bd
       0.9443993 0.05313917 -0.69923145 -0.07974255
000010 3e 10 02 40 61 2e 26 40 7c 7e c8 3f f5 50 33 3f
       2.0322413 2.5965807 1.56636 0.70045406
000020 f0 7a 33 bc dd 85 78 3d 96 a6 64 3d 31 3b 96 bd
       -0.010954604 0.060674537 0.05582293 -0.073355086
000030 c7 01 23 bd 5c 61 10 3d e2 2d 24 3d 5a 60 13 bf
       -0.039796617 0.0352491 0.04008282 -0.57568896
000040 fa 80 71 bd 0f 75 a4 bd 05 d7 2d 3f b7 e5 06 3f
       -0.058960892 -0.0803014 0.6790622 0.5269427
000050 1f 5c 9e bd a6 cd 44 3d 55 3e a2 3d 8d 2e af 3d
       -0.077324145 0.048047684 0.07922045 0.08553801
000060 98 60 4a 3e 09 5e 1f 3e 3b 60 ee 3d 72 79 a8 3f
       0.1976341 0.15563215 0.11639448 1.3162062
000070 7c 8e 18 40 8f a9 c1 be 93 23 94 3f 56 72 69 3f
       2.3836966 -0.37824675 1.1573356 0.9119009
000080 55 c4 30 3f 2f bd fa 3c 6a e6 cf 3f 21 b0 9b bd
       0.6904958 0.030607788 1.6242192 -0.07601953
000090 1d 88 9b bc 8e c6 b4 3f c3 d0 c4 3d b5 d4 66 3d
       -0.018985802 1.4123094 0.09610131 0.056355197
0000a0 86 6d 92 bc 0e 7b 6a 3f a8 30 74 bd 58 19 25 40
       -0.01787449 0.91594017 -0.059616715 2.5796719
0000b0 c3 6f 08 bf 1d d6 37 bf 60 1f a1 3d dc 5e 69 bd
       -0.53295535 -0.71811086 0.078673124 -0.05697523
0000c0 90 d6 31 3f 5e e1 a9 3f e4 1b 4d bd 17 65 9a bd
       0.6946802 1.3271902 -0.050075427 -0.075388126
0000d0 8b ab 99 3e 4d 7c 6b 3f 92 0e 81 3f 35 2c ae 3e
       0.3001369 0.9198654 1.0082572 0.34018102
0000e0 02 e2 b5 3c 24 61 96 3d c6 1f 8d 3c 15 87 a5 be
       0.022202495 0.07342747 0.017227065 -0.32329622
0000f0 24 4d 48 3f 9f ed 03 3f a9 a5 33 bd a2 d4 00 3f
       0.7824271 0.51534456 -0.043859158 0.5032445
000100 f4 e2 41 3f 7c 63 eb 3f 0f 88 ad 3f c9 24 e3 3f
       0.7573693 1.8389735 1.3557147 1.7745601
000110 8f ed 25 be 78 52 88 bd e7 83 5c bd a0 e4 35 3c
       -0.16203903 -0.06656355 -0.05383673 0.011101872
000120 ba 14 8a 3f 42 2c f0 3f 60 02 57 bd 64 98 e7 3f
       1.0787575 1.8763506 -0.0524925 1.8093381
000130 3a 86 0f 40 d0 fd 7f bc 37 a6 97 3f 76 ca 70 3f
       2.2425675 -0.015624478 1.18476 0.9405893
000140 3d f7 34 3f ff 2a 58 40 9e 49 22 be 78 eb a1 3f
       0.70689756 3.3776243 -0.15848395 1.2649984
000150 91 fe c4 3d 2a 76 25 3d 3d cc 80 3e 4d 9e bd bd
       0.09618867 0.040395893 0.2515582 -0.09258709
000160 b8 1d 37 bf 93 aa dd be 3e 94 99 3f ad ac 41 3d
       -0.7152972 -0.432942 1.1998365 0.047283817
000170 20 03 36 be 13 63 7c bd 5b af cf 3c b7 ff 55 3c
       -0.1777463 -0.061617922 0.02535217 0.013061455
000180 b9 31 97 3f 04 0c 26 be 1e 88 9e 3f b7 15 b1 bd
       1.1812049 -0.16215521 1.238529 -0.0864672
000190 3d 22 90 bd fc 9c 97 3d 72 20 cf 3d 9a 94 12 3d
       -0.070377804 0.07402989 0.1011361 0.03578625
0001a0 3f 2f 52 3f 20 ac 8f 3f af b0 b0 3c e7 41 b4 3d
       0.8210334 1.1224403 0.021568624 0.088016324
0001b0 a0 5a 18 3f 8e 66 de 3f ef 4d 56 3b 68 ee 09 3d
       0.5951328 1.7375047 0.003270026 0.033674628
0001c0 5d 6c 9f 40 53 db 22 40 43 78 91 bd 18 ab ac bd
       4.981978 2.5446365 -0.07103016 -0.08431071
0001d0 ea b6 ab bd af b8 72 bd cb a4 ea 3f a8 e7 32 3d
       -0.083844975 -0.05925816 1.8331541 0.043677956
0001e0 1d f5 03 40 94 30 07 bd 9a 96 d9 3d f4 f1 08 bf
       2.0618355 -0.033005312 0.10624428 -0.5349419
0001f0 87 cd 15 3f 60 b9 b9 3f c8 cc 09 bd 82 55 fa 3c
       0.58516735 1.4509697 -0.03364256 0.030558351

v.weight f4 [1, 128]
000000 c7 8e 2b be c8 5a 21 be 77 6a 7c 3e 25 3c a8 3d
       -0.16753684 -0.15757287 0.24649988 0.08214597
000010 c6 ff b4 be 44 0c e9 be ce 39 8a be 9b ad 04 be
       -0.3535139 -0.4551717 -0.26997226 -0.1295685
000020 9a 29 dc bb d6 ea 84 be 62 f0 4c 3d d4 13 79 3d
       -0.0067188265 -0.25960416 0.050033934 0.060809925
000030 27 4e b7 3c 04 04 28 bc 04 fe 2b 3d 9e b5 20 3f
       0.022376133 -0.010254864 0.041990295 0.62777126
000040 00 53 8f bd 20 72 5e 3c 74 b6 67 be 89 41 c8 bd
       -0.06998253 0.013577014 -0.22628194 -0.09778125
000050 e8 70 44 3c b4 30 5f bd 21 8b a3 bb 3a 7c 31 bc
       0.01198981 -0.054489806 -0.0049909507 -0.010832841
000060 2f e5 93 be 56 90 42 be 65 47 45 be 8c 09 5d be
       -0.2888579 -0.19000372 -0.19265516 -0.21585673
000070 87 f4 ce be 73 fe f4 3e df 7f 91 be cd 37 24 be
       -0.40420935 0.4785038 -0.2841787 -0.16036911
000080 46 bd ea bd 62 a9 80 3e d3 81 90 be 31 99 09 3b
       -0.11461882 0.2512923 -0.28224048 0.002099585
000090 b6 5e 40 3d 04 45 74 be 72 14 4c be 2e 74 f3 3d
       0.046965323 -0.23854452 -0.19929674 0.11887394
0000a0 99 48 6f 3c 31 1e 6a be 34 b5 a1 3d 9a a7 df be
       0.014604711 -0.2286308 0.0789589 -0.43682557
0000b0 42 f8 05 3f fe ac de 3e 8f 72 4d bc 2f a7 9c 3d
       0.52331936 0.43491358 -0.01253952 0.07649075
0000c0 ac ce 19 be 12 59 70 be d3 ad af 3d be 25 2a bf
       -0.15020245 -0.23471478 0.08578076 -0.6646384
0000d0 9e 25 8a be 1b 61 24 be 1c d0 8d be e4 c6 c1 bd
       -0.26981825 -0.16052668 -0.27697837 -0.094617635
0000e0 a3 f1 39 bd 6f 6a 5b bd 16 e2 38 3c ef 90 b6 3e
       -0.04539646 -0.0535683 0.011284372 0.3565745
0000f0 04 2f 0e be fa e3 1d be 60 19 fb bc b8 49 a1 bd
       -0.13885123 -0.15418997 -0.030651748 -0.07875389
000100 48 6b 44 be 65 3b a4 be 89 22 71 be 0c 29 a6 be
       -0.1918155 -0.32076564 -0.2354833 -0.3245319
000110 e7 8c 05 3f 8f bb 6d bd 8d 5b ad bd d8 19 23 3c
       0.52168125 -0.058040198 -0.084647276 0.009954892
000120 d1 7a 95 be 5b f4 a8 be 78 60 82 3c 74 9c a5 be
       -0.29195264 -0.32998928 0.01591514 -0.32345927
000130 e7 68 ca be 88 1a a4 3d 57 dd 58 be 0b 3e 70 be
       -0.3953316 0.08012873 -0.21178184 -0.23461168
000140 6c 1c 1e be 75 90 15 bf f2 22 ee be 2e 8a 64 be
       -0.1544053 -0.5842355 -0.46511036 -0.22318336
000150 49 dc fb bd e2 45 9e 3e ff f5 d5 bd cb 01 85 3e
       -0.122978754 0.3091269 -0.10447311 0.2597793
000160 31 f5 fc 3e 73 9a 8a 3d b4 ca 53 be 29 3a c1 3d
       0.49405816 0.0676774 -0.20682794 0.09434921
000170 f0 f2 1b be 44 53 b4 3d 73 c3 1e 3d 5a fa fa bd
       -0.15229392 0.08804944 0.038760614 -0.12254782
000180 e2 f1 58 be 82 f2 42 3f e8 97 5e be 96 e6 1b 3d
       -0.21186021 0.7615129 -0.21737635 0.0380617
000190 79 50 57 3c 0a 69 5c be 8b 8e f2 bd 1c 1c e7 3c
       0.013141745 -0.21524444 -0.11843594 0.028211646
0001a0 4f 0a 13 be 3f 06 4a be bc 53 b5 3d a1 f7 76 3d
       -0.14359401 -0.19728945 0.08853862 0.06029475
0001b0 fa 9d 41 be 96 d4 98 be 2f f0 02 be ea 03 08 be
       -0.1890792 -0.2984969 -0.12786935 -0.13282743
0001c0 6c 68 5c bf c1 e6 de be 1e f9 12 be b8 87 4b 3d
       -0.86096835 -0.43535426 -0.14352843 0.04968998
0001d0 97 ee 89 39 72 62 0c bd 6a 80 a1 be 73 b8 91 bd
       0.0002630844 -0.034273572 -0.31543285 -0.07115259
0001e0 45 5b b5 be a9 e7 6e bc fe 42 85 bd 50 2b b1 bd
       -0.35421196 -0.014581599 -0.06506918 -0.08650839
0001f0 f7 1a 05 be ad 63 82 be 7c 2c 5c bd a1 02 79 3e
       -0.12998568 -0.25466672 -0.05375336 0.24317409

adv.weight f4 [12, 128]
000000 0f 0b 20 3c df dd 2a 3d 49 c2 1c bc 9a 81 15 3d
       0.009768262 0.0417155 -0.009567806 0.03650055
000010 dc 77 0f bd ba 6a 5e 3d 29 b0 f9 3c c4 92 f3 bc
       -0.035026416 0.054301 0.030479508 -0.02973307
000020 70 3c 85 3d 1e 20 a0 bd c3 ab a7 bd d2 3c 55 3d
       0.06505668 -0.07818626 -0.08187058 0.052059956
000030 07 84 ca bc f0 bf a2 bd b8 3b 70 3d a6 9b 16 bd
       -0.024721159 -0.079467654 0.058650702 -0.03676953
000040 6e c6 2d bd 00 0c f9 b9 3f 87 0b 3d c1 9e d4 bc
       -0.042425565 -0.00047501922 0.034064528 -0.025954606
000050 2f 3b 8d 3d 99 f5 20 bd 14 a6 78 bd b4 9d d0 bc
       0.06896054 -0.03929672 -0.06070526 -0.025465824
000060 00 67 46 3d 4a 57 65 3d b8 6e 6a 3c 0d 6f a9 bb
       0.048438072 0.05599145 0.014308624 -0.005170709
000070 2e a9 07 3c 0e c2 90 bd 9d 72 80 bd af 12 ac 3c
       0.008280082 -0.07068263 -0.06271861 0.021005003
000080 63 b7 45 3c 79 f4 52 3d 97 86 95 3c 9a 15 86 3d
       0.012067649 0.05150268 0.018252654 0.06547089
000090 18 8a 41 bd 98 da f9 3c 95 aa 5c bc 82 50 88 3d
       -0.047250837 0.030499741 -0.013468404 0.06655981
0000a0 d1 cd c3 bc 8f 74 36 3d 88 27 b0 3d c4 7d 7a 3d
       -0.023901852 0.044544753 0.0860129 0.061155096
0000b0 be 2c d6 bc 4f b5 45 bd 7c b3 12 bd 78 55 99 3d
       -0.026144382 -0.048268612 -0.0358157 0.07487005
0000c0 6d 11 da bb 07 1d 99 bc 68 06 3f 3c b1 56 5d 3e
       -0.0066549093 -0.0186906 0.011659242 0.21615101
0000d0 13 31 96 bc f2 40 76 3d 1d 70 76 3c 10 9b c9 3d
       -0.018333947 0.06012053 0.015041378 0.09844029
0000e0 3c 12 1a bc 1e fd b0 3d 48 72 81 3d 61 a1 b0 bc
       -0.0094037615 0.08642028 0.063206255 -0.021561326
0000f0 92 9c d1 3c c7 37 b3 bd c0 c0 05 bb 9d 18 f7 3c
       0.025587354 -0.08750873 -0.0020409077 0.030163104
000100 79 df 18 bd b3 b8 a0 bb 1c 63 d1 ba 6b e1 b5 bb
       -0.037322495 -0.0049048304 -0.0015974971 -0.0055505536
000110 0e c6 08 bd c6 6c 3e bd 90 32 1d bc 4f b4 73 3d
       -0.033392005 -0.046490453 -0.009594575 0.059498128
000120 5d fe 8d 3b 20 72 3d bd ac b7 a5 bc 89 06 45 bd
       0.004333301 -0.046251416 -0.020229183 -0.048101936
000130 a1 0f af bc d5 3f 2b bc cb eb 83 bb a7 ef e7 3c
       -0.021369757 -0.01045223 -0.0040259114 0.028312517
000140 c5 82 04 ba 03 01 4c bc 55 3f 95 bd c7 23 96 bc
       -0.00050548866 -0.012451413 -0.0728747 -0.018327607
000150 bd ba a7 3d a8 14 f0 bd bf 20 67 3d 58 13 08 bd
       0.081899144 -0.1172269 0.056427713 -0.033221573
000160 61 3f ee bc ff 5f 11 3d 83 2b d5 3c b8 d5 d8 bd
       -0.029082956 0.03549194 0.026021725 -0.105876386
000170 be e8 f8 3c c7 84 87 3d 4a a9 0f bc ce fe 83 bc
       0.030384418 0.06617122 -0.008768389 -0.016112711
000180 85 6e a4 bb c9 a3 c3 3d 41 e1 a9 3c 09 92 1e bd
       -0.005018058 0.09552724 0.020737292 -0.03871349
000190 e9 67 46 3d 86 e5 b3 bd 12 66 8e bc 17 b4 9a bd
       0.04843894 -0.087840125 -0.017382655 -0.07553881
0001a0 2f 82 64 bc a5 ff 3e 3c 71 0a 9f bd 56 40 99 3d
       -0.013947054 0.01165763 -0.077656634 0.07482974
0001b0 2e ba 99 bc 88 ee 3f bc 7d 76 f2 3c 87 24 a5 3b
       -0.018765535 -0.011714585 0.029597515 0.005039755
0001c0 f8 0a 17 bc 1f cf 2c 3d eb b9 a4 bd 15 1e a0 bd
       -0.009218924 0.042189714 -0.080432735 -0.07818238
0001d0 9d bf 0a bc cf a9 84 bd 05 4c a8 3b f2 8c 3d 3d
       -0.008468536 -0.06477701 0.0051360154 0.046276994
0001e0 46 cf 26 3d 7c ec 68 bd d2 7d 67 3d ef e7 47 3d
       0.040725015 -0.056866154 0.056516476 0.048805173
0001f0 eb 1c f0 bc 29 98 b2 bb 1b dd 8e bd 88 bf 4e bc
       -0.029310664 -0.005450268 -0.06975766 -0.012618907
000200 5f 78 60 3c 00 e1 86 bd bf 6a 84 bd 20 27 3e 3b
       0.013700574 -0.06585884 -0.06465673 0.002901502
000210 15 b6 ed bc f9 0f 72 3d c2 a5 47 3b 32 62 d1 3c
       -0.029017488 0.059097264 0.003046379 0.025559518
000220 2c b1 ca bc 92 a3 25 3e d1 1a 9b 3d c6 06 2c bd
       -0.024742685 0.16175678 0.07573474 -0.041998647
000230 5e cd 84 3d 29 5d 84 bd 42 7a 3b 3c 03 fb eb 3d
       0.06484483 -0.064630814 0.011442723 0.11522486
000240 61 4c 8f 3d 11 19 1e bd 31 ce 13 3d ef af 70 bc
       0.0699699 -0.038598124 0.03608531 -0.014690383
000250 34 0a 45 3b 50 6a df 3c 47 e1 b4 3a 65 98 a2 bd
       0.0030065896 0.027272373 0.0013800048 -0.07939223
000260 e7 6a 3d bc 4c e0 c1 bd a4 c3 5d 3e e7 4c a6 bd
       -0.011561132 -0.09466609 0.21656662 -0.08120137
000270 71 8e ba bd d6 26 00 3d f5 e2 a8 3d 9f b2 1c 3b
       -0.091092 0.031287037 0.082464136 0.0023910177
000280 8c 6a 09 bd 06 9f a5 bd 22 e9 7b bb 6e 73 9a bb
       -0.033548877 -0.08086972 -0.0038438519 -0.0047134673
000290 0e 48 22 bd d8 74 81 bd 54 de 4b bd 61 49 35 bc
       -0.039619498 -0.06321114 -0.049772575 -0.011064858
0002a0 78 f6 80 bd 34 9c 25 3d 15 fc 51 3d ba 28 ab 3b
       -0.0629701 0.04043217 0.051265795 0.005223361
0002b0 97 ef bf bd c3 44 33 3d e7 99 e8 ba 4a 89 83 bd
       -0.0937187 0.04376675 -0.0017746062 -0.0642267
0002c0 38 9f 92 3d 8c bf 2a 3d d1 12 0d bd ab a8 12 be
       0.07159275 0.04168658 -0.034441773 -0.14322154
0002d0 55 29 7b bd e9 86 9d 3c 65 8b 0e 3c fd 67 67 3d
       -0.061318714 0.01922937 0.008700226 0.056495655
0002e0 1b d6 9a 3d dd 58 78 bd ad 0f 2f 3c f2 15 3b 3e
       0.075603686 -0.06063162 0.01068489 0.1827009
0002f0 bc 81 ae 3d a1 17 6b bd e1 62 73 bd f3 8e 12 bd
       0.085208386 -0.05739558 -0.05942047 -0.03578086
000300 9a e9 26 3b 87 d2 0d 39 c7 53 d5 3c 35 bd a0 3c
       0.0025468827 0.00013525235 0.026040925 0.019621471
000310 3c b9 a4 3c 35 bd 65 3d cd 49 2d bd 0e c6 8e bd
       0.020107858 0.056088645 -0.04230671 -0.0697137
000320 ab b0 dd 3c df b6 53 bc 7d 70 10 bb ff 3f 8a 3c
       0.02706178 -0.012922018 -0.0022039704 0.016876219
000330 cd 76 62 3d 7a 32 88 bd b0 46 1d 3d d3 7d 62 bd
       0.05528908 -0.06650253 0.03839749 -0.055295777
000340 00 a4 33 bd e7 45 80 ba bd d3 03 be 9a 39 c5 3c
       -0.043857574 -0.0009786458 -0.1287374 0.024075318
000350 1c f0 b1 bd fb 9a 93 3d d6 a2 ea bc 5f 4b bf 3c
       -0.08688375 0.072072946 -0.0286421 0.02335137
000360 78 d5 0a 3e fe 74 8a 3d fe 86 44 bc 79 bf 43 3e
       0.13557994 0.06760596 -0.011995075 0.1911601
000370 cd e4 00 3e 52 df 91 3d 17 b6 fb bc 1a 1d 11 3d
       0.1258728 0.07122673 -0.030726476 0.035428144
000380 b1 2f fa 3c 5c 31 a8 bc 44 c2 f6 bb 00 88 9c bc
       0.03054032 -0.020531349 -0.0075304825 -0.019107819
000390 8d cb 63 bd aa 0b 1b 3d 96 e5 1a be 16 cf 7e 3d
       -0.055614043 0.03785292 -0.15126643 0.06220921
0003a0 5b 89 a9 3c e8 5f 99 3d 58 ec 98 bd fe 16 fc bc
       0.020695379 0.07488996 -0.07466954 -0.030772682
0003b0 e7 80 00 3d f4 c6 0c bd 16 ec 7f 3d cf 25 00 bc
       0.03137293 -0.034369424 0.06248101 -0.007821514
0003c0 2c da 78 3c 58 79 ef bc ba bf 62 3d 3a 42 e3 bc
       0.015188735 -0.029232666 0.055358626 -0.02774154
0003d0 2f 02 3e 3d 89 10 f5 3d 53 68 14 bd 8b c5 92 bd
       0.0463888 0.119660445 -0.036232304 -0.071665846
0003e0 5d 2e 89 3c 8c 43 8d 3c ed f2 33 bc 70 92 5e be
       0.01674574 0.017244123 -0.010983211 -0.21735549
0003f0 e5 5b 8d 3c 77 f6 a1 3a 82 ae 15 3d 12 93 b2 bd
       0.017255733 0.0012356777 0.036543377 -0.08719458

adv.bias f4 [12]
000000 ec 08 35 3e fe 6d 29 be d5 ba 05 3e 9a 29 fb bd
       0.17679185 -0.16545865 0.13059552 -0.12263794
000010 f7 80 20 3e 93 7b ea bd bb 1d ed 3c 1d 31 d8 bd
       0.15674196 -0.11449351 0.02894484 -0.105562426
000020 a2 6b 8d 3e db cc 9d 3c 45 d5 49 3c 3e 91 70 be
       0.2762118 0.019262722 0.012318914 -0.23492905
