DDQN/radiiResults/9cyl/Qpolicy3400.pt (torch, 157247 bytes, 9 tensors)

fc.weight f4 [128, 22]
00000000: 8efa babd 460a 0abd dbfd cebe d67a 3c3e
00000010: 3bc7 a33d e4e0 fa3d c355 953d 5532 84be
00000020: 8c9c 2e3f 11e6 463e 8445 de3d 0702 4ebd
00000030: b818 3d3e 518c 5ebe 5e5f 343f 8248 443e
00000040: dbf0 84bd cfc9 e53b 1cff 30bd 7293 853d
00000050: 11ff ecbe 2cef a0be c2e5 96bd 3406 adbc
00000060: bdf0 04bf 5539 81be 80d5 f5bb f2d3 403d
00000070: 7e3b 2abd 2b6a 82bd 904e 57bc e198 873e
00000080: b6a7 8bbd c4f3 d63e abf0 a53e e66f 3bbf
00000090: b8c4 07bf 69c0 b7be c8de 5fbe 6b1d 00bf
000000a0: eac6 b3be ee04 bcbe 3326 c5bd b318 383b
000000b0: ef0a 32be 2915 443d 6ed9 343e 64cc 083e
000000c0: 4d5e 5ebe 4985 1c3e 3392 b23d e4c4 fb3c
000000d0: 5edd cabc a7a7 2d3d 6c83 20be ee3a 49be
000000e0: aaa9 5139 7796 193e dde1 d63d 820e 4abe
000000f0: 79e8 10bd 4b52 02bb 37bb 49be b6db b3bd
00000100: 59c1 b6bd 6fb5 53be c89b b2be f3c1 07be
00000110: 84c5 5bbf 5f8c 9abe b736 643e 9e70 8a3e
00000120: de19 f73e bd93 323f 9080 983e 007f 893d
00000130: 2187 4c3e 7163 263e f15f ff3d 12ca 96be
00000140: 0034 c73e f206 463e 6c1f 08be da62 5abe
00000150: f54b 4ebe ec4a 4bbd d1d3 aebe d8be a2bf
00000160: de67 043e d0a0 7a3c 14fb 393e 70ce cc3c
00000170: 268b 453e c6bf 283e cf19 dfbd 503b 2a3e
00000180: a8cd 2e3e 8637 1bbe 903c e6bc 63be e1bd
00000190: c014 5fbb 93f8 54be 8d97 d6bd 9ba6 c2bd
000001a0: 8822 8a3d b4dd 2bbd 219f c4bd 6406 3e3e
000001b0: e470 44be 4c8a 39bd c885 6d3d ac10 a33d
000001c0: 3a98 86bd ff73 44bd dea7 95bd 2b62 e63d
000001d0: 43bb 0e3d 4e9c 05be ce20 47be 155c 13bd
000001e0: 4bb3 41be cbeb 933d 626e a8ba 41f0 82be
000001f0: 67ae 80bd 16f3 8abd 53b9 09be fde6 0e3b
00000200: c64f f43d 13d7 c9bd 6f61 4dbd bb9f 33be
00000210: c075 3d3c d4cb dbbd ce0a 183e f4c5 8b3d
00000220: e8fa 42be 3a25 19be ccfe 043e 9a1a fbbd
00000230: c04f b0bd b888 e43c 4c5f 8bbd c83b 2abe
00000240: aa50 ecbd ff3d cdbd 304c 1e3d 7634 2ebe
00000250: 9e26 8abd e0b1 acbc 3afb 123e a270 583e
00000260: 1612 a1bd c0ad 8abb 5828 723c 3b51 793d
00000270: e061 78bc feb9 9c3d fdbb 373f 29b9 73bd
00000280: 314a f8be 2e0a 79be b638 c2be f706 fb3b
00000290: b893 c7bd 7269 013e 3510 58bd d799 da3e
000002a0: 4692 253d b7cf 093e ec5f 07be 9fce a6be
000002b0: 97b4 96be 4c5c 80be 4db9 873b 473f 34be
000002c0: 6629 793e 6dac 3cbe 4730 ef3d eb3e 033e
000002d0: 0b63 1dbe c638 503e c463 443e 0fe5 b93e
000002e0: e85e debd 2311 43bf c813 263d 5141 103f
000002f0: 412c a0bf dc7a 68be 232d a33c a4f2 d8bc
00000300: 7859 d6bc 5d61 0dbe 5845 43be 1569 f43d
00000310: a808 99be aafd 38be 5d08 dbbe 3b76 b33e
00000320: 2bb6 2cbf f323 c3bd 6e88 c43e 0bfc 1cbd
00000330: f90f 72be 4c6d eebe 304b 203e b3b4 fa3b
00000340: 1178 8e3e 0e8e 39bc 516e 6a3d 85c0 523e
00000350: 847f 893d 082e a73e e205 763e f43f 823e
00000360: f69c 0e3c c281 cbbd caf4 3abe 0802 e93f
00000370: c16c 893d f633 2abf d885 9cbf 0d26 a8be
00000380: 6a9f bb3e 51a2 11bf 1f6b b5be 695e a93e
00000390: f687 633f 8b5e ca3d 551d 483e eabf 8f3d
000003a0: 21d8 7a3d 1963 913e 57e6 9e3e 8268 243e
000003b0: 8c12 abbd 91cc b7be 4c7f d2be b85c c4be
000003c0: 66a0 acbe ff28 503e 3194 1ebe 5521 d13e
000003d0: 125c 093f 6de6 473f 20fa ca3d 8587 463d
000003e0: 323a 22bf 276b 3bbf 9a40 b9be da09 f43d
000003f0: 7daf a43d 4a32 eebe e40d abbd 940b 733e
-0.09129821 -0.033701204 -0.4042805 0.18406233 0.079969846 0.12249926 0.072917484 -0.2581965
0.6820762 0.19423701 0.10853103 -0.050294902 0.1846646 -0.21733214 0.7045802 0.19168285
-0.06491252 0.007012583 -0.04321204 0.065222636 -0.4628835 -0.31432474 -0.073680416 -0.021121122
-0.5192984 -0.25239053 -0.007502258 0.047077127 -0.041560642 -0.06367906 -0.013141289 0.26483825
-0.06819098 0.41982853 0.32410178 -0.7321762 -0.53034544 -0.35888985 -0.21862328 -0.5004489
-0.35112697 -0.3672251 -0.096264265 0.0028090894 -0.17386983 0.047871742 0.17661068 0.13359219
-0.2171566 0.15285219 0.087192915 0.030733533 -0.02476376 0.042396214 -0.15675133 -0.19651386
0.00019994998 0.14998804 0.10492299 -0.19732097 -0.035377953 -0.0019885476 -0.19700323 -0.08782141
-0.08923597 -0.2067468 -0.34884477 -0.1325758 -0.8584826 -0.3018522 0.22286497 0.27039045
0.48261923 0.6975668 0.29785585 0.067136765 0.19973423 0.16248871 0.12469471 -0.29451042
0.3890686 0.19338587 -0.13293236 -0.21326771 -0.20146163 -0.049631998 -0.34145978 -1.2714491
0.12930247 0.01529713 0.18162185 0.02500078 0.19291362 0.16479406 -0.108935945 0.16624188
0.17070639 -0.151579 -0.02810505 -0.110226415 -0.0034039468 -0.20797949 -0.10478125 -0.09504434
0.067448676 -0.04195948 -0.09600664 0.18557125 -0.1918369 -0.045297906 0.057988912 0.07962164
-0.06572004 -0.047962185 -0.07307409 0.11249193 0.034846555 -0.13047907 -0.19446108 -0.03597649
-0.18916051 0.07222708 -0.001285028 -0.25573924 -0.062832646 -0.06784646 -0.13449602 0.002180516
0.11929278 -0.09855475 -0.050141748 -0.17541401 0.011563718 -0.107322365 0.14847872 0.06824866
-0.19041026 -0.14955607 0.12987822 -0.12260933 -0.08608961 0.027897224 -0.06805286 -0.16624367
-0.11538823 -0.100215904 0.038646877 -0.170122 -0.06745647 -0.021080911 0.14353648 0.21136716
-0.07864778 -0.0042321384 0.0147801265 0.060868483 -0.015160054 0.07652663 0.7177122 -0.059502754
-0.48494104 -0.2432029 -0.37933892 0.0076607424 -0.09744972 0.1263788 -0.05274983 0.42695495
0.0404227 0.13458143 -0.13220185 -0.32579514 -0.29434654 -0.25070417 0.0041419626 -0.17602263
0.24332199 -0.1842515 0.1167913 0.1281697 -0.15369813 0.20334157 0.19178683 0.3630757
-0.10857946 -0.76198024 0.04054621 0.56349665 -1.2513505 -0.22703117 0.019918984 -0.026482888
-0.026165709 -0.13806672 -0.19069421 0.11934105 -0.29889417 -0.18065515 -0.42779818 0.3505114
-0.67465466 -0.09528341 0.38385338 -0.038326304 -0.23638906 -0.46567762 0.15653682 0.0076509356
0.27825978 -0.011325372 0.057234112 0.20581253 0.06713775 0.32652307 0.24025682 0.25439417
0.008704415 -0.09936859 -0.18257442 1.8203745 0.06710196 -0.66485536 -1.2228346 -0.3284153
0.3664506 -0.568883 -0.3543329 0.33079842 0.88879335 0.09881314 0.1954244 0.070190266
0.061241273 0.28395918 0.3103511 0.16055492 -0.08353147 -0.3589826 -0.41112745 -0.3835199
-0.33716124 0.20328139 -0.15486218 0.40845743 0.53656113 0.78085977 0.09910989 0.048469085
-0.6337005 -0.73210377 -0.361821 0.119159415 0.08041284 -0.46522743 -0.08352259 0.23734885

fc.bias f4 [128]
00000000: 038d 273d 4b89 4ebe 9d0e 423e e4e4 0a3f
00000010: 1871 f03d 1807 05be 036a 01be 3f97 6bbe
00000020: 2e15 b23e 8925 36bf 5ddb d1be a262 713e
00000030: 6df2 c2bd 9030 013e 881d e03c 731e 4fbe
00000040: 70a8 0b3e bba3 813e 36a1 a93b c80e 02bd
00000050: 69c5 ecbe bf57 713e 5139 643e 510a 8a3f
00000060: 04bd 413e 95a4 77be 3be9 543e 3459 4f3f
00000070: 69b2 a73a 8a47 aabd 06c6 923f 9dc1 8b3e
00000080: 17ef 4abe 0f0d 993e fbd6 903e ac71 0c3e
00000090: f320 70be 4621 c6be f538 0d3e e323 93be
000000a0: 90ac 41be e928 41bf eabd d13e 62d8 533e
000000b0: 38a0 c03d 88fb 973d ee94 ff3d 4b21 023f
000000c0: 0674 a73e dcf4 093f a47e d93d 247a 0e3f
000000d0: fa34 d7bd 9a5c 6c3e 4f66 0a3d 2962 af3e
000000e0: f81d 56bf 7c8b 53bf e6dd 2abe 539e d4bd
000000f0: c368 3c3f f223 103d af50 7a3e 5f31 b53e
00000100: 050d c43c ff97 933e 2113 603e 4717 29be
00000110: 92aa cd3e ade0 70be 952f b83e 4256 df3d
00000120: 22cc 443f 6653 d23e b1a8 313e d283 453e
00000130: c2ad f0be 6cee 0bbf b053 173f 90fb 823c
00000140: 653b 65be 6c98 04bf 28b7 113d 6006 e33d
00000150: d7bf c2be f2b0 cebc a3ec 1abe 211b 483d
00000160: a618 86be fc79 53be b60e 1fbd a23a 4b3e
00000170: 6a12 603d b1d0 0f3e 92a4 bc3e 6453 923e
00000180: 9e5d efbd 2b67 8ebe 34db c83c b963 613e
00000190: 5e50 193d 7270 8d3e 6089 633e 7af8 68bc
000001a0: 7587 913e e5e0 0cbe b606 103e 75fc 863d
000001b0: 0d52 8dbc 2836 57be e70b 5539 cc8a 743e
000001c0: eab3 c93e 0087 22bd 069c b2bd c0d3 5bbe
000001d0: 1a3a 2f3f 24c7 f53e 6f11 3bbf 5b79 d4bd
000001e0: 0517 b6be cb52 b9be 4baa 893d b69e 7c3d
000001f0: 4c33 b4bd 1031 203e adb7 22be b871 0f3d
0.040905964 -0.2016956 0.18950887 0.5425551 0.11740321 -0.12990987 -0.12638097 -0.23006915
0.34781784 -0.71151024 -0.40987673 0.23572782 -0.09518895 0.12616181 0.027357832 -0.20226459
0.13638473 0.2532023 0.0051766885 -0.031752378 -0.46244362 0.23568629 0.2228749 1.0784398
0.1891976 -0.24183877 0.20792095 0.8099549 0.0012794259 -0.08314426 1.1466682 0.27296153
-0.19817768 0.29892775 0.28289017 0.13715237 -0.23450069 -0.3869726 0.13791259 -0.28738317
-0.18913484 -0.7545305 0.40965205 0.20688012 0.09405559 0.07421023 0.12479578 0.5083205
0.32705706 0.5388925 0.10619858 0.5565512 -0.10508151 0.230822 0.033788975 0.34254578
-0.8363948 -0.8263471 -0.1668621 -0.103817604 0.73597354 0.03519053 0.24444841 0.3538923
0.02393199 0.288269 0.21882297 -0.16512786 0.40169197 -0.23523207 0.35973802 0.10905124
0.7687398 0.41079253 0.17349507 0.19288567 -0.47007567 -0.5466068 0.5911207 0.015989095
-0.22385938 -0.5179508 0.035575062 0.110852 -0.38036987 -0.025230858 -0.15129332 0.048853997
-0.2619068 -0.20652002 -0.03883239 0.19846585 0.05470506 0.14044453 0.36844307 0.28579247
-0.11687778 -0.27813086 0.024518587 0.22010697 0.03743016 0.2762485 0.22220373 -0.014219398
0.28423658 -0.13757665 0.1406506 0.06591121 -0.017251039 -0.21016753 0.00020317697 0.23881072
0.39395076 -0.039679527 -0.08721165 -0.21467495 0.6844803 0.48003495 -0.73073477 -0.10374709
-0.35564438 -0.3619598 0.06721934 0.061674796 -0.087988466 0.15643716 -0.15890379 0.03502056

hidden.0.weight f4 [128, 128]
00000000: 01ff c73b 619a 6fbb 2c06 523d b143 8ebd
00000010: 7202 473d fc8d b53d f018 ccbc 05cf b93d
00000020: 1133 0b3e caa7 0a3c 6009 88bd 716c 123e
00000030: 95c0 c03d 68ce d63c 80c4 6fbc 8c6a 22bc
00000040: b355 6fbc e386 7e3c abf3 febb 0890 f8bc
00000050: 147b e13d bbd3 94bd 4444 8cbc a251 2ebe
00000060: 0d03 223d 20bc e6bc cec0 f13c 05dc 163c
00000070: 9032 7a3e f819 133e db29 a63d 13c2 cabd
00000080: 6269 ebbd 11a7 c73d c86f 0aba 6b71 813d
00000090: 6f69 dc3d 976a 7abd 8ada 733c deac 253e
000000a0: 916a aabd 2a9a 1f3d 9743 cd3b 7a9e 623d
000000b0: 50ca 663d 18b4 1dbc 206c 55bd 533c 893d
000000c0: a776 d03d 2e88 253e ebde 26bd 7ff2 c8bd
000000d0: 2cbd 1c3d e367 ad3c dfe6 2f3c 61ce 0dbc
000000e0: 8d5c ed3d d717 aa3d ad27 ae3d c663 083c
000000f0: 64f4 df3d 3b41 b4bd 4efd ec3d 9112 523c
00000100: 6075 993c ab8a 353e 687c c5bd 35dc 153e
00000110: 325f 22be 2b17 24bd d1b1 773d 9cb0 8dbd
00000120: 8a12 a5bc 3e08 f63c 86e3 b53c 6cf3 5b3d
00000130: 5d1a cfbd a822 bdbc e40d adbd 08d2 99bc
00000140: 4449 abbd 1e06 f83a 0c44 8a3b 63a2 8d3d
00000150: 6e2e f23c 9104 69bd f082 023c 3dca babc
00000160: 0994 c0bd 0ec8 9f3d a28e 8b3c 9406 1d3d
00000170: 913a d23c d5d6 22bd a04b 653c a5df 08be
00000180: 20bf d03c 3641 8b3d 2612 efbd b247 10bd
00000190: dd48 383d 4683 91bd 8bde 6e3e 5dc5 ca3d
000001a0: 3ab4 80bd b311 803d 9d39 8a3d 3340 b83d
000001b0: 1fae fc3d 4bc1 293c bc26 8f3c c473 37bd
000001c0: 5e37 a139 2097 f23b 1f04 ad3d 364c d8bc
000001d0: 1cea aabc 0760 243b 12cd f73d adad 933d
000001e0: b311 183d 6778 8fbd 29c3 abbc 9205 32be
000001f0: 9fd9 503e 65f5 9c3d ad1e 05be 7537 903d
00000200: f6d4 313e 1511 06be 4c13 3dbb a8c1 8abe
00000210: 854c 9d3d 87dd 393c 6cdb f8bc 0f97 f0bd
00000220: 6c03 323e fdd8 10bb 8ef8 92be 626c 0d3e
00000230: 59cb 833d 3802 a9bd 2e07 94bd a7d5 d43d
00000240: 10f3 5f3d db46 113d 652c 2d3d c816 a2bd
00000250: 47f7 8f3e f8ca 80bc 180d 013d 879c 1dbe
00000260: 0ca2 74bd 6e0a 593e d035 883a 793c 4b3d
00000270: 6e05 a33d 8668 d33d d70d 633e 7491 1e3e
00000280: 727a 42be 66e3 bd3d 452d 93bd fa10 80bd
00000290: 3c7a 443b ee44 f4bd bae9 083e b3d7 b93d
000002a0: 04db ac3d b52e 723d 24e3 133e 31ac 11be
000002b0: a959 c3bc a3e8 803d 63a4 603d 597f fc3c
000002c0: 1270 123e 63c5 633e a902 05bd 0370 f93d
000002d0: 4d7a 1d3d bead debd 5bdf b7bc a32e 12be
000002e0: a613 423e 4b1c 77bd 28a9 10bc 2d14 b03d
000002f0: fa8a 123e 0dd3 abbd 88ec 4abc 3567 56bd
00000300: bab7 843d a958 ff3d 494b 46bd ca05 dabc
00000310: f135 9a3d 4b18 67bb 6e2d 4bbd 9588 5e3c
00000320: de9c 0a3e 9ba8 bfbd 9fdb 193d 8c44 febd
00000330: 86ed 0a3e 8d6a ffbd 0c78 babd 5cc4 b33c
00000340: 64ce 95be 3910 5b3e 2c22 4a3d b882 2b3c
00000350: 4c51 ed3d 38f6 85bc 28a6 0d3c e060 6d3d
00000360: 86a2 b63d 5d9a ee3d ef94 903d 8343 343d
00000370: 2385 6c3e ee02 a4bc b9d8 0b3e 5f7e 92bd
00000380: 0030 cf3b 28d8 22be 7bbe cfbc 22b1 71bc
00000390: f5fe 41be 9510 1e3e 0309 323d d414 a3bc
000003a0: 8a9b e53d 82c7 1ebd 6651 0a3d dfb2 143d
000003b0: 4751 fa3d 94a0 36be fd2f ecbd 40ec cc3b
000003c0: d4ce 12bd f006 aebd 9fa5 853d ed27 91bc
000003d0: e3ce a9bc 388a 823d 555e 1dbe 5b76 9fbd
000003e0: 95a2 213e f256 9bbd 2020 a3bd d064 0a3c
000003f0: 8205 163d a3ae 86bd b376 fe3d e5d9 9f3d
0.006103397 -0.0036560523 0.051275417 -0.06946505 0.048586316 0.08864972 -0.024914235 0.09072689
0.13593699 0.008462856 -0.06642413 0.1429918 0.09411732 0.026221469 -0.014634252 -0.009913098
-0.014607835 0.015535089 -0.0077805123 -0.030342117 0.110098034 -0.07266947 -0.017122395 -0.17023328
0.03955369 -0.028165877 0.029510882 0.00920773 0.2443335 0.14365375 0.08113452 -0.09900298
-0.114947096 0.09748662 -0.0005280939 0.06320461 0.10762297 -0.06113681 0.014883647 0.16179225
-0.08321107 0.03896538 0.006264161 0.055326916 0.056345284 -0.009625457 -0.05210507 0.06700959
0.10178881 0.1616523 -0.040739935 -0.098118775 0.038266346 0.021167701 0.010736196 -0.008655162
0.11589918 0.08305328 0.08503661 0.008324569 0.10935286 -0.08801504 0.115717515 0.012821809
0.018732727 0.17728679 -0.09642869 0.14634784 -0.15856627 -0.040061157 0.060472313 -0.06918451
-0.020150442 0.030033227 0.022203218 0.053698942 -0.1011245 -0.023087814 -0.08449915 -0.018776909
-0.08363584 0.0018922722 0.0042195376 0.069157384 0.029563155 -0.05688912 0.007965788 -0.022801513
-0.094032355 0.07801829 0.017035786 0.03833635 0.025662692 -0.03975566 0.013995081 -0.13366564
0.02548176 0.067995474 -0.116733834 -0.035224624 0.044991363 -0.071051165 0.23327081 0.09900925
-0.062843755 0.06253376 0.0674927 0.0899662 0.123378985 0.010361026 0.017474525 -0.044788137
0.00030749565 0.0074032694 0.08448052 -0.026403528 -0.020863585 0.002508165 0.12099661 0.072108604
0.037126254 -0.07005387 -0.020967083 -0.17384937 0.20395516 0.07663993 -0.12999983 0.070418276
0.17366394 -0.13092454 -0.0028850613 -0.27100873 0.076806106 0.01134432 -0.030378066 -0.11747562
0.17384118 -0.0022101991 -0.28705257 0.13810876 0.0643527 -0.08252376 -0.07227932 0.103923135
0.05467516 0.035467964 0.042278666 -0.079145014 0.28118345 -0.015721783 0.031506628 -0.15391742
-0.059724852 0.21195385 0.0010392014 0.049618218 0.0796002 0.10322671 0.22173248 0.15485173
-0.18992022 0.092718884 -0.07186369 -0.06253238 0.0029980084 -0.1192721 0.1337041 0.090743445
0.084402114 0.059126575 0.14442116 -0.14225842 -0.023846464 0.06294372 0.05484427 0.030822443
0.14300564 0.22243266 -0.03247324 0.12179568 0.038446713 -0.108729824 -0.022445371 -0.14275603
0.18952808 -0.060329717 -0.0088293925 0.08597598 0.14310828 -0.08389864 -0.012385495 -0.05234452
0.064803556 0.124680825 -0.04841164 -0.026614089 0.0752982 -0.0035262282 -0.049603872 0.013582368
0.13536403 -0.09358331 0.037562963 -0.12415418 0.1356717 -0.12471495 -0.091049284 0.021944217
-0.29259026 0.21392907 0.049348995 0.0104681775 0.11587772 -0.016352758 0.008645572 0.057953715
0.08917718 0.11650536 0.07059657 0.044009697 0.23097663 -0.020020928 0.13656892 -0.071530096
0.0063228607 -0.1590277 -0.025359383 -0.014751704 -0.18944915 0.15436013 0.043465625 -0.019907393
0.11211307 -0.038764484 0.033769034 0.036303397 0.12222534 -0.17834693 -0.115325905 0.006253749
-0.035841778 -0.08497417 0.0652573 -0.017719233 -0.020728534 0.063740194 -0.15368016 -0.077862464
0.15784676 -0.07584943 -0.07965112 0.008446887 0.036626346 -0.06576278 0.12424984 0.07805232

hidden.0.bias f4 [128]
00000000: 9fde fe3e 1c74 f13d d6eb 243e 83aa b13e
00000010: 420f 05bf 6399 70bd e46b 4fbd 51ea 753d
00000020: a7a5 1c3d a671 06bc 4a33 083e dc8a 123f
00000030: 8963 fa3d 58f0 313d b35f 0dbd ecac 013c
00000040: c586 b43d ebe4 823e 2637 63be 30ed 943e
00000050: 163c 8e3e 7333 4bbd fcf7 943e 04f1 9cbd
00000060: 2bcf d13e 1ed8 d43d a438 8dbe c1d1 a13d
00000070: bd29 813d 9bf9 a73e 6ad2 81bd eab6 763e
00000080: c25c a8bb 9f7e 70bd 834c c03e c95a 3f3d
00000090: 3525 043e 7922 083e 8a37 1ebd e3f6 c43d
000000a0: b571 503e bbf1 b5bb 60da f5bd 0a7a c2bc
000000b0: ff14 bfbe 4160 a6be 546f a5bd f166 efbe
000000c0: 963f 5bbd a1e0 293e 03b3 9fbc ced8 883e
000000d0: bcb0 423e 4e26 19bd 2952 c83d a38f 943e
000000e0: 3cce 523e 209b 9bbd f7d1 2abd f7ac 423d
000000f0: ad5f 9d3d 2606 d2bb 06fc 9e3e 1073 51bb
00000100: 806d 953d 78e4 2e3d 9a33 013e 2fe5 5dbe
00000110: 9d03 cd3e bacc f13c 4a4b de3d 7474 59bd
00000120: e509 0f3d b115 343d 1977 bfbd 2187 733e
00000130: fd9f 163f ccfc 9e3d bbf5 fc3e 4593 303c
00000140: ebcc 313f b37e 1d3d 9ad0 c53d 0f78 27bd
00000150: 29c9 37be 2271 eb3d a785 733e 0176 963d
00000160: f94d 263e 95a6 743e b6d7 eebd b789 983d
00000170: e4ab 003e 7438 043d c7c3 cb3d 9102 383e
00000180: 893b 213e 58a1 bdbb cd57 5f3e 68ee 02bc
00000190: ad1d cebc c66b 393d 9633 fa3d 35a8 1cbe
000001a0: 27e6 683c b4c5 fc3d 3f62 9b3c dddf 9a3d
000001b0: a0ea 723d f3a2 0bbf 47cf 943e 9997 343c
000001c0: f42f 7a3e e095 a43e fa8d 4dbe 949a ddbc
000001d0: 919d 423c 1761 193e 1430 7fbe 488f 4e3e
000001e0: d1e1 f63c 1049 273f f599 333e e8c1 153f
000001f0: fbc8 943e ebcd 183e d8bb d23e b472 b43d
0.4977922 0.11789724 0.1610559 0.34700403 -0.51976407 -0.05874003 -0.050640002 0.060037915
0.038243916 -0.008205807 0.13300815 0.5724313 0.12226016 0.0434421 -0.034515094 0.007914763
0.08814768 0.25565276 -0.22189006 0.2908721 0.27780217 -0.049609613 0.29095447 -0.076631576
0.4097837 0.103927836 -0.27582276 0.079013355 0.06306789 0.3280762 -0.063389614 0.24093214
-0.0051380107 -0.058714505 0.37558374 0.04671744 0.12904818 0.132944 -0.038627185 0.096174024
0.20355876 -0.005552498 -0.12004542 -0.023739833 -0.37320706 -0.3249531 -0.08077875 -0.46758226
-0.053527437 0.16589595 -0.01949454 0.2672791 0.19012731 -0.037390046 0.09781296 0.29015836
0.20586485 -0.07597947 -0.041704144 0.047528233 0.07684264 -0.0064094244 0.31051654 -0.0031959452
0.07296276 0.042698354 0.1261734 -0.21669458 0.4004182 0.029516567 0.10854204 -0.053089574
0.034921546 0.043966 -0.09348888 0.23782016 0.5883787 0.07763061 0.49406227 0.010777299
0.69453305 0.038450908 0.09658928 -0.04088598 -0.1794783 0.11496188 0.23781453 0.07346726
0.16240682 0.23891671 -0.11662237 0.07448142 0.12565571 0.0322804 0.09949451 0.17969729
0.15745367 -0.005787056 0.21810837 -0.007991411 -0.025160635 0.045268796 0.122168705 -0.15298541
0.014215029 0.123423964 0.018967746 0.0756223 0.059305787 -0.54545516 0.2906439 0.011022472
0.24432355 0.32145596 -0.20073691 -0.027051248 0.011878387 0.14978443 -0.24920684 0.20171845
0.030136975 0.6534586 0.17539199 0.58499 0.29059586 0.14922301 0.41158938 0.088109404

hidden.1.weight f4 [128, 128]
00000000: 69f2 173e 0847 b13e 98c2 0ebe 353d 59be
00000010: 5238 eebd 4191 d43d 73ce 81bd cd85 ef3d
00000020: 6207 dc3c 91dd ae3d c0fc 0dbe 535d bbbe
00000030: ed4c 493d 8a53 1e3d 9c5d 0a3c 8827 b8bd
00000040: 9558 67bd cf34 af3d 2029 513e 4def c03d
00000050: 82db a4bc 343b 62bd 9e71 d8bd 8d9d b1bd
00000060: 2202 88bd ca36 8cbe ca4a 0e3e 642c 0c3d
00000070: c614 26be 49ad fabd dcfa a0bd 5c79 81bd
00000080: 2a09 0ebb 2997 51be de50 0ebe abc6 a63a
00000090: 8fb9 91bc 4139 5f3d 92f1 82bd 439c d2bd
000000a0: edd2 82be d70e 063d 6fae 8a3d 012b e2bc
000000b0: 1b25 4cbe 435d 873d 62c6 adbd 68ef 76be
000000c0: 05ce 0dbd d58e 49bd 30e2 30bd ca37 2c3a
000000d0: 7bda a43d 2002 7ebd 0ef6 36bc 7c18 a93d
000000e0: 51a4 4cbd 2e7a 90bd df14 88bd fca2 a6bd
000000f0: 2e74 523d 522b 443d 6282 1a3b 530c 47bc
00000100: 0b45 323d 4f8e a0be 71a7 da3c 2728 ebbd
00000110: e8b3 043e f8c9 0fbd 0553 eb3d 2b2f d33d
00000120: 3e9c 7fbd 69a0 c73c 86df af3d 132e fdbc
00000130: 19aa 09be bfc1 993d ad5d 6cbc 1bb0 8bbd
00000140: 3b60 c4bd fff7 2bbd 0546 9c3d 6e3d 79bd
00000150: 7f7c 65bd 5051 ecbd 0bdc 73be fb4e 883e
00000160: 7244 b23c a291 3ebe efb6 75bd a622 643d
00000170: 891e 8abc e8a2 2ebd afc9 69bc 9c01 f6bc
00000180: ed10 9fbd 8241 a93d 5e47 adbd 1249 343c
00000190: de2a 3c3d 9130 4fbe ccbd 393d 4ada 90bc
000001a0: a90b 703e 84be 31bd 44bf 2cbe 5d2b 53bd
000001b0: 8bf6 21be 06c7 09be 4f38 e8ba d4c2 44bd
000001c0: fa66 41be e75d 85be 97a5 173d 7c9b 49bd
000001d0: 5e88 b43c dd86 513d f46a 42bd 7568 443b
000001e0: ecd5 7c3d 084b 053e c29b 7bbe 7a30 2fbd
000001f0: a8a7 283d f1e0 a33e 746a 5e3c 1bd9 1bbe
00000200: 9f38 aabd ce26 debc 5171 37bd e852 eb3c
00000210: 8106 5d3d c694 a83d 020f 913d 5547 763d
00000220: 9856 12bd 5799 b13b ed87 44bd f345 83bc
00000230: d2a8 92bd 3f5d 6ebc 6e4e 99bc 8101 46bd
00000240: 9ad1 1a3d 0714 f33b 3b89 5d3d a2a9 ec3a
00000250: a471 0f3d 7842 bc3c 93d2 613d e363 7b3d
00000260: 27e5 53bc 1357 873d 8c69 ae3d 1014 ab3d
00000270: 9ba7 653d 98c4 c3bd 5447 6dbd f1b5 01be
00000280: 53c6 24bc 9383 4f3d 708a 3bbd 90c7 f73c
00000290: 2610 20bd 8a05 29bd a376 683d 83c6 bf3c
000002a0: ee7b 073d 4607 3dbd 9bcf 483c f0da 673c
000002b0: 1537 6d3d 8202 a83b 7d38 dbbb f37a 393d
000002c0: d442 1a3d e55d 023d 3a64 603d b8a2 5a3c
000002d0: 41a2 46bd 13cb c83d 20ea 863b 26db 22bd
000002e0: 9f6e 053e fc52 39bd ba35 d73c ef66 f9bc
000002f0: 2090 9fbd c93e 2e3d 2718 f3bc 1cf2 1eba
00000300: 9388 b53d 92ef d0bd f1a7 74bd 0e87 5fbd
00000310: a755 af3d a3e9 2a3c 29d3 953d 6ab4 1f3d
00000320: 1edb ac3b 7f9c 4dbd 4925 53bd 670c e7bd
00000330: f22c 61bc b860 16bd b97d 133d ac49 d93c
00000340: f0c5 06bd ffd5 91bc 8a45 ceb9 424e 303d
00000350: f864 a73d 82c1 04be 2951 21bc a190 c03d
00000360: 3248 333b 847e 3b3c c6f6 99bd b04e 733d
00000370: 3beb 883d 8c9a a83d fbd9 353d 1007 a63c
00000380: 47e0 1f3d d6ea 39bd da26 6abd f201 16bd
00000390: a674 abbc 9cfe 52bb f4d3 ab3d 4021 d83c
000003a0: 67f6 973d 1dc4 ffbd 236c d13d b3ce 48bd
000003b0: eb18 2cbd 4c16 23bd 050f 993d 5729 a2bd
000003c0: 88ed 79bd 1078 71bd 791e 773b f713 9e3d
000003d0: 324b 74bd 3632 613c bf7b 933d 156a de3c
000003e0: 3647 173d b982 b13a b855 61bd 1ae3 4fbd
000003f0: 2d2c 823c 344b 9c3d f0d7 a1bd c2ad 43bd
0.14838566 0.34624505 -0.13941419 -0.21214755 -0.11631836 0.103792675 -0.06338205 0.11695442
0.02685899 0.08538354 -0.13865948 -0.36594638 0.049145628 0.038653888 0.00844517 -0.08991915
-0.056480963 0.08554994 0.20425844 0.09420643 -0.0201242 -0.05523224 -0.10568546 -0.086726286
-0.06641032 -0.2738555 0.13895717 0.03422202 -0.16218862 -0.12240083 -0.07860348 -0.063219756
-0.0021672943 -0.2046782 -0.13898036 0.0012724003 -0.017788677 0.05449796 -0.06393732 -0.10283711
-0.2555155 0.032728996 0.06771552 -0.027608396 -0.1993603 0.06609585 -0.08485104 -0.24114764
-0.034620304 -0.04920848 -0.04318446 0.00065695925 0.08049484 -0.062013745 -0.011167062 0.08256623
-0.04996139 -0.07054554 -0.06644606 -0.081365556 0.05138033 0.047892876 0.002357625 -0.012148934
0.043522876 -0.31358573 0.02669117 -0.11482268 0.12959254 -0.03510472 0.11490444 0.10311731
-0.062404864 0.024368482 0.085875556 -0.030905759 -0.13443793 0.07507657 -0.014426631 -0.06820699
-0.09588667 -0.041984554 0.07630543 -0.0608496 -0.05602693 -0.11538947 -0.23814408 0.26622757
0.021761153 -0.18610242 -0.059988912 0.055697106 -0.016860263 -0.04263583 -0.0142692765 -0.030030064
-0.077669 0.08264448 -0.08460878 0.011003749 0.04593932 -0.2023337 0.04534702 -0.017682213
0.23441948 -0.04339458 -0.16869837 -0.051555026 -0.15816705 -0.13454828 -0.0017716977 -0.048037365
-0.18886939 -0.26048204 0.037023153 -0.049220547 0.022037681 0.051154006 -0.04746528 0.0029969488
0.06172745 0.13016903 -0.24571136 -0.04277084 0.041175514 0.32007554 0.013575185 -0.15219538
-0.08311581 -0.027118113 -0.0447858 0.028726056 0.05396128 0.08231501 0.07082941 0.06012662
-0.035727113 0.005419891 -0.04798119 -0.016024565 -0.07161106 -0.014548599 -0.018714156 -0.048341278
0.037797548 0.007418159 0.05408595 0.0018055926 0.035020486 0.022980914 0.05513246 0.061374556
-0.012933052 0.06608405 0.08516225 0.08353436 0.056068044 -0.09558982 -0.057929352 -0.12667061
-0.01005705 0.05066259 -0.04578632 0.030246526 -0.0390779 -0.041265048 0.056753766 0.023410087
0.033077173 -0.046149515 0.012256528 0.01415132 0.05791386 0.005127252 -0.0066900835 0.04528327
0.03766139 0.031827826 0.054783083 0.013344459 -0.04849458 0.09804358 0.0041172653 -0.039759777
0.1303048 -0.045245156 0.026270736 -0.03044459 -0.077911615 0.042540345 -0.029674603 -0.0006063299
0.0886394 -0.102019444 -0.059730474 -0.054572158 0.08561259 0.01043168 0.07315666 0.038990416
0.0052751442 -0.050198074 -0.05154923 -0.112816624 -0.013743626 -0.036713332 0.03600857 0.026524387
-0.03290361 -0.017802237 -0.00039343192 0.043043382 0.08173555 -0.12964442 -0.00984601 0.09402586
0.0027356264 0.011443738 -0.075177714 0.059401214 0.06685492 0.082326025 0.044397335 0.02026704
0.039032247 -0.045389973 -0.057165958 -0.03662295 -0.020929646 -0.0032195216 0.08390036 0.026383042
0.074200444 -0.124885775 0.102257036 -0.04902525 -0.04201595 -0.039816186 0.07473568 -0.07918041
-0.061017543 -0.05895239 0.0037707372 0.07718652 -0.059642024 0.013744881 0.07201337 0.027150193
0.036933146 0.0013542987 -0.05501339 -0.05075369 0.015890205 0.07631531 -0.07902515 -0.04777313

hidden.1.bias f4 [128]
00000000: 8fc9 8cbd 87b7 d2bd a8b7 eabd 4b66 05bd
00000010: a6cb 22bd 2b68 e2bd 4f2f 9c3d a8d1 843c
00000020: dc90 123f 9e45 b23d e598 5c3d 9ac3 3cbd
00000030: fae0 c73d 9247 c93e bb9f a43d 1be9 033c
00000040: 5147 063e 41a8 00bd fe42 883c 93f3 083f
00000050: 6209 f93e de8a 313d b5c7 3abc 1d5c 37bd
00000060: d4c3 37bd 1873 88bc e0b3 083b a2be 08bd
00000070: dabd 603e bfb6 923d 24d2 d23e 88fe 0e3f
00000080: 0acf 863c 4f69 9c3e 2454 4bbd 49e7 bf3a
00000090: 7dfa ea3d b11a 653e ff56 d1bb d87d 033e
000000a0: 056b 213f 8301 563e 9719 2d3d 473c 24bd
000000b0: 2862 863e a7de 283e 3ee6 9aba 5837 983e
000000c0: 71dc eb3d b1a8 9fbd fa94 8cbc 4d98 a53c
000000d0: 3fc5 b7ba c147 a53d da94 1b3f 1991 ac3d
000000e0: 9125 a4bc a568 973e ce30 693d 2d57 42be
000000f0: 98be 193e 8165 8a3d ce83 e13e ec65 6d3d
00000100: 2902 c63d ed40 c83d 0c00 d53c 7c2b ad3e
00000110: d1fc ec3e 61ca e8bd b0ab 76be 1a61 b13d
00000120: 9c09 bcbd ba2b c3bc 0985 9dbc c071 2e3f
00000130: 5f5a 8dbd 7c2d e03e 6784 933d 0bcd 4a3e
00000140: 6aee 4cbd 1d2b c33e 6e66 373d 714b 2f3f
00000150: 693f 773c 3730 d9bc c13c ee3e f30f 153e
00000160: bbc9 4fbd c346 a13e 0c57 4c3d b586 723d
00000170: a4a4 51bc 3f97 89bc ee4b 893d 889d 40bd
00000180: 181b 5e3e f35b b1bd 470a 773e 5cbc 36bd
00000190: e5dd 263f 2d65 133d 26ca 8c3d c8f2 61bd
000001a0: 6896 ca3e dd15 d43e f6ea c8bd c53e e43c
000001b0: 2ffa eebc 99f7 273c 162a 9fbb e555 2c3d
000001c0: d3fd 383f 1b74 7ebd bb6d d53b c0ca 1a3e
000001d0: 8038 b33e 2b74 a83e 6e4d 9f3e 1f92 b7bc
000001e0: b5bb a2bd 4ae7 bdbc 9cd2 b4bd 6f28 3f3c
000001f0: d5c0 85bd 489d 86bd 2387 21be 5bfa bf3e
-0.06874382 -0.10288911 -0.11460811 -0.032568257 -0.039744996 -0.11055025 0.07626211 0.016213253
0.5725229 0.08704685 0.05385675 -0.046084978 0.09759708 0.39312416 0.08038279 0.008051182
0.13113143 -0.03141046 0.016633507 0.53496665 0.4863997 0.043345325 -0.011400153 -0.04476558
-0.04486449 -0.016656443 0.0020859167 -0.033384927 0.21947423 0.07163762 0.4117595 0.55857134
0.016456146 0.30549094 -0.04964079 0.0014641072 0.11473558 0.22373463 -0.0063885446 0.12840974
0.63053924 0.20899014 0.042260733 -0.040096547 0.26246762 0.16491185 -0.0011817885 0.29729724
0.11516655 -0.07795847 -0.017160881 0.020214224 -0.0014020576 0.080703266 0.60774004 0.08426113
-0.020037444 0.29572025 0.05693131 -0.18978567 0.15014112 0.067576416 0.44045871 0.05795853
0.09668381 0.097780086 0.026000999 0.33822238 0.46286634 -0.11366726 -0.24088931 0.08661099
-0.0918152 -0.023824561 -0.019228475 0.6814232 -0.069020025 0.43784702 0.07202988 0.1980478
-0.050032057 0.3811883 0.04477542 0.6847449 0.015090802 -0.026512248 0.46530727 0.14556865
-0.050729495 0.314993 0.049887702 0.059210498 -0.012795601 -0.016795753 0.067039356 -0.047025234
0.21690023 -0.08660116 0.24125014 -0.044613227 0.65182334 0.03598516 0.06874494 -0.055163175
0.39567876 0.4142293 -0.0981044 0.027861962 -0.029172031 0.010251903 -0.004857312 0.042074103
0.72262305 -0.062122446 0.006513325 0.15116405 0.35004044 0.3290113 0.31113762 -0.022408543
-0.079459585 -0.023181576 -0.08829233 0.011667355 -0.065309204 -0.06572968 -0.15774207 0.37495694

v.weight f4 [1, 128]
00000000: d492 7e3f e2d2 8fbd 4105 8c3f 476e 5f3e
00000010: 5e47 cd3d ac0d 983e 6151 a1bd 5ba7 96bd
00000020: a424 e0be bca0 403f d462 6f3f 177f 96bd
00000030: 2fad babd 4359 a4be acee 13be 760c af3e
00000040: 146f 02be d93c 1c3f a7d3 b33e d5da d9be
00000050: 6167 0dbf 0227 7dbe 8be5 493e 4c49 4cbe
00000060: 4340 6fbd 073c 2cbe 88e7 c63e 08f2 493f
00000070: 319c 48be ee05 87bd 845a 84be 2beb f1be
00000080: 376f 963d e214 84be e18e d33d 2e47 563d
00000090: 3067 0abe 6c95 49be 9760 803f b713 08be
000000a0: b251 0abf 20b8 25be c563 29be f7d3 983e
000000b0: 3d6f d8be ec2e 77be d2b7 efbe d642 7bbe
000000c0: afb4 11be 7423 9fbe 1561 a13d e08c 08be
000000d0: d722 8f3d 8b51 e5bd 1c8e ebbe d318 11bd
000000e0: ece7 ac3d c21b 53be 049e a53e 8df5 633f
000000f0: fee1 6abe 4530 a93d 0754 84be 6332 883f
00000100: 2b47 1bbe 7a85 14be f0eb 41bd 3ee0 85be
00000110: 237d a5be ca61 423e 4204 dd3e d3df 2bbe
00000120: ab01 503e b944 883d a9af 703f d159 d9be
00000130: 8066 04bb 64c6 aabe f1a6 0cbe 7de3 49be
00000140: ab99 86bc ce9f d0be 8ee0 233e 781d 0abf
00000150: 835d f2bc 8f6d 44be ebbe cdbe a692 d3bd
00000160: a93a ec3e eb5c 86be b989 d53e a792 b63e
00000170: 02d0 383e 831a 3c3c c59e a7be 38de 343f
00000180: 9189 23be 674e d33d 065d 48be ca9e 4cbe
00000190: 4be6 e8be d8e1 73be 5b99 c5bd bf80 5f3f
000001a0: 95e0 97be 4f67 abbe e93b ee3d 5c4b f5bc
000001b0: 920b f6be 1d4a 023d 470e 383e 7367 683c
000001c0: 7c67 02bf 2ba5 9f3d f957 8abd a320 3dbe
000001d0: 8f7e 34be c28d 10bf b15e 99be a7c0 f03e
000001e0: e816 843e 09aa 17bb da3b 9d3e ee27 1a3d
000001f0: b276 7dbc 2177 5e3e c472 033f 7046 95be
0.9944279 -0.070226446 1.0939103 0.21819411 0.10023378 0.2969793 -0.0787685 -0.07356139
-0.43777955 0.7524526 0.93510175 -0.07348459 -0.091150634 -0.3209935 -0.14446515 0.34189194
-0.12737685 0.61030346 0.35122415 -0.42549768 -0.5523587 -0.24721912 0.1971647 -0.19949836
-0.058410894 -0.16819774 0.3884852 0.78884935 -0.19590832 -0.06592928 -0.25850308 -0.4724973
0.07345431 -0.25797182 0.10329986 0.052313976 -0.13515925 -0.19685906 1.0029477 -0.1328877
-0.5403091 -0.1618352 -0.16541965 0.29849216 -0.42272368 -0.24138993 -0.4681993 -0.24537215
-0.14229082 -0.31081736 0.07879845 -0.1333499 0.06989067 -0.11197194 -0.46006858 -0.035424065
0.08442673 -0.20616058 0.3234712 0.89046556 -0.22937772 0.0826116 -0.25845358 1.0640377
-0.15163867 -0.14504042 -0.04734415 -0.26147646 -0.32322034 0.18982616 0.4316731 -0.16784601
0.20313136 0.06653733 0.94018036 -0.42451337 -0.0020202696 -0.33354485 -0.13735558 -0.19715686
-0.016430696 -0.4074692 0.1600363 -0.53951216 -0.029585605 -0.19182418 -0.4018472 -0.10330705
0.46138504 -0.26242766 0.41706637 0.35658762 0.18048099 0.01148093 -0.3273832 0.7065158
-0.15970446 0.103176884 -0.19566736 -0.19982448 -0.454882 -0.23816621 -0.09648391 0.87305826
-0.2966353 -0.33477256 0.11632521 -0.02994316 -0.48055702 0.03180896 0.17974196 0.0141848205
-0.50939155 0.07795175 -0.06755061 -0.18469481 -0.17626403 -0.56466305 -0.29955056 0.47021982
0.25798726 -0.002314212 0.30709726 0.037635736 -0.015470194 0.21725132 0.51346993 -0.29155302

adv.weight f4 [18, 128]
00000000: a893 ee3c 145e b1bd 8387 033d 25c3 5abc
00000010: b277 0dbd a996 dfbc fb1f e23d b52a 963d
00000020: b97c f9bb 01ae 39be 5be2 68bd fae9 d03c
00000030: cf1f 23bc 1c42 0d3d 2b1d 8ebd 64b2 bd3d
00000040: 1bab 783a b89c efbd 6c78 03bc 7b6f b93d
00000050: c3ab 38bc 9ffe 98bd 92f9 823d 0a1e c93d
00000060: 57e3 78bd d510 3f3d 9a40 cb3d 748e 24bd
00000070: 0e93 8dbc 9671 80bd 5161 47bd f8b0 be3c
00000080: f4ec 403d 7607 fabc c228 6bbc b4ec 3fbd
00000090: 24ba 8a3d 2167 19be 7db4 b2bd 9766 22be
000000a0: 742c 16be 72b1 373e f66c 74bd 8ee4 6a3d
000000b0: f57f 9dbd 6b5b d73d be60 84bd a905 64bd
000000c0: 07a4 c13d 74cf a1bd f050 76bd b889 ac3d
000000d0: 6453 933d 7f91 343e ce1c 4bbe 0524 233c
000000e0: 045b 883d 7e26 063e cfb5 08bd f607 99bc
000000f0: 85a7 303e a190 8f3c ea5f 88bd 2448 cf3d
00000100: 4f99 c4bd 2aa8 f43b ea2e aabc ac30 52be
00000110: 2838 c3bd 9b9e 023d 90ed 3d3d ec7e dd3a
00000120: cb3b 73bc a74b 86bc 7aba acbc 053b 3cbd
00000130: ce9e 793d db2d 753d 954e 01be 5d99 c1bd
00000140: 510c 9a3d 237f 2abe fc52 11bd 4d8a a03d
00000150: ff04 b23c 05c3 9fbd 6d4f bcbd 36c3 98bd
00000160: b37a 003e 7c21 45bd 728c 7abd d75a c53d
00000170: 144d b3bc 9bb9 313d ffa9 1e3d 3ef6 173d
00000180: 9865 843d c450 26bc 2f87 803d 0330 0cbd
00000190: a0bb 263e 2048 1abd eb19 793c 7928 923d
000001a0: 8f2f 3dbd 972d 16be 8ba9 e3bc 48c9 6abd
000001b0: 3382 6abd 6a69 793d a8f7 7a3d 7538 483d
000001c0: 565a 463e ff04 903d 6e1a 4dbd 6c47 3b3e
000001d0: 54b2 b43d f4b3 c7bc fd9d 5e3e e551 86bd
000001e0: f8cc ee3d 89fa 15be 4f6f 57bd 45ea 6c3c
000001f0: 1dc6 29bd c712 4f3d 5db1 f5bc f5c8 063e
00000200: 9a51 08bd c447 963c 32ba 2cbd c314 66bd
00000210: 1b3c febd 7465 29bb 5b45 13bd c10a 30bd
00000220: f080 6fbd 0d6f eb3d 7d00 603d 9c0f 6c3c
00000230: f2b0 043d ff19 4abd 5cee 243e aadf b73d
00000240: 5f81 443b 1e66 c8bc baa7 0c3d 4dc0 93bd
00000250: b9e5 2d3d 7fe4 9f3d db6c 8239 52a4 83bd
00000260: 5764 863d 71e7 d63b 69e6 8cbc 477c a53d
00000270: 4066 ba3c 6c63 e3ba 6683 143e 15ad f43c
00000280: e5cd 53bc 115c 92bc 375a ac3d c15d 99bd
00000290: 756d a93d 6a58 0cbd ee26 9e3c 244d 013e
000002a0: 401f 1c3a 557b c7bd 0b74 c53b 619f 83bd
000002b0: c1ea 293d 0177 843c f3d1 e33d 632f d93d
000002c0: 789e efbd b213 093e c6c6 a5bd d1d0 d3bd
000002d0: 8df0 0c3d 4ed1 87bd ab7d 973d f808 98bd
000002e0: ec52 bfbc 20a4 c7bd c56b b03d 5875 bb3d
000002f0: 3b01 44be 6f28 ad3c 6daf 773d f3e5 c4bd
00000300: a6f4 ca3c 0d36 673d 919b 713c d013 bc3d
00000310: 21a6 cb3d 910d ccbd cda0 5d3c ea6a d03c
00000320: 0bd0 61bd 902f f93c 7354 8fbc 3592 bf3d
00000330: ed8e 9f3d 06dc 68bd 149f 6abd bf8f 543e
00000340: 39c8 a2bd 5e94 e13d 33c9 babc ccc7 efbd
00000350: 052d 4d3d 315d 003d 29c7 1cbd 8fbc 8b3b
00000360: d5f7 1cbb f84c a03c dcf7 c23c efee 03bd
00000370: e1b5 e73d d91d c1bd 1d63 14bd 2b14 c8bd
00000380: 9863 923d d1c1 22bd 58a6 b03b 5126 a2bd
00000390: 45d0 10be 38d6 f2bc 96c1 2cbd 720c d7ba
000003a0: 16e9 39bd 9af8 053e 9b4a ecbd e752 383d
000003b0: 40d3 3d3e 6d6a 2f3d 972d 8abd 1044 46bd
000003c0: 5269 85bd 63b3 603d 92b4 febc 8981 0fbe
000003d0: 687f a7bd 36ea 9e3d 4a18 43be 12b0 2dbd
000003e0: ddc3 05be 76f2 ea3d 9510 02bd a900 f2bc
000003f0: 6c62 32bd 0c09 0fbd 34ae b8bd d508 bcbc
0.029123142 -0.08660522 0.032111656 -0.01335219 -0.03453798 -0.02729352 0.11041256 0.073323645
-0.007613745 -0.18132783 -0.056856494 0.025502194 -0.009956314 0.034486875 -0.06939157 0.09262541
0.0009485946 -0.116998136 -0.008024316 0.09054466 -0.01127142 -0.0747044 0.06395258 0.098201826
-0.060763683 0.04664691 0.09924431 -0.040174916 -0.017282035 -0.06271665 -0.048676793 0.023277745
0.047100976 -0.030521136 -0.014352979 -0.046856597 0.06773785 -0.14980747 -0.08725832 -0.15859447
-0.14665395 0.17938784 -0.059674226 0.057346873 -0.076904215 0.105154835 -0.064637646 -0.05566946
0.09455114 -0.07900897 -0.06013578 0.08424705 0.0719364 0.17633627 -0.19835207 0.009957318
0.06657985 0.13100621 -0.03337651 -0.018680554 0.17251404 0.01752502 -0.06658919 0.101211816
-0.09599554 0.007466336 -0.020774323 -0.2052638 -0.09532195 0.03188954 0.046369135 0.0016898788
-0.014845799 -0.016393496 -0.021085013 -0.045954723 0.060942464 0.059858184 -0.12627633 -0.0945308
0.075218804 -0.16650061 -0.03547953 0.07838879 0.021730898 -0.07800869 -0.09194837 -0.074591085
0.12546806 -0.048127636 -0.061169095 0.09636467 -0.02188734 0.043389898 0.03873634 0.03710007
0.0646469 -0.010151092 0.06275784 -0.034225475 0.16282511 -0.03766644 0.015203933 0.07136626
-0.046187934 -0.14665829 -0.027790805 -0.057320863 -0.057253074 0.060891546 0.06127134 0.048881967
0.19370398 0.07032203 -0.050074033 0.18288964 0.08823076 -0.0243778 0.21739955 -0.06558589
0.116601884 -0.14646353 -0.052596387 0.014460151 -0.0414487 0.050555017 -0.0299918 0.13162597
-0.033280946 0.018344767 -0.042169757 -0.056172144 -0.12413808 -0.0025847824 -0.035954814 -0.042979006
-0.058472574 0.11495791 0.054687966 0.014408018 0.03239531 -0.049341198 0.16106552 0.089782074
0.0029984338 -0.024462756 0.034339644 -0.07214413 0.04245541 0.07807254 0.00024876636 -0.06427826
0.06562107 0.0065583517 -0.017199712 0.08080345 0.022753835 -0.0017348356 0.1450325 0.029867688
-0.012927507 -0.017866166 0.084156446 -0.07488585 0.082728304 -0.034264006 0.019305672 0.12627083
0.00059555843 -0.097403206 0.0060257963 -0.064268835 0.041483644 0.016170027 0.11124029 0.106047414
-0.117001474 0.1338642 -0.08094554 -0.10342563 0.034409095 -0.066317186 0.07397016 -0.07423586
-0.02335497 -0.09748101 0.086143054 0.09153241 -0.19141094 0.021137444 0.060470033 -0.09614172
0.02477486 0.05644803 0.014746563 0.091834664 0.09943796 -0.09963525 0.013527107 0.025441606
-0.055130046 0.030418187 -0.017496323 0.09354059 0.07790933 -0.056850456 -0.057280615 0.2075796
-0.07948346 0.11014627 -0.022801017 -0.1170803 0.050091762 0.031338874 -0.03827587 0.0042644213
-0.002395143 0.019567952 0.02379983 -0.032210287 0.113139875 -0.09429521 -0.036227334 -0.09769472
0.07147902 -0.03973562 0.0053909235 -0.079174645 -0.14141949 -0.029643163 -0.042176805 -0.0016406907
-0.045388304 0.13083115 -0.11537667 0.045000937 0.18537617 0.042826105 -0.06746977 -0.048404753
-0.06514229 0.054858577 -0.031091962 -0.14014257 -0.08178598 0.07759516 -0.19052234 -0.04240424
-0.13062997 0.11472027 -0.031754095 -0.02954133 -0.043550894 -0.034920737 -0.090176016 -0.02295343

adv.bias f4 [18]
00000000: 034e babd 89b3 193d adbf 06bd b617 253c
00000010: b6e6 06be 6d99 5b3d 9976 97bc 3175 70bd
00000020: e1de 9d3c cfce 5f3d 0460 77bd 184e 46bd
00000030: 7e85 8bbd 3eef aa3d d71e 2abe da1b 143d
00000040: 7db2 dcbd efa8 053b
-0.09096911 0.037524734 -0.03289764 0.010076454 -0.13173947 0.053613115 -0.018489169 -0.058705512
0.019271316 0.054640587 -0.060394302 -0.04841432 -0.06812571 0.08346413 -0.16613327 0.036159374
-0.107762314 0.0020394882
