model.pt (torch_old, 562420 bytes, 14 tensors)

fc1.weight f4 [512, 8]
000000 8d 75 78 3f 15 07 c3 be 1a a6 d6 3d 54 a4 f7 3e
       0.9705437 -0.3809134 0.104809 0.4836756
000010 d3 94 bb 3d a4 19 82 be e5 58 fe 3e 0d e1 26 3f
       0.09159245 -0.25410187 0.49677196 0.6518715
000020 97 0f 35 3e 8c 5e 11 3f 6f 60 e0 3e a7 f7 9c bd
       0.17681728 0.5678489 0.43823573 -0.076644234
000030 51 68 ad 3e 1c 40 0b 3f 5a bb c4 3e a9 3c 30 3f
       0.3386865 0.543947 0.38424188 0.6884256
000040 4a 72 a1 be 46 95 b4 3e 82 d0 16 3e 0b 4f 2f bf
       -0.31532508 0.35270137 0.14727977 -0.68479985
000050 6e 47 33 3f f2 3c 5d bf db 21 8e 3e da 09 47 bd
       0.7003087 -0.8642112 0.27760205 -0.04859338
000060 58 0a 2d 3f 8f cb 8a be 99 8d 03 bf d6 ab b3 be
       0.6759391 -0.27108428 -0.51387936 -0.35092038
000070 19 4d 8e 3e 1a 63 05 bf c8 18 24 3f 85 25 ff 3d
       0.27793196 -0.5210434 0.64100313 0.12458328
000080 1a 20 dd 3d 80 92 b0 be a2 c0 98 bf 30 00 53 be
       0.107971385 -0.3448677 -1.1933787 -0.2060554
000090 f4 77 b4 3f de 6e 07 3f cd c6 bf bd 96 b4 8e bd
       1.4099107 0.52903545 -0.0936409 -0.06968038
0000a0 e1 f6 42 3e 38 21 08 be af 57 39 bb 62 11 cc be
       0.1903949 -0.13293922 -0.0028281023 -0.39857012
0000b0 a7 d9 20 bf 82 2a 54 bf 63 a9 c3 bf 87 c8 44 bf
       -0.6283211 -0.8287736 -1.5286068 -0.7686848
0000c0 0b 42 6e bd bc 43 16 bf e7 46 2e 3f 98 a9 02 3f
       -0.058168452 -0.58697104 0.6807694 0.5104003
0000d0 a5 ad 3d bf d0 0f 82 be 0a fd ad 3f 5e 79 d3 bc
       -0.74093086 -0.2540269 1.3592846 -0.025814708
0000e0 43 fa 35 be eb 43 bd bf 74 64 23 bf 84 8d 08 3f
       -0.17771249 -1.4786352 -0.63825154 0.53340936
0000f0 17 04 35 3f 19 41 1a bf 2a e2 87 3e e6 15 69 3d
       0.70709366 -0.6025558 0.26539737 0.05690565
000100 5a 01 ad be f1 c7 8c 3d 60 db 73 bf 92 f9 e6 3e
       -0.33790094 0.06874073 -0.95256615 0.45112282
000110 5d c5 0b 3e 51 68 91 be 01 e9 c9 be 38 6f f6 3e
       0.13649507 -0.283999 -0.3943558 0.48131728
000120 fb 02 38 3f 22 1c 65 3e 16 9f cd be 11 62 41 bf
       0.7187955 0.22374013 -0.40160435 -0.7554026
000130 ab 19 bb 3e 92 f0 dd bd a9 1c 4c 3e 64 5a cb be
       0.3654302 -0.10836901 0.19932808 -0.397174
000140 2f c5 5f 3f 19 1d 72 be f4 05 d4 bd 65 24 29 3f
       0.87410253 -0.23643912 -0.10352698 0.6607116
000150 1f 9a 98 be 87 ec 82 be 1c d8 34 3f de 5d e2 3e
       -0.29805085 -0.2557108 0.70642257 0.4421224
000160 f3 1d 16 3e b7 98 8e 3c 03 82 f7 bd 0f 7c 5b be
       0.14659862 0.017406804 -0.12085345 -0.21434043
000170 49 d7 be 3d f3 94 4f 3e ed a4 f8 be d8 9a 6d be
       0.09318406 0.20271663 -0.48563328 -0.232036
000180 2b f6 e6 3e 1b db 99 bb bf 72 9a 3c e3 a0 cb be
       0.45109686 -0.004695309 0.018853543 -0.39771184
000190 58 ec 69 3d 78 cc 08 bf af 1d 82 3e b1 5e a1 be
       0.05711016 -0.53436995 0.25413272 -0.31517556
0001a0 2b 3d bb bd 65 17 4f be 70 55 17 3f b6 ed 2e 3d
       -0.09142526 -0.20223768 0.5911474 0.042707168
0001b0 ef 05 9e 3d bf 31 3a 3e 16 6b 2a 3d 8f 9b b7 be
       0.077159755 0.18183039 0.04160603 -0.3586087
0001c0 a5 a5 da bd 6a 23 c4 3e 98 c6 d0 3e 5a f3 24 bd
       -0.106761254 0.3830827 0.40776515 -0.04027114
0001d0 0b c9 51 3e 00 2d 91 3f 3b 85 c2 be 72 80 c5 bf
       0.20486848 1.1341858 -0.37992272 -1.5429823
0001e0 af bd c2 bd fd 68 57 3e c0 3d de be 63 dc 82 be
       -0.095088355 0.21036144 -0.43406487 -0.25558767
0001f0 a5 fc f4 3e 30 fc ab 3e 75 2c 02 3e 3b 14 63 3d
       0.47849002 0.3359084 0.12712272 0.055439215
000200 dc 03 b5 be b2 ca 05 bd 56 2a f7 be c9 34 51 be
       -0.35354507 -0.03266401 -0.48274487 -0.20430292
000210 2a d6 a9 bc f8 ba b7 be 81 39 1c bf 22 aa 07 bf
       -0.020732004 -0.35884833 -0.61025244 -0.5299398
000220 68 b6 bb 3d c3 9f 4c be ca 2e 10 3f 77 25 76 3e
       0.091656506 -0.1998282 0.56321394 0.24037729
000230 4b 5b 05 bf f7 e2 4d 3e 33 68 f5 3e 52 83 54 3f
       -0.52092427 0.20106111 0.4793106 0.8301288
000240 e1 54 70 3d 3f b0 9e 3e ea 2c e8 bd 1b d7 89 be
       0.058674697 0.3099384 -0.11336692 -0.26921925
000250 75 63 65 bf ef 5b 36 bf d4 b5 01 c0 d9 fd bb be
       -0.89604884 -0.7123403 -2.026723 -0.36717108
000260 04 6c 15 3e fb 14 8a 3e 76 59 4c be 3f 10 c9 be
       0.14591986 0.26969132 -0.19956002 -0.39270207
000270 13 7f 26 c0 fe 9b 1a bf a1 47 a9 bf fb 6f 06 bf
       -2.601506 -0.60394275 -1.3224984 -0.5251462
000280 34 e7 91 be 61 a1 c6 3e d3 23 6c 3e 16 7a 28 3f
       -0.28496706 0.38794997 0.23060541 0.6581129
000290 4f 4a 4a 3d 0a c5 18 bc 30 80 a4 be 89 c8 be 3d
       0.049387272 -0.0093243215 -0.3212905 0.09315593
0002a0 34 95 a2 bc 2a 83 97 bd 00 63 34 c0 7a ee dc 3d
       -0.019846536 -0.073980644 -2.8185425 0.10787673
0002b0 ba 8f 37 3f 80 a6 12 bf e1 94 40 3f 09 bb 24 bf
       0.71703684 -0.5728531 0.7522717 -0.64347893
0002c0 49 a3 9e bd 9e 7b 0f 3e 5f 38 e2 be c8 b4 58 bf
       -0.07745988 0.14012 -0.44183633 -0.8465085
0002d0 56 c3 ba 3d b3 86 77 3e 0c 36 a4 bf 4c fd b5 bd
       0.091192886 0.24172477 -1.2828994 -0.08886203
0002e0 d5 42 17 3f e9 6e 16 3e 79 33 13 bf 40 e3 c2 3d
       0.5908635 0.14690746 -0.57500416 0.09516001
0002f0 d3 fe 90 3f 14 de 8b 3f e6 da 11 bf 56 df 7b 3d
       1.1327766 1.0927148 -0.5697464 0.061492287
000300 45 e9 c5 3e 3e 5b 09 3e 1e 7b 8f be 31 03 53 be
       0.38654533 0.13413712 -0.28023618 -0.20606686
000310 3e b3 14 3f e9 28 3c bd b9 cb 72 3f 31 b4 69 be
       0.58086 -0.045937452 0.94842106 -0.22822644
000320 ce 9b 88 3f 7b 0d 8a 3e 2e 77 85 3e 91 43 0d be
       1.0672548 0.2696341 0.2606749 -0.13795306
000330 8e 71 6d bc 4f f1 61 bd 59 50 ff be 27 b2 88 3e
       -0.014492406 -0.05516177 -0.49865988 0.2669842
000340 41 9e dd 3d 99 32 bc bc f9 00 02 3e 0d 4c 31 3e
       0.108212 -0.022973346 0.12695684 0.17314167
000350 9f 26 9d 3e dd ed 5e be e1 c0 f6 bf 89 44 b9 3e
       0.30693528 -0.21770425 -1.9277612 0.361851
000360 fb 57 a4 3d df e1 09 3e 1f 66 58 be 78 53 33 bf
       0.080245934 0.13465069 -0.21132706 -0.7004924
000370 b5 29 02 bf 56 c3 b1 3e ec 0a d4 3e dc 15 08 c0
       -0.5084489 0.34719342 0.41414583 -2.1263342
000380 0f 7f b1 3f 0b 29 1b 3f 5b bb de be b7 42 76 be
       1.38669 0.606095 -0.43502316 -0.24048887
000390 81 ba 9b be a6 a9 5a 3f 2d db fb 3d da 76 c1 be
       -0.3041573 0.8541511 0.12297664 -0.3778599
0003a0 3d 33 5c be f9 f1 53 be 73 ca 80 3e 0b db b9 bd
       -0.21503921 -0.20697774 0.25154456 -0.09074982
0003b0 15 de 42 bf 7d 17 40 3f 6d 66 83 3f 2c 70 2b c0
       -0.7612012 0.7503584 1.0265633 -2.6787214
0003c0 b3 c2 04 bf 84 21 c3 3e 8f e8 b2 bd a9 fd 22 be
       -0.5185959 0.38111508 -0.08735763 -0.15917076
0003d0 ff 69 51 3c 83 c7 d3 be fb fb c1 3a ec e5 10 3e
       0.012781619 -0.41363153 0.0014799827 0.14150208
0003e0 ac 8f e9 bf a7 fa d0 be ea 52 44 bf 08 88 d7 3e
       -1.824697 -0.40816233 -0.76689017 0.4209597
0003f0 3e 72 aa 3e e7 0d a2 be d4 54 f3 3d af fe ef bd
       0.33290285 -0.31651232 0.11881414 -0.11718499

fc1.bias f4 [512]
000000 a6 ac a4 3d 75 5e 96 3d 32 69 b6 bd 76 30 41 3f
       0.080407426 0.07342235 -0.08906783 0.7546457
000010 41 6d cc be 1e 69 f5 3d 6f 92 6c bf 50 6f a5 3e
       -0.39927104 0.1198294 -0.9241094 0.32311487
000020 e2 db 09 bf 73 1d b2 be 12 7a 57 be 95 bc d4 3e
       -0.5385114 -0.34788093 -0.2104266 0.41550127
000030 ef 44 00 3e 75 51 02 3f a4 56 0d 3c 07 19 25 3f
       0.12526296 0.50905544 0.008626614 0.64491314
000040 a8 c2 10 3e 56 f3 9b be 1d 49 56 3e 63 bb f9 be
       0.14136755 -0.30459088 0.20926328 -0.48775777
000050 d3 ec dd be a6 95 eb bd 0c 89 6a 3d 88 c4 01 3c
       -0.43344745 -0.115031525 0.057259604 0.007920392
000060 0a f8 11 3f 85 90 c5 3d 3c 47 4b 3e 12 05 0d bd
       0.570191 0.096467055 0.19851393 -0.034428664
000070 df bc da bc 0b 66 ab 3e c7 9f 79 3d 2c d0 83 3e
       -0.026701389 0.3347629 0.06094339 0.2574476
000080 c1 10 e2 3e a6 9d 89 be 20 ba 34 3f c8 61 fb 3e
       0.44153407 -0.2687809 0.70596504 0.4909804
000090 d2 b1 f1 3e ad 8f b6 3d 5f 7b 53 3f 36 67 c6 3e
       0.4720598 0.08914123 0.82610124 0.3875062
0000a0 17 c7 f2 3c 0e 83 c8 3e 59 36 3a be 19 1b 29 3e
       0.029635949 0.39162487 -0.18184794 0.16514243
0000b0 58 0e 05 3f 9f 6c eb 3d 3d d8 05 3f 75 d4 db 3e
       0.5197501 0.11495327 0.5228308 0.4293553
0000c0 d9 99 ce 3e 76 14 26 3d 0c de f4 3e 29 50 e3 3e
       0.4035175 0.040546857 0.47825658 0.44397095
0000d0 52 c7 70 3c e1 6c bd 3e 5a ae 70 3d e4 8e 53 3e
       0.014695959 0.3699713 0.058760025 0.20659977
0000e0 b5 79 db bc d9 5c 3e 3f d8 60 2e 3f e5 c8 34 bf
       -0.026791433 0.74360424 0.6811652 -0.7061904
0000f0 dc 37 b4 3e 52 83 0e 3f 17 58 d3 be d9 8a f3 bd
       0.35198867 0.5566913 -0.41278145 -0.118917175
000100 48 6d ac 3e 77 53 c3 3d f6 77 53 be 6b d2 df 3e
       0.33677125 0.09537404 -0.2065123 0.43715224
000110 31 ad 0c bf cc 1b 3e bf 82 f4 d4 3e f4 69 4a 3f
       -0.5495177 -0.74261165 0.41592795 0.7906792
000120 52 f1 ad bd 61 f3 03 3f 0f 5b 0e 3e 8d 31 dd 3e
       -0.08493294 0.5154324 0.13901924 0.43201867
000130 0e 1d 92 3e 80 91 4a be d0 f9 fc 3e 91 e7 fe 3d
       0.28537792 -0.19782066 0.49409342 0.124465115
000140 56 04 6d be 4a 79 9b 3e 09 11 58 bd 27 29 3e be
       -0.23146185 0.30365974 -0.05275062 -0.18570386
000150 97 f4 bc 3e 68 b3 88 3e e3 3f 31 3e 27 90 58 be
       0.36905357 0.26699376 0.17309527 -0.2114874
000160 08 c5 34 3f 25 bc 16 3d 6f ab 24 bf 77 7a 0a 3c
       0.70613146 0.036800522 -0.64324087 0.008452049
000170 7c 0c 93 3e a2 1c 0b bf e2 b0 9c be 0a ce 14 be
       0.28720462 -0.54340565 -0.306037 -0.14531723
000180 ca 01 ef 3e ee 0d 8d be fe fd 4c 3d c9 b7 44 bf
       0.46681052 -0.2754969 0.050046913 -0.76842934
000190 49 fa 56 be 58 b7 2c 3f 4c 1e ca 3b b3 c0 9e 3e
       -0.20993914 0.6746726 0.0061681625 0.31006393
0001a0 b8 4a 93 be 49 96 6c 3e c0 a1 a5 bd 85 15 05 bf
       -0.28767943 0.23104204 -0.08087492 -0.5198596
0001b0 c5 d1 67 3f db 4a 94 be 29 11 23 3e ac d3 41 be
       0.9055446 -0.2896336 0.15924515 -0.18928403
0001c0 63 63 c7 3e 47 32 f2 bd b9 25 24 bd af 48 72 3d
       0.38943014 -0.11825996 -0.040075038 0.059151348
0001d0 62 40 c1 bd 79 5f 4b 3f 85 ae 26 bf 85 53 b7 bb
       -0.09436108 0.79442555 -0.65110046 -0.005594673
0001e0 cd 9e 1b 3f 1d 3c a2 be f9 88 ca 3e ea b5 87 3e
       0.60789186 -0.31686488 0.39557627 0.26505977
0001f0 b4 79 73 3e be 06 77 3d 6f fb 86 3e 11 40 19 bf
       0.23776895 0.060309164 0.26363704 -0.5986338
000200 90 4a 4c bd 06 4c b9 3c 9d 11 5c 3e cc e8 76 3e
       -0.049875796 0.022619259 0.21491094 0.24112242
000210 ee 7c b5 3e 6a 6e 78 bc 16 bd 1b 3e 98 8e 00 bf
       0.35446876 -0.0151630435 0.1520885 -0.5021758
000220 66 e2 3e bd 6f bb bf be db be 16 3f 6b 21 4f be
       -0.04660263 -0.37447688 0.5888497 -0.20227592
000230 15 5a 1d 3f 2c 36 a8 3e 19 8c c2 be 24 7c 22 3c
       0.6146558 0.3285383 -0.3799751 0.009917293
000240 37 29 fe 3e c0 57 41 3e f5 17 2f 3e f7 a1 e3 3e
       0.4964082 0.1888113 0.17098983 0.44459507
000250 c7 c2 e7 be 6b 95 95 bb 75 89 04 be 56 6e 0f be
       -0.4526579 -0.004564931 -0.1294306 -0.14006934
000260 27 ad 8c bf db a9 18 3c 5f 14 bf 3e da 30 e1 3e
       -1.0990342 0.00931784 0.3732023 0.43982583
000270 ad 80 13 bb 35 3f c2 bc b7 81 84 3e d8 95 53 3e
       -0.0022507117 -0.02371178 0.25880215 0.2066263
000280 1d fb f8 3d 76 80 66 3e 3b 2f c6 be 18 70 08 3f
       0.12157271 0.22509941 -0.3870791 0.5329604
000290 a3 28 8a 3f 4f 70 6a bd 77 a4 9e bd 72 f7 05 be
       1.0793651 -0.057236012 -0.07746213 -0.13082674
0002a0 dd 4a 73 bd 99 4d 45 3f c7 11 d9 be 07 09 20 be
       -0.059397567 0.7707153 -0.42396376 -0.15628444
0002b0 20 c6 fc 3e 45 38 9a be c9 36 31 3f 22 a9 cb bd
       0.49369907 -0.30121055 0.6922422 -0.09944369
0002c0 6d 9c c8 bd d3 a3 6a 3e b7 c8 bc be de 73 54 be
       -0.09795461 0.22914056 -0.36871883 -0.20747325
0002d0 34 04 79 3e 93 c5 2c 3f e6 c9 24 3f 00 fd 86 3c
       0.2431801 0.67488974 0.6437057 0.016478062
0002e0 08 37 ea 3e ca ce 81 3d cd 9a 83 3e 9c 23 6b be
       0.4574511 0.0633827 0.2570404 -0.22962803
0002f0 76 b3 94 3e 94 0a e4 bd 3b d8 d7 3d 6e 43 ab be
       0.29043168 -0.1113483 0.105392896 -0.33449882
000300 bf 0b c0 3e d6 5b 24 3f 84 5c a1 be cd 55 eb be
       0.37508962 0.6420263 -0.31515896 -0.45963898
000310 cc ef 16 be 92 9e 1e 3f 94 2a 10 3f 36 a6 be 3e
       -0.14739913 0.6196071 0.5631497 0.37236184
000320 a5 4b bd 3e 82 e1 f4 be e3 2b 5a be e3 e9 3b bc
       0.36971775 -0.478283 -0.21305804 -0.011469337
000330 e1 b0 80 3f d7 f0 58 bf b8 86 71 3e 28 12 bf bd
       1.0053979 -0.8474249 0.23586547 -0.09329635
000340 c7 00 2f bc d7 f4 68 bc 3c a2 8e 3e cc 6d ab 3d
       -0.010681338 -0.014218531 0.2785815 0.083705515
000350 30 47 2e 3e 43 30 47 bd b8 0b 73 bd ee 94 fb 3e
       0.17019343 -0.04863001 -0.059337348 0.49137062
000360 76 8a 3a 3f 59 ea c7 3d 22 17 59 3f 75 ca a3 3d
       0.72867525 0.09761495 0.8480092 0.079976
000370 86 33 07 3f 65 54 3f be 0f ed fc be 7f ec 13 3f
       0.52812994 -0.18684538 -0.4939961 0.5778274
000380 02 77 d6 3c c8 07 cf bd 3b 8f e1 3e 04 cf 4b 3e
       0.026179794 -0.10108906 0.4405459 0.19903189
000390 f1 bf 0d 3e b2 bc 27 3c 9d a0 9d bd 30 1e 82 be
       0.13842751 0.01023786 -0.0769665 -0.25413656
0003a0 bd 19 9f bd 6c 28 13 3f 4d 13 b2 be ed 12 27 3f
       -0.07768581 0.57483554 -0.3478035 0.65263253
0003b0 f3 0e b2 be f8 cc bf 3e 25 f3 17 bf 32 9f 16 3f
       -0.3477703 0.37461066 -0.59355384 0.5883666
0003c0 62 5a 72 be d4 5d 6e bd 93 ba 09 bf 43 ea 02 3e
       -0.23667291 -0.05819495 -0.53800315 0.12784676
0003d0 c2 36 b0 3e f9 e8 a5 bd 75 82 c5 bd 6b 24 8d be
       0.34416777 -0.08101077 -0.09644023 -0.27566847
0003e0 00 01 cc be 3e 89 30 be 86 b6 95 3e e5 4e c4 3d
       -0.39844513 -0.17239854 0.29240817 0.095853604
0003f0 04 10 5c bf 04 01 04 3f 46 37 a3 be e6 89 33 3f
       -0.8596194 0.5156405 -0.31878108 0.7013229

bn1.weight f4 [512]
000000 00 00 80 3f 00 00 80 3f 00 00 80 3f 00 00 80 3f
       1.0 1.0 1.0 1.0
000010 00 00 80 3f 00 00 80 3f 00 00 80 3f 00 00 80 3f
       1.0 1.0 1.0 1.0
000020 00 00 80 3f 00 00 80 3f 00 00 80 3f 00 00 80 3f
       1.0 1.0 1.0 1.0
000030 00 00 80 3f 00 00 80 3f 00 00 80 3f 00 00 80 3f
       1.0 1.0 1.0 1.0
000040 00 00 80 3f 00 00 80 3f 00 00 80 3f 00 00 80 3f
       1.0 1.0 1.0 1.0
000050 00 00 80 3f 00 00 80 3f 00 00 80 3f 00 00 80 3f
       1.0 1.0 1.0 1.0
000060 00 00 80 3f 00 00 80 3f 00 00 80 3f 00 00 80 3f
       1.0 1.0 1.0 1.0
000070 00 00 80 3f 00 00 80 3f 00 00 80 3f 00 00 80 3f
       1.0 1.0 1.0 1.0
000080 00 00 80 3f 00 00 80 3f 00 00 80 3f 00 00 80 3f
       1.0 1.0 1.0 1.0
000090 00 00 80 3f 00 00 80 3f 00 00 80 3f 00 00 80 3f
       1.0 1.0 1.0 1.0
0000a0 00 00 80 3f 00 00 80 3f 00 00 80 3f 00 00 80 3f
       1.0 1.0 1.0 1.0
0000b0 00 00 80 3f 00 00 80 3f 00 00 80 3f 00 00 80 3f
       1.0 1.0 1.0 1.0
0000c0 00 00 80 3f 00 00 80 3f 00 00 80 3f 00 00 80 3f
       1.0 1.0 1.0 1.0
0000d0 00 00 80 3f 00 00 80 3f 00 00 80 3f 00 00 80 3f
       1.0 1.0 1.0 1.0
0000e0 00 00 80 3f 00 00 80 3f 00 00 80 3f 00 00 80 3f
       1.0 1.0 1.0 1.0
0000f0 00 00 80 3f 00 00 80 3f 00 00 80 3f 00 00 80 3f
       1.0 1.0 1.0 1.0
000100 00 00 80 3f 00 00 80 3f 00 00 80 3f 00 00 80 3f
       1.0 1.0 1.0 1.0
000110 00 00 80 3f 00 00 80 3f 00 00 80 3f 00 00 80 3f
       1.0 1.0 1.0 1.0
000120 00 00 80 3f 00 00 80 3f 00 00 80 3f 00 00 80 3f
       1.0 1.0 1.0 1.0
000130 00 00 80 3f 00 00 80 3f 00 00 80 3f 00 00 80 3f
       1.0 1.0 1.0 1.0
000140 00 00 80 3f 00 00 80 3f 00 00 80 3f 00 00 80 3f
       1.0 1.0 1.0 1.0
000150 00 00 80 3f 00 00 80 3f 00 00 80 3f 00 00 80 3f
       1.0 1.0 1.0 1.0
000160 00 00 80 3f 00 00 80 3f 00 00 80 3f 00 00 80 3f
       1.0 1.0 1.0 1.0
000170 00 00 80 3f 00 00 80 3f 00 00 80 3f 00 00 80 3f
       1.0 1.0 1.0 1.0
000180 00 00 80 3f 00 00 80 3f 00 00 80 3f 00 00 80 3f
       1.0 1.0 1.0 1.0
000190 00 00 80 3f 00 00 80 3f 00 00 80 3f 00 00 80 3f
       1.0 1.0 1.0 1.0
0001a0 00 00 80 3f 00 00 80 3f 00 00 80 3f 00 00 80 3f
       1.0 1.0 1.0 1.0
0001b0 00 00 80 3f 00 00 80 3f 00 00 80 3f 00 00 80 3f
       1.0 1.0 1.0 1.0
0001c0 00 00 80 3f 00 00 80 3f 00 00 80 3f 00 00 80 3f
       1.0 1.0 1.0 1.0
0001d0 00 00 80 3f 00 00 80 3f 00 00 80 3f 00 00 80 3f
       1.0 1.0 1.0 1.0
0001e0 00 00 80 3f 00 00 80 3f 00 00 80 3f 00 00 80 3f
       1.0 1.0 1.0 1.0
0001f0 00 00 80 3f 00 00 80 3f 00 00 80 3f 00 00 80 3f
       1.0 1.0 1.0 1.0
000200 00 00 80 3f 00 00 80 3f 00 00 80 3f 00 00 80 3f
       1.0 1.0 1.0 1.0
000210 00 00 80 3f 00 00 80 3f 00 00 80 3f 00 00 80 3f
       1.0 1.0 1.0 1.0
000220 00 00 80 3f 00 00 80 3f 00 00 80 3f 00 00 80 3f
       1.0 1.0 1.0 1.0
000230 00 00 80 3f 00 00 80 3f 00 00 80 3f 00 00 80 3f
       1.0 1.0 1.0 1.0
000240 00 00 80 3f 00 00 80 3f 00 00 80 3f 00 00 80 3f
       1.0 1.0 1.0 1.0
000250 00 00 80 3f 00 00 80 3f 00 00 80 3f 00 00 80 3f
       1.0 1.0 1.0 1.0
000260 00 00 80 3f 00 00 80 3f 00 00 80 3f 00 00 80 3f
       1.0 1.0 1.0 1.0
000270 00 00 80 3f 00 00 80 3f 00 00 80 3f 00 00 80 3f
       1.0 1.0 1.0 1.0
000280 00 00 80 3f 00 00 80 3f 00 00 80 3f 00 00 80 3f
       1.0 1.0 1.0 1.0
000290 00 00 80 3f 00 00 80 3f 00 00 80 3f 00 00 80 3f
       1.0 1.0 1.0 1.0
0002a0 00 00 80 3f 00 00 80 3f 00 00 80 3f 00 00 80 3f
       1.0 1.0 1.0 1.0
0002b0 00 00 80 3f 00 00 80 3f 00 00 80 3f 00 00 80 3f
       1.0 1.0 1.0 1.0
0002c0 00 00 80 3f 00 00 80 3f 00 00 80 3f 00 00 80 3f
       1.0 1.0 1.0 1.0
0002d0 00 00 80 3f 00 00 80 3f 00 00 80 3f 00 00 80 3f
       1.0 1.0 1.0 1.0
0002e0 00 00 80 3f 00 00 80 3f 00 00 80 3f 00 00 80 3f
       1.0 1.0 1.0 1.0
0002f0 00 00 80 3f 00 00 80 3f 00 00 80 3f 00 00 80 3f
       1.0 1.0 1.0 1.0
000300 00 00 80 3f 00 00 80 3f 00 00 80 3f 00 00 80 3f
       1.0 1.0 1.0 1.0
000310 00 00 80 3f 00 00 80 3f 00 00 80 3f 00 00 80 3f
       1.0 1.0 1.0 1.0
000320 00 00 80 3f 00 00 80 3f 00 00 80 3f 00 00 80 3f
       1.0 1.0 1.0 1.0
000330 00 00 80 3f 00 00 80 3f 00 00 80 3f 00 00 80 3f
       1.0 1.0 1.0 1.0
000340 00 00 80 3f 00 00 80 3f 00 00 80 3f 00 00 80 3f
       1.0 1.0 1.0 1.0
000350 00 00 80 3f 00 00 80 3f 00 00 80 3f 00 00 80 3f
       1.0 1.0 1.0 1.0
000360 00 00 80 3f 00 00 80 3f 00 00 80 3f 00 00 80 3f
       1.0 1.0 1.0 1.0
000370 00 00 80 3f 00 00 80 3f 00 00 80 3f 00 00 80 3f
       1.0 1.0 1.0 1.0
000380 00 00 80 3f 00 00 80 3f 00 00 80 3f 00 00 80 3f
       1.0 1.0 1.0 1.0
000390 00 00 80 3f 00 00 80 3f 00 00 80 3f 00 00 80 3f
       1.0 1.0 1.0 1.0
0003a0 00 00 80 3f 00 00 80 3f 00 00 80 3f 00 00 80 3f
       1.0 1.0 1.0 1.0
0003b0 00 00 80 3f 00 00 80 3f 00 00 80 3f 00 00 80 3f
       1.0 1.0 1.0 1.0
0003c0 00 00 80 3f 00 00 80 3f 00 00 80 3f 00 00 80 3f
       1.0 1.0 1.0 1.0
0003d0 00 00 80 3f 00 00 80 3f 00 00 80 3f 00 00 80 3f
       1.0 1.0 1.0 1.0
0003e0 00 00 80 3f 00 00 80 3f 00 00 80 3f 00 00 80 3f
       1.0 1.0 1.0 1.0
0003f0 00 00 80 3f 00 00 80 3f 00 00 80 3f 00 00 80 3f
       1.0 1.0 1.0 1.0

bn1.bias f4 [512]
000000 00 00 00 00 00 00 00 00 00 00 00 00 00 00 00 00
       0.0 0.0 0.0 0.0
000010 00 00 00 00 00 00 00 00 00 00 00 00 00 00 00 00
       0.0 0.0 0.0 0.0
000020 00 00 00 00 00 00 00 00 00 00 00 00 00 00 00 00
       0.0 0.0 0.0 0.0
000030 00 00 00 00 00 00 00 00 00 00 00 00 00 00 00 00
       0.0 0.0 0.0 0.0
000040 00 00 00 00 00 00 00 00 00 00 00 00 00 00 00 00
       0.0 0.0 0.0 0.0
000050 00 00 00 00 00 00 00 00 00 00 00 00 00 00 00 00
       0.0 0.0 0.0 0.0
000060 00 00 00 00 00 00 00 00 00 00 00 00 00 00 00 00
       0.0 0.0 0.0 0.0
000070 00 00 00 00 00 00 00 00 00 00 00 00 00 00 00 00
       0.0 0.0 0.0 0.0
000080 00 00 00 00 00 00 00 00 00 00 00 00 00 00 00 00
       0.0 0.0 0.0 0.0
000090 00 00 00 00 00 00 00 00 00 00 00 00 00 00 00 00
       0.0 0.0 0.0 0.0
0000a0 00 00 00 00 00 00 00 00 00 00 00 00 00 00 00 00
       0.0 0.0 0.0 0.0
0000b0 00 00 00 00 00 00 00 00 00 00 00 00 00 00 00 00
       0.0 0.0 0.0 0.0
0000c0 00 00 00 00 00 00 00 00 00 00 00 00 00 00 00 00
       0.0 0.0 0.0 0.0
0000d0 00 00 00 00 00 00 00 00 00 00 00 00 00 00 00 00
       0.0 0.0 0.0 0.0
0000e0 00 00 00 00 00 00 00 00 00 00 00 00 00 00 00 00
       0.0 0.0 0.0 0.0
0000f0 00 00 00 00 00 00 00 00 00 00 00 00 00 00 00 00
       0.0 0.0 0.0 0.0
000100 00 00 00 00 00 00 00 00 00 00 00 00 00 00 00 00
       0.0 0.0 0.0 0.0
000110 00 00 00 00 00 00 00 00 00 00 00 00 00 00 00 00
       0.0 0.0 0.0 0.0
000120 00 00 00 00 00 00 00 00 00 00 00 00 00 00 00 00
       0.0 0.0 0.0 0.0
000130 00 00 00 00 00 00 00 00 00 00 00 00 00 00 00 00
       0.0 0.0 0.0 0.0
000140 00 00 00 00 00 00 00 00 00 00 00 00 00 00 00 00
       0.0 0.0 0.0 0.0
000150 00 00 00 00 00 00 00 00 00 00 00 00 00 00 00 00
       0.0 0.0 0.0 0.0
000160 00 00 00 00 00 00 00 00 00 00 00 00 00 00 00 00
       0.0 0.0 0.0 0.0
000170 00 00 00 00 00 00 00 00 00 00 00 00 00 00 00 00
       0.0 0.0 0.0 0.0
000180 00 00 00 00 00 00 00 00 00 00 00 00 00 00 00 00
       0.0 0.0 0.0 0.0
000190 00 00 00 00 00 00 00 00 00 00 00 00 00 00 00 00
       0.0 0.0 0.0 0.0
0001a0 00 00 00 00 00 00 00 00 00 00 00 00 00 00 00 00
       0.0 0.0 0.0 0.0
0001b0 00 00 00 00 00 00 00 00 00 00 00 00 00 00 00 00
       0.0 0.0 0.0 0.0
0001c0 00 00 00 00 00 00 00 00 00 00 00 00 00 00 00 00
       0.0 0.0 0.0 0.0
0001d0 00 00 00 00 00 00 00 00 00 00 00 00 00 00 00 00
       0.0 0.0 0.0 0.0
0001e0 00 00 00 00 00 00 00 00 00 00 00 00 00 00 00 00
       0.0 0.0 0.0 0.0
0001f0 00 00 00 00 00 00 00 00 00 00 00 00 00 00 00 00
       0.0 0.0 0.0 0.0
000200 00 00 00 00 00 00 00 00 00 00 00 00 00 00 00 00
       0.0 0.0 0.0 0.0
000210 00 00 00 00 00 00 00 00 00 00 00 00 00 00 00 00
       0.0 0.0 0.0 0.0
000220 00 00 00 00 00 00 00 00 00 00 00 00 00 00 00 00
       0.0 0.0 0.0 0.0
000230 00 00 00 00 00 00 00 00 00 00 00 00 00 00 00 00
       0.0 0.0 0.0 0.0
000240 00 00 00 00 00 00 00 00 00 00 00 00 00 00 00 00
       0.0 0.0 0.0 0.0
000250 00 00 00 00 00 00 00 00 00 00 00 00 00 00 00 00
       0.0 0.0 0.0 0.0
000260 00 00 00 00 00 00 00 00 00 00 00 00 00 00 00 00
       0.0 0.0 0.0 0.0
000270 00 00 00 00 00 00 00 00 00 00 00 00 00 00 00 00
       0.0 0.0 0.0 0.0
000280 00 00 00 00 00 00 00 00 00 00 00 00 00 00 00 00
       0.0 0.0 0.0 0.0
000290 00 00 00 00 00 00 00 00 00 00 00 00 00 00 00 00
       0.0 0.0 0.0 0.0
0002a0 00 00 00 00 00 00 00 00 00 00 00 00 00 00 00 00
       0.0 0.0 0.0 0.0
0002b0 00 00 00 00 00 00 00 00 00 00 00 00 00 00 00 00
       0.0 0.0 0.0 0.0
0002c0 00 00 00 00 00 00 00 00 00 00 00 00 00 00 00 00
       0.0 0.0 0.0 0.0
0002d0 00 00 00 00 00 00 00 00 00 00 00 00 00 00 00 00
       0.0 0.0 0.0 0.0
0002e0 00 00 00 00 00 00 00 00 00 00 00 00 00 00 00 00
       0.0 0.0 0.0 0.0
0002f0 00 00 00 00 00 00 00 00 00 00 00 00 00 00 00 00
       0.0 0.0 0.0 0.0
000300 00 00 00 00 00 00 00 00 00 00 00 00 00 00 00 00
       0.0 0.0 0.0 0.0
000310 00 00 00 00 00 00 00 00 00 00 00 00 00 00 00 00
       0.0 0.0 0.0 0.0
000320 00 00 00 00 00 00 00 00 00 00 00 00 00 00 00 00
       0.0 0.0 0.0 0.0
000330 00 00 00 00 00 00 00 00 00 00 00 00 00 00 00 00
       0.0 0.0 0.0 0.0
000340 00 00 00 00 00 00 00 00 00 00 00 00 00 00 00 00
       0.0 0.0 0.0 0.0
000350 00 00 00 00 00 00 00 00 00 00 00 00 00 00 00 00
       0.0 0.0 0.0 0.0
000360 00 00 00 00 00 00 00 00 00 00 00 00 00 00 00 00
       0.0 0.0 0.0 0.0
000370 00 00 00 00 00 00 00 00 00 00 00 00 00 00 00 00
       0.0 0.0 0.0 0.0
000380 00 00 00 00 00 00 00 00 00 00 00 00 00 00 00 00
       0.0 0.0 0.0 0.0
000390 00 00 00 00 00 00 00 00 00 00 00 00 00 00 00 00
       0.0 0.0 0.0 0.0
0003a0 00 00 00 00 00 00 00 00 00 00 00 00 00 00 00 00
       0.0 0.0 0.0 0.0
0003b0 00 00 00 00 00 00 00 00 00 00 00 00 00 00 00 00
       0.0 0.0 0.0 0.0
0003c0 00 00 00 00 00 00 00 00 00 00 00 00 00 00 00 00
       0.0 0.0 0.0 0.0
0003d0 00 00 00 00 00 00 00 00 00 00 00 00 00 00 00 00
       0.0 0.0 0.0 0.0
0003e0 00 00 00 00 00 00 00 00 00 00 00 00 00 00 00 00
       0.0 0.0 0.0 0.0
0003f0 00 00 00 00 00 00 00 00 00 00 00 00 00 00 00 00
       0.0 0.0 0.0 0.0

bn1.running_mean f4 [512]
000000 00 00 00 00 00 00 00 00 00 00 00 00 00 00 00 00
       0.0 0.0 0.0 0.0
000010 00 00 00 00 00 00 00 00 00 00 00 00 00 00 00 00
       0.0 0.0 0.0 0.0
000020 00 00 00 00 00 00 00 00 00 00 00 00 00 00 00 00
       0.0 0.0 0.0 0.0
000030 00 00 00 00 00 00 00 00 00 00 00 00 00 00 00 00
       0.0 0.0 0.0 0.0
000040 00 00 00 00 00 00 00 00 00 00 00 00 00 00 00 00
       0.0 0.0 0.0 0.0
000050 00 00 00 00 00 00 00 00 00 00 00 00 00 00 00 00
       0.0 0.0 0.0 0.0
000060 00 00 00 00 00 00 00 00 00 00 00 00 00 00 00 00
       0.0 0.0 0.0 0.0
000070 00 00 00 00 00 00 00 00 00 00 00 00 00 00 00 00
       0.0 0.0 0.0 0.0
000080 00 00 00 00 00 00 00 00 00 00 00 00 00 00 00 00
       0.0 0.0 0.0 0.0
000090 00 00 00 00 00 00 00 00 00 00 00 00 00 00 00 00
       0.0 0.0 0.0 0.0
0000a0 00 00 00 00 00 00 00 00 00 00 00 00 00 00 00 00
       0.0 0.0 0.0 0.0
0000b0 00 00 00 00 00 00 00 00 00 00 00 00 00 00 00 00
       0.0 0.0 0.0 0.0
0000c0 00 00 00 00 00 00 00 00 00 00 00 00 00 00 00 00
       0.0 0.0 0.0 0.0
0000d0 00 00 00 00 00 00 00 00 00 00 00 00 00 00 00 00
       0.0 0.0 0.0 0.0
0000e0 00 00 00 00 00 00 00 00 00 00 00 00 00 00 00 00
       0.0 0.0 0.0 0.0
0000f0 00 00 00 00 00 00 00 00 00 00 00 00 00 00 00 00
       0.0 0.0 0.0 0.0
000100 00 00 00 00 00 00 00 00 00 00 00 00 00 00 00 00
       0.0 0.0 0.0 0.0
000110 00 00 00 00 00 00 00 00 00 00 00 00 00 00 00 00
       0.0 0.0 0.0 0.0
000120 00 00 00 00 00 00 00 00 00 00 00 00 00 00 00 00
       0.0 0.0 0.0 0.0
000130 00 00 00 00 00 00 00 00 00 00 00 00 00 00 00 00
       0.0 0.0 0.0 0.0
000140 00 00 00 00 00 00 00 00 00 00 00 00 00 00 00 00
       0.0 0.0 0.0 0.0
000150 00 00 00 00 00 00 00 00 00 00 00 00 00 00 00 00
       0.0 0.0 0.0 0.0
000160 00 00 00 00 00 00 00 00 00 00 00 00 00 00 00 00
       0.0 0.0 0.0 0.0
000170 00 00 00 00 00 00 00 00 00 00 00 00 00 00 00 00
       0.0 0.0 0.0 0.0
000180 00 00 00 00 00 00 00 00 00 00 00 00 00 00 00 00
       0.0 0.0 0.0 0.0
000190 00 00 00 00 00 00 00 00 00 00 00 00 00 00 00 00
       0.0 0.0 0.0 0.0
0001a0 00 00 00 00 00 00 00 00 00 00 00 00 00 00 00 00
       0.0 0.0 0.0 0.0
0001b0 00 00 00 00 00 00 00 00 00 00 00 00 00 00 00 00
       0.0 0.0 0.0 0.0
0001c0 00 00 00 00 00 00 00 00 00 00 00 00 00 00 00 00
       0.0 0.0 0.0 0.0
0001d0 00 00 00 00 00 00 00 00 00 00 00 00 00 00 00 00
       0.0 0.0 0.0 0.0
0001e0 00 00 00 00 00 00 00 00 00 00 00 00 00 00 00 00
       0.0 0.0 0.0 0.0
0001f0 00 00 00 00 00 00 00 00 00 00 00 00 00 00 00 00
       0.0 0.0 0.0 0.0
000200 00 00 00 00 00 00 00 00 00 00 00 00 00 00 00 00
       0.0 0.0 0.0 0.0
000210 00 00 00 00 00 00 00 00 00 00 00 00 00 00 00 00
       0.0 0.0 0.0 0.0
000220 00 00 00 00 00 00 00 00 00 00 00 00 00 00 00 00
       0.0 0.0 0.0 0.0
000230 00 00 00 00 00 00 00 00 00 00 00 00 00 00 00 00
       0.0 0.0 0.0 0.0
000240 00 00 00 00 00 00 00 00 00 00 00 00 00 00 00 00
       0.0 0.0 0.0 0.0
000250 00 00 00 00 00 00 00 00 00 00 00 00 00 00 00 00
       0.0 0.0 0.0 0.0
000260 00 00 00 00 00 00 00 00 00 00 00 00 00 00 00 00
       0.0 0.0 0.0 0.0
000270 00 00 00 00 00 00 00 00 00 00 00 00 00 00 00 00
       0.0 0.0 0.0 0.0
000280 00 00 00 00 00 00 00 00 00 00 00 00 00 00 00 00
       0.0 0.0 0.0 0.0
000290 00 00 00 00 00 00 00 00 00 00 00 00 00 00 00 00
       0.0 0.0 0.0 0.0
0002a0 00 00 00 00 00 00 00 00 00 00 00 00 00 00 00 00
       0.0 0.0 0.0 0.0
0002b0 00 00 00 00 00 00 00 00 00 00 00 00 00 00 00 00
       0.0 0.0 0.0 0.0
0002c0 00 00 00 00 00 00 00 00 00 00 00 00 00 00 00 00
       0.0 0.0 0.0 0.0
0002d0 00 00 00 00 00 00 00 00 00 00 00 00 00 00 00 00
       0.0 0.0 0.0 0.0
0002e0 00 00 00 00 00 00 00 00 00 00 00 00 00 00 00 00
       0.0 0.0 0.0 0.0
0002f0 00 00 00 00 00 00 00 00 00 00 00 00 00 00 00 00
       0.0 0.0 0.0 0.0
000300 00 00 00 00 00 00 00 00 00 00 00 00 00 00 00 00
       0.0 0.0 0.0 0.0
000310 00 00 00 00 00 00 00 00 00 00 00 00 00 00 00 00
       0.0 0.0 0.0 0.0
000320 00 00 00 00 00 00 00 00 00 00 00 00 00 00 00 00
       0.0 0.0 0.0 0.0
000330 00 00 00 00 00 00 00 00 00 00 00 00 00 00 00 00
       0.0 0.0 0.0 0.0
000340 00 00 00 00 00 00 00 00 00 00 00 00 00 00 00 00
       0.0 0.0 0.0 0.0
000350 00 00 00 00 00 00 00 00 00 00 00 00 00 00 00 00
       0.0 0.0 0.0 0.0
000360 00 00 00 00 00 00 00 00 00 00 00 00 00 00 00 00
       0.0 0.0 0.0 0.0
000370 00 00 00 00 00 00 00 00 00 00 00 00 00 00 00 00
       0.0 0.0 0.0 0.0
000380 00 00 00 00 00 00 00 00 00 00 00 00 00 00 00 00
       0.0 0.0 0.0 0.0
000390 00 00 00 00 00 00 00 00 00 00 00 00 00 00 00 00
       0.0 0.0 0.0 0.0
0003a0 00 00 00 00 00 00 00 00 00 00 00 00 00 00 00 00
       0.0 0.0 0.0 0.0
0003b0 00 00 00 00 00 00 00 00 00 00 00 00 00 00 00 00
       0.0 0.0 0.0 0.0
0003c0 00 00 00 00 00 00 00 00 00 00 00 00 00 00 00 00
       0.0 0.0 0.0 0.0
0003d0 00 00 00 00 00 00 00 00 00 00 00 00 00 00 00 00
       0.0 0.0 0.0 0.0
0003e0 00 00 00 00 00 00 00 00 00 00 00 00 00 00 00 00
       0.0 0.0 0.0 0.0
0003f0 00 00 00 00 00 00 00 00 00 00 00 00 00 00 00 00
       0.0 0.0 0.0 0.0

bn1.running_var f4 [512]
000000 00 00 80 3f 00 00 80 3f 00 00 80 3f 00 00 80 3f
       1.0 1.0 1.0 1.0
000010 00 00 80 3f 00 00 80 3f 00 00 80 3f 00 00 80 3f
       1.0 1.0 1.0 1.0
000020 00 00 80 3f 00 00 80 3f 00 00 80 3f 00 00 80 3f
       1.0 1.0 1.0 1.0
000030 00 00 80 3f 00 00 80 3f 00 00 80 3f 00 00 80 3f
       1.0 1.0 1.0 1.0
000040 00 00 80 3f 00 00 80 3f 00 00 80 3f 00 00 80 3f
       1.0 1.0 1.0 1.0
000050 00 00 80 3f 00 00 80 3f 00 00 80 3f 00 00 80 3f
       1.0 1.0 1.0 1.0
000060 00 00 80 3f 00 00 80 3f 00 00 80 3f 00 00 80 3f
       1.0 1.0 1.0 1.0
000070 00 00 80 3f 00 00 80 3f 00 00 80 3f 00 00 80 3f
       1.0 1.0 1.0 1.0
000080 00 00 80 3f 00 00 80 3f 00 00 80 3f 00 00 80 3f
       1.0 1.0 1.0 1.0
000090 00 00 80 3f 00 00 80 3f 00 00 80 3f 00 00 80 3f
       1.0 1.0 1.0 1.0
0000a0 00 00 80 3f 00 00 80 3f 00 00 80 3f 00 00 80 3f
       1.0 1.0 1.0 1.0
0000b0 00 00 80 3f 00 00 80 3f 00 00 80 3f 00 00 80 3f
       1.0 1.0 1.0 1.0
0000c0 00 00 80 3f 00 00 80 3f 00 00 80 3f 00 00 80 3f
       1.0 1.0 1.0 1.0
0000d0 00 00 80 3f 00 00 80 3f 00 00 80 3f 00 00 80 3f
       1.0 1.0 1.0 1.0
0000e0 00 00 80 3f 00 00 80 3f 00 00 80 3f 00 00 80 3f
       1.0 1.0 1.0 1.0
0000f0 00 00 80 3f 00 00 80 3f 00 00 80 3f 00 00 80 3f
       1.0 1.0 1.0 1.0
000100 00 00 80 3f 00 00 80 3f 00 00 80 3f 00 00 80 3f
       1.0 1.0 1.0 1.0
000110 00 00 80 3f 00 00 80 3f 00 00 80 3f 00 00 80 3f
       1.0 1.0 1.0 1.0
000120 00 00 80 3f 00 00 80 3f 00 00 80 3f 00 00 80 3f
       1.0 1.0 1.0 1.0
000130 00 00 80 3f 00 00 80 3f 00 00 80 3f 00 00 80 3f
       1.0 1.0 1.0 1.0
000140 00 00 80 3f 00 00 80 3f 00 00 80 3f 00 00 80 3f
       1.0 1.0 1.0 1.0
000150 00 00 80 3f 00 00 80 3f 00 00 80 3f 00 00 80 3f
       1.0 1.0 1.0 1.0
000160 00 00 80 3f 00 00 80 3f 00 00 80 3f 00 00 80 3f
       1.0 1.0 1.0 1.0
000170 00 00 80 3f 00 00 80 3f 00 00 80 3f 00 00 80 3f
       1.0 1.0 1.0 1.0
000180 00 00 80 3f 00 00 80 3f 00 00 80 3f 00 00 80 3f
       1.0 1.0 1.0 1.0
000190 00 00 80 3f 00 00 80 3f 00 00 80 3f 00 00 80 3f
       1.0 1.0 1.0 1.0
0001a0 00 00 80 3f 00 00 80 3f 00 00 80 3f 00 00 80 3f
       1.0 1.0 1.0 1.0
0001b0 00 00 80 3f 00 00 80 3f 00 00 80 3f 00 00 80 3f
       1.0 1.0 1.0 1.0
0001c0 00 00 80 3f 00 00 80 3f 00 00 80 3f 00 00 80 3f
       1.0 1.0 1.0 1.0
0001d0 00 00 80 3f 00 00 80 3f 00 00 80 3f 00 00 80 3f
       1.0 1.0 1.0 1.0
0001e0 00 00 80 3f 00 00 80 3f 00 00 80 3f 00 00 80 3f
       1.0 1.0 1.0 1.0
0001f0 00 00 80 3f 00 00 80 3f 00 00 80 3f 00 00 80 3f
       1.0 1.0 1.0 1.0
000200 00 00 80 3f 00 00 80 3f 00 00 80 3f 00 00 80 3f
       1.0 1.0 1.0 1.0
000210 00 00 80 3f 00 00 80 3f 00 00 80 3f 00 00 80 3f
       1.0 1.0 1.0 1.0
000220 00 00 80 3f 00 00 80 3f 00 00 80 3f 00 00 80 3f
       1.0 1.0 1.0 1.0
000230 00 00 80 3f 00 00 80 3f 00 00 80 3f 00 00 80 3f
       1.0 1.0 1.0 1.0
000240 00 00 80 3f 00 00 80 3f 00 00 80 3f 00 00 80 3f
       1.0 1.0 1.0 1.0
000250 00 00 80 3f 00 00 80 3f 00 00 80 3f 00 00 80 3f
       1.0 1.0 1.0 1.0
000260 00 00 80 3f 00 00 80 3f 00 00 80 3f 00 00 80 3f
       1.0 1.0 1.0 1.0
000270 00 00 80 3f 00 00 80 3f 00 00 80 3f 00 00 80 3f
       1.0 1.0 1.0 1.0
000280 00 00 80 3f 00 00 80 3f 00 00 80 3f 00 00 80 3f
       1.0 1.0 1.0 1.0
000290 00 00 80 3f 00 00 80 3f 00 00 80 3f 00 00 80 3f
       1.0 1.0 1.0 1.0
0002a0 00 00 80 3f 00 00 80 3f 00 00 80 3f 00 00 80 3f
       1.0 1.0 1.0 1.0
0002b0 00 00 80 3f 00 00 80 3f 00 00 80 3f 00 00 80 3f
       1.0 1.0 1.0 1.0
0002c0 00 00 80 3f 00 00 80 3f 00 00 80 3f 00 00 80 3f
       1.0 1.0 1.0 1.0
0002d0 00 00 80 3f 00 00 80 3f 00 00 80 3f 00 00 80 3f
       1.0 1.0 1.0 1.0
0002e0 00 00 80 3f 00 00 80 3f 00 00 80 3f 00 00 80 3f
       1.0 1.0 1.0 1.0
0002f0 00 00 80 3f 00 00 80 3f 00 00 80 3f 00 00 80 3f
       1.0 1.0 1.0 1.0
000300 00 00 80 3f 00 00 80 3f 00 00 80 3f 00 00 80 3f
       1.0 1.0 1.0 1.0
000310 00 00 80 3f 00 00 80 3f 00 00 80 3f 00 00 80 3f
       1.0 1.0 1.0 1.0
000320 00 00 80 3f 00 00 80 3f 00 00 80 3f 00 00 80 3f
       1.0 1.0 1.0 1.0
000330 00 00 80 3f 00 00 80 3f 00 00 80 3f 00 00 80 3f
       1.0 1.0 1.0 1.0
000340 00 00 80 3f 00 00 80 3f 00 00 80 3f 00 00 80 3f
       1.0 1.0 1.0 1.0
000350 00 00 80 3f 00 00 80 3f 00 00 80 3f 00 00 80 3f
       1.0 1.0 1.0 1.0
000360 00 00 80 3f 00 00 80 3f 00 00 80 3f 00 00 80 3f
       1.0 1.0 1.0 1.0
000370 00 00 80 3f 00 00 80 3f 00 00 80 3f 00 00 80 3f
       1.0 1.0 1.0 1.0
000380 00 00 80 3f 00 00 80 3f 00 00 80 3f 00 00 80 3f
       1.0 1.0 1.0 1.0
000390 00 00 80 3f 00 00 80 3f 00 00 80 3f 00 00 80 3f
       1.0 1.0 1.0 1.0
0003a0 00 00 80 3f 00 00 80 3f 00 00 80 3f 00 00 80 3f
       1.0 1.0 1.0 1.0
0003b0 00 00 80 3f 00 00 80 3f 00 00 80 3f 00 00 80 3f
       1.0 1.0 1.0 1.0
0003c0 00 00 80 3f 00 00 80 3f 00 00 80 3f 00 00 80 3f
       1.0 1.0 1.0 1.0
0003d0 00 00 80 3f 00 00 80 3f 00 00 80 3f 00 00 80 3f
       1.0 1.0 1.0 1.0
0003e0 00 00 80 3f 00 00 80 3f 00 00 80 3f 00 00 80 3f
       1.0 1.0 1.0 1.0
0003f0 00 00 80 3f 00 00 80 3f 00 00 80 3f 00 00 80 3f
       1.0 1.0 1.0 1.0

fc2.weight f4 [256, 512]
000000 fa 11 05 be ba a3 bc bf c2 e4 d3 3e 85 06 59 3f
       -0.12995139 -1.4737465 0.41385466 0.84775573
000010 51 09 64 bf b0 e4 bd 3e b0 51 9e 3e cc b2 42 3f
       -0.89076716 0.37088537 0.30921698 0.7605407
000020 b4 2f 5e bf 8a 60 12 3f da d0 0a bf b3 a2 d4 bd
       -0.8679154 0.57178557 -0.5422493 -0.10382595
000030 df 83 9d be 3b f3 28 3e d3 74 fc 3e 00 4c 04 3b
       -0.30764672 0.16499035 0.4930788 0.00201869
000040 16 70 1d 3f a9 4f 3c bf a0 b4 88 3e 96 44 83 3e
       0.61499155 -0.7355905 0.26700306 0.25638264
000050 40 2b 1b 3e 14 32 35 3f 20 60 83 3f c4 11 93 be
       0.15153217 0.7077954 1.026371 -0.28724492
000060 8c 65 f4 3d 53 c3 fc 3e e6 47 ad 3e 54 43 91 bf
       0.11933431 0.4936777 0.33843917 -1.1348672
000070 7f 47 79 bd 4f 13 1d 3e 4f d6 f0 3d de 5f 8b 3e
       -0.0608592 0.15339397 0.11759626 0.27221578
000080 4d 52 bf 3f 3b 07 3d 3d 96 a3 2e 3e 74 46 62 b8
       1.4946991 0.046149474 0.1705459 -5.3948213e-05
000090 94 10 b2 3e 67 ae 19 3f 6d f2 a3 3e 20 c0 dc 3f
       0.34778273 0.6003174 0.32020894 1.7246132
0000a0 77 b7 96 bf 2b 85 9e bf 28 40 ca 3f ce b4 2e 3f
       -1.1774739 -1.238439 1.5800829 0.68244636
0000b0 46 07 cb be b9 32 2b be 54 0f 87 3e 4f 96 8e 3e
       -0.39653987 -0.16718568 0.26378882 0.2784905
0000c0 81 9b 14 3e d7 10 c1 c0 78 8d a7 3f 57 cf 0c 3e
       0.14512445 -6.0333056 1.3090048 0.13750969
0000d0 4b c9 2c bf e4 72 a3 3e 36 d3 a2 3d 16 c5 63 3c
       -0.6749465 0.31923592 0.079504415 0.013901969
0000e0 55 14 dc 3f 24 34 4b 3c a2 cd 5d 3e 23 a7 c6 bd
       1.7193705 0.012402568 0.21660474 -0.096998475
0000f0 74 3f 63 3e 59 3b 3d 3e 4c 1a f8 c0 6e fc 62 3d
       0.22192174 0.1847967 -7.75321 0.055416517
000100 14 64 cd 3f 04 50 0b 3f 00 bf 29 3f f2 b6 6b 3e
       1.6046166 0.5441897 0.6630707 0.23019007
000110 46 0d 15 c0 c1 1f be 3e f8 e9 94 3e b6 49 76 3e
       -2.3289351 0.371336 0.29084754 0.24051556
000120 7a c8 39 bf a8 2e 74 be 78 1b 5e bd 75 7f 6d 3e
       -0.7257153 -0.23845923 -0.054225415 0.23193152
000130 1f 91 30 bd d1 e3 c5 3e f2 d3 52 3e 12 6e 0f bc
       -0.04310715 0.38650373 0.20588663 -0.00875427
000140 5b 89 7f be f3 d1 16 bf 89 6b 24 3f 24 21 83 bf
       -0.2495474 -0.5891411 0.64226586 -1.0244489
000150 e2 c6 37 3c 2a 70 3b bc 24 60 8d 3d d3 43 1a 3f
       0.011216851 -0.011440316 0.06903103 0.6025974
000160 ef b1 bc 3d e5 4c 66 3e 35 dc 61 3e 80 e2 53 3f
       0.09213626 0.2249027 0.22056659 0.82767487
000170 df 94 a0 bf 80 88 45 bf 4b f1 94 bf 59 f4 58 3f
       -1.2545432 -0.7716141 -1.1636137 0.84747845
000180 86 62 46 3d 19 17 40 3f 0e 30 9f be 6b 10 d5 3e
       0.048433803 0.75035244 -0.3109135 0.41614088
000190 28 88 2f 3f 9f 55 42 3e 01 02 aa 3e 41 0c 8a 3e
       0.6856713 0.18977974 0.33204654 0.26962474
0001a0 0a e7 12 3e b7 b4 43 3f 9a d1 40 3f 8f 3d 55 bf
       0.14345947 0.76447624 0.75319827 -0.83297056
0001b0 a9 83 81 be 66 07 38 3f b4 c3 0d 3f 8e 17 91 bf
       -0.2529576 0.7188629 0.55376744 -1.1335313
0001c0 07 5d 21 3f c1 29 70 bd 85 e6 1c 3f 57 f5 22 3e
       0.63032573 -0.05863357 0.61289245 0.15913902
0001d0 fd 73 37 bf f2 02 a9 bc 92 08 24 3f a8 49 63 bd
       -0.7166136 -0.020631287 0.6407558 -0.055490166
0001e0 c0 e0 9b 3d 83 09 9a bf e8 f6 91 3e 54 9c 92 be
       0.07611227 -1.2034153 0.28508687 -0.28634894
0001f0 94 0b 9a 3e ae a3 6f be a6 78 8e 3f e4 20 97 3f
       0.30086958 -0.23402283 1.1130569 1.1806912
000200 4b d5 a9 bc de 21 0f 3e 98 85 e1 bd 26 f5 33 3f
       -0.020731589 0.13977763 -0.11011809 0.7029594
000210 37 ab e7 3d ab 7a 9c 3e ed b5 99 be 8b e5 db 3e
       0.113119535 0.30562338 -0.3002161 0.42948565
000220 21 dc 5d 3f eb 36 4a 3f e6 57 85 3e 42 4b a0 3e
       0.86664015 0.7899005 0.26043624 0.31307417
000230 78 ba 5d be e0 d0 1c 3e 9a ef 3a 3b 9a 26 20 be
       -0.21653163 0.15314054 0.0028524161 -0.15639725
000240 15 18 7c 3e 1c 9c 1a bf 3e 9a 79 be 08 b4 f9 bd
       0.24618562 -0.60394454 -0.24375245 -0.12192541
000250 d7 9f de bd 68 29 42 3f 9e 15 85 3f 10 57 d7 bd
       -0.10870331 0.7584443 1.0397222 -0.10514653
000260 bf 40 aa 3d ca 9a 89 be 00 97 77 3f 16 14 fe 3e
       0.083131306 -0.26875907 0.9671478 0.496247
000270 41 c8 19 3e 19 b4 75 be d7 77 e7 bd eb 45 27 3d
       0.15017797 -0.23994483 -0.113021545 0.040838163
000280 d0 5e f7 bc 5d 27 fe be 82 07 7b be 37 8d c3 3d
       -0.030196577 -0.49639407 -0.24514583 0.09548419
000290 ee 0f e5 3d 0d f2 56 3f 9d 24 62 3e 18 d7 75 bf
       0.11184679 0.8396309 0.2208428 -0.9603133
0002a0 49 b0 fc 3c 6f 47 2a 3e 46 12 40 3f b3 d3 b9 3e
       0.030845778 0.16628812 0.75027883 0.36294326
0002b0 f5 8f 98 bd 3e be 62 3f e3 a6 ed 3d fa f6 2b 3e
       -0.074493326 0.88571537 0.11604097 0.16793433
0002c0 27 43 9b be b8 56 40 3e 54 a5 39 3f 69 c6 c7 3f
       -0.3032467 0.1878308 0.72517896 1.5607425
0002d0 aa 86 05 3c f3 da 13 3f dd 12 1d 3f b3 c8 2d c0
       0.008149782 0.57755965 0.6135691 -2.7153747
0002e0 bd 08 fe 3c 83 de b2 3e 8d a9 29 3e bc 2e fe bd
       0.031010026 0.34935388 0.16568585 -0.124112576
0002f0 b2 56 a8 3e 44 02 ef 3e ca 9c 37 3e f4 a3 59 bf
       0.32878643 0.46681416 0.17930904 -0.850158
000300 8f de 89 3d db bb ae 3e cd 52 86 bc dc 5e cc bf
       0.06731903 0.34127697 -0.016396904 -1.5966449
000310 88 55 22 be 20 10 47 3e ec f0 57 be 43 ef b1 3d
       -0.1585294 0.19439745 -0.21087998 0.08688214
000320 9f 83 3c bf 48 15 b2 3e 7b d7 8b 3e 16 4c b2 3e
       -0.7363834 0.3478186 0.27312836 0.34823674
000330 3a 8f 83 3e 33 14 a1 be a6 e2 11 3f 8e a0 84 3d
       0.2569521 -0.31460723 0.56986463 0.06475936
000340 4a dd 1d 3d b6 44 ce be e3 75 64 bd ea 1c 3b 3f
       0.038541116 -0.40286797 -0.055776488 0.73090994
000350 f1 5c 22 be bd 12 f3 3e a3 ed 4a 3d 5d 18 8b 3e
       -0.15855767 0.47475234 0.049543034 0.27167025
000360 93 d8 9c be a2 76 c6 3e b9 4d 94 3f 7d 7d 37 3f
       -0.30633983 0.38762385 1.1586219 0.71675855
000370 d3 f2 99 3e a7 0e 96 c0 da b3 7e bc 2c 66 61 3e
       0.30068073 -4.6892886 -0.01554581 0.22011632
000380 19 2f 14 be 7e 08 2c 39 6a 8f 37 3e 52 66 03 3f
       -0.14471091 0.00016406362 0.17925802 0.51328003
000390 08 2b a3 3d 7d 61 2d be 39 3e c3 3e fe 6d 8a be
       0.07967192 -0.1693172 0.3813341 -0.27037042
0003a0 9c 6d 7d 3f 0a 7f e9 3e 6d 05 27 c0 a7 f6 73 3e
       0.98995376 0.45604736 -2.6097062 0.23824559
0003b0 fc 58 88 be 9e d8 38 bf 5f fa a0 be 23 db b3 3e
       -0.2663039 -0.7220553 -0.31441018 0.35128126
0003c0 25 8d 2c 3e 08 b5 a1 3e 00 4b 47 be fc 7f b2 bd
       0.16850717 0.31583428 -0.19462204 -0.08715817
0003d0 d8 35 d0 be 71 77 6f bc 6f 4c 98 3e b4 d7 93 bf
       -0.4066608 -0.014615879 0.29745814 -1.1550202
0003e0 ef a4 06 bf 22 f2 85 bf 3d 65 c6 be a7 44 05 3f
       -0.5259542 -1.0464518 -0.38749114 0.5205788
0003f0 3b cd 1a 3f 32 37 52 3e 79 2d a5 be e6 87 94 be
       0.60469407 0.20528868 -0.32261255 -0.29009932

fc2.bias f4 [256]
000000 6b ea aa 3e df b0 80 3e 3d 3b 1d bd 0d b9 59 be
       0.33381972 0.25134942 -0.038386572 -0.21261998
000010 9f 56 5c 3c a8 f1 51 be 82 02 2a bd 27 3c 3e bd
       0.013448386 -0.20502341 -0.041506298 -0.046444084
000020 3b 35 0d 3e 99 fe f9 3a ed 07 ec be 53 2c de 3c
       0.13789837 0.0019073068 -0.46099797 0.027120745
000030 77 35 84 be 13 2e 8f bc a2 45 65 be 84 ba 2b be
       -0.2582204 -0.017478025 -0.22389844 -0.16770369
000040 3e b1 a2 3d ce 4b e3 3c 0b d8 54 3b 9f 8e 1f be
       0.079439625 0.027746107 0.0032477404 -0.1558175
000050 47 01 4d 3c 71 4c 27 bd da 54 72 bc 5d 46 bf bd
       0.012512512 -0.040844385 -0.014790738 -0.093395926
000060 f8 e1 52 3e 21 66 ee bd 39 b9 0c 3e 6d 4b 95 bd
       0.20594013 -0.11640573 0.13742532 -0.07289777
000070 a8 ab 41 bd ce 81 91 3d c6 5e b3 3e 64 49 36 bd
       -0.047282845 0.071048364 0.35033244 -0.044503585
000080 b6 fa ad be 4d 30 ce 3c 07 10 49 be 51 50 e4 be
       -0.3398034 0.025169516 -0.1963502 -0.44592527
000090 a9 5d 52 bd 11 54 02 bf a2 d7 a7 bc 38 e3 49 be
       -0.051358853 -0.50909525 -0.020488564 -0.19715583
0000a0 1a 84 d3 3c 73 94 35 bd de fb 21 be 27 0b 56 3e
       0.025819827 -0.044331025 -0.15818736 0.20902692
0000b0 ea c1 2c be 31 25 51 3e f9 c4 ff be a8 ef 7a bb
       -0.16870847 0.20424344 -0.49954966 -0.003828982
0000c0 6e bf cc bb 7e df 6b 3c 32 8a f9 bc 3c 76 ed bb
       -0.006248406 0.014396546 -0.030461404 -0.0072467607
0000d0 cb 42 93 3d 54 16 a6 bc 1c 6c f7 bc 3e 1f 02 3d
       0.07190474 -0.020274319 -0.030202918 0.031768076
0000e0 72 28 be bc 30 f7 5b 3c 15 56 9e be 07 4b bf 3d
       -0.023212645 0.013425633 -0.3092505 0.09340482
0000f0 01 28 ff bc 25 de 77 bd ab dd d4 3c 54 f1 4f bd
       -0.031147005 -0.060514588 0.025984606 -0.050767258
000100 3e 65 8f be b7 92 35 bd b5 08 fc be 21 cf c6 bc
       -0.2800693 -0.04432937 -0.49225393 -0.024268689
000110 b5 7c 59 bd 00 1d 0d bd 58 e8 83 3e e7 2d 47 bc
       -0.053097446 -0.034451485 0.25763202 -0.01215694
000120 ec e0 5c 3e f5 2f be bb fd be 32 bd 3f 93 59 3c
       0.21570176 -0.005804057 -0.043639172 0.013279735
000130 94 1b 62 be ac 8b 58 bc 41 07 58 be ec f1 3b be
       -0.22080833 -0.013216894 -0.21096517 -0.18354005
000140 5b 5f b2 3c bc f2 2e 3c 9b fc 92 bc 99 53 bd be
       0.021773985 0.01067799 -0.017942717 -0.36977842
000150 31 3a b8 3a 56 40 8f be ba 7c af 3d ae 74 33 be
       0.0014055428 -0.27978772 0.085687116 -0.17524979
000160 6b d5 fd bc 52 89 8d bc f1 9c ee 3c af e6 bf bc
       -0.030985555 -0.017277393 0.02912757 -0.023425428
000170 b5 b2 e0 be fd 50 a0 3d ca 9c cb be 7f 67 d8 bc
       -0.43886343 0.07827947 -0.39768058 -0.026416538
000180 c4 05 d4 3b 67 5c de be 7d 51 de bc ae ca e7 bd
       0.006470414 -0.43429872 -0.027138466 -0.11317955
000190 aa dd 02 bd 32 3d 76 3e df 31 ea 3c 18 a4 4c bd
       -0.031949677 0.24046782 0.028588234 -0.04996118
0001a0 1b d6 22 3e e1 5a 79 bc 1d 61 4d bd 70 e7 06 3e
       0.15901987 -0.015219421 -0.050141443 0.13174224
0001b0 d5 43 09 bd 01 c6 60 be 2b e5 16 be 10 cc 07 bd
       -0.033511955 -0.21950532 -0.14735858 -0.033153594
0001c0 8b cc ca 3d 4d e6 91 3e 21 6c 1f ba ce 75 ae be
       0.09902295 0.28496018 -0.0006081481 -0.34074253
0001d0 74 9a 1a be 3b 8b 07 bf 8a 2d b7 bc 21 c1 82 bd
       -0.15097982 -0.52946824 -0.022360582 -0.06384493
0001e0 9f fd 5c bc 15 9a 4c bd 8c 24 12 3e fd 5c da bc
       -0.013488202 -0.04995163 0.14271754 -0.026655668
0001f0 c4 9a 64 3e 13 f7 dd be f8 a2 df 3b f8 bd 09 bd
       0.22324663 -0.43352565 0.0068248473 -0.033628434
000200 33 48 3b 3e 93 ea 2f 3d a4 ee 12 be 65 7e 92 be
       0.1828926 0.042948317 -0.14348847 -0.28612056
000210 b7 6d 0c 3d 5c 52 b6 bc 03 c8 2f bc 10 6a a9 3d
       0.03428432 -0.022256069 -0.010728839 0.08272183
000220 dd b0 db bb e0 20 49 bd 5e 6a d8 ba 64 ee f3 3e
       -0.0067044334 -0.049103618 -0.0016511192 0.47642815
000230 f6 06 48 3d dc 25 29 3c 04 24 0e 3d 36 71 5d bd
       0.048834763 0.010323968 0.034702316 -0.054063044
000240 ab 3c 68 bd bb 43 83 3e 83 78 e7 bd 33 fd 9f 3c
       -0.056698482 0.25637612 -0.11302283 0.019529914
000250 ee 03 41 bd 80 1b 68 bd 4d ab 73 3e 17 51 69 bd
       -0.04712289 -0.05666685 0.23795815 -0.0569621
000260 1b ea 93 bd 7e 5b 7f bd c3 54 70 bd 96 db 97 3b
       -0.072223864 -0.062343113 -0.058674585 0.004634331
000270 7b 20 bb be aa 65 8e be 3f 2a 9b 3c cd 05 14 be
       -0.36548218 -0.2781194 0.018941043 -0.14455338
000280 66 2c 2a 3e 14 2d c2 be 8d c1 90 bc 65 aa 35 bd
       0.16618499 -0.37925017 -0.017670417 -0.044351954
000290 d1 c9 2a bd 4c f6 94 be f6 f3 aa bc 0e ec 41 3e
       -0.041696373 -0.2909416 -0.020868283 0.18937704
0002a0 50 eb cc bc 1f 51 f4 bc 95 a7 e5 3b 32 06 f5 3e
       -0.02501455 -0.029823838 0.0070085027 0.4785629
0002b0 43 eb 20 bd da fa 47 bd 62 a5 9e bd 9c 4f 02 3e
       -0.039286863 -0.048823215 -0.07746388 0.12725681
0002c0 c7 31 4d 3d 84 b5 3e be eb a7 54 bd ec 3c d3 bd
       0.0500963 -0.1862393 -0.05191795 -0.10314354
0002d0 2f 5a 6c bb a9 68 f4 bb aa b9 a2 3c c9 dc 2c bd
       -0.0036064496 -0.0074587655 0.019863922 -0.042202745
0002e0 ce 9a 9f be 2d 12 74 3d 6b 67 aa 3c 2b dd e2 3b
       -0.31172794 0.059587646 0.020801267 0.006923338
0002f0 99 86 87 bd 22 7a 71 3b a4 26 de 3b 73 d4 92 3c
       -0.06617469 0.0036846478 0.0067795087 0.01792357
000300 4e e2 ac bc f3 eb 5c 3d c3 b4 31 bd 38 e7 2d 3e
       -0.021104004 0.053935956 -0.04338528 0.16982734
000310 2b f2 da bd 2a 44 32 be 01 1b 13 3c e9 31 88 bd
       -0.10690721 -0.17408815 0.008978606 -0.066501446
000320 58 9e c8 bc 3d 62 2f 3c 99 21 2c bf f1 ad 47 3e
       -0.024489567 0.010704574 -0.67238766 0.19499947
000330 2e 98 2d bc 8c af 6e 3c 0d 39 7e 3d cb 46 95 bd
       -0.0105953645 0.014568221 0.062066127 -0.07288893
000340 99 99 5a bc ca a0 86 bc 00 c6 2d bd 34 0d 5c bd
       -0.013342285 -0.016434092 -0.042425156 -0.05372353
000350 4a fa a5 bc fe ac 10 bb e4 b2 c0 be 97 f2 2f be
       -0.020260949 -0.0022075768 -0.37636483 -0.17182384
000360 11 82 be 3c d1 40 81 bd 87 5e 72 bd 4c 72 ac 3d
       0.02325538 -0.06311191 -0.05917218 0.08420238
000370 01 ee 0a be 56 0c 54 be f7 d9 fd bc 18 06 ad 3c
       -0.13567354 -0.20707831 -0.030987723 0.02112107
000380 9f a6 b8 be 85 36 17 bd 06 c7 12 be 2a 90 81 bd
       -0.36064622 -0.03691723 -0.14333734 -0.06326325
000390 d4 9f 97 3d 26 98 97 3d 2a e9 08 3d b6 66 1d bb
       0.07403532 0.07402067 0.033425488 -0.002401752
0003a0 71 ff 26 3e fb 0e 56 3c b2 13 61 be ae 97 e0 be
       0.1630838 0.013065095 -0.2198017 -0.43865722
0003b0 a7 77 da bc 2d b9 14 3e 79 bf 0a be 5d b4 a8 3c
       -0.026668383 0.14523764 -0.13549604 0.020593816
0003c0 7b 0e 2f bd 3c 68 de bc 78 40 90 3b ef 93 1d bd
       -0.04273842 -0.027149312 0.0044022165 -0.03847116
0003d0 e4 37 47 3c e2 43 42 bd 4c 35 16 3d 7f 44 e4 3d
       0.012159321 -0.04742802 0.03667192 0.11145877
0003e0 56 f3 06 3d 65 3d 64 3b a7 d9 59 bd 73 6e 8c 3b
       0.032946907 0.0034826633 -0.053186085 0.0042856275
0003f0 f5 74 5a 3e 37 11 32 3c 6f 0d d8 3c dc 44 c1 bc
       0.21333678 0.010868362 0.026373593 -0.023592405
