model.pt (torch, 22379 bytes, 5 tensors)

fc1.weight f4 [128, 21]
000000 1b 10 99 3e 30 0e a5 3e 1c 3b 5f 3e 24 b9 ea be
       0.298951 0.32237387 0.21799892 -0.45844376
000010 d8 e4 19 bd 12 43 30 be a2 02 96 bd cc 79 8d be
       -0.037571758 -0.17213085 -0.07324721 -0.27631986
000020 80 e7 2b bd 79 fd b2 bd c8 89 c0 3d 39 7e ff 3d
       -0.041968822 -0.08739752 0.0940128 0.12475247
000030 d9 30 af bd f7 f9 6f 3c 72 75 d7 3b 89 c3 6e 3e
       -0.08554239 0.014646999 0.00657528 0.23316778
000040 68 18 86 3e cc 86 02 be 0c 28 3e 3e 8d c6 c5 3d
       0.26190495 -0.12746733 0.18569964 0.09657011
000050 1d 21 37 3d 9a d8 fd 3d 38 62 40 be a9 16 df be
       0.044709314 0.12394829 -0.18787467 -0.43571976
000060 ce f3 c0 3c 78 37 6e 3e 01 aa 83 bd ce 21 f0 3d
       0.023553755 0.23263347 -0.0642891 0.11725198
000070 4a 26 73 be e3 20 00 3e 75 77 85 3d 44 1c 8a 3e
       -0.23745075 0.12512545 0.06516925 0.2697469
000080 cc f1 0d be 43 c7 53 bc 10 18 42 3d 01 6c 2d 3d
       -0.1386177 -0.012925926 0.04738623 0.04233933
000090 83 ea 6d 3e f6 ab 0e 3c 8a ab b3 3d 9c bb fb bd
       0.2323399 0.008707991 0.08772953 -0.12291643
0000a0 3e 90 9b 3e 58 6d 73 3e 13 9f c7 be 19 af bd bc
       0.30383486 0.2377218 -0.38988551 -0.023154782
0000b0 0f 6c cc 3e 9c 9c b1 bd b6 0c e1 3c 77 47 4e bc
       0.39926192 -0.08672449 0.027471881 -0.012590281
0000c0 27 1b 8c bd 20 56 4f bd 87 cb 62 3e 25 7c f6 3d
       -0.068411164 -0.050619245 0.22147952 0.120353974
0000d0 dd 54 0c 3c 14 a0 51 3d cd 01 37 3d 8b 73 50 3e
       0.008565155 0.051178053 0.04467945 0.20356576
0000e0 2d f3 e0 3d e6 6a 58 bc ca e0 2b be 43 0d 4d 3d
       0.10983882 -0.01320908 -0.16784969 0.050061475
0000f0 42 51 d7 bd 9b 17 25 be fd 58 04 bd 60 be a0 bd
       -0.105135456 -0.16122286 -0.03231143 -0.07848811
000100 22 82 48 3e 37 87 b4 bc bb 79 0a 3e f5 9f 8e be
       0.19580892 -0.022037132 0.13522999 -0.27856413
000110 93 9f 4f bd 69 f9 f4 3e 97 b2 2f bd fb 20 ac bd
       -0.05068929 0.47846535 -0.042894926 -0.08404728
000120 d0 8a 1c 3e 69 ee 66 bc 77 0c 5b bd e0 96 0e bd
       0.15287328 -0.014094927 -0.053478684 -0.034811854
000130 b4 c4 17 3d 4a 95 4f 3d 23 9f 62 be 9e 7b cd bc
       0.037052825 0.050679483 -0.22131018 -0.02508336
000140 bd c7 35 3e ab 14 08 3d 2e 93 f8 bd 01 00 1e 3c
       0.17751975 0.033222836 -0.12137447 0.009643556
000150 85 5e 7f bc f5 3b 38 3e 16 94 54 3e 35 1d 8a 3e
       -0.0155865 0.17991622 0.20759615 0.26975408
000160 b3 f7 34 3e 31 c6 66 3c 12 d1 ae bd ec 2a 44 3e
       0.17672615 0.014085338 -0.08535971 0.19156998
000170 b8 0c 3e 3e e3 84 59 3e a6 ab ad 3d 39 33 32 3e
       0.1855954 0.21242099 0.08480005 0.17402352
000180 6e 8d f0 bc 0f f2 0c 3e 90 35 26 3e ef 55 d7 bd
       -0.029364314 0.13764213 0.1623137 -0.105144374
000190 a9 14 19 3e 65 9b 0f 3e 47 c3 3d bd 4a af 00 be
       0.14949287 0.14024122 -0.04632881 -0.12566867
0001a0 06 93 07 3d 84 56 18 3e cf 5c 9d 3d 0c 6e 92 be
       0.033099197 0.14876753 0.076837175 -0.28599584
0001b0 1e 49 4f be 3a fc 67 3e 5f 10 75 3e eb ac c8 bd
       -0.20242736 0.2265481 0.23932026 -0.097986065
0001c0 12 c0 2a be 0f f3 68 3d 04 5a f6 bc 40 74 cc bd
       -0.16674832 0.056872424 -0.03007222 -0.099831104
0001d0 2d 6b da 3c ce 9d 55 be 35 bd 33 bd a4 c5 22 be
       0.026662434 -0.20860979 -0.043881614 -0.15895706
0001e0 b6 41 0a be 09 fc 1e be 37 36 84 be e6 13 4a be
       -0.13501629 -0.15525831 -0.25822613 -0.19734153
0001f0 ea 80 7d be 48 bc 35 be 92 16 ee be 97 60 9d 3d
       -0.24756208 -0.17747605 -0.46501595 0.07684439
000200 96 b8 61 be 68 63 41 be d7 ed ed 3d e4 be 84 bc
       -0.2204307 -0.18885577 0.1161763 -0.016204305
000210 83 2e 84 bd 31 40 c9 3e 7f 72 79 3c 9f 9f 0b 3e
       -0.06454184 0.39306787 0.015225052 0.1363511
000220 6d b5 0c 3e 55 a5 4c be 81 c6 c5 3d e7 f5 4e 3c
       0.13741083 -0.19984944 0.09657002 0.01263187
000230 b2 41 dd bd a2 5c 2f 3e 13 6c 42 be 1a 23 06 3d
       -0.10803546 0.1712518 -0.1898654 0.03274832
000240 b1 f0 cd 3b e6 82 4c 3d 07 6b cd 3d f7 a0 cb 3d
       0.006284796 0.049929522 0.100301795 0.09942811
000250 f9 33 21 3d ec 44 53 3e 4e 35 7b 3e 97 d7 c4 3d
       0.039356206 0.2063176 0.24532053 0.09611433
000260 3e b3 c4 bd 95 88 25 3e ad 34 41 3e ce 11 f7 bd
       -0.096045 0.16165383 0.1886775 -0.12063943
000270 43 20 fe 3d 5d bc 77 3e 06 2b 18 3b b2 ef cd bd
       0.12408497 0.24192949 0.0023219003 -0.10055484
000280 dd 36 60 3e 21 a1 24 3e 87 6e c1 3d 37 ea 73 3e
       0.21895929 0.16077091 0.094449095 0.23819815
000290 b1 8c a7 bd 0a 17 71 3e 44 4a a5 bc f9 d4 9c 3b
       -0.08181132 0.23543945 -0.020177014 0.0047861305
0002a0 4d c2 28 3e 9c 03 ad 3e 7a be ce 3d e9 58 98 bd
       0.1648037 0.33791816 0.10094924 -0.07438833
0002b0 7c 77 6c 3e 66 a9 34 3e 0c 2f 57 3d ac 2f 75 be
       0.23092455 0.17642745 0.0525351 -0.23943967
0002c0 be 02 97 bd a5 19 3a be 59 1c 16 bd 7b d2 a1 bb
       -0.0737357 -0.18173845 -0.03664813 -0.0049384213
0002d0 42 f2 9e 3e b5 fa 9a 3e 4f 93 e6 bd 9b 26 63 3e
       0.31044203 0.302694 -0.11258566 0.22182696
0002e0 ec 40 4c 3e 64 26 95 3d a3 d6 e8 bd ae d2 9c bd
       0.1994664 0.07282713 -0.11369064 -0.076573715
0002f0 e1 0a f4 3d 44 02 3d 3e 01 7c 3b 3e 08 5b 99 3d
       0.119161375 0.18457896 0.18309022 0.07488066
000300 1a e9 90 3d 20 54 2c 3e 33 1e 2c be 16 23 7e bd
       0.070757106 0.16828966 -0.16808395 -0.06204518
000310 d3 62 c8 3e 01 eb 05 3e 5b ab 02 3c dc 2e a2 bc
       0.39137897 0.13077928 0.007975425 -0.019797735
000320 e5 f5 02 bc 56 12 8f be 82 85 4e 3d 23 f0 58 be
       -0.007993196 -0.27943677 0.05042029 -0.21185355
000330 28 0d 55 be 58 92 8f be 8b 40 5d be 7c 89 af bd
       -0.208058 -0.2804134 -0.21606652 -0.08571145
000340 a0 bb 05 3e c2 d9 a6 be 92 46 db 3d e0 d3 fa 3c
       0.13059855 -0.3258801 0.107068196 0.030618608
000350 9e 9e 1b be ed 52 d1 3d d1 e2 b9 3e 48 da 67 be
       -0.15197226 0.10220895 0.3630586 -0.22641861
000360 3b 0b 85 3e b1 a6 b9 be 20 75 22 3e 63 ab 91 3d
       0.2598513 -0.36259988 0.15864992 0.071127675
000370 4b 12 6c be 3d 80 8a be 9b d5 5a 3d 81 4d 03 be
       -0.23053853 -0.27050963 0.053426366 -0.12822534
000380 29 b4 af 3d f7 11 94 be 47 02 71 be 8f c1 c4 3d
       0.08579285 -0.28919956 -0.23536025 0.09607231
000390 fc 92 18 bd 0e 65 6c be ca 61 88 be 38 90 23 be
       -0.03724955 -0.23085424 -0.26637107 -0.15972984
0003a0 1c fb 0c 3e 6d b3 48 3e a0 32 d5 3e 8d d9 4c be
       0.13767666 0.19599696 0.41640186 -0.20004864
0003b0 7e 16 26 be 5c ef 7a bc 6f 7b ba bd 14 89 2d 3e
       -0.16219518 -0.015315857 -0.09105574 0.16946822
0003c0 a9 d6 11 be 05 97 4d 3e 0e 9a 25 3e cf 2b 20 bc
       -0.14242043 0.2007714 0.16172048 -0.00977607
0003d0 72 a0 30 3d 8a e9 43 be ff d0 80 be cb 5b ce 3d
       0.043121763 -0.19132057 -0.2515945 0.10076102
0003e0 1b e3 cc 3d 52 17 8f bc d7 89 93 3d c9 40 88 bd
       0.100042544 -0.017467175 0.07204025 -0.06652982
0003f0 4c 8f 24 be 8c 0d 1a be 57 b7 d6 bd cd 16 d2 3e
       -0.16070288 -0.1504423 -0.10484188 0.4103302

fc1.bias f4 [128]
000000 c5 d3 c1 bd 8b cd cd bd 65 89 1d 3e 4b ee c3 3d
       -0.0946422 -0.1004897 0.15384443 0.09566935
000010 72 6f 24 be d4 0f 4c 3e 3b fa aa 3d 4c 00 5c 3e
       -0.16058138 0.19927913 0.08348509 0.21484488
000020 df 6f 56 bf ea 55 48 3e ab 30 d9 3d 25 43 c1 ba
       -0.8376445 0.19564024 0.10604986 -0.0014744742
000030 d1 4e 59 3e 38 6a 3a 3e d5 cb df 3d e3 3d 3e 3e
       0.21221472 0.18204582 0.1092755 0.18578295
000040 97 60 3b 3d dc d6 94 3c d8 8e ae 3d 2f ca 96 bd
       0.045746412 0.01816886 0.08523339 -0.07362782
000050 c5 66 5f be 05 c0 3e be a8 e6 a5 bb 67 ec 81 3e
       -0.21816547 -0.18627937 -0.0050628968 0.25375673
000060 db ca db 3e 65 ab 48 3e 41 eb 95 3e b1 85 ab 3d
       0.42928204 0.19596632 0.29281047 0.08375109
000070 1e 29 ea bd c5 d9 b6 3d bd 26 c6 3d 30 db 98 bd
       -0.11433624 0.08928255 0.096753575 -0.07463682
000080 b5 97 03 be 56 d8 26 3e 36 df 0b 3f 54 e5 a7 3d
       -0.1285084 0.16293463 0.5463747 0.08198038
000090 19 52 51 3e 8a 60 f6 3d 02 74 10 3f 61 44 5a 3e
       0.20441474 0.12030132 0.56427014 0.21315147
0000a0 6d 3e ea 3d 1e 6f b3 bd 53 a7 73 be 98 c9 c3 bd
       0.11437688 -0.08761428 -0.23794298 -0.09559935
0000b0 f9 6f db be 51 67 08 3e 29 e4 c4 3e 3f 1e f6 3c
       -0.42858866 0.13320662 0.38455322 0.03004372
0000c0 86 71 26 3e 32 27 cc bd 3a d0 2e 3e 22 9a ba bc
       0.16254243 -0.099684134 0.1707162 -0.022778574
0000d0 12 06 01 bd ef b5 20 3f 0d 18 97 3d 42 10 16 3e
       -0.03149993 0.6277761 0.07377634 0.1465464
0000e0 93 0a 45 3d 70 8f 86 be db 1b 93 3e bc 42 3a bd
       0.048105787 -0.2628131 0.2873219 -0.0454738
0000f0 ac 9f 50 3d 70 ff 77 bd 69 73 06 be 98 f3 6f 3e
       0.050933525 -0.06054634 -0.13129963 0.23432767
000100 df df c0 3d b1 e8 b0 bd cf b3 59 bf 68 c1 99 be
       0.094177 -0.08638132 -0.8503999 -0.3003037
000110 c0 60 37 3e cf d3 8f 3e f9 24 80 be 06 8f 1b 3f
       0.17908001 0.28091285 -0.25028208 0.6076511
000120 6c ae 78 bd ae ff f8 bd 2c 10 b9 3c 1b 9f b7 be
       -0.060713217 -0.12158142 0.02259072 -0.35863575
000130 50 1d 94 3d 8b cd f6 be 60 ac 41 be 47 67 6f 3e
       0.072321534 -0.48203692 -0.18913412 0.23379241
000140 0e 0a 49 3d 82 e9 d6 3e 48 39 7e 3e ab 17 92 3d
       0.049081855 0.41975027 0.24826539 0.071334206
000150 03 54 cb 3c db 87 7e bc b6 a1 35 3f a3 3b 06 bd
       0.024820333 -0.01553532 0.70949876 -0.032771718
000160 1e 8a 8a 3d 9c 91 dc be cb d1 85 3c 7b 13 bb bc
       0.06764625 -0.4307984 0.016335389 -0.022836437
000170 d6 56 a3 3e 65 5c 19 be 1a d9 90 3f c0 ae 03 3e
       0.31902188 -0.14976652 1.1316254 0.1285963
000180 e0 b1 99 3d a3 4e 78 bd 60 fa 9c 3c e9 dc c2 be
       0.0750463 -0.06062187 0.019162357 -0.38059166
000190 31 b8 d2 be a9 fd 94 3e 65 9a 08 3d 26 19 e6 3d
       -0.41156152 0.29099777 0.033350367 0.112352654
0001a0 34 81 ec 3e 09 f0 46 3f 28 a8 bd 3e 74 06 79 bd
       0.46192324 0.77710015 0.37042356 -0.06079717
0001b0 9f 81 ef 3d ab 81 12 be 22 ad 6e 3e d7 0c f2 3e
       0.11694645 -0.14307277 0.23308232 0.4727542
0001c0 69 0c ca 3d 1f ce ce 3d 55 de 3d be 36 cf b3 3c
       0.09865648 0.10097908 -0.18541844 0.021949392
0001d0 32 d6 62 3f dd 63 6f 3e 12 6d 8f bd ae b7 fe 3e
       0.88608086 0.23377939 -0.070032254 0.4974951
0001e0 d6 e8 53 3e ad 5d 4b 3e da 69 b2 3d 98 17 dd 3d
       0.20694289 0.19859953 0.08711596 0.10795516
0001f0 31 29 46 3d c9 24 6c 3e da bc 12 3d 38 34 9e 3e
       0.048379127 0.23060907 0.035824634 0.30899215

v.weight f4 [1, 128]
000000 56 5e 0e bf d7 67 f9 3e 57 d5 a8 be 16 ad e5 be
       -0.55612695 0.48712036 -0.32975265 -0.44858617
000010 bf a7 2f 3e f9 e2 2f 3f 2f 5f fa be 1d f0 d7 be
       0.17153834 0.6870571 -0.48900744 -0.4217538
000020 49 76 71 3f 87 c2 1d 3f b0 a9 16 3f 14 7b d7 3e
       0.94321114 0.6162495 0.5885267 0.4208609
000030 f4 28 27 3f 6f 84 10 3f 4f c6 67 3e 54 c5 30 3f
       0.65296865 0.5645208 0.22634242 0.690511
000040 71 91 da be 9a 60 10 bf 95 82 f0 be 37 5c 51 3d
       -0.42689088 -0.563974 -0.46974626 0.051113334
000050 79 3f cf be e4 75 0b bf 96 e3 f8 3e 78 3a 25 3f
       -0.40478113 -0.5447676 0.48611134 0.6454234
000060 eb b9 52 3f 5c dc c3 be 11 ca 37 3f 51 bd d9 bc
       0.8231494 -0.38254058 0.71792704 -0.02657953
000070 0b 5e ed be 44 cf 03 bf fa c9 57 3f 5f 25 20 bf
       -0.46360812 -0.5148814 0.84292567 -0.62557024
000080 d7 37 ff be 4a 2a e5 be e6 66 5f 3f 3c aa e1 be
       -0.4984729 -0.44758826 0.87266386 -0.4407519
000090 6f 18 b5 be 9b ba f5 be f5 7c 91 3f 9b cb 2e bf
       -0.35370204 -0.4799393 1.1366259 -0.6827943
0000a0 8f f6 cf be 20 07 54 3e a9 85 11 3f 17 78 17 3f
       -0.40617797 0.20705843 0.56844574 0.5916762
0000b0 1e 91 4d 3f 99 6a 1f bf f9 0c 1c 3f c3 ff 88 be
       0.80299556 -0.6227203 0.60957295 -0.2675763
0000c0 c7 78 08 3f 47 b7 fa be ab 4c 99 3e 67 55 97 be
       0.5330929 -0.48967955 0.29941306 -0.29557344
0000d0 57 7a 35 bf 1a 84 57 3f af 55 57 3e de 79 67 3f
       -0.708898 0.84185946 0.2102878 0.9042033
0000e0 12 07 0b bf 4a 03 2b 3f fa d2 0d 3f 42 b1 ef be
       -0.54307663 0.66801894 0.5540005 -0.46814924
0000f0 0a 07 3b 3f e3 ec a6 be 66 f6 1c bf f9 15 0d bf
       0.73057616 -0.32602605 -0.61313474 -0.5511165
000100 1b d9 f3 be d7 1a b8 3e ba 18 91 3f 89 7d 31 bf
       -0.47626576 0.35957977 1.1335671 -0.69332176
000110 80 a4 10 bf e5 f8 55 3f d9 8b 19 bf a4 fa 80 3f
       -0.5650101 0.8358291 -0.59979016 1.007649
000120 c3 10 04 bf 14 90 68 3e 34 d5 fd be cb 65 0d bf
       -0.51588076 0.22711211 -0.49576724 -0.5523345
000130 c0 82 e8 be d3 64 53 3f 40 ef 31 3f c6 25 d0 be
       -0.45412254 0.8257572 0.6950569 -0.4065382
000140 8f c9 f8 be 70 ab 3b 3f b2 cf 35 3f 3d 4f e2 be
       -0.48591277 0.7330847 0.7102004 -0.4420108
000150 68 41 18 3f 5f 48 03 3f 31 98 a3 3f 9d c2 34 bf
       0.594748 0.51282305 1.278082 -0.70609456
000160 39 d2 16 bf 87 b6 43 3f c4 d3 16 3e 5f f5 08 bf
       -0.58914524 0.7645039 0.1472922 -0.53499407
000170 0f fa 2c 3f 97 80 2e be 14 f2 b4 3f 74 8c 0f bf
       0.6756906 -0.1704124 1.4136376 -0.5607369
000180 29 60 3f 3f 94 34 22 3f 32 3e 0f bf 59 a6 3d 3f
       0.74756104 0.6336148 -0.5595428 0.7408195
000190 78 2d 33 3f 8e d9 4f 3f 58 2b df be ed 28 2f bf
       0.69991255 0.8119134 -0.43587756 -0.6842182
0001a0 4c 41 3d 3f 27 ce 6b 3f 3f 10 4d 3f 1f b5 c2 3e
       0.7392776 0.9211144 0.80102915 0.3802881
0001b0 94 92 be be 95 f1 06 bf 03 d2 97 be 18 5f 70 3f
       -0.37221205 -0.52712375 -0.29652414 0.938951
0001c0 db 3c bd 3e 99 0f 33 3f 91 0e 24 3e ac 79 b5 be
       0.36960492 0.69945675 0.16021182 -0.3544439
0001d0 5e 46 b2 3f 26 d7 38 3f af a0 ab 3e 86 fd 70 3f
       1.3927724 0.7220329 0.3352103 0.94136846
0001e0 04 4b 70 3f 40 c0 85 3e 5a d9 26 3f 87 59 1e be
       0.93864465 0.26123238 0.651754 -0.1546384
0001f0 8e 8b 2e 3f a3 bf 2d 3f 76 d8 18 bf 5f 90 b0 be
       0.68181694 0.6787054 -0.59705293 -0.34485146

adv.weight f4 [16, 128]
000000 f9 2a d6 3b d5 b8 3a 3c 7b 54 24 3e 48 f2 70 3d
       0.0065358845 0.011396606 0.16047852 0.058824807
000010 0b f6 7a 3c 32 b1 eb bc 83 69 24 bd 3a 60 e1 bc
       0.01531745 -0.028771017 -0.040139686 -0.027511705
000020 87 35 88 3c dc d6 cd bd 60 c7 4c bc ca c1 a3 3a
       0.016627086 -0.10050747 -0.012498707 0.0012493667
000030 44 61 7a bd 59 92 d4 bd 7d 89 06 3d 47 86 aa 3d
       -0.061127916 -0.10379476 0.032845963 0.083263926
000040 e5 92 a1 3d 11 d3 fe 3d 6b b2 02 bd 21 9b f5 3d
       0.07889346 0.124426015 -0.031908434 0.11992479
000050 4b a0 46 3d 57 80 83 3c fa 82 4b bd 36 59 b1 3c
       0.04849271 0.016052408 -0.049685456 0.021648984
000060 1a 05 81 3d a2 5d f3 bd 3c 9d 07 3d eb 28 30 3d
       0.06299801 -0.118830934 0.033108935 0.043007772
000070 d8 3a 71 3d c1 5a 3c 3d 2e cb 07 bd ca 1c 00 be
       0.05889401 0.045984987 -0.03315275 -0.12510982
000080 38 aa 45 3d b2 01 6f 3d 22 6c 5f 3d 51 93 c0 bb
       0.048258036 0.058351226 0.054546483 -0.0058769365
000090 6e 0e 47 3d 20 bb bf bd ff 7c 94 bb 58 52 70 bd
       0.048597746 -0.09361863 -0.0045315023 -0.05867228
0000a0 9a 1e f5 3d 12 65 a5 3d a1 2e a9 3d 05 60 16 be
       0.119687274 0.08075918 0.08260847 -0.14685066
0000b0 d8 a5 93 3d c7 72 93 bd ce b0 f4 3d 80 02 50 3b
       0.072093666 -0.071996264 0.11947785 0.0031739771
0000c0 76 74 3e bb ef b4 bc bb 3d e1 88 bd d2 15 40 bd
       -0.0029061115 -0.0057588737 -0.06683586 -0.04689581
0000d0 40 bc 0b bd 25 ab fb bd 06 7a 88 3d cc 24 17 bd
       -0.034115076 -0.122885026 0.06663899 -0.036900327
0000e0 c1 39 7e 3c 22 d3 9a 3d bb 89 1f 3b 10 0e dd bc
       0.015516699 0.07559802 0.0024343568 -0.026984245
0000f0 3b 95 db bd fe 7b 0a 3d 67 f7 49 3d 3f a8 53 3c
       -0.10721823 0.033809654 0.049308207 0.012918531
000100 8f 45 c3 bd 1d 58 84 3d 18 b9 8a bd 12 2e f8 bc
       -0.095347516 0.06462119 -0.06773585 -0.030295406
000110 83 1a 12 3e ec 86 32 bc fd 93 de 3d 34 2a 7b bd
       0.14267926 -0.010896426 0.1086807 -0.061319545
000120 aa 1b 6d 3d 49 fc f4 bd c3 6d 02 3d 37 b9 45 bd
       0.05788771 -0.11962182 0.03184296 -0.048272338
000130 50 a7 5d bd d2 60 1e 3d 8e 35 4e bd 03 fd ba ba
       -0.05411464 0.038666554 -0.050344042 -0.0014266077
000140 51 8f 8c bb 2f cd 46 3d df 2b e7 bd 8d d9 13 be
       -0.0042895456 0.048535522 -0.112876646 -0.14438458
000150 51 84 50 3d b4 04 38 3d 8a 74 a5 bd ae 66 62 3c
       0.050907437 0.04492636 -0.08078869 0.013818426
000160 62 c6 c8 3d 19 9e a7 bd 2b 33 90 3d b8 ca 8b 3d
       0.098034635 -0.081844516 0.070410095 0.06825775
000170 5a 66 f2 bc 8d 91 19 bc b1 cb 1b be ab 28 f1 bc
       -0.02958982 -0.009373081 -0.15214421 -0.029438337
000180 2e 9a a7 3c 39 43 a3 bd 37 e8 08 bc 52 8e 6a bd
       0.02045926 -0.07971806 -0.008356146 -0.057264633
000190 0f bd 4d 3d 84 a3 4d 3d f3 21 db bd d3 af 18 bd
       0.05022913 0.05020477 -0.10699835 -0.037277054
0001a0 af ed 01 bd 94 2f 24 bd d5 ec 5f bd 76 a6 87 bd
       -0.031720813 -0.040084437 -0.05466922 -0.06623547
0001b0 77 c9 b6 bd bf 9a a5 3d 4c 98 af bd 1a 87 b0 bd
       -0.08925145 0.08086156 -0.0857397 -0.086195186
0001c0 9c 85 e8 bd 0d 9d 3a 3d 1a ac 49 3e 63 50 ae bc
       -0.11353609 0.04555993 0.19694558 -0.021278566
0001d0 c9 79 1c be d1 19 96 bd bd 7c e1 bd e1 d4 4b 3d
       -0.15280832 -0.07329143 -0.1101012 0.049763564
0001e0 fb bd ee 3d 75 ed 8b 3e 94 e3 bf bc 23 37 b0 3d
       0.1165733 0.27329603 -0.023423947 0.086042665
0001f0 db c3 a4 bc 0c ba e7 bc f1 e9 fb bc 19 49 33 3d
       -0.020112922 -0.028286956 -0.0307512 0.043770883
000200 31 28 ab bc 59 6c 19 be 51 f5 97 3d 67 9c ea bd
       -0.020893188 -0.14982738 0.07419837 -0.11455613
000210 df bb 75 bd 70 31 16 3e 31 1f 10 be 2d 9a b1 bc
       -0.05999362 0.14667296 -0.14074399 -0.021679962
000220 9e 1f 8b 3d 13 a7 bb bb 63 64 2c 3e bd 2d 6d bd
       0.0679314 -0.005726704 0.1683517 -0.057904948
000230 3e 77 89 bd bb 3e f6 3d db 58 53 3e 72 1a f4 3b
       -0.06712197 0.12023684 0.20639364 0.0074494416
000240 ed 20 64 bd b9 79 4b 3c fa 10 c9 bc 85 31 7b 3d
       -0.055695463 0.012419158 -0.024544228 0.061326522
000250 78 f4 4f 3e b1 27 f7 be 20 8d ba bd 09 d4 a5 bd
       0.20308101 -0.4827247 -0.09108949 -0.08097083
000260 fd ef 2d 3d 52 02 ce bd 05 3a 53 3c be 9e 8f be
       0.0424652 -0.10059036 0.012892251 -0.28050798
000270 6e 74 34 be 5e a4 05 bc cd d3 bd bc bb 37 8c 3c
       -0.1762254 -0.008156864 -0.023172284 0.017116418
000280 6a 84 11 bc d9 15 a6 3c b5 71 96 bc 7b 3b 10 bc
       -0.008881668 0.02027409 -0.018364767 -0.008803244
000290 49 f1 26 3e aa a9 6d 3c fc 62 5d bd 2a 06 a3 bb
       0.1630298 0.014505783 -0.054049477 -0.0049751
0002a0 0c 0f ee bd 9b a8 12 bd 34 cb a0 3d c0 bb f2 3d
       -0.11623964 -0.035805326 0.07851258 0.11852217
0002b0 36 9d 1c 3d 96 d7 1f 3d 75 e5 b9 3d 85 7e 6e bd
       0.038235866 0.03902396 0.090769686 -0.058226127
0002c0 3e 55 3e bc e8 f0 94 3b 32 79 42 3e 22 c6 5a be
       -0.011617003 0.00454532 0.18991545 -0.21364644
0002d0 f9 19 cb bd 93 9c 03 3c 7a 5e 58 3c d0 2c 23 be
       -0.09917063 0.008032936 0.013206119 -0.15935063
0002e0 5c 1d f2 bc 4e 44 d7 bc a9 3c d4 3a 18 fa cb bd
       -0.029555015 -0.026277687 0.0016192395 -0.09959811
0002f0 d2 c8 d5 3c a6 77 07 be c5 e0 b0 bd a1 8c fb 3d
       0.026096735 -0.13229236 -0.086366214 0.12282682
000300 51 eb 59 bd f2 02 a9 bd f3 34 04 3e c6 7c 6f 3c
       -0.05320293 -0.08252515 0.12910824 0.014617151
000310 5c ed 0d 3e 76 56 e4 3c f8 82 c3 bd 9a 4c 40 3d
       0.13860077 0.027873259 -0.09546465 0.046948053
000320 ea 13 db 3c fd 57 3b be 1f 5a 1b 3d 5e c7 74 3d
       0.026742894 -0.18295284 0.037927743 0.059760444
000330 c2 77 f9 bd 6d 7f 24 bd 73 de 03 3e 9c 29 2e 3e
       -0.12181045 -0.040160585 0.12877826 0.1700806
000340 5e 3f 70 3d a2 24 a7 3c 8a ca 16 3d 5c 32 b4 bb
       0.05865418 0.02040321 0.03681425 -0.0054991674
000350 27 79 ff ba 94 9e 0d 3d ca 3b ea 3d 22 24 f1 bc
       -0.0019491062 0.03457506 0.11437185 -0.029436175
000360 ab 7f 85 bd ba b9 07 3d 35 9f 84 3e d6 93 2d be
       -0.06518491 0.033136107 0.25902715 -0.16950926
000370 84 67 e0 3d b3 e7 c0 3d dc 98 8d 3d cf 7f a4 bd
       0.10957244 0.09419193 0.06913921 -0.0803219
000380 ab 2f 15 bd b8 61 a9 3d 42 67 ff bd 73 4b b0 3b
       -0.036422413 0.082705915 -0.12470867 0.005380088
000390 a0 81 d8 bc 91 c7 1c bc bd a0 22 ba 24 13 06 be
       -0.026428998 -0.009569065 -0.00062037614 -0.13093239
0003a0 e4 57 f2 3c f9 46 1c 3e eb 0d 97 3d 31 f9 e2 3d
       0.029582925 0.15261449 0.073757015 0.11082686
0003b0 00 27 99 bd dc c6 13 be f5 d2 94 3d 90 bf c4 3d
       -0.07478142 -0.14431328 0.07266799 0.0960685
0003c0 d0 a7 2f 3e 27 d9 83 3e 34 3f f5 bd 1e 7a af bd
       0.17153859 0.25751612 -0.11974946 -0.08568214
0003d0 09 91 67 ba 16 24 47 3d 7c 22 33 3e 36 94 21 3e
       -0.00088335626 0.0486184 0.17493623 0.15779194
0003e0 f0 35 0a 3e a8 65 d8 bd 7b d0 61 3d 38 5d df 3d
       0.13497138 -0.105662644 0.055130463 0.10906452
0003f0 d4 17 af 3b d4 30 91 3d 45 a1 a2 3d 77 4a 32 3e
       0.0053434167 0.07089391 0.07940916 0.17411219

adv.bias f4 [16]
000000 d4 46 19 be eb 90 ca 3d 43 18 11 be 49 dc a2 3e
       -0.14968425 0.09890922 -0.14169411 0.3180869
000010 00 9e f6 bd ec 72 a8 3d 94 22 54 be 20 94 24 bb
       -0.12041855 0.082250446 -0.20716316 -0.0025112703
000020 c0 67 b1 bd 88 40 c3 3d ba 35 0c be 23 ea 93 3d
       -0.08662367 0.09533793 -0.1369237 0.072223924
000030 b6 ec 06 be e1 0a d2 3d e5 0f 8e bd c5 10 26 3d
       -0.13176236 0.10255981 -0.069366254 0.040543336
