model.pt (torch, 7915 bytes, 5 tensors)

fc1.weight f4 [100, 8]
0.5503905 -0.539705 -0.59626377 -0.544767 -0.45282483 -1.953694 -2.0494342 1.5767498
0.9869846 -2.9234939 -0.105836436 -3.90241 -1.7577922 -1.8499172 0.27370644 0.254279
-1.4103233 0.5945863 -0.73140407 -0.47369602 0.68471456 2.6996 0.77762127 -3.383966
0.44361976 0.33905345 0.7697556 -0.37902603 0.52627 -2.377945 -4.0086503 -0.03379025
-1.179338 -0.788442 -1.5213681 -2.787847 -0.4902946 0.08460369 0.8479726 0.08744498
1.673929 -1.552705 -0.3188782 -1.3599659 -0.5215798 -0.4800457 0.5057252 0.47520423
0.08036063 -0.0124031985 -5.193401 -3.8724325 -0.06527498 0.21641496 0.2398761 0.17779337
0.22524819 -0.27231407 1.2463094 0.74698496 -0.14549083 2.3479848 0.76509655 0.30575562
-0.056351516 -0.1472999 5.360396 -4.300716 0.59746224 -0.16195506 0.5063316 0.31178463
-0.41181713 -1.0796299 2.0734558 -2.7062345 -4.126699 -2.152936 -1.1925914 -1.2092953
0.29417333 -4.0063753 -1.330475 -5.818905 2.0811682 1.3913381 0.2897928 0.56333625
1.5945935 -0.49966857 0.7346767 1.0494735 1.0198675 -1.2975243 0.9837246 1.2551919
0.45199645 -0.79970765 -0.085012086 -2.1581767 1.6720228 3.9027133 -0.56528974 -2.5877795
0.7084522 0.82904553 -1.6183972 1.6163131 0.20535538 -1.5738027 -4.728446 0.13442595
-0.555926 0.1744039 -6.7426343 0.35916558 0.35260966 0.654967 0.67209214 3.2542055
0.19760725 1.6944947 2.3946135 -0.9610226 2.018205 -1.5612196 0.030355055 -4.5630465
0.039995667 0.43109822 0.24542147 -4.6717196 1.2725029 -0.8643651 -1.6860616 -4.2375417
0.6580525 0.63889307 0.119479254 -1.1306981 -0.3446517 1.5359906 0.42319417 -1.2418966
-0.26412967 1.0168718 -0.57583123 1.5362486 0.4220998 2.087844 2.2250578 0.25548857
3.110385 0.4929477 1.4063629 -1.4088435 0.8478811 0.53402126 0.12696488 1.5387427
-0.8981455 0.31091428 -0.0024164596 -1.039305 -0.34518588 1.4702011 0.3457507 -0.058215708
0.32911667 -0.80052763 1.6316512 0.19747944 2.456742 0.06863048 -0.4540629 1.8187424
0.05302774 -0.37270904 -0.30880094 -4.165322 2.5318933 2.9396725 0.5516497 -0.12396222
-0.2219276 0.6878359 1.1384348 1.1139425 -0.074960575 3.1805341 1.1976894 0.86029
-0.020922812 0.10378796 0.21913578 0.10459869 -9.80784 0.38831007 0.2607189 -0.54020214
-4.1321473 1.0626881 2.0088444 0.87310445 -1.6600653 1.938567 -1.0508909 -1.5210427
-0.9330116 0.8354422 -1.2433124 0.9175805 1.8523729 1.9434683 -1.7259524 0.7750105
3.6065123 -0.48179612 -0.49732518 -3.9673772 0.6290681 2.2469907 0.8824325 0.2723635
0.17406745 -1.802979 0.07244725 -3.4601989 -1.1771961 -2.0509613 -1.0610408 2.5765166
0.082255 -0.08120548 -0.14850965 -5.763895 0.9343029 0.8178133 0.15977475 0.5016324
0.50461686 -1.2545879 0.5700623 6.14533 0.11299885 -1.8496461 0.0899814 1.1288213
-2.4381912 1.0634615 2.9941235 -0.6415126 -1.613366 1.0178907 -0.75202954 0.5791796
00000000: 64e6 0c3f 1b2a 0abf bea4 18bf da75 0bbf
00000010: a8d8 e7be a512 fabf ee29 03c0 f0d2 c93f
00000020: 06ab 7c3f 861a 3bc0 c6c0 d8bd 16c1 79c0
00000030: 56ff e0bf 16ca ecbf 4023 8c3e db30 823e
00000040: 7985 b4bf cf36 183f 4c3d 3bbf 4988 f2be
00000050: 7449 2f3f 3fc6 2c40 3012 473f e692 58c0
00000060: 2122 e33e 6a98 ad3e b40e 453f b30f c2be
00000070: a1b9 063f 4030 18c0 dd46 80c0 a567 0abd
00000080: 8cf4 96bf 56d7 49bf 31bc c2bf 166c 32c0
00000090: e507 fbbe b344 ad3d bb14 593f 5b16 b33d
000000a0: 4e43 d63f 0abf c6bf 0144 a3be 5d13 aebf
000000b0: 4186 05bf 8dc8 f5be 3577 013f f84d f33e
000000c0: 1d94 a43d c936 4bbc 5730 a6c0 efd5 77c0
000000d0: e4ae 85bd e29b 5d3e 15a2 753e 770f 363e
000000e0: 76a7 663e c06c 8bbe 1187 9f3f 683a 3f3f
000000f0: 8cfb 14be 6245 1640 5edd 433f 008c 9c3e
00000100: d9d0 66bd c9d5 16be 5d88 ab40 779f 89c0
00000110: 49f3 183f 8cd7 25be f39e 013f 3ca2 9f3e
00000120: b2d9 d2be 5031 8abf 80b3 0440 f232 2dc0
00000130: eb0d 84c0 b4c9 09c0 d6a6 98bf 30ca 9abf
00000140: e39d 963e 3a34 80c0 014d aabf 7834 bac0
00000150: dc31 0540 5e17 b23f b95f 943e ce36 103f
00000160: a41b cc3f 8fd4 ffbe c613 3c3f 2655 863f
00000170: 058b 823f 4715 a6bf 60d5 7b3f 21aa a03f
00000180: 146c e73e a4b9 4cbf d11a aebd 911f 0ac0
00000190: d804 d63f 0ec6 7940 d4b6 10bf 2e9e 25c0
000001a0: 205d 353f 543c 543f a427 cfbf 59e3 ce3f
000001b0: ae48 523e 5e72 c9bf 6e4f 97c0 f5a6 093e
000001c0: 2b51 0ebf f096 323e a9c3 d7c0 8de4 b73e
000001d0: 4189 b43e ebab 273f 3b0e 2c3f e744 5040
000001e0: 8e59 4a3e 34e5 d83f 5941 1940 9405 76bf
000001f0: 452a 0140 0bd6 c7bf 2aab f83c 7a04 92c0
00000200: 7fd2 233d e8b8 dc3e c44f 7b3e ba7e 95c0
00000210: 60e1 a23f 0847 5dbf ded0 d7bf f199 87c0
00000220: 2176 283f 7f8e 233f 8ab1 f43d b7ba 90bf
00000230: 3076 b0be 579b c43f e8ac d83e 78f6 9ebf
00000240: 013c 87be db28 823f ad69 13bf cba3 c43f
00000250: 771d d83e 3c9f 0540 5967 0e40 66cf 823e
00000260: 8c10 4740 a463 fc3e b303 b43f fc54 b4bf
00000270: bc0e 593f 9eb5 083f 1503 023e 85f5 c43f
00000280: ddec 65bf 2830 9f3e 775d 1ebb f207 85bf
00000290: 34bc b0be 8d2f bc3f 3c06 b13e 9873 6ebd
000002a0: fb81 a83e 61ef 4cbf f2d9 d03f 0d38 4a3e
000002b0: 433b 1d40 238e 8c3d ef7a e8be 8dcc e83f
000002c0: 9e33 593d b8d3 bebe 281b 9ebe 514a 85c0
000002d0: 8a0a 2240 9823 3c40 ea38 0d3f e8df fdbd
000002e0: fd40 63be 0316 303f 3bb8 913f ab95 8e3f
000002f0: ee84 99bd df8d 4b40 e34d 993f f73b 5c3f
00000300: 5166 abbc c88e d43d 2165 603e d737 d63d
00000310: eaec 1cc1 94d0 c63e f37c 853e b04a 0abf
00000320: 8d3a 84c0 2a06 883f e890 0040 c683 5f3f
00000330: 057d d4bf f722 f83f 9883 86bf 87b1 c2bf
00000340: d9d9 6ebf 8adf 553f dc24 9fbf 8ee6 6a3f
00000350: 8e1a ed3f 92c3 f83f 02ec dcbf 1767 463f
00000360: 19d1 6640 fbad f6be 68a1 febe 82e9 7dc0
00000370: 9b0a 213f b2ce 0f40 19e7 613f 3b73 8b3e
00000380: bd3e 323e 04c8 e6bf 395f 943d e673 5dc0
00000390: 5dae 96bf f342 03c0 2fd0 87bf a6e5 2440
000003a0: 4f75 a83d 0f4f a6bd ea12 18be d471 b8c0
000003b0: 7a2e 6f3f 365c 513f fe9b 233e fb6a 003f
000003c0: 922e 013f 5696 a0bf 9aef 113f 8ba6 c440
000003d0: f16b e73d 34c1 ecbf 2b48 b83d 377d 903f
000003e0: 530b 1cc0 821f 883f b89f 3f40 2b3a 24bf
000003f0: c782 cebf 3e4a 823f 0285 40bf 1d45 143f

fc1.bias f4 [100]
-1.2905221 -1.139287 -0.38502747 0.45533285 1.8741474 0.17199534 -0.01047973 0.050230134
-0.011950718 -0.9903657 -0.90183437 0.47096738 -1.5205114 1.0245895 0.040612787 -0.33974048
1.5224947 1.1112404 0.61468625 0.5693079 0.85171676 -0.1269452 0.94456804 -0.7383045
-0.036426675 0.36920634 0.5975887 -0.81765795 -1.0397457 -0.6149253 -1.1039833 0.46732455
0.85111755 0.52375275 -0.71253335 0.9768505 0.23024264 -0.6944124 0.5940954 -0.4744711
1.311872 0.00049383607 -0.26503292 -0.042965 0.09467505 1.1649452 -0.47532085 0.41152954
1.1137602 0.56185025 -0.20967366 -0.124397725 0.39158693 1.0708394 -1.3665764 0.10534769
0.014230186 1.3747857 -1.6665305 -0.0028572003 -0.61619097 0.7626622 -1.9435493 -0.73508734
-0.2814512 -0.18049683 -0.95285493 0.9279147 -0.455235 1.0230616 0.81764853 -0.8607763
-1.3098872 0.12195024 -1.044616 0.6176501 0.5672047 -0.8116332 -0.29732877 1.1631203
1.5529366 1.3792777 -1.9250103 0.6434103 0.50522864 0.64527965 0.66670793 0.3948512
1.2982378 0.94423455 -0.11891785 -0.2736196 0.3701946 -0.8584168 -0.32426804 -1.5255201
-0.0396666 -0.99226356 -0.6000311 -0.5849403
00000000: d42f a5bf 28d4 91bf 5222 c5be 6321 e93e
00000010: 10e4 ef3f 8c1f 303e 2cb3 2bbc 1dbe 4d3d
00000020: f2cc 43bc 9b88 7dbf 9ede 66bf a322 f13e
00000030: 1ea0 c2bf c025 833f 9859 263d 77f2 adbe
00000040: 1be1 c23f 203d 8e3f 145c 1d3f 2abe 113f
00000050: 1c0a 5a3f ecfd 01be 36cf 713f 8601 3dbf
00000060: 2334 15bd 9d08 bd3e 93fb 183f 0852 51bf
00000070: 6316 85bf bf6b 1dbf 534f 8dbf 2a45 ef3e
00000080: d7e2 593f a914 063f 9668 36bf e012 7a3f
00000090: bac4 6b3e 03c5 31bf a316 183f e0ed f2be
000000a0: 6ceb a73f c774 013a 65b2 87be 11fc 2fbd
000000b0: fee4 c13d ed1c 953f 415d f3be 00b4 d23e
000000c0: b28f 8e3f 6bd5 0f3f b1b4 56be 3cc4 febd
000000d0: 157e c83e 4411 893f faeb aebf 88c0 d73d
000000e0: ba25 693c faf8 af3f df50 d5bf de3f 3bbb
000000f0: b1be 1dbf d43d 433f 39c6 f8bf af2e 3cbf
00000100: 5f1a 90be 29d4 38be 4dee 73bf d18b 6d3f
00000110: 9014 e9be aff3 823f 6a51 513f d65b 5cbf
00000120: 62aa a7bf 0cc1 f93d fab5 85bf 511e 1e3f
00000130: 5434 113f 32c7 4fbf 7a3b 98be 20e1 943f
00000140: a0c6 c63f 2c8c b03f bd66 f6bf 8ab6 243f
00000150: aa56 013f 0c31 253f 5fad 2a3f f029 ca3e
00000160: a82c a63f 5bb9 713f 348b f3bd de17 8cbe
00000170: 268a bd3e 34c1 5bbf 7606 a6be 3e44 c3bf
00000180: 7279 22bd fc04 7ebf a39b 19bf a6be 15bf

v.weight f4 [1, 100]
-3.9919777 -6.850327 -2.543055 -2.5536973 -3.9083858 -0.77126837 6.341795 -1.8705734
6.796199 -4.963957 -9.457811 -2.157314 -4.9667454 2.396471 5.821197 3.8646622
-6.4272933 1.5769569 -2.4906588 1.751486 -0.20869987 -2.2120519 4.7671037 -2.6602066
10.02121 4.0757537 -2.4771502 5.9217415 4.973385 -6.4936166 -4.5489407 2.4401028
-3.9905975 -2.5767622 4.5979443 1.7285863 4.548587 -5.265009 2.8615832 -2.5755343
-2.845627 6.183548 -3.1313324 5.5100746 6.304165 1.8541787 -1.7056565 3.9403565
2.5079842 8.77655 -2.9717133 -3.4232857 -1.0792133 -5.960743 -4.4134455 -2.7865138
-2.7592318 2.6685166 -5.85325 5.952427 -2.6445742 -2.8158305 -5.0593567 -4.1544547
-2.0951293 -2.8780327 -4.394939 2.1077373 -2.7739868 7.7308407 2.780806 -2.307697
-3.5868273 -2.6481647 -2.1147618 -2.7487998 -1.6454425 7.218476 -3.7741246 1.961093
2.6094956 1.6566098 6.537436 -1.8483866 -1.6144092 3.0947533 -1.9474791 -3.548606
2.0001483 1.7200351 -2.7788415 -3.5315812 -2.2916915 3.3356662 4.3315644 -6.138448
-2.663181 -2.8292215 -2.7799797 -2.0860481
00000000: 907c 7fc0 e135 dbc0 6ac1 22c0 c76f 23c0
00000010: fe22 7ac0 d871 45bf fcef ca40 f36e efbf
00000020: 767a d940 bcd8 9ec0 3253 17c1 6f11 0ac0
00000030: 94ef 9ec0 c85f 1940 3f47 ba40 a056 7740
00000040: 63ac cdc0 b9d9 c93f f466 1fc0 b130 e03f
00000050: 6bb5 55be 4292 0dc0 1d8c 9840 d340 2ac0
00000060: e056 2041 936c 8240 a189 1ec0 e87e bd40
00000070: f825 9f40 b5cb cfc0 ec90 91c0 a52a 1c40
00000080: f365 7fc0 ace9 24c0 5c22 9340 5142 dd3f
00000090: 068e 9140 f47a a8c0 2e24 3740 8ed5 24c0
000000a0: c11e 36c0 a0df c540 c067 48c0 8852 b040
000000b0: b8bb c940 ba55 ed3f f452 dabf cd2e 7c40
000000c0: d082 2040 c06c 0c41 8d30 3ec0 1d17 5bc0
000000d0: a923 8abf 68be bec0 f23a 8dc0 3e56 32c0
000000e0: 4197 30c0 fac8 2a40 d34d bbc0 487a be40
000000f0: b440 29c0 9136 34c0 40e6 a1c0 4bf1 84c0
00000100: 9916 06c0 b031 38c0 57a3 8cc0 2be5 0640
00000110: 0089 31c0 0c63 f740 baf8 3140 4fb1 13c0
00000120: 948e 65c0 887b 29c0 4258 07c0 56ec 2fc0
00000130: dc9d d2bf c1fd e640 428b 71c0 1805 fb3f
00000140: fa01 2740 ca0b d43f ad32 d140 ef97 ecbf
00000150: f6a4 cebf 7010 4640 ff46 f9bf 5c1c 63c0
00000160: 6e02 0040 1c2a dc3f 8ad8 31c0 6d05 62c0
00000170: 13ab 12c0 8e7b 5540 2d9c 8a40 2b6e c4c0
00000180: 8f71 2ac0 f711 35c0 30eb 31c0 d081 05c0

adv.weight f4 [4, 100]
1.0393689 0.4736767 -0.042964485 -0.19132791 -0.12576556 -0.4432444 -0.05295382 0.4074156
-0.14063074 0.12392155 -0.11526978 0.09771529 -1.312177 0.5539696 -0.07213663 0.27557153
0.86389875 0.10098493 -0.19947873 0.07474633 -0.46847504 -0.019471128 0.3421815 0.02365916
-0.01138737 0.16079748 0.224521 0.36306736 0.014658139 -0.1899379 0.06630953 0.21555826
-0.07167198 -0.1973925 0.19558755 -0.19635639 -0.4281832 -0.70486945 -0.16997805 -0.80603105
0.6170475 0.34744242 -0.11920185 0.15064768 -0.24994048 -0.38740173 0.37463838 -0.65590495
-0.6808483 -0.006878888 -0.059606414 -0.2567359 -0.29130024 -0.0997627 -0.8693755 -0.1456739
0.7214493 0.2232253 -0.5687399 0.14186785 -0.053230807 0.23364565 -0.15838285 -0.2805617
-0.021374911 0.023245426 -0.124974705 -0.15220676 0.06046785 0.018516008 -0.110241905 0.2880828
0.39780867 0.1426257 -0.20916209 0.013460455 0.7834102 0.021808563 0.38839474 0.2216721
0.50072587 -0.087542616 0.21535571 -0.13666238 -0.33844796 0.22913285 0.3750439 0.2458839
-0.12018426 -0.2240296 -0.33556157 0.43557203 -0.13177717 0.03566628 0.28314266 0.1987812
0.18747857 0.044392917 0.61675155 0.32095733 -0.072238974 -0.1985972 -0.029688036 -0.030072719
0.026568608 -1.4542888 -0.1718198 0.63018936 -0.20488219 0.0032800224 -0.08610981 0.8492957
1.5448587 0.0790776 -0.08942716 -0.33760744 1.1540926 -0.3414033 0.9082717 -0.048513435
-1.312572 0.04170423 0.17649822 -1.0865501 -0.0010118742 -0.21422482 0.80391604 0.21078636
0.7798662 -0.59534955 2.059257 0.78438354 0.064460464 0.21795519 -0.19246075 -0.08674694
-0.5324982 -0.3989188 0.3382515 -0.6263789 -0.12806132 0.2162615 -0.9529223 -0.25572968
-0.3433159 0.116230555 -1.496251 0.37843668 -0.04554648 0.5121518 0.6407495 0.13805732
-0.5498094 0.15755682 0.35450518 0.14967896 0.8618087 -0.010824634 0.31989032 -0.2390991
-0.14492534 0.22702669 -0.8799895 -0.022128385 -0.49535206 0.64230174 0.46877533 -0.107677065
1.2308943 0.24340934 0.047238648 0.6574242 -0.3304433 -0.07722735 1.6118733 -0.00511938
-0.017515408 -0.14740843 -0.07824432 -0.34751022 -0.3239308 0.02304735 -0.3425436 -0.75796366
0.16575442 -0.6083422 0.14150548 0.6103215 -0.060366474 0.31585452 -0.15530692 0.51194984
-1.1757189 0.6116314 0.009841349 -0.34019047 0.57934004 -0.40972406 0.99600714 0.37461692
-0.5693834 -0.47237137 0.6305124 0.97888535 0.25815728 1.1669089 0.6232197 -0.42803732
0.6496288 -0.11326496 0.66476554 -0.53462315 0.6551774 0.13209045 -0.3734473 -0.061948568
-0.9291767 0.13181074 0.22764783 0.18519612 0.14922304 -0.2650509 -0.42487845 0.38341057
0.51516986 -0.198214 -0.06109105 -0.69646555 0.37254938 0.3885208 0.34632525 -0.43795037
0.59511995 0.6228615 -0.1725422 0.16584285 0.6606027 0.79601365 0.06008793 1.4034051
-0.15763769 -0.39912602 1.0236982 -0.3082195 0.37138152 0.030521162 0.27817318 -0.14034784
0.10778403 -0.014347525 0.082249306 1.1622384 0.09393837 1.0019928 0.61868834 0.11854731
00000000: 0a0a 853f c185 f23e 87fb 2fbd 77eb 43be
00000010: b0c8 00be eef0 e2be 1be6 58bd c798 d03e
00000020: 8101 10be 95ca fd3d 9012 ecbd f41e c83d
00000030: 6af5 a7bf f4d0 0d3f 5fbc 93bd b617 8d3e
00000040: 7828 5d3f 30d1 ce3d 2744 4cbe 9b14 993d
00000050: f6db efbe ea81 9fbc 6a32 af3e dbd0 c13c
00000060: 1792 3abc 18a8 243e d5e8 653e f7e3 b93e
00000070: b128 703c 157f 42be 4acd 873d 4ebb 5c3e
00000080: c2c8 92bd 4221 4abe 1a48 483e a611 49be
00000090: d43a dbbe 5372 34bf ba0e 2ebe 0d58 4ebf
000000a0: d3f6 1d3f f9e3 b13e 1920 f4bd 6343 1a3e
000000b0: 66f0 7fbe 8559 c6be 9ad0 bf3e 63e9 27bf
000000c0: 134c 2ebf 4b68 e1bb db25 74bd e372 83be
000000d0: 4e25 95be 6350 ccbd 658f 5ebf 8a2b 15be
000000e0: e7b0 383f 2c95 643e f098 11bf ce45 113e
000000f0: 8c08 5abd ce40 6f3e 1d2f 22be c8a5 8fbe
00000100: 701a afbc 316d be3c bdf2 ffbd 17dc 1bbe
00000110: 23ad 773d e2ae 973c 82c6 e1bd 977f 933e
00000120: 94ad cb3e 790c 123e 962e 56be 3e89 5c3c
00000130: 928d 483f dfa7 b23c addb c63e 03fe 623e
00000140: 922f 003f 8b49 b3bd 3586 5c3e 39f1 0bbe
00000150: 0d49 adbe cda1 6a3e c105 c03e fdc8 7b3e
00000160: 2a23 f6bd 0468 65be bace abbe 4c03 df3e
00000170: 98f0 06be ce16 123d 13f8 903e 4d8d 4b3e
00000180: 62fa 3f3e 59d5 353d 6ee3 1d3f 8554 a43e
00000190: 07f2 93bd 105d 4bbe 5334 f3bc 105b f6bc
000001a0: 69a6 d93c 2326 babf 88f1 2fbe 1754 213f
000001b0: a3cc 51be a5f5 563b 575a b0bd 716b 593f
000001c0: eebd c53f 70f3 a13d 9625 b7bd e2da acbe
000001d0: 4eb9 933f 6acc aebe 7e84 683f 06b6 46bd
000001e0: 5c02 a8bf 0ed2 2a3d f3bb 343e 1314 8bbf
000001f0: dda0 84ba c05d 5bbe 71cd 4d3f 61d8 573e
00000200: 50a5 473f d468 18bf deca 0340 5ccd 483f
00000210: d903 843d a52f 5f3e 6e14 45be 61a8 b1bd
00000220: cd51 08bf 163f ccbe 4d2f ad3e 5e5a 20bf
00000230: 8222 03be a873 5d3e b7f2 73bf 00ef 82be
00000240: 1ac7 afbe 490a ee3d 2785 bfbf 74c2 c13e
00000250: f28e 3abd 611c 033f 2908 243f e65e 0d3e
00000260: 4fc0 0cbf 9356 213e b481 b53e 7145 193e
00000270: 7f9f 5c3f ce59 31bc aac8 a33e 65d6 74be
00000280: 4f67 14be af79 683e fe46 61bf 9646 b5bc
00000290: c99e fdbe e36d 243f 5203 f03e cb85 dcbd
000002a0: f28d 9d3f 4c40 793e 507d 413d f44c 283f
000002b0: dd2f a9be 5f29 9ebd dd51 ce3f 79c0 a7bb
000002c0: 797c 8fbc 3cf2 16be 8f3e a0bd dcec b1be
000002d0: 42da a5be cccd bc3c e061 afbe e809 42bf
000002e0: 87bb 293e 50bc 1bbf d0e6 103e 083e 1c3f
000002f0: d642 77bd afb7 a13e c708 1fbe 250f 033f
00000300: f57d 96bf e093 1c3f 9c3d 213c 722d aebe
00000310: a14f 143f 5ac7 d1be 53fa 7e3f cacd bf3e
00000320: 1cc3 11bf a9da f1be 4369 213f 3b98 7a3f
00000330: 312d 843e 455d 953f 548b 1f3f b527 dbbe
00000340: 134e 263f 76f7 e7bd 132e 2a3f 10dd 08bf
00000350: b5b9 273f b842 073e 7c34 bfbe c8bd 7dbd
00000360: 86de 6dbf 65f9 063e 831c 693e 0da4 3d3e
00000370: edcd 183e c0b4 87be ab89 d9be 644e c43e
00000380: 2ce2 033f 9cf8 4abe 9c3a 7abd 914b 32bf
00000390: cbbe be3e 33ec c63e 8b51 b13e 083b e0be
000003a0: c859 183f da73 1f3f e7ae 30be b5d2 293e
000003b0: 421d 293f 8dc7 4b3f c31e 763d c7a2 b33f
000003c0: c66b 21be 3f5a ccbe 8b08 833f f2ce 9dbe
000003d0: b825 be3e 8407 fa3c b76c 8e3e 58b7 0fbe
000003e0: e0bd dc3d e211 6bbc 5372 a83d 3ac4 943f
000003f0: c362 c03d 4d41 803f 5c62 1e3f efc8 f23d

adv.bias f4 [4]
-0.47905594 0.25582895 -0.16390868 0.23312537
00000000: d246 f5be 03fc 823e add7 27be 6bb8 6e3e
