model.pt (torch_old, 815527 bytes, 11 tensors)

conv1.weight f4 [8, 3, 10, 10]
0	0x3d5c9c7a	0.053860165
1	0x3ca738ab	0.020412764
2	0xbd257bff	-0.040401455
3	0x3d2f2bd0	0.042766392
4	0xbd14d7da	-0.036338665
5	0x3d08d2a6	0.033404015
6	0xbcab5941	-0.020916583
7	0x3d57aeb5	0.052656848
8	0xbd7a7f6f	-0.061156686
9	0x3d253fa7	0.040343907
10	0x3bf7c71c	0.0075615775
11	0xbd1ab26a	-0.037767805
12	0xbc62d087	-0.013843662
13	0xbd2fea17	-0.042947855
14	0xbcd986fa	-0.02655362
15	0xbcca4ebe	-0.02469575
16	0xbd474a24	-0.04865469
17	0x3ca168ff	0.019703386
18	0xbd1accf9	-0.037793133
19	0x3d2934bb	0.041310053
20	0xbd21a2c4	-0.039461866
21	0x3d3fbb6d	0.046809603
22	0xbd0b85d1	-0.034063164
23	0x3d28196a	0.04103986
24	0xbc41d9c8	-0.011831708
25	0xbd17e50b	-0.037083667
26	0x3b6b1ffd	0.003587722
27	0xbb9e1ebb	-0.0048254407
28	0x3d59def6	0.053191148
29	0x3d25e70e	0.040503554
30	0x3d25cdde	0.040479533
31	0x3d20521f	0.039140817
32	0xbaa6244e	-0.0012675615
33	0xbd79a8dc	-0.060952052
34	0x3d1c1430	0.03810519
35	0xbd42c8f5	-0.04755493
36	0xbb724ee3	-0.003697329
37	0xbca069b4	-0.019581653
38	0xbca45673	-0.020060753
39	0x3d4ee47f	0.05051088
40	0xbcbafdfd	-0.02282619
41	0x3bcef0f5	0.0063153454
42	0xbc8ac278	-0.016938433
43	0x3c9e30dd	0.01931041
44	0xbd406c13	-0.046978068
45	0xbc8cca52	-0.017186318
46	0xbd611c71	-0.054958764
47	0x3d3f8211	0.0467549
48	0x3d5f10e1	0.054459456
49	0xbc8c2633	-0.017108059
50	0xbd86d1a7	-0.06582957
51	0xbd8fe2a4	-0.0702565
52	0xbbd020af	-0.0063515524
53	0xbd9ff970	-0.07811248
54	0xbd72e563	-0.05930079
55	0xbca0dc1c	-0.019636206
56	0xbb3fd86a	-0.002927328
57	0x3d125fbb	0.035735827
58	0xbd114586	-0.035466693
59	0xbcbbfa73	-0.022946572
60	0x3d13888c	0.036018893
61	0xbd59013b	-0.05297969
62	0xbcdb203f	-0.026748775
63	0xbd8eebfa	-0.06978603
64	0x3c6bd9a1	0.0143951485
65	0x3b48816a	0.0030594715
66	0x3d42fafc	0.04760264
67	0x3b8d28f4	0.0043078605
68	0xbc1b2b97	-0.009470842
69	0x3ba88901	0.0051432853
70	0xbd882f93	-0.06649699
71	0xbc94b734	-0.018153764
72	0xbd8a73e5	-0.067603864
73	0xbdaf5f36	-0.08563082
74	0xbac5f865	-0.0015103935
75	0xbd825d0d	-0.06365404
76	0xbd2a6e46	-0.04160907
77	0x3c75fb33	0.015013504
78	0x3cd17244	0.025567181
79	0x3c6f6c22	0.014613183
80	0xbbfdf48c	-0.0077500995
81	0xbb932667	-0.004490662
82	0xbd75615a	-0.059907295
83	0xbd67d1d9	-0.05659661
84	0xbc77308a	-0.015087256
85	0x3cde52d4	0.027139105
86	0x3c7c3c18	0.015395187
87	0xbcec33ec	-0.028833352
88	0x3bc4fb93	0.0060114353
89	0x3b6cc4f9	0.0036128147
90	0x3cd1d3b3	0.025613641
91	0xbd260590	-0.04053265
92	0xbd0b1f4e	-0.0339654
93	0xbc176f67	-0.009242869
94	0xbd4f6cb7	-0.050640788
95	0xbab19c29	-0.0013550568
96	0xbd5873dc	-0.052844867
97	0x3ca5f8e9	0.020260291
98	0x3c0f019a	0.008728409
99	0x3d0a4b9d	0.033763517
100	0xbadaeee2	-0.0016703273
101	0xbd34cef9	-0.044142697
102	0x3d24f199	0.040269468
103	0xbb2fc040	-0.002681747
104	0x3977a33c	0.00023616565
105	0xbc76c7ee	-0.015062315
106	0xbc265607	-0.010152346
107	0xbd3e2216	-0.046419226
108	0xbd556157	-0.052094784
109	0xbd474c03	-0.048656475
110	0x3babdb4c	0.005244648
111	0xbd4d567b	-0.050131302
112	0x3d27b7ad	0.04094665
113	0x3d3b0866	0.045662306
114	0xbd69693a	-0.056985117
115	0x3d441365	0.04787006
116	0xbc0cbf50	-0.008590534
117	0x3c81959d	0.015818411
118	0xbcb88dd4	-0.022528566
119	0xbc2121ee	-0.00983475
120	0xba95efa0	-0.0011439212
121	0xbcb27658	-0.021784946
122	0xbd1bf9bb	-0.03807996
123	0xbca26203	-0.019822126
124	0x3d3306c7	0.043707635
125	0xbd1ed241	-0.038774733
126	0xbc7a66f8	-0.015283339
127	0xbd6895ae	-0.05678337
128	0xbc825bb4	-0.015912868
129	0xbd035ab0	-0.03206891
130	0xbcb8b9b9	-0.022549497
131	0xbd4078cb	-0.046990197
132	0xbb933ba2	-0.004493193
133	0x3b0b219f	0.0021229757
134	0x3d0917a7	0.033469822
135	0xbd1322dc	-0.035921916
136	0x3d1ec166	0.038758658
137	0x3d225895	0.03963526
138	0xbd1d8a04	-0.0384617
139	0xbbd83243	-0.0065977885
140	0x3b3fb223	0.0029250465
141	0x3b2ce57c	0.00263819
142	0x3c3ad40a	0.011403093
143	0x3d438eeb	0.04774372
144	0x3d028c3b	0.031872015
145	0x3cbbfdc3	0.022948151
146	0x3d53e7d7	0.05173477
147	0x3d63d2bd	0.055620898
148	0xbcbbae5a	-0.022910286
149	0x3cebe726	0.028796744
150	0x3d6a95de	0.05727183
151	0xbd4d3e16	-0.050108038
152	0x3d1672c2	0.036730535
153	0xbd062e64	-0.032759085
154	0xbd2409c8	-0.04004839
155	0xbcf46539	-0.029833423
156	0x3c1ca7b4	0.009561468
157	0xbbba3fba	-0.0056838663
158	0x3c5af95b	0.013365115
159	0x3c5fe567	0.013665534
160	0x3d4bea5b	0.049784046
161	0xbcbfc6f3	-0.023410296
162	0x3cd2b18e	0.02571943
163	0x3d63664a	0.055517472
164	0x3d6c3315	0.057665903
165	0xbcd32986	-0.025776636
166	0x3d3aea4b	0.045633595
167	0x3bd833fa	0.006597993
168	0x3d5bf5fa	0.05370138
169	0x3b4a0b82	0.0030829613
170	0xbd40c1a7	-0.04705968
171	0xbd45ac6b	-0.048260134
172	0xbd1613e8	-0.036640078
173	0xbc921688	-0.01783301
174	0xbc2e8bfa	-0.01065349
175	0x3d57cd3d	0.052685965
176	0x3d66d7b1	0.056358043
177	0xbc8013c7	-0.01563443
178	0x3c507cdd	0.012725082
179	0xbd6a58c5	-0.057213563
180	0xbd4d28f7	-0.050087895
181	0x3c39efec	0.011348706
182	0xbca99c38	-0.020704374
183	0x3cca8ce2	0.024725381
184	0x3ccc46e6	0.02493615
185	0x3bece678	0.0072296225
186	0xbb5b70b1	-0.0033483917
187	0xbd57648b	-0.05258612
188	0xbd36ff13	-0.04467685
189	0xbba8e7e3	-0.005154596
190	0x3a298330	0.0006466387
191	0x3cda3bd5	0.026639858
192	0xbcc84eea	-0.024451692
193	0xbcdd196b	-0.02698966
194	0xbbe1dd1b	-0.006892813
195	0xbc900618	-0.01758103
196	0x3cc51ef3	0.02406261
197	0xbaf9eb0d	-0.0019067243
198	0x3c0a1e75	0.008430113
199	0x3d36ab52	0.044596978
200	0xbcc1292a	-0.023579199
201	0x3d52c8c6	0.051461004
202	0xbc40da0a	-0.011770735
203	0x3b6bf957	0.0036006772
204	0x3bf50781	0.007477701
205	0x3bae8c55	0.0053267875
206	0xba8de34b	-0.0010825185
207	0xbc7caa08	-0.015421398
208	0x3a37ba3d	0.00070086477
209	0x3be91895	0.007113526
210	0xbd26d4d0	-0.040730298
211	0x3d0eb43c	0.034839854
212	0xbba84f81	-0.0051364307
213	0x3ae83841	0.001771696
214	0x3d16aa78	0.036783665
215	0xbd3503e9	-0.044193182
216	0x3d205d1d	0.0391513
217	0xbc008b3a	-0.007845694
218	0xbd006bcf	-0.031352814
219	0x3ccb3cff	0.024809359
220	0x3d7d70d1	0.06187517
221	0xbc478ce6	-0.012179589
222	0x3d5e401f	0.05426037
223	0xbcaf727b	-0.021416893
224	0xbc1537a4	-0.009107504
225	0x3ccf7b88	0.025327459
226	0x3d0cacc6	0.034344457
227	0xbce5e981	-0.028065445
228	0x3d56c61e	0.052435033
229	0x3ca5a2e1	0.020219268
230	0x3c8d703e	0.017265435
231	0x3d644f24	0.055739537
232	0x3bc85758	0.006113928
233	0xbcd5496a	-0.026035983
234	0x3b642389	0.003481122
235	0xbd218acd	-0.03943901
236	0xbd45b98c	-0.048272654
237	0xbd451eb0	-0.04812497
238	0xbb9ff062	-0.004880951
239	0x3c886b8d	0.016652847
240	0xbd075104	-0.033036247
241	0xbd140daa	-0.036145844
242	0xbd080643	-0.033209097
243	0xbc8963f9	-0.016771303
244	0x3d0df235	0.034654815
245	0x3b171df3	0.0023058623
246	0xbd42ed43	-0.04758955
247	0x3d5a1b4e	0.053248696
248	0x3c895862	0.016765777
249	0x3cb930cc	0.022606276
250	0x3cd34f43	0.02579463
251	0x3d00dec6	0.031462453
252	0xbcd7f301	-0.02636099
253	0xbc69050f	-0.0142223975
254	0x3cac9231	0.021065803
255	0xbd4a68b9	-0.049416278

conv1.bias f4 [8]
0	0xbc33b878	-0.010969274
1	0x3eb409d3	0.35163745
2	0x3e2d2a1e	0.16910598
3	0x3d195246	0.037431978
4	0x3c139ec6	0.0090100225
5	0x3ead7c85	0.33884063
6	0xbae3e717	-0.0017387596
7	0xbd07b56c	-0.033132

conv2.weight f4 [16, 8, 10, 10]
0	0xbce9103a	-0.02845012
1	0xbbf52543	-0.0074812486
2	0xbc9d689d	-0.019214923
3	0xbc5f24e7	-0.013619638
4	0xbd00a35d	-0.031405795
5	0x3d10db9c	0.035365686
6	0x3c80a458	0.015703365
7	0x3c0fd70c	0.0087792985
8	0x3cd6132a	0.026132185
9	0x3b9ca671	0.0047805835
10	0x3cc6e26f	0.024277894
11	0xbc48d0cb	-0.012256811
12	0x3b7fd46e	0.003903653
13	0x3c8233af	0.015893785
14	0xbcc3b8d8	-0.023891851
15	0x3c1d321a	0.009594465
16	0x3bec1bde	0.0072054705
17	0xbc133ab2	-0.008986162
18	0xbc948074	-0.018127657
19	0x3b2577ff	0.0025248525
20	0xbb422709	-0.0029625318
21	0x3c639904	0.013891462
22	0x3c6e3065	0.014537905
23	0xbd04a12e	-0.032380275
24	0x3bdfc414	0.0068287943
25	0xbd116b46	-0.035502695
26	0xbc398ecb	-0.011325548
27	0x3c4b6efc	0.012416597
28	0x3a52f3d6	0.00080471986
29	0x3b8e5971	0.0043441583
30	0x3cb6cd60	0.022314727
31	0xbcc791a4	-0.024361439
32	0x3ce71e08	0.028212562
33	0xbc743e69	-0.014907458
34	0x3c9aa7ad	0.018878782
35	0x3abc648d	0.0014373228
36	0x3d16e015	0.036834795
37	0xbb31b051	-0.002711315
38	0xbc9a9c1a	-0.018873263
39	0xbd4f0da9	-0.050550137
40	0x39950154	0.00028420484
41	0xbcb32f46	-0.021873128
42	0x3cee33f6	0.029077511
43	0x3c76a79e	0.0150546115
44	0xbd1d5576	-0.03841158
45	0xbc3a51ca	-0.011372039
46	0xbc3308aa	-0.010927359
47	0xbc1b02ac	-0.009461086
48	0xbce46053	-0.027877962
49	0xbc6ea307	-0.014565236
50	0xbcb2f904	-0.021847256
51	0xbc948a6b	-0.01813241
52	0x3ca52334	0.020158388
53	0xbc4f2c71	-0.012644873
54	0x3c31b21f	0.01084569
55	0x3c0b5707	0.008504636
56	0x3cb24c13	0.02176479
57	0xbcba75c5	-0.022761235
58	0xbc9e7d22	-0.019346777
59	0xbd092855	-0.03348573
60	0x3c2fbf90	0.010726824
61	0x3c1e34c1	0.009656132
62	0xbc436aa1	-0.011927278
63	0x3c3d97c8	0.011571832
64	0xbc765dba	-0.015036995
65	0xbcf9f51e	-0.030512389
66	0x3c8fe1bd	0.017563695
67	0x3b129489	0.0022366366
68	0xbc821fd7	-0.015884323
69	0xbcbd9bd2	-0.02314559
70	0x3c84476a	0.016147334
71	0x3cf364ed	0.029711211
72	0xbcf232ba	-0.029565204
73	0x3d08378a	0.03325609
74	0xbc351c69	-0.011054137
75	0x3cf2387a	0.029567946
76	0x3c8bed5c	0.017080955
77	0xbd01f68a	-0.03172926
78	0xbca6574c	-0.020305298
79	0x3cba95ff	0.022776602
80	0x3b60093e	0.0034185196
81	0x3c08ed2b	0.0083573265
82	0x3c555c71	0.013022528
83	0xbcb12df0	-0.02162835
84	0x3c28b8fc	0.01029801
85	0xbbe4f5f7	-0.006987329
86	0x3c730b5f	0.014834254
87	0x3d4caf3b	0.0499718
88	0x3d268613	0.040655207
89	0xbc483560	-0.012219757
90	0xbb48a625	-0.0030616608
91	0x3c7f81d4	0.015594918
92	0xbb1a7677	-0.0023569146
93	0x3ce04bdd	0.027379924
94	0x3ceb0c2b	0.028692326
95	0x3d1bd616	0.038045965
96	0x3d2cb021	0.042160157
97	0x3ba330fe	0.0049802056
98	0x3b623fb7	0.003452284
99	0x3c0064c2	0.007836523
100	0xbeffe28c	-0.4997753
101	0xbf11a2cb	-0.5688903
102	0xbf1d5439	-0.6145664
103	0xbef87787	-0.48528692
104	0xbd8ea28d	-0.06964598
105	0xbdf39015	-0.11892716
106	0xbf05c137	-0.5224795
107	0xbea25978	-0.31708884
108	0xbdacd1e7	-0.08438473
109	0xbdccf1ad	-0.100070335
110	0xbe07d8d7	-0.13266312
111	0xbdb65976	-0.08903782
112	0xbe93edde	-0.28892416
113	0xbeb3fd45	-0.35154167
114	0xbefcf8ba	-0.49408513
115	0xbf12c266	-0.5732788
116	0xbeb9021d	-0.36134425
117	0x3e994e6d	0.29942647
118	0x3eb34212	0.35011345
119	0xbb15a609	-0.002283456
120	0x3e7247fa	0.2366027
121	0x3e1f4c63	0.15556483
122	0xbddaaa95	-0.10677067
123	0xbe483b73	-0.19553928
124	0xbebf9475	-0.3741795
125	0xbe5751cf	-0.21027301
126	0x3dfbaa8d	0.12288389
127	0x3f60907f	0.87720484
128	0x3f3264b5	0.69684917
129	0x3d8ec453	0.069710396
130	0x3e8c4dcd	0.27403107
131	0x3ed2edac	0.41196954
132	0x3ee335ea	0.4437707
133	0x3f30dfed	0.69091684
134	0x3f0184c4	0.5059321
135	0x3ea660b1	0.32495645
136	0x3ed0268a	0.40654403
137	0x3f46a56a	0.7759615
138	0x3f3d58a6	0.7396339
139	0x3dc374d8	0.095437706
140	0xbeb35682	-0.35026938
141	0xbe06ed78	-0.13176525
142	0x3ed08d32	0.40732723
143	0x3f5ce0b8	0.86280394
144	0x3f441f0d	0.7660988
145	0x3e850854	0.25982916
146	0x3e4873b3	0.19575386
147	0x3ef45afc	0.47725666
148	0x3e94eb0a	0.2908557
149	0xbe339ec1	-0.17541029
150	0xbf271b57	-0.6527609
151	0xbe19a2fa	-0.15003577
152	0x3f174528	0.590899
153	0x3f597a1e	0.8495196
154	0x3f3522c6	0.70756185
155	0x3d8c1884	0.068406135
156	0xbe88ebe5	-0.26742473
157	0xbd83dc66	-0.06438522
158	0x3e1b010e	0.15137121
159	0x3e323479	0.17402829
160	0xbec9bc3e	-0.3940143
161	0xbe3a502d	-0.18194647
162	0x3eae1a7c	0.3400458
163	0x3ecd97b8	0.40154815
164	0x3e9582b7	0.2920129
165	0xbea6e694	-0.32597792
166	0xbefd6bd8	-0.4949634
167	0xbe3e658d	-0.18593426
168	0x3e80eb1f	0.25179383
169	0x3eb78d6b	0.3585008
170	0xbd992f52	-0.07479729
171	0x3cf1bbef	0.029508559
172	0x3e996ffe	0.29968256
173	0x3ecc90c8	0.3995421
174	0x3eb2fa34	0.34956515
175	0xbd208721	-0.03919137
176	0xbe977539	-0.2958162
177	0xbae332a9	-0.0017333823
178	0x3c35a47f	0.011086582
179	0x3e25409b	0.16137926
180	0xbd024556	-0.031804405
181	0x3e5fc62d	0.21852942
182	0x3ed740d6	0.42041653
183	0x3f01c3f4	0.50689626
184	0x3e9d3cad	0.30710354
185	0xbe09e335	-0.13465579
186	0xbe1e9f3d	-0.15490432
187	0xbeb6ef7f	-0.35729596
188	0xbea8b12e	-0.32947677
189	0xbc74d6c2	-0.01494378
190	0xbc8d15cd	-0.01722231
191	0x3ec83916	0.39106053
192	0x3ef1ba49	0.47212437
193	0x3ea4a0fb	0.32154068
194	0x3e733b21	0.23753025
195	0x3dc833a7	0.09775477
196	0xbe2b1b11	-0.16709544
197	0xbf060372	-0.5234901
198	0xbf270639	-0.6524387
199	0xbe6f9bd7	-0.23399292
200	0x3d8370ad	0.064179756
201	0x3e525d09	0.20543303
202	0x3e995966	0.29951018
203	0x3ea606fe	0.3242721
204	0x3e86372a	0.26213962
205	0x3e39d976	0.18149361
206	0x3e2576d9	0.16158618
207	0x3e2e8c6b	0.17045753
208	0x3dfa8629	0.1223262
209	0xbd8f1ec9	-0.06988294
210	0xbc415112	-0.011799114
211	0x3e34c484	0.1765309
212	0x3ec23554	0.3793131
213	0x3ee7694b	0.4519752
214	0x3e943cb2	0.28952557
215	0x3c0d71cb	0.008633087
216	0xbdcb9e89	-0.099423476
217	0xbda5421f	-0.08069252
218	0x3cd35a11	0.025799783
219	0xbd1674e3	-0.036732566
220	0xbe2a38aa	-0.16623178
221	0xbd8bd588	-0.06827837
222	0x3e035886	0.12826738
223	0x3e26e63a	0.16298762
224	0x3d57e410	0.05270773
225	0xbe96d1a6	-0.29456824
226	0xbedaf04b	-0.42761454
227	0xbe930f26	-0.28722495
228	0xbd94f55c	-0.07273361
229	0x3d3a68bc	0.04551004
230	0xbda3e29f	-0.08002209
231	0xbe08bb48	-0.13352692
232	0xbd85700d	-0.065155126
233	0xbdb1efd7	-0.08688324
234	0xbe4e5cdb	-0.20152609
235	0xbf08404e	-0.5322312
236	0xbf16a302	-0.5884248
237	0xbecfcb8c	-0.4058498
238	0xbe5a02c2	-0.21290115
239	0xbcd8be8d	-0.02645805
240	0xbd29053f	-0.04126477
241	0xbe7514af	-0.23933671
242	0xbe60d55a	-0.21956387
243	0xbe98c575	-0.29838148
244	0xbebb56d4	-0.36589682
245	0xbf123a5a	-0.5712029
246	0xbeedad9d	-0.4642152
247	0xbe90cf0d	-0.28282967
248	0xbe2364fe	-0.15956494
249	0xbd1ddb13	-0.038539004
250	0x3e318083	0.1733418
251	0x3c036468	0.008019544
252	0xbe099b76	-0.1343821
253	0xbe6fb7f2	-0.23410013
254	0xbe9e1025	-0.30871692
255	0xbe875643	-0.26433

conv2.bias f4 [16]
0	0x3e0c50d8	0.13702714
1	0xbcae597f	-0.02128291
2	0x3e71c184	0.23608977
3	0xbda63005	-0.08114628
4	0x3e10075a	0.14065304
5	0x3a6d59f9	0.00090542395
6	0x3e0714d4	0.13191539
7	0x3e34609d	0.1761498
8	0x3b9905da	0.004669887
9	0x3cf25af4	0.029584385
10	0x3e24debd	0.16100593
11	0x3dd93f17	0.106077366
12	0x3d6b37a6	0.057426117
13	0xbd950d9e	-0.07277988
14	0x3b54bce5	0.0032461223
15	0xbd6c3a26	-0.057672642

fc1.weight f4 [256, 597]
0	0x3e1b5453	0.15168886
1	0xbda3ec74	-0.08004084
2	0xbee559d5	-0.447951
3	0xbd535a34	-0.051599696
4	0x3c1b40e4	0.00947592
5	0x3e292188	0.16516697
6	0x3e5da7c8	0.21646035
7	0xbceb61c2	-0.028733138
8	0xbe18c3a5	-0.14918382
9	0xbdaa219d	-0.083071925
10	0xbd225064	-0.039627448
11	0xbe3d3bf7	-0.18479906
12	0xbe0b9676	-0.13631615
13	0xbe483780	-0.19552422
14	0x3e29e5d5	0.1659158
15	0xbd083949	-0.033257756
16	0xbed05577	-0.40690205
17	0xbe8b84c3	-0.27249727
18	0xbecd78f9	-0.40131357
19	0x3dfb9ce3	0.12285783
20	0xbde88d75	-0.11355106
21	0xbe94c0a2	-0.29053217
22	0x3e7f759f	0.24947213
23	0x3e905e1c	0.281968
24	0xbf2b1b54	-0.66838574
25	0x3df71f57	0.120665245
26	0x3e046034	0.12927324
27	0xbdafe84b	-0.08589228
28	0x3da3eef4	0.08004561
29	0xbe4fba1a	-0.20285836
30	0xbeee1e1c	-0.46507347
31	0xbe96fe4f	-0.29490897
32	0xbd46c5a2	-0.04852832
33	0x3e221e22	0.15831807
34	0xbe9318b2	-0.2872978
35	0xbe7b16db	-0.24520437
36	0xbad8135e	-0.0016485264
37	0xbbd40e77	-0.006471451
38	0xbd12dd4b	-0.035855573
39	0x3c6167e3	0.013757679
40	0x3d27016e	0.040772848
41	0xbcf6379b	-0.030055812
42	0xbc59802a	-0.013275186
43	0x3bc89f08	0.0061224736
44	0xbbdbea3e	-0.0067112735
45	0xbd145b31	-0.03621978
46	0xbcdbe101	-0.026840689
47	0x3c89449f	0.016756354
48	0xbc445361	-0.01198277
49	0xbccca24a	-0.02497973
50	0x3ca88036	0.020568948
51	0x3ceb4d1e	0.028723296
52	0x3c2eeda6	0.010676777
53	0x3d13dad5	0.036097366
54	0x3d3a6641	0.045507673
55	0xbcd22db7	-0.025656564
56	0x3d017e08	0.031614333
57	0x3d25fd06	0.040524505
58	0xbbd7d95b	-0.00658719
59	0x3d33bb1c	0.043879613
60	0x3be2c9d3	0.006921032
61	0xbc567a30	-0.013090655
62	0x3c16148b	0.009160171
63	0x3cf1c3e7	0.029512359
64	0x3d249c7d	0.0401883
65	0xbd085c26	-0.033291005
66	0x3cc16bf7	0.023611052
67	0x3cd22873	0.025654053
68	0x3d0b6357	0.034030285
69	0x3c2e93b7	0.010655335
70	0x3a8a7955	0.0010564724
71	0xbcee5a8d	-0.029095912
72	0x3dc410c3	0.095735095
73	0x3d164ec0	0.036696196
74	0x3d596add	0.05308043
75	0x3e663ed3	0.22484903
76	0x3cd67cce	0.026182558
77	0x3df27e4c	0.118404955
78	0xbe7d47ed	-0.24734469
79	0xbe11c501	-0.14235307
80	0x3debdfab	0.11517271
81	0x3da9045f	0.08252787
82	0xbf12c821	-0.5733662
83	0xbcad1116	-0.021126311
84	0x3d92bb33	0.07164612
85	0x3ee14d8b	0.44004473
86	0xbd99f77b	-0.07517906
87	0x3e1a9818	0.15097082
88	0xbdf486f7	-0.11939805
89	0x3ddfc6c9	0.10926587
90	0xbd7ce87b	-0.06174515
91	0x3e300d03	0.17192464
92	0x3e410546	0.18849668
93	0x3e5aeb2f	0.21378778
94	0xbdb8e2d9	-0.09027643
95	0x3ecb2330	0.39675283
96	0xbdc71264	-0.097203046
97	0xbe40a0cc	-0.18811339
98	0x3ddd1832	0.107956305
99	0x3e6a33c2	0.22871307
100	0xbdc09ca9	-0.094048806
101	0x3e7fc62d	0.24977942
102	0xbeaa1fe8	-0.33227468
103	0xbf06193e	-0.52382267
104	0xbdd7cac0	-0.10536718
105	0xbdfc6ac3	-0.12325051
106	0xbe696516	-0.22792467
107	0xbe8923f7	-0.26785251
108	0xbd3523aa	-0.044223465
109	0xbcda2b3a	-0.02663194
110	0xbd12f886	-0.03588154
111	0x3cf8477b	0.030307522
112	0xb906cfc9	-0.00012856642
113	0xbcc2375d	-0.02370804
114	0x3afb2a33	0.0019162357
115	0xbb3ab77c	-0.0028490713
116	0xbca1b7a4	-0.019740887
117	0xbcbbd7ce	-0.022930052
118	0xbbb3e878	-0.005490359
119	0x37fd2839	3.017868e-05
120	0xbce9b08a	-0.028526563
121	0xbc867a60	-0.016415775
122	0xbd491976	-0.049096547
123	0x3b9594aa	0.0045648413
124	0xbc08c4ce	-0.008347703
125	0xbd6f8ddd	-0.0584849
126	0xbc38d0fa	-0.011280293
127	0xbd1d2c07	-0.038372066
128	0x3be04369	0.0068439734
129	0xbbbe07ab	-0.005799254
130	0xbd268db9	-0.0406625
131	0x3d1f86bf	0.038946863
132	0xbbb2bb09	-0.0054544252
133	0x3d03400a	0.032043494
134	0x3d096d37	0.03355142
135	0xbd80184f	-0.062546365
136	0xbcd88f85	-0.026435623
137	0xbc8ab17c	-0.016930334
138	0xbc5e8bab	-0.013583104
139	0xbc349e09	-0.011024007
140	0x3c3d0737	0.011537365
141	0xbd63c68c	-0.05560927
142	0xbcec3b3c	-0.028836839
143	0xbd1340ee	-0.035950594
144	0xbe063334	-0.1310547
145	0xbe4c73d4	-0.1996606
146	0x3cf0980d	0.029369378
147	0x3e238496	0.15968546
148	0xbe8d00b9	-0.27539614
149	0xbea241c7	-0.3169081
150	0xbf2ee714	-0.6832135
151	0xbe6599f1	-0.22422005
152	0xbecbabcf	-0.39779517
153	0x3e8421ed	0.25807133
154	0xbcd842af	-0.026398985
155	0x3e7fe162	0.2498832
156	0xbf03d50d	-0.51496965
157	0xbee9c793	-0.45660076
158	0x3d4a9820	0.049461484
159	0xbe9066dc	-0.28203475
160	0xbe298d19	-0.1655773
161	0x3daa041f	0.08301567
162	0xbe296942	-0.16544059
163	0x3d3dafec	0.04631035
164	0x3dfaaa66	0.12239532
165	0xbecde206	-0.40211505
166	0xbe8e54f1	-0.2779918
167	0xbd27ab4d	-0.04093485
168	0xbea96010	-0.33081102
169	0xbea8df11	-0.32982686
170	0x3e70983d	0.23495574
171	0xbc96955b	-0.018381765
172	0xbcbb03c5	-0.022828946
173	0x3c690ed2	0.014224725
174	0xbf2d33e8	-0.6765733
175	0xbf176b1d	-0.59147817
176	0xbf1fd260	-0.6243038
177	0xbec2e724	-0.3806697
178	0xbed7a68f	-0.42119262
179	0xbdfbd426	-0.122963235
180	0xbc1074e7	-0.008816934
181	0x3c970810	0.018436462
182	0x3d38a813	0.045082163
183	0x3d12d70b	0.035849612
184	0x3c70cce7	0.01469729
185	0x3d06c975	0.03290697
186	0x3c949769	0.018138604
187	0x3caa4261	0.020783605
188	0xbbd92f72	-0.0066279704
189	0x3d3cabb1	0.046062175
190	0x3c992032	0.01869211
191	0xbcfb6207	-0.030686392
192	0xbbcdd3f3	-0.00628137
193	0x3acdc7d1	0.0015699809
194	0x3d3d69e1	0.046243552
195	0x3d04f90a	0.032464065
196	0xbb95676b	-0.0045594475
197	0x3d7e2770	0.06204933
198	0x3d8e969f	0.069623224
199	0x3b6cd3ad	0.003613691
200	0x3cb635d1	0.022242459
201	0x3d75e709	0.060034785
202	0x3d732ae4	0.059367076
203	0x3bb875e1	0.0056292866
204	0x3c83066b	0.015994271
205	0x3afe024b	0.0019379345
206	0xbc0044f7	-0.0078289425
207	0xbc93a331	-0.018022152
208	0x3b1e3601	0.0024141076
209	0xbc73530d	-0.014851344
210	0x3cc9d610	0.024638206
211	0xbc74dd1b	-0.014945294
212	0xbc52abf5	-0.012858381
213	0x3d5492f1	0.051897947
214	0x3d1bbed3	0.03802378
215	0x3d6eb0cd	0.05827408
216	0x3c91b5fc	0.017786972
217	0x3ea3a69a	0.31963044
218	0xbd913e17	-0.07091921
219	0xbe52a7a5	-0.20571764
220	0x3e434a3b	0.19071285
221	0x3e67f2f8	0.22651279
222	0x3e4f36d8	0.20235765
223	0x3e989248	0.29799104
224	0xbd7cc800	-0.061714172
225	0xbddfaff0	-0.10922229
226	0x3e30139b	0.17194979
227	0x3eb8d93d	0.3610324
228	0xbe4b7aeb	-0.19871108
229	0x3e6a85c5	0.22902592
230	0x3e83cc1a	0.25741655
231	0xbcc22401	-0.023698809
232	0x3de2d978	0.11076635
233	0xbf65e95b	-0.898092
234	0xbe6ca428	-0.23109496
235	0xbd2dc17c	-0.04242085
236	0x3ed910bf	0.4239559
237	0xbe20a123	-0.15686469
238	0x3cd0e9f0	0.025502175
239	0xbf086275	-0.53275234
240	0xbdeeaa69	-0.11653597
241	0xbf20392f	-0.62587255
242	0xbe590461	-0.21193077
243	0x3eb02adf	0.34407708
244	0x3db4a90d	0.088213064
245	0xbea845cb	-0.32865748
246	0xbf193f96	-0.5986265
247	0xbecd8b28	-0.4014523
248	0xbe9838a5	-0.29730716
249	0xbe6e07a8	-0.23245108
250	0x3eb48b18	0.3526237
251	0x3da44cd1	0.08022464
252	0x3dce2d31	0.10067213
253	0xbd7e4224	-0.062074795
254	0xbf517f87	-0.81835216
255	0xbf13e7b9	-0.57775456

fc1.bias f4 [256]
0	0x3df7627b	0.120793305
1	0xbced4d9b	-0.02896767
2	0x3d935515	0.071939625
3	0xbce4246d	-0.0278494
4	0x3e5fd1e6	0.21857414
5	0xbd93bde7	-0.072139554
6	0xbdf5ed00	-0.12008095
7	0xbe23e63c	-0.16005796
8	0x3edfa977	0.4368398
9	0x3dd32cec	0.103113025
10	0x3d89f581	0.06736279
11	0xbd53564c	-0.05159597
12	0xbc22b7d1	-0.009931521
13	0xbb80d42e	-0.003931544
14	0x3dd69f8e	0.104796514
15	0xbd3ddd8c	-0.04635386
16	0xbd36c35f	-0.044619914
17	0x3e46713d	0.19379134
18	0x3cb3bcbf	0.021940587
19	0x3c3ad421	0.011403115
20	0x3dcbc11c	0.09948942
21	0x3df17892	0.11790575
22	0x3e2b60b1	0.16736104
23	0x3ce17384	0.027520902
24	0x3e5f7583	0.21822171
25	0xbd761996	-0.060082994
26	0x3da160b5	0.078797735
27	0xbc95997a	-0.01826166
28	0xbc3b7996	-0.011442563
29	0xbd8d5474	-0.06900874
30	0xbc7aa09c	-0.015297081
31	0x3d91bf52	0.071165696
32	0x3dc1c796	0.09461896
33	0x3ca663d5	0.020311275
34	0xbd45d2b3	-0.04829664
35	0x3d80cc1f	0.06288933
36	0x3df6daf3	0.1205348
37	0xbdc61b71	-0.09673203
38	0x3df50d2e	0.119654045
39	0x3e0491c1	0.12946226
40	0xbdbe2c35	-0.092857756
41	0xbd857169	-0.06515772
42	0x3e2c8ff3	0.16851787
43	0x3d79ba8f	0.06096893
44	0x3986c990	0.00025708647
45	0xbdfc2570	-0.12311828
46	0xbd08076e	-0.03321021
47	0x3ad42d9d	0.001618791
48	0xbd794ffc	-0.060867295
49	0x3e191ad3	0.14951639
50	0x3dd311d5	0.103061356
51	0xbcc4fcf9	-0.024046408
52	0x3e08a680	0.13344765
53	0xbd045afc	-0.032313332
54	0x3c971996	0.018444818
55	0x3dbaf799	0.09129257
56	0x3b8d8ed6	0.004320006
57	0x3db9cb23	0.090719484
58	0xbd7154ae	-0.058918647
59	0xbd744793	-0.05963857
60	0x3e498f31	0.1968353
61	0xbd6a432f	-0.057192978
62	0x3d12b86c	0.03582041
63	0x3e2b8f50	0.16753888
64	0xbd9388c3	-0.072038196
65	0xbce781bd	-0.028260106
66	0x3d687a78	0.05675742
67	0x3d22a0fc	0.039704308
68	0xbd84214b	-0.06451663
69	0x3d704685	0.058661003
70	0x3ddeb8b1	0.10875071
71	0xbd1d35a6	-0.03838124
72	0x3ded790b	0.11595353
73	0x3e262ce4	0.16228062
74	0x3ee89405	0.4542543
75	0xbd3c57af	-0.04598206
76	0xbd01f290	-0.031725466
77	0xbd83662e	-0.064159736
78	0xbb0870f4	-0.0020819278
79	0x3e073122	0.13202336
80	0x3cf619be	0.030041572
81	0x3e311c02	0.1729584
82	0xbd0c9d7e	-0.034329884
83	0xbe01c361	-0.12672187
84	0xbcad59f3	-0.021161055
85	0x3e709f27	0.23498212
86	0x3dfba7cc	0.12287864
87	0x3e29ea71	0.16593339
88	0xbdb4ec56	-0.0883414
89	0x3d89bf73	0.06725969
90	0xbd128536	-0.03577157
91	0x3d76c5f9	0.060247395
92	0xbd358f57	-0.044326153
93	0x3dcc8465	0.0998619
94	0x3dc746b4	0.097302824
95	0x3df77d76	0.12084477
96	0x3d6f98d9	0.058495376
97	0xbd8602c3	-0.065434955
98	0xbda7740d	-0.08176432
99	0x3e20f5ec	0.15718812
100	0x3ebb16f4	0.3654095
101	0xbc1ca5bd	-0.009560999
102	0x3e3e737d	0.18598743
103	0xbd9ac30a	-0.07556732
104	0x3db8eae4	0.09029177
105	0xbd3845b3	-0.044988345
106	0x3d8f7de5	0.07006434
107	0xbce4e00f	-0.02793887
108	0xbcf9cc22	-0.030492846
109	0x3d855ffc	0.06512448
110	0xbc8304b2	-0.01599345
111	0x3ec42721	0.38311103
112	0x3e3c3c9c	0.18382496
113	0x3dcf9b8a	0.101370886
114	0xbd3d73c5	-0.046252985
115	0x3d651871	0.055931512
116	0x3dfd3e88	0.123654425
117	0x3e06ece1	0.131763
118	0xbd9d8aff	-0.07692527
119	0x3e4038e0	0.18771696
120	0x3ca1afea	0.019737203
121	0xbda5763d	-0.08079193
122	0xbc908c3e	-0.017644998
123	0x3c385e35	0.011252929
124	0x3ddb0177	0.10693639
125	0xbd8d11aa	-0.06888135
126	0x3e4c6df9	0.19963826
127	0x3e36e639	0.1786126
128	0xbd7d2e0a	-0.061811484
129	0x3e4e2c75	0.20134147
130	0xbda4871c	-0.080335826
131	0x3e44f4f9	0.19234075
132	0xbd0f4434	-0.034977153
133	0x3dfe2367	0.12409096
134	0x3e149dd9	0.14513339
135	0xbe15ece1	-0.14641143
136	0xbe47a7e9	-0.19497646
137	0x3de77d55	0.11303202
138	0xbdb1dc53	-0.08684602
139	0x3e121ac3	0.14268021
140	0xbd3596c8	-0.04433325
141	0x3e3c93fe	0.1841583
142	0x3d4294ae	0.047505073
143	0x3e03188d	0.12802334
144	0x3d40bf16	0.047057234
145	0x3da0bd3c	0.078485936
146	0x3e380c0f	0.1797335
147	0x3e02e281	0.12781717
148	0x3cb9400e	0.022613551
149	0x3dcf2f79	0.101164766
150	0x3e72db4d	0.23716469
151	0x3e417718	0.18893087
152	0xbd9396e3	-0.07206514
153	0x3b805b7c	0.003917156
154	0x3c55a277	0.013039223
155	0xbc98f8b6	-0.018673282
156	0xbd8d6312	-0.06903662
157	0xbbe9f29e	-0.007139518
158	0x3d8b6e5e	0.0680816
159	0xbd5bac23	-0.05363096
160	0x3dad9cec	0.08477196
161	0xbd6a7f44	-0.057250276
162	0xbae026ec	-0.0017101443
163	0x3e076c54	0.13224918
164	0xbc30b163	-0.01078448
165	0x3de80098	0.11328238
166	0x3e6ec3b1	0.23316838
167	0xbc247534	-0.010037709
168	0x3dc4f246	0.096165225
169	0xbd56b5fc	-0.052419648
170	0xbcc8552c	-0.024454676
171	0xbd03efb7	-0.03221103
172	0xbc44370e	-0.011976017
173	0xbdaf82e5	-0.08569888
174	0x3e9a72e3	0.30165777
175	0x3d36aadf	0.04459655
176	0x3e5ce76a	0.21572652
177	0x3d4bf9fe	0.049798958
178	0x3dc28721	0.0949843
179	0xbe021491	-0.12703158
180	0x3e560392	0.208998
181	0x3e3940b1	0.18091084
182	0xbd6a4fe3	-0.057205092
183	0x3ddd217b	0.107974015
184	0xbd1298c9	-0.03579024
185	0x3dec552f	0.11539685
186	0xb9edcf78	-0.0004535874
187	0x3ea64b12	0.3247915
188	0x3dc0276b	0.093825184
189	0xbdb05f57	-0.08611935
190	0x3e3e4831	0.18582226
191	0x3b3de22e	0.0028973925
192	0x3c88b153	0.016686117
193	0x3e027f3b	0.12743847
194	0x3bcba53d	0.0062147663
195	0x3b3fccb4	0.00292663
196	0x3ddcf64f	0.10789167
197	0xbd8b2d3a	-0.06795736
198	0x3e2dbdd0	0.16966939
199	0xbcdb5d9a	-0.026778031
200	0x3d57a051	0.052643124
201	0x3cf4771f	0.029841958
202	0xbdd611de	-0.10452627
203	0x3d8417b8	0.064498365
204	0x3b01a2b7	0.0019780823
205	0x3e8776b6	0.26457757
206	0xbd0f2d05	-0.034955043
207	0x3dcb5cfb	0.09929844
208	0x3dd9e8e5	0.10640124
209	0x3bf3692a	0.007428308
210	0x3d90fa25	0.07078961
211	0x3e27cf8b	0.16387765
212	0x3e2b2f90	0.16717362
213	0x3e41cbb6	0.18925366
214	0x3e11d0f4	0.14239866
215	0x3d8bf0e3	0.06833055
216	0x3b84197f	0.0040313597
217	0xbdf2c8be	-0.11854695
218	0x3e3afa1f	0.18259476
219	0xbe12a900	-0.14322281
220	0x3ddcdbf3	0.107841395
221	0x3db2cb83	0.08730223
222	0xbd21330c	-0.039355323
223	0xbc8b50a9	-0.017006235
224	0xbc14d15d	-0.009083119
225	0x3e3da900	0.185215
226	0x3e5c8eb8	0.21538818
227	0x3d95681a	0.072952464
228	0x3e4dd5c7	0.20101081
229	0xbc1f870b	-0.009736787
230	0x3e0a3b55	0.13499196
231	0x3d37f3ae	0.044910125
232	0x3b3448ba	0.0027509169
233	0x3e36a706	0.17837152
234	0x3c011d09	0.007880458
235	0x3e15a545	0.14613827
236	0xbbdb9847	-0.0067015025
237	0xbca05f92	-0.019576821
238	0x3e4723eb	0.19447295
239	0x3e59cd11	0.21269633
240	0x3e02c0f6	0.12768921
241	0x3da090ab	0.07840093
242	0x3e286ebe	0.16448495
243	0xbc672617	-0.014108202
244	0xbd19663c	-0.037451014
245	0x3e3a04fb	0.18165962
246	0x3e153bf3	0.1457365
247	0x3e198bd1	0.14994742
248	0x3db80f8c	0.0898734
249	0x3d89998e	0.06718741
250	0x3e4c2b8e	0.1993849
251	0xbcccf994	-0.025021352
252	0xbd835578	-0.06412786
253	0x3d8d50bf	0.06900167
254	0x3db9c9bc	0.09071681
255	0xbe1750ce	-0.14776918

fc2.weight f4 [128, 256]
0	0x3f3ebf86	0.7451099
1	0xbd68da0e	-0.05684858
2	0x3fe95598	1.8229246
3	0xbcc083c7	-0.023500336
4	0x3ee34d7c	0.44395053
5	0x3c4522e9	0.012032249
6	0xbfff4b0b	-1.9944776
7	0xbf8af644	-1.0856404
8	0xbc871fe2	-0.016494695
9	0x3f568645	0.8379863
10	0x3fc522a0	1.5401192
11	0x3f0e43ae	0.5557202
12	0xbfa74448	-1.3067713
13	0xbd03339e	-0.032031648
14	0x3fa36575	1.2765337
15	0xbff167ab	-1.8859762
16	0xbcd91e4f	-0.02650371
17	0x3f40d71c	0.7532823
18	0xbd829252	-0.06375565
19	0xbe20ea70	-0.15714431
20	0x3ee0c455	0.4389979
21	0xbe5972ab	-0.21235149
22	0x3eb22395	0.34792772
23	0xbfb507a1	-1.4142953
24	0x3f54639b	0.82964486
25	0x3ceb38bc	0.028713576
26	0x3f64e89a	0.8941742
27	0xbd6ab1bb	-0.057298403
28	0x3c88e999	0.01671295
29	0xbd4f3f27	-0.050597336
30	0xbcf4b2f8	-0.029870495
31	0xbf3fed0a	-0.7497107
32	0x3f56cc9d	0.83905965
33	0xbf8d73eb	-1.1051
34	0xbff97c73	-1.9491104
35	0x3f0c4607	0.54794353
36	0x3f910508	1.132966
37	0xbf7dd03f	-0.99145883
38	0x3e80b237	0.25135967
39	0x3f3c5509	0.73567253
40	0xbfc95659	-1.5729476
41	0x3b640766	0.003479445
42	0x3f4688fd	0.7755278
43	0x3f7bd121	0.9836598
44	0xbd84422d	-0.064579345
45	0xbf7300bd	-0.94923
46	0x3cb9c533	0.02267704
47	0x3c7c3a57	0.015394769
48	0xbfc04ee8	-1.502408
49	0x3f84c1e6	1.0371673
50	0x3efa070e	0.48833507
51	0xbd35dfa1	-0.044402722
52	0x3fa67c48	1.3006678
53	0xbf391d91	-0.7231074
54	0x3d04f90b	0.03246407
55	0x3f1ef958	0.6209922
56	0x3c460335	0.012085726
57	0x3fedf8ad	1.8591515
58	0xbd03e97c	-0.03220509
59	0x3fd02326	1.6260726
60	0x3f1d7576	0.61507356
61	0xbfdd4dd0	-1.7289371
62	0x3f403c04	0.75091577
63	0x3f24af62	0.6433011
64	0x3b116ce4	0.0022190148
65	0xbd1d305c	-0.038376197
66	0x3e9c2d82	0.3050347
67	0xbf177aab	-0.5917155
68	0xbf20e3a8	-0.62847376
69	0x3f8ec0d9	1.1152602
70	0x3f51dc13	0.8197643
71	0x3ca798fb	0.020458689
72	0x3f86ad73	1.0521683
73	0x3f84ff41	1.0390397
74	0xbe26445f	-0.16237019
75	0xbcb00613	-0.021487271
76	0xbff41cea	-1.9071324
77	0x3cd82e5e	0.026389297
78	0x3f967a7b	1.1756128
79	0x3f06b34f	0.52617353
80	0x3f5e1254	0.86746716
81	0x3f536b00	0.82585144
82	0xbf84caf9	-1.0374442
83	0xbf996ede	-1.1986959
84	0xbf97baa6	-1.1853836
85	0x3f0b48b1	0.54407793
86	0x3f9acc11	1.2093526
87	0x3ee857d2	0.45379502
88	0xbfbe8a8e	-1.4886034
89	0x3f12b8a6	0.57313
90	0x3d0fba1f	0.03508961
91	0x3f0d4f19	0.5519882
92	0xbf9eb072	-1.2397597
93	0x3f85207c	1.0400538
94	0x3f9bbfdf	1.216793
95	0x3f7de965	0.99184257
96	0x3fbd017e	1.476608
97	0x3c16ab01	0.009196044
98	0xbfff0f73	-1.992659
99	0x3f110602	0.5664979
100	0xbe4ee669	-0.20205082
101	0xbb4e3c67	-0.0031469108
102	0x3f2a55e1	0.6653729
103	0xbf848cc1	-1.0355455
104	0x3f8c6f4a	1.0971463
105	0x3ce830c4	0.028343566
106	0x3f96aa74	1.1770768
107	0xbc8a1fe8	-0.016860917
108	0xbcdfa84c	-0.02730193
109	0x3fa7ce9d	1.3109928
110	0x3c0205f0	0.007935986
111	0xbd0f6d77	-0.035016503
112	0x3f255955	0.64589435
113	0x3f50d52c	0.81575274
114	0x3f950b52	1.164408
115	0x3f8b22cc	1.0869994
116	0x3ed59fc8	0.41723466
117	0x3f47be95	0.7802518
118	0xbf8ffe48	-1.1249475
119	0x3f622571	0.8833838
120	0xbc24c5c9	-0.010056921
121	0xbf9f8fd6	-1.246577
122	0x3be04466	0.006844091
123	0xbc3ea946	-0.011637038
124	0x3f40f806	0.75378454
125	0xbf40d56c	-0.75325656
126	0x3f30b1e2	0.6902143
127	0x3f325593	0.69661826
128	0xbd001314	-0.031268194
129	0x3ed99ff2	0.4250484
130	0x3f9244cb	1.1427244
131	0x3f619bd9	0.8812843
132	0x3f22fa9a	0.6366364
133	0xbf4b4707	-0.79405254
134	0x3f3b8ca1	0.7326146
135	0xbf90293c	-1.1262584
136	0xbf94d800	-1.1628418
137	0xbe38e6ff	-0.18056868
138	0xbf248763	-0.64269084
139	0x3f5091de	0.81472576
140	0xbfa39e15	-1.2782618
141	0x3faaa43e	1.3331373
142	0x3f91af03	1.1381534
143	0x3f800482	1.0001376
144	0x3ed3c500	0.41361237
145	0x3ea6efe2	0.3260489
146	0x3f8981d3	1.0742744
147	0x3f6499bb	0.89297074
148	0x4000a15c	2.0098486
149	0x3f41f8a4	0.7577002
150	0x3e7f25e3	0.24916796
151	0x3e5f2548	0.21791565
152	0x3c40e9be	0.0117744785
153	0xbfc87c57	-1.5662946
154	0xbd2e1254	-0.042497948
155	0x3d61c1e6	0.055116557
156	0x3cd8d572	0.026468966
157	0x3f7088b2	0.9395858
158	0x3fbf24fd	1.4933163
159	0x3f1a8bd5	0.60369617
160	0x3f3fe0f9	0.74952656
161	0xbce5fcf6	-0.028074723
162	0x3d77c755	0.060492832
163	0x3e0b97ee	0.13632175
164	0xbd106e5d	-0.0352615
165	0x3f2cfbdc	0.67571807
166	0x3eaa524a	0.33265907
167	0x3d58256e	0.05277007
168	0x3f801ef3	1.0009445
169	0x3d787af6	0.06066414
170	0xbcc776d6	-0.024348658
171	0xbf9cd415	-1.2252222
172	0x3feb4fc1	1.8383714
173	0xbfbda641	-1.4816362
174	0xbdf1fb72	-0.118155375
175	0x3fb7998d	1.4343735
176	0x3fd64ee5	1.6742827
177	0xbf29d830	-0.663455
178	0x3f5b044b	0.85553426
179	0xbf9c2d3c	-1.2201304
180	0x3f7d7282	0.9900285
181	0x3f4cc892	0.79993546
182	0xbc09d0f2	-0.008411633
183	0x3fac84d2	1.3478034
184	0x3d083de7	0.03326216
185	0x3f6e2dda	0.93038714
186	0x3b3738e0	0.0027957484
187	0x3c184fc4	0.009296361
188	0x3f537670	0.82602596
189	0xbfdd5144	-1.7290425
190	0x3ef684b9	0.48148134
191	0x3d4e5beb	0.05038063
192	0xbb96bde0	-0.0046002716
193	0xbf873edf	-1.0566062
194	0x3c89c974	0.016819693
195	0x3d903513	0.07041373
196	0x3ff7e752	1.9367468
197	0xbc03c446	-0.008042401
198	0x3eeac00c	0.45849645
199	0x3d64763f	0.05577683
200	0x3e1d5b81	0.15366937
201	0x3f52fb7a	0.8241497
202	0xbe947136	-0.28992623
203	0xbf4c8c0b	-0.7990119
204	0xbceda725	-0.029010365
205	0x3fa16b38	1.2610846
206	0xbfd40222	-1.6563151
207	0x3e4671a3	0.19379286
208	0x3f5c947a	0.8616406
209	0xbd7b21a7	-0.06131139
210	0x3f9f23fc	1.2432857
211	0x3f2e2629	0.6802698
212	0x3ece097a	0.40241605
213	0x3f45c55b	0.77254266
214	0x3f181598	0.5940795
215	0x3eb2749c	0.3485459
216	0xbd879cd8	-0.066217124
217	0xbfd3af64	-1.65379
218	0x3f7adefe	0.9799651
219	0xbfc68cf2	-1.5511763
220	0x3f817e82	1.0116732
221	0x3fa6d80c	1.3034682
222	0xbb23521d	-0.002492077
223	0xbcae5361	-0.021279993
224	0xbd5ec003	-0.054382335
225	0x3ee6cf3c	0.45079982
226	0x3f0259a0	0.50918007
227	0x3ef21ac4	0.47286046
228	0x3eaac461	0.3335295
229	0x3c4b8659	0.012422168
230	0x3f8b1e70	1.0868664
231	0x3f4fc89b	0.81165475
232	0xbcd57f42	-0.026061658
233	0x3ec7c379	0.3901632
234	0xbf2e30ab	-0.6804301
235	0x3ecc30fe	0.39881128
236	0x3d76346a	0.06010858
237	0x3f81bed4	1.0136361
238	0x3f21c899	0.6319671
239	0x3f0688c2	0.52552426
240	0x3f3ef14d	0.74586946
241	0x3f7539a2	0.95791066
242	0x3ea91c0c	0.3302921
243	0x3f996a40	1.198555
244	0xbd1b9e03	-0.03799249
245	0x3f285e75	0.6576913
246	0x3f1df518	0.6170211
247	0x3f3fd880	0.7493973
248	0x3fd54e58	1.6664534
249	0x3f433180	0.76247406
250	0x3f17416a	0.5908419
251	0x3ccef2d9	0.025262283
252	0xbfbbceed	-1.4672524
253	0x3f5db6de	0.8660716
254	0x3fbc2f8e	1.4702013
255	0x3f882a2c	1.063787

fc2.bias f4 [128]
0	0x3e0df229	0.13861908
1	0xbe986930	-0.29767752
2	0x3e353358	0.17695367
3	0xbe8f7e0d	-0.28025857
4	0xbe168b02	-0.14701465
5	0xbe8ea243	-0.2785817
6	0xbdaca290	-0.08429444
7	0x3d83cd86	0.06435685
8	0x3dc6aa6a	0.09700473
9	0xbea042f2	-0.31301075
10	0x3df23426	0.11826353
11	0xbd284eee	-0.0410909
12	0x3dc94449	0.098274775
13	0xbd2ab75e	-0.04167878
14	0x3e132165	0.14368208
15	0x3d8c6f86	0.06857209
16	0xbc804f47	-0.015662802
17	0x3d486d78	0.048932523
18	0xbe77455b	-0.24147551
19	0x3da04ce0	0.07827163
20	0xbe83a940	-0.25715065
21	0xbea475c9	-0.32121113
22	0x3e2f4b1f	0.171185
23	0xbd8987c9	-0.06715352
24	0xbe59be09	-0.21263899
25	0xbe9930d9	-0.2992008
26	0xbeab99ec	-0.3351587
27	0xbc4a2461	-0.012337775
28	0xbe906f64	-0.28209984
29	0xbe7ae631	-0.24501874
30	0x3c960b49	0.018315928
31	0x3c08bfb9	0.0083464915
32	0xbeb4b624	-0.35295212
33	0xbe7816e5	-0.24227484
34	0x3d8d8c46	0.06911521
35	0x3c77b1ae	0.015118046
36	0xbd2ee239	-0.04269621
37	0x3d2e5fb2	0.04257173
38	0x3d4b1e7a	0.04958961
39	0xbe49a65b	-0.19692366
40	0x3d3f7f81	0.046752457
41	0xbe57c1da	-0.21070042
42	0xbe37c6d6	-0.17946944
43	0xbeb230ec	-0.3480295
44	0xbbc38f13	-0.0059679835
45	0xbe73d329	-0.2381102
46	0xbe700426	-0.23439083
47	0x3d3a8c63	0.04554404
48	0x3dec6822	0.11543299
49	0xbea6a21d	-0.32545558
50	0xbdb09498	-0.08622092
51	0x3bf4fbd5	0.00747631
52	0xbe986009	-0.2976077
53	0x3e5d5642	0.21614936
54	0x3dfd914a	0.12381227
55	0xbdb15602	-0.08658983
56	0xbcd0f799	-0.025508689
57	0xbec3bce0	-0.38230038
58	0xbd930243	-0.07178166
59	0x3cbdc7e6	0.023166608
60	0xbcf212dc	-0.029550008
61	0xbd8651bc	-0.06558558
62	0xbbbadf49	-0.005702887
63	0x3d8d8679	0.06910414
64	0xbce3c7e7	-0.027805282
65	0x3c577709	0.013150939
66	0xbbb2a6ff	-0.0054520364
67	0xbe7f7049	-0.24945177
68	0xbdbf5c07	-0.09343725
69	0xbeb55a28	-0.35420346
70	0x3e02855d	0.12746187
71	0xbe52e75b	-0.20596068
72	0x3c3c360a	0.011487493
73	0xbe9c1bc6	-0.3048994
74	0x3d34b193	0.04411466
75	0x3e27f5a3	0.16402297
76	0xbe385cff	-0.18004225
77	0xbec50b0c	-0.3848499
78	0x3e3fa00e	0.187134
79	0x3d80d855	0.06291262
80	0x3eb6f675	0.35734907
81	0x3d878354	0.06616846
82	0x3dfd3190	0.12362969
83	0xbe71b964	-0.23605877
84	0x3d08aa13	0.03336532
85	0xbc6ec099	-0.014572286
86	0x3eabbba2	0.3354159
87	0xbb3be3a5	-0.0028669622
88	0x3d81e692	0.06342806
89	0xbe616a2c	-0.22013158
90	0xbe5f3ce7	-0.21800576
91	0x3eec5628	0.46159482
92	0x3e5c5760	0.21517706
93	0xbddc7130	-0.10763776
94	0xbd3aeec1	-0.04563785
95	0xbe19f669	-0.15035404
96	0xbe5d8f03	-0.21636586
97	0xbdcd5f45	-0.10027937
98	0xbeb80008	-0.35937524
99	0xbc98567b	-0.018595925
100	0xbebd1f11	-0.36937764
101	0xbe9f4c0a	-0.311127
102	0xbe3262e6	-0.1742054
103	0x3dae241f	0.08502983
104	0xbe733e47	-0.23754226
105	0xbe7e6886	-0.2484456
106	0x3db987e4	0.09059122
107	0x3dd17f8a	0.10229404
108	0x3e088182	0.13330653
109	0xbea16f6d	-0.31530324
110	0xbe38d60a	-0.180504
111	0x3e602c4c	0.21891898
112	0xbd1846c8	-0.037176877
113	0x3c211b22	0.009833129
114	0xbc2dc5a1	-0.0106062
115	0xbd7e94ec	-0.06215374
116	0x3e4187ae	0.18899414
117	0xbe8a170a	-0.26970702
118	0x3d397a21	0.045282487
119	0x3ce50124	0.027954645
120	0xbea41ef6	-0.3205487
121	0xbd4eab14	-0.05045612
122	0x3e4a514f	0.1975758
123	0x3e042e73	0.12908344
124	0x3d153321	0.036425713
125	0xbbff6d9b	-0.0077950484
126	0xbca76f06	-0.020438682
127	0xbe661e66	-0.22472534

v.weight f4 [1, 128]
0	0x4063f96c	3.5620985
1	0xbf2593af	-0.6467847
2	0x407b683f	3.9282377
3	0xbfb32dba	-1.399833
4	0x4055d150	3.3409004
5	0x3f4339ad	0.7625988
6	0x3fea6fa2	1.8315318
7	0x403683d3	2.851796
8	0x4027aa34	2.6197634
9	0x3fef37c6	1.8688896
10	0x406b8f07	3.6806047
11	0x3d5caf85	0.053878326
12	0x406e53f2	3.7238736
13	0x3ca32138	0.0199133
14	0x403b69b4	2.9283266
15	0x3ff7179b	1.9304079
16	0x40426d59	3.037924
17	0x3b288a10	0.0025717057
18	0x3daf8189	0.08569629
19	0x4064628b	3.5685146
20	0xbf98e462	-1.1944697
21	0xbf719531	-0.94368273
22	0x40706e86	3.7567458
23	0x3d89646e	0.067086086
24	0xbfe388b5	-1.7776095
25	0xbec833f6	-0.39102143
26	0xbf5df9eb	-0.8670947
27	0x406a591e	3.6616893
28	0xbf76e75e	-0.9644679
29	0xbfa82a34	-1.3137879
30	0x3f69430a	0.9111792
31	0x4009435c	2.1447363
32	0xbef6f9f0	-0.48237562
33	0xbf8d576a	-1.1042302
34	0xbf170c55	-0.5900319
35	0x4044d74b	3.0756404
36	0x40612648	3.5179615
37	0x4061bdfb	3.5272205
38	0x4012e7c3	2.2953956
39	0xbf988244	-1.1914754
40	0x403808dd	2.875541
41	0xc0064b60	-2.0983505
42	0x3ede3bd1	0.4340501
43	0xbea3dff3	-0.32006797
44	0xbd5cf8c4	-0.05394818
45	0x3f744586	0.95418584
46	0xbeb8cb80	-0.36092758
47	0x40788a68	3.8834476
48	0x401dfe2a	2.468638
49	0xbf060088	-0.5234456
50	0xbb37438e	-0.002796385
51	0x3da7cf64	0.081938535
52	0xbec73871	-0.3891025
53	0x407a5bec	3.9118605
54	0x4002942a	2.0402932
55	0x4008f967	2.1402223
56	0x4001a1fa	2.0255113
57	0xbe83cc4d	-0.25741807
58	0x3d15aac3	0.036539804
59	0x407a62e2	3.9122853
60	0x3ce539ff	0.027981756
61	0xbcecd735	-0.028911212
62	0x3d4eb0b3	0.050461482
63	0x4071d944	3.7788858
64	0x400ccb68	2.199915
65	0x3dba8f18	0.09109324
66	0x4064f158	3.5772305
67	0xbf265625	-0.64975196
68	0x4031eaba	2.7799516
69	0xbed19d7e	-0.4094047
70	0x4068116e	3.6260638
71	0xbfce4fcd	-1.6118103
72	0x406fb770	3.7455711
73	0xbef87cd1	-0.48532727
74	0x4030dae6	2.7633605
75	0x404e8007	3.2265642
76	0xbfc82a2d	-1.5637871
77	0xbe84073e	-0.25786775
78	0x4084f892	4.155343
79	0x40468a1b	3.1021793
80	0x3f656685	0.8960956
81	0x4083484d	4.102576
82	0xbf37c1d2	-0.7178012
83	0xbf75763b	-0.9588353
84	0x40059cb6	2.0876899
85	0xbc882552	-0.016619358
86	0x3f68d833	0.90954894
87	0x403cca2e	2.94984
88	0xbf4d38a1	-0.80164534
89	0x3c25d1b3	0.010120797
90	0xbf7e8a10	-0.99429417
91	0x3f9411f4	1.1567979
92	0x3f99f43b	1.2027658
93	0x3ff9bdd4	1.9511056
94	0x40282627	2.6273286
95	0x3f2f6c4e	0.68524635
96	0xbfa69489	-1.3014079
97	0x3fbdaf2e	1.4819086
98	0xbf8529b7	-1.0403355
99	0x3e9d64de	0.30741018
100	0xbf6bff63	-0.92186564
101	0x3f7a5025	0.9777854
102	0xbf83998d	-1.0281235
103	0x406b5ac4	3.677415
104	0xbea31f8e	-0.31860012
105	0xbf6c86bf	-0.92393106
106	0x407aca1c	3.9185858
107	0x3f5f05a4	0.8711798
108	0x40769a4e	3.853168
109	0xbf6ac4b7	-0.91706413
110	0xbfd8385c	-1.68922
111	0x3f8d2c40	1.1029129
112	0x3cb7965f	0.02241057
113	0x404f4ff9	3.2392561
114	0x4050a99c	3.2603521
115	0x3d37c5d0	0.044866383
116	0x3efeba7a	0.49751645
117	0xbf9a9539	-1.2076789
118	0x40682394	3.6271715
119	0x3c3a5653	0.01137312
120	0xbe47badd	-0.19504876
121	0x405ad087	3.4189775
122	0x3fd0e03f	1.6318434
123	0x3f71f96d	0.9452122
124	0x3d42b226	0.047533177
125	0x406c9a49	3.6969168
126	0x3d3a3245	0.045458097
127	0xbf7ca700	-0.9869232

adv.weight f4 [16, 128]
0	0x3e70e650	0.23525357
1	0xbe9ae3fd	-0.30252066
2	0x3de6abbb	0.11263224
3	0xbf4a33be	-0.789852
4	0xbfd32a1b	-1.6497225
5	0xbcda8dfb	-0.02667903
6	0x3cb921e2	0.022599164
7	0x3e38550e	0.18001196
8	0x3d0a026a	0.03369371
9	0xbff6db39	-1.9285651
10	0x3e941558	0.28922534
11	0xbcee71d7	-0.029107017
12	0xbdc5c272	-0.09656228
13	0x3d8d1e7e	0.068905815
14	0x3d0d7c70	0.0345425
15	0x3db5ef52	0.08883537
16	0x3dbad480	0.091225624
17	0xbcabb060	-0.020958126
18	0xbea12400	-0.31472778
19	0x3cea4ed2	0.028602038
20	0xbe076d6a	-0.13225332
21	0x3d3ed434	0.04658909
22	0xbd5cb3b4	-0.053882316
23	0x3d50c1e5	0.050966162
24	0xbebd65ed	-0.36991826
25	0xbe4dae0f	-0.2008593
26	0xbda37d61	-0.079828985
27	0xbe4c3352	-0.19941452
28	0xbe90dd1c	-0.28293693
29	0xbe7a4a4c	-0.24442405
30	0x3e57c95d	0.21072908
31	0x3e688672	0.22707537
32	0xbb9c0fd0	-0.004762627
33	0x3ebbf824	0.36712754
34	0x3e508088	0.20361531
35	0xbd4a5e05	-0.04940607
36	0x3d52f103	0.051499378
37	0xbc3ee3bd	-0.011650977
38	0x3dca36da	0.09873743
39	0x3f2691f4	0.65066457
40	0xbcb53c3f	-0.022123454
41	0xbe2f2c68	-0.17106783
42	0xbf090aa8	-0.53531885
43	0x3d8c746f	0.068581454
44	0xbcb07fc8	-0.021545306
45	0x3dcf183e	0.10112046
46	0xbe00fd93	-0.12596731
47	0x3e83e7a3	0.25762662
48	0x3dc29882	0.09501745
49	0xbe73ad40	-0.23796558
50	0xbc00bd02	-0.007857563
51	0x3cd7d773	0.026347851
52	0xbee1c2fe	-0.4409408
53	0xbd74ced4	-0.05976756
54	0x3e61de38	0.22057426
55	0xbd3d159a	-0.04616318
56	0xbe3cee9c	-0.18450397
57	0x3c2220f9	0.009895557
58	0xbd6995ff	-0.057027813
59	0x3dbe886d	0.09303365
60	0x3d74ce57	0.059767094
61	0xbd9f60c4	-0.077821285
62	0x3a18e369	0.00058322266
63	0xbec114fb	-0.3771132
64	0xbe0efd45	-0.13963802
65	0xbd8b5618	-0.068035305
66	0x3e446a03	0.19181065
67	0xbe451a06	-0.19248208
68	0x3ef44470	0.47708464
69	0xbc6344cb	-0.013871382
70	0xbda7fecb	-0.08202895
71	0xbe229c10	-0.15879846
72	0x3e0f1590	0.13973069
73	0xbe1458c1	-0.14486982
74	0x3e4f9a4a	0.202737
75	0xbd7f9ab4	-0.062403396
76	0xbed281ae	-0.41114563
77	0xbe2a9f80	-0.16662407
78	0x3e6a38ee	0.2287328
79	0x3de86584	0.113474876
80	0xbd9018b1	-0.070359595
81	0x3e52e813	0.20596342
82	0x3d7a2ebb	0.061079722
83	0xbe0a984b	-0.13534658
84	0xbc93ef94	-0.018058576
85	0x3c26fc87	0.010192043
86	0xbcd4062b	-0.025881847
87	0x3d93ff48	0.072264254
88	0x3c9d51c2	0.019204024
89	0xbef4e170	-0.47828245
90	0x3eba4d8d	0.36387292
91	0xbd4405a8	-0.047856957
92	0xbc73023f	-0.0148320785
93	0xbe049016	-0.1294559
94	0x3ea0e865	0.31427303
95	0xbee73c5d	-0.4516324
96	0x3d52000c	0.051269576
97	0xbd426016	-0.047454916
98	0x3d95638f	0.0729438
99	0x3f06f4c2	0.5271722
100	0x3e9da228	0.30787778
101	0x3ec93d17	0.3930442
102	0x3e3c637a	0.18397322
103	0x3dfea59e	0.12433933
104	0xbf1618a4	-0.5863135
105	0xbf2c42cd	-0.6728943
106	0xbd1592d2	-0.036516972
107	0x3d56f3c9	0.052478585
108	0xbdbce6e9	-0.0922373
109	0xbe1f2671	-0.15542008
110	0xbf1be0c5	-0.60889846
111	0xbc9aa410	-0.01887706
112	0xbd080545	-0.03320815
113	0xbe980677	-0.29692432
114	0x3cb84c69	0.022497373
115	0x3d9a3f6d	0.07531629
116	0xbbd46be1	-0.0064825867
117	0xbeda3a05	-0.4262239
118	0x3e2f3b61	0.17112495
119	0x3bff038d	0.0077824057
120	0xbcf208e4	-0.029545255
121	0x3c8e8d47	0.01740135
122	0xbe202116	-0.15637621
123	0xbe3203df	-0.17384289
124	0x3b87570a	0.004130249
125	0xbd1f2d8a	-0.03886179
126	0x3d88b193	0.066744946
127	0x3f2796b3	0.65464324
128	0x3dfbf4d0	0.12302554
129	0xbeaf6a80	-0.3426094
130	0x3b9a24a1	0.0047040735
131	0xbe49d860	-0.19711447
132	0x3e5d9603	0.21639256
133	0x3e33a868	0.1754471
134	0xbe2dc355	-0.16969045
135	0xbdfe0c01	-0.12404633
136	0xbd8fc2e6	-0.07019596
137	0x3eb97286	0.36220187
138	0x3dcf8e59	0.101345725
139	0x3d728eb1	0.059218112
140	0xbd5fc3f7	-0.054630246
141	0x3ddee216	0.10882966
142	0x3d5a6dcb	0.053327363
143	0xbd496441	-0.049167875
144	0xbe498213	-0.19678526
145	0xbd5d9819	-0.05410013
146	0xbddd8186	-0.1081572
147	0x3ca9688b	0.020679733
148	0xbf1f4781	-0.6221848
149	0x3d85a19f	0.065249674
150	0xbbabf89b	-0.005248142
151	0x3d4250ab	0.047440212
152	0xbf098848	-0.53723574
153	0xbf815816	-1.0105007
154	0xbf2a3520	-0.6648731
155	0xbe9676b4	-0.29387438
156	0xbf28f053	-0.65991706
157	0x3bc472b0	0.005995117
158	0xbdc73c01	-0.09728242
159	0xbe4b3b5e	-0.19846866
160	0x3eb9ce1a	0.36290056
161	0x3e5471df	0.20746563
162	0xbd824e94	-0.06362644
163	0xbd1a5679	-0.037680123
164	0x3d964eb3	0.073392294
165	0xbcda0be1	-0.026616992
166	0xbc3e8591	-0.011628524
167	0xbf0b0dbc	-0.5431783
168	0x3c73ea40	0.0148873925
169	0xbe632752	-0.22182968
170	0xbebd6828	-0.36993527
171	0xbecd8ea3	-0.40147886
172	0x3d01e225	0.03170981
173	0xbe2b6107	-0.16736232
174	0x3e5af349	0.21381868
175	0xbd3192a5	-0.04335274
176	0x3d48f34d	0.049060155
177	0xbda5be7a	-0.08092971
178	0xbd94c2d7	-0.07263725
179	0xbd9c6d80	-0.07638073
180	0x3f2fca25	0.68667823
181	0x3c0679e2	0.00820777
182	0xbd8f96d9	-0.07011194
183	0xbd3e6a56	-0.04648813
184	0x3d5c9c0f	0.053859767
185	0xbbdd8d36	-0.0067612184
186	0xbd01a243	-0.031648885
187	0x3e490702	0.1963158
188	0xbd8c1bfe	-0.068412766
189	0xbcdac914	-0.02670721
190	0xbc81e03e	-0.015853997
191	0xbe03f4e7	-0.12886392
192	0xbe51f3fd	-0.2050323
193	0xbd1f5f4e	-0.03890925
194	0x3d923688	0.07139307
195	0xbf581f08	-0.8442235
196	0xbeaec825	-0.34137073
197	0xbd8393a9	-0.06424648
198	0x3daee71e	0.08540176
199	0xbef45fb4	-0.47729266
200	0x3e2c49a2	0.16824964
201	0x3e057eb2	0.13036612
202	0x3a1affac	0.0005912732
203	0xbe005079	-0.12530698
204	0xbef617a0	-0.480649
205	0x3dfcb33a	0.12338872
206	0x3e018a2f	0.12650369
207	0xbd8fee6f	-0.070278995
208	0x3c128e6d	0.00894509
209	0xbe9a9e3c	-0.30198848
210	0x3dabda5d	0.08391259
211	0xbed18d02	-0.40927893
212	0xbe6569ff	-0.22403716
213	0xbd5d6896	-0.05405482
214	0x3cb9607d	0.022629017
215	0xbde7de97	-0.113217525
216	0xbd205db0	-0.039151847
217	0xbf441651	-0.7659655
218	0x3ea5b568	0.32364964
219	0x3d044e4c	0.032301232
220	0x3dea7483	0.11448004
221	0x3e844001	0.2583008
222	0x3d286174	0.041108564
223	0x3e2de451	0.16981627
224	0xbf163433	-0.586734
225	0xbda0d44b	-0.07852992
226	0x3db6a45f	0.0891807
227	0xbe1d3700	-0.15353012
228	0x3e2e3fbe	0.17016503
229	0xbca2c4ff	-0.019869326
230	0xbead45e2	-0.3384238
231	0xbdc323b2	-0.09528293
232	0xbf042b24	-0.5162833
233	0xbf2784f1	-0.6543723
234	0x3dfd3715	0.12364022
235	0xbd5e8d08	-0.054333717
236	0x3d08fda4	0.033445016
237	0xbed0f698	-0.40813136
238	0xbf158091	-0.583993
239	0xbcc7f026	-0.024406504
240	0x3c1f016a	0.009704927
241	0x3dda3cf1	0.10656155
242	0xbb813a0b	-0.003943687
243	0x3d7b3592	0.061330386
244	0xbddc2079	-0.10748381
245	0xbee35ba7	-0.44405863
246	0xbda75572	-0.08170594
247	0xbc7515f0	-0.014958844
248	0x3d189f7b	0.037261467
249	0xbe9a7adc	-0.3017186
250	0xbc68e887	-0.014215595
251	0x3d6f8025	0.058471818
252	0x3d64b723	0.055838715
253	0x3d83bcbd	0.06432483
254	0x3d273875	0.040825326
255	0xbf8a0951	-1.0784093

adv.bias f4 [16]
0	0xbd9a4bdf	-0.075340025
1	0xbc8db6b7	-0.01729904
2	0xbe552faf	-0.20818971
3	0x3e0b3e06	0.13597879
4	0xbdcce563	-0.100046895
5	0xbd3a098a	-0.045419253
6	0xbda3b7f7	-0.07994073
7	0x3de33e50	0.110958695
8	0x3b47e380	0.003050059
9	0x3e4b2582	0.19838527
10	0xbdb1dec2	-0.08685066
11	0xbe2360d9	-0.15954913
12	0xbcf07311	-0.029351743
13	0x3e1aff47	0.15136443
14	0xbdbf7ecc	-0.093503565
15	0x3dabcded	0.083888866
