DDQN/radiiResults/10cyl_2000epsDecay_10outercylAt3.5Radii/Qpolicy2400.pt (torch, 158783 bytes, 9 tensors)

fc.weight f4 [128, 23]
0	0xbe558b65	-0.20853956
1	0xbc9aa0ba	-0.018875469
2	0xbe22f456	-0.1591352
3	0x3e2143f1	0.15748574
4	0xbe3956ab	-0.18099467
5	0xbd9d3064	-0.076752454
6	0x3dddea4c	0.10835704
7	0xbdeb6238	-0.11493343
8	0xbde8dc5a	-0.11370154
9	0x3e4b5239	0.19855584
10	0x3c905ecf	0.017623333
11	0xbca74a13	-0.020421064
12	0xbe356f11	-0.1771815
13	0x3e2e940a	0.1704866
14	0xbe2586ec	-0.1616475
15	0x3e563c83	0.20921521
16	0xbd915796	-0.07096784
17	0x3d829e59	0.06377859
18	0x3d5e081b	0.05420695
19	0xbbbd61ed	-0.005779496
20	0xbd57d4cf	-0.052693184
21	0xbe28b50c	-0.16475314
22	0x3e496930	0.19669032
23	0x3dad6e91	0.084683545
24	0xbe23addf	-0.15984295
25	0xbe4b31dd	-0.1984324
26	0x3e4b91f3	0.19879894
27	0x3e2be0ea	0.16785017
28	0xbdfeb0ee	-0.124360904
29	0xbdf0142a	-0.11722596
30	0xbd92204e	-0.07135068
31	0xbdc43216	-0.09579866
32	0xbd1723fa	-0.036899544
33	0xbbc62f28	-0.006048102
34	0xbdb4ff91	-0.08837808
35	0xbddd29e3	-0.10799005
36	0x3dac5c5b	0.08416053
37	0xbde0470c	-0.10951051
38	0x3d8e4c64	0.06948164
39	0x3e498fa5	0.19683702
40	0x3ca2fd40	0.01989615
41	0x3dfdd831	0.12394751
42	0xbe29eedd	-0.16595025
43	0x3d8ca96b	0.068682514
44	0xbe290cbd	-0.16508766
45	0xbe4baef5	-0.1989096
46	0xbe0d937f	-0.13825797
47	0xbd9a91ec	-0.07547364
48	0xbe178250	-0.14795804
49	0xbe316340	-0.17323017
50	0xbe311fdc	-0.1729731
51	0xbe729f6d	-0.23693629
52	0xbe175a50	-0.14780545
53	0x3dedcf15	0.116117634
54	0xbe8e6ffd	-0.27819815
55	0x3d075f55	0.0330499
56	0x3e02ff65	0.12792738
57	0x3da6cb91	0.08144296
58	0x3e39821b	0.18116038
59	0x3c2add72	0.010428773
60	0xbd16a1eb	-0.03677551
61	0x3e6b69a4	0.22989517
62	0x3e112910	0.1417582
63	0xbd0bc284	-0.03412105
64	0x3e227c15	0.15867646
65	0xbe1a33fd	-0.15058894
66	0x3e0ae770	0.13564849
67	0x3e3f6f87	0.18694888
68	0xbd692645	-0.056921262
69	0xbdf1cb37	-0.11806338
70	0xbd96c2e9	-0.07361395
71	0xbdd7788b	-0.105210386
72	0x3d3a43e2	0.045474894
73	0x3c84c50a	0.016207237
74	0xbd02047e	-0.031742565
75	0x3e440dc4	0.19145876
76	0x3e2b31b1	0.16718175
77	0x3e5379b7	0.206519
78	0xbe19f22e	-0.1503379
79	0x3c1b163b	0.009465749
80	0xbd869b00	-0.06572533
81	0x3df05169	0.11734278
82	0xbe6a6156	-0.22888693
83	0x3d48b770	0.049003065
84	0xbe46cb25	-0.19413431
85	0x3d8942af	0.06702172
86	0x3e12f021	0.14349414
87	0x3d8697d2	0.06571926
88	0x3d79ee2e	0.06101816
89	0xbb577771	-0.003287759
90	0xbe58d002	-0.21173099
91	0xbd8c0199	-0.06836242
92	0x3d95f23e	0.07321595
93	0x3daa2d01	0.08309365
94	0xbdb874dd	-0.09006665
95	0x3de7fe70	0.11327827
96	0xbe22c188	-0.15894139
97	0xbda5e920	-0.08101106
98	0x3d0a2bdc	0.033733234
99	0x3e09b855	0.13449223
100	0x3dad4829	0.08461029
101	0xbe03c264	-0.12867123
102	0xbe324bef	-0.17411779
103	0x3b34ab19	0.0027567802
104	0xbda68f05	-0.081327476
105	0x3d2b1f3a	0.041777827
106	0x3d965c53	0.07341828
107	0xbb3727e3	-0.0027947358
108	0xbd35311f	-0.0442363
109	0xbe0da649	-0.13832964
110	0x3def4442	0.11682941
111	0x3dc0cb21	0.09413744
112	0x3da8ab7f	0.08235835
113	0xbe0595b6	-0.13045391
114	0x3dd41a5a	0.10356589
115	0x3b2ccfa5	0.0026368883
116	0x3dc6e8ff	0.09712409
117	0x3d52b398	0.051440805
118	0xbdbbaa05	-0.09163288
119	0x3dab3b40	0.083609104
120	0x3e15930c	0.14606875
121	0x3e422581	0.18959619
122	0x3df1fdf5	0.118160166
123	0x3e6eb338	0.23310554
124	0xbd5ee269	-0.05441514
125	0xbd7cebd4	-0.06174834
126	0xbd5ccfe2	-0.05390919
127	0xbd04fd0b	-0.032467883
128	0xbde40d06	-0.111352965
129	0x3d9eee0a	0.07760246
130	0x3db7c0c9	0.08972318
131	0xbd06eef1	-0.032942716
132	0xbe06dd20	-0.1317029
133	0xbd4bd108	-0.049759895
134	0x3e6fe184	0.23425871
135	0x3e20ded9	0.1571001
136	0x3cce51e3	0.025185531
137	0xbeec0045	-0.46093956
138	0xbdf0881a	-0.11744709
139	0xbdc38d43	-0.09548428
140	0xbdb1e64d	-0.086865045
141	0xbe26f422	-0.16304067
142	0xbe055b9f	-0.13023232
143	0x3e5197d4	0.20468074
144	0xbca44eed	-0.020057166
145	0xbc7d81af	-0.0154728135
146	0x3e59a7ad	0.2125537
147	0x3e47c7d6	0.19509825
148	0xbdc726a7	-0.09724169
149	0x3d29746e	0.0413708
150	0x3da19ed8	0.07891625
151	0x3d2d9839	0.0423815
152	0xbe2f0ebd	-0.17095466
153	0x3d87c2c0	0.066289425
154	0x3d9cba4f	0.07652723
155	0xbdff2a83	-0.1245928
156	0xbdd880a1	-0.10571409
157	0x3e25af68	0.16180193
158	0x3e1ee0b8	0.15515411
159	0x3c965bc0	0.018354297
160	0x3e434a1d	0.1907124
161	0xbe1d3c21	-0.15354969
162	0x3e1a0f69	0.15044941
163	0x3e0d9e82	0.13829997
164	0x3cc137c1	0.023586156
165	0x3e710ce8	0.2354008
166	0x3c5c17b3	0.013433385
167	0x3e07ae90	0.13250184
168	0x3d4e271b	0.050330263
169	0x3da8cb4a	0.08241899
170	0xbdf0ccfa	-0.11757846
171	0xbe0631e8	-0.13104975
172	0x3d3bb440	0.045826197
173	0x3dd4cd62	0.10390736
174	0x3ad58937	0.0016291504
175	0xbcf7480d	-0.030185724
176	0xbe4802d1	-0.19532324
177	0xbd15be0a	-0.03655819
178	0x3e4d96ab	0.20077007
179	0x3dab786d	0.08372579
180	0xbe0d1159	-0.13776149
181	0xbd8cc7d6	-0.06874053
182	0x3e14817a	0.14502516
183	0xbe8df148	-0.27723145
184	0x3db48506	0.08814435
185	0x3d02dbb9	0.031947825
186	0xbd27b5ae	-0.040944748
187	0x3d58404b	0.05279569
188	0xbdb4b8de	-0.08824323
189	0x3caf0ada	0.02136748
190	0x3c2a18af	0.010381862
191	0x3cfbda83	0.030743843
192	0xbe4b5889	-0.19857992
193	0x3e1f9a80	0.15586281
194	0x3d92a417	0.07160204
195	0x3d30bfd6	0.0431517
196	0xbe2286eb	-0.1587178
197	0xbc3429f4	-0.0109963305
198	0x3cb94453	0.022615587
199	0x3c748261	0.014923663
200	0x3d679de6	0.056547068
201	0xbd4430ca	-0.04789809
202	0xbe2c73a1	-0.16840984
203	0x3e0d0632	0.13771895
204	0x3d2ac5e5	0.041692633
205	0x3cc79842	0.024364594
206	0xbe42a7ab	-0.19009273
207	0x3e034a2a	0.1282126
208	0x3e32a52c	0.1744582
209	0xbdc761fb	-0.09735485
210	0xbe1872c0	-0.14887524
211	0xbe2c5eb7	-0.16833006
212	0xbe08f7b5	-0.13375743
213	0xbe083aba	-0.13303652
214	0xbde8b70f	-0.11363041
215	0xbe938fd0	-0.28820658
216	0x3ead815a	0.3388775
217	0x3e2f5424	0.17121941
218	0x3e2ab700	0.16671371
219	0xbda3863c	-0.079845876
220	0x3e196747	0.14980803
221	0xbe1d3b94	-0.15354759
222	0xbe569b58	-0.20957696
223	0x3df3cf9f	0.11904835
224	0x3e1e7a55	0.15476353
225	0x3e01428c	0.12623042
226	0xbda9b9c3	-0.08287384
227	0x3d1852b0	0.037188232
228	0xb95399b6	-0.0002017979
229	0xbe25e9af	-0.16202424
230	0x3ce3dac0	0.027814269
231	0x3db5d26a	0.08878024
232	0xbc863358	-0.016381904
233	0xbd8abc46	-0.067741916
234	0xbc71e6d0	-0.014764503
235	0xbdfe7221	-0.12424112
236	0xbd997d62	-0.07494618
237	0xbc8be080	-0.017074823
238	0x3d8bcb2a	0.0682586
239	0xbdec0de0	-0.11526084
240	0xbc66b050	-0.014080122
241	0xbe3c28f2	-0.18374994
242	0xbdf0f4a2	-0.1176541
243	0x3dadb7ca	0.084823206
244	0xbdbc0786	-0.091811225
245	0xbe0e6cf0	-0.13908744
246	0xbddf7021	-0.10910059
247	0xbc089090	-0.008335248
248	0xbd41d398	-0.047320932
249	0xbe12cb75	-0.14335425
250	0xbd41a0cc	-0.04727249
251	0x3e50ff39	0.2040986
252	0xbd37c004	-0.044860855
253	0x3d33d9ad	0.043908764
254	0x3def4f2e	0.11685024
255	0xbda907c8	-0.08253437

fc.bias f4 [128]
0	0x3dd2b66b	0.102887
1	0x3da20bbb	0.07912394
2	0x3dc80a76	0.0976762
3	0xbcd2015c	-0.025635414
4	0xbe409bb9	-0.18809403
5	0x3e63581a	0.22201577
6	0xbd900c4a	-0.07033594
7	0x3e23632d	0.15955801
8	0xbb6c3f78	-0.0036048573
9	0xbd6f5565	-0.058431048
10	0xbd02ae8c	-0.031904742
11	0xbec6b59b	-0.3881043
12	0x3e6188ec	0.22024888
13	0x3d6eeaf7	0.05832955
14	0x3e0004da	0.1250185
15	0x3cf27d8f	0.029600887
16	0xbe341f92	-0.17590168
17	0xbda92d14	-0.08260551
18	0xbe62f838	-0.22165
19	0x3d51ee17	0.05125245
20	0x3dcbee6a	0.09957583
21	0x3f172562	0.59041417
22	0xbda2a0ce	-0.07940827
23	0xbcf742bc	-0.030183189
24	0x3dfe514d	0.12417851
25	0x3b9c6d11	0.004773744
26	0xbecea7fe	-0.40362543
27	0xbe022690	-0.12710023
28	0x3cf44ccd	0.029821778
29	0xbc762125	-0.015022551
30	0xbe9fe25f	-0.31227395
31	0xbe041150	-0.12897229
32	0xbe4c9781	-0.19979669
33	0xbe3ef7b0	-0.18649173
34	0xbe2edd25	-0.17076547
35	0x3db561d6	0.08856551
36	0xbdb12698	-0.08649939
37	0xbe4ed008	-0.20196545
38	0x3db35282	0.087559715
39	0xbe30398a	-0.1720945
40	0xbd3b4f60	-0.045729995
41	0xbd66fac7	-0.056391504
42	0xbe2b1bdd	-0.16709848
43	0xbe257e39	-0.16161431
44	0x3d55fb47	0.05224159
45	0x3da3ba46	0.07994513
46	0xbe274935	-0.1633652
47	0x3e9e6886	0.3093912
48	0xbdec6cf3	-0.11544218
49	0x3e717de3	0.23583178
50	0x3d65196e	0.055932455
51	0xbb1d2f79	-0.0023984595
52	0x3edb12ab	0.4278768
53	0xbd06d914	-0.032921866
54	0xbe122ad2	-0.14274147
55	0xbe1d6090	-0.15368867
56	0x3d4f846a	0.05066339
57	0xbe29b035	-0.16571124
58	0x3d9b4d74	0.075831324
59	0xbe528fbb	-0.20562641
60	0xbe4e557a	-0.20149794
61	0x3e53db1f	0.20689057
62	0x3eb7721d	0.3582925
63	0xbe3a9295	-0.18219979
64	0xbcd9c988	-0.026585355
65	0x3e6a844f	0.22902034
66	0xbe780e39	-0.24224176
67	0x3ddce83e	0.10786484
68	0xbdd2cb0b	-0.102926336
69	0x3eaa0250	0.3320489
70	0x3ddafeea	0.10693152
71	0xbe53938a	-0.2066175
72	0xbdc5c3d0	-0.09656489
73	0xbd7d6960	-0.06186807
74	0xbd995c38	-0.074882925
75	0x3e81c14b	0.25342783
76	0xbe4d2720	-0.20034456
77	0xbdc22bca	-0.09481008
78	0xbe085c97	-0.1331657
79	0xbdbd8aba	-0.092549756
80	0x3e237ac9	0.15964808
81	0xbe3fefd7	-0.18743835
82	0x3cad1848	0.021129742
83	0xbe153bcb	-0.1457359
84	0x3e1b768c	0.15181941
85	0xbcb3c6f1	-0.021945449
86	0xbe337743	-0.17525963
87	0x3ea13495	0.3148543
88	0xbe8ce904	-0.27521527
89	0xbd4580df	-0.048218604
90	0xbda8dc4f	-0.082451455
91	0x3dbba35e	0.09162019
92	0x3da78022	0.08178736
93	0x3ebb33eb	0.36563048
94	0x3d07bd32	0.033139415
95	0x3e52597e	0.20541951
96	0xbd80520a	-0.06265648
97	0xbe45ac13	-0.19303922
98	0xbd0267c0	-0.031837225
99	0x3c8bb2b4	0.017052986
100	0xbd874c06	-0.06606297
101	0x3beb1552	0.0071741724
102	0xbe15244c	-0.14564627
103	0xbdcbb16a	-0.099459484
104	0x3dc613b7	0.09671729
105	0xbeb707b7	-0.35748073
106	0x3e03e473	0.12880115
107	0xbd00e906	-0.03147223
108	0xbe3a7def	-0.18212102
109	0xbe27a3b6	-0.16371045
110	0x3f07a269	0.52982193
111	0xbdffe8d4	-0.1249558
112	0x3f079c8a	0.52973235
113	0x3aae5416	0.0013300206
114	0xbe2f1940	-0.17099476
115	0x3d99d965	0.07512168
116	0xbe35874d	-0.17727394
117	0xbe10d802	-0.141449
118	0x3db4af8e	0.08822547
119	0x3e36619e	0.17810676
120	0x3cc4f5f9	0.02404307
121	0x3d4b185b	0.049583774
122	0xbd324c3e	-0.04352974
123	0xbf13a2f5	-0.5767053
124	0x3d748bb2	0.059703536
125	0x3e17c166	0.1481987
126	0x3dac7ff4	0.084228426
127	0xbe2c0d0a	-0.16801849

hidden.0.weight f4 [128, 128]
0	0xbda1a993	-0.07893672
1	0x3bfcf130	0.0077191815
2	0xbcaab289	-0.020837085
3	0xbcedfc66	-0.029051017
4	0xbd22ef0a	-0.039778747
5	0xbe86835f	-0.26272103
6	0x3de3da76	0.111256525
7	0xbdc1b6f4	-0.09458724
8	0xbc80c633	-0.015719509
9	0x3c7d7055	0.015468677
10	0xbd37b839	-0.044853423
11	0x3e48f5ea	0.19625059
12	0x3d81defd	0.0634136
13	0xbdaf76e0	-0.085675955
14	0xbd2c3173	-0.042039346
15	0x3c95f571	0.018305512
16	0xbdce5068	-0.1007393
17	0x3d6b0ce9	0.05738536
18	0x3e1fbec6	0.15600118
19	0xbdad2790	-0.084548116
20	0x3d7a3ba6	0.06109204
21	0xbe977cbb	-0.2958735
22	0xbd87a686	-0.06623559
23	0xbdab52a0	-0.08365369
24	0xbc9104fd	-0.017702574
25	0xbca2e677	-0.019885285
26	0x3e89d6ea	0.2692178
27	0xbd1f56a5	-0.03890099
28	0xbd8b227d	-0.067936875
29	0xbdda332f	-0.10654294
30	0x3e226633	0.15859298
31	0x3e37150c	0.17879122
32	0x3dd88176	0.10571568
33	0x3d910027	0.07080107
34	0x3c430750	0.011903599
35	0xbdaae394	-0.08344188
36	0xbd83ae0c	-0.06429681
37	0x3e1ebe06	0.15502176
38	0x3d59b252	0.053148575
39	0xbdb2cf83	-0.08730986
40	0x3daaee5b	0.08346244
41	0x3a42adf8	0.0007426436
42	0xbca9b460	-0.020715892
43	0xbc7c90ff	-0.015415429
44	0xbdb9a277	-0.09064191
45	0xbd7a9ad3	-0.061182808
46	0x3d86fc84	0.06591132
47	0xbe423f2e	-0.18969414
48	0xbd8bf563	-0.06833913
49	0xbd85434f	-0.06506979
50	0xbd0f6cee	-0.035015993
51	0x3c84fcc4	0.01623381
52	0xbe8ac0a0	-0.27100086
53	0xbcbb2be4	-0.022848077
54	0x3d7702ba	0.060305335
55	0x3d8dd6e4	0.06925753
56	0x3ca427af	0.020038454
57	0xbb36c3bb	-0.002788766
58	0xbe44b458	-0.1920942
59	0x3e4febae	0.20304748
60	0x3d41c38b	0.047305625
61	0xbdb0a192	-0.08624567
62	0xbe2979d6	-0.16550383
63	0x3e1cbb5f	0.15305851
64	0x3d2d6596	0.042333208
65	0xbd97a0ee	-0.07403742
66	0x3e0017c0	0.1250906
67	0x3be381a0	0.0069429427
68	0xbdae9bed	-0.08525834
69	0xbcb88292	-0.022523198
70	0x3d904ab7	0.07045501
71	0xbd3fc995	-0.046823103
72	0x3c0a3e5d	0.00843772
73	0xbd8d5d03	-0.06902506
74	0x3d55c7ac	0.052192375
75	0xbe7fa7d2	-0.24966362
76	0x3d9de6db	0.07710048
77	0x3e530bbc	0.20609945
78	0xbda2ed6c	-0.07955441
79	0x3ced5c17	0.028974576
80	0xbc11af64	-0.008891914
81	0xbd24c6c6	-0.040228628
82	0xbd0533ce	-0.032520108
83	0x3c7acc71	0.015307532
84	0xbe073097	-0.1320213
85	0x3dc996d9	0.09843225
86	0x3d048c60	0.032360435
87	0xbe290908	-0.16507351
88	0x3e05c477	0.13063227
89	0x3dd9d32a	0.106359795
90	0xbd981c4c	-0.07427272
91	0x3da9fa97	0.08299749
92	0x3c350493	0.011048454
93	0xbe7df55c	-0.24800628
94	0xbd10ec12	-0.035381384
95	0xbbf75b3c	-0.007548718
96	0x3ddbc987	0.10731798
97	0x3d20f3de	0.03929507
98	0xbd471d2c	-0.048611805
99	0x3d8715ed	0.06595979
100	0x3ccda950	0.025105149
101	0xbcd2e291	-0.0257428
102	0x3cb0b808	0.021572128
103	0xbd6b1c1a	-0.057399847
104	0xbe2acf5a	-0.16680661
105	0x3e717de0	0.23583174
106	0xbd89b4ed	-0.06723962
107	0x3db6d0d7	0.08926552
108	0xbce8e0dc	-0.028427534
109	0xbd035b66	-0.032069586
110	0xbeb1f4d0	-0.3475709
111	0x3daeab31	0.08528746
112	0xbeb9ddf0	-0.36302137
113	0x3be246d0	0.006905414
114	0x3dac194e	0.08403264
115	0xbd478145	-0.048707265
116	0xbd995b04	-0.07488063
117	0x3da86d11	0.08223928
118	0x3ce89a97	0.028394027
119	0x3d434154	0.047669724
120	0xbdc0525b	-0.09390708
121	0x3cb2018f	0.021729259
122	0x3d59f689	0.05321363
123	0x3eb56dec	0.35435426
124	0xbd5f4910	-0.054513037
125	0x3c73dfe2	0.014884921
126	0x3e1079b0	0.1410892
127	0xbcd04834	-0.025425054
128	0x3da2487e	0.07923983
129	0x3ca3522d	0.019936645
130	0x3e0bd9b7	0.1365727
131	0x3bdd1121	0.0067464267
132	0x3d8aa160	0.06769061
133	0xbdd69b0d	-0.10478792
134	0xbd91314d	-0.070894815
135	0xbcb464b2	-0.022020672
136	0x3d8d21bf	0.06891202
137	0x3d0d8245	0.034548063
138	0x3d54fc6a	0.051998533
139	0x3ce24cb1	0.02762446
140	0xbe4df5d5	-0.20113309
141	0x3d761b15	0.06008442
142	0x3c1091a8	0.00882379
143	0x3d3459e3	0.044031035
144	0x3d4a00ac	0.049317047
145	0x3db65356	0.08902614
146	0xbcc10324	-0.023561068
147	0x3d52ddfb	0.05148123
148	0xbc6bdb68	-0.014395572
149	0x3cfecdc2	0.031103972
150	0x3c928048	0.017883435
151	0x3c997479	0.018732296
152	0xbc8f4441	-0.0174886
153	0x3d61670d	0.055029918
154	0xbd409b5b	-0.04702316
155	0xbd46e932	-0.048562236
156	0xbd052c08	-0.032512695
157	0xbb6e54a8	-0.0036366377
158	0xbd294d19	-0.04133329
159	0xbca8fa31	-0.020627113
160	0xbc2b2960	-0.010446876
161	0xbb648e20	-0.0034874752
162	0x3d1cd6ce	0.03829079
163	0x3d425cc6	0.047451757
164	0x3d9b3be1	0.0757978
165	0xbb180ccd	-0.002320099
166	0xbdc79cbf	-0.09746694
167	0xbd6831c5	-0.05668809
168	0x3d63353a	0.055470683
169	0xbb9314ec	-0.004488578
170	0xbd62b6ed	-0.055350233
171	0x3cfde276	0.030991774
172	0x3d0bf4ed	0.034169126
173	0xb9a62300	-0.00031688064
174	0xbd9e60c5	-0.07733301
175	0xbdad9785	-0.08476166
176	0x3cb4d4b6	0.022074085
177	0xbd5440c6	-0.051819585
178	0x3c9d86a5	0.019229243
179	0x3d6ca73a	0.057776667
180	0xbca23245	-0.019799361
181	0xbdfe2021	-0.12408472
182	0x3d78f630	0.060781658
183	0x3d070bcb	0.03297023
184	0x3d0d850f	0.034550723
185	0x3d9fa448	0.07795006
186	0xbdc45a7a	-0.095875695
187	0x3b9bb23f	0.004751473
188	0xbcd4c7f5	-0.025974253
189	0x3d7e6c62	0.06211508
190	0x3caf4b29	0.021398144
191	0x3d215b02	0.039393432
192	0xbd54b22f	-0.05192774
193	0x3c97faa3	0.01855213
194	0xbd750082	-0.059814937
195	0x3d5eae52	0.054365464
196	0x3c3cf807	0.011533744
197	0x3dbb97e1	0.09159828
198	0x3d9415d3	0.07230725
199	0x3d3a02c6	0.0454128
200	0x3dafba69	0.08580477
201	0xbd2f2128	-0.04275623
202	0x3d6a9c40	0.057277918
203	0xbd98a815	-0.07453934
204	0xbd232ada	-0.03983579
205	0xbd944e6b	-0.072415195
206	0xbc921904	-0.017834194
207	0xbdbf665d	-0.09345696
208	0x3d528a8f	0.05140167
209	0xbcb0ac24	-0.021566458
210	0xbd7c36ac	-0.061575577
211	0xbd808001	-0.06274415
212	0x3cdac7df	0.026706634
213	0x3d4230be	0.047409765
214	0x3cdebf09	0.027190702
215	0xbd5f732a	-0.05455319
216	0x3daddae6	0.08489017
217	0xbb804551	-0.003914513
218	0x3baf6eb2	0.005353772
219	0xbdaf2b37	-0.085531645
220	0x3d8b80df	0.068116896
221	0xbd70f1d4	-0.058824375
222	0x3dc5b77a	0.09654136
223	0xbd9ea74c	-0.07746753
224	0x3d21e263	0.03952254
225	0x3cff0ffc	0.031135552
226	0xbc7ac3a8	-0.015305437
227	0x3dc9bf20	0.09850907
228	0x3d9b9403	0.0759659
229	0x3d3576a0	0.044302583
230	0x3d01b3ba	0.03166554
231	0xbdb3dad1	-0.0878197
232	0x3cd792d0	0.026315123
233	0x3d06d866	0.032921217
234	0x3d69f9b4	0.0571229
235	0x3ddca0ed	0.10772882
236	0x39ebeb00	0.00044997782
237	0xbce1e8a4	-0.027576752
238	0xbd164918	-0.0366908
239	0xbc1447c8	-0.009050317
240	0xbc766bd2	-0.015040355
241	0xbadfecc3	-0.001708411
242	0x3d9be26c	0.07611546
243	0x3bdcb241	0.0067351167
244	0xbc6e93c8	-0.014561601
245	0x3d9bdc4d	0.076103784
246	0x3b2d016c	0.0026398553
247	0x3c1a0f0b	0.009403001
248	0xbd8769f4	-0.06612006
249	0x3cfd733e	0.03093874
250	0x3d9546a3	0.072888635
251	0xbd4220ca	-0.04739455
252	0xbd0263c7	-0.031833436
253	0x3dd7cfd7	0.10537689
254	0xbd09b4d6	-0.033619724
255	0xbd625350	-0.055255234

hidden.0.bias f4 [128]
0	0xbecb6156	-0.397227
1	0x3d8e95d6	0.06962173
2	0xbe5a4d55	-0.21318562
3	0x3d40f7c6	0.047111295
4	0x3e23d1fd	0.15998073
5	0xbd9c829d	-0.076421
6	0x3c988320	0.018617213
7	0x3cf75eb9	0.030196534
8	0x3d5bceb4	0.053663924
9	0x3d3164ee	0.043309145
10	0x3db9b9eb	0.09068664
11	0xbce08527	-0.027407242
12	0xbb0f3fe2	-0.0021858145
13	0xbd3281d9	-0.043580864
14	0xbd106284	-0.0352502
15	0x3d0c7895	0.034294683
16	0xbcf2cab5	-0.029637674
17	0x3d96ade0	0.07357383
18	0x3d60c2d4	0.054873303
19	0xbd3e826f	-0.04651111
20	0xbca7c6ba	-0.020480502
21	0xbd1c2d6b	-0.03812925
22	0xbcb8cf16	-0.022559684
23	0xbd9ff04e	-0.07809506
24	0xbca6125f	-0.020272432
25	0x3e04ba4b	0.1296169
26	0xbd1b4c27	-0.03791442
27	0x3da7eddb	0.08199664
28	0x3bccbb35	0.0062479028
29	0x3d8a9497	0.067666225
30	0xbbe506ab	-0.0069893203
31	0x3d44bae5	0.0480298
32	0x3c2f7a18	0.010710262
33	0xbdb1d639	-0.08683438
34	0x3d8fd741	0.07023478
35	0x3b294fe6	0.0025834977
36	0x3ddee385	0.1088324
37	0xbd0b6c19	-0.034038637
38	0x3cab1ee8	0.02088876
39	0x3d65db38	0.056117266
40	0xbcad45c0	-0.021151423
41	0x3d74ad31	0.05973548
42	0xbd845b44	-0.0646272
43	0x3d5cfc21	0.053951386
44	0xbd85198f	-0.064990155
45	0x3ddf261f	0.10895943
46	0xbd747ce5	-0.05968942
47	0xbdaafe14	-0.08349243
48	0x3d678866	0.056526564
49	0x3d0f0b88	0.034923106
50	0x3cf864b4	0.030321456
51	0xbeae225b	-0.34010586
52	0x3df483ad	0.11939178
53	0x3ded5fbe	0.11590527
54	0x3d581e04	0.052763
55	0x3ddcecce	0.107873544
56	0xbd454769	-0.048163805
57	0xbcec59b8	-0.028851375
58	0xbd443bf0	-0.047908723
59	0x3baaf596	0.0052172644
60	0x3d87fd54	0.066401154
61	0xbcf151c9	-0.029457944
62	0x3ca2d905	0.019878874
63	0xbd16a74a	-0.036780633
64	0xbd65e9fd	-0.05613135
65	0x3d951257	0.07278889
66	0xbe045585	-0.12923248
67	0x3d338a87	0.04383328
68	0xbcd62a39	-0.02614318
69	0xbd785573	-0.060628366
70	0x3d63268c	0.055456683
71	0xbb910663	-0.00442581
72	0x3dc5ad4f	0.096521966
73	0x3d0644d1	0.032780472
74	0x3d9edd10	0.07757008
75	0xbcc7c625	-0.024386475
76	0xbcf02419	-0.029314088
77	0x3c9ba348	0.018998757
78	0x3cb09284	0.02155424
79	0x3d7c9866	0.061668776
80	0x3d82c724	0.06385639
81	0x3d70c102	0.058777817
82	0xbd3f367c	-0.04668282
83	0xbc4b8d78	-0.0124238655
84	0x3de0ead1	0.10982288
85	0xbe5a3e34	-0.21312791
86	0x3d72e6f6	0.059302293
87	0x3ccc8b16	0.024968665
88	0xbcbef90e	-0.023312118
89	0x3df34e49	0.11880166
90	0xbd81728e	-0.06320678
91	0xbced3dc8	-0.028960124
92	0xbd8d0767	-0.068861775
93	0xbed1a3d5	-0.40945306
94	0x3c7ecf91	0.015552417
95	0xbd2f56f7	-0.042807546
96	0x3db8d2ce	0.09024583
97	0xbd85338e	-0.06503974
98	0x3db4ad58	0.08822125
99	0x3ccbc7d1	0.024875553
100	0xbd38c910	-0.045113623
101	0xbd466d01	-0.048443798
102	0xbcc334b0	-0.023828834
103	0x3d19e292	0.03756959
104	0x3dcd72ea	0.10031684
105	0x3e0e52ee	0.13898823
106	0x3dd09461	0.10184551
107	0x3d75a8cc	0.05997543
108	0x3dc8b0b8	0.097993314
109	0x3cee46bc	0.029086463
110	0xbdac68b0	-0.08418405
111	0x3bcde705	0.006283643
112	0xbda97a01	-0.082752235
113	0xbd077f8e	-0.03308063
114	0x3cec06df	0.02881187
115	0x3d20ebf0	0.039287508
116	0x3c7203e9	0.01477144
117	0xbd29273e	-0.04129719
118	0x3dc667c3	0.0968776
119	0xbdb26bd2	-0.08711971
120	0x3dc9d7d3	0.09855618
121	0xbcd80d7d	-0.02637362
122	0xbd826a0c	-0.06367883
123	0x3c7bfea6	0.015380537
124	0xbd39c157	-0.0453504
125	0xbd656ecf	-0.05601388
126	0x3db3cfc6	0.08779864
127	0x3da2516f	0.079256885

hidden.1.weight f4 [128, 128]
0	0x3cc5140f	0.024057416
1	0x3ce53f31	0.027984234
2	0x3d8b4f44	0.06802228
3	0x3bc9b243	0.0061552837
4	0xbd84e958	-0.06489819
5	0xbd64df82	-0.055877216
6	0xbd831c1d	-0.064018466
7	0xbd1b666b	-0.03793947
8	0xbd427c92	-0.04748208
9	0xbcb848d2	-0.02249566
10	0xbc7d95ec	-0.015477639
11	0xbd03a39b	-0.03213845
12	0x3d8b0a53	0.067890786
13	0xbd7eccef	-0.06220716
14	0xbd8259d9	-0.06364793
15	0xbc9751eb	-0.018471679
16	0x3c8490a4	0.016182251
17	0x3d33255f	0.04373681
18	0xbd7dfb48	-0.06200722
19	0x3d63cc3a	0.055614688
20	0x3c8ffe9e	0.017577466
21	0xbd8de3c3	-0.06928208
22	0xbd6c359f	-0.057668325
23	0x3d479e5e	0.048735015
24	0x3ca39f2e	0.019973364
25	0xbd9d31f0	-0.076755404
26	0xbda33147	-0.07968383
27	0xbc71f0ab	-0.014766852
28	0xbd8d4712	-0.06898321
29	0x3d8b32ab	0.067967735
30	0x3d8da90a	0.06917007
31	0x3d7c7eb9	0.06164429
32	0xbcfa08e1	-0.030521812
33	0xbcf1d360	-0.029519737
34	0x3c43c6cc	0.011949252
35	0x3d8b48d9	0.06801004
36	0xbd3bb885	-0.04583027
37	0x3d7ccaf6	0.061716996
38	0x3d66e1ba	0.056367613
39	0x3da350e5	0.07974414
40	0xbcbd6054	-0.023117222
41	0xbc130cc1	-0.008975209
42	0xbd8881c8	-0.06665379
43	0xbd5aaebe	-0.053389303
44	0x3d76303e	0.0601046
45	0x3da51ac5	0.080617465
46	0x3cd4672b	0.0259281
47	0xbd6fce1e	-0.058546178
48	0xbd667402	-0.056262977
49	0xbd84297c	-0.06453225
50	0xbd48ce40	-0.04902482
51	0xbda87a2e	-0.08226429
52	0x3d79e8b4	0.06101294
53	0xbcc7281a	-0.024311114
54	0x3d232cd3	0.03983767
55	0x39d6dd2a	0.0004098204
56	0x3d96fb43	0.07372143
57	0x3d81d6a8	0.063397706
58	0x3da5b6c8	0.080915034
59	0x3d76867b	0.060186844
60	0x3cb23644	0.021754391
61	0xbc5cf349	-0.013485738
62	0x3d8d096d	0.068865635
63	0xbdac5d13	-0.0841619
64	0xbd5d65d0	-0.054052174
65	0xbd96e3b4	-0.0736765
66	0x3d6372ac	0.05552928
67	0x3d85be51	0.065304406
68	0xbbe4a783	-0.0069779768
69	0x3d858474	0.06519404
70	0xbd06fc23	-0.0329553
71	0xbdae95a4	-0.085246354
72	0xbcfd4831	-0.030918213
73	0x3cb427f8	0.021991715
74	0x3d34e9e0	0.044168353
75	0x3d87f960	0.066393614
76	0xbda28f83	-0.07937529
77	0x3c974d08	0.018469349
78	0xbc1c8867	-0.009554005
79	0xbc5c96e0	-0.013463706
80	0x3c051fe3	0.008125278
81	0x3ca03544	0.019556649
82	0xbd9d6541	-0.07685328
83	0x3d5d1bb2	0.05398149
84	0x3d8f8956	0.070086166
85	0xbcf44e60	-0.029822528
86	0x3d5dd44e	0.054157548
87	0x3d198598	0.03748092
88	0xbd8aaa7e	-0.067708
89	0x3d633b4e	0.05547648
90	0x3dac7f5f	0.084227316
91	0xbda9740d	-0.08274088
92	0xbc0c6e59	-0.008571231
93	0x3ccbfac5	0.02489985
94	0x3c0828f8	0.008310549
95	0x3ca8c1c8	0.020600215
96	0x3d7ecd4b	0.0622075
97	0x3d880123	0.06640842
98	0xbce13242	-0.027489785
99	0xbc387fa3	-0.0112609
100	0x3d86ea11	0.065876134
101	0x3ce69b74	0.028150298
102	0x3d8e8103	0.06958201
103	0xbd1e1ec8	-0.038603574
104	0x3d89e3c8	0.06732899
105	0xbda17e95	-0.07885472
106	0x3c85c123	0.016327446
107	0x3daa7943	0.0832391
108	0xbd47e826	-0.04880538
109	0x3da405d8	0.08008927
110	0xbc2c9910	-0.01053454
111	0x3d32054a	0.043462075
112	0xbd89a98d	-0.06721792
113	0xbbea1b00	-0.007144332
114	0xbd9f7052	-0.07785095
115	0xbc6d8405	-0.014496808
116	0xbdb261b0	-0.08710039
117	0xbdb2da4d	-0.08733044
118	0x3d703966	0.05864849
119	0xbd90bde8	-0.07067472
120	0xbbd2b8b3	-0.0064307093
121	0xbc5eb2bd	-0.013592419
122	0xbd508baa	-0.050914444
123	0xbc296048	-0.010337897
124	0x3ce3623a	0.027756799
125	0xbd25710b	-0.04039101
126	0x3d80388d	0.06260786
127	0xbda789b7	-0.08180564
128	0xbe2019a5	-0.15634783
129	0x3d081f37	0.033232894
130	0xbde720af	-0.11285531
131	0x3d9e8b46	0.07741408
132	0x3e03b708	0.1286279
133	0xbc1ee098	-0.009697102
134	0xbd21916c	-0.039445326
135	0x3d795c45	0.06087901
136	0xbd752c03	-0.059856426
137	0xbd2fe7b5	-0.042945582
138	0xbbfa606f	-0.0076408903
139	0xbd86482c	-0.065567344
140	0xbd61e06a	-0.05514566
141	0xbac144ec	-0.0014745272
142	0x3d801213	0.062534474
143	0xbd8a8b6f	-0.06764876
144	0xbd33dfc2	-0.043914564
145	0xbd2cc3ed	-0.042179037
146	0xbd650f57	-0.055922832
147	0xbd8b363c	-0.06797454
148	0x3db724f6	0.089425966
149	0x3dede7d6	0.11616485
150	0xbdb8a2fe	-0.09015463
151	0x3b85f8c2	0.004088492
152	0x3d98875f	0.07447695
153	0x3db29788	0.087203085
154	0x3d311387	0.043231513
155	0xbd122a48	-0.035684854
156	0xbd951fee	-0.07281481
157	0xbd3ccf30	-0.046096027
158	0x3d68a451	0.05679733
159	0x3d0a0446	0.03369548
160	0x3ca5e9ec	0.020253144
161	0xbc1c7340	-0.009548962
162	0x3d378b1a	0.044810392
163	0xbd68c87f	-0.056831833
164	0x3da2d5c2	0.07950927
165	0xbd17d24e	-0.037065797
166	0xbc807400	-0.015680313
167	0x3c4ae987	0.012384779
168	0xbd82d566	-0.06388359
169	0xbc321001	-0.010868073
170	0x3d1af18c	0.037828013
171	0x3bcabfe8	0.006187428
172	0xbcc8b6b0	-0.024501175
173	0x3dec2c56	0.11531894
174	0xbd13d5a9	-0.036092434
175	0xbd3038fc	-0.043023095
176	0x3d09b273	0.033617448
177	0xbd7d3c68	-0.061825186
178	0x3b43b1ed	0.002986069
179	0xbe88e478	-0.26736808
180	0x3dc78427	0.09742003
181	0xbd00c86d	-0.03144114
182	0xbd79e560	-0.061009765
183	0x3d99d00c	0.07510385
184	0x3d4ac171	0.049500886
185	0xbd4b38ae	-0.0496146
186	0x3ddbc615	0.107311405
187	0x3d42c816	0.047554098
188	0xbd586e22	-0.052839406
189	0xbdaccd41	-0.084375866
190	0xbda02e18	-0.07821292
191	0x3dc388ea	0.09547599
192	0x3c9b0a3d	0.01892578
193	0x3deeb522	0.11655642
194	0xbd52bb2f	-0.051448043
195	0xbcbc65b9	-0.022997724
196	0x3d07138d	0.03297763
197	0x3d01f731	0.03172988
198	0x3d27814f	0.040894803
199	0x3d66503a	0.056228854
200	0x3cc34015	0.023834268
201	0xbcf763c2	-0.030198935
202	0x3d63548d	0.055500556
203	0xbd55d6eb	-0.052206915
204	0xbd9f3fc5	-0.07775835
205	0x3d9e1541	0.077188976
206	0x3d4b131b	0.049578767
207	0x3da312e5	0.07962588
208	0x3d26a539	0.040684912
209	0x3d8a9d4d	0.06768284
210	0xbd5ec7cc	-0.05438976
211	0x3d86fd67	0.065913014
212	0x3d3fae83	0.046797287
213	0xbd2d0983	-0.0422454
214	0x3da26a44	0.07930425
215	0x3c5237cf	0.012830689
216	0x3d999a81	0.075001724
217	0x3d9b011e	0.075685725
218	0xbd23cbe2	-0.03998936
219	0x3cd814d6	0.026377123
220	0xbd5e2cc5	-0.054241914
221	0xbe67baba	-0.22629824
222	0xbd9b8693	-0.07594027
223	0xbd8a0d51	-0.06740821
224	0x3d6300ff	0.05542087
225	0xbb8ce883	-0.0043001785
226	0x3df743a4	0.12073448
227	0xbcd4a07f	-0.025955437
228	0x3d2ef64a	0.04271535
229	0x3c8233d0	0.015893847
230	0x3d94a069	0.07257158
231	0xbb25fccb	-0.0025327678
232	0x3d30a202	0.043123253
233	0x3dc3f931	0.09569014
234	0x3d9664e8	0.07343465
235	0x3d2cd85e	0.04219853
236	0x3d78aefd	0.060713757
237	0xbcb55e9e	-0.022139844
238	0xbc97869f	-0.01849681
239	0xbc8725f7	-0.016497595
240	0xbd928dd2	-0.07155956
241	0xbdb13233	-0.08652153
242	0x3c6eae7f	0.01456797
243	0x3d034aaa	0.032053627
244	0xba50dc5b	-0.0007967406
245	0xbb7e6ae0	-0.0038821027
246	0x3d2158b4	0.039391235
247	0x3db4a4f1	0.088205226
248	0xbd3467b5	-0.044044215
249	0x3d0356ee	0.032065324
250	0xbc853222	-0.016259257
251	0x3ca80aef	0.020513026
252	0xbce81dd6	-0.02833454
253	0xbd033b03	-0.0320387
254	0xbcd6ced8	-0.026221678
255	0x3cfa2ade	0.030538019

hidden.1.bias f4 [128]
0	0xbda64ab5	-0.08119718
1	0x3d569792	0.052390642
2	0xbd9a315f	-0.07528948
3	0x3dd10bed	0.10207353
4	0x3b60b912	0.0034289998
5	0x3c9c063b	0.01904594
6	0x3db6a23c	0.089176625
7	0xbd4a25b7	-0.049352374
8	0x3d4d3926	0.05010333
9	0xbc2549a0	-0.010088354
10	0xbd53ff2b	-0.05175702
11	0x3e355bdd	0.17710824
12	0x3d0e6b7d	0.034770478
13	0xbca9fbf0	-0.020750016
14	0x3d01fd6b	0.03173582
15	0x3c8cecdc	0.017202787
16	0x3bdaec89	0.006681029
17	0xbd98576d	-0.0743855
18	0x3c1aab12	0.0094402
19	0xbbe61788	-0.007021848
20	0xbd276497	-0.040867414
21	0xbd0d8bf7	-0.03455731
22	0x3dd36596	0.1032211
23	0xbc5cedca	-0.013484428
24	0x3d4ef225	0.050523896
25	0x3db49f5e	0.088194594
26	0x3ce04300	0.027375698
27	0xbda68eff	-0.08132743
28	0xbd8819da	-0.06645556
29	0xbd8a335e	-0.06748079
30	0xbcb1dcc3	-0.021711713
31	0x3d85a4ab	0.065255485
32	0xbd98f841	-0.07469226
33	0xbc283075	-0.010265459
34	0xbd9a1684	-0.07523826
35	0x3d04efed	0.032455374
36	0xbd5f4b75	-0.05451532
37	0x3e0698dd	0.1314425
38	0x3d49f06a	0.049301542
39	0x3c6a231a	0.014290595
40	0x3ce5cde6	0.028052282
41	0x3c506a52	0.012720661
42	0xb960c000	-0.0002143383
43	0x3da96ba9	0.08272488
44	0x3d89f3d6	0.06735961
45	0x3cbc7e4b	0.02300944
46	0xbd626f86	-0.05528214
47	0x3d274e3c	0.040846094
48	0x3c88a1fa	0.016678799
49	0xb9042600	-0.00012602657
50	0xbcc721e4	-0.024308152
51	0x3c9df848	0.019283429
52	0x3d323af4	0.043513253
53	0xbd2e6b30	-0.04258269
54	0x3dca90f3	0.09890928
55	0x3ce2b595	0.027674476
56	0xbc4fee24	-0.0126910545
57	0x3dd98b13	0.106222294
58	0xbd12054f	-0.035649594
59	0xbcf84686	-0.030307066
60	0x3d07e8d0	0.03318101
61	0xbd4bed24	-0.0497867
62	0x3d933bed	0.07189164
63	0xbd34cd1d	-0.044140924
64	0xbdb35066	-0.08755569
65	0x3df16e6e	0.11788641
66	0xbd68c71a	-0.056830503
67	0xbc3cca21	-0.011522801
68	0xbd0fba80	-0.03508997
69	0x3d598901	0.053109173
70	0x3d8ef969	0.06981165
71	0x3dc6d99a	0.09709473
72	0xbd1f985a	-0.038963653
73	0x3d8afbb4	0.0678629
74	0xbd1fee8f	-0.039045867
75	0xbc9b20ae	-0.018936481
76	0x3d213015	0.039352495
77	0xbda514fe	-0.080606446
78	0x3bb6e840	0.0055818856
79	0xbda6cdb4	-0.081447035
80	0xbd365e78	-0.044523686
81	0xbd9854c9	-0.074380465
82	0xbd98195a	-0.074267104
83	0x3d2812ae	0.04103344
84	0x3d1f3c09	0.038875613
85	0x3ad21f86	0.0016031123
86	0x3be9966d	0.007128528
87	0x3b4f5e81	0.0031642022
88	0x3d58ff92	0.052978106
89	0x3d9fc19f	0.07800602
90	0x3d10c0f5	0.03534027
91	0x3d7c23d7	0.061557617
92	0xbcef2bf3	-0.029195761
93	0xbc98c8c2	-0.018650416
94	0x3dcf779e	0.10130237
95	0x3d81d563	0.063395284
96	0xbd3eb28a	-0.046556987
97	0x3c77a097	0.015113971
98	0x3dc393bf	0.09549665
99	0x3bb926fd	0.0056503997
100	0xbdb2a49d	-0.08722804
101	0x3d88d3d6	0.066810295
102	0xbd91b44d	-0.07114468
103	0xbd43de92	-0.04781968
104	0x3d0a59a9	0.033776913
105	0x3d88e43b	0.066841565
106	0xbcdab063	-0.026695436
107	0x3e03ab79	0.1285838
108	0x3cc3d57f	0.023905514
109	0x3d095776	0.033530675
110	0xbbe459e0	-0.0069687217
111	0x3da3e945	0.08003477
112	0xbb9d9095	-0.0048084953
113	0xbd38b607	-0.04509547
114	0xb808e800	-3.2640994e-05
115	0x3dc8fbbe	0.09813641
116	0x3c8c5523	0.01713044
117	0x3c837e26	0.016051363
118	0xbd6861bd	-0.056733835
119	0xbd9d73a5	-0.07688073
120	0x3e045691	0.12923647
121	0xbac92d86	-0.001534865
122	0xbb7a174b	-0.0038160856
123	0x3d602ad9	0.054728363
124	0x3d68223f	0.056673285
125	0x3ce6351c	0.028101496
126	0xbdfa0d21	-0.122095354
127	0xbc8c8a84	-0.017155893

v.weight f4 [1, 128]
0	0xbcb9a984	-0.02266384
1	0xbef48955	-0.47761026
2	0x3e195928	0.14975417
3	0xbea65c5d	-0.32492343
4	0xbe8c0621	-0.27348426
5	0xbe988179	-0.2978628
6	0x3d8d0685	0.06886009
7	0x3bec8882	0.0072184214
8	0xbb082fd4	-0.002078046
9	0x3caaec56	0.020864647
10	0xbc621f96	-0.013801476
11	0xbf1ff546	-0.6248363
12	0x3d287411	0.041126315
13	0xbee314aa	-0.44351703
14	0xbd15cad7	-0.036570396
15	0xbed82449	-0.42215183
16	0xbeb3bfa4	-0.35107148
17	0x3ce16674	0.027514674
18	0x3db5330e	0.088476285
19	0xbee03d12	-0.43796593
20	0xbc2afef5	-0.010436763
21	0x3d9dab49	0.07698686
22	0x3da8780d	0.08226023
23	0x3f017a3e	0.5057715
24	0xbd5cb9d9	-0.053888176
25	0xbec1c9f8	-0.37849402
26	0x3d8d06a6	0.06886034
27	0xbd906617	-0.07050722
28	0x3cc0af04	0.023520954
29	0xbd2dcfd2	-0.04243452
30	0x3e4d53fe	0.20051572
31	0xbd4dcf11	-0.050246302
32	0x3d3eb2de	0.0465573
33	0x3db2d17e	0.08731364
34	0x3d7b96b4	0.06142302
35	0xbd8d5a41	-0.0690198
36	0x3d34fc42	0.044185884
37	0xbf1da022	-0.6157247
38	0x3d1e1d09	0.03860191
39	0x3d891016	0.06692521
40	0x3d8d9248	0.069126666
41	0x3d42852e	0.04749029
42	0x3c0bdfc0	0.008537233
43	0xbed11165	-0.40833583
44	0x3c979e13	0.018507993
45	0x3d8e79c6	0.0695682
46	0x3e967cc3	0.2939206
47	0xbe8beee3	-0.27330694
48	0x3e355f06	0.1771203
49	0xbc45ef70	-0.012081012
50	0x3ca379ff	0.019955633
51	0xbda466fe	-0.08027457
52	0xbe74b43e	-0.23896882
53	0x3cfcd1b9	0.030861722
54	0xbee6e4cb	-0.4509643
55	0x3e66d9bb	0.22543995
56	0xbf23bc9a	-0.6395966
57	0xbf03f9c9	-0.51553017
58	0x3d679b22	0.05654443
59	0xbe83c966	-0.25739592
60	0x3bd7e6db	0.0065887994
61	0x3d013c60	0.03155172
62	0xbe75ce1b	-0.24004404
63	0xbe0a8cc1	-0.13530256
64	0xbc000834	-0.007814456
65	0xbeea1c98	-0.4572494
66	0xbe0fe312	-0.14051464
67	0xbd2926e0	-0.04129684
68	0x3cc0a19c	0.023514561
69	0xbf26d6fa	-0.6517178
70	0x3cc28f9b	0.023750117
71	0xbf28eb2b	-0.6598384
72	0x3cc8863c	0.02447807
73	0xbf6d7b09	-0.9276586
74	0x3ec1c4b5	0.37845388
75	0x3dc39a3d	0.09550903
76	0xbd998ceb	-0.07497581
77	0x3d855b47	0.065115504
78	0x3e532d95	0.20622857
79	0x3e001ed9	0.12511767
80	0xbcbe9b1b	-0.02326732
81	0xbd64c4d7	-0.055851784
82	0xbd8271c3	-0.063693546
83	0xbf1e9e4b	-0.61960286
84	0xbf167fc7	-0.5878872
85	0xbd1d7eb3	-0.038450908
86	0x3c6018cc	0.013677787
87	0xbf3ccc09	-0.7374883
88	0xbe6d1e0e	-0.23155996
89	0xbc96ba00	-0.018399239
90	0xbe05ce17	-0.13066898
91	0x3d3fc29f	0.046816465
92	0x3d8b785d	0.06810067
93	0x3da1e4b3	0.07904949
94	0xbf3fa67c	-0.7486341
95	0xbf1953d8	-0.5989356
96	0x3d2d03ce	0.042239957
97	0xbe89fc83	-0.26950464
98	0xbf0b3ce0	-0.5438976
99	0xbcfe60c4	-0.031052
100	0x3d8edebe	0.069760785
101	0xbd1af73a	-0.03783343
102	0xbd97664c	-0.073925585
103	0xbe1b787e	-0.15182683
104	0xbed7a742	-0.42119795
105	0x3d1d2ae0	0.038370967
106	0xbd37f199	-0.04490814
107	0xbf4b241f	-0.7935199
108	0xbc012017	-0.007881186
109	0x3cccb329	0.024987774
110	0xbd59646a	-0.053074278
111	0xbdc7445a	-0.09729834
112	0x3c4c7598	0.012479208
113	0xbd82c456	-0.06385104
114	0x3c48b4c0	0.012250125
115	0xbdb084cf	-0.08619081
116	0xbc2f36d7	-0.010694227
117	0xbe93ed0b	-0.28891787
118	0x3da79180	0.08182049
119	0xbd4b58f2	-0.04964537
120	0xbe98d364	-0.29848778
121	0x3d5372b6	0.05162307
122	0xbe92c551	-0.28666165
123	0x3c9881ef	0.018616645
124	0xbf4db49c	-0.80353713
125	0xbd9fcae9	-0.07802374
126	0x3ebabdc3	0.36472902
127	0xbd15bc4e	-0.036556534

adv.weight f4 [20, 128]
0	0xbd1b0dea	-0.037855066
1	0x3da5bdc2	0.08092834
2	0xbc687ddf	-0.014190166
3	0xbdc7ca7f	-0.0975542
4	0x3dcae155	0.0990626
5	0xb7f4c9fd	-2.9181125e-05
6	0xbd93cc55	-0.072167076
7	0xbda69575	-0.081339754
8	0x3d6bd0b5	0.057572085
9	0xbd458ae5	-0.048228163
10	0x3d37589c	0.04476224
11	0x3d78e18e	0.06076198
12	0xbd0c4eef	-0.034254964
13	0xbdd1944a	-0.10233362
14	0xbabbcd5b	-0.0014328168
15	0xbd1191ae	-0.03553932
16	0x3e234fb2	0.1594837
17	0xbd76afcb	-0.060226243
18	0x3d8fd52d	0.07023082
19	0x3d8af46f	0.06784903
20	0x3e2e3d52	0.1701558
21	0xbd5ce125	-0.053925652
22	0x3dd7fa7f	0.10545825
23	0xbda55be8	-0.0807417
24	0xbd0d24da	-0.034458973
25	0x3d739c23	0.059475075
26	0x3d9ca1e1	0.076480635
27	0x3d48309e	0.04887449
28	0x3d67a292	0.056551524
29	0xbdacd45b	-0.08438941
30	0xbc4b89b8	-0.012422971
31	0x3d82848c	0.063729376
32	0xbd2af11d	-0.04173385
33	0xbcf10509	-0.029421346
34	0x3daf4fbf	0.08560132
35	0xbb899e30	-0.0041997656
36	0xbc92b092	-0.01790646
37	0xbd83f18f	-0.06442558
38	0xbca8c76d	-0.020602906
39	0x3d0650b3	0.032791805
40	0x3db04e9a	0.08608742
41	0x3cd1dc4e	0.025617745
42	0x3acd0280	0.0015641004
43	0xbd464dbf	-0.04841399
44	0x3d0fc5cc	0.035100743
45	0x3d7cef15	0.061751444
46	0x3c97a1b3	0.018509721
47	0x3c0d7765	0.008634423
48	0xbc909cff	-0.017652987
49	0x3d8b7121	0.06808687
50	0x3cba0d41	0.022711398
51	0x3d4e971f	0.05043709
52	0x3da8cc04	0.08242038
53	0x3a226865	0.00061953656
54	0x3dd0b435	0.10190622
55	0x3d073dc6	0.033017896
56	0x3d5dfde5	0.05419721
57	0x3cf632e0	0.030053556
58	0xbdab615a	-0.08368178
59	0x3df92f11	0.1216718
60	0x3db44ac9	0.08803327
61	0x3d8a2731	0.067457564
62	0xbdf711e0	-0.12063956
63	0x3cd35b0d	0.025800252
64	0x3d78c143	0.060731184
65	0xbd6551e7	-0.05598631
66	0xbda5d61a	-0.08097477
67	0x3c25d427	0.010121382
68	0xbd1cbf42	-0.038268335
69	0x3dbb4b25	0.09145192
70	0x3d2687d3	0.040656876
71	0x3dc5939e	0.09647296
72	0xbda4d8d3	-0.080491684
73	0xbe08febc	-0.13378423
74	0x3bb80d53	0.0056168227
75	0x3d94de4c	0.07268962
76	0xbd67fcd2	-0.056637593
77	0xbc842a04	-0.016133316
78	0x3c0ae5f3	0.008477676
79	0xbcedbd49	-0.029020922
80	0xbdb25593	-0.08707728
81	0xbd9ba435	-0.075996794
82	0xbda707d0	-0.08155787
83	0xbb191099	-0.002335584
84	0x39a6f943	0.00031847702
85	0x3ca82cb7	0.020529134
86	0x3ba50c80	0.0050368905
87	0x3ddee8a7	0.10884219
88	0xbdc68eec	-0.09695229
89	0xbd8d4d03	-0.068994544
90	0x3c6fa946	0.01462776
91	0xbd5fade1	-0.054609183
92	0xbdb0c12e	-0.08630596
93	0xbdada7cf	-0.084792726
94	0xbe01cd38	-0.12675941
95	0xbd9b7d69	-0.075922795
96	0xbd9eeac7	-0.07759624
97	0x3d97cce9	0.074121304
98	0xbcc5edf2	-0.024161313
99	0xbc86f790	-0.016475469
100	0x3d512a4c	0.051065728
101	0x3d7954a6	0.060871743
102	0xbd97aa73	-0.074055575
103	0xbb8b4d17	-0.004251133
104	0x3d984f60	0.074370146
105	0x3c71f14d	0.014767003
106	0x3dba35f7	0.09092324
107	0x3b277c17	0.002555614
108	0xbdb37d24	-0.08764103
109	0x3d93dec6	0.07220225
110	0x3dbe5e58	0.092953384
111	0xbd11c3ca	-0.03558711
112	0xbc73a940	-0.014871895
113	0xbd88105c	-0.06643745
114	0xbc93e3fc	-0.018053047
115	0x3de7df6e	0.11321913
116	0x3c9a0eeb	0.018805942
117	0xbd2905eb	-0.04126541
118	0xbd88b8ba	-0.06675859
119	0x3d61cb0e	0.05512529
120	0x3a4199ab	0.0007385264
121	0x3cf83845	0.030300269
122	0xbda31baa	-0.07964261
123	0xbdaeec83	-0.08541205
124	0x3e0984b3	0.13429527
125	0xbd1db9ca	-0.03850726
126	0x3d8a121a	0.06741734
127	0xbd902bed	-0.07039628
128	0xbd016208	-0.03158763
129	0x3d74681e	0.059669606
130	0x3de4aad5	0.11165396
131	0xbcc1d91c	-0.023663096
132	0x3a20c55e	0.00061329256
133	0xbde4d448	-0.11173302
134	0x3b6e24ae	0.003633778
135	0xbd1af8dd	-0.03783499
136	0x3c26adc6	0.010173267
137	0x3cc616d9	0.024180816
138	0x39ad1c25	0.000330181
139	0x3d6ca3a8	0.057773262
140	0x3d6b46e3	0.05744065
141	0xbda2b78c	-0.07945165
142	0x3d81cf7e	0.06338404
143	0x3d69643d	0.05698036
144	0xbda2412f	-0.07922589
145	0x3d5599c2	0.052148588
146	0xbb2cd11c	-0.0026369756
147	0x3d00cbdf	0.031444427
148	0xbdf430fb	-0.11923405
149	0xbc9e3d80	-0.019316435
150	0x3d10d9a9	0.035363827
151	0x3dac1077	0.08401578
152	0xbc96884f	-0.018375544
153	0xbdae3b63	-0.08507421
154	0xbce306d0	-0.02771321
155	0x3d8ae6c5	0.06782297
156	0xbc734ed4	-0.014850337
157	0x3da63ea1	0.08117414
158	0x3d5e7366	0.05430927
159	0x3d7e3479	0.06206176
160	0x3d459152	0.04823429
161	0x3d8868f1	0.06660641
162	0x3ceadfe7	0.028671218
163	0xbb41d124	-0.002957412
164	0x3d8a518f	0.06753837
165	0xbca0c73d	-0.019626254
166	0x3db438b7	0.0879988
167	0x3d72e46f	0.059299883
168	0x3d49a664	0.049230948
169	0xbd7809a7	-0.06055608
170	0xbcb9f03c	-0.02269756
171	0x3d174d2f	0.036938842
172	0xbd750f79	-0.05982921
173	0xbda0cb4d	-0.078512765
174	0xbcbf32af	-0.023339598
175	0xbd604e76	-0.054762326
176	0xbdb5a5b7	-0.08869498
177	0xbd08af4d	-0.033370305
178	0x3c7202b0	0.014771149
179	0xbd514748	-0.05109337
180	0xbd34f486	-0.04417851
181	0xbc4775d4	-0.0121740885
182	0x3d27b24f	0.040941533
183	0x3c451dda	0.012031043
184	0x3c83f7ef	0.016109435
185	0xbd31530a	-0.043292083
186	0x3d8e08ff	0.069353096
187	0xbdb474a5	-0.08811311
188	0xbd86d420	-0.065834284
189	0xbcec0bbc	-0.02881419
190	0x3d2cb022	0.04216016
191	0x3cafb47d	0.021448368
192	0x3b748d2b	0.0037315588
193	0x3d00a464	0.031406775
194	0x3d6da2af	0.058016475
195	0xbda1f43b	-0.079079114
196	0x3d55042e	0.05200594
197	0x3c039697	0.008031509
198	0x3d996aa9	0.07491047
199	0x3d38410f	0.04498392
200	0xbcefb6b4	-0.029261924
201	0x3c92aab7	0.017903669
202	0xbda00862	-0.07814099
203	0xbc4a5b85	-0.0123509215
204	0x3d9d7619	0.07688541
205	0x3c8e3224	0.017357893
206	0xbd91454d	-0.07093296
207	0xbde7a198	-0.113101184
208	0x3c9a5995	0.018841544
209	0xbc19a1ce	-0.009376956
210	0xbd25bf7d	-0.04046582
211	0xbd986ec6	-0.07443003
212	0xbdbd09aa	-0.09230359
213	0x3d1842ae	0.037172966
214	0xbce22943	-0.027607566
215	0x3cba6a98	0.022755906
216	0xbbe11e88	-0.0068700947
217	0xbd42935f	-0.047503825
218	0x3d3d6716	0.04624089
219	0xbb0e8cb6	-0.002175135
220	0xbcb88b69	-0.022527413
221	0xbd81d6cb	-0.06339797
222	0x3d32ce2d	0.043653656
223	0x3d509064	0.05091895
224	0xbc0ef136	-0.008724501
225	0x3d521760	0.051291823
226	0x3d212a7b	0.039347153
227	0xbd806b4f	-0.062704675
228	0x3d20afa9	0.039230023
229	0x3cceec44	0.025259145
230	0xbd094ea2	-0.033522256
231	0xbc764bec	-0.01503275
232	0x3d8c7649	0.068584986
233	0xbca1c092	-0.019745145
234	0x3d1d2885	0.03836872
235	0xbce9111a	-0.028450537
236	0x3dad0191	0.084475644
237	0x3ca55fb8	0.020187244
238	0x3da2fd30	0.07958448
239	0xbc2258f9	-0.009908908
240	0xbd2fca21	-0.042917375
241	0x3d667bc0	0.05627036
242	0xbd41cc6f	-0.047314104
243	0xbd455cde	-0.04818427
244	0xbd2705c4	-0.040776983
245	0xbd81d083	-0.063385986
246	0x3c52cbdd	0.012865988
247	0xbd0992e1	-0.03358734
248	0x3c636b62	0.0138805825
249	0xbca46bf6	-0.020071011
250	0x3d1c7c22	0.03820432
251	0x3dc4ae82	0.09603597
252	0xbd935c68	-0.071953595
253	0xbc4ce582	-0.012505891
254	0xbd0a2756	-0.03372892
255	0xbd777f1d	-0.06042396

adv.bias f4 [20]
0	0xbc293301	-0.010327102
1	0x3d545631	0.05184001
2	0xbd88aa2a	-0.06673081
3	0x3df3869f	0.11890911
4	0xbcdc5a78	-0.026898608
5	0x3d8e9452	0.069618836
6	0xbd95b20b	-0.073093496
7	0x3d26ea25	0.04075064
8	0xbcbeb6f9	-0.023280608
9	0x3d821976	0.063525125
10	0x3cb8da83	0.022565132
11	0x3dcb9faa	0.09942563
12	0xbdeaf7e7	-0.11473065
13	0x3dff3a94	0.12462345
14	0x3dcfa921	0.10139681
15	0x3cb0c292	0.021577153
16	0xbdff51ad	-0.1246675
17	0x3cfaa92f	0.030598251
18	0xbcb654f8	-0.022257313
19	0x3da5e135	0.080995955
