DDQN/radiiResults/10cyl_2000epsDecay_10outercylAt3.5Radii/Qtarget800.pt (torch, 158783 bytes, 9 tensors)

fc.weight f4 [128, 23]
-0.2025819 -0.029408213 -0.17363809 0.15948303 -0.17154863 -0.077322215 0.107170306 -0.115712516
-0.11653523 0.19514392 0.01879269 -0.019271053 -0.17604887 0.17160432 -0.16053942 0.21032646
-0.069843546 0.064931765 0.055406254 -0.0045111952 -0.051333472 -0.16358046 0.18197346 0.084080204
-0.16030715 -0.1995631 0.1984244 0.1631291 -0.12361856 -0.11940057 -0.07226528 -0.09861915
-0.039477274 -0.00925746 -0.09157082 -0.11117947 0.080963224 -0.11272184 0.06624826 0.19357845
0.016600944 0.120614596 -0.16932689 0.06525952 -0.16835079 -0.19783944 -0.17421974 -0.11297469
-0.11679117 -0.16065574 -0.12458998 -0.21115042 -0.10074593 0.06701095 -0.23412259 0.057132885
0.06933336 0.033905048 0.14480485 -0.014554132 -0.050191224 0.22821535 0.15192525 -0.012069685
0.19256356 -0.10501623 0.1926541 0.18708253 -0.10351531 -0.12760647 -0.07458601 -0.111219674
0.052727826 0.009680815 -0.034872483 0.1824118 0.15026253 0.18923077 -0.15979157 0.009993078
-0.065499276 0.117239065 -0.22935316 0.04814015 -0.19542788 0.06526575 0.14124325 0.06294002
0.057683624 -0.007204359 -0.21326593 -0.08305008 0.073054746 0.082963176 -0.09009247 0.11305599
-0.15904397 -0.08108883 0.033692572 0.13429888 0.084582224 -0.12880538 -0.17421971 0.0026572086
-0.08143069 0.041672926 0.073310055 -0.0029044657 -0.044349644 -0.1384502 0.11670765 0.09401256
0.082230344 -0.13056876 0.1032946 -0.07230852 0.07559616 0.058481295 -0.07449167 0.06581922
0.11193556 0.08852155 0.086771324 0.18536073 -0.053827725 -0.022777105 -0.021846808 -0.0075619775
-0.093835264 0.087526195 0.091874726 -0.038707573 -0.14549118 -0.07163712 0.20425864 0.11898271
0.025478011 -0.2446814 -0.078638844 -0.04401205 -0.06178554 -0.12368513 -0.10551244 0.2018138
0.021241177 -0.006333775 0.17143431 0.1844888 -0.09611435 0.043717623 0.08255645 0.04737662
-0.16454668 0.07415861 0.08590492 -0.11366678 -0.093201116 0.17593296 0.17093694 0.026715115
0.12430228 -0.1510195 0.107489526 0.1267236 0.013798943 0.18472736 0.045049038 0.10202859
0.07166362 0.05369587 -0.116055116 -0.108954236 0.064479314 0.11903879 0.013177324 -0.022257922
-0.19103262 -0.035904046 0.19780737 0.07718825 -0.14782625 -0.082261406 0.14875856 -0.16779073
0.080668435 0.027033262 -0.043912258 0.049272407 -0.09269326 0.01563472 0.006375528 0.026018476
-0.20327005 0.1453436 0.062300477 0.03394094 -0.16786043 -0.02009061 0.013555131 0.0058851875
0.047520425 -0.05692402 -0.17744718 0.128668 0.03261697 0.015277733 -0.19124258 0.009964647
0.19369142 -0.16455136 -0.14839743 -0.1504219 -0.031000495 -0.1975967 -0.07398977 -0.21874277
0.23369965 0.16417164 0.16504633 -0.07632647 0.15831402 -0.14026727 -0.1917965 0.14101084
0.1805323 0.15537599 -0.05084155 0.07156378 0.016204579 -0.06122723 0.027814269 0.08878024
-0.016381904 -0.067741916 -0.014764503 -0.12424112 -0.07494618 -0.017074823 0.0682586 -0.11526084
-0.014080122 -0.18374994 -0.1176541 0.084823206 -0.091811225 -0.13908744 -0.10910059 -0.008335248
-0.047320932 -0.14335425 -0.04727249 0.2040986 -0.044860855 0.0723123 0.10285414 -0.08881658
00000000: a171 4fbe 7ee9 f0bc 2fce 31be 854f 233e
00000010: 72aa 2fbe 1c5b 9ebd 1b7c db3d affa ecbd
00000020: 06aa eebd cfd3 473e 21f3 993c 54de 9dbc
00000030: 2846 34be 0bb9 2f3e 7264 24be d25f 573e
00000040: 220a 8fbd f2fa 843d abf1 623d a6d2 93bb
00000050: 0c43 52bd a381 27be 4057 3a3e 3e32 ac3d
00000060: 8f27 24be 455a 4cbe c42f 4b3e 510b 273e
00000070: ba2b fdbd 4988 f4bd d2ff 93bd d6f8 c9bd
00000080: ecb2 21bd 9aac 17bc 7b89 bbbd 10b2 e3bd
00000090: 0cd0 a53d b5da e6bd 2bad 873d 6e39 463e
000000a0: b4fe 873c c904 f73d 0764 2dbe c9a6 853d
000000b0: 2664 2cbe 6c96 4abe a966 32be 465f e7bd
000000c0: 3530 efbd f082 24be 0829 ffbd d137 58be
000000d0: e253 cebd 093d 893d d5bd 6fbe 2c04 6a3d
000000e0: a6fe 8d3d 05e0 0a3d b947 143e 7474 6ebc
000000f0: 5095 4dbd 49b1 693e 4b92 1b3e eebf 45bc
00000100: 622f 453e c012 d7bd 1e47 453e 9092 3f3e
00000110: d6ff d3bd 45ab 02be 8dc0 98bd 24c7 e3bd
00000120: 22f9 573d 489c 1e3c 73d6 0ebd 29ca 3a3e
00000130: 6cde 193e b6c5 413e 67a0 23be 02ba 233c
00000140: 7c24 86bd 091b f03d 8edb 6abe 9b2e 453d
00000150: 3f1e 48be 0daa 853d 12a2 103e b2e6 803d
00000160: aa45 6c3d 8b12 ecbb 6262 5abe 2916 aabd
00000170: ba9d 953d 99e8 a93d 6782 b8bd e689 e73d
00000180: 6cdc 22be e711 a6bd 3901 0a3d a585 093e
00000190: 7239 ad3d 8fe5 03be a766 32be 9024 2e3b
000001a0: 22c5 a6bd 3bb1 2a3d 9523 963d d958 3ebb
000001b0: f9a7 35bd e4c5 0dbe 6c04 ef3d a889 c03d
000001c0: 6268 a83d d1b3 05be 1f8c d33d 7d16 94bd
000001d0: 29d2 9a3d 158a 6f3d 178f 98bd 3acc 863d
000001e0: 793e e53d c94a b53d 2ab5 b13d 34cf 3d3e
000001f0: 767a 5cbd 0d97 babc 14f8 b2bc 77ca f7bb
00000200: b42c c0bd ef40 b33d d128 bc3d d58b 1ebd
00000210: a4fb 14be 7bb6 92bd 2d29 513e 35ad f33d
00000220: 43b7 d03c c38d 7abe 670d a1bd fb45 34bd
00000230: d612 7dbd a14e fdbd e816 d8bd 47a8 4e3e
00000240: fa01 ae3c 8e8b cfbb 7a8c 2f3e a2ea 3c3e
00000250: 9ad7 c4bd 4011 333d 5b13 a93d fd0d 423d
00000260: ed7e 28be 78e0 973d ebee af3d 21ca e8bd
00000270: 3ae0 bebd c527 343e 180a 2f3e a8d9 da3c
00000280: 3292 fe3d dba4 1abe 7823 dc3d d5c3 013e
00000290: f614 623c 2b29 3d3e 5785 383d 5ef4 d03d
000002a0: 60c4 923d 33f0 5b3d 4eae edbd 6623 dfbd
000002b0: bb0d 843d 9cca f33d b4e5 573c 3f56 b6bc
000002c0: 0e9e 43be 1f10 13bd 048e 4a3e e014 9e3d
000002d0: c45f 17be ab78 a8bd 2a54 183e 55d1 2bbe
000002e0: 7e35 a53d dc74 dd3c 57dd 33bd ddd1 493d
000002f0: f7d5 bdbd 6214 803c cee9 d03b b324 d53c
00000300: 0626 50be f4d4 143e c92e 7f3d a805 0b3d
00000310: 9be3 2bbe 1095 a4bc 5716 5e3c 88d8 c03b
00000320: c7a4 423d 2929 69bd b7b4 35be 8bc1 033e
00000330: 5f99 053d 754f 7a3c 18d5 43be c242 233c
00000340: 0b57 463e 2780 28be 7ff5 17be 3308 1abe
00000350: c0f4 fdbc ca56 4abe f387 97bd 1bfe 5fbe
00000360: f64e 6f3e 9c1c 283e e801 293e 0d51 9cbd
00000370: 121d 223e 39a2 0fbe 4d66 44be 2565 103e
00000380: 76dd 383e e21a 1f3e 3b3f 50bd 0890 923d
00000390: 77bf 843c 67c9 7abd c0da e33c 6ad2 b53d
000003a0: 5833 86bc 46bc 8abd d0e6 71bc 2172 febd
000003b0: 627d 99bd 80e0 8bbc 2acb 8b3d e00d ecbd
000003c0: 50b0 66bc f228 3cbe a2f4 f0bd cab7 ad3d
000003d0: 8607 bcbd f06c 0ebe 2170 dfbd 9090 08bc
000003e0: 98d3 41bd 75cb 12be cca0 41bd 39ff 503e
000003f0: 04c0 37bd 7918 943d 31a5 d23d 78e5 b5bd

fc.bias f4 [128]
0.097074956 0.07694086 0.06197794 -0.05021659 -0.18836129 0.0005639675 0.028695617 0.0351881
-0.011963921 -0.17811704 -0.031904742 -0.20004986 -0.04777727 0.06164399 0.13506274 0.039556522
-0.15168369 -0.08094048 -0.039733496 -0.049582656 0.09957583 0.30520672 -0.07940827 -0.036204454
0.13266994 -0.089197606 -0.070480146 -0.08278953 0.029972717 -0.032949764 -0.20198478 -0.016370598
-0.07574427 -0.18649173 -0.17076547 0.08856551 -0.08649939 -0.12693024 0.06549905 -0.1720945
-0.045729995 -0.056451432 -0.1490616 -0.15847225 -0.07256762 0.07994513 -0.046773292 0.13879767
-0.14121477 0.15055157 -0.017887358 -0.13154499 0.21479474 -0.062201664 -0.14186122 -0.15172058
0.043780312 -0.16903718 -0.05700661 -0.030494832 -0.20072208 0.20689057 0.21605955 -0.053585105
-0.026585355 0.17698799 -0.11475144 0.10786484 -0.13565399 0.21181013 0.10693152 -0.2066175
-0.09456463 -0.06186807 0.018896524 0.10173213 -0.20034456 0.03884626 -0.1331657 -0.044808257
0.11297414 -0.18743835 0.021129742 -0.1446852 -0.025671491 0.10897091 -0.17467849 0.11009489
-0.17191759 -0.015826723 -0.13222261 0.09162019 0.08931768 0.18428193 0.076737314 0.13327059
-0.014363647 -0.19303922 -0.031837225 -0.0005607271 -0.10780439 -9.8502875e-05 -0.14564627 -0.099459484
-0.064968996 -0.18192959 0.13719118 0.0754084 -0.18212102 -0.20822455 0.25982112 -0.1249558
0.21185042 0.001958985 -0.17590217 0.069771655 -0.17727394 -0.141449 0.12026333 0.22402921
-0.016286135 0.03683477 0.079959966 -0.07392223 0.073334135 0.1724835 0.21386644 -0.16801849
00000000: 3ccf c63d 2b93 9d3d 95dc 7d3d e9af 4dbd
00000010: c8e1 40be 38d7 133a 1213 eb3c 6621 103d
00000020: 5204 44bc 5064 36be 8cae 02bd dfd9 4cbe
00000030: 19b2 43bd 697e 7c3d e34d 0a3e 0506 223d
00000040: f852 1bbe 1fc4 a5bd 97bf 22bd 2f17 4bbd
00000050: 6aee cb3d 0e44 9c3e cea0 a2bd 1f4b 14bd
00000060: a1da 073e 3cad b6bd e557 90bd 8f8d a9bd
00000070: 5889 f53c 55f6 06bd 19d5 4ebe a21b 86bc
00000080: d01f 9bbd b0f7 3ebe 25dd 2ebe d661 b53d
00000090: 9826 b1bd 00fa 01be 5e24 863d 8a39 30be
000000a0: 604f 3bbd 9e39 67bd 9ba3 18be 8d46 22be
000000b0: 559e 94bd 46ba a33d 5a95 3fbd fa20 0e3e
000000c0: 9b9a 10be 312a 1a3e 8288 92bc bbb3 06be
000000d0: 27f3 5b3e 2cc7 7ebd 1144 11be a45c 1bbe
000000e0: fc52 333d 1518 2dbe c37f 69bd 4cd0 f9bc
000000f0: 178a 4dbe 1fdb 533e b73e 5d3e 0e7c 5bbd
00000100: 88c9 d9bc 573c 353e ce02 ebbd 3ee8 dc3d
00000110: e1e8 0abe c1e4 583e eafe da3d 8a93 53be
00000120: 1aab c1bd 6069 7dbd e2cc 9a3c ef58 d03d
00000130: 2027 4dbe 421d 1f3d 975c 08be dd88 37bd
00000140: fc5e e73d d7ef 3fbe 4818 ad3c 5b28 14be
00000150: 054d d2bc 242c df3d ebde 32be 6e79 e13d
00000160: 2a0b 30be 0ba7 81bc 5d65 07be 5ea3 bb3d
00000170: 30ec b63d 67b4 3c3e 7428 9d3d 1678 083e
00000180: 8155 6bbc 13ac 45be c067 02bd c2fd 12ba
00000190: 8cc8 dcbd 5493 ceb8 4c24 15be 6ab1 cbbd
000001a0: 770e 85bd c04b 3abe d87b 0c3e b86f 9a3d
000001b0: ef7d 3abe d138 55be 4607 853e d4e8 ffbd
000001c0: 51ef 583e 5162 003b b31f 34be 71e4 8e3d
000001d0: 4d87 35be 02d8 10be 9f4c f63d ea67 653e
000001e0: 806a 85bc 0ee0 163d 0dc2 a33d 8a64 97bd
000001f0: 3530 963d 849f 303e ceff 5a3e 0a0d 2cbe

hidden.0.weight f4 [128, 128]
-0.073290415 0.007718211 -0.043044478 -0.027951907 -0.039675478 -0.120934956 0.07200406 -0.0055165975
-0.015524684 0.021850742 -0.044853423 0.026774306 0.065939255 -0.085675955 -0.04107513 0.018310038
-0.0675693 0.073339045 0.018377805 -0.08201987 0.06109204 -0.049842447 -0.06623559 -0.08038729
-0.0069702803 0.017797083 0.09581198 -0.06959639 -0.067936875 -0.026768425 0.05246119 0.103149444
0.030404259 0.07080107 0.011903599 -0.08344188 -0.06429681 0.101982735 0.07341151 -0.08730986
0.08346244 0.00074264494 -0.056764916 -0.0059404317 -0.075625405 -0.061182808 -0.020543221 -0.068651915
-0.022103881 0.011132052 -0.02563635 0.025303261 -0.11136843 -0.011070585 0.060305335 0.06860888
-0.03058666 -0.0014604573 -0.101855434 0.08298651 0.060754687 -0.08624567 -0.026352197 0.11899822
0.042333208 -0.022468226 0.051758967 0.0069429427 -0.07079732 0.051449433 0.07045501 -0.046823103
0.009039214 -0.06902506 0.027659519 -0.11026658 0.07710048 0.116706826 -0.07955441 0.03399002
0.041300062 -0.040228628 -0.032520108 0.015278496 -0.025759958 0.023790607 0.032360435 0.010434128
0.047182538 0.057652384 -0.050433453 0.08299749 0.040899776 -0.12001392 -0.044147525 0.042024728
0.023321547 0.03929507 -0.048611805 0.08118152 0.010268585 -0.050951198 0.021572128 -0.057399847
-0.084609956 0.11617568 -0.057602555 0.021392057 -0.028427534 -0.04690521 -0.13885769 0.08528746
-0.14385088 0.006905414 0.0842334 -0.04909937 -0.07488063 0.08223928 -0.0005742118 0.02652965
-0.056423154 0.029814975 0.004387309 0.0691859 -0.05712798 -0.0414903 0.10005466 -0.025425054
0.0853996 0.020038303 0.12145674 0.0074892286 0.06742681 -0.052203365 -0.0699357 0.0105919065
0.06788296 0.01163446 0.051998533 0.0104989065 -0.102974 0.05988006 0.008742592 0.043535613
0.015157051 0.073764004 -0.04516585 0.044627454 -0.014395572 0.05492337 0.017883435 0.018374363
-0.037973892 0.016797062 -0.016045364 -0.019833045 -0.032507844 -0.009970413 -0.036202688 0.011157351
-0.037949238 -0.0034874752 0.03829079 0.047451757 0.0757978 0.0002487345 -0.05609148 -0.05668809
0.055470683 -0.0044879573 -0.03887155 0.041408185 0.042934347 -0.00031688064 -0.07061749 -0.043115813
0.060421444 -0.022998136 -0.025372133 0.04126681 0.011647669 -0.10602631 0.060706224 0.033120252
0.04816021 0.077439316 -0.059912685 -0.02687422 -0.04985835 0.06211508 0.015050668 0.03703634
-0.05192774 0.012584849 -0.05073908 0.054365464 0.026288496 0.084250405 0.07230725 0.0454128
0.08566112 -0.04275623 0.0433712 -0.030281562 -0.03983579 -0.069177635 -0.017834194 -0.085561305
0.0925356 -0.021566458 -0.061575577 -0.06273977 0.06783402 0.041770965 0.027080523 -0.016932977
0.082453616 0.006031863 -0.042286567 -0.085531645 0.036371183 -0.053794242 0.06033662 -0.06735992
0.053027887 0.031135552 -0.015305437 0.076841936 0.06872784 0.055307996 0.03166554 -0.0878197
0.047227908 0.018989988 0.060923573 0.09351108 0.00044997782 -0.04685634 0.007870313 -0.009050317
0.006063239 -0.0016923349 0.07570435 0.0072474955 -0.014561601 0.076103784 -0.023496863 0.014300708
-0.05142406 0.011156038 0.07993998 -0.006103715 -0.052547712 0.08143401 -0.021322927 -0.055255234
00000000: 4919 96bd 0ce9 fc3b 684f 30bd 66fb e4bc
00000010: c182 22bd bfac f7bd dd76 933d 93c4 b4bb
00000020: 3f5b 7ebc 5400 b33c 39b8 37bd ca55 db3c
00000030: 290b 873d e076 afbd 653e 28bd effe 953c
00000040: c661 8abd c832 963d 0d8d 963c 09fa a7bd
00000050: a63b 7a3d 9827 4cbd 86a6 87bd 17a2 a4bd
00000060: f366 e4bb 30cb 913c 1239 c43d 8d88 8ebd
00000070: 7d22 8bbd 7549 dbbc 8be1 563d 0440 d33d
00000080: 5a12 f93c 2700 913d 5007 433c 94e3 aabd
00000090: 0cae 83bd 53dc d03d c658 963d 83cf b2bd
000000a0: 5bee aa3d 0fae 423a 5482 68bd f4a7 c2bb
000000b0: 7ee1 9abd d39a 7abd 424a a8bc 6099 8cbd
000000c0: 3313 b5bc 3663 363c 5303 d2bc c948 cf3c
000000d0: 2215 e4bd 6661 35bc ba02 773d d082 8c3d
000000e0: e090 fabc d16c bfba 9599 d0bd d5f4 a93d
000000f0: e8d9 783d 92a1 b0bd 90e0 d7bc 57b5 f33d
00000100: 9665 2d3d 490f b8bc 3601 543d a081 e33b
00000110: 2ffe 90bd a4bc 523d b74a 903d 95c9 3fbd
00000120: 3619 143c 035d 8dbd 3796 e23c 72d3 e1bd
00000130: dbe6 9d3d fd03 ef3d 6ced a2bd 1f39 0b3d
00000140: 412a 293d c6c6 24bd ce33 05bd a852 7a3c
00000150: 8c06 d3bc 85e4 c23c 608c 043d e8f3 2a3c
00000160: 7a42 413d e824 6c3d 4f93 4ebd 97fa a93d
00000170: 8686 273d dcc9 f5bd 09d4 34bd 1f22 2c3d
00000180: d40c bf3c def3 203d 2c1d 47bd 7f42 a63d
00000190: 913d 283c 34b2 50bd 08b8 b03c 1a1c 6bbd
000001a0: fc47 adbd 84ed ed3d a8f0 6bbd 653e af3c
000001b0: dce0 e8bc ad1f 40bd b630 0ebe 31ab ae3d
000001c0: a54d 13be d046 e23b 9082 ac3d 6c1c 49bd
000001d0: 045b 99bd 116d a83d b486 16ba b554 d93c
000001e0: f71b 67bd 893e f43c 6ac3 8f3b 56b1 8d3d
000001f0: 07ff 69bd bcf1 29bd 75e9 cc3d 3448 d0bc
00000200: fce5 ae3d 5e27 a43c 50be f83d 3468 f53b
00000210: 1117 8a3d 32d3 55bd 733a 8fbd ad89 2d3c
00000220: 3906 8b3d 769e 3e3c 6afc 543d 9b03 2c3c
00000230: 08e4 d2bd cb44 753d 173d 0f3c 6652 323d
00000240: 4855 783c 9511 973d d4ff 38bd 47cb 363d
00000250: 68db 6bbc 54f7 603d 4880 923c d585 963c
00000260: 838a 1bbd fe99 893c 9171 83bc e978 a2bc
00000270: f226 05bd f15a 23bc 4549 14bd 52cd 363c
00000280: a970 1bbd 208e 64bb ced6 1c3d c65c 423d
00000290: e13b 9b3d 9468 8239 2ec0 65bd c531 68bd
000002a0: 3a35 633d b70f 93bb c637 1fbd a19b 293d
000002b0: eddb 2f3d 0023 a6b9 e79f 90bd 359a 30bd
000002c0: 7a7c 773d 9666 bcbc 38d9 cfbc 6307 293d
000002d0: ddd5 3e3c 5224 d9bd 17a7 783d 1aa9 073d
000002e0: a443 453d 8198 9e3d 0167 75bd 5327 dcbc
000002f0: 4538 4cbd 626c 7e3d 1497 763c 6bb3 173d
00000300: 2fb2 54bd af30 4e3c c8d3 4fbd 52ae 5e3d
00000310: f95a d73c 7a8b ac3d d315 943d c602 3a3d
00000320: 196f af3d 2821 2fbd 00a6 313d 0a11 f8bc
00000330: da2a 23bd 01ad 8dbd 0419 92bc c43a afbd
00000340: 4e83 bd3d 24ac b0bc ac36 7cbd b57d 80bd
00000350: 90ec 8a3d 0818 2b3d f9d7 dd3c 07b7 8abc
00000360: 71dd a83d efa6 c53b ae34 2dbd 372b afbd
00000370: f3f9 143d 5a57 5cbd 8823 773d fff3 89bd
00000380: c533 593d fc0f ff3c a8c3 7abc 4e5f 9d3d
00000390: 2fc1 8c3d a38a 623d bab3 013d d1da b3bd
000003a0: 0d72 413d e490 9b3c ff8a 793d bd82 bf3d
000003b0: 00eb eb39 6fec 3fbd 7cf2 003c c847 14bc
000003c0: 23ae c63b 56d1 ddba e20a 9b3d 667c ed3b
000003d0: c893 6ebc 4ddc 9b3d 7e7c c0bc 844d 6a3c
000003e0: 09a2 52bd d1c7 363c 92b7 a33d ac01 c8bb
000003f0: 453c 57bd e0c6 a63d 6bad aebc 5053 62bd

hidden.0.bias f4 [128]
-0.11539583 0.0371789 -0.07194643 0.016815089 0.1527574 -0.076421 0.00772528 0.024187688
0.05441062 0.039632753 0.07907974 0.028413517 0.0038123578 -0.042074706 -0.0352502 0.008535354
-0.030220777 0.07990254 0.023501966 -0.04651111 -0.039255396 -0.036705073 -0.04406163 -0.08144328
-0.05736364 0.15725593 -0.051569425 0.075100094 0.009923134 0.06684105 -0.0030347558 0.061635915
0.010396175 -0.08683438 0.069189325 -0.0073594586 0.12137306 -0.033497613 0.02088876 -0.012166174
-0.021151423 0.050320476 -0.06374867 0.035776448 -0.064990155 0.098301664 -0.04062109 -0.08233848
0.056945406 -0.06089657 0.037134547 -0.07995975 0.11675002 0.11261825 0.048795637 0.09178253
-0.06342839 -0.033544842 -0.039635316 -0.0021029 0.06796948 -0.020119067 0.017990049 -0.03273061
-0.057087213 0.06461081 -0.0553701 0.027256446 -0.04657209 -0.054050967 0.057900697 -0.018599177
0.09771533 0.021935562 0.0867362 -0.022909068 -0.049782924 0.018998757 0.041279588 0.061668776
0.05575308 0.0512476 -0.04668282 -0.0124238655 0.08826453 -0.022334954 0.060520038 0.02378887
-0.022915937 0.10512578 -0.06353008 -0.028971657 -0.09125304 -0.08518775 0.0067743286 -0.06087223
0.08107777 -0.06437494 0.10519931 0.013627663 -0.045892745 -0.048443798 -0.023828834 0.015666135
0.077035375 0.11828705 0.06858536 0.06283857 0.09549105 0.03832353 -0.08417066 -0.023166792
-0.083905585 -0.03308063 0.0294132 0.0307753 -0.0018144915 -0.04129719 0.044288818 -0.08711971
0.08670019 -0.04921304 -0.06364196 0.011743169 -0.013610723 -0.052132376 0.094997905 0.07269957
00000000: a654 ecbd e748 183d a658 93bd ccbf 893c
00000010: 706c 1c3e 9d82 9cbd 5824 fd3b 4225 c63c
00000020: acdd 5e3d f455 223d 8ff4 a13d 77c3 e83c
00000030: c0d8 793b 8756 2cbd 8462 10bd dfd7 0b3c
00000040: 9091 f7bc f1a3 a33d 3287 c03c 6f82 3ebd
00000050: 44ca 20bd 0f58 16bd f879 34bd bccb a6bd
00000060: 23f6 6abd b307 213e 763a 53bd 14ce 993d
00000070: a494 223c f6e3 883d c1e2 46bb f175 7c3d
00000080: b854 2a3c 39d6 b1bd 22b3 8d3d 9d27 f1bb
00000090: 7092 f83d cb34 09bd e81e ab3c a254 47bc
000000a0: c045 adbc d81c 4e3d aa8e 82bd 538a 123d
000000b0: 8f19 85bd 6252 c93d 4d62 26bd 14a1 a8bd
000000c0: 963f 693d af6e 79bd 651a 183d f0c1 a3bd
000000d0: a21a ef3d 66a4 e63d efdd 473d 7bf8 bb3d
000000e0: bee6 81bd 5166 09bd a458 22bd cfd0 09bb
000000f0: 9533 8b3d bed0 a4bc de5f 933c 8810 06bd
00000100: 48d4 69bd ac52 843d c2cb 62bd e948 df3c
00000110: 60c2 3ebd 8c64 5dbd 4829 6d3d 4d5d 98bc
00000120: fa1e c83d 35b2 b33c c0a2 b13d ccab bbbc
00000130: 2ee9 4bbd 48a3 9b3c c914 293d 6698 7c3d
00000140: 575d 643d 01e9 513d 7c36 3fbd 788d 4bbc
00000150: 09c4 b43d cbf7 b6bc dce3 773d e0e0 c23c
00000160: 34ba bbbc 2f4c d73d 0f1c 82bd f855 edbc
00000170: e0e2 babd ea76 aebd 30fb dd3b 2955 79bd
00000180: 1a0c a63d 02d7 83bd bc72 d73d 9046 5f3c
00000190: 08fa 3bbd 016d 46bd b034 c3bc 4456 803c
000001a0: b9c4 9d3d 7b40 f23d 7b76 8c3d 82b1 803d
000001b0: d090 c33d 22f9 1c3d ab61 acbd 49c8 bdbc
000001c0: b1d6 abbd 8e7f 07bd f4f3 f03c 7b1c fc3c
000001d0: 3bd4 edba 3e27 29bd 3168 353d d26b b2bd
000001e0: df8f b13d 9d93 49bd b756 82bd 6c66 403c
000001f0: 83ff 5ebc c288 55bd 438e c23d 83e3 943d

hidden.1.weight f4 [128, 128]
0.024092816 0.027386397 0.0681205 0.0057761073 -0.06807995 -0.055877216 -0.064095736 -0.038555242
-0.04920634 -0.022476599 -0.015426062 -0.032057 0.067890786 -0.062207207 -0.06364793 -0.0192191
0.016182251 0.043902375 -0.06237898 0.055614688 0.015423827 -0.06943494 -0.058424603 0.048152946
0.018941022 -0.07767928 -0.079624005 -0.014308348 -0.06898321 0.06640198 0.06917005 0.05965165
-0.030521251 -0.029519737 0.010995403 0.06733427 -0.047318604 0.061716102 0.056367613 0.07827816
-0.023117222 -0.010786697 -0.06665499 -0.053627428 0.0601046 0.080149315 0.025241002 -0.058546178
-0.056159128 -0.06489036 -0.049355675 -0.082661904 0.06033645 -0.02429612 0.03927145 0.001462169
0.073832415 0.063067414 0.080010094 0.059930526 0.021754391 -0.013485201 0.06793433 -0.08547113
-0.054055683 -0.073518254 0.05540765 0.06381527 -0.007747963 0.06519393 -0.03293122 -0.086155765
-0.030320588 0.022196576 0.043591596 0.06638574 -0.07936599 0.018469349 -0.0112050325 -0.013463706
0.006829232 0.019806236 -0.07685328 0.05398149 0.06895497 -0.032524303 0.054157548 0.037480824
-0.067708 0.05549968 0.084227316 -0.08274088 -0.010137342 0.024850719 0.00743223 0.019945152
0.061061554 0.06640718 -0.027846139 -0.013196081 0.0658334 0.028150298 0.06958201 -0.038372334
0.066027485 -0.08031668 0.015501007 0.083238535 -0.048421036 0.08007417 -0.01053454 0.042582743
-0.06724575 -0.007144332 -0.07785095 -0.015039198 -0.08676678 -0.08733044 0.057522245 -0.07067472
-0.0073784813 -0.0141296685 -0.050914444 -0.010337897 0.027774796 -0.04039101 0.06263264 -0.08178976
-0.029787395 0.016496915 -0.042676486 0.05801448 0.1269312 -0.009697102 -0.045679495 0.066808864
-0.038097326 -0.040654257 -0.006739857 -0.050204486 -0.055213634 -0.0015528455 0.062534474 -0.05714761
-0.0438914 -0.042444535 -0.030356254 -0.06797454 0.08121247 0.09743389 -0.07308164 0.006562721
0.06866814 0.05665018 0.03868783 -0.035094872 -0.072931364 -0.043605413 0.056412082 0.05714743
0.020287849 -0.009548962 0.02828653 -0.046236895 0.067916915 -0.03694012 -0.015680313 -0.020242848
-0.06388359 -0.018847113 0.039355136 0.029092485 -0.024501175 0.10071307 -0.030344734 -0.04303084
0.02511715 0.0024338276 0.008663366 -0.121793926 0.08948265 -0.020571098 -0.063709415 0.0686187
0.043215297 -0.03971782 0.09796451 0.053702563 -0.052752726 -0.084217794 -0.076247714 0.079441994
0.018666526 0.09080276 -0.03053608 -0.021281166 0.035338774 0.031665698 0.049778763 0.05522792
0.019036181 -0.037947446 0.043161556 -0.052408047 -0.07560901 0.077188976 0.049610853 0.07962588
0.041606303 0.078695334 -0.05438976 0.065913014 0.047712483 0.0244902 0.07926383 0.012903176
0.0749998 0.07361468 -0.04000034 0.026377186 -0.059231207 -0.0746447 -0.07458418 -0.052229743
0.06538945 -0.0050679655 0.12217327 0.0031896455 0.0416194 0.015893847 0.07257158 0.0025286996
0.03983088 0.08306951 0.051233493 0.0426036 0.044628035 -0.021268526 -0.018495336 -0.003028197
-0.072155595 -0.08652153 0.0145566985 0.021223884 0.006435647 -0.0038821027 0.029603992 0.088205226
-0.04699157 0.03936834 -0.016251393 0.021081422 -0.010510826 -0.03222397 -0.041554596 0.031069852
00000000: 4c5e c53c 7059 e03c c382 8b3d 8045 bd3b
00000010: 806d 8bbd 82df 64bd a044 83bd 1aec 1dbd
00000020: 968c 49bd d820 b8bc 98bd 7cbc 334e 03bd
00000030: 530a 8b3d fccc 7ebd d959 82bd 6071 9dbc
00000040: a490 843c fad2 333d 1a81 7fbd 3acc 633d
00000050: 38b4 7c3c e833 8ebd a34e 6fbd 063c 453d
00000060: 342a 9b3c 5016 9fbd e911 a3bd 906d 6abc
00000070: 1247 8dbd c3fd 873d 07a9 8d3d 4a55 743d
00000080: b407 fabc 60d3 f1bc 1026 343c 8de6 893d
00000090: 27d1 41bd 06ca 7c3d bae1 663d 4d50 a03d
000000a0: 5460 bdbc b0ba 30bc 6982 88bd 6fa8 5bbd
000000b0: 3e30 763d 5325 a43d 38c6 ce3c 1ece 6fbd
000000c0: 1d07 66bd 3de5 84bd 2d29 4abd a54a a9bd
000000d0: 5a23 773d a808 c7bc 1adb 203d 40a6 bf3a
000000e0: 7335 973d 7d29 813d 55dc a33d b679 753d
000000f0: 4436 b23c 08f1 5cbc 2721 8b3d 7d0b afbd
00000100: 7e69 5dbd bd90 96bd 22f3 623d 95b1 823d
00000110: a0e2 fdbb 6584 853d e3e2 06bd 6f72 b0bd
00000120: e262 f8bc 98d5 b53c 1a8d 323d 3ff5 873d
00000130: a38a a2bd 084d 973c 5095 37bc e096 5cbc
00000140: c0c7 df3b b040 a23c 4165 9dbd b21b 5d3d
00000150: 4338 8d3d 3438 05bd 4ed4 5d3d 7e85 193d
00000160: 7eaa 8abd a253 633d 5f7f ac3d 0d74 a9bd
00000170: 1817 26bc bc93 cb3c 108a f33b 0464 a33c
00000180: ae1b 7a3d 7d00 883d 961d e4bc 6034 58bc
00000190: a9d3 863d 749b e63c 0381 8e3d 4f2c 1dbd
000001a0: 6b39 873d 127d a4bd f0f7 7d3c f778 aa3d
000001b0: 2355 46bd edfd a33d 1099 2cbc 3e6b 2e3d
000001c0: 24b8 89bd 001b eabb 5270 9fbd f866 76bc
000001d0: c8b2 b1bd 4dda b2bd 729c 6b3d e8bd 90bd
000001e0: 30c7 f1bb 2080 67bc aa8b 50bd 4860 29bc
000001f0: f887 e33c 0b71 25bd 8b45 803d 6481 a7bd
00000200: b204 f4bc 8a24 873c 8acd 2ebd 97a0 6d3d
00000210: 41fa 013e 98e0 1ebc 6c1a 3bbd 16d3 883d
00000220: f10b 1cbd 1485 26bd 05da dcbb 38a3 4dbd
00000230: b127 62bd d988 cbba 1312 803d 9d13 6abd
00000240: 78c7 33bd 52da 2dbd aead f8bc 3c36 8bbd
00000250: b952 a63d 6b8b c73d d4ab 95bd 180c d73b
00000260: e2a1 8c3d 050a 683d 2177 1e3d a4bf 0fbd
00000270: 0a5d 95bd 979b 32bd 5b10 673d 6c13 6a3d
00000280: b432 a63c 4073 1cbc 27b9 e73c e662 3dbd
00000290: 0618 8b3d 864e 17bd 0074 80bc 54d4 a5bc
000002a0: 66d5 82bd 4365 9abc da32 213d 5d53 ee3c
000002b0: b0b6 c8bc a742 ce3d 8595 f8bc 1b41 30bd
000002c0: 7bc2 cd3c da80 1f3b caf0 0d3c 186f f9bd
000002d0: ae42 b73d b884 a8bc 157a 82bd f687 8c3d
000002e0: 8602 313d 27af 22bd 9ea1 c83d 38f7 5b3d
000002f0: 3e13 58bd 617a acbd c327 9cbd 7cb2 a23d
00000300: 8bea 983c ccf6 b93d cd26 fabc d755 aebc
00000310: 64bf 103d e4b3 013d d1e4 4b3d ac36 623d
00000320: c4f1 9b3c c86e 1bbd 2cca 303d d2a9 56bd
00000330: e6d8 9abd 4115 9e3d c034 4b3d e512 a33d
00000340: 5f6b 2a3d 052b a13d ccc7 5ebd 67fd 863d
00000350: 2a6e 433d ac9f c83c 1355 a23d d867 533c
00000360: 7f99 993d 4bc3 963d 66d7 23bd f814 d83c
00000370: 6c9c 72bd 52df 98bd 97bf 98bd dbee 55bd
00000380: e7ea 853d 2d11 a6bb fb35 fa3d 5f09 513b
00000390: 1b79 2a3d d033 823c 69a0 943d 8ab8 253b
000003a0: b425 233d 5920 aa3d 36da 513d 1d81 2e3d
000003b0: e3cb 363d 553b aebc 8883 97bc b774 46bb
000003c0: 50c6 93bd 3332 b1bd 387f 6e3c b6dd ad3c
000003d0: 1fe2 d23b e06a 7ebb 1284 f23c f1a4 b43d
000003e0: 3c7a 40bd b240 213d a421 85bc f2b2 ac3c
000003f0: 9935 2cbc 48fd 03bd 2735 2abd 3486 fe3c

hidden.1.bias f4 [128]
-0.082937345 0.0809043 -0.10480163 0.10949882 -0.0414897 0.022526003 0.06081829 -0.062285423
0.037505187 -0.012604035 -0.052802004 0.14848855 0.049156807 -0.046216477 0.047432173 0.01156991
-0.021296272 -0.0743855 0.004410602 0.0035841651 -0.09660604 -0.033933822 0.08798053 0.039926037
0.043207366 0.12900478 0.03324225 -0.08132743 -0.05621417 -0.06749731 -0.017237466 0.075187854
-0.07469226 -0.031901307 -0.07469994 0.033761773 -0.077117175 0.13299419 0.057447616 0.016902775
0.02803941 -0.015836682 -0.0002143383 0.0811268 0.043422505 0.028381836 -0.018949365 0.04780953
-0.014417822 -0.00012602657 -0.022980623 0.029277144 0.05648892 -0.042148743 0.110227 0.07861056
0.003658887 0.11345444 -0.035649594 -0.035925914 0.03325396 -0.0497867 0.09474034 -0.04548667
-0.08749028 0.14809076 -0.07080422 -0.013343238 -0.03508997 0.06352703 0.082189694 0.117642574
-0.038963653 0.11590497 -0.01730161 -0.03603003 0.039492927 -0.080606446 -0.04511854 -0.10122267
-0.037228435 -0.068203904 -0.07431643 0.035926938 0.057069357 0.0016498417 0.0021619415 -0.024543904
0.043127183 0.070890054 0.017509764 0.06545181 -0.020845858 -0.01917033 0.09945465 0.07329571
-0.04960365 -0.010746074 0.087606035 -0.013395976 -0.08614787 0.066808574 -0.06962015 -0.059836224
0.050444026 0.048007786 -0.06076564 0.14303079 0.024014115 0.040972684 -0.016590081 0.101001196
-0.009172179 -0.038357615 -3.2640994e-05 0.08112395 0.024750665 1.1843357e-05 -0.060545128 -0.07688073
0.16712548 -0.0010697916 -0.019099325 0.045372445 0.04480453 -0.010791233 -0.06494552 -0.007676609
00000000: 0edb a9bd 27b1 a53d 3da2 d6bd eb40 e03d
00000010: 1bf1 29bd 7488 b83c 991c 793d 001f 7fbd
00000020: 0a9f 193d 2881 4ebc ea46 58bd 620d 183e
00000030: a658 493d 7d4d 3dbd 3d48 423d b88f 3d3c
00000040: 8575 aebc 6d57 98bd d086 903b 50e4 6a3b
00000050: 63d9 c5bd 31fe 0abd 232f b43d 7c89 233d
00000060: 35fa 303d d419 043e 0729 083d ff8e a6bd
00000070: d440 66bd 083c 8abd 9635 8dbc 17fc 993d
00000080: 41f8 98bd f2aa 02bd 48fc 98bd c949 0a3d
00000090: 9cef 9dbd a12f 083e 314e 6b3d b077 8a3c
000000a0: e8b2 e53c eebb 81bc 00c0 60b9 cf25 a63d
000000b0: ccdb 313d 0681 e83c b33b 9bbc edd3 433d
000000c0: ba38 6cbc 0026 04b9 dc41 bcbc 9fd6 ef3c
000000d0: ed60 673d 29a4 2cbd b2be e13d 93fe a03d
000000e0: f0c9 6f3b cd5a e83d 4f05 12bd 0d27 13bd
000000f0: 4e35 083d 24ed 4bbd 3907 c23d 3b50 3abd
00000100: 1b2e b3bd 1ba5 173e ce01 91bd 999d 5abc
00000110: 80ba 0fbd 761a 823d 1253 a83d 97ee f03d
00000120: 5a98 1fbd 965f ed3d 1bbc 8dbc 3a94 13bd
00000130: 56c3 213d fe14 a5bd 38ce 38bd d54d cfbd
00000140: d87c 18bd 7dae 8bbd 3633 98bd 2028 133d
00000150: 8fc1 693d 803f d83a 5caf 0d3b 4c10 c9bc
00000160: 21a6 303d ce2e 913d a370 8f3c 990b 863d
00000170: efc4 aabc 190b 9dbc e1ae cb3d 101c 963d
00000180: 322d 4bbd 4d10 30bc cb6a b33d cc7a 5bbc
00000190: 4b6e b0bd efd2 883d 0295 8ebd d416 75bd
000001a0: 659e 4e3d d0a3 443d 64e5 78bd aa76 123e
000001b0: 40b9 c43c f9d2 273d ece7 87bc b7d9 ce3d
000001c0: e846 16bc e01c 1dbd 00e8 08b8 5024 a63d
000001d0: e8c1 ca3c d5b2 4637 2bfe 77bd a573 9dbd
000001e0: f122 2b3e 4038 8cba 3076 9cbc 75d8 393d
000001f0: f484 373d b6cd 30bc 2802 85bd 108c fbbb

v.weight f4 [1, 128]
-0.02518905 -0.25684702 0.070967115 -0.161388 -0.12092391 -0.1610794 0.011241994 0.027206741
-0.00096462667 0.0173195 -0.014619842 -0.3076865 0.040540807 -0.20366184 -0.04006243 -0.22461276
-0.1643244 0.027514674 0.08277296 -0.24500543 0.004173076 0.013528151 0.073487006 0.20215335
-0.051948264 -0.20587683 0.042414896 -0.07050722 0.023929104 -0.042430677 0.091416456 -0.050899915
0.0465573 0.07115964 0.06145995 -0.070377655 0.029589655 -0.3316286 0.024931906 0.06696702
0.069130875 0.04138071 0.008537233 -0.21985203 0.0038739971 0.059896786 0.106567256 -0.13630164
0.11552361 -0.012081012 0.020016521 -0.081118084 -0.12077843 0.030727893 -0.22639579 0.076727696
-0.34821597 -0.2631643 0.05654443 -0.14837791 0.0066050664 0.03155172 -0.123202436 -0.05486789
-0.007796631 -0.26562554 -0.06871854 -0.04127022 0.023514561 -0.33100066 -0.05462967 -0.35954684
0.02447807 -0.51635045 0.17813812 0.064888194 -0.074976966 0.065115504 0.09126546 0.055392396
-0.025951229 -0.057916753 -0.06369157 -0.29164967 -0.32461828 -0.03845488 0.011468384 -0.3594858
-0.106177695 0.0004910702 -0.06894128 0.042880103 0.066460446 0.078991875 -0.37979904 -0.35449657
0.04204356 -0.14418177 -0.3076249 -0.020239955 0.06984806 -0.037833393 -0.07413212 -0.078864254
-0.23931196 0.038641647 -0.043458026 -0.4159707 -0.007881388 0.02461389 -0.05170785 -0.06055981
0.012529902 -0.063863054 0.012250125 -0.028215436 -0.015977507 -0.13967398 0.07411586 -0.04964537
-0.20717283 0.051685326 -0.1549081 0.01087879 -0.4013692 -0.014715034 0.14779654 -0.038119063
00000000: 4459 cebc 7481 83be 3557 913d e542 25be
00000010: f4a6 f7bd 00f2 24be 5730 383c ace0 de3c
00000020: 00df 7cba a0e1 8d3c 1088 6fbc 1689 9dbe
00000030: 1e0e 263d bb8c 50be 8118 24bd e300 66be
00000040: a844 28be 7466 e13c df84 a93d b4e2 7abe
00000050: 4cbe 883b 2ea5 5d3c 5b80 963d 4a01 4f3e
00000060: b4c7 54bd 60d1 52be 3ebb 2d3d 1766 90bd
00000070: f806 c43c cacb 2dbd 8d38 bb3d 6e7c 50bd
00000080: deb2 3e3d 25bc 913d 6ebd 7b3d 2922 90bd
00000090: 0166 f23c 39cb a9be ff3d cc3c 0126 893d
000000a0: 7d94 8d3d d27e 293d c0df 0b3c e420 61be
000000b0: e3e2 7d3b 5556 753d ef3f da3d a892 0bbe
000000c0: a497 ec3d 70ef 45bc b0f9 a33c 3d21 a6bd
000000d0: ae5a f7bd 10b9 fb3c 4cd4 67be 6923 9d3d
000000e0: 5d49 b2be 79bd 86be 229b 673d 61f0 17be
000000f0: 506f d83b 603c 013d 8f51 fcbd 27bd 60bd
00000100: e27a ffbb 1200 88be 4ebc 8cbd f60a 29bd
00000110: 9ca1 c03c eb78 a9be 5cc3 5fbd 8616 b8be
00000120: 3c86 c83c 8b2f 04bf d769 363e 1ae4 843d
00000130: 868d 99bd 475b 853d 63e9 ba3d 23e3 623d
00000140: ac97 d4bc 1e3a 6dbd ba70 82bd 1b53 95be
00000150: 5e34 a6be dd82 1dbd e4e5 3b3c 860e b8be
00000160: b173 d9bd 2abb 003a 1631 8dbd 0ca3 2f3d
00000170: 6a1c 883d 7ec6 a13d 0575 c2be 9380 b5be
00000180: de35 2c3d 63a4 13be 0381 9dbe 43ce a5bc
00000190: 800c 8f3d 30f7 1abd 95d2 97bd 9583 a1bd
000001a0: 320e 75be b446 1e3d 0b01 32bd 1dfa d4be
000001b0: f020 01bc 12a3 c93c 9ccb 53bd 900d 78bd
000001c0: 384a 4d3c a2ca 82bd c0b4 483c 0f24 e7bc
000001d0: 43e3 82bc b206 0fbe 0eca 973d f258 4bbd
000001e0: 1d25 54be feb3 533d 3ba0 1ebe f43c 323c
000001f0: 4480 cdbe 5317 71bc fa57 173e bc22 1cbd

adv.weight f4 [20, 128]
-0.03753847 0.05140989 0.043057606 -0.07771783 0.08358201 -0.018113997 -0.06651927 -0.05450461
0.057300426 -0.041729838 0.04485587 0.063036025 -0.034149304 -0.08195585 -0.0015600385 -0.05163986
0.102354445 -0.060226243 0.07247385 0.07283627 0.10068824 -0.048053008 0.07874616 -0.09011379
-0.03268796 0.03402524 0.07136932 0.04887449 0.056538187 -0.08439027 -0.030748183 0.060122736
-0.04173385 -0.035343487 0.08561254 -0.0040331692 -0.01058908 -0.04107683 -0.0032738608 0.032779224
0.086086996 0.0055098785 0.0015641004 -0.06001431 0.032489844 0.047718864 0.010976329 -0.02274694
-0.02238012 0.06808687 0.022703014 0.050172728 0.055966843 0.0006427224 0.08013344 0.026724137
0.058144245 0.055818673 -0.08368178 0.092421964 0.08803327 0.067457564 -0.06871151 0.021048345
0.060731094 -0.04646666 -0.058255173 0.007954204 -0.038268335 0.065422535 0.025216458 0.084455885
-0.080491684 -0.08179734 -0.00050390576 0.051063538 -0.056650285 -0.016133316 0.020301342 -0.042094454
-0.08714992 -0.07631843 -0.08155711 0.02320438 -0.026114482 0.020528771 0.004072087 0.0880438
-0.07939543 -0.07440977 0.005713043 -0.030533511 -0.0863105 -0.08479289 -0.0684778 -0.08105748
-0.07721564 0.072714284 -0.014131792 -0.01520547 0.050930798 0.060871743 -0.0740432 0.024224034
0.07320159 0.02279519 0.052537568 0.00047932594 -0.08764103 0.07221256 0.08512198 -0.054231998
-0.015016414 -0.06639512 -0.018053047 0.04937102 0.015421585 -0.013593887 -0.067640215 0.05512529
-0.03440515 0.030484892 -0.047353134 -0.06017725 0.10848968 -0.02101928 0.055364195 -0.07013263
-0.03217834 0.073282845 0.084170006 -0.032990042 0.019592214 -0.09743513 -0.009714934 -0.050211396
0.009931728 0.02221337 0.00033323467 0.060603756 0.05736568 -0.08314038 0.06323751 0.055077534
-0.0511933 0.052148588 -0.003591679 0.021726388 -0.09302147 -0.025636107 0.044981457 0.082677655
-0.019704916 -0.07145813 -0.02675235 0.06782297 -0.015029936 0.08117402 0.055353705 0.061614312
0.04823429 0.07222423 0.028667308 -0.0032758242 0.06372659 -0.040586703 0.0829758 0.05929572
0.049230628 -0.05474926 -0.02269756 0.046314005 -0.0610001 -0.07069077 -0.02845822 -0.033932094
-0.08308633 -0.033370305 0.014767297 -0.051356208 -0.034927696 -0.012206344 0.044351514 0.008941423
0.023144545 -0.044871368 0.069353096 -0.068620145 -0.065834284 -0.02881419 0.023811366 0.024092667
0.003730608 0.01755392 0.043495495 -0.07760306 0.05200594 0.027353233 0.059874285 0.057654604
-0.029261924 0.00041129347 -0.07847278 0.0069445833 0.07688562 0.017357893 -0.09403938 -0.1126154
0.018842699 -0.009429872 -0.04046582 -0.092493534 -0.08017932 0.037172966 -0.027499996 0.04449864
-0.013656099 -0.05238454 0.049361825 -0.014992855 -0.02276308 -0.06339787 0.025599696 0.04688534
-0.008821085 0.052742988 0.035718802 -0.06442373 0.039224874 0.025259145 -0.033517346 -0.02649994
0.06797324 -0.022565877 0.054675438 -0.029649751 0.084475644 0.020165395 0.083028294 0.0035337524
-0.043024797 0.05626314 -0.047314104 -0.021784114 -0.041832924 -0.07052936 0.011755912 -0.03358734
0.019693205 -0.020115934 0.028605282 0.07924586 -0.053247232 -0.023163758 -0.03356489 -0.060639884
00000000: f0c1 19bd 2d93 523d 2c5d 303d 872a 9fbd
00000010: 0b2d ab3d ce63 94bc 413b 88bd 3a40 5fbd
00000020: dab3 6a3d e8ec 2abd caba 373d 0819 813d
00000030: 24e0 0bbd 78d8 a7bd 357a ccba 5184 53bd
00000040: 359f d13d cbaf 76bd 2b6d 943d 2f2b 953d
00000050: a335 ce3d 3bd3 44bd ab45 a13d 948d b8bd
00000060: cfe3 05bd 0d5e 0b3d 142a 923d 9e30 483d
00000070: 9694 673d ced4 acbd 9de3 fbbc 4243 763d
00000080: 1df1 2abd 55c4 10bd a155 af3d ad28 84bb
00000090: d27d 2dbc 2e40 28bd 458e 56bb 8243 063d
000000a0: 614e b03d 368c b43b 8002 cd3a 91d1 75bd
000000b0: 1214 053d db74 433d 10d6 333c ca57 babc
000000c0: 8356 b7bc 2171 8b3d acfb b93c eb81 4d3d
000000d0: 7d3d 653d 5f7c 283a 001d a43d 94ec da3c
000000e0: a928 6e3d 1fa2 643d 5a61 abbd ba47 bd3d
000000f0: c94a b43d 3127 8a3d 9fb8 8cbd 946d ac3c
00000100: 2bc1 783d d353 3ebd fa9c 6ebd 5a52 023c
00000110: 42bf 1cbd 40fc 853d bf92 ce3c 35f7 ac3d
00000120: d3d8 a4bd 5d85 a7bd 8b18 04ba 0028 513d
00000130: 210a 68bd 042a 84bc 004f a63c 3c6b 2cbd
00000140: a87b b2bd d64c 9cbd 6a07 a7bd 1d17 be3c
00000150: 0aee d5bc f42b a83c 246f 853b 4f50 b43d
00000160: 129a a2bd 2664 98bd 7a34 bb3b 6a21 fabc
00000170: 8fc3 b0bd e5a7 adbd 173e 8cbd 7701 a6bd
00000180: 3c23 9ebd 3aeb 943d 0889 67bc 5d20 79bc
00000190: d09c 503d a654 793d f6a3 97bd 7b71 c63c
000001a0: b7ea 953d fabc ba3c a231 573d 0a4e fb39
000001b0: 247d b3bd 2ee4 933d 6f54 ae3d 5f22 5ebd
000001c0: 6807 76bc 2afa 87bd fce3 93bc 4439 4a3d
000001d0: d1aa 7c3c e5b8 5ebc f486 8abd 0ecb 613d
000001e0: 6aec 0cbd 74bb f93c 5cf5 41bd 6c7c 76bd
000001f0: d62f de3d a030 acbc 91c5 623d b2a1 8fbd
00000200: 6fcd 03bd 5115 963d 5361 ac3d 9120 07bd
00000210: da7f a03c 128c c7bd 632b 1fbc 77aa 4dbd
00000220: b0b8 223c d0f8 b53c 00b6 ae39 a53b 783d
00000230: 46f8 6a3d 8145 aabd ab82 813d fb98 613d
00000240: 11b0 51bd c299 553d 6062 6bbb 8afb b13c
00000250: 0a82 bebd d002 d2bc 7a3e 383d e752 a93d
00000260: 346c a1bc a458 92bd bf27 dbbc c5e6 8a3d
00000270: 1f40 76bc 913e a63d 91ba 623d 4a5f 7c3d
00000280: 5291 453d 4cea 933d b4d7 ea3c 36af 56bb
00000290: 1683 823d 3e3e 26bd 37ef a93d 12e0 723d
000002a0: 0ea6 493d c340 60bd 3cf0 b9bc c1b3 3d3d
000002b0: 3edb 79bd 53c6 90bd 3721 e9bc 61fc 0abd
000002c0: 2a29 aabd 4daf 08bd 88f2 713c e35a 52bd
000002d0: 5810 0fbd 1efd 47bc efa9 353d 0c7f 123c
000002e0: a199 bd3c 0acb 37bd ff08 8e3d b888 8cbd
000002f0: 20d4 86bd bc0b ecbc 0e10 c33c fc5d c53c
00000300: 377d 743b 3dcd 8f3c 5528 323d 5aee 9ebd
00000310: 2e04 553d e313 e03c bd3e 753d 3c27 6c3d
00000320: b4b6 efbc e0a2 d739 56b6 a0bd 638f e33b
00000330: 3576 9d3d 2432 8e3c b897 c0bd e7a2 e6bd
00000340: 015c 9a3c c07f 1abc 7dbf 25bd 406d bdbd
00000350: 0e35 a4bd ae42 183d ac47 e1bc 3544 363d
00000360: d5bd 5fbc 2c91 56bd a02f 4a3d 97a4 75bc
00000370: a479 babc bed6 81bd 74b6 d13c d80a 403d
00000380: 5086 10bc 0809 583d e14d 123d 97f0 83bd
00000390: 43aa 203d 44ec ce3c 7c49 09bd 6716 d9bc
000003a0: 8e35 8b3d 13dc b8bc 5af3 5f3d 09e4 f2bc
000003b0: 9101 ad3d e631 a53c bd0a aa3d 8796 673b
000003c0: c53a 30bd 2e74 663d 6fcc 41bd 9974 b2bc
000003d0: 0059 2bbd b271 90bd de9b 403c e192 09bd
000003e0: a553 a13c 2cca a4bc a055 ea3c a74b a23d
000003f0: c519 5abd ecc1 bdbc 577b 09bd 8761 78bd

adv.bias f4 [20]
-0.06359399 0.021495972 -0.09103592 0.13550158 -0.10287691 0.04814174 -0.03425546 0.050440148
-0.057951827 0.072173305 -0.006046291 0.12990232 -0.026225435 0.1486668 -0.004764629 0.12912871
-0.1216685 0.07132795 -0.049590662 0.11506885
00000000: 913d 82bd 5218 b03c 0a71 babd edc0 0a3e
00000010: 21b1 d2bd 4630 453d 744f 0cbd 549a 4e3d
00000020: e55e 6dbd 99cf 933d f71f c6bb 1d05 053e
00000030: b9d6 d6bc 1c3c 183e 9b20 9cbb 513a 043e
00000040: 562d f9bd 6314 923d 941f 4bbd 38a9 eb3d
