DDQN/radiiResults/10cyl_2000epsDecay_10outercylAt3.5Radii/Qtarget1200.pt (torch, 158783 bytes, 9 tensors)

fc.weight f4 [128, 23]
000000 1a 05 53 be 14 81 01 bd 91 86 2f be 4d 78 19 3e
       -0.20607415 -0.03161724 -0.17141177 0.14987297
000010 df 4a 34 be 3e 7f a1 bd e2 73 c4 3d b3 9f e7 bd
       -0.17606686 -0.07885598 0.095924154 -0.11309757
000020 c3 f4 ea bd 7a 21 42 3e 0a 9e 36 3c 4b 6b dc bc
       -0.11472466 0.18958083 0.011146078 -0.02690663
000030 15 1d 3c be 12 d6 27 3e fe 57 2c be f4 56 4f 3e
       -0.18370469 0.16390255 -0.16830441 0.20248014
000040 f5 4d 9f bd 49 fb 68 3d 9f 74 41 3d 7d 23 52 bc
       -0.07778541 0.05688027 0.04723036 -0.012825844
000050 a7 f3 74 bd 44 a1 2f be f9 f3 44 3e be e8 ad 3d
       -0.059802677 -0.17151362 0.19233693 0.08491658
000060 56 b2 23 be b3 fa 4b be 94 0a 4c 3e 82 27 28 3e
       -0.15985999 -0.19919853 0.1992591 0.16421321
000070 a0 4a fc bd a8 60 f3 bd dd c9 92 bd 35 39 c9 bd
       -0.12318921 -0.1188367 -0.071674086 -0.098253645
000080 f1 41 1f bd 4f 5d 09 bc 34 bd b9 bd 91 e1 e1 bd
       -0.038881246 -0.008384063 -0.09069291 -0.110293515
000090 47 a6 a7 3d 8e fd e4 bd 74 91 89 3d 9a 2f 47 3e
       0.08186012 -0.11181174 0.06717196 0.19451752
0000a0 45 d4 8f 3c 05 03 f9 3d 4a 60 2c be 1d b8 87 3d
       0.017557273 0.12158779 -0.16833606 0.06626914
0000b0 e7 6f 2b be cd 83 4a be cd ad 48 be 15 94 c5 bd
       -0.16741906 -0.1977684 -0.1959755 -0.09647385
0000c0 bf d1 0f be f0 1d 30 be c7 56 27 be e7 e2 60 be
       -0.14044856 -0.1719892 -0.16341697 -0.21961556
0000d0 5a 97 eb bd e4 60 8d 3d e5 a0 85 be f2 50 b5 3c
       -0.115034774 0.06903246 -0.26099315 0.022133324
0000e0 32 af af 3d 48 3f 3d 3d e4 d8 1c 3e b3 ba 23 bc
       0.08578338 0.046202928 0.15317112 -0.009993243
0000f0 3d 24 4a bd 75 d1 66 3e c5 0b 15 3e 7d 61 b3 bc
       -0.049350966 0.22540839 0.14555271 -0.021897072
000100 cc bb 37 3e 36 59 f8 bd 68 b3 31 3e f1 e6 3c 3e
       0.17942733 -0.12126391 0.17353594 0.18447472
000110 7e 81 51 bd d4 1a 01 be 19 8f 96 bd ce d8 e0 bd
       -0.051148884 -0.1260789 -0.073515125 -0.10978852
000120 65 61 59 3d 56 66 35 3c ed bd 0a bd ec c6 3c 3e
       0.0530714 0.011071762 -0.033872534 0.18435258
000130 ee 77 1d 3e 7e 19 44 3e 8d 56 22 be e7 79 46 3c
       0.15377781 0.1915035 -0.15853329 0.012114025
000140 40 ba 81 bd 4c 9d f4 3d 56 8c 68 be a9 ab 4e 3d
       -0.063343525 0.119440645 -0.22709784 0.050456677
000150 41 ad 45 be da af 8a 3d 5d 38 13 3e 93 3a 86 3d
       -0.19304372 0.06771822 0.1437697 0.06554141
000160 a7 3e 77 3d f2 b6 91 bb 23 ea 57 be b9 a9 ab bd
       0.060362484 -0.0044468576 -0.2108541 -0.083819814
000170 c3 90 95 3d 2f dd a9 3d 50 85 b8 bd 0f 84 e7 3d
       0.07303002 0.082941405 -0.09009802 0.11304485
000180 4e de 22 be 5a 1e a6 bd cc e6 09 3d 8b 7b 09 3e
       -0.15905115 -0.08111258 0.03366737 0.13426034
000190 ec 23 ad 3d 9c e8 03 be 38 6f 32 be d8 f4 2b 3b
       0.08454117 -0.12881702 -0.17425239 0.0026238468
0001a0 a7 d6 a6 bd 79 8d 2a 3d 7a 11 96 3d 58 a6 40 bb
       -0.081464104 0.041638825 0.07327552 -0.0029396024
0001b0 11 cd 35 bd 2d cf 0d be 27 f1 ee 3d 0d 76 c0 3d
       -0.04438502 -0.13848563 0.1166709 0.093975164
0001c0 6c 54 a8 3d 0c bd 05 be e9 6a d3 3d 60 90 e6 bc
       0.08219227 -0.13060397 0.10323126 -0.028145015
0001d0 43 f2 d8 3d 5b 47 81 3d f9 02 62 bd 3c a3 ca 3d
       0.10593083 0.06312438 -0.055178616 0.09894416
0001e0 e0 cf 0c 3e 3e c0 14 3e 5e ac e4 3d 52 4a 64 3e
       0.13751173 0.1452646 0.11165689 0.22293976
0001f0 48 35 10 bd 56 b6 02 bd 42 07 f4 bc c7 27 69 bc
       -0.035207063 -0.03191217 -0.029788617 -0.014230675
000200 bb 09 cb bd 0c 62 ab 3d 43 7e b7 3d 4d 0a 21 bd
       -0.09913965 0.0836831 0.089596294 -0.039316464
000210 f4 c9 13 be 82 7a 8c bd 79 4e 56 3e bd 1b 01 3e
       -0.14432508 -0.06859304 0.20928372 0.12608238
000220 fd 3e c4 3c dc 14 ca be cc 60 c6 bd 1a 0b 7d bd
       0.023955816 -0.3946904 -0.09686431 -0.061778165
000230 91 6b 82 bd 1a f2 0b be 9e 89 f9 bd 2c 86 47 3e
       -0.06368173 -0.13666573 -0.121844515 0.19484776
000240 21 94 00 bb 14 6b 6e bc 27 da 2e 3e b1 ae 3a 3e
       -0.0019619542 -0.014551897 0.17075406 0.18230702
000250 02 cf c3 bd b5 a4 34 3d 50 8a a9 3d 73 2e 42 3d
       -0.09560968 0.04410239 0.08278334 0.04740758
000260 e4 b4 28 be 3c e3 96 3d 00 48 ae 3d f9 33 eb bd
       -0.16475254 0.0736756 0.08509827 -0.11484522
000270 5d 27 c2 bd f8 07 32 3e e0 5f 2c 3e 8f 95 d4 3c
       -0.09480164 0.17385852 0.16833448 0.025950221
000280 f5 8b 2f 3e ec 30 0d be 58 3e 01 3e 29 1d 06 3e
       0.17143233 -0.13788193 0.12621439 0.13097061
000290 2c 44 b6 3c 3b 0f 53 3e 2c 0a 41 3d 3e 34 f3 3d
       0.022249304 0.20611279 0.04712884 0.11875199
0002a0 05 8e a3 3d e2 7e aa 3d b2 08 e0 bd 53 19 f1 bd
       0.079860725 0.08324982 -0.109391585 -0.11772408
0002b0 fd 23 66 3d 38 e4 e3 3d 94 6a c4 3b 49 06 ec bc
       0.056186665 0.11127514 0.0059941504 -0.02881159
0002c0 ec a1 49 be ed 21 28 bd 86 16 46 3e 6f db 96 3d
       -0.19690675 -0.04104798 0.1934453 0.073660724
0002d0 9d 13 1a be a8 f1 ab bd 1a b4 12 3e 42 fa 81 be
       -0.15046544 -0.08395702 0.14326516 -0.25386244
0002e0 38 30 a5 3d ea d4 e2 3c df e7 33 bd 4a 74 49 3d
       0.080658376 0.027689416 -0.0439223 0.049183168
0002f0 71 81 be bd 2a d0 78 3c 31 af e3 3b fc cb cf 3c
       -0.09302033 0.015186349 0.0069483747 0.025365822
000300 6a 53 50 be 06 e2 14 3e 55 1f 80 3d 25 0b 0c 3d
       -0.2034432 0.14539346 0.06255976 0.034190316
000310 ab a4 2b be 3a ad a2 bc c7 ca 61 3c 66 11 c8 3b
       -0.16762035 -0.019857991 0.013781256 0.0061055897
000320 c2 86 43 3d 96 4a 68 bd 9e 7d 35 be 01 f8 03 3e
       0.047735937 -0.056711756 -0.177237 0.12887575
000330 40 73 06 3d 8c fd 7d 3c f7 a6 43 be f2 47 09 3d
       0.032824755 0.015502345 -0.19106661 0.033515878
000340 b7 6c 61 3e 6c 85 23 be c2 13 12 be 30 81 32 be
       0.22014128 -0.15968865 -0.1426535 -0.17432094
000350 d9 9f 67 bd c3 a6 36 be 9e 19 3b bd f2 48 82 be
       -0.056548927 -0.17837052 -0.045678727 -0.25446278
000360 6c 2d 8e 3e b1 d2 28 3e f4 75 27 3e 7b a0 a3 bd
       0.2776903 0.16486622 0.1635359 -0.079895936
000370 de 78 1c 3e 03 27 17 be 94 ac 4d be 34 7f 05 3e
       0.15280482 -0.14760976 -0.20085365 0.13036805
000380 42 80 2c 3e 30 75 11 3e 4d 8f 85 bd c8 eb 66 3d
       0.16845801 0.1420486 -0.06521473 0.056377202
000390 0d 08 fe 3b 69 ef 8b bd c0 da e3 3c 6a d2 b5 3d
       0.0077524246 -0.06832773 0.027814269 0.08878024
0003a0 58 33 86 bc 46 bc 8a bd d0 e6 71 bc 21 72 fe bd
       -0.016381904 -0.067741916 -0.014764503 -0.12424112
0003b0 62 7d 99 bd 80 e0 8b bc 2a cb 8b 3d e0 0d ec bd
       -0.07494618 -0.017074823 0.0682586 -0.11526084
0003c0 50 b0 66 bc f2 28 3c be a2 f4 f0 bd ca b7 ad 3d
       -0.014080122 -0.18374994 -0.1176541 0.084823206
0003d0 86 07 bc bd f0 6c 0e be 21 70 df bd 90 90 08 bc
       -0.091811225 -0.13908744 -0.10910059 -0.008335248
0003e0 98 d3 41 bd 75 cb 12 be cc a0 41 bd 39 ff 50 3e
       -0.047320932 -0.14335425 -0.04727249 0.2040986
0003f0 04 c0 37 bd 15 ce 2c 3d 51 c4 ac 3d 53 54 b3 bd
       -0.044860855 0.042188723 0.08435882 -0.08756318

fc.bias f4 [128]
000000 ad 06 ba 3d d3 11 a0 3d b4 15 d8 3d b1 ff 3f bd
       0.090833046 0.078159 0.105510145 -0.046874706
000010 3b ed 40 be 50 b9 02 3e ab b2 9e bc 82 6d de 3d
       -0.18840496 0.12766004 -0.019372305 0.10860731
000020 78 d6 48 bc e3 0c d4 bd 8c ae 02 bd 84 d4 a0 be
       -0.012258165 -0.103540204 -0.031904742 -0.31412137
000030 81 bd db 3d 17 0e 79 3d 40 3d 06 3e 4f 35 07 3d
       0.107295044 0.060804453 0.13109303 0.033009823
000040 36 ba 10 be b4 4e 2a bd 26 2a 1e be c6 ff af bb
       -0.14133534 -0.041578963 -0.15445766 -0.0053710667
000050 6a ee cb 3d f0 ea fc 3e ce a0 a2 bd 8e 0a 11 bd
       0.09957583 0.49397993 -0.07940827 -0.035410456
000060 f6 6d ec 3d 13 64 93 bd 5b a0 88 be 23 ff e0 bd
       0.11544411 -0.07196822 -0.26684842 -0.109861635
000070 c5 45 f5 3c 7d d1 b3 3c dd fc 88 be 42 3a 97 bd
       0.029940495 0.021950478 -0.2675542 -0.07384159
000080 3c 61 1d be b0 f7 3e be 25 dd 2e be d6 61 b5 3d
       -0.15369123 -0.18649173 -0.17076547 0.08856551
000090 98 26 b1 bd 73 33 34 be e4 f0 e3 3d 8a 39 30 be
       -0.08649939 -0.17597751 0.111299306 -0.1720945
0000a0 60 4f 3b bd f2 06 67 bd a3 5c 2b be f0 d8 2b be
       -0.045729995 -0.056403108 -0.16734557 -0.16781974
0000b0 53 9c c4 ba 46 ba a3 3d ed 94 f5 bd 72 16 82 3e
       -0.0015000202 0.07994513 -0.11991296 0.2540775
0000c0 eb 4a fb bd 6e 6a 53 3e 70 ab 2b 3c e1 09 64 bd
       -0.12270149 0.20646068 0.010477886 -0.055673484
0000d0 e1 61 b8 3e da 4c 37 bd 79 6e 11 be 6f e7 1b be
       0.36012176 -0.044751026 -0.14202298 -0.15225004
0000e0 03 19 7e bc c7 de 2c be 0d ff 5c 3c 4c 1a 0b be
       -0.015508893 -0.16881858 0.013488543 -0.1358425
0000f0 06 05 46 be 1f db 53 3e fb 5e 99 3e 60 42 00 be
       -0.19337854 0.20689057 0.29955277 -0.1252532
000100 88 c9 d9 bc c1 5a 56 3e f2 b3 3e be 3e e8 dc 3d
       -0.026585355 0.20933057 -0.18623331 0.10786484
000110 69 5f a4 bd e6 c2 97 3e ea fe da 3d 8a 93 53 be
       -0.080260105 0.29640883 0.10693152 -0.2066175
000120 12 f9 c2 bd 60 69 7d bd fe b3 25 bd 49 07 79 3e
       -0.09520163 -0.06186807 -0.040454857 0.24319185
000130 20 27 4d be 25 93 66 bd 97 5c 08 be b5 23 5d bd
       -0.20034456 -0.05629267 -0.1331657 -0.05398913
000140 16 25 11 3e d7 ef 3f be 48 18 ad 3c bc 9a 14 be
       0.14174303 -0.18743835 0.021129742 -0.14512151
000150 d5 d1 c3 3d 83 d3 ea 3c 27 8c 33 be 26 87 6e 3e
       0.09561507 0.02866531 -0.17533933 0.23293743
000160 f7 4c 80 be 10 04 c2 bc 6d f9 ef bd 5e a3 bb 3d
       -0.2505872 -0.023683578 -0.11717496 0.09162019
000170 4e 78 fe 3d 8c 16 9b 3e a7 66 11 3d 7a 22 17 3e
       0.1242529 0.3029064 0.035498288 0.14759246
000180 76 dc ee bd 13 ac 45 be c0 67 02 bd cd 06 3d 3c
       -0.11663143 -0.19303922 -0.031837225 0.011537266
000190 6e 8e a6 bd a4 e0 5b 3c 4c 24 15 be 6a b1 cb bd
       -0.08132635 0.013420258 -0.14564627 -0.099459484
0001a0 93 29 05 3d aa a1 9e be fc ba 03 3e f3 69 ac 3c
       0.03251035 -0.30982715 0.12864298 0.021046614
0001b0 ef 7d 3a be 58 f6 42 be 57 09 e0 3e d4 e8 ff bd
       -0.18212102 -0.19039285 0.43757126 -0.1249558
0001c0 7e a2 d1 3e 7a 02 03 3b 95 0d 33 be 46 a9 8f 3d
       0.40944284 0.001999049 -0.1748565 0.07014708
0001d0 4d 87 35 be 02 d8 10 be ff b4 ce 3d a3 d3 56 3e
       -0.17727394 -0.141449 0.10093116 0.2097917
0001e0 6c a0 b3 ba ce 01 21 3d 48 b6 df bb 7d 72 e7 be
       -0.0013704426 0.03930836 -0.0068271495 -0.45204535
0001f0 c5 9a 95 3d dd db 04 3e 8f e4 0d 3e 0a 0d 2c be
       0.073049106 0.12974496 0.1385672 -0.16801849

hidden.0.weight f4 [128, 128]
000000 6c 49 95 bd 30 f1 fc 3b 21 88 8f bc 7f 01 e8 bc
       -0.07289395 0.0077191815 -0.017520966 -0.028321026
000010 9b 40 23 bd 45 11 59 be fe 7c cb 3d c5 5f 8b bd
       -0.039856534 -0.21197994 0.0993595 -0.06805376
000020 3f 5b 7e bc 39 32 fd 3c 39 b8 37 bd 94 e4 02 3e
       -0.015524684 0.030907737 -0.044853423 0.12782508
000030 35 f5 84 3d e0 76 af bd a8 a8 2b bd 71 f5 95 3c
       0.06492082 -0.085675955 -0.04190889 0.018305512
000040 0a a9 af bd 45 dc 70 3d 09 f7 c4 3d e3 c6 c1 bd
       -0.085771635 0.058803815 0.09617431 -0.09461763
000050 a6 3b 7a 3d f5 83 45 be 86 a6 87 bd 8b c5 a7 bd
       0.06109204 -0.19288619 -0.06623559 -0.08191975
000060 4d 49 83 bc 6b 7d 6a 3b b1 8c 55 3e e2 72 68 bd
       -0.016026163 0.0035780321 0.20854451 -0.056750186
000070 7d 22 8b bd f0 89 7d bd ff ec f3 3d 45 16 13 3e
       -0.067936875 -0.061899126 0.11910438 0.14363964
000080 87 b3 b6 3d 27 00 91 3d 50 07 43 3c 94 e3 aa bd
       0.08920961 0.07080107 0.011903599 -0.08344188
000090 0c ae 83 bd 3c 13 0c 3e 94 48 78 3d 83 cf b2 bd
       -0.06429681 0.13679212 0.06061609 -0.08730986
0000a0 5b ee aa 3d f8 ad 42 3a a7 13 0a bd f9 c2 cd bb
       0.08346244 0.0007426436 -0.03371015 -0.006279346
0000b0 1d 6a 98 bd d3 9a 7a bd c5 37 12 3d ec 03 13 be
       -0.074421145 -0.061182808 0.035697717 -0.14356965
0000c0 a6 ae 33 bd 7e 71 03 bd 20 b1 19 bd d4 7c 8c 3c
       -0.04386773 -0.032090656 -0.037522435 0.017149366
0000d0 65 9e 5f be ca 5d 23 bd ba 02 77 3d c9 f8 8c 3d
       -0.21837766 -0.039884366 0.060305335 0.068833895
0000e0 ce e9 99 3b fd 21 ae ba fd 0e 2d be 42 4a 2c 3e
       0.004697061 -0.0013285276 -0.16900249 0.16825202
0000f0 f8 25 64 3d 92 a1 b0 bd c3 33 b8 bd 9f c1 13 3e
       0.055700272 -0.08624567 -0.08994248 0.1442933
000100 96 65 2d 3d 1f d1 85 bd d2 3c e6 3d a0 81 e3 3b
       0.042333208 -0.06534027 0.11242069 0.0069429427
000110 34 ce a7 bd 07 5d 3e 3b b7 4a 90 3d 95 c9 3f bd
       -0.08193627 0.0029047148 0.07045501 -0.046823103
000120 e7 cd 0e 3c 03 5d 8d bd 75 f8 21 3d b8 81 50 be
       0.008716083 -0.06902506 0.039543588 -0.20361984
000130 db e6 9d 3d fa 34 27 3e 6c ed a2 bd 03 d1 05 3d
       0.07710048 0.16328803 -0.07955441 0.032670032
000140 7f ef 98 3c c6 c6 24 bd ce 33 05 bd c6 6e 7a 3c
       0.018668888 -0.040228628 -0.032520108 0.0152851995
000150 f8 3f bb bd 70 4b 93 3d 60 8c 04 3d 2f 5f ad bd
       -0.091430604 0.07192123 0.032360435 -0.084654205
000160 fb 6c df 3d 1f a1 b8 3d 7f 4a 5f bd 97 fa a9 3d
       0.10909458 0.090151064 -0.054514404 0.08299749
000170 a3 cf 98 3c 35 fa 3d be e8 17 26 bc 12 1c 0f 3d
       0.018653696 -0.18552478 -0.010137536 0.03493888
000180 91 d5 98 3d de f3 20 3d 2c 1d 47 bd 54 c0 8e 3d
       0.074626096 0.03929507 -0.048611805 0.069702774
000190 6b da 0d 3c 45 a2 40 bd 08 b8 b0 3c 1a 1c 6b bd
       0.008658032 -0.047029752 0.021572128 -0.057399847
0001a0 2d b0 0e be 65 ba 49 3e a6 02 82 bd fe 89 8f 3d
       -0.13934393 0.1970001 -0.063481614 0.07008742
0001b0 dc e0 e8 bc 8f d3 12 bd 91 4f 84 be 31 ab ae 3d
       -0.028427534 -0.03584629 -0.25841954 0.08528746
0001c0 a3 f3 91 be d0 46 e2 3b d5 9e ac 3d 62 56 49 bd
       -0.28506193 0.006905414 0.08428732 -0.049154647
0001d0 04 5b 99 bd 11 6d a8 3d f7 6d 1c 3c 13 32 85 3d
       -0.07488063 0.08223928 0.009547702 0.065036915
0001e0 92 4c 9a bd 94 dc 98 3c 17 c4 36 3d f9 2f 74 3e
       -0.07534136 0.018659867 0.0446206 0.23846425
0001f0 cc 03 83 bd b8 16 32 bc 8c 27 e9 3d 34 48 d0 bc
       -0.063972086 -0.010869674 0.11384496 -0.025425054
000200 25 aa b0 3d cc e4 a3 3c ed 60 0a 3e 26 d4 e9 3b
       0.086262025 0.02000656 0.13513537 0.007135886
000210 d3 38 8a 3d 0f 4f 87 bd e7 31 9c bd 4b 53 37 3b
       0.067491196 -0.06606876 -0.076267056 0.002797323
000220 f0 58 8b 3d e2 00 98 3c 6a fc 54 3d af 26 74 3c
       0.06804073 0.018555108 0.051998533 0.014901801
000230 95 bb 24 be 7c a1 75 3d cd 73 15 3c 0a 32 34 3d
       -0.16087182 0.059968457 0.009121847 0.043993033
000240 63 84 f1 3c 40 fd a7 3d 95 ca 54 bd 34 9c 6b 3d
       0.029482072 0.082026005 -0.05195101 0.057522014
000250 68 db 6b bc b6 52 3d 3d 48 80 92 3c 50 a4 9d 3c
       -0.014395572 0.046221457 0.017883435 0.01924339
000260 6a 5a c1 bc 70 c9 11 3d ed df 1b bd 57 74 fa bc
       -0.023602683 0.035592496 -0.03805535 -0.030573053
000270 d0 27 05 bd e0 b6 58 bc f0 e4 36 bd f1 20 df 39
       -0.03250867 -0.013227195 -0.044651926 0.00042558418
000280 25 35 0f bd 20 8e 64 bb ce d6 1c 3d c6 5c 42 3d
       -0.034962792 -0.0034874752 0.03829079 0.047451757
000290 e1 3b 9b 3d 6b bc 4c bc 66 e7 a6 bd c5 31 68 bd
       0.0757978 -0.012496094 -0.081496045 -0.05668809
0002a0 3a 35 63 3d cd 0f 93 bb 3d 30 3c bd fc 38 d2 3c
       0.055470683 -0.0044879676 -0.04594444 0.025661938
0002b0 91 fa 3d 3d 00 23 a6 b9 73 22 9b bd 79 5e 3f bd
       0.046381537 -0.00031688064 -0.0757493 -0.046720956
0002c0 f4 ea 3a 3d c7 69 04 bd 28 39 6f bc a2 ed 4b 3d
       0.045634225 -0.03232744 -0.014601029 0.04978717
0002d0 7d 20 1a 3c 62 26 e6 bd ed d1 78 3d 76 5e 07 3d
       0.00940716 -0.1123779 0.060747076 0.03304907
0002e0 b7 5b 01 3d e8 44 9e 3d 37 d2 98 bd c8 d1 fd bc
       0.031581607 0.077279866 -0.0746197 -0.03098382
0002f0 44 ef 35 bd 62 6c 7e 3d f3 82 f5 3b 7f 33 05 3d
       -0.044417635 0.06211508 0.007492417 0.032519814
000300 2f b2 54 bd 5f cb 82 3c 54 a5 5f bd 52 ae 5e 3d
       -0.05192774 0.015966116 -0.05460103 0.054365464
000310 62 23 e6 3c e2 91 ae 3d d3 15 94 3d c6 02 3a 3d
       0.028093044 0.08523919 0.07230725 0.0454128
000320 43 d4 af 3d 28 21 2f bd 7d 35 12 3d ef 37 3c bd
       0.085854076 -0.04275623 0.03569554 -0.04595178
000330 da 2a 23 bd a1 35 9b bd 04 19 92 bc e7 c8 b2 bd
       -0.03983579 -0.07578588 -0.017834194 -0.08729725
000340 f7 1e ab 3d 24 ac b0 bc ac 36 7c bd b4 81 80 bd
       0.083555155 -0.021566458 -0.061575577 -0.06274739
000350 16 2f 79 3d d3 47 32 3d 67 0b de 3c a7 ca dd bc
       0.06083592 0.04352553 0.027105046 -0.027074171
000360 cf 03 a5 3d 2b e9 7b 3b 68 53 12 bd 37 2b af bd
       0.08057367 0.003843854 -0.035724074 -0.085531645
000370 bc 1b 59 3d fa 52 58 bd 64 20 8f 3d 0f 28 8c bd
       0.053004965 -0.052813508 0.069886 -0.06843578
000380 6a 72 18 3d fc 0f ff 3c a8 c3 7a bc a4 c6 a8 3d
       0.03721849 0.031135552 -0.015305437 0.08241013
000390 a3 78 95 3d 6e 50 4e 3d ba b3 01 3d d1 da b3 bd
       0.072984 0.050369672 0.03166554 -0.0878197
0003a0 98 48 29 3d a5 d6 83 3c 42 2b 7e 3d 3c 89 c3 3d
       0.041328996 0.016093561 0.062052973 0.0954766
0003b0 00 eb eb 39 f6 39 38 bd cc de d1 3a c8 47 14 bc
       0.00044997782 -0.04497715 0.0016011833 -0.009050317
0003c0 b1 e8 29 ba c3 ec df ba af 2e 9b 3d 16 28 ee 3b
       -0.0006481512 -0.001708411 0.075772636 0.007267962
0003d0 c8 93 6e bc 4d dc 9b 3d 2b 05 9d bc 05 48 a9 3c
       -0.014561601 0.076103784 -0.019167503 0.020664224
0003e0 8f 45 67 bd 59 e0 d5 3c 92 08 8c 3d 11 84 6b bd
       -0.05646282 0.026107954 0.06837572 -0.057498995
0003f0 a8 3b 5d bd 12 7e ba 3d d7 f6 d7 bc 50 53 62 bd
       -0.05401197 0.09106077 -0.02636282 -0.055255234

hidden.0.bias f4 [128]
000000 f3 0d 8f be aa d1 52 3d 29 e1 24 be 57 c5 0e 3d
       -0.2794033 0.051469482 -0.16101517 0.034856167
000010 f3 cc 2e 3e 9d 82 9c bd 4f d2 63 3c 2a b8 b9 3c
       0.1707037 -0.076421 0.013905122 0.022670824
000020 90 aa 6f 3d f8 81 17 3d e4 08 a2 3d f2 cd 01 3c
       0.05851227 0.036989182 0.07911852 0.007922636
000030 c0 d8 79 3b e7 72 2c bd 84 62 10 bd b0 5d bb 3c
       0.0038123578 -0.042101767 -0.0352502 0.022871822
000040 90 91 f7 bc 07 06 86 3d b4 0e f9 3c 6f 82 3e bd
       -0.030220777 0.065441184 0.030402519 -0.04651111
000050 34 e5 09 bd 45 63 3d bd 7b 7c 05 bd 28 32 a9 bd
       -0.03366585 -0.04623725 -0.032589417 -0.0826152
000060 e1 81 18 bd 1d e7 26 3e 57 50 5b bd be 00 98 3d
       -0.037233237 0.162991 -0.053543415 0.074220166
000070 77 f3 13 3c b8 71 89 3d 27 d7 63 bb b6 5e 78 3d
       0.0090302145 0.06711143 -0.0034765692 0.0606372
000080 b8 54 2a 3c 39 d6 b1 bd 68 9e 9b 3d 52 32 46 3c
       0.010396175 -0.08683438 0.07598573 0.012096958
000090 90 c0 f4 3d 45 ac 0a bd e8 1e ab 3c cc b5 6a 3c
       0.11950791 -0.033855695 0.02088876 0.01432557
0000a0 c0 45 ad bc f9 bd 81 3d 8d d4 81 bd b1 97 33 3d
       -0.021151423 0.063350625 -0.06339369 0.043845836
0000b0 8f 19 85 bd ea 18 d8 3d 1a d2 34 bd 16 fa a8 bd
       -0.064990155 0.10551627 -0.04414568 -0.08250825
0000c0 22 8b 82 3d 86 14 a0 bc 3d 77 f5 3c 5f 64 91 be
       0.06374194 -0.019541036 0.029964084 -0.2839689
0000d0 dd d3 f3 3d 84 32 e6 3d 81 e5 72 3d 2d 67 bf 3d
       0.11905644 0.11240104 0.059300903 0.09345851
0000e0 4a 01 50 bd 76 18 06 bd 0b c2 3a bd 3d ad 4f 3b
       -0.05078248 -0.03273817 -0.04559521 0.0031688951
0000f0 e2 0c 8a 3d c7 d3 e2 bc 71 fd c7 3c 32 4e 85 bc
       0.067407385 -0.027688874 0.024412842 -0.016272638
000100 90 ca 67 bd 5c 88 95 3d 85 10 c4 bd ec cf 2a 3d
       -0.056589663 0.07301399 -0.09573463 0.041702196
000110 c2 14 3c bd b1 2c 62 bd c6 f5 64 3d 76 81 45 bc
       -0.045918234 -0.055218402 0.05589845 -0.012054792
000120 bb 1d d2 3d 8a 09 a8 3c 78 1e a6 3d 65 0b bc bc
       0.10259577 0.020512361 0.0811128 -0.022954652
000130 fd c0 0d bd 48 a3 9b 3c e7 f4 33 3d 66 98 7c 3d
       -0.034607876 0.018998757 0.04393473 0.061668776
000140 71 34 60 3d 49 82 42 3d 7c 36 3f bd 78 8d 4b bc
       0.054737512 0.04748753 -0.04668282 -0.0124238655
000150 02 c9 b4 3d ec 91 57 be e8 ba 76 3d de e5 c2 3c
       0.08827402 -0.21051759 0.06023684 0.02379125
000160 34 ba bb bc 5e 2f 05 3e 0f 1c 82 bd f8 55 ed bc
       -0.022915937 0.1300635 -0.06353008 -0.028971657
000170 8c 10 a9 bd c8 b6 8f be 23 6d 25 3c de b6 61 bd
       -0.08255109 -0.2806914 0.010096821 -0.055106036
000180 7c 75 aa 3d 12 56 86 bd 36 e5 da 3d 89 f4 a1 3c
       0.083231896 -0.06559385 0.1068825 0.019769924
000190 84 aa 42 bd 01 6d 46 bd b0 34 c3 bc 24 d9 28 3d
       -0.047525898 -0.048443798 -0.023828834 0.041222706
0001a0 8c ba aa 3d 7a ab 09 3e de 57 90 3d 1a 3e 80 3d
       0.08336362 0.1344432 0.07048009 0.06261845
0001b0 40 1b e3 3d 0d 9b 0d 3d ab 61 ac bd 5c 5c 75 bb
       0.11089182 0.034571696 -0.08417066 -0.0037439084
0001c0 99 90 ae bd 8e 7f 07 bd f4 f3 f0 3c a3 27 66 3d
       -0.085236736 -0.03308063 0.0294132 0.056190144
0001d0 65 ba 2e b9 3e 27 29 bd 90 ce a3 3d d2 6b b2 bd
       -0.0001666337 -0.04129719 0.07998383 -0.08711971
0001e0 12 4a ce 3d bd 10 44 bd 00 57 82 bd c7 33 43 3c
       0.100727215 -0.047867525 -0.0636425 0.0119142
0001f0 d2 98 f2 bc b1 f3 5f bd c8 fb c3 3d 65 4a 94 3d
       -0.029613886 -0.05467576 0.09569508 0.07240752

hidden.1.weight f4 [128, 128]
000000 4c 5e c5 3c 70 59 e0 3c c3 82 8b 3d 80 45 bd 3b
       0.024092816 0.027386397 0.0681205 0.0057761073
000010 80 6d 8b bd 82 df 64 bd a0 44 83 bd 1a ec 1d bd
       -0.06807995 -0.055877216 -0.064095736 -0.038555242
000020 96 8c 49 bd d8 20 b8 bc 98 bd 7c bc 33 4e 03 bd
       -0.04920634 -0.022476599 -0.015426062 -0.032057
000030 53 0a 8b 3d fc cc 7e bd d9 59 82 bd 60 71 9d bc
       0.067890786 -0.062207207 -0.06364793 -0.0192191
000040 a4 90 84 3c fa d2 33 3d 1a 81 7f bd 3a cc 63 3d
       0.016182251 0.043902375 -0.06237898 0.055614688
000050 38 b4 7c 3c e8 33 8e bd a3 4e 6f bd 06 3c 45 3d
       0.015423827 -0.06943494 -0.058424603 0.048152946
000060 34 2a 9b 3c 50 16 9f bd e9 11 a3 bd 90 6d 6a bc
       0.018941022 -0.07767928 -0.079624005 -0.014308348
000070 12 47 8d bd c3 fd 87 3d 07 a9 8d 3d 4a 55 74 3d
       -0.06898321 0.06640198 0.06917005 0.05965165
000080 b4 07 fa bc 60 d3 f1 bc 10 26 34 3c 8d e6 89 3d
       -0.030521251 -0.029519737 0.010995403 0.06733427
000090 27 d1 41 bd 06 ca 7c 3d ba e1 66 3d 4d 50 a0 3d
       -0.047318604 0.061716102 0.056367613 0.07827816
0000a0 54 60 bd bc b0 ba 30 bc 69 82 88 bd 6f a8 5b bd
       -0.023117222 -0.010786697 -0.06665499 -0.053627428
0000b0 3e 30 76 3d 53 25 a4 3d 38 c6 ce 3c 1e ce 6f bd
       0.0601046 0.080149315 0.025241002 -0.058546178
0000c0 1d 07 66 bd 3d e5 84 bd 2d 29 4a bd a5 4a a9 bd
       -0.056159128 -0.06489036 -0.049355675 -0.082661904
0000d0 5a 23 77 3d a8 08 c7 bc 1a db 20 3d 40 a6 bf 3a
       0.06033645 -0.02429612 0.03927145 0.001462169
0000e0 73 35 97 3d 7d 29 81 3d 55 dc a3 3d b6 79 75 3d
       0.073832415 0.063067414 0.080010094 0.059930526
0000f0 44 36 b2 3c 08 f1 5c bc 27 21 8b 3d 7d 0b af bd
       0.021754391 -0.013485201 0.06793433 -0.08547113
000100 7e 69 5d bd bd 90 96 bd 22 f3 62 3d 95 b1 82 3d
       -0.054055683 -0.073518254 0.05540765 0.06381527
000110 a0 e2 fd bb 65 84 85 3d e3 e2 06 bd 6f 72 b0 bd
       -0.007747963 0.06519393 -0.03293122 -0.086155765
000120 e2 62 f8 bc 98 d5 b5 3c 1a 8d 32 3d 3f f5 87 3d
       -0.030320588 0.022196576 0.043591596 0.06638574
000130 a3 8a a2 bd 08 4d 97 3c 50 95 37 bc e0 96 5c bc
       -0.07936599 0.018469349 -0.0112050325 -0.013463706
000140 c0 c7 df 3b b0 40 a2 3c 41 65 9d bd b2 1b 5d 3d
       0.006829232 0.019806236 -0.07685328 0.05398149
000150 43 38 8d 3d 34 38 05 bd 4e d4 5d 3d 7e 85 19 3d
       0.06895497 -0.032524303 0.054157548 0.037480824
000160 7e aa 8a bd a2 53 63 3d 5f 7f ac 3d 0d 74 a9 bd
       -0.067708 0.05549968 0.084227316 -0.08274088
000170 18 17 26 bc bc 93 cb 3c 10 8a f3 3b 04 64 a3 3c
       -0.010137342 0.024850719 0.00743223 0.019945152
000180 ae 1b 7a 3d 7d 00 88 3d 96 1d e4 bc 60 34 58 bc
       0.061061554 0.06640718 -0.027846139 -0.013196081
000190 a9 d3 86 3d 74 9b e6 3c 03 81 8e 3d 4f 2c 1d bd
       0.0658334 0.028150298 0.06958201 -0.038372334
0001a0 6b 39 87 3d 12 7d a4 bd f0 f7 7d 3c f7 78 aa 3d
       0.066027485 -0.08031668 0.015501007 0.083238535
0001b0 23 55 46 bd ed fd a3 3d 10 99 2c bc 3e 6b 2e 3d
       -0.048421036 0.08007417 -0.01053454 0.042582743
0001c0 24 b8 89 bd 00 1b ea bb 52 70 9f bd f8 66 76 bc
       -0.06724575 -0.007144332 -0.07785095 -0.015039198
0001d0 c8 b2 b1 bd 4d da b2 bd 72 9c 6b 3d e8 bd 90 bd
       -0.08676678 -0.08733044 0.057522245 -0.07067472
0001e0 30 c7 f1 bb 20 80 67 bc aa 8b 50 bd 48 60 29 bc
       -0.0073784813 -0.0141296685 -0.050914444 -0.010337897
0001f0 f8 87 e3 3c 0b 71 25 bd 8b 45 80 3d 64 81 a7 bd
       0.027774796 -0.04039101 0.06263264 -0.08178976
000200 c3 6a df bd bc 26 c9 3c 8b 75 bb bd 2a 44 8c 3d
       -0.10909035 0.024554603 -0.09153279 0.06848939
000210 03 34 0c 3e 98 e0 1e bc 61 52 40 bd c5 f8 79 3d
       0.13691716 -0.009697102 -0.046953563 0.06102826
000220 65 3c 37 bd 09 40 26 bd 47 da dc bb 9b 75 78 bd
       -0.04473533 -0.040588412 -0.006739888 -0.060659032
000230 b1 27 62 bd 57 53 cb ba 13 12 80 3d 3b cb 57 bd
       -0.055213634 -0.0015512508 0.062534474 -0.05268405
000240 78 c7 33 bd e8 36 28 bd d0 e9 02 bd 3c 36 8b bd
       -0.0438914 -0.041067988 -0.031961262 -0.06797454
000250 a8 0d af 3d eb 5a da 3d a1 61 96 bd 1a c8 d4 3b
       0.085475266 0.106618725 -0.0734284 0.0064935805
000260 3d c7 9c 3d dc 0f a1 3d a8 31 1e 3d 7b a2 0f bd
       0.07655189 0.07864353 0.038621575 -0.035067063
000270 5d 55 95 bd 84 8e 32 bd ac 03 67 3d a4 41 50 3d
       -0.072916724 -0.043592945 0.056399986 0.05084385
000280 b4 32 a6 3c 40 73 1c bc 74 16 3b 3d 40 57 31 bd
       0.020287849 -0.009548962 0.04567571 -0.0432961
000290 75 04 a4 3d 0b 59 17 bd 00 74 80 bc 34 78 12 bc
       0.080086626 -0.036950152 -0.015680313 -0.0089397915
0002a0 66 d5 82 bd 59 30 a5 bb c2 4b 1d 3d b4 44 cf 3c
       -0.06388359 -0.005041164 0.038402326 0.025301315
0002b0 b0 b6 c8 bc b9 64 da 3d e7 67 0e bd 0f 41 30 bd
       -0.024501175 0.106637426 -0.034767058 -0.043030795
0002c0 b9 bc cb 3c 81 69 e1 bc 81 cd 45 3c ce 24 69 be
       0.024870263 -0.027516128 0.012072922 -0.22767946
0002d0 d3 d5 c0 3d 50 60 6a bc 23 51 72 bd 8e 33 90 3d
       0.09415784 -0.014305189 -0.05915941 0.07041083
0002e0 2d 97 3c 3d 24 f4 22 bd 0d 58 cb 3d 20 2e 41 3d
       0.04604261 -0.039783612 0.09928904 0.04716313
0002f0 d0 18 58 bd 06 1d ad bd 3f 08 9d bd 2b fe ae 3d
       -0.052758038 -0.084528014 -0.076675884 0.085445724
000300 a1 ec 98 3c a8 e2 d8 3d 07 b4 36 bd 0e d9 60 bc
       0.018667521 0.10590106 -0.04460528 -0.013723625
000310 6d d5 10 3d 08 a4 01 3d d5 75 4a 3d 24 3e 5f 3d
       0.03535979 0.031650573 0.04942878 0.05450262
000320 1f 8e da 3c 1c c3 09 bd 7e 54 46 3d 65 9f 56 bd
       0.026679097 -0.033633336 0.04842042 -0.052398104
000330 d2 01 90 bd 41 15 9e 3d d6 bc 64 3d e5 12 a3 3d
       -0.07031597 0.077188976 0.05584415 0.07962588
000340 64 ed 2b 3d c0 f6 a0 3d cc c7 5e bd 67 fd 86 3d
       0.04197444 0.07859564 -0.05438976 0.065913014
000350 6b 6f 43 3d 47 5f 93 bd 00 62 a2 3d d8 67 53 3c
       0.04771368 -0.07195907 0.07928848 0.012903176
000360 7f 99 99 3d 8b 07 a8 3d 66 d7 23 bd f8 14 d8 3c
       0.0749998 0.08204564 -0.04000034 0.026377186
000370 d3 09 77 bd 52 db 2e be af 4d 9a bd 51 23 70 bd
       -0.060312103 -0.17075852 -0.07534348 -0.05862743
000380 ea e4 7d 3d 22 a1 a2 bb 84 36 03 3e 22 0c 3a bb
       0.061985888 -0.004963056 0.12813765 -0.002838858
000390 d0 98 27 3d d0 33 82 3c 69 a0 94 3d 61 67 de 3b
       0.040917218 0.015893847 0.07257158 0.006787226
0003a0 93 6e 53 3d 2d 79 c4 3d 8d a1 68 3d 81 91 2e 3d
       0.051619124 0.09593425 0.05679469 0.042619232
0003b0 37 52 62 3d 9e 3e af bc 88 83 97 bc f8 a8 9b bb
       0.055254187 -0.021392163 -0.018495336 -0.0047503673
0003c0 60 22 94 bd 33 32 b1 bd 38 7f 6e 3c 99 72 fd 3c
       -0.07233119 -0.08652153 0.0145566985 0.030938433
0003d0 e9 8e ce 3b e0 6a 7e bb 52 fd 1a 3d f1 a4 b4 3d
       0.0063036573 -0.0038821027 0.03783924 0.088205226
0003e0 34 31 15 bd e2 38 21 3d b6 21 85 bc ba ba aa 3c
       -0.036423877 0.03936089 -0.016251426 0.020840991
0003f0 ba 4f b3 bc 2e 68 03 bd 91 3a e1 bc 8b 9e fe 3c
       -0.021888603 -0.032081775 -0.027493747 0.031081459

hidden.1.bias f4 [128]
000000 0e db a9 bd 89 f6 9d 3d c7 98 c1 bd d5 4f df 3d
       -0.082937345 0.077130385 -0.09452968 0.109038986
000010 b6 d1 24 bc 59 1b bb 3c 00 9a 8c 3d 58 f2 69 bd
       -0.010059765 0.022840189 0.06865311 -0.057115883
000020 0a 9f 19 3d 04 94 45 bc 65 09 58 bd da 6e 22 3e
       0.037505187 -0.012059215 -0.052743334 0.15862599
000030 19 8b 43 3d 0f 51 01 bd 9d 96 43 3d d1 f7 45 3c
       0.047740076 -0.031571444 0.047751058 0.01208301
000040 34 10 90 ba 6d 57 98 bd a9 93 90 3b 3c dc 26 bb
       -0.0010991157 -0.0743855 0.0044121337 -0.002546086
000050 48 89 99 bd 5e cd 05 bd f7 62 ba 3d f2 28 18 3c
       -0.074968874 -0.032666557 0.09100907 0.009287106
000060 29 2a 2e 3d 9d 82 f5 3d 7a 9f cb 3c ff 8e a6 bd
       0.042520676 0.11987803 0.024856318 -0.08132743
000070 31 fa 73 bd 08 3c 8a bd 51 1e 52 bc 8d 9b 81 3d
       -0.059564773 -0.06749731 -0.012824611 0.06328497
000080 41 f8 98 bd 16 85 a1 bc 48 fc 98 bd ba a4 d2 3c
       -0.07469226 -0.01971678 -0.07469994 0.025713313
000090 2b 87 9e bd fd d5 04 3e 46 c2 4a 3d b0 77 8a 3c
       -0.07740625 0.12972255 0.04950168 0.016902775
0000a0 30 a7 e5 3c 9f a2 40 bc 00 c0 60 b9 38 44 af 3d
       0.028033823 -0.011757522 -0.0002143383 0.085579336
0000b0 3c a8 5e 3d c7 09 be 3c 81 46 0a bd aa 9f 5f 3d
       0.05435966 0.023198022 -0.033758644 0.054595627
0000c0 d8 7b 19 b9 00 26 04 b9 dc 41 bc bc 1f e8 90 3c
       -0.00014637352 -0.00012602657 -0.022980623 0.017688809
0000d0 f6 c6 53 3d b9 d1 2c bd 99 7d d8 3d 99 a7 6c 3d
       0.051703416 -0.042192195 0.10570831 0.05777702
0000e0 ec 3b 81 3a be c4 df 3d 4f 05 12 bd ec 83 07 bd
       0.0009859777 0.109261975 -0.035649594 -0.033084795
0000f0 4e 35 08 3d 24 ed 4b bd 7e 43 b9 3d b8 cf 0d bd
       0.03325396 -0.0497867 0.09046076 -0.034621924
000100 1b 2e b3 bd 6c be 13 3e c4 f9 4c bd d9 8e 70 bc
       -0.08749028 0.14428109 -0.050042883 -0.014682495
000110 80 ba 0f bd fd e0 6b 3d c1 45 9c 3d af 18 ee 3d
       -0.03508997 0.057587612 0.07630492 0.11625802
000120 5a 98 1f bd ea 7a de 3d b5 0f 09 bd ca a5 ff bc
       -0.038963653 0.10863288 -0.033462245 -0.031206984
000130 a9 96 1f 3d fe 14 a5 bd ff a8 d4 bc 34 76 b5 bd
       0.03896204 -0.080606446 -0.02595949 -0.08860436
000140 4a bd 33 bd 9d 4b 90 bd 36 33 98 bd f6 8f 16 3d
       -0.043881692 -0.07045672 -0.07431643 0.036758386
000150 cf fd 4d 3d 80 3f d8 3a 18 93 33 3b e5 39 8a bb
       0.05029088 0.0016498417 0.0027400907 -0.0042183273
000160 5e c7 71 3d 4f 52 92 3d 80 c7 cf 3c db 04 82 3d
       0.059028022 0.07144605 0.025363684 0.06348582
000170 f1 8c ab bc 94 9a 99 bc 03 f8 be 3d 68 84 92 3d
       -0.02094123 -0.018750466 0.09324648 0.07154161
000180 32 2d 4b bd 08 73 20 bc a4 fb ae 3d 7e 72 3e bc
       -0.04960365 -0.009793051 0.085440904 -0.011623977
000190 4b 6e b0 bd 15 d3 88 3d 02 95 8e bd 08 7e 60 bd
       -0.08614787 0.06680886 -0.06962015 -0.054807693
0001a0 30 6b 47 3d f7 87 33 3d 3c e0 78 bd 58 85 13 3e
       0.048686206 0.043830838 -0.06076072 0.14406335
0001b0 40 b9 c4 3c 46 9d 18 3d ec e7 87 bc bb ec c8 3d
       0.024014115 0.037259363 -0.016590081 0.09810778
0001c0 e8 46 16 bc 0d 15 28 bd 00 e8 08 b8 8d a2 b7 3d
       -0.009172179 -0.0410357 -3.2640994e-05 0.08966551
0001d0 38 9a 81 3c 94 5a 46 3c 5f 1f 76 bd a5 73 9d bd
       0.015820608 0.012106556 -0.06008851 -0.07688073
0001e0 2b 22 25 3e 40 38 8c ba 6e 74 1b bc c8 b8 4e 3d
       0.16126315 -0.0010697916 -0.009488208 0.05046919
0001f0 e3 fa 7a 3d 2e a7 c8 3b e5 97 9e bd 12 43 14 bc
       0.06127442 0.006123445 -0.07743815 -0.009049194

v.weight f4 [1, 128]
000000 44 59 ce bc ce 6f d5 be e3 2f e3 3d 89 f7 91 be
       -0.02518905 -0.41686863 0.11093118 -0.28509167
000010 7c b2 77 be a3 44 82 be fc f8 33 3d 3b fb 8e 3c
       -0.2418918 -0.2544299 0.043938622 0.01745378
000020 00 df 7c ba 1f 46 8f 3c 18 7a 6f bc e5 09 0c bf
       -0.00096462667 0.017489491 -0.014616512 -0.547026
000030 b4 fc 26 3d 0d 5b c7 be d9 cf 24 bd dc 82 c2 be
       0.04076834 -0.38936654 -0.04023728 -0.37990463
000040 6e 1e a0 be 74 66 e1 3c df 84 a9 3d 22 4b c8 be
       -0.31273216 0.027514674 0.08277296 -0.39119822
000050 eb 74 59 bc 63 e8 62 3d 63 13 98 3d 25 15 c9 3e
       -0.013272504 0.055397402 0.07425573 0.39273944
000060 e3 14 53 bd db 30 ab be 05 48 4c 3d 17 66 90 bd
       -0.05153359 -0.3343571 0.04987337 -0.07050722
000070 f7 f1 c2 3c ca cb 2d bd 32 80 2a 3e c2 fa 42 bd
       0.023797018 -0.042430677 0.16650465 -0.047602423
000080 de b2 3e 3d d0 21 af 3d 6e bd 7b 3d 8c 25 8d bd
       0.0465573 0.08551371 0.06145995 -0.06891927
000090 1c db 11 3d 13 b4 0f bf 02 e6 e3 3c 01 26 89 3d
       0.03560935 -0.56134146 0.027819637 0.06696702
0000a0 75 94 8d 3d f7 79 2b 3d c0 df 0b 3c df a9 bc be
       0.069130816 0.04186436 0.008537233 -0.3684835
0000b0 97 4e 89 3c e7 70 84 3d ef 4e 68 3e ae 60 73 be
       0.016761107 0.06466847 0.22686361 -0.23767349
0000c0 16 ea 19 3e 70 ef 45 bc b0 f9 a3 3c 47 45 a1 bd
       0.15030703 -0.012081012 0.020016521 -0.07874542
0000d0 d6 2d 58 be d9 eb fb 3c 1f 9b cb be a1 08 31 3e
       -0.21111235 0.03075211 -0.39766786 0.17288448
0000e0 a6 4b 15 bf f0 3e ed be 22 9b 67 3d b1 9a 71 be
       -0.58318555 -0.4633708 0.05654443 -0.23594166
0000f0 50 6f d8 3b 60 3c 01 3d 08 b1 5f be fb 3e 01 be
       0.0066050664 0.03155172 -0.21844876 -0.12621681
000100 e2 7a ff bb d1 82 d8 be b9 10 03 be 7f 0d 26 bd
       -0.007796631 -0.42287305 -0.12799348 -0.040540215
000110 9c a1 c0 3c 07 88 11 bf 02 09 47 bb 82 5c 18 bf
       0.023514561 -0.56848186 -0.003037036 -0.59516156
000120 3c 86 c8 3c 97 93 57 bf af 48 9b 3e 0f 86 a7 3d
       0.02447807 -0.8420958 0.3032889 0.081798665
000130 42 82 99 bd 47 5b 85 3d 91 3f 25 3e d1 06 a4 3d
       -0.07495548 0.065115504 0.1613753 0.080091126
000140 dd ef c2 bc f0 fd 6b bd ba 70 82 bd 69 b0 0b bf
       -0.023796016 -0.05761522 -0.06369157 -0.54566056
000150 a0 25 06 bf dd 82 1d bd 30 43 3d 3c 85 a2 27 bf
       -0.5240116 -0.03845488 0.011551663 -0.6548236
000160 64 b3 4c be 0b 47 b6 bc 6f 9a df bd 6b 79 38 3d
       -0.19990307 -0.022250673 -0.10918128 0.04503767
000170 0d d3 88 3d cb db a1 3d fd 5c 29 bf 99 f6 0a bf
       0.0668088 0.0790325 -0.66157514 -0.5428253
000180 de 35 2c 3d ab 55 77 be 74 3c fa be a0 94 0d bd
       0.04204356 -0.24153773 -0.48874247 -0.034565568
000190 80 0c 8f 3d 30 f7 1a bd 95 d2 97 bd d8 d1 0e be
       0.06984806 -0.037833393 -0.07413212 -0.13947237
0001a0 51 04 c8 be 9a e8 1b 3d ca 00 32 bd 58 ea 35 bf
       -0.39065793 0.038063623 -0.043457784 -0.71060705
0001b0 f0 20 01 bc 41 3a cc 3c 9c cb 53 bd 16 4c a3 bd
       -0.007881388 0.024930121 -0.05170785 -0.079734966
0001c0 38 4a 4d 3c 21 bf 82 bd c0 b4 48 3c 71 f6 8c bd
       0.012529902 -0.06384111 0.012250125 -0.068829425
0001d0 fe 31 b0 bb 13 2e 89 be cc df 97 3d f2 58 4b bd
       -0.0053770533 -0.26792964 0.07415733 -0.04964537
0001e0 7e 4c 8c be fe b3 53 3d 20 c2 89 be a0 d9 34 3c
       -0.2740211 0.051685326 -0.26905918 0.011038214
0001f0 57 29 36 bf b1 e3 8e bd f5 a3 91 3e 1d 4b 1c bd
       -0.7115683 -0.069770224 0.28445402 -0.03815757

adv.weight f4 [20, 128]
000000 f0 c1 19 bd 23 04 7c 3d 3a 31 02 3d e4 9f a2 bd
       -0.03753847 0.061527383 0.031785227 -0.07940653
000010 45 d2 af 3d 43 f0 42 bc 22 68 83 bd a3 17 73 bd
       0.085850276 -0.011898103 -0.06416346 -0.059348714
000020 da b3 6a 3d 3c dd 2b bd d9 ba 37 3d 05 79 83 3d
       0.057300426 -0.041959032 0.044855926 0.06419567
000030 3c 36 0c bd 09 64 b0 bd 14 c1 c6 ba 70 75 37 bd
       -0.03423141 -0.0861283 -0.0015163743 -0.04478973
000040 10 08 e7 3d cb af 76 bd 2b 6d 94 3d 87 19 97 3d
       0.11280835 -0.060226243 0.07247385 0.07377916
000050 83 15 f0 3d 0f 37 43 bd f9 74 a1 3d 1e 8d b2 bd
       0.11722853 -0.04765993 0.07883639 -0.08718322
000060 6c 70 06 bd fa 17 3e 3d b9 d8 90 3d 9e 30 48 3d
       -0.032822058 0.046409585 0.070725866 0.04887449
000070 ae bc 67 3d ce d4 ac bd d5 1a e2 bc 06 09 77 3d
       0.056576423 -0.08439027 -0.027600685 0.06031134
000080 1d f1 2a bd 34 2f 17 bd a1 55 af 3d 76 ce 84 bb
       -0.04173385 -0.03691025 0.08561254 -0.0040529324
000090 09 0b 73 bc 4f e7 35 bd e7 d7 bb bb 82 43 06 3d
       -0.014834174 -0.044410046 -0.0057325247 0.032779224
0000a0 61 4e b0 3d 2e e6 c7 3b 80 02 cd 3a 29 9f 75 bd
       0.086086996 0.0061004376 0.0015641004 -0.05996624
0000b0 bb af 06 3d e1 44 40 3d 64 c6 34 3c 92 f5 84 bc
       0.032882433 0.046940688 0.011033628 -0.016230378
0000c0 cf 23 bd bc 21 71 8b 3d ac fb b9 3c 42 74 4d 3d
       -0.023088364 0.06808687 0.022703014 0.0501597
0000d0 82 52 6a 3d 68 2a 28 3a cf 4d b3 3d 9c ed da 3c
       0.05720759 0.00064150104 0.08755075 0.02672463
0000e0 ed 8c 81 3d 14 6a 63 3d 5a 61 ab bd e1 28 cb 3d
       0.063257076 0.055521086 -0.08368178 0.099199064
0000f0 c9 4a b4 3d 31 27 8a 3d 24 8e 96 bd a3 6e dd 3c
       0.08803327 0.067457564 -0.0735133 0.027030295
000100 2b c1 78 3d c7 f0 33 bd 1d 6d 85 bd c1 7e ff 3b
       0.060731094 -0.043930795 -0.06514952 0.0077970927
000110 42 bf 1c bd 8a c5 9e 3d f0 4a e3 3c 14 a9 c0 3d
       -0.038268335 0.07752521 0.027745694 0.09407249
000120 d3 d8 a4 bd 8b f1 b1 bd 6a 1e 87 3a 10 33 5c 3d
       -0.080491684 -0.08688649 0.0010308747 0.053759634
000130 44 06 68 bd 04 2a 84 bc 3d 36 9a 3c c6 5f 0e bd
       -0.0566466 -0.016133316 0.018824691 -0.034759305
000140 a8 6a b2 bd 66 4b 9c bd 6a 07 a7 bd 1b 45 e1 3c
       -0.08711749 -0.076315686 -0.08155711 0.027498772
000150 db 28 8e bc f4 2b a8 3c 08 f6 86 3b 0a 94 cb 3d
       -0.017353466 0.020528771 0.0041186847 0.099403456
000160 b8 da a6 bd 4b b2 9a bd 08 f9 bc 3b d5 a5 24 bd
       -0.08147186 -0.07553538 0.0057669915 -0.040197212
000170 3c c4 b0 bd ec a7 ad bd d6 c4 a0 bd 46 3f 92 bd
       -0.08631179 -0.08479294 -0.078500435 -0.07140975
000180 3c 23 9e bd b6 73 a9 3d cb fd 73 bc f2 2a 5e bc
       -0.07721564 0.08274023 -0.014892052 -0.013560044
000190 d0 9c 50 3d a6 54 79 3d f6 a3 97 bd e9 7e a3 3c
       0.050930798 0.060871743 -0.0740432 0.019957976
0001a0 7b 96 a7 3d fa 14 bb 3c a2 31 57 3d a6 db e9 3b
       0.08182999 0.02283715 0.052537568 0.00713678
0001b0 24 7d b3 bd 79 e3 93 3d 6f 54 ae 3d fb 6e 44 bd
       -0.08764103 0.07221121 0.08512198 -0.0479574
0001c0 68 07 76 bc dc fc 87 bd fc e3 93 bc 87 8b 76 3d
       -0.015016414 -0.06640026 -0.018053047 0.060191657
0001d0 27 d3 7b 3c 26 04 a5 bc e4 86 8a bd 0e cb 61 3d
       0.015370167 -0.02014358 -0.067640096 0.05512529
0001e0 f6 ff d3 bc 74 bb f9 3c ca 90 59 bd 58 dc 85 bd
       -0.025878888 0.030484892 -0.053116597 -0.06536168
0001f0 92 72 f4 3d 73 de b7 bc 5e 78 6e 3d f7 7d 8f bd
       0.11935915 -0.02244494 0.05822026 -0.07006448
000200 6f cd 03 bd fb 2d 8e 3d ee f5 b4 3d b5 ab fd bc
       -0.03217834 0.06942364 0.0883597 -0.030965665
000210 50 87 7f 3c 90 dc cf bd 3a d4 fa bb 6b c4 49 bd
       0.015596226 -0.10149491 -0.007654694 -0.049259584
000220 b0 b8 22 3c f8 34 b6 3c 9a a2 ae 39 3a 94 79 3d
       0.009931728 0.022242054 0.00033309014 0.060932375
000230 4b 00 6b 3d e0 ac ae bd 2d 84 81 3d b1 04 5f 3d
       0.057373326 -0.08529067 0.06324039 0.054447833
000240 44 2e 70 bd c2 99 55 3d 60 62 6b bb e6 af c8 3c
       -0.058637872 0.052148588 -0.003591679 0.024497937
000250 68 af d0 bd 21 30 d1 bc b1 51 38 3d 61 77 aa 3d
       -0.10189706 -0.025535645 0.044999782 0.08323551
000260 72 07 a1 bc 9c a2 99 bd 06 49 d8 bc c5 e6 8a 3d
       -0.01965687 -0.075017184 -0.026402008 0.06782297
000270 ad b6 74 bc 91 3e a6 3d 1c 5b 60 3d 9b c7 7c 3d
       -0.014936131 0.08117402 0.05477439 0.061713796
000280 52 91 45 3d a7 77 93 3d b4 d7 ea 3c 26 60 54 bb
       0.04823429 0.07200556 0.028667308 -0.0032405942
000290 e3 8c 86 3d 60 d1 0e bd 0b e3 aa 3d 12 e0 72 3d
       0.06569841 -0.034867644 0.08344086 0.05929572
0002a0 0e a6 49 3d 99 ab 60 bd 3c f0 b9 bc ab 21 35 3d
       0.049230628 -0.05485115 -0.02269756 0.04422156
0002b0 c3 42 76 bd 97 d9 90 bd 58 01 d7 bc 8e 99 1a bd
       -0.060122263 -0.07072752 -0.026245758 -0.037744097
0002c0 3d 9c ab bd 4d af 08 bd 88 f2 71 3c 3a ee 51 bd
       -0.083794095 -0.033370305 0.014767297 -0.05125258
0002d0 0b 93 0e bd 69 d1 47 bc c2 58 2f 3d 02 4e 35 3c
       -0.0348082 -0.012195923 0.042809255 0.011065962
0002e0 bb b7 a2 3c 53 a7 3b bd ff 08 8e 3d 4f 52 94 bd
       0.019863 -0.04581387 0.069353096 -0.072422616
0002f0 20 d4 86 bd bc 0b ec bc 99 5b d8 3c 46 ea b2 3c
       -0.065834284 -0.02881419 0.026410865 0.021840226
000300 37 7d 74 3b d2 bb a7 3c 3d 29 3c 3d 0f e5 9e bd
       0.003730608 0.020475302 0.045937765 -0.07758533
000310 2e 04 55 3d f4 58 a5 3c 23 0a 84 3d 5e 55 5b 3d
       0.05200594 0.020184018 0.06447246 0.05354821
000320 b4 b6 ef bc a4 88 80 3b 09 b0 a0 bd 0e 00 1f 3b
       -0.029261924 0.003922539 -0.07846076 0.0024261507
000330 30 76 9d 3d 24 32 8e 3c 72 7f ba bd be be ee bd
       0.07688558 0.017357893 -0.091063395 -0.11657475
000340 62 79 9a 3c 63 6b 1a bc 7d bf 25 bd 73 b0 ba bd
       0.018856708 -0.009425017 -0.04046582 -0.09115686
000350 d0 e6 ab bd ae 42 18 3d 38 41 e1 bc f5 c5 18 3d
       -0.08393633 0.037172966 -0.027496919 0.03729816
000360 83 f3 4f bc 7b 9e 4e bd 9f 13 47 3d c1 a1 2c bc
       -0.012692335 -0.050444108 0.048602697 -0.010536612
000370 45 16 ba bc c5 d6 81 bd 9f 05 e9 3c 95 df 3b 3d
       -0.022715697 -0.06339792 0.028445063 0.04586752
000380 50 86 10 bc e9 cf 4c 3d cb 50 14 3d 65 6f 88 bd
       -0.008821085 0.050002966 0.036209863 -0.06661872
000390 43 aa 20 3d 44 ec ce 3c 7c 49 09 bd a7 05 ca bc
       0.039224874 0.025259145 -0.033517346 -0.024660898
0003a0 7c cf 88 3d 73 bd b7 bc 5a f3 5f 3d 2d 0b fe bc
       0.066801995 -0.022429204 0.054675438 -0.031011188
0003b0 91 01 ad 3d 90 12 a5 3c bd 0a aa 3d 8b e3 79 3a
       0.084475644 0.020150453 0.083028294 0.0009532503
0003c0 c5 3a 30 bd 79 7a 66 3d 6f cc 41 bd 5e 14 dc bc
       -0.043024797 0.056269143 -0.047314104 -0.02686518
0003d0 f3 d4 29 bd da 89 8d bd 0e 90 40 3c e1 92 09 bd
       -0.04146285 -0.06911059 0.011753095 -0.03358734
0003e0 dc bc a5 3c 2c ca a4 bc 3e b2 f6 3c 5e 68 a9 3d
       0.020231657 -0.020115934 0.03011429 0.082718596
0003f0 1b 80 72 bd c6 94 b5 bc 96 d9 0c bd a0 62 78 bd
       -0.059204202 -0.022165667 -0.034387194 -0.06064093

adv.bias f4 [20]
000000 bb dd 6e bd 15 8f 18 3d c3 eb ab bd f0 87 08 3e
       -0.058316927 0.03724583 -0.08394577 0.13333106
000010 19 e7 a9 bd cc d3 69 3d 3a c3 59 bd f7 9b 77 3d
       -0.082960315 0.05708675 -0.0531647 0.060451474
000020 1f cb 29 bd c7 2f a8 3d 19 4e 07 3c 50 f9 f4 3d
       -0.041453477 0.08212238 0.008258366 0.11961615
000030 70 2e 39 bd 18 a0 09 3e 53 99 c4 3c ad cb ca 3d
       -0.045210302 0.13439977 0.023998892 0.09902129
000040 54 cb 03 be 27 09 83 3d 74 e2 6b bd c6 ef c3 3d
       -0.12870532 0.0639823 -0.05758901 0.095672175
