DDQN/radiiResults/10cyl_2000epsDecay_10outercylAt3.5Radii/Qtarget100.pt (torch, 158783 bytes, 9 tensors)

fc.weight f4 [128, 23]
0	0xbe5199a4	-0.20468765
1	0xbd049f08	-0.032378227
2	0xbe39ec36	-0.18156514
3	0x3e26917c	0.16266435
4	0xbe33961b	-0.1753773
5	0xbdaf0fbe	-0.085479245
6	0x3dde0c83	0.1084223
7	0xbe0267f2	-0.12734964
8	0xbdf8a7f1	-0.12141407
9	0x3e43e0df	0.1912875
10	0x3c8fb206	0.017540943
11	0xbca86353	-0.020555174
12	0xbe359e0d	-0.17736073
13	0x3e2e5913	0.17026167
14	0xbe25cae1	-0.16190673
15	0x3e55f355	0.20893605
16	0xbd91ed34	-0.07125321
17	0x3d821090	0.06350815
18	0x3d5d1736	0.053977214
19	0xbbc28d8d	-0.0059372843
20	0xbd580ad5	-0.052744705
21	0xbe28e8f7	-0.16495119
22	0x3e16f319	0.14741172
23	0x3dab6dff	0.083705895
24	0xbe240e66	-0.16021118
25	0xbe4c762d	-0.19966955
26	0x3e4b77d8	0.19869936
27	0x3e27c228	0.16382658
28	0xbdfc8756	-0.12330501
29	0xbdf4d563	-0.11954763
30	0xbd9470f3	-0.07248106
31	0xbdc7b58a	-0.09751423
32	0xbd1f5798	-0.038901895
33	0xbc0fe32a	-0.0087821875
34	0xbdba8e9b	-0.09109231
35	0xbde2b4b4	-0.11069623
36	0x3da6d168	0.0814541
37	0xbde5d461	-0.11222149
38	0x3d88b803	0.066757225
39	0x3e46c299	0.1941017
40	0x3c8c5ae4	0.017133184
41	0x3df822b3	0.12115993
42	0xbe2cd127	-0.1687666
43	0x3d86d331	0.0658325
44	0xbe2bdc6b	-0.16783302
45	0xbe4a4757	-0.19753776
46	0xbe2ed928	-0.17075026
47	0xbda6f56d	-0.0815228
48	0xbddaebe7	-0.10689526
49	0xbdeca9f6	-0.11555855
50	0xbde83fbb	-0.113402806
51	0xbe3987aa	-0.18118158
52	0xbd9e55ff	-0.07731246
53	0x3e18709d	0.14886709
54	0xbe3f9d7a	-0.18712416
55	0x3d541601	0.051778797
56	0x3d9092dd	0.07059262
57	0x3d13ab88	0.036052257
58	0x3e16ffbd	0.14745994
59	0xbc3f7229	-0.011684933
60	0xbd41f5ba	-0.047353484
61	0x3e6c5357	0.23078667
62	0x3e1dad89	0.1539823
63	0xbc30e0fa	-0.010795826
64	0x3e45601b	0.19274943
65	0xbdd99a8f	-0.10625183
66	0x3e422a01	0.18961336
67	0x3e40a92b	0.18814532
68	0xbe2acd57	-0.16679893
69	0xbe023c25	-0.12718256
70	0xbd97085a	-0.0737464
71	0xbde3c973	-0.11122408
72	0x3d6affaa	0.057372727
73	0x3c4c61e3	0.01247451
74	0xbd063a87	-0.03277066
75	0x3e3d3b32	0.18479612
76	0x3e1a203f	0.15051363
77	0x3e45e9f4	0.19327527
78	0xbe236b60	-0.15958929
79	0x3c5192ec	0.012791377
80	0xbd805d45	-0.0626779
81	0x3df5f345	0.120092906
82	0xbe67e4a0	-0.22645807
83	0x3d513bad	0.051082302
84	0xbe450ddb	-0.19243567
85	0x3d8be742	0.06831218
86	0x3e13cea4	0.14434296
87	0x3d875d09	0.06609542
88	0x3d796b13	0.06089313
89	0xbb81240b	-0.0039410642
90	0xbe574d76	-0.21025643
91	0xbd9ae791	-0.07563699
92	0x3d961c1b	0.073295794
93	0x3daa0664	0.08302
94	0xbdb7efe9	-0.08981306
95	0x3de8034c	0.11328754
96	0xbe2282c1	-0.15870191
97	0xbda65a4c	-0.081226915
98	0x3d0e5bfe	0.0347557
99	0x3e0a09f9	0.13480367
100	0x3db0bb4a	0.086294726
101	0xbe0365c8	-0.12831795
102	0xbe31152e	-0.17293236
103	0x3b8149e9	0.0039455784
104	0xbda41fb6	-0.08013861
105	0x3d300334	0.042971805
106	0x3d98d02f	0.07461583
107	0xbad03f45	-0.0015887996
108	0xbd303afc	-0.043025002
109	0xbe0c68ca	-0.13711849
110	0x3df1c338	0.11804813
111	0x3dc34ba5	0.095359124
112	0x3dab2cd9	0.083581634
113	0xbe045a86	-0.12925157
114	0x3dd5b967	0.10435753
115	0xbdb1de4e	-0.086849794
116	0x3d8dcf57	0.069243126
117	0x3d600f9a	0.05470238
118	0xbd9ad4d6	-0.075601265
119	0x3d8cd913	0.06877341
120	0x3dd86652	0.10566391
121	0x3d9bd59d	0.07609103
122	0x3dd2b7c6	0.10288958
123	0x3e3dfe26	0.18553981
124	0xbd785340	-0.06062627
125	0xbce0c95f	-0.027439771
126	0xbcd8917b	-0.026436558
127	0xbc47d750	-0.012197331
128	0xbdc9f732	-0.09861602
129	0x3da8f94f	0.08250677
130	0x3db1349b	0.08652612
131	0xbd362fab	-0.044479053
132	0xbe1b6d4d	-0.15178414
133	0xbda0e493	-0.07856097
134	0x3e494f13	0.1965907
135	0x3de22fb3	0.11044254
136	0x3ca04765	0.019565294
137	0xbe39e6e5	-0.18154486
138	0xbd911efd	-0.07085989
139	0xbd0cc17d	-0.034364212
140	0xbd8ee836	-0.069778845
141	0xbdf5382a	-0.11973603
142	0xbdcf6f72	-0.101286784
143	0x3e534ea2	0.20635465
144	0x3d09f29d	0.03367864
145	0xbb82f0bd	-0.0039959834
146	0x3e242587	0.1602994
147	0x3e385c94	0.18004066
148	0xbdc563e8	-0.09638196
149	0x3d31dfff	0.04342651
150	0x3da8682a	0.08222993
151	0x3d408c2d	0.047008682
152	0xbe28e9c1	-0.1649542
153	0x3d96f9a3	0.07371833
154	0x3daefb76	0.08544056
155	0xbde9c250	-0.11414015
156	0xbdbfd495	-0.09366719
157	0x3e33b429	0.17549194
158	0x3e2ea23a	0.17054072
159	0x3cd79461	0.02631587
160	0x3dcb1f55	0.099180855
161	0xbe27fb13	-0.16404371
162	0x3ded12e0	0.11575866
163	0x3dfbc374	0.12293139
164	0x3cd94462	0.026521865
165	0x3e3521e0	0.17688704
166	0x3d74262b	0.059606712
167	0x3de3226d	0.110905506
168	0x3dd2a047	0.10284477
169	0x3d59c2a8	0.053164154
170	0xbdf00702	-0.11720087
171	0xbdd36495	-0.10321919
172	0x3d8fdcb1	0.070245154
173	0x3dff6061	0.12469555
174	0x3c986d89	0.018606918
175	0xbc8c9063	-0.017158693
176	0xbe3ed700	-0.18636703
177	0xbd022868	-0.031776816
178	0x3e4e1c64	0.20128018
179	0x3da39a28	0.07988387
180	0xbe158c75	-0.14604361
181	0xbda6fe17	-0.081539325
182	0x3e1c6c3b	0.15275662
183	0xbe04ee3d	-0.12981506
184	0x3da1af41	0.07894755
185	0x3ccbc560	0.02487439
186	0xbd306da2	-0.043073304
187	0x3d5c0b6d	0.053721834
188	0xbdb61d7e	-0.08892344
189	0x3ca43478	0.02004455
190	0x3ba757b8	0.0051068924
191	0x3cfb856f	0.030703275
192	0xbe4c31ab	-0.19940822
193	0x3e146443	0.14491372
194	0x3d838552	0.06421913
195	0x3d1301a7	0.035890248
196	0xbe29dc89	-0.16588034
197	0xbc941a07	-0.018078817
198	0x3c7f82f2	0.015595185
199	0x3c023a5b	0.007948483
200	0x3d4b2a47	0.049600866
201	0xbd609a19	-0.05483446
202	0xbe3390b8	-0.17535675
203	0x3e05e314	0.13074905
204	0x3d0e0a25	0.034677643
205	0x3c8dd1f3	0.017312026
206	0xbe48196e	-0.1954095
207	0x3c8431dc	0.016137056
208	0x3e5279fe	0.20554349
209	0xbe0adb68	-0.1356026
210	0xbdedc65b	-0.11610099
211	0xbdff5c60	-0.12468791
212	0x3cc0f777	0.0235555
213	0xbe326ce3	-0.1742435
214	0xbc854036	-0.01626597
215	0xbe24847b	-0.16066162
216	0x3e4eedd9	0.20207919
217	0x3e3fb36b	0.18720786
218	0x3e411fb3	0.18859749
219	0xbd56bd04	-0.052426353
220	0x3e3acfe5	0.18243368
221	0xbdedaf2d	-0.11605678
222	0xbe2ba622	-0.16762593
223	0x3e28f337	0.16499029
224	0x3e510dac	0.20415372
225	0x3e36b902	0.17844012
226	0xbce9eca7	-0.028555227
227	0x3dbe1a2d	0.092823364
228	0x3d21be53	0.039488148
229	0xbda8421f	-0.082157366
230	0x3ce3dac0	0.027814269
231	0x3db5d26a	0.08878024
232	0xbc863358	-0.016381904
233	0xbd8abc46	-0.067741916
234	0xbc71e6d0	-0.014764503
235	0xbdfe7221	-0.12424112
236	0xbd997d62	-0.07494618
237	0xbc8be080	-0.017074823
238	0x3d8bcb2a	0.0682586
239	0xbdec0de0	-0.11526084
240	0xbc66b050	-0.014080122
241	0xbe3c28f2	-0.18374994
242	0xbdf0f4a2	-0.1176541
243	0x3dadb7ca	0.084823206
244	0xbdbc0786	-0.091811225
245	0xbe0e6cf0	-0.13908744
246	0xbddf7021	-0.10910059
247	0xbc089090	-0.008335248
248	0xbd41d398	-0.047320932
249	0xbe12cb75	-0.14335425
250	0xbd41a0cc	-0.04727249
251	0x3e50ff39	0.2040986
252	0xbd37c004	-0.044860855
253	0x3d9e540b	0.07730874
254	0x3dc337eb	0.0953215
255	0xbdca9abe	-0.09892796

fc.bias f4 [128]
0	0x3db45fb6	0.08807318
1	0x3d9e722d	0.07736621
2	0x3b529a15	0.0032135297
3	0xbd3f1295	-0.04664858
4	0xbe406d6f	-0.18791746
5	0xbd1f466a	-0.03888551
6	0x3d086474	0.033298925
7	0xbc06a39f	-0.008217721
8	0xbc164d3d	-0.0091736885
9	0xbe47216f	-0.19446348
10	0xbd02ae8c	-0.031904742
11	0xbe466602	-0.1937485
12	0xbd60d470	-0.054890096
13	0x3d8442e2	0.064580694
14	0x3e1ca293	0.15296392
15	0x3d35470c	0.04425721
16	0xbe27e7e7	-0.16397057
17	0xbdd1f15c	-0.10251114
18	0x3b3b8f4a	0.0028619342
19	0xbd9be327	-0.07611685
20	0x3dcbee6a	0.09957583
21	0x3e457163	0.19281535
22	0xbda2a0ce	-0.07940827
23	0xbd08632d	-0.033297706
24	0x3e11e322	0.142468
25	0xbdeb3acb	-0.11485823
26	0xbd0ef5ba	-0.03490231
27	0xbdba4315	-0.09094826
28	0x3cf58958	0.029972717
29	0xbdbfc8b4	-0.09364453
30	0xbe513154	-0.20428973
31	0xbdba16d8	-0.09086388
32	0xbdb1a2f9	-0.08673663
33	0xbe3ef7b0	-0.18649173
34	0xbe2edd25	-0.17076547
35	0x3db561d6	0.08856551
36	0xbdb12698	-0.08649939
37	0xbe02502a	-0.12725893
38	0x3d8aa207	0.067691855
39	0xbe30398a	-0.1720945
40	0xbd3b4f60	-0.045729995
41	0xbd63abb8	-0.055583686
42	0xbe369474	-0.17830068
43	0xbe375df3	-0.17906933
44	0xbe07a10d	-0.1324503
45	0x3da3ba46	0.07994513
46	0xbcdaa383	-0.026689297
47	0x3d8a1325	0.06741933
48	0xbe4c8395	-0.1997207
49	0x3dbb42a6	0.091435716
50	0xbc9ce314	-0.019151248
51	0xbe27f96e	-0.16403744
52	0x3e0f0932	0.13968351
53	0xbd81aa4c	-0.0633131
54	0xbe10474c	-0.14089698
55	0xbe1d4b60	-0.15360785
56	0x3dde598c	0.108569235
57	0xbe2bb0cf	-0.16766666
58	0xbdd123d5	-0.102119125
59	0xbd532178	-0.05154559
60	0xbe4f5050	-0.2024548
61	0x3e53db1f	0.20689057
62	0x3e2dbb29	0.16965927
63	0xbcf78136	-0.03021298
64	0xbcd9c988	-0.026585355
65	0x3e1cb1fd	0.15302272
66	0xbe125493	-0.14290075
67	0x3ddce83e	0.10786484
68	0xbe1b584b	-0.151704
69	0x3e20ffcb	0.15722577
70	0x3ddafeea	0.10693152
71	0xbe53938a	-0.2066175
72	0xbdbe8470	-0.09302604
73	0xbd7d6960	-0.06186807
74	0x3c8825ea	0.016619641
75	0x3c2613cd	0.010136557
76	0xbe4d2720	-0.20034456
77	0x3da14658	0.07874745
78	0xbe085c97	-0.1331657
79	0xbd3a2d48	-0.04545334
80	0x3d9e7a54	0.07738176
81	0xbe3fefd7	-0.18743835
82	0x3cad1848	0.021129742
83	0xbe140f3a	-0.14458933
84	0xbe063337	-0.13105474
85	0x3ddf9b7d	0.10918329
86	0xbe328a5a	-0.1743559
87	0x3d2422a2	0.04007209
88	0xbe207827	-0.15670834
89	0xbd62b35e	-0.05534684
90	0xbe064e20	-0.1311574
91	0x3dbba35e	0.09162019
92	0x3d8a3474	0.06748286
93	0x3e07ab11	0.1324885
94	0x3da1bf58	0.07897824
95	0x3e0339aa	0.12814966
96	0x3ce03ca9	0.027372675
97	0xbe45ac13	-0.19303922
98	0xbd0267c0	-0.031837225
99	0xbc9e5359	-0.019326853
100	0xbdd6e5c3	-0.10493042
101	0xbd4070d8	-0.046982616
102	0xbe15244c	-0.14564627
103	0xbdcbb16a	-0.099459484
104	0xbdcddabe	-0.100514874
105	0xbe2a5919	-0.1663555
106	0x3e12b086	0.14325151
107	0x3d39f954	0.045403793
108	0xbe3a7def	-0.18212102
109	0xbe57ec32	-0.21086195
110	0x3e230b93	0.15922384
111	0xbdffe8d4	-0.1249558
112	0x3e1263b9	0.14295854
113	0x3aea4780	0.0017874092
114	0xbe339b09	-0.1753961
115	0x3d8fcd9e	0.0702164
116	0xbe35874d	-0.17727394
117	0xbe10d802	-0.141449
118	0x3e07e7b6	0.13271984
119	0x3e5546c9	0.20827784
120	0xbc599289	-0.013279566
121	0x3cf1412e	0.029450025
122	0x3d8bd4ee	0.068277225
123	0x3da2862b	0.07935747
124	0x3d4b1cfa	0.04958818
125	0x3e30d385	0.17268188
126	0x3e4601df	0.19336651
127	0xbe2c0d0a	-0.16801849

hidden.0.weight f4 [128, 128]
0	0xbda1fdcd	-0.07909737
1	0x3bfce830	0.0077181086
2	0xbcd45fc1	-0.025924565
3	0xbce4bc32	-0.02792177
4	0xbd22a561	-0.0397085
5	0xbd98593a	-0.074388936
6	0x3d5d65a8	0.054052025
7	0x3cb05c85	0.021528492
8	0xbc7c51a3	-0.015400323
9	0x3d15ecd3	0.036602806
10	0xbd37b839	-0.044853423
11	0xbca970d2	-0.02068368
12	0x3d95f253	0.0732161
13	0xbdaf76d9	-0.0856759
14	0xbd28ea63	-0.041239154
15	0x3c963ce4	0.018339582
16	0xbd83bea5	-0.06432847
17	0x3dac8df6	0.084255144
18	0xbcfd8017	-0.030944867
19	0xbda636ca	-0.08115919
20	0x3d7a3ba6	0.06109204
21	0x3cbf526a	0.023354728
22	0xbd87a686	-0.06623559
23	0xbda35244	-0.07974675
24	0xbcb6d22e	-0.022317018
25	0x3cb4296b	0.021992406
26	0x3d1d79f1	0.03844637
27	0xbd940c1f	-0.072288744
28	0xbd8b227d	-0.067936875
29	0x3c925b87	0.01786591
30	0x3d2fe6f9	0.042944882
31	0x3d87a978	0.066241205
32	0x3c8b74fc	0.017023556
33	0x3d910027	0.07080107
34	0x3c430750	0.011903599
35	0xbdaae394	-0.08344188
36	0xbd83ae0c	-0.06429681
37	0x3da2116c	0.07913479
38	0x3daf0ef3	0.08547773
39	0xbdb2cf83	-0.08730986
40	0x3daaee5b	0.08346244
41	0x3a42b200	0.0007427037
42	0xbd76626d	-0.06015246
43	0xbc6e3388	-0.014538653
44	0xbd6db07b	-0.058029633
45	0xbd7a9ad3	-0.061182808
46	0xbd7583f9	-0.059940312
47	0xbc9fe5d8	-0.019518778
48	0x3b3f6010	0.0029201545
49	0x3d4dcea3	0.050245892
50	0xbca1d946	-0.019756924
51	0x3cf77fa3	0.03021223
52	0xbd471574	-0.048604444
53	0xbcabf5f3	-0.020991301
54	0x3d7702ba	0.060305335
55	0x3d8c6991	0.06856073
56	0xbd9e545d	-0.07730935
57	0xbaccf7ef	-0.0015637855
58	0xbd29c398	-0.0414463
59	0x3cf4b53d	0.029871577
60	0x3d7fbb15	0.062434275
61	0xbdb0a192	-0.08624567
62	0xbcb39c92	-0.021925244
63	0x3db859b7	0.09001487
64	0x3d2d6596	0.042333208
65	0xbd2998aa	-0.041405357
66	0x3d10451b	0.035222154
67	0x3be381a0	0.0069429427
68	0xbd7487ba	-0.05969975
69	0x3d9d5bbb	0.07683512
70	0x3d904ab7	0.07045501
71	0xbd3fc995	-0.046823103
72	0x3c194144	0.009353939
73	0xbd8d5d03	-0.06902506
74	0x3cb479ae	0.022030678
75	0xbd266552	-0.04062397
76	0x3d9de6db	0.07710048
77	0x3db1847a	0.08667846
78	0xbda2ed6c	-0.07955441
79	0x3d0f2f58	0.03495726
80	0x3d65f3d2	0.05614073
81	0xbd24c6c6	-0.040228628
82	0xbd0533ce	-0.032520108
83	0x3c79c418	0.015244506
84	0x3d1d351f	0.03838074
85	0xbcb45ca3	-0.022016829
86	0x3d048c60	0.032360435
87	0x3d97b01c	0.07406637
88	0x3c38107a	0.011234397
89	0x3cc355c0	0.0238446
90	0xbd4eebc4	-0.050517812
91	0x3da9fa97	0.08299749
92	0x3d61cebd	0.0551288
93	0xbda26e26	-0.079311654
94	0xbda1826b	-0.078862034
95	0x3c95eb02	0.018300537
96	0xbbee6ec6	-0.007276389
97	0x3d20f3de	0.03929507
98	0xbd471d2c	-0.048611805
99	0x3dae21a9	0.08502514
100	0x3c687c6d	0.014189822
101	0xbd542cfd	-0.051800717
102	0x3cb0b808	0.021572128
103	0xbd6b1c1a	-0.057399847
104	0xbd568539	-0.052373145
105	0x3da6d392	0.081458226
106	0xbd683b62	-0.056697257
107	0xbae5e0ac	-0.0017538271
108	0xbce8e0dc	-0.028427534
109	0xbd59b595	-0.053151686
110	0xbd8f1598	-0.069865406
111	0x3daeab31	0.08528746
112	0xbda1cc44	-0.07900289
113	0x3be246d0	0.006905414
114	0x3dac8d01	0.08425332
115	0xbd48f15e	-0.04905831
116	0xbd995b04	-0.07488063
117	0x3da86d11	0.08223928
118	0xbd1876f1	-0.037222806
119	0xbbc51b87	-0.0060152444
120	0xbd84b064	-0.06478956
121	0x3d266780	0.04062605
122	0xbd0be890	-0.034157336
123	0x3bc41e2c	0.005985042
124	0xbd4316fa	-0.047629334
125	0xbd82e389	-0.06391055
126	0x3d9aa4d8	0.07550973
127	0xbcd04834	-0.025425054
128	0x3db392ab	0.08768209
129	0x3ca4af9d	0.02010327
130	0x3dd214db	0.10257884
131	0x3bf5be28	0.007499475
132	0x3d8a2bdc	0.06746647
133	0xbd066a9d	-0.032816518
134	0xbd82cbb7	-0.06386512
135	0x3ce86d51	0.028372439
136	0x3d88affa	0.0667419
137	0x3aa1a63f	0.001233287
138	0x3d54fc6a	0.051998533
139	0x3b113e41	0.002216235
140	0xbd91b6e5	-0.071149625
141	0x3d74a6f6	0.05972954
142	0x3be9366b	0.007117083
143	0x3d323139	0.043503974
144	0x3c1627d9	0.009164774
145	0x3d833b4b	0.064077936
146	0xbd2474d1	-0.040150467
147	0x3cc63aed	0.02419802
148	0xbc6bdb68	-0.014395572
149	0x3d7c95fd	0.061666477
150	0x3c928048	0.017883435
151	0x3c8dbb99	0.017301368
152	0xbd2aef54	-0.041732147
153	0x3a3bc5d5	0.0007162963
154	0xbc8076b4	-0.015681602
155	0xbc00c540	-0.007859528
156	0xbd0526f2	-0.032507844
157	0xbc272722	-0.010202201
158	0xbd14c7eb	-0.03632347
159	0x3cf92649	0.030413764
160	0xbd20817d	-0.03918599
161	0xbb648e20	-0.0034874752
162	0x3d1cd6ce	0.03829079
163	0x3d425cc6	0.047451757
164	0x3d9b3be1	0.0757978
165	0x3c19c581	0.0093854675
166	0xbd17050e	-0.036870055
167	0xbd6831c5	-0.05668809
168	0x3d63353a	0.055470683
169	0xbb9323c0	-0.0044903457
170	0xbcf52b05	-0.02992774
171	0x3d4eb4ea	0.0504655
172	0x3ce4691e	0.027882155
173	0xb9a62300	-0.00031688064
174	0xbd8074fb	-0.06272312
175	0xbcee095b	-0.029057195
176	0x3da8261e	0.08210395
177	0xbc802978	-0.015644774
178	0xbd154be9	-0.036449347
179	0x3cc1146f	0.023569314
180	0x3c8c96a9	0.017161684
181	0xbdb05f4c	-0.086119264
182	0x3d787154	0.060654953
183	0x3d07d602	0.033163078
184	0x3d85a2e0	0.065252066
185	0x3d9e5a67	0.07732087
186	0xbd2aaa8c	-0.041666552
187	0xbd1924c9	-0.037388597
188	0xbd5be24d	-0.053682614
189	0x3d7e6c62	0.06211508
190	0x3b8ffaf0	0.0043939278
191	0x3d481681	0.048849586
192	0xbd54b22f	-0.05192774
193	0x3c6afade	0.014342038
194	0xbd21f6dd	-0.039542068
195	0x3d5eae52	0.054365464
196	0x3cfc3ed0	0.03079167
197	0x3daba360	0.08380771
198	0x3d9415d3	0.07230725
199	0x3d3a02c6	0.0454128
200	0x3dae9ae2	0.08525635
201	0xbd2f2128	-0.04275623
202	0x3d476058	0.048675865
203	0xbcc36e2c	-0.023856245
204	0xbd232ada	-0.03983579
205	0xbd7155a7	-0.058919575
206	0xbc921904	-0.017834194
207	0xbdaac545	-0.083384074
208	0x3dd02818	0.10163897
209	0xbcb0ac24	-0.021566458
210	0xbd7c36ac	-0.061575577
211	0xbd8065b1	-0.06269396
212	0x3dad2a29	0.08455307
213	0x3d2fe89f	0.042946454
214	0x3cddd11c	0.02707725
215	0xbb836b68	-0.0040106066
216	0x3dae53d5	0.085120834
217	0x3bd3f905	0.0064688944
218	0xbd2c7379	-0.04210231
219	0xbdaf2b37	-0.085531645
220	0x3ce9d1b8	0.028542385
221	0xbd80dac0	-0.06291723
222	0x3d42fe27	0.04760566
223	0xbd848dca	-0.064723566
224	0x3d830fea	0.0639952
225	0x3cff0ffc	0.031135552
226	0xbc7ac3a8	-0.015305437
227	0x3d77bda6	0.060483597
228	0x3d7636d1	0.06011087
229	0x3d881228	0.06644088
230	0x3d01b3ba	0.03166554
231	0xbdb3dad1	-0.0878197
232	0x3d55fb63	0.052241694
233	0x3c918885	0.017765293
234	0x3d6ab8ac	0.057305023
235	0x3da88907	0.08229261
236	0x39ebeb00	0.00044997782
237	0xbd614604	-0.054998413
238	0x3c09eb64	0.008417938
239	0xbc1447c8	-0.009050317
240	0x3c90d679	0.017680394
241	0xbadc52c0	-0.0016809329
242	0x3d9af6b7	0.07566588
243	0x3bea1910	0.007144101
244	0xbc6e93c8	-0.014561601
245	0x3d9bdc4d	0.076103784
246	0xbd15764b	-0.036489766
247	0xb83edcd2	-4.5505185e-05
248	0xbd3995b8	-0.0453088
249	0xbb5acea8	-0.0033387337
250	0x3db3b744	0.087751895
251	0x3cafc89d	0.021457965
252	0xbd57cfd5	-0.05268844
253	0x3d8d243f	0.06891679
254	0xbb6584d1	-0.0035021792
255	0xbd625350	-0.055255234

hidden.0.bias f4 [128]
0	0xbdb0f6aa	-0.086407974
1	0x3c9d108f	0.019172935
2	0xbd911ad1	-0.07085193
3	0xbc374370	-0.011185512
4	0x3dc03583	0.093852066
5	0xbd9c829d	-0.076421
6	0x3c019244	0.007908408
7	0x3c3fb5d1	0.011701063
8	0x3d088469	0.0333294
9	0x3d3297a6	0.043601654
10	0x3da1f48f	0.07907974
11	0x3d20a9cb	0.039224427
12	0x3b79d8c0	0.0038123578
13	0xbd2c49a7	-0.042062428
14	0xbd106284	-0.0352502
15	0xbd35816d	-0.044312883
16	0xbcf79190	-0.030220777
17	0x3d85c335	0.065313734
18	0x3d1a3391	0.037646834
19	0xbd3e826f	-0.04651111
20	0xbd9bee66	-0.0761383
21	0xbd1a4704	-0.037665382
22	0xbda9b38b	-0.08286198
23	0xbda278a1	-0.079331644
24	0xbd8f978a	-0.07011326
25	0x3d9777ad	0.07395873
26	0xbd465749	-0.048423085
27	0x3d9ba4a3	0.07599761
28	0x3c340b40	0.01098901
29	0x3d734722	0.05939401
30	0xbb476500	-0.003042519
31	0x3ca24ba6	0.019811463
32	0x3c2a54b8	0.010396175
33	0xbdb1d639	-0.08683438
34	0x3d06b9b4	0.032891944
35	0xbd03bad9	-0.032160614
36	0x3daa87f8	0.08326715
37	0xbd086a90	-0.03330475
38	0x3cab1ee8	0.02088876
39	0xbc90b678	-0.017665133
40	0xbcad45c0	-0.021151423
41	0x3bd6eb4c	0.0065588113
42	0xbd82ca95	-0.06386296
43	0x3cbe0ea5	0.023200342
44	0xbd85198f	-0.064990155
45	0x3d7a89b1	0.06116647
46	0xbd0c50bb	-0.034256678
47	0xbda1aefe	-0.07894705
48	0x3cf65531	0.03006992
49	0xbd9572d8	-0.07297295
50	0x3ceb43a8	0.028718784
51	0xbcc79e94	-0.024367608
52	0x3d88b774	0.06675616
53	0x3d890221	0.06689859
54	0x3c66abd8	0.014079057
55	0x3dae590e	0.085130796
56	0xbd918c49	-0.071068354
57	0xbd08a61d	-0.033361543
58	0xbd8f0c6c	-0.06984791
59	0xbc93d9b7	-0.01804815
60	0x3d8b39f5	0.06798164
61	0xbc88b6a3	-0.01668865
62	0x3c976c09	0.018484132
63	0xbd82c2e1	-0.063848265
64	0xbd622124	-0.055207387
65	0x3c73e0ab	0.014885108
66	0xbd28a886	-0.04117634
67	0x3c62d838	0.013845496
68	0xbd3ec260	-0.04657209
69	0xbd5ba990	-0.053628504
70	0x3d84d778	0.0648641
71	0xbd1033b2	-0.03520555
72	0x3d953060	0.072846174
73	0xbb012f33	-0.001971197
74	0x3d8e6788	0.06953341
75	0xbcbbabcc	-0.022909068
76	0xbd95f41a	-0.07321949
77	0x3c9ba348	0.018998757
78	0x3cd04018	0.025421187
79	0x3d7c9866	0.061668776
80	0x3cf88f76	0.030341845
81	0x3d09e399	0.03366432
82	0xbd3f367c	-0.04668282
83	0xbc4b8d78	-0.0124238655
84	0x3db4c409	0.08826453
85	0x3d8adb71	0.067801364
86	0x3d799936	0.06093713
87	0x3cc2e0e0	0.02378887
88	0xbcbbba34	-0.022915937
89	0x3d914d38	0.070948064
90	0xbd821c0f	-0.06353008
91	0xbced55f8	-0.028971657
92	0xbdad77e1	-0.08470131
93	0xbd2dc880	-0.04242754
94	0x3cc9b012	0.02462009
95	0xbd83e861	-0.06440807
96	0x3da4ec60	0.080528975
97	0xbd829342	-0.063757434
98	0x3d1455b0	0.03621453
99	0xbc81d9aa	-0.01585086
100	0xbd3b0e7b	-0.045668107
101	0xbd466d01	-0.048443798
102	0xbcc334b0	-0.023828834
103	0xbb93fb70	-0.0045160577
104	0x3d3bb004	0.04582216
105	0x3d91eca7	0.07125216
106	0x3d968bb4	0.07350865
107	0x3d8124e5	0.06305865
108	0x3d6a19fc	0.057153687
109	0x3d1f3897	0.038872328
110	0xbdac61ab	-0.08417066
111	0xbd36dece	-0.044646077
112	0xbdab4fb8	-0.083648145
113	0xbd077f8e	-0.03308063
114	0x3cf0f3f4	0.0294132
115	0xbc27c6ff	-0.010240315
116	0x3af3a4c0	0.0018588528
117	0xbd29273e	-0.04129719
118	0xbbdfaf58	-0.0068263225
119	0xbdb26bd2	-0.08711971
120	0x3d951c2c	0.07280764
121	0xbd49939d	-0.04921304
122	0xbd7f46ca	-0.06232337
123	0x3c2fa713	0.010720986
124	0xbc719298	-0.014744423
125	0xbd4249c2	-0.047433622
126	0x3d21f791	0.03954274
127	0x3d94e383	0.07269957

hidden.1.weight f4 [128, 128]
0	0x3cc55e4c	0.024092816
1	0x3ce05970	0.027386397
2	0x3d8b82c3	0.0681205
3	0x3bbd4580	0.0057761073
4	0xbd8b6d80	-0.06807995
5	0xbd64df82	-0.055877216
6	0xbd8344a0	-0.064095736
7	0xbd1dec1a	-0.038555242
8	0xbd498c96	-0.04920634
9	0xbcb820d8	-0.022476599
10	0xbc7cbd98	-0.015426062
11	0xbd034e33	-0.032057
12	0x3d8b0a53	0.067890786
13	0xbd7eccfc	-0.062207207
14	0xbd8259d9	-0.06364793
15	0xbc9d7160	-0.0192191
16	0x3c8490a4	0.016182251
17	0x3d33d2fa	0.043902375
18	0xbd7f811a	-0.06237898
19	0x3d63cc3a	0.055614688
20	0x3c7cb438	0.015423827
21	0xbd8e33e8	-0.06943494
22	0xbd6f4ea3	-0.058424603
23	0x3d453c06	0.048152946
24	0x3c9b2a34	0.018941022
25	0xbd9f1650	-0.07767928
26	0xbda311e9	-0.079624005
27	0xbc6a6d90	-0.014308348
28	0xbd8d4712	-0.06898321
29	0x3d87fdc3	0.06640198
30	0x3d8da907	0.06917005
31	0x3d74554a	0.05965165
32	0xbcfa07b4	-0.030521251
33	0xbcf1d360	-0.029519737
34	0x3c342610	0.010995403
35	0x3d89e68d	0.06733427
36	0xbd41d127	-0.047318604
37	0x3d7cca06	0.061716102
38	0x3d66e1ba	0.056367613
39	0x3da0504d	0.07827816
40	0xbcbd6054	-0.023117222
41	0xbc30bab0	-0.010786697
42	0xbd888269	-0.06665499
43	0xbd5ba86f	-0.053627428
44	0x3d76303e	0.0601046
45	0x3da42553	0.080149315
46	0x3ccec638	0.025241002
47	0xbd6fce1e	-0.058546178
48	0xbd66071d	-0.056159128
49	0xbd84e53d	-0.06489036
50	0xbd4a292d	-0.049355675
51	0xbda94aa5	-0.082661904
52	0x3d77235a	0.06033645
53	0xbcc708a8	-0.02429612
54	0x3d20db1a	0.03927145
55	0x3abfa640	0.001462169
56	0x3d973573	0.073832415
57	0x3d81297d	0.063067414
58	0x3da3dc55	0.080010094
59	0x3d7579b6	0.059930526
60	0x3cb23644	0.021754391
61	0xbc5cf108	-0.013485201
62	0x3d8b2127	0.06793433
63	0xbdaf0b7d	-0.08547113
64	0xbd5d697e	-0.054055683
65	0xbd9690bd	-0.073518254
66	0x3d62f322	0.05540765
67	0x3d82b195	0.06381527
68	0xbbfde2a0	-0.007747963
69	0x3d858465	0.06519393
70	0xbd06e2e3	-0.03293122
71	0xbdb0726f	-0.086155765
72	0xbcf862e2	-0.030320588
73	0x3cb5d598	0.022196576
74	0x3d328d1a	0.043591596
75	0x3d87f53f	0.06638574
76	0xbda28aa3	-0.07936599
77	0x3c974d08	0.018469349
78	0xbc379550	-0.0112050325
79	0xbc5c96e0	-0.013463706
80	0x3bdfc7c0	0.006829232
81	0x3ca240b0	0.019806236
82	0xbd9d6541	-0.07685328
83	0x3d5d1bb2	0.05398149
84	0x3d8d3843	0.06895497
85	0xbd053834	-0.032524303
86	0x3d5dd44e	0.054157548
87	0x3d19857e	0.037480824
88	0xbd8aaa7e	-0.067708
89	0x3d6353a2	0.05549968
90	0x3dac7f5f	0.084227316
91	0xbda9740d	-0.08274088
92	0xbc261718	-0.010137342
93	0x3ccb93bc	0.024850719
94	0x3bf38a10	0.00743223
95	0x3ca36404	0.019945152
96	0x3d7a1bae	0.061061554
97	0x3d88007d	0.06640718
98	0xbce41d96	-0.027846139
99	0xbc583460	-0.013196081
100	0x3d86d3a9	0.0658334
101	0x3ce69b74	0.028150298
102	0x3d8e8103	0.06958201
103	0xbd1d2c4f	-0.038372334
104	0x3d87396b	0.066027485
105	0xbda47d12	-0.08031668
106	0x3c7df7f0	0.015501007
107	0x3daa78f7	0.083238535
108	0xbd465523	-0.048421036
109	0x3da3fded	0.08007417
110	0xbc2c9910	-0.01053454
111	0x3d2e6b3e	0.042582743
112	0xbd89b824	-0.06724575
113	0xbbea1b00	-0.007144332
114	0xbd9f7052	-0.07785095
115	0xbc7666f8	-0.015039198
116	0xbdb1b2c8	-0.08676678
117	0xbdb2da4d	-0.08733044
118	0x3d6b9c72	0.057522245
119	0xbd90bde8	-0.07067472
120	0xbbf1c730	-0.0073784813
121	0xbc678020	-0.0141296685
122	0xbd508baa	-0.050914444
123	0xbc296048	-0.010337897
124	0x3ce387f8	0.027774796
125	0xbd25710b	-0.04039101
126	0x3d80458b	0.06263264
127	0xbda78164	-0.08178976
128	0x3c5e82c7	0.013580984
129	0x3c2e9ddb	0.010657753
130	0xbc986679	-0.01860355
131	0x3d54686a	0.05185739
132	0x3e0035f6	0.12520584
133	0xbc1ee098	-0.009697102
134	0xbd3b1ac9	-0.04567984
135	0x3d8ce704	0.0688
136	0xbd0c829f	-0.034304257
137	0xbd26df2d	-0.04074018
138	0xbbdcda05	-0.006739857
139	0xbd47c541	-0.0487721
140	0xbd6227b1	-0.055213634
141	0xbacb8500	-0.0015527308
142	0x3d801213	0.062534474
143	0xbd61ab89	-0.05509523
144	0xbd33c778	-0.0438914
145	0xbd44528a	-0.047930278
146	0xbd166239	-0.036714766
147	0xbd8b363c	-0.06797454
148	0x3dbe10ec	0.09280571
149	0x3db3e34a	0.08783586
150	0xbd8dc4e6	-0.06922321
151	0x3bd6eda4	0.0065590907
152	0x3d781406	0.06056597
153	0x3d4ad198	0.04951629
154	0x3d1f4384	0.038882747
155	0xbd0facd2	-0.035076924
156	0xbd956016	-0.072937176
157	0xbd55b2d0	-0.052172482
158	0x3d671cc2	0.05642391
159	0x3d74700d	0.059677172
160	0x3ca632b4	0.020287849
161	0xbc1c7340	-0.009548962
162	0x3c923686	0.017848264
163	0xbd3432be	-0.043993704
164	0x3d65bd6b	0.056088846
165	0xbd173cfe	-0.0369234
166	0xbc807400	-0.015680313
167	0xbcdbca3a	-0.026829828
168	0xbd82d566	-0.06388359
169	0xbcaed360	-0.021341026
170	0x3d21c93a	0.039498545
171	0x3cff4415	0.031160394
172	0xbcc8b6b0	-0.024501175
173	0x3dcd57fb	0.100265466
174	0xbcd7ef4c	-0.026359223
175	0xbd304dd4	-0.043042973
176	0x3cb11430	0.021616071
177	0x3c818b6a	0.015813548
178	0x3b72ae36	0.0037030107
179	0xbd889ebb	-0.066709004
180	0x3daf4e99	0.08559913
181	0xbcacf354	-0.021112122
182	0xbd6eb465	-0.058277506
183	0x3d837327	0.06418448
184	0x3d2c1522	0.04201234
185	0xbd22b036	-0.03971883
186	0x3dc17c7d	0.094475724
187	0x3d6dd45b	0.058063846
188	0xbd581433	-0.05275364
189	0xbdac323c	-0.08408019
190	0xbda5363a	-0.080669835
191	0x3da436ba	0.08018251
192	0x3c99be48	0.018767491
193	0x3dafa05e	0.085755095
194	0xbce1a6f0	-0.027545422
195	0xbcb8cabc	-0.022557609
196	0x3d10bf64	0.035338774
197	0x3d01b482	0.031666286
198	0x3d489f99	0.04898033
199	0x3d5d0fdb	0.0539702
200	0x39d2d15b	0.00040210303
201	0xbd0be79e	-0.034156434
202	0x3cd896c3	0.026439076
203	0xbd56a9d2	-0.052408047
204	0xbda6901c	-0.081329554
205	0x3d9e1541	0.077188976
206	0x3d575bf8	0.052577943
207	0x3da312e5	0.07962588
208	0x3d22c44e	0.039737992
209	0x3daa9edb	0.083310805
210	0xbd5ec7cc	-0.05438976
211	0x3d86fd67	0.065913014
212	0x3d436e2a	0.047712483
213	0x3da2c939	0.079485364
214	0x3da23ef1	0.07922161
215	0x3c5367d8	0.012903176
216	0x3d99997f	0.0749998
217	0x3d8523cf	0.065009706
218	0xbd23d766	-0.04000034
219	0x3cd814f8	0.026377186
220	0xbd6ba2bf	-0.057528254
221	0xbce0dbda	-0.027448583
222	0xbd99e99c	-0.075152606
223	0xbd111b6c	-0.035426542
224	0x3d7e4e82	0.06208659
225	0xbba68fff	-0.0050830836
226	0x3df9d01c	0.12197897
227	0x3c300c3d	0.010745105
228	0x3d2a66ae	0.04160183
229	0x3c8233d0	0.015893847
230	0x3d94a069	0.07257158
231	0x3bdf220a	0.0068094777
232	0x3d15bd55	0.036557514
233	0x3d962f47	0.07333236
234	0x3d390526	0.045170926
235	0x3d2e83f6	0.042606317
236	0x3cd78279	0.026307331
237	0xbca4f0c5	-0.02013434
238	0xbc978388	-0.018495336
239	0x3b0ecdfb	0.0021790254
240	0xbd93b16e	-0.072115764
241	0xbdb13233	-0.08652153
242	0x3c6e7f38	0.0145566985
243	0x3cb621c6	0.022232901
244	0x3bd17620	0.0063922554
245	0xbb7e6ae0	-0.0038821027
246	0x3d0d6524	0.034520283
247	0x3db4a4f1	0.088205226
248	0xbd711fc4	-0.058868185
249	0x3d2140b2	0.03936834
250	0xbc855c74	-0.016279437
251	0x3caf9874	0.021435
252	0xbc2b9a58	-0.01047381
253	0xbd078964	-0.03309001
254	0xbd4b80ab	-0.049683254
255	0x3cfe8634	0.031069852

hidden.1.bias f4 [128]
0	0xbda9db0e	-0.082937345
1	0x3d19c15e	0.037537925
2	0xbdbeb217	-0.09311312
3	0x3da135b3	0.078715704
4	0xbc493884	-0.012281541
5	0x3b18a7ea	0.0023293444
6	0x3d6b9ede	0.057524554
7	0xbd7f1f58	-0.06228575
8	0x3d199f0a	0.037505187
9	0xbc4e8128	-0.012604035
10	0xbd5846ea	-0.052802004
11	0x3dbe4256	0.09289996
12	0x3d4958a6	0.049156807
13	0xbd68757d	-0.05675267
14	0x3d422e9e	0.04740774
15	0xbc05fee9	-0.008178451
16	0x3c05180c	0.008123409
17	0xbd98576d	-0.0743855
18	0x3b9086d0	0.004410602
19	0xbcc5e45d	-0.024156744
20	0xbda37e95	-0.07983128
21	0xbd0dd98b	-0.034631293
22	0x3db42f23	0.08798053
23	0x3d82330e	0.06357394
24	0x3d30f416	0.04320153
25	0x3dcafaae	0.099110946
26	0x3d08a47e	0.033359997
27	0xbda68eff	-0.08132743
28	0xbd58f2b5	-0.05296584
29	0xbd8a3c08	-0.06749731
30	0xbc852ab7	-0.01625572
31	0x3d99fc17	0.075187854
32	0xbd98f841	-0.07469226
33	0xbd18a3c4	-0.037265554
34	0xbd98fc48	-0.07469994
35	0x3d0a7b08	0.033808738
36	0xbd83a889	-0.0642863
37	0x3da0ed61	0.078577764
38	0x3d6b3cda	0.05743108
39	0x3c8a77b0	0.016902775
40	0x3ce5b2e8	0.02803941
41	0xbc919070	-0.017769068
42	0xb960c000	-0.0002143383
43	0x3d6fe7ef	0.0585708
44	0x3d50fc29	0.05102173
45	0x3ce88106	0.028381836
46	0x3c31f9c5	0.010862772
47	0x3d29b237	0.041429725
48	0xbcc47ee9	-0.023986297
49	0xb9042600	-0.00012602657
50	0xbcbc41dc	-0.022980623
51	0x3cf449b8	0.029820308
52	0x3d93d6dd	0.07218716
53	0xbd2b8ba0	-0.041881204
54	0x3d9f1d19	0.07769222
55	0x3da58f76	0.080840036
56	0xbce4d825	-0.027935097
57	0x3db24b32	0.087057486
58	0xbd12054f	-0.035649594
59	0xbc867cee	-0.016416993
60	0x3d08354e	0.03325396
61	0xbd4bed24	-0.0497867
62	0x3daa2b00	0.08308983
63	0xbd56e463	-0.0524639
64	0xbdb3388c	-0.0875102
65	0x3dde757f	0.10862254
66	0xbda1bc73	-0.07897272
67	0xbc60edaa	-0.0137285385
68	0xbd0fba80	-0.03508997
69	0x3c34d1b3	0.011036324
70	0x3d8a6209	0.0675698
71	0x3d4a920c	0.049455687
72	0xbd1f985a	-0.038963653
73	0x3d4f1793	0.05055959
74	0xbc82cc29	-0.015966492
75	0xbcacd484	-0.02109743
76	0x3d21c356	0.039492927
77	0xbda514fe	-0.080606446
78	0xbc5caf90	-0.013469592
79	0xbda384f1	-0.07984341
80	0xbd0bbb71	-0.034114305
81	0xbd8bae7d	-0.068203904
82	0xbd983336	-0.07431643
83	0x3c9d16bb	0.019175878
84	0x3c866a0e	0.016407993
85	0x3ad83f80	0.0016498417
86	0x39b8edf7	0.00035272512
87	0xbd3e5e2f	-0.04647654
88	0x3ce327da	0.027728964
89	0x3d8b79dd	0.06810353
90	0xbb874eff	-0.00412929
91	0x3d7cba3d	0.06170105
92	0xbca98ca0	-0.020696938
93	0xbc948e5a	-0.018134285
94	0x3d8854d2	0.06656803
95	0x3cf5972f	0.029979317
96	0xbd4b2d32	-0.04960365
97	0xbd26ab85	-0.040690918
98	0x3d5d8365	0.054080386
99	0xbb2cf52d	-0.0026391253
100	0xbdaee21d	-0.085392214
101	0x3d88d2ef	0.066808574
102	0xbd8e9502	-0.06962015
103	0xbdab83c8	-0.08374745
104	0x3ca3a29b	0.019974997
105	0x3d4c4e26	0.049879216
106	0xbd78e564	-0.06076564
107	0x3dd18dd2	0.10232128
108	0x3cc4b940	0.024014115
109	0x3d27d2f9	0.040972684
110	0xbc87e7ec	-0.016590081
111	0x3d8b2918	0.067949474
112	0xbc1646e8	-0.009172179
113	0xbd190a0d	-0.0373631
114	0xb808e800	-3.2640994e-05
115	0x3d74e916	0.0597926
116	0x3cfa69f8	0.030568108
117	0x3cca60de	0.024704393
118	0xbd77fe2b	-0.060545128
119	0xbd9d73a5	-0.07688073
120	0x3dc6617d	0.09686563
121	0xba8c3840	-0.0010697916
122	0xbd3d7245	-0.046251554
123	0x3d3b79d5	0.045770485
124	0x3c48ef63	0.0122641055
125	0xbaec89bf	-0.0018046423
126	0xbd66e554	-0.056371048
127	0xbbfb8c10	-0.007676609

v.weight f4 [1, 128]
0	0xbcce5944	-0.02518905
1	0xbe4ed66f	-0.20198987
2	0x3d4ea435	0.05044957
3	0xbdcf54a6	-0.10123567
4	0xbd83cced	-0.06435571
5	0xbe0ccfc6	-0.13751134
6	0x3c19f010	0.009395614
7	0x3cdee0ac	0.027206741
8	0xba7cdf00	-0.00096462667
9	0x3c8de1a0	0.0173195
10	0xbc6f8810	-0.014619842
11	0xbe4e4fb7	-0.20147596
12	0x3d260e1e	0.040540807
13	0xbe1288ba	-0.1430997
14	0xbd241827	-0.040062096
15	0xbe357466	-0.17720184
16	0xbdebf42f	-0.11521184
17	0x3ce16674	0.027514674
18	0x3da984df	0.08277296
19	0xbe4ce9ef	-0.20011114
20	0x3baea0f0	0.005329244
21	0x3c1687b6	0.009187629
22	0x3d96805b	0.073487006
23	0x3da9b102	0.08285715
24	0xbd54c7f3	-0.0519485
25	0xbe147f2e	-0.1450164
26	0x3d2d96d6	0.042380176
27	0xbd906617	-0.07050722
28	0x3cc56cfc	0.02409982
29	0xbd2dcbca	-0.042430677
30	0x3d8bbef7	0.06823533
31	0xbd507c6e	-0.050899915
32	0x3d3eb2de	0.0465573
33	0x3d72002e	0.059082203
34	0x3d7bbd6e	0.06145995
35	0xbd9022a9	-0.07037861
36	0x3cc9ae83	0.024619346
37	0xbe70fde5	-0.23534353
38	0x3ccc3a8c	0.024930261
39	0x3d892601	0.06696702
40	0x3d8d947d	0.069130875
41	0x3d2db6ea	0.04241077
42	0x3c0bdfc0	0.008537233
43	0xbe308795	-0.1723922
44	0xb8b04b6d	-8.406383e-05
45	0x3d755655	0.059896786
46	0x3d505ba5	0.05086865
47	0xbdb674d5	-0.08909003
48	0x3d5ee5fd	0.054418553
49	0xbc45ef70	-0.012081012
50	0x3ca3f9b0	0.020016521
51	0xbda67185	-0.08127121
52	0xbd956156	-0.07293956
53	0x3cf90c55	0.030401388
54	0xbe220b44	-0.1582461
55	0x3d262080	0.04055834
56	0xbe8fb720	-0.280694
57	0xbe33a066	-0.17541656
58	0x3d679b22	0.05654443
59	0xbdffa4f5	-0.12482635
60	0x3bd86f50	0.0066050664
61	0x3d013c60	0.03155172
62	0xbd8ca072	-0.0686654
63	0xbc4e56b0	-0.01259391
64	0xbbffb586	-0.0078036217
65	0xbe50405b	-0.2033705
66	0xbd78218c	-0.060578868
67	0xbd28eacf	-0.041239556
68	0x3cc0a19c	0.023514561
69	0xbe804084	-0.25049222
70	0xbda14d14	-0.078760296
71	0xbe8b20f7	-0.27173588
72	0x3cc8863c	0.02447807
73	0xbece6dbe	-0.40318102
74	0x3db6bca7	0.08922701
75	0x3d87a27b	0.066227876
76	0xbd998d86	-0.074976966
77	0x3d855b47	0.065115504
78	0x3d832adf	0.064046614
79	0x3d10a601	0.035314564
80	0xbcd70ed4	-0.026252188
81	0xbd6d3a1e	-0.057916753
82	0xbd8270ba	-0.06369157
83	0xbe32c48a	-0.17457786
84	0xbe8f105c	-0.2794217
85	0xbd1d82dd	-0.03845488
86	0x3c4117dc	0.011785474
87	0xbe7520c4	-0.2393828
88	0xbd759d92	-0.059964724
89	0x3cdcabda	0.026937414
90	0xbd82b409	-0.06381995
91	0x3d2ae02f	0.041717704
92	0x3d881cb5	0.066461004
93	0x3da1f37d	0.0790777
94	0xbe87d6a5	-0.26530948
95	0xbe9eda42	-0.31025892
96	0x3d2c35de	0.04204356
97	0xbdd9a199	-0.106265254
98	0xbe827076	-0.25476426
99	0xbc778ba7	-0.015108979
100	0x3d8f0afb	0.06984516
101	0xbd1af730	-0.037833393
102	0xbd97d295	-0.07413212
103	0xbd9c804e	-0.0764166
104	0xbe37e5f7	-0.17958818
105	0x3d1dec94	0.038555697
106	0xbd32010b	-0.043458026
107	0xbe9b3fb7	-0.30322048
108	0xbc0120f0	-0.007881388
109	0x3cc9a312	0.02461389
110	0xbd53cb9c	-0.05170785
111	0xbd6f19b6	-0.05837413
112	0x3c4d4a38	0.012529902
113	0xbd82bbf5	-0.06383506
114	0x3c48b4c0	0.012250125
115	0x3b96c6aa	0.0046013193
116	0xbc8a5c7b	-0.016889801
117	0xbdab5274	-0.08365336
118	0x3d97ca0e	0.07411586
119	0xbd4b58f2	-0.04964537
120	0xbe4135d2	-0.18868187
121	0x3d53b3fe	0.051685326
122	0xbe009819	-0.1255802
123	0x3ca167fd	0.019702906
124	0xbe96e23b	-0.29469475
125	0x3cc67153	0.02422396
126	0x3d9f8d38	0.07790607
127	0xbd1c22bc	-0.038119063

adv.weight f4 [20, 128]
0	0xbd19c1f0	-0.03753847
1	0x3d488f13	0.04896457
2	0x3d37c262	0.044863112
3	0xbd76effc	-0.06028746
4	0x3d8c2a55	0.06844012
5	0xbcda3d36	-0.026640516
6	0xbd881008	-0.06643683
7	0xbd5f403a	-0.05450461
8	0x3d6ab3da	0.057300426
9	0xbd2aece8	-0.041729838
10	0x3d37baca	0.04485587
11	0x3d8d869c	0.0691044
12	0xbd0be024	-0.034149304
13	0xbdb810e2	-0.08987595
14	0xbacc7ac0	-0.0015600547
15	0xbd860302	-0.065435424
16	0x3d935382	0.07193662
17	0xbd76afcb	-0.060226243
18	0x3d946d2b	0.07247385
19	0x3d97108b	0.07376202
20	0x3d8c9394	0.06864086
21	0xbd447a5f	-0.047968265
22	0x3da145ab	0.07874616
23	0xbdb06c28	-0.08614379
24	0xbd05e3cf	-0.03268796
25	0x3d1e90b2	0.03871221
26	0x3d923715	0.07139412
27	0x3d48309e	0.04887449
28	0x3d67870e	0.056525283
29	0xbdacd4ce	-0.08439027
30	0xbcf8c563	-0.030367559
31	0x3d764342	0.060122736
32	0xbd2af11d	-0.04173385
33	0xbd0fe596	-0.03513106
34	0x3daf55a1	0.08561254
35	0xbb8428b0	-0.0040331706
36	0xbc2e08f7	-0.010622255
37	0xbcf3ad9d	-0.029745871
38	0xbb568d40	-0.0032738
39	0x3d064382	0.032779224
40	0x3db04e61	0.086086996
41	0x3bb13b20	0.0054086596
42	0x3acd0280	0.0015641004
43	0xbd6da616	-0.05801972
44	0x3d0ae301	0.033907894
45	0x3d4374db	0.047718864
46	0x3caa2ec6	0.020774256
47	0xbcfe8590	-0.031069547
48	0xbcb617f0	-0.022228211
49	0x3d8b7121	0.06808687
50	0x3cb9fbac	0.022703014
51	0x3d4d8646	0.05017688
52	0x3d91214f	0.07086431
53	0x3a247163	0.00062729995
54	0x3d96cda4	0.073634416
55	0x3d0d124a	0.03444127
56	0x3d10ba38	0.035333842
57	0x3d94c58d	0.07264242
58	0xbdab615a	-0.08368178
59	0x3da0ff65	0.07861213
60	0x3db44ac9	0.08803327
61	0x3d8a2731	0.067457564
62	0xbd68d0f2	-0.05683989
63	0x3c546452	0.012963371
64	0x3d78c019	0.060730074
65	0xbd1e7932	-0.0386898
66	0xbd72f07e	-0.059311382
67	0x3c024cc9	0.007952877
68	0xbd1cbf42	-0.038268335
69	0x3d32ec59	0.04368243
70	0x3d32de77	0.04366919
71	0x3d98be08	0.074581206
72	0xbda4d8d3	-0.080491684
73	0xbd8a01d3	-0.06738629
74	0x3b02d392	0.0019962532
75	0x3d48cacd	0.04902153
76	0xbd680a21	-0.056650285
77	0xbc842a04	-0.016133316
78	0x3c83be72	0.016082022
79	0xbd9c39b5	-0.07628194
80	0xbdb27fb5	-0.087157644
81	0xbd9c4cd6	-0.07631843
82	0xbda7076a	-0.08155711
83	0x3c676d45	0.014125173
84	0xbd2c80bd	-0.042114962
85	0x3ca82bf4	0.020528771
86	0x3b83eda6	0.0040261326
87	0x3d8cb46d	0.06870351
88	0xbda19489	-0.07889659
89	0xbd81edec	-0.06344208
90	0x3c12bbe0	0.008955926
91	0xbcf2dcbc	-0.02964627
92	0xbdb0c38f	-0.0863105
93	0xbdadac34	-0.08480111
94	0xbd52a1c3	-0.0514238
95	0xbdc3c1ba	-0.09558435
96	0xbd9e233c	-0.07721564
97	0x3d764893	0.060127806
98	0xbc642c66	-0.013926601
99	0xbc9db5e0	-0.019251764
100	0x3d509cc7	0.050930765
101	0x3d7954a6	0.060871743
102	0xbd97a3f6	-0.0740432
103	0x3c568363	0.0130928485
104	0x3d855e4f	0.065121286
105	0x3cbad419	0.022806214
106	0x3d5731a2	0.052537568
107	0xbbb4670a	-0.0055054473
108	0xbdb37d24	-0.08764103
109	0x3d93e42e	0.07221256
110	0x3dae546f	0.08512198
111	0xbd60d9cf	-0.05489522
112	0xbc760768	-0.015016414
113	0xbd87fa2a	-0.06639512
114	0xbc93e3fc	-0.018053047
115	0x3d3b8cfc	0.04578875
116	0x3c7c7f95	0.015411277
117	0xbad76119	-0.0016432136
118	0xbd8a86f4	-0.067640215
119	0x3d61cb0e	0.05512529
120	0xbc8e4d62	-0.017370883
121	0x3cf9bb74	0.030484892
122	0xbd4e8ecc	-0.05042915
123	0xbd441b95	-0.047877867
124	0x3da3b033	0.07992592
125	0xbcf6fa5b	-0.030148676
126	0x3d506fcb	0.050887864
127	0xbd8fa1b2	-0.07013263
128	0xbd03cd6f	-0.03217834
129	0x3d9709e9	0.07374937
130	0x3da93fa6	0.08264093
131	0xbd3eaee2	-0.0465535
132	0x3d08bc8c	0.033382937
133	0xbdb74fed	-0.089507915
134	0xbc1f76e0	-0.009732932
135	0xbd4daa77	-0.050211396
136	0x3c22b8b0	0.009931728
137	0x3cb5f8d0	0.02221337
138	0x39aeb600	0.00033323467
139	0x3d5b5286	0.053545497
140	0x3d6af846	0.05736568
141	0xbd997a4e	-0.07494031
142	0x3d8182ab	0.06323751
143	0x3d762cd5	0.06010135
144	0xbd087d5c	-0.033322677
145	0x3d5599c2	0.052148588
146	0xbb6b6260	-0.003591679
147	0x3c9428a2	0.018085781
148	0xbd8d9b53	-0.06914391
149	0xbcd2e2fb	-0.025742998
150	0x3d383e7a	0.044981457
151	0x3da42391	0.08014596
152	0xbca16c34	-0.019704916
153	0xbd98ead4	-0.07466665
154	0xbcdb2f28	-0.026755884
155	0x3d8ae6c5	0.06782297
156	0xbc7829e8	-0.01514671
157	0x3da63e91	0.08117402
158	0x3d619d2d	0.055081535
159	0x3d7c5f4a	0.061614312
160	0x3d459152	0.04823429
161	0x3d94c738	0.072645605
162	0x3cead7b4	0.028667308
163	0xbb56ae40	-0.003275767
164	0x3d7d077e	0.061774723
165	0xbd5fa0e3	-0.054596793
166	0x3da9ef37	0.0829758
167	0x3d72e012	0.05929572
168	0x3d49a60e	0.049230628
169	0xbd606efa	-0.054793335
170	0xbcb9f03c	-0.02269756
171	0x3d3d5d55	0.046231586
172	0xbd7ea348	-0.062167436
173	0xbd90c653	-0.07069077
174	0xbd0d3511	-0.034474436
175	0xbcf422ab	-0.029801687
176	0xbdac4a9b	-0.08412667
177	0xbd08af4d	-0.033370305
178	0x3c71f288	0.014767297
179	0xbd525579	-0.051351044
180	0xbd386c3e	-0.045025103
181	0xbc485875	-0.012228121
182	0x3d40d7a3	0.047080647
183	0x3bb5ca88	0.0055478252
184	0x3d29364b	0.041311543
185	0xbd58b47f	-0.05290651
186	0x3d8e08ff	0.069353096
187	0xbd6d97e6	-0.05800619
188	0xbd86d420	-0.065834284
189	0xbcec0bbc	-0.02881419
190	0x3c81242a	0.015764315
191	0x3cf8aa3a	0.030354608
192	0x3b747728	0.0037302468
193	0x3bfb955a	0.007677716
194	0x3d2f6852	0.042824097
195	0xbd9eee5b	-0.077603064
196	0x3d55042e	0.05200594
197	0x3d2bc862	0.041939147
198	0x3d40e5d6	0.04709419
199	0x3d865c77	0.06560605
200	0xbcefb6b4	-0.029261924
201	0xbc2e2880	-0.010629773
202	0xbda3fc38	-0.08007091
203	0x3c444d57	0.01198133
204	0x3d9d7635	0.07688562
205	0x3c8e3224	0.017357893
206	0xbdb7ded0	-0.08978045
207	0xbdb50760	-0.08839297
208	0x3c9a6d57	0.018850965
209	0xbc1a7fc0	-0.009429872
210	0xbd25bf7d	-0.04046582
211	0xbdbec739	-0.093153425
212	0xbd8ed940	-0.06975031
213	0x3d1842ae	0.037172966
214	0xbce167ef	-0.02751538
215	0x3d6a8bce	0.057262234
216	0xbc76abff	-0.0150556555
217	0xbd7c8ad3	-0.06165583
218	0x3d459868	0.04824105
219	0xbc798e1e	-0.015231637
220	0xbcba79a4	-0.02276308
221	0xbd81cbd2	-0.06337704
222	0x3c7726b4	0.015084911
223	0x3d5b657b	0.053563576
224	0xbc108650	-0.008821085
225	0x3d7cb3d7	0.061694946
226	0x3d1b5ec1	0.03793216
227	0xbd6abc65	-0.057308573
228	0x3d20aaa8	0.03922525
229	0x3cceec44	0.025259145
230	0xbd09497c	-0.033517346
231	0xbca11be2	-0.019666616
232	0x3d8d9a28	0.069141686
233	0xbcb90294	-0.022584237
234	0x3d5ff35a	0.054675438
235	0xbce5a6aa	-0.028033573
236	0x3dad0191	0.084475644
237	0x3ca531e6	0.020165395
238	0x3daa0abd	0.083028294
239	0x3aa50a9d	0.0012591664
240	0xbd303ac5	-0.043024797
241	0x3d667411	0.056263033
242	0xbd41cc6f	-0.047314104
243	0xbc99081d	-0.018680627
244	0xbd2c0c28	-0.04200378
245	0xbda05fed	-0.078307964
246	0x3c409bde	0.011755912
247	0xbd0992e1	-0.03358734
248	0x3c09ad47	0.008403129
249	0xbca4ca2c	-0.020115934
250	0x3d0396cc	0.032126233
251	0x3d8b5fc4	0.06805375
252	0xbd20644f	-0.03915816
253	0xbc8698ab	-0.01643022
254	0xbcd4a913	-0.025959527
255	0xbd786187	-0.060639884

adv.bias f4 [20]
0	0x3d6f6779	0.05844829
1	0xbd96ec14	-0.07369247
2	0xbb748279	-0.0037309213
3	0x3d338081	0.043823723
4	0xbd933de8	-0.07189542
5	0xbd1a252a	-0.0376331
6	0x3d20fdd6	0.039304577
7	0xbd65c775	-0.05609842
8	0xbd79892b	-0.06092183
9	0x3d5ee865	0.054420847
10	0x3ccdd56e	0.025126185
11	0x3d8ef268	0.06979829
12	0x3d6ca92a	0.057778515
13	0x3d9cc046	0.07653861
14	0x3d97e5ab	0.074168526
15	0x3d60be0d	0.054868747
16	0xbd0c9866	-0.034325026
17	0x3ccef2e6	0.025262307
18	0x3d89e0b5	0.067323126
19	0x3d626a86	0.05527737
