DDQN/radiiResults/12cyl/Qpolicy900.pt (torch, 161855 bytes, 9 tensors)

fc.weight f4 [128, 25]
0	0xbde596f6	-0.11210434
1	0x3e4ff034	0.20306474
2	0x3dcc436c	0.09973797
3	0xbe3ece3f	-0.18633364
4	0x3de1ce8e	0.11025725
5	0x3e4ed4a5	0.20198305
6	0xbe30e853	-0.17276125
7	0x3d2b7372	0.041858144
8	0xbd87c376	-0.06629078
9	0x3d05a398	0.03262672
10	0xbc16f1af	-0.009212895
11	0xbe81b5c6	-0.25333995
12	0xbdd17d20	-0.10228944
13	0x3e40d9ec	0.1883313
14	0x3d3467f0	0.044044435
15	0x3e100e98	0.14068067
16	0x3b55feaa	0.0032653012
17	0xbe429ae6	-0.19004402
18	0x3d0ebaf5	0.034846265
19	0x3e054369	0.13013996
20	0xbe100e72	-0.1406801
21	0xbcb05087	-0.021522773
22	0xbd9617cd	-0.073287584
23	0x3e3f9e98	0.18712842
24	0xbd729185	-0.05922081
25	0xbad58bf4	-0.001629232
26	0x3e5f73c2	0.21821502
27	0xbdc4bf50	-0.096068025
28	0x3c52a62e	0.012857003
29	0x3d2005f4	0.039068177
30	0xbcdf7e2a	-0.02728184
31	0x3e4db3ad	0.20088072
32	0xbe781df6	-0.24230179
33	0x3e0f9477	0.14021479
34	0xbe50d2c2	-0.20392898
35	0xbdec48c0	-0.115373135
36	0x3d3e0680	0.046392918
37	0xbc07769a	-0.008268023
38	0x3de81f58	0.11334103
39	0x3e101860	0.14071798
40	0x3e0d4ed1	0.13799597
41	0xbcfd149c	-0.030893616
42	0xbdca6509	-0.09882552
43	0x3cc70957	0.024296446
44	0x3e1d6490	0.15370393
45	0xbdd2fcdf	-0.103021376
46	0x3d76be69	0.060240183
47	0xbe28941f	-0.16462754
48	0xbdbb1401	-0.09134675
49	0x3cd0a365	0.025468538
50	0x3e0ec97d	0.13944049
51	0xbe2103ed	-0.15724154
52	0x3c85fb28	0.016355112
53	0xbdd7fbc3	-0.105460666
54	0xbe294334	-0.16529542
55	0x3e041d15	0.12901719
56	0xbdd7b223	-0.10532024
57	0xbe132f3f	-0.14373492
58	0x3d13a788	0.036048442
59	0xbd8ae0fe	-0.06781195
60	0x3e3c35cf	0.18379901
61	0xbdffd250	-0.12491286
62	0xbd93fc91	-0.072259076
63	0x3d254beb	0.040355604
64	0x3e03a464	0.12855679
65	0xbdbc84a0	-0.09204984
66	0xbe360cea	-0.17778364
67	0xbd83daa2	-0.06438185
68	0x3e4003f1	0.18751504
69	0x3dce02ed	0.10059152
70	0xbdc64f87	-0.096831374
71	0x3ca79ab4	0.02045951
72	0xbd88087d	-0.06642244
73	0x3d0f106d	0.034927774
74	0xbe24a41b	-0.16078226
75	0xbd770768	-0.060309798
76	0xbbb43f60	-0.005500719
77	0x3cfe1f98	0.031020924
78	0x3d74018c	0.059571788
79	0xbdd370ba	-0.10324235
80	0x3e1b871b	0.15188257
81	0x3bcfcd00	0.0063415766
82	0xbe00a66a	-0.12563482
83	0xbde0b247	-0.10971504
84	0x3e03b1bb	0.12860768
85	0x3cbc9510	0.023020297
86	0x3d7e2bfc	0.062053666
87	0xbdeeafd0	-0.11654627
88	0x3cba4490	0.022737771
89	0xbe194a02	-0.14969638
90	0xbe15ea40	-0.1464014
91	0x3e1b8bc3	0.15190034
92	0xbe058c10	-0.13041711
93	0xbdc53e07	-0.096309714
94	0x3d4422ac	0.04788463
95	0xbe3a32cf	-0.18183444
96	0x3c848cc0	0.016180396
97	0x3e0a035b	0.13477843
98	0xbe3d1308	-0.18464291
99	0x3c2b3fa0	0.010452181
100	0xbe34e109	-0.17663969
101	0x3e471337	0.19440924
102	0x3d4e2f7c	0.050338253
103	0xbde1cdb0	-0.1102556
104	0x3d8a1233	0.067417525
105	0xbd40fe18	-0.047117323
106	0xbd7213b8	-0.059100837
107	0x3e3b44dd	0.18287988
108	0x3dff5afd	0.124685265
109	0xbc864a22	-0.016392771
110	0xbd151e3f	-0.036405798
111	0xbd4a25f9	-0.04935262
112	0xbc042b49	-0.008066961
113	0xbd41f88a	-0.047356166
114	0x3dad5231	0.084629424
115	0x3d6e404f	0.0581668
116	0xbbdccd57	-0.0067383456
117	0x3d2f2fb5	0.042770106
118	0xbdba15a8	-0.09086162
119	0x3c46259d	0.012093929
120	0xbd4aef10	-0.049544394
121	0xbd8b13bf	-0.06790876
122	0xbe3edcc6	-0.18638906
123	0x3c25a49c	0.010110047
124	0xbe2890bb	-0.1646146
125	0x3dfc5119	0.12320156
126	0x3df07b9c	0.117423266
127	0x3d45e9eb	0.048318785
128	0xbe08da74	-0.13364583
129	0x3e0d11d5	0.13776334
130	0x3d35fd56	0.044431053
131	0xbdbddc7e	-0.09270571
132	0xbe449f96	-0.19201502
133	0x3e11a693	0.142237
134	0xbd1168b8	-0.03550026
135	0x3d3ed324	0.04658808
136	0x3e044458	0.12916696
137	0x3dbb0212	0.09131254
138	0x3dbd7947	0.092516474
139	0x3cc6a45e	0.024248298
140	0x3d873270	0.06601417
141	0xbe1d4e1c	-0.15361828
142	0x3df04574	0.11731997
143	0xbe219f6d	-0.15783472
144	0xbdb3540b	-0.08756264
145	0x3d3cc0aa	0.046082176
146	0x3d90b04a	0.070648745
147	0x3dc85f4c	0.097838014
148	0x3d490e53	0.049085926
149	0x3e424b86	0.18974122
150	0xbd3a5fd8	-0.04550156
151	0xbd5b03c0	-0.053470373
152	0xbd123100	-0.03569126
153	0x3e1e1249	0.15436663
154	0xbe095e2c	-0.1341483
155	0xbdbf257a	-0.0933332
156	0xbe078c25	-0.13237055
157	0x3d77e7fc	0.060523972
158	0x3d8dd5d2	0.069255486
159	0xbdb5c9ba	-0.08876367
160	0xbdba1ac7	-0.090871386
161	0xbe01f388	-0.12690556
162	0x3d383f94	0.044982508
163	0xbe29e0ea	-0.16589704
164	0x3e08a0df	0.13342617
165	0xbdab73a3	-0.08371665
166	0xbe36604b	-0.1781017
167	0xbc3e10e0	-0.011600703
168	0xbd3adc54	-0.045620278
169	0xbdf27810	-0.11839306
170	0x3d28dda8	0.041227013
171	0x3d7fe744	0.06247641
172	0x3ccd9868	0.025097087
173	0x3e12fd1b	0.14354365
174	0x3ceac268	0.028657153
175	0xbd42cea0	-0.047560334
176	0x3d1bc87a	0.038032986
177	0xbd609575	-0.054830033
178	0xbdc9e565	-0.09858207
179	0x3e4eedeb	0.20207946
180	0x3bd785d9	0.006577235
181	0x3e3b3fe6	0.18286094
182	0x3e0f30c3	0.13983445
183	0xbcd2fcfc	-0.025755398
184	0xbcca3f6c	-0.024688445
185	0xbe3eaff4	-0.18621808
186	0x3e41a125	0.18909128
187	0xbdd2af94	-0.10287395
188	0x3d898243	0.067142986
189	0xbcac981e	-0.021068629
190	0x3d9162f2	0.070989504
191	0x3dc56714	0.09638801
192	0x3d9f726b	0.07785495
193	0xbe123f15	-0.14281876
194	0x3d2accae	0.041699104
195	0xbdbbf204	-0.0917702
196	0xbda916bf	-0.082562916
197	0x3e42c9eb	0.19022338
198	0xbe3aec1e	-0.18254134
199	0x3e391834	0.18075639
200	0xbe49f6be	-0.19723031
201	0xbcaf738d	-0.021417404
202	0x3daee8af	0.085404746
203	0xbdab78d7	-0.08372658
204	0x3d4bae14	0.04972656
205	0xbdb4f875	-0.08836452
206	0xbe0470b2	-0.12933615
207	0x3dac7344	0.08420423
208	0x3e47e450	0.19520688
209	0x3e5edb62	0.21763375
210	0xbe18f954	-0.14938861
211	0xbe367fa2	-0.17822126
212	0x3d3de08a	0.046356715
213	0x3aa2a7d3	0.0012409635
214	0xbcd0a7c3	-0.02547062
215	0x3e49b7a9	0.19698967
216	0xbe322af1	-0.17399193
217	0xbd4a6ecb	-0.049422067
218	0xbd8fbcfe	-0.07018469
219	0xbe05dea9	-0.1307322
220	0xbdbd3511	-0.09238637
221	0xbb5c16d8	-0.0033582952
222	0x3df15869	0.11784441
223	0x3e440bb0	0.19145083
224	0x3aa778df	0.0012777111
225	0x3de8f612	0.11375059
226	0xbc01ddf4	-0.007926453
227	0xbe2b55f7	-0.16732012
228	0x3ddfa78b	0.10920628
229	0x3e0a63bb	0.13514607
230	0xbe17bf0f	-0.14818977
231	0xbe0ea452	-0.1392987
232	0x3d5db56a	0.054128088
233	0x3c211b52	0.009833174
234	0x3c3c72bc	0.011501964
235	0xbe1a03c5	-0.150405
236	0xbdc4ca9e	-0.09608959
237	0x3e518aa0	0.20463037
238	0xbd8139e7	-0.06309872
239	0x3d6d8050	0.057983696
240	0x3e4e2990	0.20133042
241	0xbdd14fbc	-0.10220286
242	0x3dd551eb	0.10416015
243	0xbe3ca73f	-0.18423174
244	0xbce30324	-0.027711459
245	0x3d4a2d27	0.049359467
246	0x3e4e2932	0.20132902
247	0x3da9d7b6	0.08293097
248	0xbc10f1fb	-0.008846755
249	0x3e2bdbb3	0.16783027
250	0xbe0d07d8	-0.13772523
251	0xbde92337	-0.1138367
252	0xbb8c7400	-0.004286289
253	0x3e14515b	0.1448416
254	0x3d8bd9ce	0.06828652
255	0x3dd86eae	0.105679855

fc.bias f4 [128]
0	0xbde837d2	-0.11338772
1	0xbe1d394c	-0.15353888
2	0x3e079f7e	0.13244435
3	0xbe003880	-0.12521553
4	0x3e0ac217	0.13550602
5	0x3d7c905d	0.061661113
6	0xbd49a96c	-0.04923384
7	0x3e0d484c	0.1379711
8	0x3d6aafb2	0.057296462
9	0x3e05aaa9	0.13053383
10	0xbdda0390	-0.10645211
11	0x3e823bf3	0.25436363
12	0x3d9b68ee	0.07588373
13	0xbd9cafb7	-0.076507024
14	0x3d8465a1	0.06464697
15	0xbe19ea65	-0.1503082
16	0xbe0f0856	-0.13968024
17	0x3da60d92	0.08108057
18	0xbe2e5f60	-0.1702857
19	0xbce2c643	-0.02768243
20	0xbd924046	-0.071411654
21	0x3dbe6951	0.09297431
22	0xbe31398d	-0.1730711
23	0x3d8bc4f3	0.068246745
24	0x3d30c45a	0.043156005
25	0x3e7a1596	0.24422297
26	0x3d13523b	0.035967093
27	0xbe259f11	-0.1617396
28	0x3e03a396	0.12855372
29	0x3d9000ee	0.07031427
30	0xbe387fff	-0.18017577
31	0x3e3c281a	0.18374673
32	0xbb7e54c6	-0.0038807853
33	0xbe0b2904	-0.13589865
34	0xbd8708f7	-0.06593507
35	0xbe488410	-0.19581628
36	0x3db97f17	0.090574436
37	0x3e17e234	0.14832383
38	0x3d8761e8	0.06610471
39	0xbe2ffa3f	-0.17185305
40	0x3d8255d6	0.06364028
41	0x3e1a30ca	0.15057674
42	0xbe386bdd	-0.18009897
43	0xbca85322	-0.020547453
44	0xbe1d8975	-0.15384467
45	0xbb910c76	-0.0044265343
46	0xbd6fce0c	-0.05854611
47	0xbe38354b	-0.1798908
48	0x3d705712	0.058676787
49	0xbd8c65d5	-0.068553604
50	0x3e249938	0.16074073
51	0xbdc4b850	-0.09605467
52	0xbd4d84d4	-0.050175503
53	0x3be9178d	0.007113403
54	0xbe344933	-0.17606048
55	0xbe1616e8	-0.14657176
56	0xbe03e5e7	-0.1288067
57	0xbf34c385	-0.7061084
58	0x3d568513	0.052373003
59	0x3cf66c25	0.030080864
60	0x3e0d1fbc	0.13781637
61	0xbc0239bc	-0.007948335
62	0x3e55052e	0.20802757
63	0x3e0acf5c	0.13555664
64	0xbe315c90	-0.17320466
65	0xbd50a44c	-0.050937936
66	0xbd81fd1a	-0.063471034
67	0xbe45ec0b	-0.19328324
68	0xbd3f6434	-0.04672642
69	0xbdc3cc57	-0.09560459
70	0xbd3fa954	-0.046792343
71	0x3d6d5214	0.057939604
72	0x3d88b26a	0.06674655
73	0x3d657f81	0.0560298
74	0x3d1f4930	0.038888156
75	0x3cca405b	0.02468889
76	0xbd948415	-0.07251755
77	0x3d1ca66e	0.038244657
78	0x3c924118	0.017853305
79	0xbe19bfb4	-0.15014535
80	0xbe160906	-0.1465188
81	0xbd2df500	-0.04246998
82	0xbdf06f6d	-0.11740003
83	0xbd9a657a	-0.07538886
84	0x3e09ba61	0.13450004
85	0x3ddcb242	0.107761875
86	0xbd563725	-0.052298684
87	0xbc94496d	-0.018101418
88	0x3e2e81a7	0.17041646
89	0x3e24cf01	0.1609459
90	0xbdc13307	-0.09433561
91	0x3d28e22e	0.041231327
92	0x3e45b980	0.19309044
93	0x3e7d9c8e	0.24766752
94	0xbd0db51a	-0.03459654
95	0x3c7cea60	0.015436739
96	0x3d16bfbb	0.036803942
97	0xbf0debd1	-0.5543795
98	0x3e78a624	0.24282128
99	0x3defa544	0.11701444
100	0xbcc2ee84	-0.023795374
101	0xbd10b93c	-0.035332903
102	0xbd3a81d4	-0.04553397
103	0x3d3c8d08	0.046032935
104	0xbcdfca28	-0.027318075
105	0xbd8f26b7	-0.06989806
106	0xbca12a7b	-0.019673577
107	0x3b909df5	0.004413361
108	0x3df6a001	0.12042237
109	0xbd403ad3	-0.0469311
110	0x3e898637	0.2686021
111	0x3e14f415	0.14546235
112	0xbe2354b0	-0.15950274
113	0x3da1bd78	0.078974664
114	0x3c2dc832	0.010606812
115	0x3e41c5ed	0.18923159
116	0xbbd8085d	-0.006592794
117	0xbe1254cd	-0.14290161
118	0xbbd5a26e	-0.0065196073
119	0x3e864671	0.26225618
120	0xbd97eff0	-0.07418811
121	0xbe3e44dd	-0.18580957
122	0xbd9548d6	-0.07289283
123	0x3dbd669c	0.09248087
124	0x3e259ada	0.16172352
125	0x3e01defb	0.12682717
126	0x3d8307ea	0.06397994
127	0xbc11de88	-0.008903153

hidden.0.weight f4 [128, 128]
0	0x3dadb72b	0.08482202
1	0x3d59167e	0.052999966
2	0x3c480758	0.012208782
3	0xbc36a188	-0.0111469105
4	0xbd5587f9	-0.052131627
5	0xbd8bcc64	-0.06826094
6	0xbdab4b9a	-0.08364029
7	0x3d3aeea6	0.04563775
8	0x3bf4ed00	0.0074745417
9	0x3d0a53ee	0.033771448
10	0xbcefbb14	-0.02926401
11	0xbc9fd9e0	-0.01951307
12	0x3d591fb2	0.053008743
13	0x3d81d693	0.06339755
14	0x3b95e510	0.0045744255
15	0x3d8973f9	0.06711573
16	0x3d9d05bd	0.0766711
17	0xbda6c566	-0.081431195
18	0xbd923044	-0.07138112
19	0x3d759fbe	0.059966795
20	0x3d217866	0.03942146
21	0xbd365457	-0.044514026
22	0xbd5410f1	-0.05177397
23	0xbd288b12	-0.041148253
24	0xbd1f90d4	-0.03895648
25	0xbd80501c	-0.0626528
26	0xbda1e794	-0.07905498
27	0x3d818cc7	0.06325679
28	0xbd34cf9e	-0.04414331
29	0x3d9d4bbd	0.076804616
30	0x3cb85788	0.022502676
31	0x3da92e51	0.08260787
32	0x3d2f5106	0.04280188
33	0x3d7536ea	0.059866823
34	0x3daa66a3	0.08320358
35	0xbd03a083	-0.032135498
36	0xbd70f588	-0.058827907
37	0xbd2489f4	-0.040170625
38	0x3d02af50	0.031905472
39	0x3d65be96	0.05608996
40	0xbd2561cc	-0.04037647
41	0x39316600	0.00016918033
42	0x3d5bf85e	0.05370366
43	0x3d9065f9	0.070507
44	0x3adc8600	0.0016824603
45	0xbd88d806	-0.06681828
46	0xbca4838c	-0.020082258
47	0xbd41898c	-0.047250316
48	0xbcc2cdf0	-0.02377984
49	0x3d956cf9	0.072961755
50	0x3d8627a7	0.06550532
51	0xbd9b25ac	-0.07575545
52	0xbd85e12e	-0.0653709
53	0x3c0637b0	0.008191988
54	0xbc3c95d8	-0.011510335
55	0x3c7bdc28	0.015372314
56	0x3d90e11b	0.070741855
57	0x3d3c0f1e	0.045912854
58	0xbda31772	-0.07963456
59	0xbcb008cc	-0.02148857
60	0xbdb2e428	-0.087349236
61	0xbd1e2ff3	-0.038619947
62	0xbcfcf53c	-0.030878656
63	0xbd809cf1	-0.06279934
64	0x3d74adae	0.059735946
65	0x3c6cd670	0.014455423
66	0x3d2b0c56	0.04175981
67	0xbd22876c	-0.03967993
68	0x3d701e06	0.058622383
69	0xbd9db852	-0.07701172
70	0x3d6f9cae	0.05849903
71	0x3d94e283	0.07269766
72	0xbd6d3036	-0.057907306
73	0xbd738836	-0.059456073
74	0xbcbe2d68	-0.02321501
75	0xbd7a661a	-0.061132528
76	0xbd9798c4	-0.074021846
77	0xbd950e45	-0.07278112
78	0xbc6d8b10	-0.014498487
79	0x3bc6a980	0.0060626864
80	0x3cfea93c	0.031086557
81	0x3cf53c58	0.029936
82	0x3d9ebe9d	0.077512
83	0x3d816c95	0.063195385
84	0xbc3a6d90	-0.011378661
85	0x3d0a5a5a	0.033777572
86	0xbd74dce4	-0.05978097
87	0x3c53f488	0.012936719
88	0xbd2573c3	-0.040393602
89	0x3d6ef222	0.058336385
90	0xbda82ecb	-0.0821205
91	0xbd84c362	-0.06482579
92	0xbda6cb9a	-0.08144303
93	0x3c37a658	0.011209093
94	0xbbcedc90	-0.006312914
95	0x3b6e44a0	0.0036356822
96	0x3dafd355	0.0858523
97	0xbd51a181	-0.051179413
98	0xbd833260	-0.06406093
99	0x3d880593	0.06641688
100	0xbbbe29a0	-0.005803302
101	0x3d83d1d7	0.06436508
102	0xbd296d60	-0.041364074
103	0x3cc03a70	0.023465365
104	0x3d802eff	0.06258964
105	0xbd9dcabc	-0.07704684
106	0xbd9b1736	-0.075727865
107	0xbcb9e888	-0.022693887
108	0x3c93bc94	0.018034257
109	0x3be33520	0.006933823
110	0x3cae01c4	0.021241076
111	0xbd03ec12	-0.032207556
112	0xbc851a14	-0.016247787
113	0x3cb47568	0.02202864
114	0x3d848833	0.064712904
115	0xbd30964f	-0.043112095
116	0xbcdb1c7c	-0.02674698
117	0xbd3feb3d	-0.0468552
118	0xbd588994	-0.05286558
119	0x3d8c931b	0.06863996
120	0xbb9550e0	-0.00455676
121	0x3d1d9c6a	0.038479246
122	0x3d0d8bb6	0.034557067
123	0xbbda2e40	-0.0066583455
124	0xbd9d5792	-0.07682718
125	0xbc6a6838	-0.014307074
126	0x3d85b831	0.06529272
127	0xbd3ded4d	-0.046368886
128	0xbd7259a3	-0.059167515
129	0x3d80aae7	0.06282597
130	0x3c92c6f4	0.017917134
131	0x3b621920	0.003449984
132	0x3d812b5f	0.063071005
133	0x3d8e42c5	0.06946329
134	0xbda2b62f	-0.07944905
135	0xbbe27f70	-0.0069121644
136	0x3d3b7cd6	0.04577335
137	0xbc93503c	-0.017982595
138	0x3da89e37	0.08233302
139	0xbd07fa23	-0.033197533
140	0xbd8a6b94	-0.067588
141	0x3cd9bd58	0.026579544
142	0xbd08c13e	-0.033387415
143	0xbc68eea8	-0.014217056
144	0xbc1d1150	-0.009586647
145	0x3cf7fe38	0.030272588
146	0xbdb4c38c	-0.0882636
147	0x3bc8afc0	0.0061244667
148	0x3d77daae	0.060511284
149	0x3bb97d60	0.005660698
150	0xbdb03bce	-0.08605157
151	0x3d27b3b6	0.04094287
152	0x3d6f72b2	0.05845899
153	0x3d010d74	0.03150697
154	0x3c4abd90	0.012374297
155	0xbb406440	-0.0029356629
156	0xbd0c8eb2	-0.034315772
157	0x3db0dbe9	0.086356945
158	0x3d2cb386	0.042163394
159	0xbd4103a0	-0.047122598
160	0xbba49770	-0.0050229356
161	0xbaff1500	-0.0019461215
162	0xbd303be3	-0.043025862
163	0xbd8940a9	-0.06701786
164	0x3d9711e3	0.073764585
165	0x3daacc5b	0.08339759
166	0x3c2b2760	0.010446399
167	0xbd0018ce	-0.031273656
168	0x3d0bebf4	0.03416057
169	0x3c598218	0.013275646
170	0xbd619e73	-0.05508275
171	0xbc6615d0	-0.014043286
172	0xbc27eb50	-0.010248974
173	0xbc8c6ad4	-0.017140783
174	0x3d2eb706	0.042655014
175	0xbd9c26d6	-0.07624595
176	0x3d1df432	0.03856296
177	0xbd78cef4	-0.06074424
178	0x3d2bc54e	0.04193621
179	0x3cb86bdc	0.022512369
180	0xbdaa9e2e	-0.08330952
181	0x3d6d14ce	0.05788117
182	0x3dadb6f1	0.08482159
183	0x3d4e891e	0.050423734
184	0xbc8324e0	-0.016008794
185	0xbcdcdd40	-0.026960969
186	0xbccef448	-0.025262967
187	0xbd8c7735	-0.068586744
188	0xbda163ec	-0.07880387
189	0x3c9b4838	0.018955335
190	0x3d93759f	0.07200169
191	0x3d1da80a	0.038490333
192	0x3cbae8e0	0.022816122
193	0xbd9fe71a	-0.07807751
194	0xbd3b8cb4	-0.04578848
195	0x3daa145d	0.08304665
196	0x3d0cee08	0.03440669
197	0xbdad12b2	-0.084508315
198	0xbcd1f280	-0.025628328
199	0x3db45c23	0.08806636
200	0x3d7e5e56	0.062101685
201	0xbd9e6bc6	-0.077354
202	0xbc3f94f8	-0.011693232
203	0xbd72b866	-0.059257887
204	0x3bb40f40	0.005494982
205	0xbd5808eb	-0.05274288
206	0xbdb0e602	-0.086376205
207	0x3d5e0b72	0.054210134
208	0xbd7c1b94	-0.061549738
209	0xbd835724	-0.06413105
210	0xbc6f2c80	-0.014598012
211	0xbd486822	-0.048927434
212	0x3cdc59b4	0.026898243
213	0x3c1c15b0	0.009526655
214	0xbc2f0c68	-0.01068411
215	0xbd8ffed2	-0.07031025
216	0x3bda8250	0.0066683665
217	0xbd87a4c2	-0.06623222
218	0xbda36336	-0.07977907
219	0xbcbce91c	-0.023060374
220	0xbd86bf0c	-0.06579408
221	0xbd388c8b	-0.045055907
222	0x3ced6038	0.028976545
223	0xbcd2fa80	-0.025754213
224	0x3d555dfe	0.05209159
225	0x3c35de38	0.011100344
226	0x3d58592e	0.052819423
227	0x3d348ade	0.044077747
228	0xbd952442	-0.07282306
229	0xb9b56e00	-0.00034604967
230	0xbd905c48	-0.07048851
231	0x3d83b3c5	0.06430773
232	0x3d862313	0.065496586
233	0x3c4b2e10	0.012401119
234	0xbd870a9e	-0.06593822
235	0xbb8289c0	-0.0039837062
236	0xbc742ed8	-0.014903747
237	0xbd4fc657	-0.05072626
238	0xbd83d65c	-0.0643737
239	0xbd23d6ef	-0.0399999
240	0xbc12bc38	-0.008956008
241	0x3d5949f6	0.05304905
242	0x3d173562	0.036916144
243	0x3d351316	0.044207655
244	0xbd240655	-0.0400451
245	0xbcd5f730	-0.026118845
246	0xbdae6d1d	-0.085169055
247	0xbc53d3a0	-0.012928873
248	0x3d5a0e7e	0.053236477
249	0x3db3bb33	0.0877594
250	0xbd9c4ab0	-0.07631433
251	0x3b8d74b0	0.0043168887
252	0xbc7dcbd0	-0.015490487
253	0xbd08ef4e	-0.033431344
254	0x3aeac340	0.0017910972
255	0x3d52e232	0.051485248

hidden.0.bias f4 [128]
0	0xbbcc1c00	-0.006228924
1	0x3c154a48	0.009111948
2	0x3d38aad1	0.04508478
3	0xbc64a80d	-0.013956082
4	0x3da60eec	0.08108315
5	0xbc44bd83	-0.012008074
6	0xbbe131bf	-0.0068723853
7	0x3cce655f	0.025194822
8	0x3cf46e9f	0.029837904
9	0xba05c3be	-0.0005102715
10	0x3daa007e	0.08300875
11	0xbd3a8786	-0.0455394
12	0x3ce0e37e	0.027452227
13	0x3dabf124	0.08395603
14	0x3d24cf16	0.040236555
15	0xbd501f34	-0.050811008
16	0x3ce63332	0.028100584
17	0x3c33dab8	0.01097744
18	0xbcd69090	-0.02619198
19	0x3d981d49	0.07427461
20	0xbba44a90	-0.0050137714
21	0x3d9d738e	0.07688056
22	0x3d400d16	0.04688748
23	0x3d987024	0.07443264
24	0xbc11bd83	-0.008895281
25	0xbc3a839f	-0.01138392
26	0x3d763b9a	0.060115434
27	0xbd93953b	-0.07206198
28	0xbc3061a0	-0.010765463
29	0xbc51ed5e	-0.01281294
30	0xbdaa40b3	-0.08313122
31	0xbdb341c1	-0.08752776
32	0x3c12a7e2	0.008951159
33	0x3b424afe	0.002964675
34	0xbda22f31	-0.07919157
35	0xbdb26d24	-0.08712223
36	0x3e1aef6e	0.15130398
37	0x3d88593b	0.06657644
38	0x3d31bbda	0.04339204
39	0x3d2777a5	0.040885586
40	0x3de4c8fb	0.111711465
41	0xbc4d0d23	-0.012515339
42	0x3dc628f0	0.09675777
43	0xbb4dad7a	-0.0031383918
44	0xbd01013f	-0.03149533
45	0xbd78b71a	-0.060721494
46	0x3b250ac2	0.0025183414
47	0x3d9c5705	0.07633785
48	0x3c336998	0.0109504685
49	0xbd53ec59	-0.05173907
50	0xbda73482	-0.08164312
51	0x3d9cd87d	0.07658479
52	0x3dae83c7	0.08521228
53	0x3da10521	0.078623064
54	0x3dd30204	0.10303119
55	0xbd86685a	-0.06562872
56	0x3d9a6e4f	0.07540571
57	0x3d9d16d9	0.076703735
58	0x3b18f905	0.0023341787
59	0xbcec4cb5	-0.02884517
60	0xbda2f810	-0.079574704
61	0x3ce1ab60	0.027547538
62	0x3c19e907	0.009393937
63	0xbd63a033	-0.0555727
64	0x3d847fab	0.06469663
65	0xbcaa6d8f	-0.020804195
66	0x3dc5262f	0.096264236
67	0x3e115062	0.1419082
68	0xbc84939a	-0.016183663
69	0x3d8231ef	0.0635718
70	0x3c88a9d0	0.016682535
71	0x3dee1883	0.11625769
72	0xbd119d25	-0.035550255
73	0xbd8e4c79	-0.0694818
74	0xbc05b648	-0.008161135
75	0xbb2df46c	-0.0026543392
76	0xbda3c01a	-0.07995625
77	0x3dc30525	0.095224656
78	0xbd9b0c5c	-0.07570717
79	0x3da1734d	0.0788332
80	0x3dd661ed	0.104678966
81	0xbd06aed9	-0.03288159
82	0x3e2b7726	0.1674467
83	0x3cbbde34	0.022933103
84	0x3dd13e7c	0.10216996
85	0xbae3634c	-0.0017348318
86	0x3dfbd1de	0.12295888
87	0x3d67404e	0.05645781
88	0xbd9f55dc	-0.07780048
89	0xbd5ba546	-0.053624414
90	0x3dcbe779	0.09956259
91	0xbc614650	-0.013749674
92	0xbd14403f	-0.036194082
93	0xbd04c505	-0.032414455
94	0xbda4630e	-0.08026706
95	0x3da83855	0.082138695
96	0x3cefe730	0.029285043
97	0x3c5fb170	0.013653144
98	0x3d238c5d	0.039928783
99	0x3d661fdf	0.05618274
100	0xbd47fef3	-0.048827123
101	0x3e1d1c36	0.15342793
102	0x3ce2cb1b	0.027684739
103	0x3c92b037	0.017906291
104	0x3c997be9	0.018735843
105	0xbcd03437	-0.025415523
106	0xbda742ef	-0.081670634
107	0x39a06b90	0.00030597718
108	0xbdb15f53	-0.0866076
109	0x3cd6bcc0	0.02621305
110	0xbd603a66	-0.054743193
111	0xbd68f133	-0.05687065
112	0x3d789bec	0.060695574
113	0x3d3ec970	0.046578825
114	0x3d97e72b	0.07417139
115	0x3db99abc	0.09062716
116	0xbd89762f	-0.06711995
117	0xbd692d53	-0.05692799
118	0x3da43513	0.080179356
119	0x3c86c82e	0.016452875
120	0x3cdaa1ac	0.02668842
121	0x3d3ba9ae	0.045816116
122	0x3d2c065e	0.04199826
123	0x3d2d625e	0.04233014
124	0xbbf70490	-0.0075383857
125	0x3d68b69a	0.056814767
126	0xbd3a7453	-0.04552109
127	0xbd0d848d	-0.03455024

hidden.1.weight f4 [128, 128]
0	0x3a8f19c0	0.0010917708
1	0x3cce448c	0.02517917
2	0xbd8a3364	-0.06748083
3	0x3d0b554f	0.034016903
4	0x3d11fdc0	0.035642385
5	0xbc8c44be	-0.017122623
6	0x3db02c5d	0.086022116
7	0xbd76980c	-0.060203597
8	0x3cdfdf98	0.027328297
9	0x3c62bb89	0.013838657
10	0xbd19e70d	-0.037573863
11	0xbd31de51	-0.043424908
12	0x3dab0010	0.08349621
13	0xbd9a198e	-0.075244054
14	0x3c82afec	0.015953027
15	0xbd62c91f	-0.055367585
16	0xbd4be24a	-0.049776353
17	0xbd6ecc76	-0.058300458
18	0xbd6f3783	-0.05840255
19	0x3daed3a8	0.08536464
20	0x3d332c82	0.043743618
21	0x3d177066	0.036972426
22	0xbd379724	-0.044821873
23	0x3d6e3cb6	0.058163367
24	0xbdb1f49f	-0.08689236
25	0x39e320a7	0.00043321142
26	0x3cb87dc2	0.022520903
27	0xbd9a4496	-0.07532613
28	0xbc98bc04	-0.01864434
29	0xbcf9083d	-0.030399436
30	0x3d27cf56	0.040969215
31	0xbd26d781	-0.040732864
32	0x3d9ecf83	0.077544235
33	0x3d97f98b	0.074206434
34	0xbd5396b9	-0.051657412
35	0x3b06c380	0.0020563304
36	0x3d692b99	0.056926344
37	0xbb2df640	-0.0026544482
38	0x3c95b826	0.018276285
39	0x3d9b5877	0.07585233
40	0x3cb87469	0.022516446
41	0x3db3a6e9	0.0877207
42	0xbdaa4843	-0.08314564
43	0xbb3ebb66	-0.0029103397
44	0xbc14cde0	-0.009082288
45	0x3d712ae6	0.0588788
46	0xbc70eb57	-0.014704547
47	0x3d7cb010	0.061691344
48	0xbd23b5e3	-0.039968383
49	0x3ce60650	0.028079182
50	0x3d3771c2	0.044786222
51	0xbda4bf5c	-0.080443114
52	0xbd5655ac	-0.052327797
53	0xbbcb7300	-0.0062087774
54	0xbd1a2e71	-0.037641946
55	0xbd522860	-0.051308036
56	0x3d4ddac8	0.050257474
57	0x3cf7d568	0.030253127
58	0xbd8edc15	-0.06975571
59	0xbd945573	-0.07242861
60	0xbd9ee0e6	-0.0775774
61	0xbd0b9ae3	-0.03408326
62	0x3d5116fe	0.051047318
63	0x3d6ee93a	0.05832789
64	0xbbffb43d	-0.0078034685
65	0xbdac4354	-0.08411279
66	0xbd8c74d7	-0.06858223
67	0xbd495679	-0.049154732
68	0xbd752728	-0.059851795
69	0xbd4ecdc6	-0.05048921
70	0xbd21fe17	-0.03954896
71	0xbcd5a690	-0.0260804
72	0xbd4df49f	-0.050282117
73	0x3d7ec2b2	0.062197395
74	0xbc672e68	-0.014110185
75	0x3ca080f7	0.019592745
76	0xbccd122c	-0.02503308
77	0xbcdc0016	-0.02685551
78	0x3c24c759	0.010057294
79	0x3da30dc5	0.07961611
80	0xbcc23c76	-0.02371047
81	0x3d7a1756	0.06105741
82	0x3ccaa77f	0.024738071
83	0xbd94c86e	-0.072647914
84	0x3da209a0	0.07911992
85	0xbcd9be4e	-0.026580002
86	0x3d66062a	0.056158222
87	0xbd54c758	-0.05194792
88	0x3d20a252	0.0392173
89	0xbda3ec9c	-0.08004114
90	0x399f70e9	0.00030410968
91	0x3d0b004a	0.033935823
92	0x3d8faa51	0.07014907
93	0x3d1b1f06	0.037871383
94	0x3d25290a	0.04032234
95	0xbc57b5a7	-0.013165868
96	0x3d13ab16	0.036051832
97	0xbd469325	-0.04848017
98	0x3d6a497f	0.057198998
99	0xbd85cf5f	-0.065336935
100	0x3d7875d2	0.060659237
101	0x3b8e8909	0.004349832
102	0xbcee182d	-0.029064262
103	0x3c8ffdf0	0.017577142
104	0x3d9339b0	0.071887374
105	0x3d12348f	0.035694655
106	0x3d01da50	0.03170234
107	0xbcaab775	-0.020839432
108	0xbcb49b1e	-0.022046622
109	0xbc966074	-0.01835654
110	0x3cf17231	0.029473396
111	0xbd96012a	-0.07324441
112	0x3cf4f2a5	0.029900858
113	0xbc9b915b	-0.01899021
114	0x3da004ec	0.07813439
115	0x3dabf3dd	0.083961226
116	0x3c9f25ec	0.019427262
117	0xbd19886e	-0.037483625
118	0xbd8b2e01	-0.06795884
119	0x3d9f150a	0.07767685
120	0xbc3a8fbc	-0.011386808
121	0x3da4b155	0.08041636
122	0xbcf28718	-0.029605433
123	0xbdaeddae	-0.08538376
124	0x3d421b78	0.047389477
125	0x3d8c6695	0.068555035
126	0xbcf5e3fe	-0.030015942
127	0xbdb26bf0	-0.08711994
128	0x3cf643d4	0.03006164
129	0x3d5e5c4a	0.054287232
130	0xbd0d4497	-0.03448924
131	0xbd963c88	-0.07335764
132	0xbd35d0b7	-0.0443885
133	0x3c47245c	0.012154665
134	0x3cd657db	0.02616494
135	0xbdddc7af	-0.10829102
136	0xbda1b80b	-0.078964315
137	0xbd972d51	-0.0738169
138	0x3d3727ad	0.044715572
139	0xbdad8f70	-0.08474624
140	0xbd0ca45f	-0.034336444
141	0x3c2b7c61	0.010466666
142	0xbd1cc3ef	-0.038272794
143	0x3c4d2808	0.012521751
144	0x3aa1fb8c	0.0012358292
145	0x3c4d2728	0.012521543
146	0xbd8655a8	-0.065593064
147	0xbda55962	-0.08073689
148	0xbd449d3e	-0.04800152
149	0x3c173204	0.009228233
150	0x3d9a2b88	0.07527834
151	0x3b41a08b	0.0029545154
152	0x3d4b6d56	0.049664818
153	0xbdaa2a20	-0.08308816
154	0x3dd303e6	0.10303478
155	0xbd6632e3	-0.056200873
156	0x3d8a302d	0.0674747
157	0x3c5769ec	0.013147812
158	0xbd977f52	-0.07397331
159	0xbd915d86	-0.07097916
160	0xbbe9b9f0	-0.007132761
161	0x3d3a2a05	0.04545023
162	0x3d1fcd0f	0.03901392
163	0xbd02b782	-0.031913288
164	0xbe272ff4	-0.16326886
165	0xbbc2a398	-0.005939912
166	0xbd9ac4be	-0.07557057
167	0x3d9a6b8d	0.07540045
168	0x3e28edf3	0.1649702
169	0x3be8a110	0.0070992783
170	0x3dc5a58d	0.09650717
171	0xbd2d62e7	-0.04233065
172	0xbc0b17df	-0.008489578
173	0x3cdadd37	0.026716812
174	0xbccf2043	-0.025283938
175	0x3cc8a9d4	0.024495043
176	0xbd8bf960	-0.06834674
177	0xbd35e9ca	-0.04441241
178	0xbd86a284	-0.06573966
179	0xbcb5fb2d	-0.022214497
180	0xbc7debaf	-0.015498086
181	0x3d95e71f	0.073194735
182	0xbd807bfd	-0.06273649
183	0xbd14bb3c	-0.036311373
184	0x3d8596a5	0.06522874
185	0x3d0b6b04	0.034037605
186	0xbcccecee	-0.02501532
187	0x3d0173a5	0.031604428
188	0xbc894c48	-0.016760007
189	0xbd7a1c98	-0.061062425
190	0x3d9a7b0f	0.07543003
191	0xbd7a8da5	-0.06117024
192	0x3d909b1a	0.07060833
193	0x3de4ba38	0.11168331
194	0x3dcbfa6f	0.09959876
195	0x3e2633d8	0.16230714
196	0xbc78a393	-0.015175718
197	0x3dc2bfc7	0.09509235
198	0xbd278c58	-0.040905327
199	0x3ce6133d	0.028085345
200	0x3da321bf	0.07965421
201	0xbde946ec	-0.113904804
202	0xbdb3e868	-0.08784562
203	0x3d874079	0.06604094
204	0x3d2e319a	0.042527772
205	0xbcc9d821	-0.024639191
206	0xbba96725	-0.0051697665
207	0x3d9b203f	0.0757451
208	0x3d04966a	0.03237001
209	0xbaeef000	-0.0018229485
210	0x3da1e4d3	0.07904973
211	0x3c4d6760	0.012536854
212	0x3d945d1e	0.07244323
213	0x3de6aaf4	0.112630755
214	0x3df181f5	0.117923655
215	0x3cc5781a	0.02410512
216	0x3d4d7c7b	0.050167542
217	0xbd023e54	-0.031797722
218	0x3e03caf8	0.12870395
219	0xbd878134	-0.066164404
220	0x3da0a6fb	0.07844349
221	0xbd173838	-0.03691885
222	0x3d8ccbf5	0.06874839
223	0xbc860fdc	-0.016364984
224	0x3c89e994	0.016835012
225	0xbc419570	-0.011815414
226	0x3dc0f523	0.09421756
227	0x3da5af87	0.0809012
228	0xbc895b25	-0.016767094
229	0x3e0f899d	0.14017339
230	0xbc206006	-0.009788519
231	0xbd9aeab0	-0.07564294
232	0x3d2b1ebe	0.041777365
233	0xbdd4a1da	-0.10382433
234	0x3d5884b9	0.05286095
235	0x3c591c97	0.013251445
236	0xbd53e6f7	-0.051733937
237	0x3e047f3c	0.12939161
238	0x3df046f3	0.117322825
239	0x3d6567b6	0.05600711
240	0x3c890f57	0.016730947
241	0x3ce0ac66	0.027425956
242	0x3de14f27	0.11001425
243	0x3d940c6f	0.07228934
244	0x3b9364a9	0.0044980836
245	0x3d8b5cd2	0.068048134
246	0x3e0fef28	0.14056075
247	0x3e06f841	0.13180639
248	0x3d8aab64	0.067709714
249	0xbd629da3	-0.055326115
250	0x3c103e14	0.008803863
251	0xbc821f60	-0.015884101
252	0x3de71f06	0.11285214
253	0x3ce6777f	0.028133152
254	0xbbb85b80	-0.005626142
255	0x3d88e197	0.06683653

hidden.1.bias f4 [128]
0	0x3ad3e850	0.0016167257
1	0x3dd7380a	0.105087355
2	0x3c62a595	0.013833423
3	0x3d5be919	0.053689096
4	0x3cc6dded	0.024275744
5	0xbc0e19d0	-0.008673146
6	0xbca70423	-0.020387715
7	0xbd2aee81	-0.04173136
8	0xbd0fe721	-0.03513253
9	0xbd92cb7a	-0.07167716
10	0xbda9bd89	-0.08288104
11	0xbdaa6bb2	-0.083213225
12	0x3c2c7634	0.010526229
13	0xbd83ef0d	-0.0644208
14	0xbc893281	-0.016747715
15	0xbcc473fa	-0.023981083
16	0x3cfd5738	0.030925378
17	0xbdac1406	-0.08402257
18	0x3c484a10	0.012224689
19	0xbd6b332e	-0.057421856
20	0xbdb020f0	-0.08600032
21	0xbd47248b	-0.048618834
22	0xbb832cb0	-0.00400313
23	0x3c0e8bd9	0.0087003345
24	0xbbc353ff	-0.005960941
25	0xbd63164f	-0.055441197
26	0xbd1f6bb1	-0.038921062
27	0x3db71c74	0.08940974
28	0x3d536035	0.051605422
29	0x3e1a98e6	0.15097389
30	0x3d9f5d0c	0.07781419
31	0x3c53b8c4	0.0129224695
32	0xbd2dc1a0	-0.042420983
33	0xbd2681a8	-0.040650994
34	0x3e03d9b3	0.12876014
35	0xbd794dcc	-0.06086521
36	0xbd2ac6ef	-0.041693624
37	0x3de7c579	0.11316962
38	0x3d8545e7	0.065074734
39	0x3d9980ba	0.07495256
40	0x3c4430a8	0.011974491
41	0xbdabe9fa	-0.08394237
42	0xbdab3988	-0.083605826
43	0x3c79be1b	0.015243079
44	0xbc24b4c6	-0.010052865
45	0x3cd035f4	0.025416352
46	0xbd129c9b	-0.035793882
47	0x3a8b5fe4	0.0010633436
48	0xbcdb92ae	-0.02680334
49	0xbd8846b0	-0.066541076
50	0x3dea694d	0.11445866
51	0x3e07d7a5	0.13265856
52	0xbceec440	-0.029146314
53	0xbd0e2ca5	-0.034710545
54	0xbccb479a	-0.024814416
55	0x3d7c5774	0.06160684
56	0x3d2803a9	0.041019116
57	0x3d9afce5	0.07567767
58	0x3d05b1ea	0.032640375
59	0x3d210ac7	0.03931692
60	0xbaf36a80	-0.0018571168
61	0x3d62aedd	0.055342544
62	0xbd40e503	-0.047093403
63	0x3cf78bee	0.03021809
64	0x3b04496b	0.0020185362
65	0x3c7313dd	0.014836279
66	0x3b4c60f9	0.003118573
67	0x3dee3f2b	0.11633142
68	0x3d9190aa	0.071076706
69	0x3cf07dea	0.029356916
70	0x3b85d6f0	0.0040844604
71	0x3c82ac0b	0.015951177
72	0x3d3464a3	0.044041287
73	0x3d1cebfa	0.038310982
74	0x3d8c3680	0.068463326
75	0xbbd84e29	-0.0066011143
76	0xbccc7c1c	-0.024961524
77	0xbda951dc	-0.082675666
78	0xbd86bbb2	-0.06578769
79	0x3d09669c	0.03354512
80	0x3dd7b27c	0.1053209
81	0x3dda771f	0.10667252
82	0x3c8abb6f	0.016935078
83	0x3d9da1c5	0.07696871
84	0xbc7e39b3	-0.015516686
85	0x3ab2a1f0	0.0013628583
86	0x3d75901c	0.059951887
87	0x3d16e9ec	0.03684418
88	0x3cc457a2	0.023967568
89	0xbd0affc4	-0.033935323
90	0xbd93c516	-0.072153255
91	0x3d74d57e	0.059773915
92	0xbd74d772	-0.059775777
93	0x3cff000c	0.031127952
94	0xbda093fe	-0.07840727
95	0xbd903f98	-0.070433795
96	0x3d18f99f	0.037347432
97	0x3d84fb1f	0.0649321
98	0xbcbb81da	-0.022889066
99	0xbd51ef05	-0.051253337
100	0xbba15224	-0.004923122
101	0xbd44147b	-0.047871094
102	0x3b3ab4e4	0.0028489167
103	0xbd9b023c	-0.075687855
104	0x3d4a2724	0.049353734
105	0xbcea0a70	-0.02856943
106	0xbd8017f6	-0.0625457
107	0xbd74b782	-0.05974532
108	0xbdc1188d	-0.09428511
109	0xbd5ca3f4	-0.053867295
110	0x3cd91933	0.026501274
111	0x3cd26e09	0.025687234
112	0x3d75040e	0.05981832
113	0xbd323583	-0.043508064
114	0x3e1a8c6e	0.15092632
115	0x3d3f465c	0.04669796
116	0x3d3b8a5b	0.045786243
117	0xbc65d721	-0.0140283415
118	0xbd5fc7d0	-0.054633915
119	0xbd83d191	-0.06436456
120	0xbdb4dd46	-0.08831267
121	0x3d848344	0.064703494
122	0xbc096c78	-0.008387677
123	0xbdc8dc8a	-0.098076895
124	0x3ddb5ebc	0.107114285
125	0xbd6d1783	-0.05788375
126	0x3b1eb2e5	0.0024215516
127	0x3d16e9a3	0.036843907

v.weight f4 [1, 128]
0	0xbc778a41	-0.015108646
1	0xbefb2619	-0.49052504
2	0xbe37928c	-0.17926997
3	0xbefbdf05	-0.49193588
4	0x3d879f2a	0.06622155
5	0x3cf945a4	0.030428715
6	0x3e19750e	0.14986059
7	0xbe6fcebc	-0.23418707
8	0xba3a9448	-0.00071174325
9	0xbd6614e4	-0.056172267
10	0x3c3b0520	0.011414796
11	0x3dbd3409	0.092384405
12	0xbd987585	-0.0744429
13	0x3d0d74d7	0.034535255
14	0x3c81f7b6	0.015865188
15	0xbe0b3cb0	-0.13597369
16	0x3c7a99d8	0.015295468
17	0xbe106bd1	-0.14103629
18	0xbf0e7fa8	-0.5566354
19	0x3dab7b19	0.083730884
20	0x3d6267ea	0.05527488
21	0xbe15aa6e	-0.14615795
22	0xbc103e08	-0.008803852
23	0x3df9c3c7	0.12195545
24	0xbe849e94	-0.25902236
25	0x3d8d9399	0.06912918
26	0xbd142eef	-0.036177572
27	0xbe95505f	-0.2916288
28	0x3d94199e	0.072314486
29	0xbf005da2	-0.5014287
30	0xbdb98315	-0.09058205
31	0xbf1c55ae	-0.61068237
32	0xbebf003a	-0.3730486
33	0xbdd1138b	-0.10208806
34	0xbebce4ec	-0.36893404
35	0x3de8e0c9	0.11370999
36	0xbcbe3464	-0.023218341
37	0xbeb61504	-0.3556291
38	0xbee12063	-0.43970022
39	0xbe209dec	-0.15685242
40	0xbcf9c552	-0.030489597
41	0x3e679f95	0.2261947
42	0xbd6fa244	-0.058504358
43	0xbddcf94c	-0.10789737
44	0xbe58d633	-0.2117546
45	0xbea97676	-0.3309819
46	0xbf004d52	-0.5011798
47	0x3db33b38	0.087515295
48	0xbeb81563	-0.35953817
49	0xbda406db	-0.0800912
50	0xbe9f9b04	-0.31172955
51	0xbf376161	-0.71632963
52	0xbc5d5c40	-0.013510764
53	0x3d197f62	0.037474997
54	0xbe179d7a	-0.14806166
55	0x3dd443e0	0.10364509
56	0xbe0dbe3c	-0.138421
57	0xbeb8ea34	-0.36116183
58	0xbc9e1620	-0.01929766
59	0xbe3fc20d	-0.18726368
60	0x3c121b28	0.008917607
61	0x3d849280	0.06473255
62	0x3dacd831	0.08439673
63	0xbefcf794	-0.49407637
64	0x3d2c2ac1	0.04203296
65	0x3da34728	0.07972556
66	0x3d839cd8	0.064264
67	0xbece833b	-0.40334496
68	0xbd37eac3	-0.04490162
69	0xbe5c0eea	-0.21490064
70	0x3da28cd7	0.07937019
71	0xbc986b0b	-0.01860573
72	0xbc45b2d8	-0.012066565
73	0xbcbfe934	-0.02342663
74	0xbd97ee42	-0.07418491
75	0x3d5f8a3a	0.054575182
76	0x3e45c994	0.19315177
77	0xbddd76b2	-0.10813655
78	0x3d61e2fa	0.055148102
79	0x3db3c818	0.08778399
80	0xbe5b4d22	-0.21416143
81	0xbf1434a3	-0.5789282
82	0x3dbc93be	0.09207867
83	0x3d0bfbcf	0.03417569
84	0xbeeeeffd	-0.46667472
85	0xbd539ad9	-0.051661346
86	0xbea3d772	-0.3200031
87	0x3d1a9c5b	0.03774677
88	0xbeb14ad1	-0.34627393
89	0x3d9be727	0.07612448
90	0x3d9c0d0d	0.07619677
91	0xbce18938	-0.027531251
92	0xbc8a0f28	-0.01685293
93	0xbe689177	-0.2271174
94	0x3cff6078	0.03117393
95	0x3b2138a0	0.0024600402
96	0xbd41532d	-0.047198463
97	0xbece2d67	-0.40269014
98	0x3e0b786c	0.13620156
99	0x3d44b1aa	0.048020996
100	0x3e4fc0f4	0.2028845
101	0xbd1f33b6	-0.038867675
102	0xbe4039e2	-0.1877208
103	0xbcc51bfc	-0.024061196
104	0xbf02620c	-0.5093086
105	0xbd8a1f95	-0.06744305
106	0x3d729fd2	0.059234448
107	0x3d031977	0.032006707
108	0xbda0ca16	-0.07851045
109	0x3c6e7e60	0.014556497
110	0x3d5d0463	0.05395926
111	0x3e05ee59	0.13079204
112	0xbead973f	-0.33904454
113	0xbc6aecd8	-0.0143386945
114	0xbf1f7864	-0.62293077
115	0xbd64b41a	-0.05583582
116	0x3d1efee8	0.038817316
117	0xbdeafd5e	-0.11474107
118	0xbcda50a8	-0.026649788
119	0xbd59cf94	-0.053176478
120	0xbdae1374	-0.08499804
121	0x3d99320a	0.07480247
122	0xbc2e4ef0	-0.010638937
123	0x3d02ff66	0.03198185
124	0xbf08ec83	-0.5348589
125	0xbbd013d2	-0.006350019
126	0x3d8d1025	0.06887845
127	0xbeb5ef9f	-0.3553438

adv.weight f4 [24, 128]
0	0xbd8c80dc	-0.068605155
1	0x3db08d8e	0.086207494
2	0xbd72916b	-0.059220713
3	0xbce275fb	-0.027644148
4	0x3d3bd3cf	0.045856293
5	0x3d158f44	0.036513582
6	0xbd8b5d52	-0.06804909
7	0x3ceb5a94	0.028729714
8	0x3d0ceab3	0.034403514
9	0xbd8eeed9	-0.0697915
10	0xbda7051e	-0.08155273
11	0x3d89f2d1	0.06735767
12	0x3d6262eb	0.055270117
13	0x3db191c2	0.08670379
14	0x3bc72bec	0.006078234
15	0xbd88013d	-0.06640861
16	0xbccdd8ac	-0.025127731
17	0x3d7485a8	0.059697777
18	0x3da7b6ee	0.08189188
19	0x3d8aae39	0.067715116
20	0xbd838334	-0.064215094
21	0xba450bdc	-0.0007516721
22	0x3d462f4e	0.048384957
23	0xbd8e41d3	-0.06946149
24	0x3da9d80b	0.0829316
25	0xb83f5000	-4.5612454e-05
26	0xbd50c1ad	-0.050965954
27	0x3c9a2fde	0.018821653
28	0x3d910219	0.07080478
29	0xbceba9f5	-0.028767565
30	0x3cf5e949	0.030018466
31	0x3ca79d11	0.020460637
32	0x3cc47624	0.023982115
33	0x39f3bd4f	0.00046489618
34	0xbc899612	-0.016795192
35	0xbd0982ab	-0.03357188
36	0xbdaa45a3	-0.083140634
37	0x3db8134b	0.08988055
38	0xbd53c528	-0.051701695
39	0x3d041059	0.032242153
40	0x3da82869	0.082108326
41	0xbd5ea661	-0.05435789
42	0xbd57b028	-0.05265823
43	0xbd56d37b	-0.052447777
44	0x3d9343d6	0.07190673
45	0xbd1f65ed	-0.038915563
46	0x3d3db3ec	0.046314165
47	0xbd00cb4e	-0.031443886
48	0xbc58ac87	-0.0132247275
49	0xbd8e19e6	-0.069385335
50	0xbdadda82	-0.08488943
51	0xbda92b3b	-0.08260199
52	0xbd753734	-0.0598671
53	0x3d0bd5d4	0.03413947
54	0xbd88465a	-0.066540435
55	0xbc892bb0	-0.016744465
56	0xbc3ee916	-0.011652252
57	0x3c7043de	0.014664618
58	0xbc1f99b0	-0.009741232
59	0x3d9cd027	0.076568894
60	0x3ca45d50	0.020064026
61	0x3d81985e	0.0632789
62	0xbc7a2d08	-0.015269525
63	0xbd9d3d30	-0.07677686
64	0x3c9cbb85	0.019132385
65	0x3b2248fe	0.0024762745
66	0xbc7abba3	-0.015303525
67	0xbbd72da2	-0.006566719
68	0xbd1445eb	-0.03619949
69	0x3c8fc59a	0.017550278
70	0xbd16ab86	-0.03678467
71	0x3d7d3c87	0.0618253
72	0x3d5077c1	0.050895456
73	0x3cef1bc4	0.029188044
74	0x3b21a887	0.00246671
75	0x3d2a92be	0.04164385
76	0x3d9d7ad3	0.076894425
77	0x3dcb180c	0.09916696
78	0x3d168ede	0.036757343
79	0x3d9d89f2	0.076923266
80	0xbd84e5e2	-0.06489159
81	0x3db7b408	0.08969885
82	0xbd9ce646	-0.07661109
83	0xbdaf5ae7	-0.0856226
84	0xbc7c223f	-0.015389024
85	0xbd4664f9	-0.04843614
86	0x3c01f783	0.007932547
87	0xbdb50dd6	-0.088405296
88	0x3d63412e	0.055482082
89	0x3d569e40	0.052397013
90	0xbcc88d06	-0.024481308
91	0x3dad852a	0.08472665
92	0xbd3266e3	-0.04355515
93	0xbc1d4dfc	-0.009601112
94	0x3d15913f	0.03651547
95	0x3d970703	0.07374384
96	0x3d208dec	0.039197847
97	0x3c35fd33	0.011107731
98	0x3d47c464	0.048771277
99	0xbd34a27c	-0.04410027
100	0xb9ac365f	-0.00032846906
101	0x3d60a9fe	0.054849617
102	0xbd4077fb	-0.046989422
103	0x3d2a2e86	0.041548274
104	0x3b4bc013	0.0031089827
105	0xbcc5bb40	-0.02413714
106	0xbcac8574	-0.02105973
107	0xbc4a55ff	-0.012349605
108	0x3da6d040	0.08145189
109	0xbd230804	-0.039802566
110	0xbd870bc1	-0.06594039
111	0x3da5d8b4	0.080979735
112	0x3d2b0e46	0.04176166
113	0x3ca10dc8	0.019659892
114	0xbd98f5ae	-0.07468735
115	0x3c92c3cc	0.017915629
116	0x3d2a1aba	0.041529395
117	0xbc7b6cde	-0.01534578
118	0xbc8660fc	-0.016403668
119	0xbd9992fd	-0.07498739
120	0x3d91fc81	0.071282394
121	0xbdb232c6	-0.087010905
122	0xbbde4100	-0.006782651
123	0x3d65bfa0	0.05609095
124	0xbd04cfd3	-0.03242476
125	0xbd9914a8	-0.07474643
126	0x3d1324ae	0.035923652
127	0x3dab2a1e	0.083576426
128	0x3d393cfe	0.045224182
129	0x3d0bdb30	0.03414458
130	0x3d93dba3	0.07219627
131	0x3d74646e	0.05966609
132	0x3da463ea	0.080268696
133	0xbcbfeb44	-0.023427613
134	0xbcbb3792	-0.022853646
135	0x3cfaf9a7	0.030636622
136	0x3c15b202	0.009136679
137	0x3d16ed8a	0.03684763
138	0x3db3d9cd	0.087817766
139	0xbd948c62	-0.072533384
140	0x3d806fd8	0.062713325
141	0xbd85e3aa	-0.06537564
142	0xbc7d4337	-0.01545792
143	0xbc5fdecc	-0.013663959
144	0x3c413040	0.011791289
145	0xbd9f12c9	-0.07767255
146	0xbd3fab28	-0.046794087
147	0xbc077448	-0.00826747
148	0xbd732266	-0.059358977
149	0xbd4bc3db	-0.04974733
150	0xbba8c970	-0.0051509663
151	0xbd5137c7	-0.051078584
152	0xbdb88f09	-0.09011657
153	0x3cd98334	0.02655182
154	0xbcae7929	-0.021298008
155	0xbda26890	-0.079301
156	0x3d13e3a6	0.036105774
157	0x3c5b68eb	0.013391714
158	0x3d0ab190	0.033860743
159	0x3b107ef2	0.0022048322
160	0xbc815e7f	-0.01579213
161	0x3cc563fd	0.02409553
162	0x3be15398	0.00687642
163	0xbd1dedf2	-0.038557
164	0xbd26c0aa	-0.040711083
165	0xbd98d7c6	-0.074630305
166	0xbcc8eabd	-0.024525994
167	0xbd3d8ae5	-0.04627504
168	0x3d067f2a	0.032836117
169	0xbdb10bd8	-0.08644837
170	0x3c7dc820	0.015489608
171	0xbd5c26aa	-0.05374781
172	0x3c1dc803	0.009630206
173	0xbda755a3	-0.08170631
174	0xbbbff1fa	-0.0058577033
175	0xbdaf0a34	-0.08546868
176	0xbd493cbb	-0.049130183
177	0xbce341be	-0.02774131
178	0x3d4b0c69	0.049572382
179	0x3c98dcb8	0.018659934
180	0xbd92d02b	-0.07168611
181	0xbbbe10f0	-0.005800359
182	0x3d84af74	0.064787775
183	0xbdae596b	-0.08513149
184	0x3d97e12a	0.074159935
185	0xbbe6b103	-0.0070401444
186	0xbd9a90ab	-0.075471245
187	0xbaa78256	-0.0012779932
188	0x3d1e547e	0.038654797
189	0xbd0b1383	-0.033954155
190	0x3d85810b	0.065187536
191	0x3cdcc952	0.026951466
192	0xbd8201d9	-0.06348009
193	0x3d83d492	0.06437029
194	0x3d6281c6	0.055299543
195	0x3d8d2985	0.06892685
196	0xbcf216b9	-0.02955185
197	0x3c04dca6	0.008109247
198	0x3d921499	0.07132835
199	0xbd295f45	-0.04135062
200	0xbd15cafd	-0.036570538
201	0x3d1d1cea	0.038357653
202	0x3d59d1c7	0.053178575
203	0x3d558396	0.052127443
204	0xbc83750f	-0.016047029
205	0x3d4d136a	0.050067343
206	0xbd4a4b4b	-0.04938821
207	0xbd984568	-0.07435113
208	0xbda6368b	-0.08115872
209	0xbd307b68	-0.04308644
210	0xbd1ee8d9	-0.03879628
211	0x3d30c4b2	0.043156333
212	0x3d35b939	0.044366095
213	0xbdabf84f	-0.083969705
214	0x3d95b024	0.07308987
215	0xbd676713	-0.056494784
216	0xbcd1db38	-0.025617227
217	0x3d8c2be0	0.06844306
218	0xbd1638a5	-0.036675114
219	0xbc81b5fd	-0.01583385
220	0x3d30f9b6	0.043206893
221	0x3d805288	0.062657416
222	0x3d8d3189	0.06894214
223	0xbd535238	-0.05159208
224	0x3d90973d	0.070600964
225	0xbd879252	-0.06619705
226	0x3c7376ce	0.014859868
227	0xbd979b72	-0.07402696
228	0x3be2d24d	0.0069220425
229	0x3c96ce64	0.018408962
230	0xbd0211d6	-0.03175529
231	0x3cea6e88	0.028617159
232	0xbde4c2a1	-0.11169935
233	0xbd28368c	-0.041067645
234	0x3d92c9cd	0.07167397
235	0xbd696b6a	-0.056987204
236	0x3cd0e2c1	0.02549875
237	0x3d5608ae	0.05225437
238	0xbcbfbfb3	-0.023406839
239	0x3a544c1e	0.00080985005
240	0xbd4f9503	-0.050679218
241	0x3d003f22	0.03131021
242	0x3ccf5f4d	0.025313998
243	0x3c95ca4a	0.018284936
244	0xbcce564c	-0.025187634
245	0x3b583e93	0.0032996282
246	0xbd6ec772	-0.058295675
247	0xbd3b447e	-0.045719616
248	0xbcb27e2c	-0.021788679
249	0x3cc7d258	0.024392292
250	0xbcce3c70	-0.025175303
251	0x3b4be2f6	0.003111062
252	0xbd8ff325	-0.07028798
253	0xbdaa49fb	-0.08314892
254	0x3cfafa22	0.03063685
255	0x3cb1cdbe	0.02170455

adv.bias f4 [24]
0	0xbd6c195c	-0.057641372
1	0x3bde22e3	0.006779061
2	0xbdeb3f81	-0.11486722
3	0x3cc435fd	0.023951525
4	0xbda095d6	-0.07841079
5	0xbc79d59a	-0.0152486805
6	0xbcb26090	-0.02177456
7	0x3da273dc	0.07932255
8	0xbc40ac04	-0.011759762
9	0xbbd4334b	-0.006475841
10	0xbcada805	-0.021198282
11	0xbbc57815	-0.006026278
12	0xbdc83167	-0.09775048
13	0x3d9ca88a	0.07649334
14	0xbd8eb903	-0.06968882
15	0x3c811bfa	0.01576041
16	0xbab004a3	-0.0013429116
17	0xbd1f52de	-0.038897388
18	0xbd6c0370	-0.057620466
19	0x3ddfbb58	0.10924405
20	0xbd825a1e	-0.06364845
21	0x3d5d0525	0.053959984
22	0xbdd23464	-0.10263899
23	0x3deb1087	0.11477762
