DDQN/radiiResults/12cyl/Qtarget3300.pt (torch, 161855 bytes, 9 tensors)

fc.weight f4 [128, 25]
0	0x3ccd34eb	0.025049647
1	0x3e4e028b	0.20118158
2	0x3e0a9e2f	0.13536905
3	0xbe976ba3	-0.29574308
4	0x3e0a1fff	0.13488768
5	0x3eab3257	0.33436844
6	0xbe58e1a0	-0.21179819
7	0x3e25b3b1	0.16181828
8	0xbdf4efff	-0.11959838
9	0x3c2616d3	0.010137278
10	0xbd21484e	-0.039375596
11	0xbed984e2	-0.42484194
12	0xbd38d103	-0.045121204
13	0x3e72fb2f	0.23728631
14	0x3dae223c	0.085026234
15	0x3e31f42b	0.17378299
16	0x3ce99375	0.028512696
17	0xbe30d323	-0.17268042
18	0x3d354f74	0.044265226
19	0x3e06b43a	0.13154688
20	0xbe16e726	-0.14736614
21	0xbd150ca3	-0.036389004
22	0xbdc58386	-0.09644227
23	0x3e4fdf4e	0.20300028
24	0xbcabfbff	-0.020994185
25	0xbe7519af	-0.23935579
26	0x3e1002ab	0.14063518
27	0xbd8c9568	-0.068644345
28	0x3dfc591d	0.123216845
29	0xbcf4982f	-0.029857723
30	0xbe418109	-0.1889688
31	0x3e3022b4	0.17200738
32	0xbdede864	-0.116165906
33	0x3e6b9ae2	0.23008302
34	0xbdfe4257	-0.12414997
35	0xbe3c5da3	-0.18395095
36	0x3e6936c1	0.22774793
37	0x3d654128	0.05597034
38	0x3e2bbf36	0.1677216
39	0x3e3dd8ce	0.18539736
40	0x3e313693	0.17305975
41	0xbbaf8f22	-0.005357639
42	0xbda9704a	-0.082733706
43	0x3cfe7115	0.031059781
44	0x3e1ae72e	0.1512725
45	0xbdea77f0	-0.114486575
46	0x3d237d29	0.039914284
47	0xbe46477d	-0.19363208
48	0xbd9aa4b9	-0.075509496
49	0x3e24a924	0.16080147
50	0x3e05cb95	0.13065942
51	0xbe2300b6	-0.1591824
52	0x3c370805	0.011171346
53	0xbddcc46e	-0.107796535
54	0xbe2c323e	-0.16816041
55	0x3df7e9aa	0.12105115
56	0xbdd972b9	-0.10617585
57	0xbe1a716a	-0.15082327
58	0x3d0c8478	0.03430602
59	0xbd94e099	-0.07269401
60	0x3e35d2b7	0.17756163
61	0xbe025bc9	-0.12730326
62	0xbda351c3	-0.07974579
63	0x3d0685f4	0.03284259
64	0x3df7c5fc	0.120983094
65	0xbdcc32e4	-0.09970644
66	0xbe3dffe7	-0.1855465
67	0xbd93fec3	-0.07226326
68	0x3e37ce89	0.1794988
69	0x3dbd4e5d	0.09243462
70	0xbdd75474	-0.10514155
71	0x3c446a5f	0.0119882515
72	0xbd99bb86	-0.075064704
73	0x3cdce7eb	0.026966056
74	0xbe285f95	-0.16442712
75	0xbd770768	-0.060309798
76	0xbbb43f60	-0.005500719
77	0x3cfe1f98	0.031020924
78	0x3d74018c	0.059571788
79	0xbdd370ba	-0.10324235
80	0x3e1b871b	0.15188257
81	0x3bcfcd00	0.0063415766
82	0xbe00a66a	-0.12563482
83	0xbde0b247	-0.10971504
84	0x3e03b1bb	0.12860768
85	0x3cbc9510	0.023020297
86	0x3d7e2bfc	0.062053666
87	0xbdeeafd0	-0.11654627
88	0x3cba4490	0.022737771
89	0xbe194a02	-0.14969638
90	0xbe15ea40	-0.1464014
91	0x3e1b8bc3	0.15190034
92	0xbe058c10	-0.13041711
93	0xbdc53e07	-0.096309714
94	0x3d4422ac	0.04788463
95	0xbe3a32cf	-0.18183444
96	0x3c848cc0	0.016180396
97	0x3e0a035b	0.13477843
98	0xbe3d1308	-0.18464291
99	0x3c2b3fa0	0.010452181
100	0xbe242ca7	-0.16032659
101	0x3e657f4d	0.22411843
102	0x3d4a274e	0.04935389
103	0xbd7fb332	-0.062426753
104	0x3db935a7	0.090434365
105	0xbc63964e	-0.013890816
106	0xbd04ad3f	-0.032391783
107	0x3e7cd356	0.24689993
108	0x3e13a474	0.14418203
109	0x3cb0fc8f	0.021604804
110	0xbc9e1f7a	-0.019302119
111	0xbcbfc9fd	-0.023411745
112	0x3d01ee9a	0.03172169
113	0xbc03167d	-0.008000967
114	0x3dfd1e65	0.12359313
115	0x3dc6324a	0.096775606
116	0x3d012de8	0.03153792
117	0x3da5568a	0.08073147
118	0xbd59f045	-0.053207655
119	0x3d4a822c	0.049440548
120	0xbc4d04ce	-0.012513353
121	0xbcffab8c	-0.03120973
122	0xbe19a602	-0.15004733
123	0x3d44cb20	0.048045278
124	0xbe42c325	-0.19019754
125	0x3e175203	0.14777379
126	0x3e15cbd3	0.14628534
127	0x3ce049f0	0.027379006
128	0xbe8bb216	-0.27284306
129	0x3e0adc8b	0.13560693
130	0x3da42476	0.08014767
131	0xbe0a8dbb	-0.13530628
132	0xbe53d7ce	-0.20687792
133	0x3e0d61a1	0.13806774
134	0xbc2052f0	-0.009785399
135	0x3d48106c	0.048843786
136	0x3e29c814	0.1658023
137	0x3dc5c7d4	0.09657255
138	0x3dc6c71a	0.09705944
139	0x3ce46060	0.027877986
140	0x3d8c706c	0.0685738
141	0xbe1beb81	-0.15226556
142	0x3df055e4	0.11735132
143	0xbe230d3d	-0.15923019
144	0xbdb94cc3	-0.09047844
145	0x3d2a29d9	0.041543815
146	0x3d83e04e	0.06439267
147	0x3db7d779	0.08976645
148	0x3d45e1b5	0.048310954
149	0x3e457494	0.19282752
150	0xbd3a5fd8	-0.04550156
151	0xbd5b03c0	-0.053470373
152	0xbd123100	-0.03569126
153	0x3e1e1249	0.15436663
154	0xbe095e2c	-0.1341483
155	0xbdbf257a	-0.0933332
156	0xbe078c25	-0.13237055
157	0x3d77e7fc	0.060523972
158	0x3d8dd5d2	0.069255486
159	0xbdb5c9ba	-0.08876367
160	0xbdba1ac7	-0.090871386
161	0xbe01f388	-0.12690556
162	0x3d383f94	0.044982508
163	0xbe29e0ea	-0.16589704
164	0x3e08a0df	0.13342617
165	0xbdab73a3	-0.08371665
166	0xbe36604b	-0.1781017
167	0xbc3e10e0	-0.011600703
168	0xbd3adc54	-0.045620278
169	0xbdf27810	-0.11839306
170	0x3d28dda8	0.041227013
171	0x3d7fe744	0.06247641
172	0x3ccd9868	0.025097087
173	0x3e12fd1b	0.14354365
174	0x3ceac268	0.028657153
175	0xbd3d9685	-0.046286125
176	0x3d73ae41	0.059492353
177	0xbd1e2899	-0.038612936
178	0xbe16caec	-0.14725846
179	0x3e2f5637	0.17122732
180	0x3c13d9ec	0.009024125
181	0x3e36b31f	0.17841767
182	0x3e52c2a7	0.20582066
183	0xbc905016	-0.017616313
184	0xbcf301ee	-0.029664006
185	0xbe628d90	-0.22124314
186	0x3e505d72	0.20348147
187	0xbddc3798	-0.10752791
188	0x3d8155ab	0.06315168
189	0xbcc89352	-0.02448431
190	0x3d8b6f5e	0.06808351
191	0x3dc06175	0.093935885
192	0x3d9b41f9	0.07580943
193	0xbe13f919	-0.14450492
194	0x3d252ef5	0.040327985
195	0xbdbe33cf	-0.092872255
196	0xbdaae311	-0.08344091
197	0x3e4210ff	0.18951796
198	0xbe3d3f74	-0.18481237
199	0x3e3aca34	0.18241197
200	0xbe909ebe	-0.2824611
201	0xbd667025	-0.056259293
202	0x3d7eed85	0.062238235
203	0xbe03bf5f	-0.12865971
204	0xbc0707a0	-0.008241564
205	0xbe346992	-0.17618397
206	0xbe0bb191	-0.13641955
207	0xbd4304b2	-0.0476119
208	0x3df1909e	0.11795162
209	0x3ec4eb5c	0.38460815
210	0x3dc85ed6	0.097837135
211	0xbdfe9c0e	-0.12432109
212	0x3dc3200b	0.09527596
213	0x3d37793b	0.04479335
214	0x3c4ebabb	0.012617762
215	0x3e6ae767	0.22939835
216	0xbe171efc	-0.14757913
217	0xbcf0b63f	-0.029383777
218	0xbd694e0c	-0.056959197
219	0xbdff9a7a	-0.12480636
220	0xbdc11c7d	-0.09429262
221	0xbc5fc56d	-0.01365791
222	0x3dc9d715	0.09855477
223	0x3e55750e	0.20845434
224	0xbd4ce8bd	-0.050026644
225	0x3e0f28af	0.13980363
226	0xbd2e9509	-0.0426226
227	0xbe5aa47f	-0.21351813
228	0x3e068daa	0.13139978
229	0x3e11daf1	0.14243676
230	0xbe29c7be	-0.16580102
231	0xbe3ad189	-0.18243994
232	0x3d8d610c	0.06903276
233	0xbd277d1e	-0.040890805
234	0x3c33bd13	0.010970372
235	0xbe2d6444	-0.1693278
236	0xbe0e2048	-0.13879502
237	0x3e71f9ea	0.23630491
238	0xbd13288d	-0.035927344
239	0x3da55573	0.08072939
240	0x3e60f749	0.21969332
241	0xbdb4a832	-0.08821143
242	0x3de90e82	0.1137972
243	0xbe373af3	-0.17893581
244	0xbcdafdf0	-0.026732415
245	0x3d3c9d50	0.046048462
246	0x3e46680d	0.1937563
247	0x3d91b1e8	0.07114011
248	0x398d589c	0.00026959635
249	0x3e2b838a	0.16749397
250	0xbe0d07d8	-0.13772523
251	0xbde92337	-0.1138367
252	0xbb8c7400	-0.004286289
253	0x3e14515b	0.1448416
254	0x3d8bd9ce	0.06828652
255	0x3dd86eae	0.105679855

fc.bias f4 [128]
0	0xbcdd07e7	-0.026981307
1	0xbde7be8a	-0.11315639
2	0x3dfb9fe1	0.12286354
3	0xbe003880	-0.12521553
4	0x3e50afb0	0.2037952
5	0xbbb0c0ca	-0.005394076
6	0xbd49a96c	-0.04923384
7	0x3dfba1c1	0.122867115
8	0x3da115fa	0.0786552
9	0x3ddf9c7a	0.109185174
10	0xbdda0390	-0.10645211
11	0x3e879699	0.26482084
12	0x3d9b68ee	0.07588373
13	0xbd9cafb7	-0.076507024
14	0x3db0a585	0.0862532
15	0xbe19ea65	-0.1503082
16	0xbdc3b6b6	-0.09556334
17	0x3ddeaacc	0.10872421
18	0xbe2e5f60	-0.1702857
19	0xbd9b02b7	-0.07568877
20	0xbd924046	-0.071411654
21	0x3d96aa47	0.073566966
22	0xbe32007d	-0.17382999
23	0x3e0cc2a6	0.13746127
24	0x3d195e4e	0.03744345
25	0x3e699dfb	0.22814171
26	0x3db4669e	0.08808635
27	0xbd570e1d	-0.052503694
28	0x3e95ab1e	0.29232115
29	0x3d9000ee	0.07031427
30	0xbe206379	-0.15662946
31	0x3ea52f4f	0.32262656
32	0xbdf3b554	-0.1189982
33	0xbe0b2904	-0.13589865
34	0xbd8f5635	-0.069988646
35	0xbe4417b4	-0.19149667
36	0x3e0b5ac0	0.13608837
37	0x3e126c11	0.14299037
38	0x3ceb55a2	0.028727356
39	0xbe2ffa3f	-0.17185305
40	0x3d8255d6	0.06364028
41	0x3d4d2d7f	0.050092217
42	0xbe343346	-0.17597684
43	0x3c64db0e	0.013968242
44	0xbce5c703	-0.028048998
45	0x3d3390b3	0.043839168
46	0xbd6fce0c	-0.05854611
47	0xbe7b5293	-0.24543218
48	0x3d66080d	0.05616002
49	0xbf5b171f	-0.85582155
50	0x3e1e0c71	0.15434434
51	0xbdc4b850	-0.09605467
52	0xbd42bee7	-0.04754534
53	0xbc52a6b9	-0.012857133
54	0xbe344933	-0.17606048
55	0xbe1616e8	-0.14657176
56	0xbe063458	-0.13105905
57	0xbf4363c9	-0.76324135
58	0x3d5d568c	0.054037616
59	0xba9c5457	-0.0011926991
60	0x3e123f37	0.14281927
61	0xbca6e587	-0.020373119
62	0x3e556f8a	0.2084333
63	0x3e43de92	0.19127873
64	0xbe315c90	-0.17320466
65	0xbd50a44c	-0.050937936
66	0xbd81fd1a	-0.063471034
67	0xbe954829	-0.29156616
68	0xbd3f6434	-0.04672642
69	0xbdc3cc57	-0.09560459
70	0xbd413f4d	-0.04717951
71	0x3d1633df	0.036670562
72	0x3d8d0f05	0.068876304
73	0x3c080670	0.008302316
74	0x3e311ea7	0.17296849
75	0x3d10e292	0.035372324
76	0xbdb6b9fc	-0.089221925
77	0x3db6577c	0.08903405
78	0x3c924118	0.017853305
79	0xbf0e8d12	-0.55684006
80	0xbe161304	-0.14655691
81	0xbd2df500	-0.04246998
82	0xbdf06f6d	-0.11740003
83	0xbd9a836e	-0.075445995
84	0x3e439a94	0.19101936
85	0x3ddcb242	0.107761875
86	0xbd728125	-0.059205193
87	0xbd252053	-0.04031403
88	0x3e3f0682	0.18654826
89	0x3e2798d5	0.16366895
90	0xbdc13307	-0.09433561
91	0x3d19fff8	0.037597626
92	0x3e93039e	0.28713697
93	0x3e980bb8	0.2969644
94	0xbd145940	-0.036217928
95	0x3c7cea60	0.015436739
96	0x3e118850	0.14212155
97	0xbf5f4474	-0.87213826
98	0x3e80ebc2	0.2517987
99	0x3df04ab5	0.11732999
100	0x3d340477	0.04394957
101	0x3b86ebd7	0.00411747
102	0xbd3a81d4	-0.04553397
103	0xbcbfc933	-0.023411369
104	0xbcdfca28	-0.027318075
105	0xbd9dc5f3	-0.077037714
106	0xbc407714	-0.01174714
107	0xbd0f1a44	-0.03493716
108	0x3e1961a8	0.14978659
109	0xbde142de	-0.10999082
110	0x3e7875c4	0.24263674
111	0x3e2de2fd	0.1698112
112	0xbe2a2180	-0.16614342
113	0x3d273598	0.040822595
114	0xbd0a3e70	-0.03375095
115	0x3e68ad70	0.22722411
116	0xbd0151ce	-0.031572156
117	0xbe1254cd	-0.14290161
118	0x3ce3021a	0.027710963
119	0x3e9ff24e	0.3123955
120	0xbd97eff0	-0.07418811
121	0xbe37916c	-0.17926568
122	0xbe02e3d4	-0.12782222
123	0x3c898646	0.01678766
124	0x3d94bfe7	0.07263165
125	0x3dfd1d6b	0.12359127
126	0x3d6102d5	0.05493434
127	0x3d0f929d	0.03505193

hidden.0.weight f4 [128, 128]
0	0x3dadb72b	0.08482202
1	0x3d59167e	0.052999966
2	0x3c480758	0.012208782
3	0xbc36a188	-0.0111469105
4	0xbd5587f9	-0.052131627
5	0xbd8bcc64	-0.06826094
6	0xbdab4b9a	-0.08364029
7	0x3d3aeea6	0.04563775
8	0x3bf4ed00	0.0074745417
9	0x3d0a53ee	0.033771448
10	0xbcefbb14	-0.02926401
11	0xbc9fd9e0	-0.01951307
12	0x3d591fb2	0.053008743
13	0x3d81d693	0.06339755
14	0x3b95e510	0.0045744255
15	0x3d8973f9	0.06711573
16	0x3d9d05bd	0.0766711
17	0xbda6c566	-0.081431195
18	0xbd923044	-0.07138112
19	0x3d759fbe	0.059966795
20	0x3d217866	0.03942146
21	0xbd365457	-0.044514026
22	0xbd5410f1	-0.05177397
23	0xbd288b12	-0.041148253
24	0xbd1f90d4	-0.03895648
25	0xbd80501c	-0.0626528
26	0xbda1e794	-0.07905498
27	0x3d818cc7	0.06325679
28	0xbd34cf9e	-0.04414331
29	0x3d9d4bbd	0.076804616
30	0x3cb85788	0.022502676
31	0x3da92e51	0.08260787
32	0x3d2f5106	0.04280188
33	0x3d7536ea	0.059866823
34	0x3daa66a3	0.08320358
35	0xbd03a083	-0.032135498
36	0xbd70f588	-0.058827907
37	0xbd2489f4	-0.040170625
38	0x3d02af50	0.031905472
39	0x3d65be96	0.05608996
40	0xbd2561cc	-0.04037647
41	0x39316600	0.00016918033
42	0x3d5bf85e	0.05370366
43	0x3d9065f9	0.070507
44	0x3adc8600	0.0016824603
45	0xbd88d806	-0.06681828
46	0xbca4838c	-0.020082258
47	0xbd41898c	-0.047250316
48	0xbcc2cdf0	-0.02377984
49	0x3d956cf9	0.072961755
50	0x3d8627a7	0.06550532
51	0xbd9b25ac	-0.07575545
52	0xbd85e12e	-0.0653709
53	0x3c0637b0	0.008191988
54	0xbc3c95d8	-0.011510335
55	0x3c7bdc28	0.015372314
56	0x3d90e11b	0.070741855
57	0x3d3c0f1e	0.045912854
58	0xbda31772	-0.07963456
59	0xbcb008cc	-0.02148857
60	0xbdb2e428	-0.087349236
61	0xbd1e2ff3	-0.038619947
62	0xbcfcf53c	-0.030878656
63	0xbd809cf1	-0.06279934
64	0x3d74adae	0.059735946
65	0x3c6cd670	0.014455423
66	0x3d2b0c56	0.04175981
67	0xbd22876c	-0.03967993
68	0x3d701e06	0.058622383
69	0xbd9db852	-0.07701172
70	0x3d6f9cae	0.05849903
71	0x3d94e283	0.07269766
72	0xbd6d3036	-0.057907306
73	0xbd738836	-0.059456073
74	0xbcbe2d68	-0.02321501
75	0xbd7a661a	-0.061132528
76	0xbd9798c4	-0.074021846
77	0xbd950e45	-0.07278112
78	0xbc6d8b10	-0.014498487
79	0x3bc6a980	0.0060626864
80	0x3cfea93c	0.031086557
81	0x3cf53c58	0.029936
82	0x3d9ebe9d	0.077512
83	0x3d816c95	0.063195385
84	0xbc3a6d90	-0.011378661
85	0x3d0a5a5a	0.033777572
86	0xbd74dce4	-0.05978097
87	0x3c53f488	0.012936719
88	0xbd2573c3	-0.040393602
89	0x3d6ef222	0.058336385
90	0xbda82ecb	-0.0821205
91	0xbd84c362	-0.06482579
92	0xbda6cb9a	-0.08144303
93	0x3c37a658	0.011209093
94	0xbbcedc90	-0.006312914
95	0x3b6e44a0	0.0036356822
96	0x3dafd355	0.0858523
97	0xbd51a181	-0.051179413
98	0xbd833260	-0.06406093
99	0x3d880593	0.06641688
100	0xbbbe29a0	-0.005803302
101	0x3d83d1d7	0.06436508
102	0xbd296d60	-0.041364074
103	0x3cc03a70	0.023465365
104	0x3d802eff	0.06258964
105	0xbd9dcabc	-0.07704684
106	0xbd9b1736	-0.075727865
107	0xbcb9e888	-0.022693887
108	0x3c93bc94	0.018034257
109	0x3be33520	0.006933823
110	0x3cae01c4	0.021241076
111	0xbd03ec12	-0.032207556
112	0xbc851a14	-0.016247787
113	0x3cb47568	0.02202864
114	0x3d848833	0.064712904
115	0xbd30964f	-0.043112095
116	0xbcdb1c7c	-0.02674698
117	0xbd3feb3d	-0.0468552
118	0xbd588994	-0.05286558
119	0x3d8c931b	0.06863996
120	0xbb9550e0	-0.00455676
121	0x3d1d9c6a	0.038479246
122	0x3d0d8bb6	0.034557067
123	0xbbda2e40	-0.0066583455
124	0xbd9d5792	-0.07682718
125	0xbc6a6838	-0.014307074
126	0x3d85b831	0.06529272
127	0xbd3ded4d	-0.046368886
128	0xbd7259a3	-0.059167515
129	0x3d80aae7	0.06282597
130	0x3c92c6f4	0.017917134
131	0x3b621920	0.003449984
132	0x3d812b5f	0.063071005
133	0x3d8e42c5	0.06946329
134	0xbda2b62f	-0.07944905
135	0xbbe27f70	-0.0069121644
136	0x3d3b7cd6	0.04577335
137	0xbc93503c	-0.017982595
138	0x3da89e37	0.08233302
139	0xbd07fa23	-0.033197533
140	0xbd8a6b94	-0.067588
141	0x3cd9bd58	0.026579544
142	0xbd08c13e	-0.033387415
143	0xbc68eea8	-0.014217056
144	0xbc1d1150	-0.009586647
145	0x3cf7fe38	0.030272588
146	0xbdb4c38c	-0.0882636
147	0x3bc8afc0	0.0061244667
148	0x3d77daae	0.060511284
149	0x3bb97d60	0.005660698
150	0xbdb03bce	-0.08605157
151	0x3d27b3b6	0.04094287
152	0x3d6f72b2	0.05845899
153	0x3d010d74	0.03150697
154	0x3c4abd90	0.012374297
155	0xbb406440	-0.0029356629
156	0xbd0c8eb2	-0.034315772
157	0x3db0dbe9	0.086356945
158	0x3d2cb386	0.042163394
159	0xbd4103a0	-0.047122598
160	0xbba49770	-0.0050229356
161	0xbaff1500	-0.0019461215
162	0xbd303be3	-0.043025862
163	0xbd8940a9	-0.06701786
164	0x3d9711e3	0.073764585
165	0x3daacc5b	0.08339759
166	0x3c2b2760	0.010446399
167	0xbd0018ce	-0.031273656
168	0x3d0bebf4	0.03416057
169	0x3c598218	0.013275646
170	0xbd619e73	-0.05508275
171	0xbc6615d0	-0.014043286
172	0xbc27eb50	-0.010248974
173	0xbc8c6ad4	-0.017140783
174	0x3d2eb706	0.042655014
175	0xbd9c26d6	-0.07624595
176	0x3d1df432	0.03856296
177	0xbd78cef4	-0.06074424
178	0x3d2bc54e	0.04193621
179	0x3cb86bdc	0.022512369
180	0xbdaa9e2e	-0.08330952
181	0x3d6d14ce	0.05788117
182	0x3dadb6f1	0.08482159
183	0x3d4e891e	0.050423734
184	0xbc8324e0	-0.016008794
185	0xbcdcdd40	-0.026960969
186	0xbccef448	-0.025262967
187	0xbd8c7735	-0.068586744
188	0xbda163ec	-0.07880387
189	0x3c9b4838	0.018955335
190	0x3d93759f	0.07200169
191	0x3d1da80a	0.038490333
192	0x3cbae8e0	0.022816122
193	0xbd9fe71a	-0.07807751
194	0xbd3b8cb4	-0.04578848
195	0x3daa145d	0.08304665
196	0x3d0cee08	0.03440669
197	0xbdad12b2	-0.084508315
198	0xbcd1f280	-0.025628328
199	0x3db45c23	0.08806636
200	0x3d7e5e56	0.062101685
201	0xbd9e6bc6	-0.077354
202	0xbc3f94f8	-0.011693232
203	0xbd72b866	-0.059257887
204	0x3bb40f40	0.005494982
205	0xbd5808eb	-0.05274288
206	0xbdb0e602	-0.086376205
207	0x3d5e0b72	0.054210134
208	0xbd7c1b94	-0.061549738
209	0xbd835724	-0.06413105
210	0xbc6f2c80	-0.014598012
211	0xbd486822	-0.048927434
212	0x3cdc59b4	0.026898243
213	0x3c1c15b0	0.009526655
214	0xbc2f0c68	-0.01068411
215	0xbd8ffed2	-0.07031025
216	0x3bda8250	0.0066683665
217	0xbd87a4c2	-0.06623222
218	0xbda36336	-0.07977907
219	0xbcbce91c	-0.023060374
220	0xbd86bf0c	-0.06579408
221	0xbd388c8b	-0.045055907
222	0x3ced6038	0.028976545
223	0xbcd2fa80	-0.025754213
224	0x3d555dfe	0.05209159
225	0x3c35de38	0.011100344
226	0x3d58592e	0.052819423
227	0x3d348ade	0.044077747
228	0xbd952442	-0.07282306
229	0xb9b56e00	-0.00034604967
230	0xbd905c48	-0.07048851
231	0x3d83b3c5	0.06430773
232	0x3d862313	0.065496586
233	0x3c4b2e10	0.012401119
234	0xbd870a9e	-0.06593822
235	0xbb8289c0	-0.0039837062
236	0xbc742ed8	-0.014903747
237	0xbd4fc657	-0.05072626
238	0xbd83d65c	-0.0643737
239	0xbd23d6ef	-0.0399999
240	0xbc12bc38	-0.008956008
241	0x3d5949f6	0.05304905
242	0x3d173562	0.036916144
243	0x3d351316	0.044207655
244	0xbd240655	-0.0400451
245	0xbcd5f730	-0.026118845
246	0xbdae6d1d	-0.085169055
247	0xbc53d3a0	-0.012928873
248	0x3d5a0e7e	0.053236477
249	0x3db3bb33	0.0877594
250	0xbd9c4ab0	-0.07631433
251	0x3b8d74b0	0.0043168887
252	0xbc7dcbd0	-0.015490487
253	0xbd08ef4e	-0.033431344
254	0x3aeac340	0.0017910972
255	0x3d52e232	0.051485248

hidden.0.bias f4 [128]
0	0xbbcc1c00	-0.006228924
1	0x3c154a48	0.009111948
2	0x3d0920db	0.0334786
3	0xbd125639	-0.03572676
4	0x3d7dff46	0.062011026
5	0xbd0d2a73	-0.03446431
6	0x3c9ce27f	0.01915097
7	0xbd3d0180	-0.04614401
8	0x3d2cbd65	0.04217281
9	0xbc4219b9	-0.011846953
10	0x3d31bdae	0.043393783
11	0xbd3c6b67	-0.046000864
12	0x3d35628f	0.044283446
13	0x3d673841	0.056450132
14	0x3d1c9e83	0.038237106
15	0xbd501f34	-0.050811008
16	0x3d38414d	0.04498415
17	0x3cfde17d	0.03099131
18	0xbccb4cff	-0.024816988
19	0x3ddbddb4	0.10735646
20	0xbba8047d	-0.005127488
21	0x3e0fb1b2	0.14032629
22	0x3ce51365	0.02796335
23	0x3e3959e6	0.181007
24	0xbe509d3c	-0.2037248
25	0x3baee945	0.0053378665
26	0x3d9a672c	0.0753921
27	0xbd9bf461	-0.07614971
28	0xbbb18517	-0.005417477
29	0xbcb93194	-0.022606649
30	0xbdb122dc	-0.08649227
31	0xbdb341c1	-0.08752776
32	0x3bc870ee	0.006116978
33	0x3c0f8c7f	0.008761524
34	0xbde89713	-0.1135694
35	0xbdb227f0	-0.08699024
36	0x3dd50c8a	0.10402782
37	0x3d5f747d	0.05455445
38	0x3b90c8d5	0.0044184723
39	0x3e94b93f	0.29047582
40	0x3dff9046	0.1247869
41	0x3d27fd8c	0.041013286
42	0x3db117b0	0.08647096
43	0xbb4fe9c7	-0.0031725036
44	0xbc8157b8	-0.015788898
45	0xbd716c8d	-0.058941413
46	0x3d8c8f9d	0.068633296
47	0x3d844b76	0.064597055
48	0x3baf3a5f	0.0053475345
49	0xbd8557cf	-0.06510889
50	0xbdaaee43	-0.08346226
51	0x3d52e6a9	0.051489506
52	0x3df56f84	0.119841605
53	0x3da6866e	0.08131109
54	0x3dfc6de4	0.123256475
55	0xbd8945e5	-0.067027844
56	0x3e3546ee	0.17702839
57	0xbbf19535	-0.007372523
58	0x3d3831ef	0.044969495
59	0xbd51520d	-0.05110364
60	0xbda2f810	-0.079574704
61	0x3cc909d3	0.024540817
62	0x3bf419bf	0.0074493582
63	0xbd9e5c39	-0.07732434
64	0x3decafca	0.115569666
65	0xbd626883	-0.05527545
66	0x3e3b0505	0.18263634
67	0x3eac3cf7	0.33640262
68	0xbc686b34	-0.0141857155
69	0x3cb09d10	0.021559268
70	0x3c88af9b	0.016685298
71	0x3db257f1	0.0870818
72	0xbd2f5173	-0.042802285
73	0xbe6b75c0	-0.22994137
74	0xbc05b648	-0.008161135
75	0x3a784e33	0.0009472102
76	0xbda3c01a	-0.07995625
77	0x3ebf7d0c	0.3740009
78	0xbe1c7b07	-0.15281306
79	0x3dbf75e5	0.093486585
80	0x3e12446d	0.14283915
81	0xbd06aed9	-0.03288159
82	0x3ea15544	0.31510365
83	0x3cab7e41	0.020934226
84	0x3e51f484	0.20503432
85	0xbd56750c	-0.05235772
86	0x3e87acd0	0.26499033
87	0x3d932ae3	0.07185914
88	0xbdb524fb	-0.08844944
89	0xbd59ca1d	-0.053171266
90	0x3e664189	0.22485937
91	0xbd29dc05	-0.041469593
92	0x3ae44e29	0.0017418313
93	0xbdd49277	-0.103794985
94	0xbda991c8	-0.08279759
95	0x3df420ea	0.1192034
96	0x3cfa41ff	0.030549048
97	0x3c5fb170	0.013653144
98	0x3d15d2f9	0.036578152
99	0x3dc61165	0.096712865
100	0xbcfedbbe	-0.03111064
101	0x3e8e9f1a	0.2785576
102	0x3d0d156d	0.03444426
103	0x3c0fdd2f	0.008780762
104	0xbd5d2f91	-0.05400044
105	0xbdddaeba	-0.10824342
106	0xbd7183d9	-0.05896363
107	0x3cd697c6	0.026195418
108	0xbe15d837	-0.1463326
109	0x3c0fdb27	0.008780277
110	0x3c8f3504	0.017481335
111	0xbd68f133	-0.05687065
112	0x3dc36ca5	0.09542207
113	0x3daac79c	0.08338854
114	0x3def08b2	0.116715804
115	0x3dec45e4	0.11536768
116	0xbd8a4234	-0.067509085
117	0xbe204b13	-0.15653639
118	0x3e5edb96	0.21763453
119	0x3b7a456d	0.0038188354
120	0xbbefce50	-0.0073182955
121	0x3d37f47b	0.04491089
122	0x3d7c8816	0.06165322
123	0x3d82a8b4	0.06379834
124	0xbb0665b1	-0.002050739
125	0x3d4aa604	0.04947473
126	0xbd761b12	-0.06008441
127	0xbd0337a7	-0.032035496

hidden.1.weight f4 [128, 128]
0	0x3a8f19c0	0.0010917708
1	0x3cce448c	0.02517917
2	0xbd31ba20	-0.043390393
3	0x3cfec8af	0.031101553
4	0x3d01bdf4	0.031675294
5	0xbc94e9c3	-0.018177873
6	0x3df6dc4a	0.120537356
7	0xbd92e9a1	-0.071734674
8	0x3cdb1a8a	0.026746053
9	0x3d304396	0.043033205
10	0xbd49057c	-0.049077496
11	0xbd3212e6	-0.043475054
12	0x3dc07eb1	0.093991645
13	0xbd99fbd1	-0.07518733
14	0x3c82d040	0.015968442
15	0xbd62c91f	-0.055367585
16	0xbd533339	-0.05156252
17	0xbd72cbde	-0.059276454
18	0xbd6f3783	-0.05840255
19	0x3d9da68b	0.07697781
20	0x3d332c7e	0.043743603
21	0x3cc67876	0.024227362
22	0xbb9fdf94	-0.0048789475
23	0x3dcf359f	0.10117649
24	0xbdaa0d35	-0.083033
25	0xbbc06149	-0.0058709723
26	0x3cc93f55	0.024566332
27	0xbd9a3fae	-0.07531677
28	0xbc972c7c	-0.018453829
29	0xbd5647d4	-0.052314594
30	0x3d2cf968	0.04223004
31	0xbd26d781	-0.040732864
32	0x3da8c9a0	0.08241582
33	0x3df0f6cf	0.11765825
34	0xbd75fe3b	-0.060056906
35	0x3b06bf8c	0.0020560948
36	0x3d8c0518	0.06836909
37	0xbb5044dc	-0.0031779325
38	0x3c8a7e87	0.016906036
39	0x3d81a2c6	0.06329875
40	0x3d3e50a4	0.046463624
41	0x3db23e6b	0.087033115
42	0xbd9793b2	-0.074012175
43	0xb8b39dc9	-8.564775e-05
44	0xbc5d1ccd	-0.013495636
45	0x3d71336f	0.05888694
46	0xbc0436eb	-0.008069734
47	0x3dafa09b	0.08575555
48	0xbd23ab6a	-0.039958395
49	0x3ce5c310	0.028047115
50	0x3d3786e3	0.044806372
51	0xbdadba25	-0.0848277
52	0xbda43b2a	-0.08019097
53	0xbbceba2c	-0.0063088145
54	0xbd0775c8	-0.03307131
55	0xbd5295fa	-0.05141256
56	0x3d64ccb9	0.0558593
57	0x3c83ffc2	0.016113166
58	0xbd75b3ea	-0.059986033
59	0xbd90e431	-0.07074774
60	0xbd9ee0e6	-0.0775774
61	0xbd0b9bf0	-0.03408426
62	0x3d9c027c	0.07617661
63	0x3d4079d3	0.04699118
64	0xba724ed6	-0.0009243315
65	0xbdc6611d	-0.09686492
66	0xbd26ac17	-0.04069146
67	0xbcffd6a0	-0.03123027
68	0xbdb1febc	-0.08691165
69	0xbd8629cf	-0.06550943
70	0xbd21f628	-0.039541394
71	0xbce9fab2	-0.028561924
72	0xbd4be153	-0.049775433
73	0x3d81044e	0.06299649
74	0xbc672e68	-0.014110185
75	0x3d290bc7	0.041270997
76	0xbccd122c	-0.02503308
77	0xbcc506e3	-0.024051135
78	0x3d34318d	0.043992568
79	0x3da2f313	0.07956519
80	0xbd27b10b	-0.040940326
81	0x3d7a1756	0.06105741
82	0x3d009f51	0.031401936
83	0xbd94c831	-0.07264746
84	0x3d8e8d90	0.06960595
85	0xbcd49b4e	-0.025952961
86	0x3dacb28d	0.08432493
87	0xbd3e5025	-0.04646315
88	0x3d2560f0	0.04037565
89	0xbdc05354	-0.093908936
90	0x3c61c174	0.013779033
91	0x3d0a6c87	0.033794906
92	0x3d8aaf05	0.067716636
93	0x3d256249	0.040376935
94	0x3d251aec	0.040308878
95	0xbc685667	-0.014180756
96	0x3d13ade3	0.036054503
97	0xbd469325	-0.04848017
98	0x3d92bba9	0.071646996
99	0xbd834e2b	-0.06411394
100	0x3dcb0606	0.09913258
101	0x3b9fe731	0.004879855
102	0xbcc53410	-0.024072677
103	0x3c8ffd00	0.017576694
104	0x3d95bcdd	0.073114134
105	0x3d143c0d	0.03619008
106	0x3d06047b	0.032719117
107	0xbcb11173	-0.021614766
108	0xbb9da079	-0.0048103896
109	0xbcf2d7e0	-0.029643953
110	0x3ca4dd8f	0.020125179
111	0xbd96012a	-0.07324441
112	0x3d63a461	0.055576686
113	0xbd81c0d2	-0.06335606
114	0x3d74c5e0	0.05975902
115	0x3daa2ceb	0.08309349
116	0x3c9f261a	0.019427348
117	0xbd0e7e45	-0.03478839
118	0xbda5ed86	-0.081019446
119	0x3d85bf0b	0.06530579
120	0xbcdbacb8	-0.026815757
121	0x3da4b155	0.08041636
122	0xbce364db	-0.027758053
123	0xbda42615	-0.08015076
124	0x3d4eeb65	0.05051746
125	0x3d8fe28e	0.07025634
126	0xbd0d5ccd	-0.03451233
127	0xbdcc96b6	-0.09989683
128	0x3cf643d4	0.03006164
129	0x3d5e5c4a	0.054287232
130	0xbd7c2382	-0.0615573
131	0xbd962e92	-0.07333101
132	0xbcc62252	-0.024186287
133	0x3c37b99a	0.011213684
134	0x3c9a9afa	0.018872727
135	0xbdcb2830	-0.099197745
136	0xbdaa5656	-0.083172485
137	0xbd8ff738	-0.07029575
138	0x3d97cbea	0.074119404
139	0xbdad16ec	-0.084516376
140	0xbd15cb0f	-0.036570605
141	0x3c39d99a	0.011343384
142	0xbd1d32cf	-0.038378533
143	0x3c4d2808	0.012521751
144	0x3c2bd11f	0.01048687
145	0x3c294a3c	0.01033264
146	0xbd8655a7	-0.06559306
147	0xbdd781be	-0.10522793
148	0xbd44c4d3	-0.04803927
149	0xbb90ab2b	-0.004414936
150	0x3d2a0eed	0.04151814
151	0xbd011714	-0.03151615
152	0xbcaef522	-0.021357123
153	0xbd877db4	-0.06615773
154	0x3e1c0560	0.15236425
155	0xbd66b2b5	-0.056322772
156	0x3d898b01	0.06715966
157	0x3c14ced7	0.009082518
158	0xbd9a930a	-0.07547577
159	0xbd915d86	-0.07097916
160	0xbcbdccf2	-0.023169015
161	0x3d0a5cb0	0.0337798
162	0x3d60c6d1	0.054877106
163	0xbd02bbfa	-0.03191755
164	0xbea9a942	-0.33136946
165	0xbb8e894c	-0.004349863
166	0xbddd7fc4	-0.10815385
167	0xbd297d06	-0.041378997
168	0x3e05afae	0.13055298
169	0x3c93d3b0	0.018045276
170	0x3da7455a	0.08167525
171	0xbd3c8dd0	-0.04603368
172	0xbac881b9	-0.001529745
173	0x3cd9c318	0.026582286
174	0xbda141ea	-0.078739
175	0xba93bd6c	-0.0011271662
176	0xbd8b8e44	-0.068142444
177	0xbd0fcbab	-0.035106342
178	0xbd8687a2	-0.06568839
179	0xbc956998	-0.018238828
180	0xbd35d69d	-0.044394124
181	0x3d97241e	0.07379936
182	0xbdf21d60	-0.11822009
183	0xbd164aab	-0.036692303
184	0x3d4ac871	0.049507562
185	0x3d8fee1e	0.07027839
186	0xbe00bbf8	-0.12571704
187	0x3ca1ccde	0.019751009
188	0xbc894c48	-0.016760007
189	0xbd7b0bd6	-0.061290585
190	0x3daed9f1	0.08537663
191	0xbda79a6d	-0.08183751
192	0x3d7becbc	0.061505064
193	0x3dab7324	0.08371571
194	0x3d9e1189	0.07718188
195	0x3dd2fa42	0.10301639
196	0x3c6e881b	0.014558817
197	0x3d8e2f4b	0.06942614
198	0xbd27896d	-0.040902544
199	0xbc9c15bc	-0.019053333
200	0x3dd1ac97	0.10237997
201	0xbe65664c	-0.22402304
202	0xbdb3e868	-0.08784562
203	0x3db2c2a6	0.087285325
204	0x3d2e319a	0.042527772
205	0xbe6f77ba	-0.23385516
206	0x3cee1e9d	0.029067332
207	0x3d9c89d3	0.076434754
208	0x3d17961f	0.0370084
209	0xbaeef000	-0.0018229485
210	0x3d9f9c0d	0.07793436
211	0x3c4f5167	0.012653685
212	0x3d117b3c	0.035517916
213	0x3dcd3b70	0.100211024
214	0x3de718c2	0.11284019
215	0x3d4fd374	0.050738767
216	0x3cd4ef46	0.025993
217	0xbd321afd	-0.04348277
218	0x3dd367c7	0.10322528
219	0xbda9a865	-0.08284072
220	0x3dc12a0b	0.09431847
221	0xbda7f784	-0.08201507
222	0x3d8caf3f	0.06869363
223	0xbcafd40f	-0.021463422
224	0x3c8aad74	0.016928412
225	0xbc419570	-0.011815414
226	0x3df64998	0.12025756
227	0x3dadbcc2	0.08483268
228	0xbcba53e4	-0.02274508
229	0x3e2aee68	0.16692507
230	0x3cd78ccd	0.026312256
231	0xbd9ab1b5	-0.07553426
232	0x3c7741ea	0.015091399
233	0xbde4d3a3	-0.11173179
234	0x3d869c94	0.06572834
235	0x3d40b278	0.0470452
236	0xbcf18900	-0.029484272
237	0x3dde1521	0.10843874
238	0x3e1bcfbc	0.15215963
239	0x3d6567b6	0.05600711
240	0x3d1f359d	0.03886949
241	0x3d3955c3	0.045247804
242	0x3e0a9801	0.13534547
243	0x3db674ce	0.089089975
244	0x3b9a6e29	0.004712839
245	0x3d65830f	0.05603319
246	0x3df88ece	0.12136613
247	0x3e12a0fb	0.14319222
248	0x3d7075ce	0.058706097
249	0xbd6292d3	-0.055315804
250	0x3cdb1acc	0.026746176
251	0xbd387ca1	-0.04504073
252	0x3de9c56f	0.114146106
253	0x3d2875b5	0.04112788
254	0x3cbf30a4	0.023338623
255	0x3da4c58a	0.0804549

hidden.1.bias f4 [128]
0	0x3d0b31cb	0.033983033
1	0x3dd14abf	0.10219335
2	0x3cde6c57	0.02715127
3	0x3c1cd8a4	0.0095731355
4	0x3cd8df1a	0.02647357
5	0xbc0e19d0	-0.008673146
6	0xbdb75ccf	-0.08953249
7	0xbb9ea2a3	-0.004841165
8	0xbd3c7457	-0.046009388
9	0xbd92cba3	-0.07167747
10	0xbda9bd89	-0.08288104
11	0xbe11cab4	-0.14237481
12	0x3ce1d3d9	0.027566837
13	0xbd84e449	-0.064888544
14	0x3c3aca67	0.011400796
15	0xbcd564e4	-0.026049085
16	0x3cb0a015	0.021560708
17	0xbd76c2b6	-0.060244285
18	0x3ca7dae2	0.020490114
19	0xbd65d96a	-0.056115545
20	0xbd8794fc	-0.066202134
21	0xbd899e4f	-0.06719648
22	0xbbb740e8	-0.005592454
23	0xbd80cee0	-0.06289458
24	0xbcc7125e	-0.02430075
25	0xbd71330d	-0.058886576
26	0xbcc7da29	-0.024396019
27	0x3da2239d	0.07916949
28	0x3dcf6935	0.101274885
29	0x3df59f80	0.11993313
30	0x3debab20	0.11507249
31	0x3ca33900	0.01992464
32	0xbd497ab5	-0.04918929
33	0xbd2540b0	-0.040344894
34	0x3dddc6fe	0.108289704
35	0xbe32353c	-0.1740312
36	0xbd2a78b5	-0.04161902
37	0x3ded8c31	0.11599005
38	0x3d9aa7de	0.075515494
39	0x3d595077	0.053055253
40	0x3c86f9bb	0.016476503
41	0xbe5bdc75	-0.21470816
42	0xbdac7eb9	-0.08422608
43	0x3d3b7771	0.045768205
44	0x3cfd1ec4	0.03089846
45	0x3d5490bf	0.051895853
46	0xbd14e3be	-0.036350004
47	0x3a8b5fe4	0.0010633436
48	0x3d0e564e	0.034750275
49	0xbd8846b0	-0.066541076
50	0x3de47fc3	0.11157181
51	0x3e0b0294	0.13575202
52	0xbc5de907	-0.013544328
53	0xbd6ce42f	-0.0578348
54	0xbcc267ed	-0.023731196
55	0x3abc4c88	0.001436607
56	0x3d53bc20	0.05169308
57	0x3dda9265	0.10672454
58	0x3d07e612	0.033178397
59	0x3d3600fa	0.044434525
60	0xbafc0e2c	-0.0019230298
61	0x3d87e7c2	0.06636001
62	0xbca52ba0	-0.020162404
63	0x3dadd3ee	0.08487688
64	0x3c6500ac	0.013977211
65	0x3d1bd145	0.03804137
66	0x3c647a64	0.013945196
67	0x3e05156a	0.1299645
68	0x3d897fa5	0.067137994
69	0x3d8c3704	0.06846431
70	0x3bbc3ef9	0.0057448116
71	0xbc8e2a1d	-0.017354066
72	0x3d31dc54	0.043423012
73	0x3d0e2929	0.034707222
74	0x3d743b3a	0.059626795
75	0xbbd7f267	-0.006590176
76	0xbdc1d485	-0.09464363
77	0xbdab4f9e	-0.08364795
78	0xbca70b73	-0.020391202
79	0x3d3f434b	0.046695035
80	0x3e0bb274	0.13642293
81	0x3dc6f785	0.09715179
82	0x3d402473	0.04690976
83	0x3dbf2598	0.09333342
84	0xbcaaf305	-0.020867834
85	0xbb883a97	-0.004157375
86	0x3d700629	0.058599625
87	0x3da9ce8a	0.08291347
88	0x3b5159d9	0.0031944423
89	0xbde59d98	-0.11211699
90	0xbd93c516	-0.072153255
91	0x3d050f1a	0.032485105
92	0xbd2a8806	-0.04163363
93	0x3d584f2b	0.052809875
94	0xbdade023	-0.08490016
95	0xbd9be56e	-0.076121196
96	0x3cd9e67e	0.026599165
97	0x3d31c468	0.0434002
98	0xbd23894b	-0.039925855
99	0xbc4a681b	-0.012353922
100	0xbdaa2283	-0.08307364
101	0xbd36c1be	-0.04461836
102	0x3d1f37ad	0.038871456
103	0xbd9b023c	-0.075687855
104	0x3d555b01	0.05208874
105	0xbcea0a70	-0.02856943
106	0xbd926b13	-0.07149329
107	0xbd73bce5	-0.059506316
108	0xbda32027	-0.07965117
109	0xbd5ca3f4	-0.053867295
110	0x3d2c8791	0.042121474
111	0x3d37c1a2	0.044862397
112	0x3d771bfc	0.060329422
113	0xbd323583	-0.043508064
114	0x3df78538	0.12085956
115	0x3d7dee63	0.06199492
116	0x3da9c416	0.082893535
117	0x3c563c5a	0.013075912
118	0xbd653b07	-0.055964496
119	0xbd83d191	-0.06436456
120	0xbdb4dd46	-0.08831267
121	0x3d92dac1	0.0717063
122	0xbc0efc72	-0.00872718
123	0xbdc2393e	-0.09483574
124	0x3e097028	0.1342169
125	0xbd0dc2c3	-0.034609567
126	0x3b5e795b	0.0033946845
127	0x3cfaab95	0.030599395

v.weight f4 [1, 128]
0	0x3ca594f8	0.020212635
1	0xbf1b2123	-0.6059744
2	0xbe55e221	-0.20887043
3	0xbf213ba3	-0.62981623
4	0x3da65d0d	0.08123217
5	0x3cf945a4	0.030428715
6	0x3f10196d	0.56288797
7	0xbeaf652e	-0.3425688
8	0x3d78de92	0.060759135
9	0xbd66149b	-0.056171995
10	0x3c3b0520	0.011414796
11	0x3e7f74d8	0.24946916
12	0xbdc0d32c	-0.09415278
13	0x3d0d0957	0.034432735
14	0x3cf276f6	0.02959774
15	0xbdfefd17	-0.12450617
16	0x3c8f7ddb	0.017516067
17	0xbe401ca7	-0.1876093
18	0xbf2bce49	-0.6711164
19	0x3dac492b	0.08412393
20	0x3d8eab21	0.06966234
21	0xbe4ae528	-0.19813979
22	0xbc15a84e	-0.009134365
23	0x3f079ab4	0.52970433
24	0xbe8c9864	-0.27460015
25	0x3d98ad11	0.07454885
26	0xbd1937dd	-0.03740679
27	0xbeae45ce	-0.34037632
28	0x3d8e053e	0.069345936
29	0xbf0e4a69	-0.5558229
30	0xbdfaccc7	-0.122460894
31	0xbf4739ca	-0.77822554
32	0xbee5afd5	-0.44860712
33	0xbdcae4a2	-0.099068895
34	0xbeb859e9	-0.36006096
35	0x3ef38eff	0.47570035
36	0xbd27789a	-0.0408865
37	0xbeed2e7f	-0.46324536
38	0xbf183f92	-0.59472
39	0xbe546fc6	-0.20745763
40	0xbd02a93a	-0.03189967
41	0x3f6b2410	0.918519
42	0xbd6f57ef	-0.05843347
43	0xbe246ea7	-0.16057836
44	0xbe9bf3c4	-0.30459416
45	0xbedd752f	-0.43253466
46	0xbf28d76c	-0.6595371
47	0x3db33b38	0.087515295
48	0xbef1a36c	-0.47194993
49	0xbda406db	-0.0800912
50	0xbec93e10	-0.39305162
51	0xbf65fb08	-0.8983617
52	0xbc92917b	-0.017891636
53	0x3e9b55b8	0.30338836
54	0xbe49fce5	-0.19725378
55	0x3ea233c9	0.31680134
56	0xbdcd2b6b	-0.10018047
57	0xbef08094	-0.46973097
58	0xbc9dbad6	-0.01925413
59	0xbe3f45a1	-0.18678905
60	0x3c1224fd	0.0089199515
61	0x3d6f9097	0.0584875
62	0x3e160d97	0.14653622
63	0xbf242c52	-0.6413013
64	0x3da86586	0.08222489
65	0x3e08df91	0.13366534
66	0x3da99912	0.08281149
67	0xbef18bb4	-0.47176898
68	0xbd337a27	-0.043817665
69	0xbe81f486	-0.2538187
70	0x3d9ca53d	0.07648704
71	0x3dd7d183	0.10538008
72	0xbc46e47c	-0.012139436
73	0xbcc05a9f	-0.023480712
74	0xbcdf229c	-0.027238183
75	0x3d5f8a3d	0.054575194
76	0x3f3fbbfd	0.7489622
77	0xbde03c2a	-0.109489754
78	0x3eb3f8ed	0.35150853
79	0x3df751db	0.120761596
80	0xbe9363ea	-0.28787166
81	0xbf392c83	-0.72333544
82	0x3e3d64da	0.18495503
83	0x3d473847	0.048637655
84	0xbf13f7ae	-0.57799804
85	0xbd7939cd	-0.06084614
86	0xbecccb61	-0.39998916
87	0x3db33377	0.087500505
88	0xbebcf57f	-0.3690605
89	0x3ebab35a	0.3646496
90	0x3d9c0d0d	0.07619677
91	0x3dba0ba2	0.0908425
92	0xbc6eabc6	-0.014567321
93	0xbea6e636	-0.32597512
94	0x3cff00ec	0.03112837
95	0x3b5c61bf	0.0033627597
96	0xbd390928	-0.045174748
97	0xbf0b3098	-0.54371023
98	0x3e967ca2	0.29391962
99	0x3e2e6295	0.17029794
100	0x3f463473	0.7742378
101	0xbd34af22	-0.044112332
102	0xbe6e254d	-0.23256417
103	0xbcc51bfc	-0.024061196
104	0xbf263c53	-0.649358
105	0xbd8a1f95	-0.06744305
106	0x3d6a8018	0.057251066
107	0x3d109048	0.035293847
108	0xbd2c938a	-0.04213289
109	0x3c6e7e60	0.014556497
110	0x3df3f2c1	0.11911536
111	0x3e4ee625	0.2020498
112	0xbee36f16	-0.4442069
113	0xbc6aecd8	-0.0143386945
114	0xbf44351d	-0.76643544
115	0xbda6eec3	-0.08151009
116	0x3e65b9bf	0.22434138
117	0xbe0aa558	-0.13539636
118	0xbcb01716	-0.021495383
119	0xbd59cf94	-0.053176478
120	0xbdae1374	-0.08499804
121	0x3de31a6e	0.110890254
122	0xbc29846e	-0.010346515
123	0x3d0ef8d9	0.03490529
124	0xbf3a2bbb	-0.7272298
125	0x3bbfb48e	0.005850381
126	0x3dae79a8	0.08519298
127	0xbefe7848	-0.49701142

adv.weight f4 [24, 128]
0	0xbda08ad6	-0.07838981
1	0x3e347c9f	0.17625664
2	0xbd9b88b4	-0.075944334
3	0xbc3d6a16	-0.011560937
4	0x3d88ca40	0.06679201
5	0x3d158f44	0.036513582
6	0xbd8af085	-0.06784157
7	0xbb078bec	-0.0020682765
8	0x3d0936e7	0.033499625
9	0xbd8eeed9	-0.0697915
10	0xbda7051e	-0.08155273
11	0x3d93c6bf	0.07215642
12	0x3dd490df	0.103791945
13	0x3db19059	0.0867011
14	0x3cc6850d	0.024233365
15	0xbdd6921b	-0.10477086
16	0xbccf223b	-0.025284877
17	0x3e1ff482	0.15620616
18	0x3d55807f	0.052124497
19	0x3d8ab4bf	0.06772756
20	0xbd43371b	-0.047659975
21	0x3a11808e	0.0005550467
22	0x3d47129f	0.048601743
23	0xbd8f9e6a	-0.07012637
24	0x3def562f	0.1168636
25	0xba12c017	-0.00055980816
26	0xbcd614b2	-0.026132915
27	0xbbd60036	-0.006530787
28	0x3d7b952d	0.061421562
29	0xbd22e3e4	-0.039768115
30	0x3d8f45a2	0.06995703
31	0xbb0a41e6	-0.0021096407
32	0x3d613646	0.0549834
33	0xbd5ca834	-0.05387135
34	0x3b4d86d6	0.0031360886
35	0xbceb3920	-0.028713763
36	0xbdba2430	-0.090889335
37	0x3e2d492c	0.16922444
38	0xbdc70c54	-0.09719148
39	0xbc2995c1	-0.0103506455
40	0x3da9ff4f	0.083006494
41	0xbd5e0c1b	-0.054210763
42	0xbd57a7df	-0.05265033
43	0xbd8cb3bd	-0.0687022
44	0x3d03200d	0.032012988
45	0xbb78d3d6	-0.003796806
46	0x3d2c7848	0.042106897
47	0xbd00cb4e	-0.031443886
48	0x3ba1315e	0.004919215
49	0xbd8e19e6	-0.069385335
50	0xbe1ca87d	-0.15298648
51	0xbe0a574c	-0.13509864
52	0xbd91cfa1	-0.0711968
53	0x3d136086	0.035980724
54	0xbdba19e3	-0.09086969
55	0xbc879cf5	-0.016554335
56	0xbd044a9e	-0.032297723
57	0x3cb84e0c	0.022498153
58	0xbc1f8a4b	-0.009737561
59	0x3de38e58	0.11111134
60	0x3ca45e10	0.020064384
61	0x3d812fe2	0.06307961
62	0xbcac2f48	-0.02101864
63	0xbdd112ea	-0.10208686
64	0x3c324644	0.01088101
65	0x3b8513ad	0.0040611834
66	0xbcdebcb4	-0.02718959
67	0xbd406af5	-0.046977002
68	0xbd148f63	-0.036269557
69	0x3d88fdec	0.06689057
70	0xbd1fd4ef	-0.03902143
71	0x3d819ec7	0.063291125
72	0x3d505abf	0.050867792
73	0x3cef188d	0.029186511
74	0xbd0d6518	-0.03452024
75	0x3d2a92be	0.04164385
76	0x3d9ece9a	0.0775425
77	0x3e35a22c	0.17737645
78	0x3d3434a7	0.043995526
79	0x3ddd26ac	0.10798392
80	0xbdcb05b9	-0.09913201
81	0x3e166119	0.14685477
82	0xbdd7e8ea	-0.10542472
83	0xbdbec044	-0.093140155
84	0xbcce755d	-0.025202448
85	0xbd336132	-0.043793865
86	0x3c73faf3	0.014891374
87	0xbe006020	-0.12536669
88	0x3d524a0d	0.05134015
89	0x3d57635a	0.052584983
90	0xbcc88d06	-0.024481308
91	0x3db7dac7	0.08977275
92	0xbd2150a9	-0.039383564
93	0xbd0cae7d	-0.034346092
94	0x3d15cff7	0.036575284
95	0x3d97ad75	0.07406131
96	0x3d208683	0.03919078
97	0x3cb44080	0.022003412
98	0x3d6e2ed8	0.058150142
99	0xbd4c6872	-0.049904294
100	0xba0c2490	-0.00053460244
101	0x3d46be12	0.04852111
102	0xbcff684c	-0.031177662
103	0x3d2a2e86	0.041548274
104	0x3d40c9a9	0.047067318
105	0xbcc5bb40	-0.02413714
106	0xbcaae6c8	-0.020861998
107	0xbc4f1768	-0.012639858
108	0x3e118a09	0.14212812
109	0xbd230804	-0.039802566
110	0xbd7bc7b2	-0.06146974
111	0x3e02c08b	0.12768762
112	0x3c9b1414	0.018930472
113	0x3ca10dc8	0.019659892
114	0xbe009653	-0.12557344
115	0xbc8ed4da	-0.01743548
116	0x3d6979a3	0.057000767
117	0xbd83c122	-0.064333215
118	0xbc85eefa	-0.016349304
119	0xbd9992fd	-0.07498739
120	0x3d91fc81	0.071282394
121	0xbdc4a23c	-0.09601256
122	0xbbdaf653	-0.006682196
123	0x3d6630c0	0.056198835
124	0xbd618eaf	-0.055067714
125	0xbd89ee40	-0.06734896
126	0x3d723749	0.059134755
127	0x3e1d3a7a	0.15354338
128	0x3d4bc54f	0.049748715
129	0xbc0db45f	-0.008648961
130	0x3da0cc0e	0.0785142
131	0x3d4b481e	0.049629323
132	0x3d8c035a	0.06836577
133	0xbcbfeb44	-0.023427613
134	0xbc99cfc8	-0.018775836
135	0x3d34ce24	0.044141904
136	0x3c3653b5	0.011128356
137	0x3d16ed8a	0.03684763
138	0x3db3d9cd	0.087817766
139	0xbd9dbe07	-0.077022605
140	0x3d322508	0.043492347
141	0xbd85e393	-0.06537547
142	0xbcb73610	-0.022364646
143	0xbb3c0b51	-0.0028693269
144	0x3c423d12	0.011855381
145	0xbdf43462	-0.11924054
146	0xbd377399	-0.044787977
147	0xbc0734dc	-0.008252349
148	0xbd848193	-0.06470027
149	0xbd3ea6b5	-0.046545703
150	0xbbad7d9e	-0.0052945158
151	0xbd3fa696	-0.046789728
152	0xbde67fbc	-0.11254832
153	0x3cdccacf	0.026952175
154	0xbccf6cc2	-0.025320414
155	0xbd861b6a	-0.065481976
156	0x3d249821	0.040184144
157	0x3ca0b1b6	0.01961599
158	0x3cbeeb24	0.023305483
159	0x3bccf613	0.0062549203
160	0xbcee5435	-0.029092887
161	0x3d3613c5	0.044452447
162	0xb999ee8e	-0.0002936017
163	0xbd1dd8fd	-0.038537014
164	0xbd0dbce6	-0.034603976
165	0xbdd0e900	-0.10200691
166	0xbbe5c566	-0.007012057
167	0xbcb4d75a	-0.022075344
168	0x3d05c3af	0.03265732
169	0xbda99c72	-0.08281793
170	0x3c7dc428	0.015488662
171	0xbd423b03	-0.04741956
172	0x3cdefb34	0.027219392
173	0xbdb6949d	-0.089150645
174	0xbbdab7f0	-0.006674759
175	0xbdaf0a34	-0.08546868
176	0xbd7b2582	-0.061315067
177	0xbce341be	-0.02774131
178	0x3d990514	0.07471672
179	0x3d0c8a6e	0.034311704
180	0xbd8d0fce	-0.0688778
181	0xbbe6bb8e	-0.007041401
182	0x3d8a3ce8	0.06749898
183	0xbda4f7b4	-0.08055058
184	0x3da6f023	0.08151271
185	0xbba5f035	-0.0050640353
186	0xbd9a8f69	-0.075468846
187	0xbc9e0869	-0.01929112
188	0x3d1e547e	0.038654797
189	0xbd079c79	-0.03310821
190	0x3d8bd4b8	0.06827682
191	0x3d1a2e5f	0.03764188
192	0xbd746b36	-0.059672557
193	0x3d8a0f29	0.06741173
194	0x3d825eda	0.06365748
195	0x3da20ddd	0.079128005
196	0xbcf1e3e2	-0.029527608
197	0xbc5981c2	-0.013275566
198	0x3d925ce3	0.07146623
199	0xbd3068cf	-0.043068703
200	0xbd15d13b	-0.03657649
201	0x3d1d0cb7	0.038342204
202	0x3d81fca6	0.06347017
203	0x3d558396	0.052127443
204	0xbc4647ac	-0.012102049
205	0x3c50dfbc	0.012748655
206	0xbd4a7949	-0.049432073
207	0xbdad2dec	-0.084560245
208	0xbd8d0090	-0.06884873
209	0xbd8540ec	-0.065065235
210	0xbcf63330	-0.030053705
211	0x3d33e40b	0.04391865
212	0x3d24f97a	0.040276982
213	0xbdb435b5	-0.08799306
214	0x3d9a2aca	0.075276926
215	0xbd2d0b50	-0.042247117
216	0xbcd8e5c4	-0.026476748
217	0x3d90c93d	0.07069633
218	0xbd1638a5	-0.036675114
219	0xbc8f0824	-0.017459936
220	0x3d36af93	0.044601034
221	0x3da133c9	0.07871205
222	0x3d8d2615	0.06892029
223	0xbd53d8b4	-0.051720336
224	0x3d90b0a5	0.07064942
225	0xbd8567eb	-0.065139614
226	0x3c83d731	0.016093822
227	0xbd8bae03	-0.068202995
228	0x3c0f8071	0.00875865
229	0x3caa63af	0.020799486
230	0xbd165113	-0.036698412
231	0x3cea6e88	0.028617159
232	0xbe08ef82	-0.13372615
233	0xbd28368c	-0.041067645
234	0x3d930a46	0.07179694
235	0xbd68d022	-0.056839116
236	0x3b72a647	0.0037025379
237	0x3d5608ae	0.05225437
238	0xbccaa9de	-0.024739202
239	0xbca0f87a	-0.019649733
240	0xbd33fe94	-0.043943956
241	0x3d003f22	0.03131021
242	0x3d2482b9	0.04016373
243	0x3cf0b114	0.029381312
244	0xbcf9f2e1	-0.030511321
245	0x3ce2371b	0.027614167
246	0xbd705711	-0.058676783
247	0xbd3b447e	-0.045719616
248	0xbcb27e2c	-0.021788679
249	0x3cf67dba	0.030089248
250	0xbcce5c8b	-0.025190612
251	0x3b4bf766	0.0031122803
252	0xbd84a5c7	-0.06476932
253	0xbd9df03e	-0.07711838
254	0x3c879361	0.016549768
255	0xbc438f8e	-0.011936082

adv.bias f4 [24]
0	0xbd6fab28	-0.058512837
1	0x3d1a9508	0.037739784
2	0xbd987e39	-0.0744595
3	0x3a9a2d0a	0.001176269
4	0xbdebc46f	-0.11512076
5	0x3d27a482	0.04092837
6	0xbd21d321	-0.03950799
7	0x3d6f1497	0.058369245
8	0xbd445587	-0.047933128
9	0xbb96f7d7	-0.0046071815
10	0x3d3f2f63	0.04667605
11	0x3c11b9da	0.008894408
12	0xbd780961	-0.06055582
13	0x3d90433c	0.07044074
14	0xbdab9a26	-0.08379011
15	0x3cd784ab	0.026308378
16	0xbd2ff333	-0.042956542
17	0xbba34752	-0.0049828673
18	0xbdbe786a	-0.09300311
19	0x3db906bd	0.09034488
20	0xbd2d2bb6	-0.042278014
21	0x3d2da894	0.042397097
22	0xbe1d9d84	-0.15392119
23	0x3de8c477	0.11365598
