DDQN/radiiResults/12cyl/Qtarget300.pt (torch, 161855 bytes, 9 tensors)

fc.weight f4 [128, 25]
00000000: d022 f4bd 83a8 4e3e b584 8e3d 769c 0abe
00000010: f419 063e a04c 4d3e d681 dcbd 9b85 1e3d
00000020: 294b 27bd 7e8c 533c 47e2 0e3d 7496 55be
00000030: 567f d5bd ea6e 403e 57c7 373d 4ee9 113e
00000040: a5eb bf3b 0258 3fbe 3579 1d3d f82e 093e
00000050: 5919 0cbe c900 92bc 6349 8fbd bedd 413e
00000060: 2926 15be 14c1 3f3d 773b 413e 234e 0fbd
00000070: 9689 1cbc 587f 933d 5b62 b8bc 0e6b 583e
00000080: dd0b 3dbe e07c 0c3e b8cb 39be fdc5 9bbd
00000090: 5390 ef3c 928b 49bc 047b e13d b06a 0d3e
000000a0: a928 0b3e 1162 05bd 6417 cdbd 5187 be3c
000000b0: ab87 1c3e f180 d4bd e1b1 733d 8178 29be
000000c0: 19c7 bebd 895a 40bd b9cc 113e 188e 24be
000000d0: a03a 923c d94f dcbd 567b 2abe ada3 023e
000000e0: 0e72 dbbd 6a13 0ebe 19af 143d 2cf6 89bd
000000f0: ed8f 3b3e 8748 02be 74ba 91bd 896b 293d
00000100: 7a94 043e cdd2 babd c44a 35be a782 82bd
00000110: ae99 403e 2205 cf3d 7476 c5bd e269 aa3c
00000120: c876 87bd 1ec1 113d 618c 1ebe 6807 77bd
00000130: 603f b4bb 981f fe3c 8c01 743d ba70 d3bd
00000140: 1b87 1b3e 00cd cf3b 6aa6 00be 47b2 e0bd
00000150: bbb1 033e 1095 bc3c fc2b 7e3d d0af eebd
00000160: 9044 ba3c 024a 19be 40ea 15be c38b 1b3e
00000170: 108c 05be 073e c5bd ac22 443d cf32 3abe
00000180: c08c 843c 5b03 0a3e 0813 3dbe a03f 2b3c
00000190: 439c 31be 8b09 443e 26e1 473d b3b2 d4bd
000001a0: 8c4a 913d 8554 38bd 5b28 62bd 1308 3e3e
000001b0: 2582 003e 31d8 8bbc 03a5 13bd 442d 52bd
000001c0: dfb9 f0bb b3d3 3ebd 56fb ae3d deba 713d
000001d0: b5d0 bfbb c5f0 323d 0526 b8bd 690d 563c
000001e0: a2de 46bd d802 89bd 31d1 3dbe 7667 343c
000001f0: 4c1d 30be a28e ee3d 5896 d83d d5b0 643d
00000200: 7e5b fbbd 3f62 0c3e a5e3 023d fbbc c0bd
00000210: 09fe 48be 78fb 103e 8327 29bd 2c86 353d
00000220: f0f6 e93d 289f ad3d 57fa ae3d 8cda 893c
00000230: 9339 6f3d f527 25be 9fb1 e03d b639 29be
00000240: 33ed c1bd 0248 213d d914 843d 762c bd3d
00000250: aadf 2c3d f688 3a3e d85f 3abd c003 5bbd
00000260: 0031 12bd 4912 1e3e 2c5e 09be 7a25 bfbd
00000270: 258c 07be fce7 773d d2d5 8d3d bac9 b5bd
00000280: c71a babd 88f3 01be 943f 383d eae0 29be
00000290: dfa0 083e a373 abbd 4b60 36be e010 3ebc
000002a0: 54dc 3abd 1078 f2bd a8dd 283d 44e7 7f3d
000002b0: 6898 cd3c 1bfd 123e 68c2 ea3c a6bd 53bd
000002c0: d8cb 3a3d 6ff7 6cbd b8c9 d1bd 8b81 4a3e
000002d0: 2ebd e539 9e97 353e 61c4 043e 2c80 dcbc
000002e0: 6804 04bd b417 3ebe da8b 363e 304b dbbd
000002f0: b9ab 7f3d 84f6 d5bc 1faf 863d 7d99 ba3d
00000300: 3ec6 943d 8c67 17be 2258 173d e1d9 c4bd
00000310: f5ec b0bd 0c89 3f3e 8e8c 3fbe 0ab6 2a3e
00000320: cc13 1ebe 054e aebc 2ff9 843d ec05 47bd
00000330: 83e0 063d d9ad 00be 123f fabd 8b9f b03d
00000340: f1c3 333e 61cb 393e af8e 0bbe 76c0 fdbd
00000350: 996c 213d 004f 7ebb d3c6 edbc 8f77 473e
00000360: ec37 33be aa85 4abd e30e 8ebd a855 04be
00000370: f90e b9bd 7cc0 7cba 4bb1 f63d fd36 433e
00000380: 9896 2e3d b680 f03d adca 75bb 8eca 22be
00000390: 9041 e83d eb9a 0e3e a7d5 11be 5751 0bbe
000003a0: 4eab 543d 07e2 9a3c 5790 763c 6170 10be
000003b0: 7997 b3bd 5ce0 503e 87e2 81bd ad89 6d3d
000003c0: 3983 4e3e 53eb cfbd b367 d73d 9e44 3bbe
000003d0: cf35 d5bc fc64 523d b588 503e ab2e af3d
000003e0: 48ba ffbb afb2 223e d807 0dbe 3723 e9bd
000003f0: 0074 8cbb 5b51 143e ced9 8b3d ae6e d83d
-0.119207025 0.2018147 0.069589056 -0.13536248 0.13095838 0.20048761 -0.10766952 0.038701635
-0.040843163 0.012911914 0.034883764 -0.20858175 -0.10424678 0.1879231 0.04486784 0.14249155
0.0058569484 -0.18685916 0.03844567 0.13396823 -0.13681544 -0.01782264 -0.06996419 0.18932244
-0.14565338 0.046814993 0.1887034 -0.034986626 -0.009554287 0.07202023 -0.022507837 0.21134588
-0.18461557 0.13719511 -0.18144119 -0.07606123 0.029243624 -0.012301343 0.110097915 0.1381023
0.1358973 -0.032564227 -0.10014227 0.023257883 0.15286128 -0.10376156 0.05949581 -0.16549875
-0.093153186 -0.04696134 0.14238252 -0.1606983 0.01785022 -0.10757417 -0.16648611 0.1275775
-0.107151136 -0.13874593 0.0362998 -0.06736407 0.18316622 -0.1272298 -0.07115641 0.04136232
0.12947264 -0.09122238 -0.17704302 -0.06372576 0.18808624 0.10108401 -0.09641734 0.020802442
-0.066144526 0.03558456 -0.15483238 -0.060309798 -0.005500719 0.031020924 0.059571788 -0.10324235
0.15188257 0.0063415766 -0.12563482 -0.10971504 0.12860768 0.023020297 0.062053666 -0.11654627
0.022737771 -0.14969638 -0.1464014 0.15190034 -0.13041711 -0.096309714 0.04788463 -0.18183444
0.016180396 0.13477843 -0.18464291 0.010452181 -0.17344765 0.19144265 0.048798703 -0.10385647
0.07094297 -0.04500248 -0.055214267 0.18557768 0.12549646 -0.017070862 -0.03604604 -0.0513127
-0.0073463763 -0.04658861 0.08544032 0.0590161 -0.0058537372 0.043686647 -0.08991627 0.013064721
-0.048552163 -0.066899955 -0.18536831 0.011010995 -0.17198676 0.11648299 0.10575551 0.055832703
-0.1227331 0.13709353 0.03195538 -0.09411045 -0.19628157 0.14158428 -0.041297447 0.04431741
0.11424053 0.08477622 0.08543842 0.016827844 0.058404516 -0.16128524 0.109713785 -0.16525921
-0.0946907 0.039375313 0.06449289 0.09236996 0.04220549 0.18216309 -0.04550156 -0.053470373
-0.03569126 0.15436663 -0.1341483 -0.0933332 -0.13237055 0.060523972 0.069255486 -0.08876367
-0.090871386 -0.12690556 0.044982508 -0.16589704 0.13342617 -0.08371665 -0.1781017 -0.011600703
-0.045620278 -0.11839306 0.041227013 0.06247641 0.025097087 0.14354365 0.028657153 -0.051694535
0.045604557 -0.05785316 -0.10243553 0.19775979 0.00043819234 0.17733619 0.12965538 -0.026916586
-0.032230765 -0.1856373 0.17826787 -0.107077 0.062419627 -0.026118524 0.065763704 0.09111307
0.07264374 -0.14785594 0.036949284 -0.096118696 -0.08638946 0.18704623 -0.18705961 0.16671005
-0.1543724 -0.021277437 0.064928405 -0.048589632 0.032928955 -0.12566318 -0.12219061 0.086241804
0.17555214 0.18143989 -0.13628648 -0.12390225 0.039410207 -0.0038804412 -0.02902547 0.19479202
-0.17501801 -0.04944388 -0.06936433 -0.129233 -0.09036059 -0.00096417195 0.12045535 0.19063945
0.042624086 0.117433 -0.0037504837 -0.15897581 0.1134063 0.13926284 -0.14241658 -0.13605247
0.05192118 0.018906606 0.015049062 -0.14105369 -0.087691255 0.20398086 -0.06342035 0.057992626
0.20167245 -0.101523064 0.10517826 -0.18287894 -0.026026634 0.051365837 0.2036465 0.08553823
-0.007804189 0.15888475 -0.13772523 -0.1138367 -0.004286289 0.1448416 0.06828652 0.105679855

fc.bias f4 [128]
00000000: b932 fabd c76a 23be 5d83 063e 8038 00be
00000010: ae74 0d3e 63df cd3d 6ca9 49bd 9953 323e
00000020: 671a c73c 49c6 143e 9003 dabd 06f3 483e
00000030: ee68 9b3d b7af 9cbd 053c 843d 65ea 19be
00000040: 510b 17be d4d2 a93d 605f 2ebe cc5b 80bd
00000050: 4640 92bd 6e37 913d 8d39 31be 2636 833d
00000060: 0620 383d 14ad 543e 4f24 67bc a87f 2fbe
00000070: 9bd2 ff3d ee00 903d cd73 3bbe 4dec 2a3e
00000080: 5894 63bd 0429 0bbe 2507 8cbd b38f 48be
00000090: f360 b03d 07e4 de3d 7f9b a73d 3ffa 2fbe
000000a0: d655 823d 1ef6 313e 5a34 38be aa59 09bc
000000b0: f7ed 33be 9231 89bc 0cce 6fbd 3cb6 3dbe
000000c0: 2e36 e1ba 2d76 1fbd 6a1f 253e 50b8 c4bd
000000d0: 4746 6dbd 7af0 e0bc 3349 34be e816 16be
000000e0: 54ac fabd ba70 9cbd d4b5 363d 53aa 643b
000000f0: 4b18 823d 1627 c9bc 7ad9 513e b76e c53d
00000100: 905c 31be 4ca4 50bd 1afd 81bd 91f9 3bbe
00000110: 3464 3fbd 57cc c3bd 54a9 3fbd 9651 303d
00000120: 22fd 723d 98f8 853c 9414 303d 47ee f03c
00000130: 1796 58bd 83b3 5b3d 1841 923c 3d64 2b3e
00000140: ede7 15be 00f5 2dbd 6d6f f0bd 7a65 9abd
00000150: e40a 063e 42b2 dc3d dddd 52bd b23b 4ebd
00000160: 7ce6 323e 1fef 223e 0733 c1bd 4fcd 363d
00000170: ad65 283e e60d 5c3e 13bc f9bc 60ea 7c3c
00000180: 0588 b53c 684b c3bd ecbf 4d3e 6cab f03d
00000190: 6562 0dbd 98eb 2bbd d481 3abd d7a0 2b3d
000001a0: 28ca dfbc b166 d3bd 1eed d0bc 8fc2 07bb
000001b0: 2b1a eb3d 364d 0a39 6c1a 503e 6f36 1b3e
000001c0: 8eb8 22be 8e65 383d 7c5d 9dbc 8050 383e
000001d0: aeda e1bc cd54 12be 2e0d 8ebb 68ff 553e
000001e0: f0ef 97bd fec3 3cbe c796 b5bd 0be4 863d
000001f0: e457 203e 91cc 013e ba7e 2e3d 0f2c 98bc
-0.12216706 -0.15958701 0.13136049 -0.12521553 0.13814041 0.10052373 -0.04923384 0.17414702
0.024304582 0.14528765 -0.10645211 0.19623956 0.07588373 -0.076507024 0.0645676 -0.1503082
-0.1475041 0.082921654 -0.1702857 -0.06267509 -0.071411654 0.070906505 -0.1730711 0.06406812
0.044952415 0.20769149 -0.014107778 -0.1713854 0.12491342 0.07031427 -0.18305893 0.16691704
-0.055561393 -0.13589865 -0.068373 -0.19586067 0.086122416 0.108833365 0.081839554 -0.17185305
0.06364028 0.17379043 -0.1798872 -0.008383194 -0.17571245 -0.01674727 -0.05854611 -0.18526548
-0.0017182285 -0.03893106 0.16125265 -0.09605467 -0.05792835 -0.027458418 -0.17606048 -0.14657176
-0.122399 -0.076386884 0.044607 0.003489156 0.0635229 -0.02455477 0.20493117 0.09640258
-0.17320466 -0.050937936 -0.063471034 -0.18356921 -0.04672642 -0.09560459 -0.046792343 0.043046556
0.059323438 0.01635389 0.042988375 0.029410494 -0.05287751 0.053637993 0.017853305 0.16737457
-0.14639254 -0.04246998 -0.11740003 -0.07538886 0.13090092 0.107761875 -0.051481117 -0.0503499
0.17470735 0.1591153 -0.09433561 0.04462939 0.16445036 0.21489677 -0.030485189 0.015436739
0.022159586 -0.09535867 0.20092744 0.11751446 -0.034517664 -0.041972727 -0.04553397 0.041901436
-0.027318075 -0.10322321 -0.025503691 -0.0020715331 0.114796005 0.00013189469 0.20322579 0.15157484
-0.15890715 0.045018725 -0.019209616 0.17999458 -0.027570095 -0.14290161 -0.0043350672 0.20898211
-0.07418811 -0.1843414 -0.08866649 0.065864645 0.15658528 0.12675692 0.042601325 -0.018575696

hidden.0.weight f4 [128, 128]
00000000: 2bb7 ad3d 7e16 593d 5807 483c 88a1 36bc
00000010: f987 55bd 64cc 8bbd 9a4b abbd a6ee 3a3d
00000020: 00ed f43b ee53 0a3d 14bb efbc e0d9 9fbc
00000030: b21f 593d 93d6 813d 10e5 953b f973 893d
00000040: bd05 9d3d 66c5 a6bd 4430 92bd be9f 753d
00000050: 6678 213d 5754 36bd f110 54bd 128b 28bd
00000060: d490 1fbd 1c50 80bd 94e7 a1bd c78c 813d
00000070: 9ecf 34bd bd4b 9d3d 8857 b83c 512e a93d
00000080: 0651 2f3d ea36 753d a366 aa3d 83a0 03bd
00000090: 88f5 70bd f489 24bd 50af 023d 96be 653d
000000a0: cc61 25bd 0066 3139 5ef8 5b3d f965 903d
000000b0: 0086 dc3a 06d8 88bd 8c83 a4bc 8c89 41bd
000000c0: f0cd c2bc f96c 953d a727 863d ac25 9bbd
000000d0: 2ee1 85bd b037 063c d895 3cbc 28dc 7b3c
000000e0: 1be1 903d 1e0f 3c3d 7217 a3bd cc08 b0bc
000000f0: 28e4 b2bd f32f 1ebd 3cf5 fcbc f19c 80bd
00000100: aead 743d 70d6 6c3c 560c 2b3d 6c87 22bd
00000110: 061e 703d 52b8 9dbd ae9c 6f3d 83e2 943d
00000120: 3630 6dbd 3688 73bd 682d bebc 1a66 7abd
00000130: c498 97bd 450e 95bd 108b 6dbc 80a9 c63b
00000140: 3ca9 fe3c 583c f53c 9dbe 9e3d 956c 813d
00000150: 906d 3abc 5a5a 0a3d e4dc 74bd 88f4 533c
00000160: c373 25bd 22f2 6e3d cb2e a8bd 62c3 84bd
00000170: 9acb a6bd 58a6 373c 90dc cebb a044 6e3b
00000180: 55d3 af3d 81a1 51bd 6032 83bd 9305 883d
00000190: a029 bebb d7d1 833d 606d 29bd 703a c03c
000001a0: ff2e 803d bcca 9dbd 3617 9bbd 88e8 b9bc
000001b0: 94bc 933c 2035 e33b c401 ae3c 12ec 03bd
000001c0: 141a 85bc 6875 b43c 3388 843d 4f96 30bd
000001d0: 7c1c dbbc 3deb 3fbd 9489 58bd 1b93 8c3d
000001e0: e050 95bb 6a9c 1d3d b68b 0d3d 402e dabb
000001f0: 9257 9dbd 3868 6abc 31b8 853d 4ded 3dbd
00000200: a359 72bd e7aa 803d f4c6 923c 2019 623b
00000210: 5f2b 813d c542 8e3d 2fb6 a2bd 707f e2bb
00000220: d67c 3b3d 3c50 93bc 379e a83d 23fa 07bd
00000230: 946b 8abd 58bd d93c 3ec1 08bd a8ee 68bc
00000240: 5011 1dbc 38fe f73c 8cc3 b4bd c0af c83b
00000250: aeda 773d 607d b93b ce3b b0bd b6b3 273d
00000260: b272 6f3d 740d 013d 90bd 4a3c 4064 40bb
00000270: b28e 0cbd e9db b03d 86b3 2c3d a003 41bd
00000280: 7097 a4bb 0015 ffba e33b 30bd a940 89bd
00000290: e311 973d 5bcc aa3d 6027 2b3c ce18 00bd
000002a0: f4eb 0b3d 1882 593c 739e 61bd d015 66bc
000002b0: 50eb 27bc d46a 8cbc 06b7 2e3d d626 9cbd
000002c0: 32f4 1d3d f4ce 78bd 4ec5 2b3d dc6b b83c
000002d0: 2e9e aabd ce14 6d3d f1b6 ad3d 1e89 4e3d
000002e0: e024 83bc 40dd dcbc 48f4 cebc 3577 8cbd
000002f0: ec63 a1bd 3848 9b3c 9f75 933d 0aa8 1d3d
00000300: e0e8 ba3c 1ae7 9fbd b48c 3bbd 5d14 aa3d
00000310: 08ee 0c3d b212 adbd 80f2 d1bc 235c b43d
00000320: 565e 7e3d c66b 9ebd f894 3fbc 66b8 72bd
00000330: 400f b43b eb08 58bd 02e6 b0bd 720b 5e3d
00000340: 941b 7cbd 2457 83bd 802c 6fbc 2268 48bd
00000350: b459 dc3c b015 1c3c 680c 2fbc d2fe 8fbd
00000360: 5082 da3b c2a4 87bd 3663 a3bd 1ce9 bcbc
00000370: 0cbf 86bd 8b8c 38bd 3860 ed3c 80fa d2bc
00000380: fe5d 553d 38de 353c 2e59 583d de8a 343d
00000390: 4224 95bd 006e b5b9 485c 90bd c5b3 833d
000003a0: 1323 863d 102e 4b3c 9e0a 87bd c089 82bb
000003b0: d82e 74bc 57c6 4fbd 5cd6 83bd efd6 23bd
000003c0: 38bc 12bc f649 593d 6235 173d 1613 353d
000003d0: 5506 24bd 30f7 d5bc 1d6d aebd a0d3 53bc
000003e0: 7e0e 5a3d 33bb b33d b04a 9cbd b074 8d3b
000003f0: d0cb 7dbc 4eef 08bd 40c3 ea3a 32e2 523d
0.08482202 0.052999966 0.012208782 -0.0111469105 -0.052131627 -0.06826094 -0.08364029 0.04563775
0.0074745417 0.033771448 -0.02926401 -0.01951307 0.053008743 0.06339755 0.0045744255 0.06711573
0.0766711 -0.081431195 -0.07138112 0.059966795 0.03942146 -0.044514026 -0.05177397 -0.041148253
-0.03895648 -0.0626528 -0.07905498 0.06325679 -0.04414331 0.076804616 0.022502676 0.08260787
0.04280188 0.059866823 0.08320358 -0.032135498 -0.058827907 -0.040170625 0.031905472 0.05608996
-0.04037647 0.00016918033 0.05370366 0.070507 0.0016824603 -0.06681828 -0.020082258 -0.047250316
-0.02377984 0.072961755 0.06550532 -0.07575545 -0.0653709 0.008191988 -0.011510335 0.015372314
0.070741855 0.045912854 -0.07963456 -0.02148857 -0.087349236 -0.038619947 -0.030878656 -0.06279934
0.059735946 0.014455423 0.04175981 -0.03967993 0.058622383 -0.07701172 0.05849903 0.07269766
-0.057907306 -0.059456073 -0.02321501 -0.061132528 -0.074021846 -0.07278112 -0.014498487 0.0060626864
0.031086557 0.029936 0.077512 0.063195385 -0.011378661 0.033777572 -0.05978097 0.012936719
-0.040393602 0.058336385 -0.0821205 -0.06482579 -0.08144303 0.011209093 -0.006312914 0.0036356822
0.0858523 -0.051179413 -0.06406093 0.06641688 -0.005803302 0.06436508 -0.041364074 0.023465365
0.06258964 -0.07704684 -0.075727865 -0.022693887 0.018034257 0.006933823 0.021241076 -0.032207556
-0.016247787 0.02202864 0.064712904 -0.043112095 -0.02674698 -0.0468552 -0.05286558 0.06863996
-0.00455676 0.038479246 0.034557067 -0.0066583455 -0.07682718 -0.014307074 0.06529272 -0.046368886
-0.059167515 0.06282597 0.017917134 0.003449984 0.063071005 0.06946329 -0.07944905 -0.0069121644
0.04577335 -0.017982595 0.08233302 -0.033197533 -0.067588 0.026579544 -0.033387415 -0.014217056
-0.009586647 0.030272588 -0.0882636 0.0061244667 0.060511284 0.005660698 -0.08605157 0.04094287
0.05845899 0.03150697 0.012374297 -0.0029356629 -0.034315772 0.086356945 0.042163394 -0.047122598
-0.0050229356 -0.0019461215 -0.043025862 -0.06701786 0.073764585 0.08339759 0.010446399 -0.031273656
0.03416057 0.013275646 -0.05508275 -0.014043286 -0.010248974 -0.017140783 0.042655014 -0.07624595
0.03856296 -0.06074424 0.04193621 0.022512369 -0.08330952 0.05788117 0.08482159 0.050423734
-0.016008794 -0.026960969 -0.025262967 -0.068586744 -0.07880387 0.018955335 0.07200169 0.038490333
0.022816122 -0.07807751 -0.04578848 0.08304665 0.03440669 -0.084508315 -0.025628328 0.08806636
0.062101685 -0.077354 -0.011693232 -0.059257887 0.005494982 -0.05274288 -0.086376205 0.054210134
-0.061549738 -0.06413105 -0.014598012 -0.048927434 0.026898243 0.009526655 -0.01068411 -0.07031025
0.0066683665 -0.06623222 -0.07977907 -0.023060374 -0.06579408 -0.045055907 0.028976545 -0.025754213
0.05209159 0.011100344 0.052819423 0.044077747 -0.07282306 -0.00034604967 -0.07048851 0.06430773
0.065496586 0.012401119 -0.06593822 -0.0039837062 -0.014903747 -0.05072626 -0.0643737 -0.0399999
-0.008956008 0.05304905 0.036916144 0.044207655 -0.0400451 -0.026118845 -0.085169055 -0.012928873
0.053236477 0.0877594 -0.07631433 0.0043168887 -0.015490487 -0.033431344 0.0017910972 0.051485248

hidden.0.bias f4 [128]
00000000: 001c ccbb 484a 153c ef92 0c3d 6326 b6bc
00000010: 7f85 a63d 94bf 2abd 7373 18bd 5fe3 e03c
00000020: 2701 ff3c d8c5 83bb c11f ac3d 8687 3abd
00000030: 966f 4c3c d37b 9f3d 16cf 243d 341f 50bd
00000040: 841f e63c b8da 333c d14e c2bc eeaf 8b3d
00000050: 904a a4bb 5ab2 723d 613f 433d bada 473d
00000060: d772 59bc f854 bcbc 0b36 3f3d 5051 8fbd
00000070: a061 30bc 63f2 b0bc 850d aabd c141 b3bd
00000080: 06e4 863b b001 813b c012 a3bd 246d b2bd
00000090: 75b1 823d 2769 883d 4e05 483d 76b8 263d
000000a0: 9f15 c03c 3c11 f6bc 88c8 a43d 9b6c 8fbb
000000b0: 15f1 00bd 1ab7 78bd 2b06 20bc 22cc cc3c
000000c0: 9869 333c 05c5 56bd 8234 a7bd 0291 843d
000000d0: b20a a33d 2105 a13d ce20 cd3d 5a68 86bd
000000e0: 8996 3d3d 38aa a63d 5162 31bd de23 36bd
000000f0: 10f8 a2bd 60ab e13c e0ce 183c 9f05 56bd
00000100: 4864 683d 652c 72bd 4a15 843d dc6e a03d
00000110: 36bd 4bbc aa8e 133d d0a9 883c 5b74 c43d
00000120: 259d 11bd 210d 96bc 48b6 05bc 1225 98bc
00000130: 1ac0 a3bd 119a 913d 3033 82bd 4d73 a13d
00000140: 7521 9e3d d9ae 06bd 10ad 043e 34de bb3c
00000150: 9430 a93d cb02 f5bc e30c a43d f03c 703d
00000160: ee6e a1bd 46a5 5bbd df64 513d 5046 61bc
00000170: 37d8 55bd 05c5 04bd 0e63 a4bd 786e a83d
00000180: 30e7 ef3c 70b1 5f3c dd95 c73c 009e 393d
00000190: 129b 83bd f7fc b73d acce 093d 8f01 963c
000001a0: 1c12 0cbd 964c 59bc d252 a7bd 365c 003c
000001b0: 196f 9ebd 1d09 833c 9551 9bbd 33f1 68bd
000001c0: 8c71 1a3d a3e8 303d 70cb 683d b70f b33d
000001d0: 70fb 84bd 9e59 85bd 918d 153d cef8 ccb8
000001e0: 2ae4 983c aea9 3b3d 8871 273d 5e62 2d3d
000001f0: 36d4 1dbd a233 643d 5374 3abd e03e 0dbd
-0.006228924 0.009111948 0.034319814 -0.022235101 0.08130931 -0.04168661 -0.037219476 0.027452169
0.03112848 -0.0040213875 0.08404494 -0.0455394 0.012477776 0.077872895 0.040236555 -0.050811008
0.0280912 0.01097744 -0.023719223 0.06820665 -0.0050137714 0.05925212 0.047667865 0.04879258
-0.013272009 -0.022989735 0.0466824 -0.06997931 -0.010765463 -0.021599954 -0.0830336 -0.08752776
0.004116538 0.0039369687 -0.07962561 -0.08712223 0.063815035 0.06660681 0.048833184 0.04070326
0.02344781 -0.030037515 0.08046061 -0.0043769605 -0.031479914 -0.060721494 -0.009767096 0.024999682
0.0109504685 -0.052433986 -0.08164312 0.064729705 0.07961024 0.078623064 0.100160226 -0.06562872
0.04628614 0.081379354 -0.043306652 -0.0444678 -0.079574704 0.027547538 0.009326667 -0.052251454
0.05673626 -0.05912437 0.06449373 0.07833645 -0.012435248 0.036024727 0.016682535 0.095925055
-0.035550255 -0.018316807 -0.008161135 -0.018572364 -0.07995625 0.07109464 -0.063574195 0.0788332
0.07721225 -0.03288159 0.12956643 0.022933103 0.08261219 -0.029908558 0.080102704 0.058651865
-0.07882486 -0.053624414 0.05112159 -0.013749674 -0.05220815 -0.032414455 -0.08026706 0.08224195
0.029285043 0.013653144 0.024363453 0.045316696 -0.06426062 0.08983796 0.033644363 0.01831129
-0.034196958 -0.013262888 -0.081700936 0.007834485 -0.07736034 0.015995556 -0.0758392 -0.05687065
0.037705943 0.04319061 0.056834638 0.08743232 -0.064932704 -0.06511234 0.03651196 -9.7738215e-05
0.018663485 0.045816116 0.040879756 0.04233014 -0.03853246 0.055713303 -0.04552109 -0.03448379

hidden.1.weight f4 [128, 128]
00000000: c019 8f3a 8c44 ce3c c033 8abd fe54 0b3d
00000010: c0fd 113d f846 8cbc 2f2c b03d 0899 76bd
00000020: 98df df3c 28bb 623c d8e7 19bd 51de 31bd
00000030: 0300 ab3d 8e19 9abd ecaf 823c 1fc9 62bd
00000040: 4ae2 4bbd 76cc 6ebd 8337 6fbd 75d3 ae3d
00000050: 822c 333d 2270 173d 4c97 37bd de3b 6e3d
00000060: d7f4 b1bd 0021 e339 c47d b83c 9644 9abd
00000070: 04bc 98bc a209 f9bc 56cf 273d 81d7 26bd
00000080: 83cf 9e3d 8bf9 973d 0f98 53bd 80c3 063b
00000090: 122b 693d 40f6 2dbb 58b5 953c 7758 9b3d
000000a0: 8070 b83c e9a6 b33d 9648 aabd 60bb 3ebb
000000b0: e0cd 14bc e62a 713d 98ed 70bc 8aae 7c3d
000000c0: e3b5 23bd 5006 e63c c271 373d 95bf a4bd
000000d0: b156 56bd 0073 cbbb 1f2f 1abd 6028 52bd
000000e0: 96d9 4d3d 14d2 f73c 14dc 8ebd f655 94bd
000000f0: e6e0 9ebd e39a 0bbd fe16 513d c6e8 6e3d
00000100: 00b6 ffbb a643 acbd 1e75 8cbd c957 49bd
00000110: 6527 75bd 7dce 4ebd 17fe 21bd aca8 d5bc
00000120: 9ff4 4dbd b2c2 7e3d 682e 67bc 2c7f a03c
00000130: 2c12 cdbc f8ff dbbc 00c5 243c c50d a33d
00000140: 503d c2bc 5617 7a3d f4a4 ca3c 6ec8 94bd
00000150: 7509 a23d 24c0 d9bc 1a05 663d 31c8 54bd
00000160: 52a2 203d 9cec a3bd 00fa 9e39 4a00 0b3d
00000170: 0daa 8f3d 061f 1b3d 0a29 253d 98b5 57bc
00000180: 16ab 133d 2593 46bd 9a48 6a3d afcf 85bd
00000190: 6275 783d d082 8e3b 5018 eebc f0fd 8f3c
000001a0: 5339 933d 5033 123d 50da 013d 88b7 aabc
000001b0: bc9c b4bc 9063 96bc 2470 f13c 2a01 96bd
000001c0: 24f1 f43c 0492 9bbc 9904 a03d 9df3 ab3d
000001d0: ec25 9f3c 6e88 19bd 592e 8bbd fb14 9f3d
000001e0: e895 3abc 55b1 a43d 1887 f2bc aedd aebd
000001f0: ee1a 423d 9566 8c3d fee3 f5bc f06b b2bd
00000200: d443 f63c 4a5c 5e3d 16dc f3bc 43d7 aabd
00000210: 9937 35bd 97a8 0fbd c199 823b 0dd5 b3bd
00000220: 5eb3 a1bd ac5c 87bd 6eff 603d 708f adbd
00000230: 1399 0ebd de4d 973b efc3 1cbd 0828 4d3c
00000240: 00f1 a13a 2827 4d3c c949 86bd 4549 abbd
00000250: 3e9d 44bd d944 81bc 8d05 9e3d 895b 84bc
00000260: 2f8b 9e3d c67c 97bd 44dd b73d 64e1 65bd
00000270: 2d30 8a3d 81cd ef3c 5e7f 97bd 865d 91bd
00000280: 273b ae39 03ad 3a3d 9131 3c3d 82b7 02bd
00000290: 9e64 8fbd 5081 c2bb 370c 8cbd 2176 9a3d
000002a0: 7c98 b13d 74e7 e5bb 5f58 c93d 164f 2bbd
000002b0: 3816 0bbc 37dd da3c c900 91bc 989d 09bd
000002c0: 60f9 8bbd 7316 35bd 84a2 86bd c490 abbc
000002d0: eb0e e9bc 1fe7 953d 187c 9bbd 3cbb 14bd
000002e0: 33c2 d43c 22f0 223d 5157 553a d335 f23c
000002f0: 484c 89bc 981c 7abd 6d7a 9a3d 9e17 63bd
00000300: 7946 8d3d 1817 a53d 8143 843d 5e01 d73d
00000310: 616c 9b3b 6055 623d 588c 27bd 6631 5cbb
00000320: bf21 a33d e363 49bd 68e8 b3bd f4f4 923d
00000330: 9a31 2e3d e683 3ebc 1df3 533c 3f20 9b3d
00000340: b76d a63c 00f0 eeba f80f 053d 6067 4d3c
00000350: 28ac 073d 4611 b23d 43f2 823d 071f 973c
00000360: 2e38 4e3d 543e 02bd 666f b53d 3481 87bd
00000370: 6d6c 7a3d 3838 17bd f5cb 8c3d 2ed4 88bc
00000380: 94e9 893c 7095 41bc 023d 993d f8df 883d
00000390: a3d3 98bc 29f9 c33d 3fba a1bc f9eb 9abd
000003a0: 6882 303b 17d4 80bd 0a3d 583d 8cea 953c
000003b0: c2c7 23bd 25a1 c43d 602d c73d b667 653d
000003c0: e552 b8bc f504 d23c 4b85 823d 4eab 903d
000003d0: 742f 8e3b fd6c b13d ed80 d43d 6d67 e53d
000003e0: b7f3 a33d a39d 62bd ab90 c03b 601f 82bc
000003f0: fd5f ba3d f0c1 e53c 805b b8bb f3e7 883d
0.0010917708 0.02517917 -0.06748152 0.0340166 0.035642385 -0.017123684 0.08602177 -0.060204536
0.027328297 0.013838567 -0.03757462 -0.043424908 0.083496116 -0.075244054 0.015953027 -0.055367585
-0.049776353 -0.058300458 -0.05840255 0.08536426 0.043743618 0.036972173 -0.044822022 0.058162563
-0.086892776 0.000433214 0.022520907 -0.07532613 -0.01864434 -0.030400101 0.040969215 -0.040732864
0.077544235 0.074206434 -0.051658686 0.0020563304 0.05692584 -0.0026544482 0.018274948 0.07585233
0.022514582 0.0877207 -0.08314626 -0.0029103383 -0.009082288 0.0588788 -0.014705084 0.06168989
-0.039968383 0.028079182 0.044786222 -0.08044354 -0.05232877 -0.0062087774 -0.037642594 -0.051308036
0.050256334 0.03025154 -0.0697557 -0.07242958 -0.0775774 -0.03408326 0.051047318 0.05832746
-0.0078036785 -0.084113404 -0.06858276 -0.049155984 -0.059852023 -0.05048989 -0.03954896 -0.026081406
-0.050282117 0.062197395 -0.014110185 0.01959189 -0.02503308 -0.026855454 0.010056734 0.07961611
-0.023710877 0.06105741 0.024736859 -0.072647914 0.0791196 -0.026580878 0.05615721 -0.05194873
0.0392173 -0.08004114 0.00030322373 0.033935823 0.070148565 0.037871383 0.04032234 -0.013165854
0.036051832 -0.04848017 0.057198144 -0.06533753 0.06065882 0.00434909 -0.029064327 0.017577142
0.07188668 0.035693467 0.03170234 -0.020839468 -0.022047393 -0.018358022 0.029472418 -0.07324441
0.029900141 -0.018990524 0.07813377 0.08396075 0.019427262 -0.037483625 -0.067959495 0.077676736
-0.0113882795 0.08041636 -0.029605433 -0.08538376 0.047388963 0.068555035 -0.030015942 -0.08711994
0.03006164 0.054287232 -0.029768031 -0.08341839 -0.044242475 -0.03507289 0.003985614 -0.087808706
-0.0789554 -0.06609473 0.054931097 -0.08474624 -0.03481395 0.004617437 -0.038272794 0.012521751
0.0012355149 0.012521543 -0.06557042 -0.083635844 -0.04800152 -0.0157799 0.077159025 -0.016156929
0.07741391 -0.073968455 0.0897775 -0.056123152 0.0674747 0.029272797 -0.0739734 -0.07097916
0.00033231938 0.045575153 0.045945708 -0.031913288 -0.07001613 -0.0059358254 -0.06838267 0.075420626
0.08671662 -0.0070161168 0.098313086 -0.04182347 -0.008489184 0.026716812 -0.01770057 -0.03359756
-0.06834674 -0.044210862 -0.06573966 -0.020943053 -0.028449496 0.073194735 -0.075920284 -0.036311373
0.025971508 0.03977979 0.00081383163 0.029566681 -0.016760007 -0.061062425 0.07542882 -0.055442445
0.06898207 0.080610454 0.06458188 0.10498308 0.0047431444 0.0552572 -0.040905327 -0.003359878
0.07965421 -0.049167525 -0.08784562 0.07175627 0.042527772 -0.011628127 0.012936381 0.0757451
0.020315988 -0.0018229485 0.032485932 0.012536854 0.033123165 0.08694701 0.06393864 0.018447412
0.050346546 -0.031797722 0.08859138 -0.066164404 0.06113856 -0.03691885 0.06874839 -0.016702738
0.016835012 -0.011815414 0.074823394 0.06683344 -0.018655604 0.09569008 -0.01974213 -0.075645395
0.0026933197 -0.06290453 0.052792586 0.018300317 -0.039985426 0.096010484 0.097254515 0.05600711
-0.022500465 0.02563713 0.0637308 0.07063924 0.004339153 0.08663366 0.10376153 0.112013675
0.08005469 -0.055326115 0.0058766208 -0.015884101 0.091003396 0.028046578 -0.005626142 0.06684866

hidden.1.bias f4 [128]
00000000: c066 d33a f7b1 9d3d 59fd 303c e220 dd3c
00000010: d498 b93c d019 0ebc 805d 27bc 502d 83bd
00000020: e4db 0fbd 7acb 92bd 89bd a9bd 75ae a3bd
00000030: f875 653c 5ba8 83bd 78c8 a2bc 334a f6bc
00000040: 3857 fd3c 230e a3bd ab74 a23b 2e33 6bbd
00000050: f020 b0bd a208 58bd b02c 83bb f37b bf3b
00000060: 4670 87bc 4f16 63bd c2d2 13bd ea0b 9e3d
00000070: 9077 543d 2a98 093e 9001 743d 84df 3a3c
00000080: e981 58bd b7b1 66bd ac59 eb3d 709a 6ebd
00000090: 38f4 2abd fd01 c93d 918d 733d 6970 733d
000000a0: a830 443c 7484 b1bd 8839 abbd 544f 0cbc
000000b0: 0e99 2abd 9e8a 8b3c 9ac0 2fbd e45f 8b3a
000000c0: 963d e7bc b046 88bd 7dd7 b03d fb57 e93d
000000d0: 40c4 eebc 6a33 12bd 3260 09bd b236 253d
000000e0: dd21 543d 8f67 9f3d eab1 053d fa85 253d
000000f0: 806a f3ba 8a6c 613d 03e5 40bd 979e 97b8
00000100: 2648 1b3b b85a 033c e247 abbb a8b9 c43d
00000110: 1a76 913d fc20 0a3c f0d6 853b e1e3 093d
00000120: ae44 353d faeb 1c3d ed1f 933d 5014 ddbb
00000130: 89bf ffbb c22f 97bd fedc a9bd d8e6 c43c
00000140: 20d9 a93d 83a5 b53d 00ae f33b 1a62 9d3d
00000150: 5a9a e1bc 4a53 37bc eec2 713d c9f0 f93c
00000160: a498 893c 81f3 27bd 16c5 93bd 5113 983d
00000170: 72d7 74bd 4d32 1a3c bf93 a0bd 983f 90bd
00000180: 9a12 263d 9010 823d 2e25 d2bc 05ef 51bd
00000190: d54d 833b 7b14 44bd 3a51 94bb 3c02 9bbd
000001a0: a054 473d 700a eabc f617 80bd adbe 74bd
000001b0: 4bef a6bd f4a3 5cbd b3c1 d23c 671a 743c
000001c0: b3c2 6d3d 8335 32bd f5ce 0d3e a8eb 123d
000001d0: 6ae7 363d 65fe 14bd d0c7 5fbd 91d1 83bd
000001e0: 46dd b4bd b134 843d 786c 09bc cc69 c9bd
000001f0: 9151 b93d 9cd9 75bd 20d7 d9bb c532 e13c
0.0016128644 0.0769996 0.01080259 0.026993219 0.022655882 -0.008673146 -0.010215163 -0.06405127
-0.035121813 -0.07167716 -0.08288104 -0.079922594 0.014005177 -0.06428596 -0.019870982 -0.030064678
0.030925378 -0.07961681 0.0049577556 -0.057421856 -0.08600032 -0.052742608 -0.00400313 0.0058436333
-0.016533028 -0.055441197 -0.036089666 0.07717116 0.051871836 0.13436952 0.059571803 0.011405829
-0.052858267 -0.056321826 0.11491713 -0.05825275 -0.04173681 0.09814832 0.05946118 0.059433375
0.011974491 -0.086678416 -0.083605826 -0.008563835 -0.04164987 0.017033871 -0.04290829 0.0010633436
-0.028227609 -0.066541076 0.08634851 0.11393734 -0.029146314 -0.035693564 -0.033539005 0.040335365
0.051790107 0.07783424 0.032640375 0.040410973 -0.0018571168 0.05503515 -0.047093403 -7.229781e-05
0.0023694127 0.0080172345 -0.005227075 0.096057236 0.07102604 0.008430716 0.0040844604 0.033664588
0.04425495 0.038310982 0.07183824 -0.006746806 -0.007804815 -0.07382156 -0.08294104 0.024035856
0.082933664 0.088694595 0.007436514 0.07684727 -0.02753942 -0.011189291 0.05902379 0.030510323
0.016796418 -0.041003708 -0.072153255 0.07425559 -0.059775777 0.009411407 -0.0784068 -0.070433795
0.040545084 0.06350815 -0.025652494 -0.051253337 0.004007081 -0.047871094 -0.0045262845 -0.075687855
0.04866469 -0.02856943 -0.0625457 -0.059752155 -0.0815111 -0.053867295 0.025727129 0.014898873
0.058047008 -0.043508064 0.13848479 0.03586927 0.044654287 -0.036375422 -0.054633915 -0.06436456
-0.08831267 0.064553626 -0.008387677 -0.09834632 0.09048761 -0.06002198 -0.0066479594 0.02749003

v.weight f4 [1, 128]
00000000: d08a 77bc 4434 7abe bace b6bd 9aab 88be
00000010: 3fa3 833d a445 f93c d672 ac3d 9d05 d5bd
00000020: 51a0 3aba e414 66bd 2005 3b3c 4a78 803d
00000030: 98d5 8ebd 5cfe 0d3d 34c8 85bc ba01 bebd
00000040: d899 7a3c 0344 99bd f122 92be 197b ab3d
00000050: ea67 623d db5c 69bd 083e 10bc c007 963d
00000060: b0dc fdbd 9993 8d3d 71bc 1fbd 1b15 27be
00000070: 6903 943d 35d0 98be b88b d1bc f9d0 9ebe
00000080: 2021 57be eb64 adbd 1902 76be b98a 9d3d
00000090: 0031 bebc 047d 32be 4880 59be 9124 b9bd
000000a0: 52c5 f9bc cbb1 ba3d 44a2 6fbd 9ba1 03bd
000000b0: 13c3 b3bd b843 2bbe d26a 76be 383b b33d
000000c0: c752 2cbe db06 a4bd 8cb4 2ebe 7b1e c0be
000000d0: 405c 5dbc d260 183d 8bc0 9cbd a875 203d
000000e0: fb65 e4bd a7aa 2cbe 2016 9ebc 3ad8 b2bd
000000f0: 281b 123c d76f 843d 31d8 ac3d 2895 7ebe
00000100: 9f4d 2b3d 2544 9f3d c533 733d 7f5a 5bbe
00000110: 660c 38bd cdd9 05be d78c a23d e79a febc
00000120: 7047 46bc 34e9 bfbc 9c65 9dbd 6e83 5f3d
00000130: e35f ba3d 446c 43bd 9cc3 183d f95d 953d
00000140: 9bb8 b9bd 580e a8be cdff 893d bded 0b3d
00000150: f226 73be e178 963c a39b 37be 0dc9 ec3c
00000160: 3bb3 48be bf94 933d 0d0d 9c3d 52ec 32bd
00000170: 280f 8abc f12b dcbd 8e60 ff3c a038 213b
00000180: 9ae0 42bd 071d 4dbe a4e3 8f3d aab1 443d
00000190: 77f6 bb3d b633 1fbd 59f4 cebd fc1b c5bc
000001a0: b43f 7ebe 951f 8abd d29f 723d f818 033d
000001b0: f664 aabd 607e 6e3c d827 5a3d 5095 a43d
000001c0: 068e 32be d8ec 6abc 6504 a6be f8be 11bd
000001d0: 025f 263d bf36 b9bd a850 dabc 94cf 59bd
000001e0: 7413 aebd 1932 993d f04e 2ebc 91c2 023d
000001f0: ccbb 84be a5c2 c2bc 31f8 843d 9031 40be
-0.015108779 -0.24434 -0.08926149 -0.26693422 0.06427621 0.030428715 0.08420341 -0.10401461
-0.0007119226 -0.056172267 0.011414796 0.06272943 -0.069743335 0.034666404 -0.016330816 -0.09277673
0.015295468 -0.07483675 -0.28542283 0.083730884 0.05527488 -0.05697332 -0.008803852 0.07325697
-0.123956084 0.06912918 -0.03899807 -0.16316645 0.07227213 -0.2984635 -0.025579318 -0.31018808
-0.2100873 -0.08466514 -0.24024238 0.07692475 -0.023216724 -0.17430502 -0.21240342 -0.090401776
-0.030489597 0.091159426 -0.058504358 -0.03213654 -0.08777442 -0.16725051 -0.24064186 0.087515295
-0.16828452 -0.0800912 -0.1706106 -0.37523255 -0.013510764 0.03720171 -0.07653912 0.039174706
-0.11152264 -0.16861974 -0.01929766 -0.08732648 0.008917607 0.06466644 0.08439673 -0.24861586
0.041822072 0.077766694 0.059375543 -0.2142124 -0.0449337 -0.13071366 0.07937019 -0.031079723
-0.012101993 -0.02342663 -0.07685396 0.0545687 0.0910032 -0.047710672 0.037295923 0.072933145
-0.09068414 -0.32823443 0.06738243 0.03416227 -0.23745325 0.018368186 -0.17930464 0.028904462
-0.19599621 0.072061054 0.07619677 -0.043682404 -0.01685293 -0.10750569 0.03117397 0.0024600402
-0.047577478 -0.20030604 0.07025841 0.048020996 0.09177869 -0.038867675 -0.10105199 -0.024061196
-0.24828988 -0.06744305 0.059234448 0.032006234 -0.08320038 0.014556497 0.053260654 0.080362916
-0.1743699 -0.0143386945 -0.32425228 -0.035582513 0.04061795 -0.09043645 -0.026649788 -0.053176478
-0.08499804 0.074802585 -0.010638937 0.031923834 -0.25924528 -0.023774454 0.06492651 -0.18768907

adv.weight f4 [24, 128]
00000000: dc80 8cbd 98f6 883d 5242 7dbd 2835 15bd
00000010: 6323 373d 448f 153d d95e 90bd 1400 0b3d
00000020: b3ea 0c3d d9ee 8ebd 1e05 a7bd 7285 883d
00000030: 5d34 513d ef8b b13d b0f0 9ebb f0ee 7dbd
00000040: acd8 cdbc e97c 3e3d f444 9c3d 39ae 8a3d
00000050: 3483 83bd 67fa e9ba 4e2f 463d 10b9 8abd
00000060: eae2 9f3d 0050 3fb8 73c6 50bd 94e6 d03c
00000070: f90a 913d 3bd9 a7bc 07bc 043d 2843 6b3c
00000080: 8ec9 593c cfcc e6ba fce1 6ebc 0f13 0dbd
00000090: a345 aabd c23a a93d 019a 33bd 1398 273d
000000a0: 6928 a83d 8b9e 5abd 28b0 57bd c5e7 52bd
000000b0: d9f7 a83d 900a 1cbd 85df 113d 4ecb 00bd
000000c0: eeb9 b7bc e619 8ebd 321c 9fbd 6021 a7bd
000000d0: 3437 75bd 54de 0b3d 4e3f 96bd 541c 4fbc
000000e0: b087 3cbc 388a 8c3c b099 1fbc 8689 8f3d
000000f0: 505d a43c 7a94 813d 082d 7abc 353b 90bd
00000100: b27e 9c3c 60e9 1f3b 4569 6bbc 5e25 8ebb
00000110: 9444 14bd e7dc b73b 86ab 16bd b9b7 7d3d
00000120: 367d 503d c41b ef3c 7c11 433b be92 2a3d
00000130: 492e 9f3d 47d3 a63d e7c4 1b3d cf25 9b3d
00000140: a2dd 80bd 46b4 a83d bdd8 9cbd e05b afbd
00000150: a3d0 91bc 1744 40bd eea8 3d3c f21b b4bd
00000160: fbed 663d 3aed 563d 068d c8bc 99c8 ad3d
00000170: e366 32bd 4bdc 0ebc 3f91 153d 0307 973d
00000180: 5e8a 203d c790 4b3c 117e 413d 7ca2 34bd
00000190: f83b 8bb7 fea9 603d f686 5fbd 862e 2a3d
000001a0: 9e24 24bc 40bb c5bc 7485 acbc ff55 4abc
000001b0: f3de 963d 0408 23bd 0c88 86bd fe75 9b3d
000001c0: 49df 4b3d c80d a13c 30a8 a7bd 053c bc3c
000001d0: 8477 0f3d 1676 cebb fc60 86bc fd92 99bd
000001e0: 81fc 913d cb32 b2bd 0041 debb 6c49 653d
000001f0: 36c0 09bd d633 a0bd 6ed9 113d 728b 913d
00000200: fe3c 393d 7768 3a3d bb1a 943d 88ab 8a3d
00000210: 62e3 a53d 44eb bfbc 245c b7bc 318a f03c
00000220: 02b2 153c 8aed 163d cdd9 b33d 25c5 8fbd
00000230: 482e 833d 13e5 85bd 708e 22bc 43f0 4fbc
00000240: 4030 413c dd7e 8abd 9e1a 22bd 4874 07bc
00000250: 6622 73bd cf68 4bbd 70c9 a8bb 9803 58bd
00000260: 57c1 b0bd 3483 d93c db9f afbc 09e3 a5bd
00000270: 7de9 133d fd60 583c 0a83 ff3c 0449 1b3c
00000280: 186c 17bc 31f6 e03c b287 063c 3596 1dbd
00000290: aac0 26bd 0372 91bd 4286 d5bc fc10 53bd
000002a0: 2a7f 063d 5513 b2bd 20c8 7d3c a5e9 68bd
000002b0: c1bf bd3b 3231 aabd a363 bb3a 340a afbd
000002c0: 126f 22bd be41 e3bc 6a47 3d3d f802 ae3c
000002d0: 2bd0 92bd c0cc bdbb 8894 913d 88ee b1bd
000002e0: 6ee7 9b3d be86 babb ab90 9abd 0577 813b
000002f0: 7e54 1e3d b112 0bbd 0b81 853d 06fd da3c
00000300: 092a 82bd 3700 843d 0e3e 643d b986 933d
00000310: d017 f2bc 327e 6f3c 9914 923d b80d 29bd
00000320: 08c9 15bd ea1c 1d3d 60b4 593d 6e82 553d
00000330: 3deb 81bc c37c 773d 123c 51bd 1aba 96bd
00000340: ca00 a5bd 2b32 12bd 5776 1cbd 89c4 303d
00000350: d160 433d 9992 abbd 906e 903d 6dfe 6bbd
00000360: 4fca b0bc d742 8c3d a538 16bd f5d1 7fbc
00000370: b6f9 303d c766 7b3d 8931 8d3d 3852 53bd
00000380: 879a 903d 8a50 87bd 1d39 8a3c 729b 97bd
00000390: fb61 d03b 64ce 963c 7250 e4bc 886e ea3c
000003a0: 5b29 cdbd 8c36 28bd cdc9 923d 6a6b 69bd
000003b0: 19e4 de3c ae08 563d 579c c0bc e0bb 9c3b
000003c0: 8715 56bd 223f 003d 593c 073d c0e6 8b3c
000003d0: 19c2 aabc 8fe4 06bb 72c7 6ebd 7e44 3bbd
000003e0: 2c7e b2bc 2bd2 c73c 703c cebc 2cd2 493b
000003f0: b7fa 89bd ac70 a7bd ed08 ff3c 559f fc3c
-0.068605155 0.06687659 -0.061830826 -0.036427647 0.04471148 0.036513582 -0.07049341 0.03393562
0.034403514 -0.0697915 -0.08155273 0.06666078 0.05107533 0.08669268 -0.0048504695 -0.061995447
-0.025127731 0.046505842 0.07630339 0.067715116 -0.064215094 -0.0017851115 0.048384957 -0.06773579
0.07806952 -4.5612454e-05 -0.050970506 0.025500573 0.07082171 -0.020489326 0.03240588 0.014359273
0.013292683 -0.0017608645 -0.014580246 -0.034442004 -0.083140634 0.0826316 -0.04384804 0.040916514
0.082108326 -0.053373855 -0.05265823 -0.051490564 0.08250398 -0.03809601 0.035613555 -0.031443886
-0.022427525 -0.069385335 -0.0776905 -0.08160663 -0.0598671 0.034147575 -0.07336293 -0.012641031
-0.01150696 0.017155752 -0.009741232 0.070086524 0.020064026 0.06327148 -0.015269525 -0.07042543
0.019103382 0.0024400577 -0.01436836 -0.0043379506 -0.036198214 0.0056110504 -0.03678467 0.06194279
0.05090066 0.029188044 0.002976506 0.04164385 0.077725 0.08145767 0.038029578 0.07575571
-0.06292273 0.082375094 -0.07658527 -0.08562446 -0.017799681 -0.046939936 0.0115759205 -0.08794393
0.0563793 0.05247233 -0.024481308 0.084855266 -0.04355515 -0.008719514 0.03651547 0.07374384
0.039194457 0.012424654 0.047239367 -0.04410027 -1.6598016e-05 0.054849617 -0.05457207 0.041548274
-0.010018496 -0.02413714 -0.02105973 -0.012349605 0.07366743 -0.039802566 -0.06568918 0.075908646
0.04977349 0.019659892 -0.08186376 0.022977838 0.03502609 -0.006300698 -0.016403668 -0.07498739
0.071282394 -0.08701094 -0.006782651 0.055978224 -0.033630572 -0.07822387 0.035607748 0.07106675
0.045224182 0.04550978 0.07231661 0.06770998 0.081000105 -0.023427613 -0.022382803 0.02936277
0.009136679 0.03684763 0.087817766 -0.07020024 0.06405312 -0.06537833 -0.009921655 -0.01269156
0.011791289 -0.067624785 -0.039576165 -0.00826747 -0.059358977 -0.0496605 -0.0051509663 -0.052737802
-0.08630627 0.02655182 -0.02143853 -0.08099944 0.036111344 0.013206718 0.031190414 0.0094778575
-0.00924208 0.027461143 0.008211063 -0.038473327 -0.040711083 -0.07101824 -0.026064996 -0.05152987
0.032836117 -0.086950935 0.015489608 -0.056863446 0.005790681 -0.083101645 0.0014296662 -0.08546868
-0.039656706 -0.02774131 0.046210684 0.02124165 -0.07168611 -0.0057922304 0.07108408 -0.08688074
0.07612501 -0.005692332 -0.075471245 0.003950956 0.038654797 -0.033953372 0.065187536 0.02673198
-0.06355674 0.064453535 0.055723242 0.07203431 -0.02955237 0.01461749 0.07132835 -0.04127285
-0.03656867 0.038357653 0.053150535 0.05212634 -0.01585924 0.060421716 -0.05108268 -0.07359715
-0.08056791 -0.035692375 -0.038198795 0.04315618 0.047699753 -0.08377571 0.07052338 -0.057615686
-0.021580843 0.06848686 -0.036675114 -0.0156140225 0.043206893 0.061377313 0.06894214 -0.05159208
0.07060724 -0.066071585 0.016872937 -0.07402696 0.0063593364 0.018408962 -0.02787039 0.028617159
-0.100176536 -0.041067645 0.07167397 -0.056987204 0.027208375 0.05225437 -0.023512049 0.0047831386
-0.052266624 0.03131021 0.033016536 0.017077804 -0.020844506 -0.002058301 -0.058295675 -0.045719616
-0.021788679 0.024392208 -0.025175303 0.0030795438 -0.06737273 -0.08175787 0.031132186 0.030837694

adv.bias f4 [24]
00000000: 3c5c ddbc ef9f 26bc 3f85 10bd 2d5d 70bc
00000010: 3f86 49bd 8cf3 70bd 60b0 8c3c 8db4 473d
00000020: 7845 c63d 0038 f2bc 4270 ccbc 58b2 2abd
00000030: a210 98bd d7c7 9c3d 4474 bbbd 1b46 36bc
00000040: 8e6f 5ebb 6646 52bd 7d6d a2bd 6bd2 cd3d
00000050: 21d7 ecbc 088d 5e3b e2a0 a3bd 3d76 aa3d
-0.02702152 -0.010169967 -0.035283323 -0.014670652 -0.049200293 -0.058826014 0.017173946 0.04875617
0.09681219 -0.029567719 -0.024955872 -0.041673988 -0.074250475 0.07655304 -0.09153035 -0.011125113
-0.0033941003 -0.05133667 -0.079310395 0.100499 -0.028911175 0.0033958573 -0.0798967 0.083233334
