DDQN/radiiResults/12cyl/Qtarget600.pt (torch, 161855 bytes, 9 tensors)

fc.weight f4 [128, 25]
000000 d2 eb 01 be d5 4c 4b 3e 70 c0 8a 3d 71 67 21 be
       -0.12687615 0.19853528 0.06774986 -0.15762116
000010 8c 11 08 3e c5 70 47 3e e2 9e 01 be 1b 63 f2 3c
       0.13287944 0.19476612 -0.12658265 0.029588273
000020 42 89 77 bd 65 5e 64 3c f5 0f 80 3c 01 7b 62 be
       -0.060433634 0.013938521 0.015632609 -0.22117235
000030 36 c3 ce bd 06 1b 43 3e bf 20 40 3d e0 7c 13 3e
       -0.10095827 0.19053277 0.04690623 0.14403105
000040 5a bc e3 3b cd a2 3e be 62 cd 1e 3d 47 2e 09 3e
       0.0069499435 -0.18616791 0.038770087 0.1339656
000050 de 64 0c be 72 58 96 bc a2 c4 90 bd 50 c9 42 3e
       -0.13710353 -0.01835272 -0.07068755 0.19022107
000060 3a ae de bd ab 27 ce 3c 77 8e 4a 3e 9a 2f 7b bd
       -0.10873075 0.0251654 0.19780909 -0.061324693
000070 9e 64 0d bc d5 05 71 3d f1 b4 b1 bc cc b1 4f 3e
       -0.008629946 0.058843452 -0.021692725 0.20282668
000080 58 f2 5a be 42 2e 03 3e fd 6b 42 be 1b 25 ac bd
       -0.2138151 0.12810615 -0.18986507 -0.08405515
000090 f6 c2 e4 3c 4e 7d 29 bc 21 52 e5 3d d7 46 0f 3e
       0.027924996 -0.010344816 0.111973055 0.13991867
0000a0 08 f5 0c 3e 6b f8 fc bc df d5 c9 bd 4e 93 ca 3c
       0.13765347 -0.030880174 -0.09855246 0.024728443
0000b0 e7 e2 1d 3e ec 25 d2 bd 72 98 77 3d 28 b8 28 be
       0.15418588 -0.10261139 0.060448118 -0.164765
0000c0 0d bb bb bd c6 48 6c bc 31 b9 10 3e 36 55 23 be
       -0.091665365 -0.014421647 0.14133145 -0.15950474
0000d0 ee ce 93 3c 65 60 db bd 65 1b 2a be fa e2 02 3e
       0.018043008 -0.10711745 -0.16612013 0.12781897
0000e0 45 e8 da bd 24 f2 0f be 4f bb 12 3d d4 11 8b bd
       -0.10688833 -0.14057213 0.035823163 -0.0679051
0000f0 ad ad 3b 3e 31 72 01 be b2 e4 92 bd 02 40 27 3d
       0.18327971 -0.12641217 -0.071725264 0.040832527
000100 9e 13 04 3e 9a c1 bb bd 52 b8 35 be 0c 4b 83 bd
       0.12898108 -0.09167786 -0.17746094 -0.064107984
000110 28 3f 40 3e 4e 62 ce 3d 15 07 c6 bd 2b 6a a8 3c
       0.18774092 0.10077344 -0.096693195 0.020558437
000120 fd e6 87 bd 4f 32 10 3d 05 e1 20 be 68 07 77 bd
       -0.066358544 0.035204228 -0.15710838 -0.060309798
000130 60 3f b4 bb 98 1f fe 3c 8c 01 74 3d ba 70 d3 bd
       -0.005500719 0.031020924 0.059571788 -0.10324235
000140 1b 87 1b 3e 00 cd cf 3b 6a a6 00 be 47 b2 e0 bd
       0.15188257 0.0063415766 -0.12563482 -0.10971504
000150 bb b1 03 3e 10 95 bc 3c fc 2b 7e 3d d0 af ee bd
       0.12860768 0.023020297 0.062053666 -0.11654627
000160 90 44 ba 3c 02 4a 19 be 40 ea 15 be c3 8b 1b 3e
       0.022737771 -0.14969638 -0.1464014 0.15190034
000170 10 8c 05 be 07 3e c5 bd ac 22 44 3d cf 32 3a be
       -0.13041711 -0.096309714 0.04788463 -0.18183444
000180 c0 8c 84 3c 5b 03 0a 3e 08 13 3d be a0 3f 2b 3c
       0.016180396 0.13477843 -0.18464291 0.010452181
000190 64 d5 33 be 4c b3 44 3e 19 14 4a 3d f4 5f dc bd
       -0.17561871 0.19209021 0.049335573 -0.10760489
0001a0 9f e0 8c 3d c9 ae 3e bd 78 33 70 bd e5 52 3c 3e
       0.068787806 -0.046553407 -0.058642834 0.18390997
0001b0 c2 cd fe 3d f8 44 90 bc 9b b2 16 bd b5 a5 51 bd
       0.12441589 -0.017611012 -0.036791425 -0.05118342
0001c0 79 86 0a bc 02 80 43 bd 2f 94 ac 3d d8 cb 6c 3d
       -0.008454912 -0.0477295 0.08426701 0.057811588
0001d0 ee 43 e8 bb d9 c4 2d 3d 31 ca ba bd 73 82 40 3c
       -0.007088176 0.042424057 -0.09120596 0.0117498515
0001e0 f7 58 4c bd a9 ca 8b bd b3 39 3f be 0b cf 1f 3c
       -0.04988953 -0.06825764 -0.18674354 0.009753953
0001f0 a8 f9 2b be 01 cf fb 3d 74 5c ea 3d 1e 74 5a 3d
       -0.16794455 0.12295342 0.11443415 0.053333394
000200 f4 23 fd bd e3 2d 0f 3e 3b fc 26 3d 3a af b9 bd
       -0.12360373 0.13982348 0.04076789 -0.09066625
000210 ac 37 48 be 31 cc 14 3e 00 f3 1b bd a8 76 30 3d
       -0.19552487 0.14531018 -0.03807354 0.04308191
000220 1f 1d f8 3d e1 46 b3 3d d9 fb b4 3d 60 a1 a2 3c
       0.121149294 0.087537535 0.08837099 0.01985234
000230 8b c5 7b 3d 72 05 22 be e5 e4 e6 3d e5 30 26 be
       0.06146769 -0.1582239 0.11274127 -0.1622959
000240 b8 0c bc bd 1f 87 2c 3d 10 62 89 3d 25 14 c2 3d
       -0.091821134 0.04212105 0.06708157 0.094764985
000250 1c 69 38 3d b0 2a 3b 3e d8 5f 3a bd c0 03 5b bd
       0.045022115 0.18278003 -0.04550156 -0.053470373
000260 00 31 12 bd 49 12 1e 3e 2c 5e 09 be 7a 25 bf bd
       -0.03569126 0.15436663 -0.1341483 -0.0933332
000270 25 8c 07 be fc e7 77 3d d2 d5 8d 3d ba c9 b5 bd
       -0.13237055 0.060523972 0.069255486 -0.08876367
000280 c7 1a ba bd 88 f3 01 be 94 3f 38 3d ea e0 29 be
       -0.090871386 -0.12690556 0.044982508 -0.16589704
000290 df a0 08 3e a3 73 ab bd 4b 60 36 be e0 10 3e bc
       0.13342617 -0.08371665 -0.1781017 -0.011600703
0002a0 54 dc 3a bd 10 78 f2 bd a8 dd 28 3d 44 e7 7f 3d
       -0.045620278 -0.11839306 0.041227013 0.06247641
0002b0 68 98 cd 3c 1b fd 12 3e 68 c2 ea 3c 22 4d 42 bd
       0.025097087 0.14354365 0.028657153 -0.04743684
0002c0 87 f3 30 3d d5 26 68 bd a3 2c c7 bd 3c d8 4c 3e
       0.043200996 -0.056677658 -0.09725311 0.20004362
0002d0 78 9c 95 3b 01 96 39 3e 79 73 07 3e 9f 2d c9 bc
       0.0045657717 0.18123628 0.13227643 -0.024557887
0002e0 cd fe dd bc 26 4c 3f be 58 36 3b 3e 02 bc da bd
       -0.027099038 -0.18681392 0.18282449 -0.10680391
0002f0 7a ab 80 3d a4 2a d2 bc 93 a2 87 3d 89 78 bb 3d
       0.062827066 -0.025655098 0.066228054 0.0915385
000300 96 7f 95 3d ff 24 17 be e0 dd 17 3d 87 e7 c4 bd
       0.07299726 -0.14760207 0.03707683 -0.09614473
000310 43 5a b1 bd 49 1a 3f 3e d9 64 3f be 07 11 33 3e
       -0.08659794 0.1866237 -0.18690814 0.17486964
000320 ef 6e 2c be 51 a3 d4 bc db 9e 9d 3d e8 1d 4f bd
       -0.16839193 -0.025956782 0.07696315 -0.05056563
000330 a2 62 0d 3d db 6e f4 bd e9 3a f4 bd a3 cf c6 3d
       0.03451789 -0.119352065 -0.11925299 0.09707572
000340 ad ec 3a 3e af cd 45 3e eb 31 11 be ee d3 06 be
       0.18254347 0.19316743 -0.14179198 -0.13166782
000350 26 67 2f 3d cb 6f 33 ba 15 d2 d4 bc f9 7c 4a 3e
       0.04282298 -0.00068449666 -0.025979081 0.19774236
000360 5f 40 30 be 2f b7 3e bd 9a 1e 88 bd 65 50 01 be
       -0.17212056 -0.046561416 -0.06646462 -0.12628324
000370 e0 dc b2 bd 6a b7 0d 3b 35 59 fd 3d 22 5a 46 3e
       -0.08733535 0.0021624216 0.123705305 0.1937032
000380 75 da ef 3c f3 aa f1 3d ea 97 2e bb 21 af 25 be
       0.029278973 0.11800184 -0.002664084 -0.16180088
000390 5d 15 e8 3d 2a 45 0f 3e da 3d 10 be 87 6d 0a be
       0.113322 0.13991228 -0.14086094 -0.13518344
0003a0 c7 7e 59 3d 88 90 8e 3c a9 9a 74 3c 7f b0 13 be
       0.05309942 0.017402902 0.014929452 -0.14422797
0003b0 d7 28 b8 bd 74 9d 51 3e 2b 60 80 bd e4 81 70 3d
       -0.089921646 0.2047022 -0.062683426 0.058717623
0003c0 73 39 4f 3e 94 96 ce bd e5 9e d8 3d 37 ba 3a be
       0.20236759 -0.10087314 0.10577182 -0.18235098
0003d0 e6 82 d1 bc 9a e4 53 3d 90 cf 50 3e 2d 85 af 3d
       -0.025575113 0.051731683 0.20391679 0.08570323
0003e0 75 bf ee bb be d6 1f 3e d8 07 0d be 37 23 e9 bd
       -0.007286007 0.15609261 -0.13772523 -0.1138367
0003f0 00 74 8c bb 5b 51 14 3e ce d9 8b 3d ae 6e d8 3d
       -0.004286289 0.1448416 0.06828652 0.105679855

fc.bias f4 [128]
000000 ac f5 04 be c3 b7 2d be 44 ab 06 3e 80 38 00 be
       -0.12984341 -0.16964631 0.1315127 -0.12521553
000010 4d 74 0a 3e 5f 67 b3 3d 6c a9 49 bd e8 79 25 3e
       0.13520928 0.08759951 -0.04923384 0.16159785
000020 c6 34 1a 3d cf ab 0c 3e 90 03 da bd d2 12 62 3e
       0.037647985 0.13737415 -0.10645211 0.22077492
000030 ee 68 9b 3d b7 af 9c bd f2 2a 85 3d 65 ea 19 be
       0.07588373 -0.076507024 0.06502332 -0.1503082
000040 f3 fc 0c be 3b 6b a7 3d 60 5f 2e be 40 35 31 bd
       -0.13768367 0.081747495 -0.1702857 -0.043263674
000050 46 40 92 bd 27 11 ad 3d 8d 39 31 be d6 40 86 3d
       -0.071411654 0.08450537 -0.1730711 0.06555335
000060 40 83 33 3d f2 37 69 3e 48 cc 53 3c 0a fd 1f be
       0.04382634 0.22775248 0.012927122 -0.1562387
000070 e6 4d 00 3e ee 00 90 3d 95 32 3b be 0d 75 2e 3e
       0.12529716 0.07031427 -0.18281014 0.17036839
000080 38 b7 23 bd 04 29 0b be 96 70 85 bd 7e 8f 48 be
       -0.039969653 -0.13589865 -0.06515615 -0.19585988
000090 ae e7 ba 3d ca d3 02 3e 58 99 a3 3d 3f fa 2f be
       0.09126221 0.12776104 0.079882324 -0.17185305
0000a0 d6 55 82 3d dc 56 29 3e f3 f7 38 be 84 45 55 bc
       0.06364028 0.1653704 -0.18063335 -0.013017062
0000b0 2e cb 30 be 76 0c 43 bc 0c ce 6f bd 2f 5f 38 be
       -0.17265007 -0.011904826 -0.05854611 -0.1800506
0000c0 62 79 ec 3c 35 f2 27 bd 56 d5 24 3e 50 b8 c4 bd
       0.028866474 -0.04100247 0.16097006 -0.09605467
0000d0 e2 b9 56 bd a0 6b 13 bc 33 49 34 be e8 16 16 be
       -0.052423365 -0.008997828 -0.17606048 -0.14657176
0000e0 4e 72 00 be 60 cb 7b be 8f 57 51 3d 91 7e 97 3c
       -0.12543604 -0.245893 0.051108893 0.018492969
0000f0 f7 9e db 3d a5 ff 5c bc 91 23 58 3e c1 58 f0 3d
       0.107236795 -0.013488685 0.21107318 0.117356785
000100 90 5c 31 be 4c a4 50 bd 1a fd 81 bd 8a 14 3b be
       -0.17320466 -0.050937936 -0.063471034 -0.18269554
000110 34 64 3f bd 57 cc c3 bd 54 a9 3f bd 3b 08 36 3d
       -0.04672642 -0.09560459 -0.046792343 0.044441443
000120 b7 d1 80 3d 77 23 1e 3d 97 af 26 3d a1 43 db 3c
       0.0629 0.03860804 0.0406948 0.026765646
000130 4e 1c 5f bd 3d bb 4a 3d 18 41 92 3c 1a 8f b4 3d
       -0.054470353 0.04949497 0.017853305 0.08816357
000140 cb 08 16 be 00 f5 2d bd 6d 6f f0 bd 7a 65 9a bd
       -0.14651792 -0.04246998 -0.11740003 -0.07538886
000150 3c a7 04 3e 42 b2 dc 3d 62 19 53 bd fa 9c 08 bd
       0.1295442 0.107761875 -0.05153788 -0.03335283
000160 cb f2 2e 3e 00 5a 26 3e 07 33 c1 bd 01 9f 2f 3d
       0.17084806 0.1624527 -0.09433561 0.042876247
000170 88 de 39 3e e8 42 71 3e de 3e fa bc 60 ea 7c 3c
       0.18151295 0.23560679 -0.030547556 0.015436739
000180 58 43 a9 3c 2e 31 25 be 58 ca 65 3e 30 ae f2 3d
       0.020661995 -0.16132042 0.2244047 0.1184963
000190 58 6c ee bc df e5 36 bd d4 81 3a bd f1 99 57 3d
       -0.029104397 -0.044652816 -0.04553397 0.052637044
0001a0 28 ca df bc 59 1a ba bd 7b 89 d4 bc 3c e3 19 3b
       -0.027318075 -0.09087057 -0.025944462 0.002348139
0001b0 bc b9 ef 3d a9 c9 70 bc b2 c1 73 3e bd 69 18 3e
       0.11705348 -0.014696517 0.23804358 0.14884086
0001c0 55 e0 23 be eb 43 89 3d 04 1f ac 3a 44 94 3c 3e
       -0.16003545 0.067024074 0.0013131802 0.18415934
0001d0 51 2f a2 bc cd 54 12 be fb b2 a8 39 8f 40 65 3e
       -0.019797953 -0.14290161 0.00032176808 0.22387908
0001e0 f0 ef 97 bd 2d 6b 3d be 9e b9 94 bd 04 a0 b1 3d
       -0.07418811 -0.18497916 -0.07261966 0.08673099
0001f0 36 f8 29 3e 3b e9 01 3e dd f6 6e 3d 65 71 86 bc
       0.16598591 0.12686627 0.058340896 -0.016411493

hidden.0.weight f4 [128, 128]
000000 2b b7 ad 3d 7e 16 59 3d 58 07 48 3c 88 a1 36 bc
       0.08482202 0.052999966 0.012208782 -0.0111469105
000010 f9 87 55 bd 64 cc 8b bd 9a 4b ab bd a6 ee 3a 3d
       -0.052131627 -0.06826094 -0.08364029 0.04563775
000020 00 ed f4 3b ee 53 0a 3d 14 bb ef bc e0 d9 9f bc
       0.0074745417 0.033771448 -0.02926401 -0.01951307
000030 b2 1f 59 3d 93 d6 81 3d 10 e5 95 3b f9 73 89 3d
       0.053008743 0.06339755 0.0045744255 0.06711573
000040 bd 05 9d 3d 66 c5 a6 bd 44 30 92 bd be 9f 75 3d
       0.0766711 -0.081431195 -0.07138112 0.059966795
000050 66 78 21 3d 57 54 36 bd f1 10 54 bd 12 8b 28 bd
       0.03942146 -0.044514026 -0.05177397 -0.041148253
000060 d4 90 1f bd 1c 50 80 bd 94 e7 a1 bd c7 8c 81 3d
       -0.03895648 -0.0626528 -0.07905498 0.06325679
000070 9e cf 34 bd bd 4b 9d 3d 88 57 b8 3c 51 2e a9 3d
       -0.04414331 0.076804616 0.022502676 0.08260787
000080 06 51 2f 3d ea 36 75 3d a3 66 aa 3d 83 a0 03 bd
       0.04280188 0.059866823 0.08320358 -0.032135498
000090 88 f5 70 bd f4 89 24 bd 50 af 02 3d 96 be 65 3d
       -0.058827907 -0.040170625 0.031905472 0.05608996
0000a0 cc 61 25 bd 00 66 31 39 5e f8 5b 3d f9 65 90 3d
       -0.04037647 0.00016918033 0.05370366 0.070507
0000b0 00 86 dc 3a 06 d8 88 bd 8c 83 a4 bc 8c 89 41 bd
       0.0016824603 -0.06681828 -0.020082258 -0.047250316
0000c0 f0 cd c2 bc f9 6c 95 3d a7 27 86 3d ac 25 9b bd
       -0.02377984 0.072961755 0.06550532 -0.07575545
0000d0 2e e1 85 bd b0 37 06 3c d8 95 3c bc 28 dc 7b 3c
       -0.0653709 0.008191988 -0.011510335 0.015372314
0000e0 1b e1 90 3d 1e 0f 3c 3d 72 17 a3 bd cc 08 b0 bc
       0.070741855 0.045912854 -0.07963456 -0.02148857
0000f0 28 e4 b2 bd f3 2f 1e bd 3c f5 fc bc f1 9c 80 bd
       -0.087349236 -0.038619947 -0.030878656 -0.06279934
000100 ae ad 74 3d 70 d6 6c 3c 56 0c 2b 3d 6c 87 22 bd
       0.059735946 0.014455423 0.04175981 -0.03967993
000110 06 1e 70 3d 52 b8 9d bd ae 9c 6f 3d 83 e2 94 3d
       0.058622383 -0.07701172 0.05849903 0.07269766
000120 36 30 6d bd 36 88 73 bd 68 2d be bc 1a 66 7a bd
       -0.057907306 -0.059456073 -0.02321501 -0.061132528
000130 c4 98 97 bd 45 0e 95 bd 10 8b 6d bc 80 a9 c6 3b
       -0.074021846 -0.07278112 -0.014498487 0.0060626864
000140 3c a9 fe 3c 58 3c f5 3c 9d be 9e 3d 95 6c 81 3d
       0.031086557 0.029936 0.077512 0.063195385
000150 90 6d 3a bc 5a 5a 0a 3d e4 dc 74 bd 88 f4 53 3c
       -0.011378661 0.033777572 -0.05978097 0.012936719
000160 c3 73 25 bd 22 f2 6e 3d cb 2e a8 bd 62 c3 84 bd
       -0.040393602 0.058336385 -0.0821205 -0.06482579
000170 9a cb a6 bd 58 a6 37 3c 90 dc ce bb a0 44 6e 3b
       -0.08144303 0.011209093 -0.006312914 0.0036356822
000180 55 d3 af 3d 81 a1 51 bd 60 32 83 bd 93 05 88 3d
       0.0858523 -0.051179413 -0.06406093 0.06641688
000190 a0 29 be bb d7 d1 83 3d 60 6d 29 bd 70 3a c0 3c
       -0.005803302 0.06436508 -0.041364074 0.023465365
0001a0 ff 2e 80 3d bc ca 9d bd 36 17 9b bd 88 e8 b9 bc
       0.06258964 -0.07704684 -0.075727865 -0.022693887
0001b0 94 bc 93 3c 20 35 e3 3b c4 01 ae 3c 12 ec 03 bd
       0.018034257 0.006933823 0.021241076 -0.032207556
0001c0 14 1a 85 bc 68 75 b4 3c 33 88 84 3d 4f 96 30 bd
       -0.016247787 0.02202864 0.064712904 -0.043112095
0001d0 7c 1c db bc 3d eb 3f bd 94 89 58 bd 1b 93 8c 3d
       -0.02674698 -0.0468552 -0.05286558 0.06863996
0001e0 e0 50 95 bb 6a 9c 1d 3d b6 8b 0d 3d 40 2e da bb
       -0.00455676 0.038479246 0.034557067 -0.0066583455
0001f0 92 57 9d bd 38 68 6a bc 31 b8 85 3d 4d ed 3d bd
       -0.07682718 -0.014307074 0.06529272 -0.046368886
000200 a3 59 72 bd e7 aa 80 3d f4 c6 92 3c 20 19 62 3b
       -0.059167515 0.06282597 0.017917134 0.003449984
000210 5f 2b 81 3d c5 42 8e 3d 2f b6 a2 bd 70 7f e2 bb
       0.063071005 0.06946329 -0.07944905 -0.0069121644
000220 d6 7c 3b 3d 3c 50 93 bc 37 9e a8 3d 23 fa 07 bd
       0.04577335 -0.017982595 0.08233302 -0.033197533
000230 94 6b 8a bd 58 bd d9 3c 3e c1 08 bd a8 ee 68 bc
       -0.067588 0.026579544 -0.033387415 -0.014217056
000240 50 11 1d bc 38 fe f7 3c 8c c3 b4 bd c0 af c8 3b
       -0.009586647 0.030272588 -0.0882636 0.0061244667
000250 ae da 77 3d 60 7d b9 3b ce 3b b0 bd b6 b3 27 3d
       0.060511284 0.005660698 -0.08605157 0.04094287
000260 b2 72 6f 3d 74 0d 01 3d 90 bd 4a 3c 40 64 40 bb
       0.05845899 0.03150697 0.012374297 -0.0029356629
000270 b2 8e 0c bd e9 db b0 3d 86 b3 2c 3d a0 03 41 bd
       -0.034315772 0.086356945 0.042163394 -0.047122598
000280 70 97 a4 bb 00 15 ff ba e3 3b 30 bd a9 40 89 bd
       -0.0050229356 -0.0019461215 -0.043025862 -0.06701786
000290 e3 11 97 3d 5b cc aa 3d 60 27 2b 3c ce 18 00 bd
       0.073764585 0.08339759 0.010446399 -0.031273656
0002a0 f4 eb 0b 3d 18 82 59 3c 73 9e 61 bd d0 15 66 bc
       0.03416057 0.013275646 -0.05508275 -0.014043286
0002b0 50 eb 27 bc d4 6a 8c bc 06 b7 2e 3d d6 26 9c bd
       -0.010248974 -0.017140783 0.042655014 -0.07624595
0002c0 32 f4 1d 3d f4 ce 78 bd 4e c5 2b 3d dc 6b b8 3c
       0.03856296 -0.06074424 0.04193621 0.022512369
0002d0 2e 9e aa bd ce 14 6d 3d f1 b6 ad 3d 1e 89 4e 3d
       -0.08330952 0.05788117 0.08482159 0.050423734
0002e0 e0 24 83 bc 40 dd dc bc 48 f4 ce bc 35 77 8c bd
       -0.016008794 -0.026960969 -0.025262967 -0.068586744
0002f0 ec 63 a1 bd 38 48 9b 3c 9f 75 93 3d 0a a8 1d 3d
       -0.07880387 0.018955335 0.07200169 0.038490333
000300 e0 e8 ba 3c 1a e7 9f bd b4 8c 3b bd 5d 14 aa 3d
       0.022816122 -0.07807751 -0.04578848 0.08304665
000310 08 ee 0c 3d b2 12 ad bd 80 f2 d1 bc 23 5c b4 3d
       0.03440669 -0.084508315 -0.025628328 0.08806636
000320 56 5e 7e 3d c6 6b 9e bd f8 94 3f bc 66 b8 72 bd
       0.062101685 -0.077354 -0.011693232 -0.059257887
000330 40 0f b4 3b eb 08 58 bd 02 e6 b0 bd 72 0b 5e 3d
       0.005494982 -0.05274288 -0.086376205 0.054210134
000340 94 1b 7c bd 24 57 83 bd 80 2c 6f bc 22 68 48 bd
       -0.061549738 -0.06413105 -0.014598012 -0.048927434
000350 b4 59 dc 3c b0 15 1c 3c 68 0c 2f bc d2 fe 8f bd
       0.026898243 0.009526655 -0.01068411 -0.07031025
000360 50 82 da 3b c2 a4 87 bd 36 63 a3 bd 1c e9 bc bc
       0.0066683665 -0.06623222 -0.07977907 -0.023060374
000370 0c bf 86 bd 8b 8c 38 bd 38 60 ed 3c 80 fa d2 bc
       -0.06579408 -0.045055907 0.028976545 -0.025754213
000380 fe 5d 55 3d 38 de 35 3c 2e 59 58 3d de 8a 34 3d
       0.05209159 0.011100344 0.052819423 0.044077747
000390 42 24 95 bd 00 6e b5 b9 48 5c 90 bd c5 b3 83 3d
       -0.07282306 -0.00034604967 -0.07048851 0.06430773
0003a0 13 23 86 3d 10 2e 4b 3c 9e 0a 87 bd c0 89 82 bb
       0.065496586 0.012401119 -0.06593822 -0.0039837062
0003b0 d8 2e 74 bc 57 c6 4f bd 5c d6 83 bd ef d6 23 bd
       -0.014903747 -0.05072626 -0.0643737 -0.0399999
0003c0 38 bc 12 bc f6 49 59 3d 62 35 17 3d 16 13 35 3d
       -0.008956008 0.05304905 0.036916144 0.044207655
0003d0 55 06 24 bd 30 f7 d5 bc 1d 6d ae bd a0 d3 53 bc
       -0.0400451 -0.026118845 -0.085169055 -0.012928873
0003e0 7e 0e 5a 3d 33 bb b3 3d b0 4a 9c bd b0 74 8d 3b
       0.053236477 0.0877594 -0.07631433 0.0043168887
0003f0 d0 cb 7d bc 4e ef 08 bd 40 c3 ea 3a 32 e2 52 3d
       -0.015490487 -0.033431344 0.0017910972 0.051485248

hidden.0.bias f4 [128]
000000 00 1c cc bb 48 4a 15 3c 84 6b 3b 3d 43 1c 9c bc
       -0.006228924 0.009111948 0.04575683 -0.019056445
000010 64 ac a4 3d 0c eb cf bc 67 e9 cf bc 42 4d de 3c
       0.080406934 -0.025380634 -0.02537985 0.027136449
000020 34 df ff 3c 80 41 8e 3a 57 e7 a6 3d 86 87 3a bd
       0.031234361 0.0010853261 0.08149593 -0.0455394
000030 da f9 b0 3c 9e 7f a5 3d 16 cf 24 3d 34 1f 50 bd
       0.021603514 0.08080982 0.040236555 -0.050811008
000040 84 1f e6 3c b8 da 33 3c 94 ff ca bc 7b a8 8d 3d
       0.0280912 0.01097744 -0.024780072 0.06916901
000050 90 4a a4 bb c9 9e 80 3d 8f b3 45 3d 3e 88 62 3d
       -0.0050137714 0.06280286 0.048266944 0.055305712
000060 cc cf 18 bc be 6f 88 bc 42 2d 5c 3d 50 51 8f bd
       -0.009326886 -0.016654845 0.0537541 -0.06997931
000070 a0 61 30 bc 6c fa 36 bc b3 40 aa bd c1 41 b3 bd
       -0.010765463 -0.011168104 -0.08313122 -0.08752776
000080 76 6c 22 3c 8f 1b 62 3b 0b 2d a0 bd 24 6d b2 bd
       0.009913554 0.003450129 -0.07821091 -0.08712223
000090 ac 7d ad 3d c2 63 88 3d b1 25 43 3d 76 b8 26 3d
       0.08471236 0.06659652 0.047643367 0.04070326
0000a0 e4 4a 6d 3d a9 ba 8a bc 64 dc bc 3d 04 dc 95 bb
       0.05793275 -0.01693471 0.09221724 -0.004573347
0000b0 15 f1 00 bd 1a b7 78 bd d4 a6 86 bb 0f 00 47 3d
       -0.031479914 -0.060721494 -0.004109243 0.04858404
0000c0 98 69 33 3c 05 c5 56 bd 82 34 a7 bd 60 08 96 3d
       0.0109504685 -0.052433986 -0.08164312 0.07325816
0000d0 1d c7 b1 3d 21 05 a1 3d d6 e8 d3 3d 5a 68 86 bd
       0.08680556 0.078623064 0.10347144 -0.06562872
0000e0 fe 11 6f 3d fb 0b a6 3d 17 b5 09 bd a1 ed 05 bd
       0.058366768 0.08107754 -0.033619966 -0.032697324
0000f0 10 f8 a2 bd 60 ab e1 3c e0 ce 18 3c 37 51 5b bd
       -0.079574704 0.027547538 0.009326667 -0.05354425
000100 d1 0d 7d 3d 59 f7 35 bd c1 0f a6 3d 84 16 d6 3d
       0.061780754 -0.044425342 0.081084736 0.10453513
000110 05 f6 84 bc 3d 48 56 3d d0 a9 88 3c 81 db eb 3d
       -0.016230593 0.052314986 0.016682535 0.115164764
000120 25 9d 11 bd 5b e6 d9 bc 48 b6 05 bc 72 e2 e5 bb
       -0.035550255 -0.0265991 -0.008161135 -0.00701552
000130 1a c0 a3 bd e1 ce 9b 3d 25 ce 94 bd 4d 73 a1 3d
       -0.07995625 0.076078184 -0.072658814 0.0788332
000140 5b de b9 3d d9 ae 06 bd 63 4a 1f 3e 34 de bb 3c
       0.09075614 -0.03288159 0.1555572 0.022933103
000150 6d d2 bb 3d 4f 6f 97 bc 58 93 c3 3d ea ab 7a 3d
       0.09170995 -0.018485693 0.09549588 0.061199106
000160 03 52 a1 bd 46 a5 5b bd 7e 25 8d 3d 50 46 61 bc
       -0.078769706 -0.053624414 0.06891917 -0.013749674
000170 c8 6b 30 bd 05 c5 04 bd 0e 63 a4 bd 68 81 a5 3d
       -0.04307154 -0.032414455 -0.08026706 0.08081323
000180 30 e7 ef 3c 70 b1 5f 3c ea 86 1d 3d 1a a3 6e 3d
       0.029285043 0.013653144 0.038458742 0.058261015
000190 50 4f 56 bd dc 06 e5 3d f9 cd 02 3d 8f 01 96 3c
       -0.052321732 0.11182949 0.031934712 0.01831129
0001a0 9b 8e 88 bc 93 03 a6 bc d2 52 a7 bd 4f a6 c6 3b
       -0.016669562 -0.020265376 -0.081700936 0.006062306
0001b0 1b 7f a9 bd e1 5c d9 3c de b5 70 bd 33 f1 68 bd
       -0.082761966 0.026533546 -0.058767192 -0.05687065
0001c0 32 3b 59 3d 41 81 3d 3d d1 33 85 3d 9d 72 af 3d
       0.05303497 0.046265844 0.06504024 0.085667826
0001d0 da 47 86 bd 81 54 74 bd 6b c2 34 3d 28 49 2e 3c
       -0.06556673 -0.0596509 0.044130724 0.010637559
0001e0 25 0e c8 3c ae a9 3b 3d ce 18 2c 3d 5e 62 2d 3d
       0.024420807 0.045816116 0.042015843 0.04233014
0001f0 44 94 ee bc a2 33 64 3d 53 74 3a bd e0 3e 0d bd
       -0.029123433 0.055713303 -0.04552109 -0.03448379

hidden.1.weight f4 [128, 128]
000000 c0 19 8f 3a 8c 44 ce 3c c0 33 8a bd fe 54 0b 3d
       0.0010917708 0.02517917 -0.06748152 0.0340166
000010 c0 fd 11 3d f8 46 8c bc 2f 2c b0 3d 08 99 76 bd
       0.035642385 -0.017123684 0.08602177 -0.060204536
000020 98 df df 3c 28 bb 62 3c d8 e7 19 bd 51 de 31 bd
       0.027328297 0.013838567 -0.03757462 -0.043424908
000030 03 00 ab 3d 8e 19 9a bd ec af 82 3c 1f c9 62 bd
       0.083496116 -0.075244054 0.015953027 -0.055367585
000040 4a e2 4b bd 76 cc 6e bd 83 37 6f bd 75 d3 ae 3d
       -0.049776353 -0.058300458 -0.05840255 0.08536426
000050 82 2c 33 3d 22 70 17 3d 4c 97 37 bd de 3b 6e 3d
       0.043743618 0.036972173 -0.044822022 0.058162563
000060 d7 f4 b1 bd 00 21 e3 39 c4 7d b8 3c 96 44 9a bd
       -0.086892776 0.000433214 0.022520907 -0.07532613
000070 04 bc 98 bc a2 09 f9 bc 56 cf 27 3d 81 d7 26 bd
       -0.01864434 -0.030400101 0.040969215 -0.040732864
000080 83 cf 9e 3d 8b f9 97 3d 0f 98 53 bd 80 c3 06 3b
       0.077544235 0.074206434 -0.051658686 0.0020563304
000090 12 2b 69 3d 40 f6 2d bb 58 b5 95 3c 77 58 9b 3d
       0.05692584 -0.0026544482 0.018274948 0.07585233
0000a0 80 70 b8 3c e9 a6 b3 3d 96 48 aa bd 60 bb 3e bb
       0.022514582 0.0877207 -0.08314626 -0.0029103383
0000b0 e0 cd 14 bc e6 2a 71 3d 98 ed 70 bc 8a ae 7c 3d
       -0.009082288 0.0588788 -0.014705084 0.06168989
0000c0 e3 b5 23 bd 50 06 e6 3c c2 71 37 3d 95 bf a4 bd
       -0.039968383 0.028079182 0.044786222 -0.08044354
0000d0 b1 56 56 bd 00 73 cb bb 1f 2f 1a bd 60 28 52 bd
       -0.05232877 -0.0062087774 -0.037642594 -0.051308036
0000e0 96 d9 4d 3d 14 d2 f7 3c 14 dc 8e bd f6 55 94 bd
       0.050256334 0.03025154 -0.0697557 -0.07242958
0000f0 e6 e0 9e bd e3 9a 0b bd fe 16 51 3d c6 e8 6e 3d
       -0.0775774 -0.03408326 0.051047318 0.05832746
000100 00 b6 ff bb a6 43 ac bd 1e 75 8c bd c9 57 49 bd
       -0.0078036785 -0.084113404 -0.06858276 -0.049155984
000110 65 27 75 bd 7d ce 4e bd 17 fe 21 bd ac a8 d5 bc
       -0.059852023 -0.05048989 -0.03954896 -0.026081406
000120 9f f4 4d bd b2 c2 7e 3d 68 2e 67 bc 2c 7f a0 3c
       -0.050282117 0.062197395 -0.014110185 0.01959189
000130 2c 12 cd bc f8 ff db bc 00 c5 24 3c c5 0d a3 3d
       -0.02503308 -0.026855454 0.010056734 0.07961611
000140 50 3d c2 bc 56 17 7a 3d f4 a4 ca 3c 6e c8 94 bd
       -0.023710877 0.06105741 0.024736859 -0.072647914
000150 75 09 a2 3d 24 c0 d9 bc 1a 05 66 3d 31 c8 54 bd
       0.0791196 -0.026580878 0.05615721 -0.05194873
000160 52 a2 20 3d 9c ec a3 bd 00 fa 9e 39 4a 00 0b 3d
       0.0392173 -0.08004114 0.00030322373 0.033935823
000170 0d aa 8f 3d 06 1f 1b 3d 0a 29 25 3d 98 b5 57 bc
       0.070148565 0.037871383 0.04032234 -0.013165854
000180 16 ab 13 3d 25 93 46 bd 9a 48 6a 3d af cf 85 bd
       0.036051832 -0.04848017 0.057198144 -0.06533753
000190 62 75 78 3d d0 82 8e 3b 50 18 ee bc f0 fd 8f 3c
       0.06065882 0.00434909 -0.029064327 0.017577142
0001a0 53 39 93 3d 50 33 12 3d 50 da 01 3d 88 b7 aa bc
       0.07188668 0.035693467 0.03170234 -0.020839468
0001b0 bc 9c b4 bc 90 63 96 bc 24 70 f1 3c 2a 01 96 bd
       -0.022047393 -0.018358022 0.029472418 -0.07324441
0001c0 24 f1 f4 3c 04 92 9b bc 99 04 a0 3d 9d f3 ab 3d
       0.029900141 -0.018990524 0.07813377 0.08396075
0001d0 ec 25 9f 3c 6e 88 19 bd 59 2e 8b bd fb 14 9f 3d
       0.019427262 -0.037483625 -0.067959495 0.077676736
0001e0 e8 95 3a bc 55 b1 a4 3d 18 87 f2 bc ae dd ae bd
       -0.0113882795 0.08041636 -0.029605433 -0.08538376
0001f0 ee 1a 42 3d 95 66 8c 3d fe e3 f5 bc f0 6b b2 bd
       0.047388963 0.068555035 -0.030015942 -0.08711994
000200 d4 43 f6 3c 4a 5c 5e 3d 1d ae 0c bd 74 45 aa bd
       0.03006164 0.054287232 -0.034345735 -0.083140284
000210 7a 6a 35 bd 64 f5 d9 bc db 7d 31 3c e2 54 b9 bd
       -0.044290997 -0.02660627 0.010833229 -0.09049393
000220 04 dc a1 bd 8f 9d 89 bd 23 ae 60 3d 70 8f ad bd
       -0.07903293 -0.06719505 0.05485357 -0.08474624
000230 d1 c7 10 bd d3 c0 a2 3b ef c3 1c bd 08 28 4d 3c
       -0.03534681 0.004966834 -0.038272794 0.012521751
000240 00 f1 a1 3a 28 27 4d 3c 02 4f 86 bd 71 88 a9 bd
       0.0012355149 0.012521543 -0.06558038 -0.08277977
000250 3e 9d 44 bd 69 6d 1d bc aa a3 9e 3d 5f 4e 72 bc
       -0.04800152 -0.009608605 0.0774606 -0.014789193
000260 53 a3 91 3d ac af a2 bd 11 bb c0 3d 64 e1 65 bd
       0.0711123 -0.07943663 0.0941068 -0.056123152
000270 2d 30 8a 3d 2f 4e b3 3c 52 7f 97 bd 86 5d 91 bd
       0.0674747 0.021887867 -0.07397331 -0.07097916
000280 c3 bd 88 bb 92 5c 3a 3d 9e b1 31 3d 82 b7 02 bd
       -0.004173012 0.04549844 0.04338228 -0.031913288
000290 7a 59 d1 bd 20 89 c2 bb 46 5e 92 bd 21 76 9a 3d
       -0.102221444 -0.0059367567 -0.071468875 0.075420626
0002a0 6f f4 c6 3d 9d 6e f4 bb 86 22 c0 3d a6 07 2c bd
       0.09714591 -0.007459475 0.09381585 -0.04199948
0002b0 38 16 0b bc 37 dd da 3c 29 86 b6 bc 6a eb ca bc
       -0.008489184 0.026716812 -0.02228077 -0.024770457
0002c0 60 f9 8b bd 73 16 35 bd 84 a2 86 bd f4 eb ac bc
       -0.06834674 -0.044210862 -0.06573966 -0.021108605
0002d0 78 ab e8 bc 1f e7 95 3d e5 23 96 bd 3c bb 14 bd
       -0.028402075 0.073194735 -0.07331065 -0.036311373
0002e0 e7 6b 13 3d 7e 1a 30 3d c8 51 02 bc 2b 0c c7 3c
       0.035991576 0.042994015 -0.0079540685 0.024297794
0002f0 48 4c 89 bc 98 1c 7a bd 6d 7a 9a 3d 2f 45 6b bd
       -0.016760007 -0.061062425 0.07542882 -0.057439025
000300 a2 96 8e 3d 12 e6 a9 3d 74 fa 90 3d bc 5e e4 3d
       0.06962325 0.082958356 0.0707902 0.11150882
000310 5e 5f 4c ba 31 42 6d 3d 58 8c 27 bd 25 ab 8b ba
       -0.0007796193 0.057924453 -0.040905327 -0.0010655863
000320 bf 21 a3 3d c1 98 83 bd 68 e8 b3 bd 15 76 8d 3d
       0.07965421 -0.0642562 -0.08784562 0.06907288
000330 9a 31 2e 3d 73 c3 46 bc 59 4b 34 3c 3f 20 9b 3d
       0.042527772 -0.01213156 0.011004292 0.0757451
000340 41 71 a0 3c 00 f0 ee ba d7 95 1e 3d 60 67 4d 3c
       0.019585254 -0.0018229485 0.038717117 0.012536854
000350 b4 b0 2a 3d 55 7e b4 3d f3 fd 98 3d 74 69 9d 3c
       0.041672423 0.088131584 0.07470312 0.019215323
000360 95 37 4e 3d 54 3e 02 bd 1a 4d c5 3d 34 81 87 bd
       0.050345976 -0.031797722 0.096338466 -0.066164404
000370 90 f4 87 3d 38 38 17 bd f5 cb 8c 3d bf d1 84 bc
       0.066384435 -0.03691885 0.06874839 -0.016213296
000380 94 e9 89 3c 70 95 41 bc b7 5f 9b 3d 79 96 88 3d
       0.016835012 -0.011815414 0.075866155 0.066693254
000390 87 0a b4 bc cb e9 da 3d a1 65 82 bc f9 eb 9a bd
       -0.021977676 0.10689124 -0.015917601 -0.075645395
0003a0 77 5b f9 3b 18 33 93 bd 0a 3d 58 3d 47 80 8c 3c
       0.0076097804 -0.0718748 0.052792586 0.017151011
0003b0 7c 0b 2b bd 13 85 d2 3d 6c 2e cb 3d b6 67 65 3d
       -0.041759 0.10279288 0.09920964 0.05600711
0003c0 1f b1 82 bc f7 cf d6 3c 9e 9d 9e 3d fa a7 90 3d
       -0.015953599 0.026222212 0.07744907 0.07063289
0003d0 1e 53 8e 3b 8f b7 a7 3d 1c a7 df 3d 51 d2 e4 3d
       0.0043434044 0.08189308 0.109205455 0.11172927
0003e0 7b 99 95 3d a3 9d 62 bd d6 6d f3 3b 60 1f 82 bc
       0.07304665 -0.055326115 0.007428865 -0.015884101
0003f0 42 17 c1 3d f0 c1 e5 3c 80 5b b8 bb f3 e7 88 3d
       0.09428264 0.028046578 -0.005626142 0.06684866

hidden.1.bias f4 [128]
000000 c0 66 d3 3a e8 76 c7 3d e1 d2 2d 3c a6 51 4c 3d
       0.0016128644 0.097394764 0.0106093595 0.049882554
000010 d4 98 b9 3c d0 19 0e bc 1d df c3 bc 17 55 6c bd
       0.022655882 -0.008673146 -0.0239101 -0.057698335
000020 e4 db 0f bd 7a cb 92 bd 89 bd a9 bd a9 6a ba bd
       -0.035121813 -0.07167716 -0.08288104 -0.09102375
000030 9d 83 78 3c 0d ef 83 bd 47 41 ae bc 3e a8 cf bc
       0.015168098 -0.0644208 -0.021271361 -0.025348779
000040 38 57 fd 3c f9 f4 aa bd aa 0a 81 3c 2e 33 6b bd
       0.030925378 -0.08347506 0.015752155 -0.057421856
000050 f0 20 b0 bd 67 2c 49 bd b0 2c 83 bb ea bc ba 3b
       -0.08600032 -0.04911461 -0.00400313 0.00569879
000060 d6 9a c0 bb 4f 16 63 bd 4c 41 1a bd 86 3b ab 3d
       -0.005877833 -0.055441197 -0.03765993 0.083609626
000070 90 77 54 3d 4b 97 1b 3e 42 00 92 3d 0c fe 6c 3c
       0.051871836 0.15194432 0.071289554 0.014464866
000080 f4 91 29 bd 05 ab 3e bd 52 a2 04 3e 6c f9 6e bd
       -0.041398957 -0.046549816 0.12952545 -0.058343336
000090 38 f4 2a bd 8c 05 eb 3d 63 33 8a 3d 06 81 94 3d
       -0.04173681 0.11475667 0.067480825 0.07251172
0000a0 a8 30 44 3c 31 26 a1 bd 88 39 ab bd 05 89 10 bb
       0.011974491 -0.078686126 -0.083605826 -0.0022054326
0000b0 3e f3 ba bc 78 e3 f8 3c 5a 44 0d bd e4 5f 8b 3a
       -0.022821065 0.030381903 -0.034489013 0.0010633436
0000c0 9a 1a 05 bd b0 46 88 bd a0 6b e1 3d f3 bf 04 3e
       -0.032496072 -0.066541076 0.11006856 0.12963848
0000d0 40 c4 ee bc 6a 33 12 bd a2 0c f5 bc 87 9f 5a 3d
       -0.029146314 -0.035693564 -0.02991325 0.053374793
0000e0 46 fe 36 3d a7 a4 9f 3d ea b1 05 3d b4 35 2c 3d
       0.044676088 0.07795077 0.032640375 0.042043403
0000f0 80 6a f3 ba 8c 6e 61 3d 03 e5 40 bd eb 35 cb 3c
       -0.0018571168 0.055037066 -0.047093403 0.024805984
000100 26 48 1b 3b b8 5a 03 3c 5c 75 e7 ba 95 6a e7 3d
       0.0023694127 0.0080172345 -0.0017658877 0.11299626
000110 67 56 91 3d 1f c5 cc 3c f0 d6 85 3b 37 68 02 3d
       0.07096558 0.024996338 0.0040844604 0.03183767
000120 ae 44 35 3d fa eb 1c 3d ed 1f 93 3d 50 14 dd bb
       0.04425495 0.038310982 0.07183824 -0.006746806
000130 bd ae af bc eb f4 a1 bd 48 5f 9e bd d8 e6 c4 3c
       -0.021445626 -0.079080425 -0.07733017 0.024035856
000140 74 4f c1 3d 90 05 da 3d 00 ae f3 3b 1a 62 9d 3d
       0.094389826 0.10645592 0.007436514 0.07684727
000150 80 08 79 bc b3 f8 ac bb 2e 73 79 3d f4 ec 04 3d
       -0.01519978 -0.0052786707 0.06090086 0.03245254
000160 d0 55 cc 3c 81 f3 27 bd 16 c5 93 bd 96 11 98 3d
       0.024943262 -0.041003708 -0.072153255 0.07425229
000170 72 d7 74 bd 7b 93 6f 3c bf 93 a0 bd 98 3f 90 bd
       -0.059775777 0.014622564 -0.0784068 -0.070433795
000180 9a 12 26 3d d7 19 89 3d 19 d5 e6 bc 05 ef 51 bd
       0.040545084 0.06694382 -0.028177785 -0.051253337
000190 df 50 7a ba 7b 14 44 bd 39 de b3 3a 3c 02 9b bd
       -0.0009548794 -0.047871094 0.0013722844 -0.075687855
0001a0 2b 68 4f 3d 70 0a ea bc f6 17 80 bd 82 b7 74 bd
       0.05063645 -0.02856943 -0.0625457 -0.05974532
0001b0 29 96 b6 bd f4 a3 5c bd b3 c1 d2 3c d3 60 83 3c
       -0.089153595 -0.053867295 0.025727129 0.01603738
0001c0 9b a4 78 3d 83 35 32 bd a9 ce 1d 3e 1c c3 28 3d
       0.060703855 -0.043508064 0.15410866 0.041201696
0001d0 df b8 22 3d 8b 5e ed bc d0 c7 5f bd 91 d1 83 bd
       0.039727088 -0.028975746 -0.054633915 -0.06436456
0001e0 46 dd b4 bd 18 7c 84 3d 78 6c 09 bc 8a dc c8 bd
       -0.08831267 0.064689815 -0.008387677 -0.098076895
0001f0 47 29 da 3d 7c 8c 83 bd 20 d7 d9 bb 1b dc 18 3d
       0.10652404 -0.0642328 -0.0066479594 0.037319284

v.weight f4 [1, 128]
000000 d0 8a 77 bc 4a 9e 94 be 48 35 d3 bd 50 ae 9a be
       -0.015108779 -0.29027015 -0.10312897 -0.30211115
000010 3f a3 83 3d a4 45 f9 3c b5 78 d0 3d 2e 8d fb bd
       0.06427621 0.030428715 0.10179273 -0.12282787
000020 51 a0 3a ba e4 14 66 bd 20 05 3b 3c 23 f5 94 3d
       -0.0007119226 -0.056172267 0.011414796 0.072733186
000030 27 b0 81 bd d7 74 0d 3d c4 86 a7 bb 61 e6 b4 bd
       -0.063324265 0.034535255 -0.005112501 -0.08833004
000040 d8 99 7a 3c 60 c6 b2 bd 2e 22 a8 be 19 7b ab 3d
       0.015295468 -0.08729243 -0.32838577 0.083730884
000050 ea 67 62 3d 13 df 99 bd 08 3e 10 bc b8 da 95 3d
       0.05527488 -0.07513251 -0.008803852 0.07317108
000060 36 72 12 be 99 93 8d 3d e8 e1 1e bd e6 8c 39 be
       -0.1430138 0.06912918 -0.03878966 -0.18120155
000070 69 03 94 3d cf 35 a6 be 73 ac 29 bd 2f 6a b6 be
       0.07227213 -0.32462928 -0.041424226 -0.35627887
000080 66 9b 66 be ba 00 a5 bd dc 87 82 be c4 89 9d 3d
       -0.22520217 -0.08056779 -0.25494277 0.07692292
000090 00 31 be bc c0 d0 51 be ac ce 81 be 7d 15 d5 bd
       -0.023216724 -0.20489788 -0.2535299 -0.10404489
0000a0 52 c5 f9 bc 49 4e 05 3e 44 a2 6f bd b0 a3 54 bd
       -0.030489597 0.13018145 -0.058504358 -0.051913917
0000b0 05 af e0 bd 0c 2b 46 be 61 5a 93 be 38 3b b3 3d
       -0.10970882 -0.19352359 -0.2877989 0.087515295
0000c0 e5 d6 4a be db 06 a4 bd 07 d0 42 be a4 be dc be
       -0.19808538 -0.0800912 -0.19024669 -0.43114197
0000d0 40 5c 5d bc d2 60 18 3d 3e cd b1 bd 52 2d 5a 3d
       -0.013510764 0.03720171 -0.08681725 0.053265877
0000e0 55 1e d5 bd 55 28 56 be 20 16 9e bc 81 45 d8 bd
       -0.10406176 -0.20913823 -0.01929766 -0.10560132
0000f0 28 1b 12 3c d7 6f 84 3d 31 d8 ac 3d 6d 25 94 be
       0.008917607 0.06466644 0.08439673 -0.28934804
000100 9f 4d 2b 3d 25 44 9f 3d 02 5b 5c 3d 1a f6 7a be
       0.041822072 0.077766694 0.05379773 -0.24507943
000110 42 04 38 bd 5b b3 10 be d7 8c a2 3d 12 d1 f3 bc
       -0.044925936 -0.14130919 0.07937019 -0.029762778
000120 70 47 46 bc 34 e9 bf bc 9c 65 9d bd 6e 83 5f 3d
       -0.012101993 -0.02342663 -0.07685396 0.0545687
000130 5c 4c f9 3d b6 40 63 bd ca b4 31 3d f9 5d 95 3d
       0.121727675 -0.055481635 0.043385305 0.072933145
000140 9f fb f6 bd c1 36 b8 be cd ff 89 3d bd ed 0b 3d
       -0.12059712 -0.35979274 0.06738243 0.03416227
000150 97 36 8c be cf 77 f9 bb 50 88 4c be 12 18 ed 3c
       -0.273854 -0.0076131593 -0.19973874 0.028942142
000160 38 4a 58 be bf 94 93 3d 0d 0d 9c 3d 3a ec 32 bd
       -0.21122062 0.072061054 0.07619677 -0.043682314
000170 28 0f 8a bc 5b 65 03 be 8e 60 ff 3c a0 38 21 3b
       -0.01685293 -0.12831633 0.03117397 0.0024600402
000180 9a e0 42 bd 56 a4 73 be 80 ba ac 3d aa b1 44 3d
       -0.047577478 -0.23793158 0.084340096 0.048020996
000190 57 13 00 3e b6 33 1f bd 0d 40 ee bd fc 1b c5 bc
       0.12507378 -0.038867675 -0.116333105 -0.024061196
0001a0 59 33 97 be 95 1f 8a bd d2 9f 72 3d 77 19 03 3d
       -0.29531363 -0.06744305 0.059234448 0.032006707
0001b0 8b 8a 90 bd 60 7e 6e 3c d8 27 5a 3d 4d 3f c0 3d
       -0.07057675 0.014556497 0.053260654 0.09387074
0001c0 60 d0 4f be d8 ec 6a bc f9 57 c2 be a0 bb 0f bd
       -0.20294333 -0.0143386945 -0.37957743 -0.035091043
0001d0 8c 59 1e 3d 19 f6 c3 bd a8 50 da bc 94 cf 59 bd
       0.038659617 -0.09568424 -0.026649788 -0.053176478
0001e0 74 13 ae bd 07 32 99 3d f0 4e 2e bc 66 ff 02 3d
       -0.08499804 0.07480245 -0.010638937 0.03198185
0001f0 97 be 9d be 36 25 ca bb 31 f8 84 3d 75 a8 5d be
       -0.3080947 -0.0061689867 0.06492651 -0.21646293

adv.weight f4 [24, 128]
000000 dc 80 8c bd b8 c6 9b 3d 0b fb 77 bd af c9 07 bd
       -0.068605155 0.07606262 -0.060542148 -0.033151325
000010 63 23 37 3d 44 8f 15 3d bf d5 8d bd bb dc fd 3c
       0.04471148 0.036513582 -0.069255345 0.030989042
000020 b3 ea 0c 3d d9 ee 8e bd 1e 05 a7 bd b9 17 88 3d
       0.034403514 -0.0697915 -0.08155273 0.0664515
000030 40 95 56 3d c2 91 b1 3d 84 43 50 3a fe a5 84 bd
       0.05238843 0.08670379 0.0007944631 -0.06476973
000040 ac d8 cd bc 31 91 53 3d a8 32 9f 3d 39 ae 8a 3d
       -0.025127731 0.051652137 0.07773334 0.067715116
000050 34 83 83 bd 44 1d f0 ba 4e 2f 46 3d ac c1 8a bd
       -0.064215094 -0.0018319269 0.048384957 -0.06775221
000060 de 31 a5 3d 00 50 3f b8 31 c7 50 bd 99 5c ab 3c
       0.08066152 -4.5612454e-05 -0.050971214 0.020918177
000070 f9 0a 91 3d 41 4f db bc a8 b5 01 3d d7 1f 7d 3c
       0.07082171 -0.02677119 0.03166738 0.015449486
000080 e6 b8 93 3c ed ee 42 3a 31 01 94 bc 0c 13 0d bd
       0.018032502 0.00074361154 -0.018066974 -0.034441993
000090 a3 45 aa bd 43 20 b0 3d ec 56 47 bd 8c 2c 15 3d
       -0.083140634 0.085999034 -0.04866688 0.036419436
0000a0 69 28 a8 3d 26 2e 60 bd 28 b0 57 bd 39 52 53 bd
       0.082108326 -0.05473151 -0.05265823 -0.051592086
0000b0 ea 1f 9f 3d e3 33 23 bd b1 51 21 3d 4e cb 00 bd
       0.07769759 -0.039844405 0.039384548 -0.031443886
0000c0 e2 7c a0 bc e6 19 8e bd 2c 52 a7 bd 80 20 ab bd
       -0.019590799 -0.069385335 -0.0816997 -0.08355808
0000d0 34 37 75 bd 54 de 0b 3d a8 e0 8d bd b8 22 78 bc
       -0.0598671 0.034147575 -0.069276154 -0.015144996
0000e0 a5 e4 4e bc cd e9 6b 3c b0 99 1f bc 15 04 95 3d
       -0.012627755 0.014399004 -0.009741232 0.07276169
0000f0 50 5d a4 3c 7a 94 81 3d 08 2d 7a bc d5 ce 97 bd
       0.020064026 0.06327148 -0.015269525 -0.07412497
000100 b2 7e 9c 3c 60 e9 1f 3b ce 4f 78 bc d2 ba a5 bb
       0.019103382 0.0024400577 -0.015155746 -0.005057671
000110 94 44 14 bd 2e 32 3b 3c 86 ab 16 bd 38 e1 7d 3d
       -0.036198214 0.011425538 -0.03678467 0.061982363
000120 36 7d 50 3d c4 1b ef 3c 7c 11 43 3b be 92 2a 3d
       0.05090066 0.029188044 0.002976506 0.04164385
000130 0e a0 9c 3d 01 7a b5 3d 7d 60 1a 3d cf 25 9b 3d
       0.076477155 0.08861161 0.037689675 0.07575571
000140 86 69 81 bd 3f cc ac 3d bd d8 9c bd e0 5b af bd
       -0.06318955 0.08437394 -0.07658527 -0.08562446
000150 1e 34 88 bc b9 61 3f bd 78 21 15 3c db 1b b4 bd
       -0.016626414 -0.046724055 0.009102218 -0.087943755
000160 c0 38 61 3d 3a ed 56 3d 06 8d c8 bc 99 c8 ad 3d
       0.05498576 0.05247233 -0.024481308 0.084855266
000170 e3 66 32 bd c1 0e f7 bb 3f 91 15 3d 03 07 97 3d
       -0.04355515 -0.0075396006 0.03651547 0.07374384
000180 5e 8a 20 3d 33 e4 15 3c 0c 4c 44 3d 7c a2 34 bd
       0.039194457 0.009148645 0.047924086 -0.04410027
000190 38 52 87 ba fe a9 60 3d 3a d6 53 bd 86 2e 2a 3d
       -0.0010324186 0.054849617 -0.051717974 0.041548274
0001a0 d1 31 b0 bb 40 bb c5 bc 74 85 ac bc ff 55 4a bc
       -0.0053770323 -0.02413714 -0.02105973 -0.012349605
0001b0 92 3b 9b 3d 04 08 23 bd 0c 88 86 bd 15 dd 9f 3d
       0.075797215 -0.039802566 -0.06568918 0.0780584
0001c0 e5 9a 35 3d c8 0d a1 3c 89 15 a4 bd fa 55 a9 3c
       0.044337172 0.019659892 -0.0801192 0.02067088
0001d0 06 5d 23 3d 42 dc 32 bc fc 60 86 bc fd 92 99 bd
       0.039883636 -0.010916771 -0.016403668 -0.07498739
0001e0 81 fc 91 3d cb 32 b2 bd 00 41 de bb a0 bf 65 3d
       0.071282394 -0.08701094 -0.006782651 0.05609095
0001f0 72 37 03 bd e5 14 9d bd 6e d9 11 3d 3e 3d 9a 3d
       -0.0320353 -0.07670001 0.035607748 0.07531212
000200 fe 3c 39 3d ff fe 29 3d 30 e5 95 3d 41 ab 86 3d
       0.045224182 0.04150295 0.07319105 0.06575633
000210 62 e3 a5 3d 44 eb bf bc f0 4e bd bc e4 3b ff 3c
       0.081000105 -0.023427613 -0.02310893 0.031156488
000220 02 b2 15 3c 8a ed 16 3d cd d9 b3 3d 80 7f 91 bd
       0.009136679 0.03684763 0.087817766 -0.07104397
000230 8e 55 83 3d aa e3 85 bd 3a e1 53 bc f9 de 46 bc
       0.06412803 -0.06537564 -0.012932116 -0.012138122
000240 40 30 41 3c 5c ac 92 bd 86 a1 25 bd 48 74 07 bc
       0.011791289 -0.07161781 -0.040437244 -0.00826747
000250 66 22 73 bd a8 97 4a bd 70 c9 a8 bb 46 fa 57 bd
       -0.059358977 -0.049461037 -0.0051509663 -0.052728914
000260 ac ca b0 bd 34 83 d9 3c ed 9e af bc f2 19 a1 bd
       -0.086324066 0.02655182 -0.021438086 -0.07866277
000270 7d e9 13 3d 2d 7e 81 3c 83 a9 05 3d ea 6c 16 3c
       0.036111344 0.015807236 0.032632362 0.009181241
000280 9b c8 2b bc c9 f6 d3 3c b8 e4 14 3c 33 96 1d bd
       -0.01048484 0.025874512 0.009087734 -0.03847332
000290 aa c0 26 bd b0 fc 93 bd 28 c0 c4 bc 14 54 47 bd
       -0.040711083 -0.07225931 -0.024017408 -0.048664168
0002a0 2a 7f 06 3d 9d 55 b1 bd 20 c8 7d 3c d4 19 63 bd
       0.032836117 -0.086589076 0.015489608 -0.055444553
0002b0 35 6c 0d 3c 83 8b a5 bd 9f 46 c6 b9 34 0a af bd
       0.008631756 -0.080832504 -0.0003781812 -0.08546868
0002c0 cf 99 2d bd be 41 e3 bc 37 9b 4a 3d f7 70 ba 3c
       -0.04238301 -0.02774131 0.04946443 0.022758944
0002d0 2b d0 92 bd c0 cc bd bb 5e 37 8b 3d 48 98 af bd
       -0.07168611 -0.0057922304 0.0679767 -0.08573967
0002e0 85 a7 9c 3d 3b f2 a5 bb ab 90 9a bd b1 bb 2b 3b
       0.07649139 -0.0050642765 -0.075471245 0.0026204402
0002f0 7e 54 1e 3d b1 12 0b bd 0b 81 85 3d 81 82 ea 3c
       0.038654797 -0.033953372 0.065187536 0.028626682
000300 09 2a 82 bd 37 00 84 3d 19 fc 63 3d 03 17 94 3d
       -0.06355674 0.064453535 0.05566034 0.07230952
000310 d0 17 f2 bc d4 49 40 3c 99 14 92 3d 4f 01 29 bd
       -0.02955237 0.011736352 0.07132835 -0.041261014
000320 08 c9 15 bd ea 1c 1d 3d 60 b4 59 3d 6e 82 55 3d
       -0.03656867 0.038357653 0.053150535 0.05212634
000330 77 18 84 bc 93 65 67 3d 7d 66 4a bd 1a ba 96 bd
       -0.016124947 0.056493353 -0.049414147 -0.07359715
000340 52 af a3 bd a5 a2 17 bd 57 76 1c bd 89 c4 30 3d
       -0.07992424 -0.037020344 -0.038198795 0.04315618
000350 65 44 46 3d c1 c6 ab bd 53 e8 95 3d 84 ea 6b bd
       0.04840507 -0.08387519 0.07319703 -0.0575967
000360 41 02 aa bc d7 42 8c 3d a5 38 16 bd f5 d1 7f bc
       -0.020753028 0.06848686 -0.036675114 -0.0156140225
000370 b6 f9 30 3d 09 65 7f 3d 89 31 8d 3d 38 52 53 bd
       0.043206893 0.062352214 0.06894214 -0.05159208
000380 87 9a 90 3d d6 8f 83 bd 8b 84 78 3c 72 9b 97 bd
       0.07060724 -0.06423919 0.015168319 -0.07402696
000390 e7 fd e0 3b 64 ce 96 3c 0a b0 ec bc 88 6e ea 3c
       0.006866205 0.018408962 -0.028892536 0.028617159
0003a0 cf 5a d5 bd 8c 36 28 bd cd c9 92 3d 6a 6b 69 bd
       -0.10417711 -0.041067645 0.07167397 -0.056987204
0003b0 bc 68 e4 3c ae 08 56 3d 57 9c c0 bc f7 dd 49 3b
       0.027881972 0.05225437 -0.023512049 0.0030802467
0003c0 43 bc 4b bd 22 3f 00 3d 8c 14 f9 3c 44 be 96 3c
       -0.049740087 0.03131021 0.030405305 0.018401273
0003d0 4b 80 c1 bc f6 b8 d4 3a 72 c7 6e bd 7e 44 3b bd
       -0.023620745 0.0016229439 -0.058295675 -0.045719616
0003e0 2c 7e b2 bc 2b d2 c7 3c 70 3c ce bc f6 e2 4b 3b
       -0.021788679 0.024392208 -0.025175303 0.003111062
0003f0 5c d0 89 bd e0 1c a7 bd ed 08 ff 3c 0f fb e0 3c
       -0.067291945 -0.08159804 0.031132186 0.027463464

adv.bias f4 [24]
000000 00 c4 33 bd 55 3f 5e bb e6 c4 d0 bd 59 59 6b 3c
       -0.043888092 -0.003391226 -0.101938054 0.014364564
000010 2f a6 67 bd 73 d2 20 bd a7 07 a3 bc a0 2d 95 3d
       -0.05655497 -0.0392632 -0.01990111 0.07284093
000020 38 7f c8 3c 6b 7c 69 bc 1c ee 95 bc 65 fa 9f bc
       0.024474725 -0.014250855 -0.018302016 -0.019528577
000030 d2 c3 d0 bd da db a3 3d 62 03 9c bd 1a f5 13 3c
       -0.101936 0.08000918 -0.07617833 0.009030605
000040 e0 ac da ba 19 b6 27 bd 98 b0 9a bd 1f b7 ec 3d
       -0.0016683601 -0.040945146 -0.07553214 0.11558365
000050 4b ac 3b bd 13 fd 08 3d 29 27 af bd 9e a0 e1 3d
       -0.04581861 0.033444475 -0.08552391 0.110169634
