oldDDQN/NEW_DDQN/savedModels/4cyl0.45-0.35LargerNet.pt (torch, 155721 bytes, 9 tensors)

fc.weight f4 [128, 21]
0	0x3ea4af27	0.3216488
1	0xb8cfcebe	-9.909038e-05
2	0x3e134453	0.14381532
3	0x3cdec768	0.027194694
4	0xbd11381d	-0.035453904
5	0xbd1f5446	-0.03889873
6	0xbeeffcb0	-0.46872473
7	0x3e06c04b	0.13159291
8	0x3e097fe0	0.13427687
9	0xbc976a63	-0.018483346
10	0xbdefd389	-0.11710269
11	0x3e08d3e7	0.13362084
12	0x3e288393	0.16456442
13	0xbd406ccf	-0.046978768
14	0x3e058018	0.13037145
15	0xbe4f1777	-0.20223795
16	0x3e20ea18	0.157143
17	0x3e3f3088	0.18670857
18	0x3e2c1bf9	0.16807546
19	0xbe614d9b	-0.2200226
20	0xbe996bc7	-0.2996504
21	0x3efba5f3	0.49150047
22	0xbea5adb2	-0.32359082
23	0xbda874ef	-0.08225428
24	0xbe1b434c	-0.1516239
25	0x3efc84fe	0.49320215
26	0x3d01fc2d	0.031734634
27	0x3e670402	0.22560123
28	0x3e9414fc	0.2892226
29	0x3deacef3	0.11465254
30	0x3e2ded97	0.16985165
31	0x3c94975e	0.018138584
32	0xbe39bf69	-0.18139423
33	0xbe4d1c3e	-0.20030305
34	0xbdf2154f	-0.118204705
35	0x3e0fbae1	0.14036132
36	0xbd8c288b	-0.068436705
37	0xbc764f3c	-0.015033539
38	0x3c67187e	0.0141049605
39	0x3dab5611	0.08366025
40	0x3e4a3c04	0.19749457
41	0xbe7f598e	-0.24936506
42	0xbd48d0aa	-0.049027123
43	0x3e84f663	0.25969228
44	0x3d24e5be	0.04025816
45	0xbda88d71	-0.08230103
46	0x3e2bf5e0	0.16793013
47	0x3d063049	0.032760892
48	0x3e4919de	0.19638774
49	0x3ba73034	0.005102182
50	0x3e13c79a	0.1443161
51	0xbe4cf2e9	-0.20014538
52	0xbe637f3a	-0.22216502
53	0xbd1cdae2	-0.03829468
54	0x3daf5b0b	0.08562287
55	0xbe737a04	-0.23777014
56	0xbe4a8d91	-0.19780566
57	0x3e16853f	0.14699267
58	0xbe863c1d	-0.26217738
59	0xbbdfa6e6	-0.0068253158
60	0xbe055b08	-0.13023007
61	0x3de4738a	0.1115485
62	0xbe4f9640	-0.2027216
63	0xbd9df0c4	-0.07711938
64	0x3db7e878	0.08979887
65	0xbd9e83c1	-0.07739974
66	0xbdbe1dee	-0.092830524
67	0x3dffc190	0.12488091
68	0xbec9631d	-0.3933343
69	0xbe394962	-0.180944
70	0x3e1a888d	0.15091152
71	0x3e536af3	0.20646267
72	0xbde073dd	-0.10959599
73	0x3e63cbb3	0.22245674
74	0xbe15ef75	-0.14642127
75	0xbb3c2a1f	-0.002871163
76	0xbd89cd45	-0.06728605
77	0x3e2a224d	0.16614647
78	0x3e3fd780	0.1873455
79	0xbe07db04	-0.13267142
80	0xbd131656	-0.035909973
81	0x3e09c51e	0.134541
82	0x3d377443	0.04478861
83	0xbdacd152	-0.08438362
84	0xbe92d704	-0.2867967
85	0x3e30c541	0.17262746
86	0x3d1725d6	0.036901318
87	0xbdb5ca3c	-0.08876464
88	0xbddc06f0	-0.10743511
89	0xbe0492e9	-0.12946667
90	0xbe929487	-0.28628942
91	0x3cf0207f	0.02931237
92	0x3c974f51	0.018470438
93	0xbe842701	-0.25811008
94	0x3d2ba920	0.041909337
95	0x3e0aac20	0.13542223
96	0xbdce5013	-0.10073867
97	0x3cf3a17a	0.029740084
98	0xbbb2ea50	-0.005460061
99	0xbce693ee	-0.02814671
100	0xbd0cb3e5	-0.03435125
101	0x3dfe445c	0.12415382
102	0x3e643bd3	0.22288446
103	0x3e0a3a75	0.13498862
104	0x3dfb19ee	0.12260805
105	0x3eb17282	0.34657675
106	0xbdfba860	-0.12287974
107	0xbe82b4be	-0.2552852
108	0xbe1cc0e8	-0.15307963
109	0xbd50300f	-0.050827082
110	0x3e2889e3	0.1645885
111	0xbe6182a6	-0.22022495
112	0xbe2e8299	-0.17042007
113	0x3e074770	0.13210845
114	0xbd4c4c75	-0.049877603
115	0xbd90b9f9	-0.070667215
116	0x3e6163bc	0.22010702
117	0x3db6c08c	0.08923444
118	0xbe1b30b8	-0.15155303
119	0x3e55522a	0.20832124
120	0xbd8745f3	-0.06605139
121	0x3d0d2c77	0.034466233
122	0xbe033e14	-0.1281665
123	0x3d04f693	0.032461714
124	0x3e80fec7	0.2519438
125	0xbe1fd406	-0.15608224
126	0xbe98ce0a	-0.29844695
127	0xbeeeca89	-0.46638897
128	0xbcf7f9bb	-0.030270448
129	0x3de1f25c	0.110325545
130	0x3e841fdc	0.25805557
131	0x3e934a8e	0.28767818
132	0xbcc44e45	-0.023963103
133	0x3d18af39	0.03727648
134	0xbe5e7bb1	-0.21726872
135	0xbe000e03	-0.12505345
136	0x3e2ddc14	0.16978484
137	0xbd45e98f	-0.048318442
138	0x3e59f296	0.21283945
139	0x3d5b0c41	0.053478483
140	0x3c6a7812	0.014310854
141	0x3e0c6339	0.13709725
142	0xbc9a86b8	-0.018863067
143	0xbd1a6b2e	-0.03769987
144	0x3dd3447f	0.10315799
145	0xbe2390b6	-0.15973172
146	0xbe2b24b6	-0.16713223
147	0xbe385265	-0.18000181
148	0xbd0bc9f2	-0.034128137
149	0xbcb493c1	-0.02204311
150	0xbe2116a2	-0.1573129
151	0xbd85bc18	-0.06530017
152	0x3eb10dfe	0.34580988
153	0x3e5dbac5	0.21653278
154	0x3e95b28d	0.29237786
155	0x3e081bc2	0.13291839
156	0x3dd7cee7	0.1053751
157	0xbe10c620	-0.14138079
158	0x3e310307	0.17286311
159	0xbe2182f3	-0.1577261
160	0x3e28ac1d	0.16471906
161	0xbca83d7a	-0.020537127
162	0x3dc333f0	0.09531391
163	0xbdf7ffe0	-0.12109351
164	0xbe31a423	-0.1734777
165	0x3da10493	0.078622006
166	0x3e1638ec	0.14670151
167	0x3deb3162	0.114840284
168	0x3db5bd50	0.08873999
169	0xbd71368e	-0.058889918
170	0x3d9e48df	0.07728743
171	0xbe16c042	-0.14721778
172	0x3e23688a	0.15957847
173	0x3cfa78b4	0.030575134
174	0xbd09820f	-0.0335713
175	0xbdc36949	-0.09541566
176	0x3db8888c	0.09010419
177	0x3e800ded	0.25010625
178	0x3e865831	0.2623916
179	0x3e4185cf	0.188987
180	0x3e355619	0.17708625
181	0x3cbec5d2	0.023287687
182	0xbe77bf08	-0.24193966
183	0x3e378136	0.17920384
184	0xbe68b70d	-0.22726078
185	0x3e24ef13	0.16106825
186	0x3e897993	0.26850566
187	0x3df805bb	0.12110468
188	0xbd056f07	-0.032576587
189	0x3eb3913e	0.35071748
190	0xbea6d3d6	-0.32583493
191	0x3dd2b4f1	0.10288418
192	0x3e511730	0.20419002
193	0x3e57be40	0.21068668
194	0xbe9c3a2f	-0.3051314
195	0xbdae60a5	-0.08514527
196	0x3d0176e3	0.03160752
197	0xbe193beb	-0.14964263
198	0x3e42c5b5	0.19020732
199	0x3e0b14a9	0.135821
200	0xbe404970	-0.18778014
201	0xbdae9dd0	-0.08526194
202	0xbdd22f74	-0.10262957
203	0x3e13575e	0.14388797
204	0x3e7a4b1e	0.24442717
205	0xbdaa694b	-0.08320864
206	0xbddd3572	-0.108012095
207	0x3e34cf82	0.17657283
208	0x3e60c71c	0.21950954
209	0xbdbcf4c6	-0.09226374
210	0x3cded08f	0.027199058
211	0xbceb2c32	-0.028707597
212	0x3dc5562e	0.09635578
213	0x3e8d60e4	0.27612984
214	0x3e08ad9d	0.13347478
215	0xbeab49a4	-0.3345462
216	0xbe552921	-0.2081647
217	0xbe000db6	-0.1250523
218	0x3e1abd26	0.15111217
219	0x3c584048	0.01319892
220	0xbe683d95	-0.22679742
221	0x3de3e9ba	0.11128564
222	0xbd9ba91c	-0.076006144
223	0xbd7a5eae	-0.06112545
224	0xbdaa221f	-0.08307289
225	0xbe374b1d	-0.17899747
226	0x3dfa4e02	0.1222191
227	0xbc746a0d	-0.014917863
228	0x3e22cc32	0.15898207
229	0x3e348b05	0.17631157
230	0xbe614430	-0.21998668
231	0x3dbadb5d	0.091238715
232	0xbdcdc521	-0.10047365
233	0x3ece459d	0.40287486
234	0x3e5f1970	0.21787047
235	0xbe99e5a4	-0.30058014
236	0x3e83908a	0.25696212
237	0xbe981dce	-0.2971024
238	0xbc38d6f3	-0.011281717
239	0x3d92f54e	0.071756944
240	0xbc100c7c	-0.008792039
241	0xbe46095a	-0.19339505
242	0x3c9ff148	0.019524232
243	0xbdf7537f	-0.120764725
244	0xbe3711fb	-0.17877953
245	0x3d67cd73	0.056592416
246	0x3e0b0991	0.13577868
247	0x3e2789b5	0.16361125
248	0x3dd0ac2f	0.101890914
249	0xbe41edc2	-0.18938354
250	0x3c2844c6	0.010270303
251	0xbe01b961	-0.12668373
252	0x3df669de	0.12031911
253	0x3e17622b	0.14783542
254	0x3edbba47	0.42915556
255	0x3d0a1a3a	0.033716418

fc.bias f4 [128]
0	0xbcf037b3	-0.029323434
1	0xbe05dc5e	-0.13072345
2	0xbe3e6ff2	-0.18597391
3	0x3d3152fc	0.04329203
4	0xbe855b57	-0.2604625
5	0xbd9a2906	-0.07527356
6	0xbe9397ee	-0.2882685
7	0x3dfbf242	0.123020664
8	0x3dbce207	0.09222799
9	0xbe80dcbc	-0.25168407
10	0xbe8c1c7d	-0.27365485
11	0x3ca1047b	0.019655457
12	0xbe81d9a2	-0.25361353
13	0x3d435892	0.04769189
14	0x3e4cff30	0.20019221
15	0x3e5cff65	0.215818
16	0x3ea9c293	0.3315626
17	0x3d893c50	0.06700957
18	0x3e86e175	0.26343885
19	0x3e1fe9b6	0.15616497
20	0x3e2c901f	0.16851853
21	0xbcb416a4	-0.021983452
22	0x3e06d793	0.13168173
23	0x3cc4a103	0.024002558
24	0x3d2fcb80	0.042918682
25	0xbe4c36aa	-0.19942728
26	0x3d814960	0.06312823
27	0xbb94e2f0	-0.0045436546
28	0xbe1fe3f1	-0.15614296
29	0x3dd2f5c6	0.10300784
30	0xbdd1a4b1	-0.102364905
31	0x3d4c231e	0.049838178
32	0x3ddb274e	0.10700856
33	0xbe197af9	-0.14988317
34	0xbefdb81a	-0.4955452
35	0x3deb5d82	0.114924446
36	0x3ddc87ee	0.10768114
37	0xbd61b4f7	-0.055104222
38	0x3e1d9768	0.15389788
39	0xbd84ad6a	-0.064783886
40	0x3e83c633	0.25737152
41	0x3bb693b7	0.005571808
42	0x3d08f382	0.033435352
43	0x3d6053ab	0.054767292
44	0x3e903ffb	0.28173813
45	0xbdb7fd47	-0.08983856
46	0xbd9acf31	-0.0755905
47	0xbddc8a26	-0.10768537
48	0xbd7d69bd	-0.061868418
49	0x3e1b14ce	0.15144655
50	0xbceded3b	-0.029043784
51	0xbe3d60de	-0.18493983
52	0x3e0b3425	0.1359411
53	0xbe0e0f65	-0.1387306
54	0xba56a1f9	-0.0008187588
55	0xbd8f8c49	-0.07009179
56	0xbe0fada6	-0.14031085
57	0x3ca5c489	0.020235317
58	0xbe27228e	-0.16321775
59	0x3d173edc	0.03692518
60	0x3ce42eb2	0.027854297
61	0x3d0c4611	0.034246508
62	0xbdbbec50	-0.091759324
63	0x3da46b87	0.08028322
64	0x3e227c75	0.15867789
65	0x3d9022f0	0.07037914
66	0x3e300614	0.17189819
67	0x3e75f562	0.24019387
68	0x3dfbcac3	0.12294533
69	0x3e5ab04a	0.21356311
70	0xba0e0e0e	-0.00054189644
71	0xbd26f061	-0.040756587
72	0xbd757ea9	-0.059935246
73	0x3cc7dac3	0.024396306
74	0x3e06e61a	0.13173714
75	0xbdf597f8	-0.11991876
76	0xbdeb0f24	-0.11477497
77	0x3e3e29ae	0.18570587
78	0xbdf2e29f	-0.11859631
79	0xbc9c94dd	-0.019113952
80	0x3d670210	0.05639845
81	0xba5a1f3b	-0.0008320694
82	0xbe041d29	-0.12901749
83	0xbe2ce7b6	-0.16885266
84	0x3ec10410	0.37698412
85	0x3e25a7d4	0.16177303
86	0x3e5e3aa3	0.21702056
87	0xbe7b75b8	-0.24556625
88	0xbb0bb4de	-0.0021317522
89	0xbd8562db	-0.06512996
90	0xbd0cda21	-0.03438771
91	0xbda98fa2	-0.08279349
92	0xbe462e54	-0.1935361
93	0xbdfddda4	-0.1239579
94	0xbe2c4ecc	-0.16826934
95	0x3e3f10a4	0.18658692
96	0xbe4d2147	-0.20032226
97	0xbdd52d89	-0.10409076
98	0x3e898347	0.2685797
99	0xbdc91c5b	-0.098198615
100	0xbe5e6429	-0.21717896
101	0xbe1d10b2	-0.153384
102	0x3dcf408e	0.10119735
103	0x3e19edec	0.15032166
104	0x3e4e7db8	0.20165145
105	0x3ccccb8b	0.0249994
106	0xbe60c8d1	-0.21951605
107	0xbe1e8bf0	-0.1548307
108	0xbe82658d	-0.25468102
109	0xbe062a1c	-0.13102001
110	0xbe69c47e	-0.22828862
111	0xbe365b06	-0.1780816
112	0x3ea3f4d0	0.32022715
113	0xbdfddb7d	-0.1239538
114	0xbdb22f9f	-0.08700489
115	0xbe261355	-0.16218312
116	0x3e2fd283	0.17170148
117	0x3e84520b	0.25843844
118	0xbd829f27	-0.06378012
119	0xbd630944	-0.05542876
120	0xbdb330ef	-0.08749568
121	0x3e6c73f8	0.23091114
122	0xbb9c341f	-0.0047669555
123	0xbe3b900a	-0.18316665
124	0x3e070366	0.1318489
125	0xbd4e21b0	-0.050325096
126	0xbe927355	-0.28603616
127	0xbdb90624	-0.09034374

hidden.0.weight f4 [128, 128]
0	0x3c7095d9	0.014684164
1	0xbd24e888	-0.04026082
2	0xbd3a9adc	-0.04555784
3	0xbc759d82	-0.014991166
4	0xbd3d4610	-0.046209395
5	0x3d6ba1c1	0.057527307
6	0x3c90fc63	0.017698472
7	0x3dd99f2d	0.106260635
8	0x3d9b2972	0.075762644
9	0xbc2f7d6a	-0.010711053
10	0xbd3ce087	-0.046112563
11	0x3cbb5ba6	0.02287085
12	0xbdbbb069	-0.09164507
13	0x3e242275	0.1602877
14	0xbdc16fa5	-0.09445123
15	0xbdee19e8	-0.11626035
16	0xbce3e2c6	-0.027818095
17	0x3d8841a0	0.06653142
18	0x3df9ea32	0.12202872
19	0x3cf6274d	0.030048037
20	0xbd006d2a	-0.031354107
21	0x3d9315b4	0.07181874
22	0xbccf2108	-0.025284305
23	0x3b97410e	0.0046159094
24	0x3c981d04	0.018568523
25	0xbd96edea	-0.07369597
26	0xbd8c93ae	-0.06864105
27	0x3bed590b	0.0072432808
28	0xbd5cb7e2	-0.0538863
29	0x3cb2c63b	0.02182304
30	0xbd5d243c	-0.053989634
31	0x3db2a58e	0.08722983
32	0x3dc7bf02	0.09753229
33	0xbd630c7e	-0.055431835
34	0x3df04a13	0.117328785
35	0xbd23a526	-0.03995242
36	0xbca06243	-0.019578105
37	0x3d8fc2af	0.07019555
38	0x3cbbf5ef	0.022944419
39	0x3d8f263e	0.06989716
40	0xbc8e2e13	-0.017355954
41	0x3ded80d9	0.11596841
42	0xbd22b750	-0.0397256
43	0xbcf58a49	-0.029973166
44	0xbd20ec22	-0.039287694
45	0xbdf3ce77	-0.119046144
46	0x3cc968a2	0.024586026
47	0x3df088e0	0.11744857
48	0x3da0ebc7	0.07857471
49	0xbbee0575	-0.007263834
50	0x3d86eb17	0.065878086
51	0xbdefdb73	-0.117117785
52	0xbdc83588	-0.09775835
53	0x3cccd66c	0.025004588
54	0x3d95ae2a	0.0730861
55	0x3d9d7f9d	0.07690356
56	0xbda8d80c	-0.08244333
57	0x3c126e6e	0.008937461
58	0x3caf0bab	0.021367868
59	0x3d2403c9	0.040042672
60	0x3dd00fed	0.101592876
61	0xbd4224b0	-0.04739827
62	0x3ba5db3e	0.005061536
63	0xbddbb15b	-0.10727187
64	0xbd389280	-0.04506159
65	0xbdabb621	-0.08384348
66	0xbd971a0a	-0.073780134
67	0x3b3919c4	0.0028244117
68	0xbc232652	-0.009957867
69	0xbce41936	-0.027844053
70	0x3e0426e1	0.12905456
71	0xb9f89fa4	-0.00047421188
72	0x3ce035ae	0.027369346
73	0x3da4e687	0.08051782
74	0x3c0fc810	0.008775726
75	0xbbc15e75	-0.0059011527
76	0xbd8408ea	-0.06447013
77	0x3cb116b9	0.02161728
78	0x3d8b59fb	0.06804272
79	0x3c6d7d59	0.014495217
80	0x3db7501d	0.08950827
81	0x3c5be6fd	0.013421771
82	0x3d8530a7	0.0650342
83	0x3c940595	0.018069068
84	0xbdbba1c2	-0.09161712
85	0xbcc30e5b	-0.023810556
86	0xbd654210	-0.055971205
87	0xbbd9c5a7	-0.0066458764
88	0xbc2b6fe2	-0.010463687
89	0xbde09f7d	-0.1096792
90	0xbd3acbaf	-0.045604404
91	0xbaaeb729	-0.0013329732
92	0x3d4a885a	0.04944644
93	0xbda83490	-0.082131505
94	0x3d182410	0.037143767
95	0xbdb60fee	-0.08889757
96	0x3d3e8a5c	0.04651867
97	0x3d79d54a	0.060994424
98	0xbc78a8e6	-0.015176987
99	0xbd2cb668	-0.042166144
100	0x3d18f13a	0.037339427
101	0x3e2419c3	0.16025452
102	0x3d2792b5	0.040911395
103	0x3ca7ffb4	0.020507671
104	0x3da59a83	0.080861114
105	0xbdeb418f	-0.11487114
106	0x3d17c2ce	0.037051015
107	0xbc8eef7a	-0.017448176
108	0x3c679c34	0.014136363
109	0x3c96cf02	0.018409256
110	0x3e41243a	0.18861476
111	0xbcea9e82	-0.028640036
112	0x3d301ffb	0.04299925
113	0xbc9a286f	-0.018818108
114	0x3b1e790e	0.002418104
115	0x3c4c4595	0.0124677615
116	0xbac05d31	-0.0014676211
117	0xbd98d828	-0.074631035
118	0xbd1d9192	-0.038468905
119	0x3bf35ee4	0.0074270833
120	0x3dc680e3	0.09692552
121	0x3c9b8732	0.018985365
122	0xbc9413f7	-0.018075926
123	0x3dbb6e61	0.091519125
124	0xbcbacc80	-0.022802591
125	0xbd1ecb70	-0.038768232
126	0x3e1bb66f	0.15206312
127	0x3d65de62	0.056120284
128	0xbbb82435	-0.0056195506
129	0xbd55ea72	-0.052225538
130	0xbce5eef4	-0.028068043
131	0xbce63a5a	-0.028103996
132	0xbdc784da	-0.09742136
133	0x3d9301fe	0.07178114
134	0xbdcbe8b7	-0.09956496
135	0xbd056ed5	-0.0325764
136	0x3d5e4042	0.0542605
137	0xbd4424ca	-0.047886647
138	0x3dd3b763	0.103377126
139	0x3d4d7dfb	0.050168972
140	0xbb936328	-0.0044979043
141	0xbcd5ce53	-0.02609936
142	0xbdc0b084	-0.09408668
143	0xbcc74051	-0.02432266
144	0x3d80464b	0.06263407
145	0x3df116a6	0.11771898
146	0xbd30bcd3	-0.043148827
147	0x3ceaf242	0.02867997
148	0xbd9ca567	-0.076487355
149	0xbce9713e	-0.02849638
150	0xbb2bae9c	-0.0026196605
151	0xbd2e03f3	-0.042484235
152	0xbcc57b65	-0.02410669
153	0xbdb61cea	-0.08892234
154	0xbcc8a35d	-0.02449196
155	0xbd40fbf5	-0.047115285
156	0xbd334c58	-0.04377398
157	0x3c7e02ca	0.015503595
158	0x3dcdabc3	0.100425266
159	0x3c5672eb	0.013088922
160	0x3c406c0a	0.0117445085
161	0x3c8fafb4	0.017539836
162	0x3ca7aa06	0.020466816
163	0x3d4c90da	0.04994283
164	0x3b8497d6	0.0040464206
165	0xbcfe67c4	-0.031055339
166	0x3daaa997	0.08333128
167	0xbdefa9e3	-0.11702325
168	0xbd33819d	-0.04382478
169	0x3cc9abc4	0.024618037
170	0x3d34ecd0	0.044171154
171	0xbd34d010	-0.044143736
172	0x3e020d24	0.12700325
173	0x3c6bbee3	0.014388773
174	0xbd45abb2	-0.048259445
175	0xbd700b47	-0.058604505
176	0x3e2ceeb2	0.1688793
177	0x3d2d26bd	0.04227327
178	0xbdae8926	-0.08522253
179	0xbd89e14c	-0.06732425
180	0x3e42c1b4	0.19019204
181	0x3cdf8b29	0.027288036
182	0x3d724be7	0.059154417
183	0x3be59b1e	0.007007017
184	0x3c44cba1	0.01201144
185	0xbde67b36	-0.11253969
186	0x3e32022d	0.17383642
187	0xbd2acf24	-0.04170145
188	0x3cd0b6ce	0.025477793
189	0x3e18ab10	0.14909005
190	0xbd017437	-0.03160497
191	0xbd5d506c	-0.054031774
192	0x3bdcf0b6	0.006742562
193	0x3baa5fb2	0.005199396
194	0xbd776e72	-0.060408063
195	0x3d2e94b8	0.042622298
196	0x3cf9cf9d	0.030494506
197	0xbcab4253	-0.02090565
198	0x3d93da55	0.07219378
199	0xbd43fc42	-0.047847994
200	0x3e164e5b	0.14678328
201	0x3dda8537	0.1066994
202	0x3daf6628	0.08564407
203	0xbc379059	-0.011203849
204	0x3c0a2632	0.008431958
205	0x3dae1921	0.08500887
206	0xbd4bfe32	-0.049802966
207	0x3de857a6	0.113448426
208	0x3d1cda9b	0.038294416
209	0x3bdc7c92	0.006728717
210	0xbbb43bfc	-0.0055003148
211	0x3b755037	0.0037431845
212	0xbc7a85b8	-0.01529067
213	0xbb7f3bd1	-0.0038945565
214	0xbd5c3400	-0.05376053
215	0x3c81286d	0.015766347
216	0xbcc4eb7a	-0.024038065
217	0xbd089a3a	-0.033350207
218	0x3e07aaf5	0.13248809
219	0xbe1a2229	-0.15052094
220	0xbd10c067	-0.03533974
221	0xbe0599fe	-0.13047025
222	0x3de498a4	0.111619264
223	0x3d3d0725	0.04614939
224	0x3d7e5e33	0.062101554
225	0x3dcce65a	0.100048736
226	0x3da9e1cb	0.0829502
227	0xbc4b90ac	-0.012424629
228	0xbde390d9	-0.11111612
229	0x3dca9f50	0.09893668
230	0x3e045987	0.12924777
231	0x3daa9fa1	0.08331228
232	0xbddb6973	-0.10713472
233	0x3e095cd3	0.13414316
234	0x3d38fc2d	0.04516237
235	0x3cafbeca	0.02145328
236	0xbb4dd840	-0.0031409413
237	0xbd44b387	-0.048022773
238	0xbd886d65	-0.0666149
239	0xba58171c	-0.00082431897
240	0x3d353724	0.04424204
241	0xbd3c8cc0	-0.046032667
242	0xbcc20a98	-0.023686692
243	0xbc6e36fe	-0.014539478
244	0xbddcd34b	-0.107824884
245	0xbd63ddd0	-0.05563146
246	0xbd890930	-0.066912055
247	0x3d9f809d	0.07788203
248	0xbc4eebc0	-0.012629449
249	0x3ce99c6c	0.02851697
250	0x3c842264	0.01612968
251	0x3d3add56	0.04562124
252	0xbd299634	-0.04140301
253	0xbd41fbe4	-0.047359362
254	0xbc4887ce	-0.01223941
255	0x3db3de08	0.087825835

hidden.0.bias f4 [128]
0	0xbdb7a931	-0.089678176
1	0x3df20785	0.118178405
2	0x3cb339ca	0.021878142
3	0xbd97d6ff	-0.07414054
4	0xbc0d37f5	-0.008619298
5	0x3c68a917	0.01420047
6	0x3c016a3f	0.007898866
7	0x3da45e3b	0.080257855
8	0xbdc33e50	-0.095333695
9	0xbdec8012	-0.11547865
10	0x3cbdc408	0.023164764
11	0x3e0f386e	0.1398637
12	0xbd7dd714	-0.061972693
13	0x3e1c40ba	0.15259066
14	0x3d85cb86	0.0653296
15	0xbd26be2f	-0.040708717
16	0xbd8670d1	-0.06564487
17	0xbcea5cf0	-0.02860877
18	0x3cd6c7ca	0.026218314
19	0xbda83242	-0.08212711
20	0x3c8aea78	0.016957507
21	0xbbca1952	-0.006167569
22	0x3dd64d76	0.10463993
23	0x3d6db123	0.05803026
24	0x3e1dde5e	0.15416858
25	0x3da34e96	0.079739735
26	0xbba9b1e6	-0.005178678
27	0x3e01a4f2	0.12660578
28	0xbc6c68b0	-0.014429256
29	0x3d9bc3e8	0.076057255
30	0x3d3ce590	0.046117365
31	0xbd250df7	-0.04029652
32	0xbd1495e5	-0.036275763
33	0xbdbc69e6	-0.09199886
34	0xbdc22b7d	-0.09480951
35	0xbddbfea1	-0.10741926
36	0x3e22961b	0.15877573
37	0x3d011dfc	0.031522736
38	0x3c3e9ca2	0.011634024
39	0xbcb76979	-0.02238916
40	0xbd8706ad	-0.0659307
41	0x3dd2901e	0.102813944
42	0x3d456a70	0.04819721
43	0xbd039554	-0.032124832
44	0xbbea3b89	-0.0071482104
45	0x3d050315	0.032473642
46	0x3d926d8e	0.07149802
47	0xbc2c3cc4	-0.0105125345
48	0xbd885474	-0.06656733
49	0x3d3128c7	0.04325178
50	0xbd9b3946	-0.075792834
51	0x3ca19346	0.019723546
52	0xbd5f0a8e	-0.054453425
53	0xbdd5f408	-0.10446936
54	0x3c87b4b4	0.016565658
55	0x3d103de4	0.035215273
56	0x3e0b90c4	0.13629442
57	0xbe383a7e	-0.17991063
58	0x3d5a97e0	0.053367496
59	0x3dea3fe4	0.114379674
60	0x3d0425dd	0.03226267
61	0xbd18f603	-0.03734399
62	0xbda6947d	-0.08133791
63	0x3daf28c0	0.08552694
64	0x3de0efff	0.109832756
65	0x3db8a89b	0.09016534
66	0x3df9c580	0.12195873
67	0x3dfa1acc	0.12212142
68	0x3d5e0e54	0.054212883
69	0xbe60af3d	-0.21941848
70	0x3d5845e9	0.052801047
71	0xbd93d404	-0.07218173
72	0xbd5a3b6c	-0.053279325
73	0xbca6013a	-0.020264257
74	0xbdc3df42	-0.095640674
75	0xbea7e7ec	-0.3279413
76	0xbce61fbc	-0.028091304
77	0xbc6082d3	-0.013703066
78	0x3c0348d3	0.008012968
79	0x3d8fb163	0.07016256
80	0xbe70a917	-0.23502003
81	0x3e32b2b4	0.17450982
82	0x3d205d96	0.03915175
83	0x3b28366d	0.0025667206
84	0xbdc9bf89	-0.098509856
85	0x3ce00b00	0.027348995
86	0xbddd7acd	-0.10814438
87	0xbd2b4639	-0.041815016
88	0xbe0975b6	-0.1342381
89	0xbc1f3e2b	-0.009719412
90	0xbd08289d	-0.033241857
91	0xbd056823	-0.032570016
92	0xbd2d3d96	-0.04229506
93	0x3d94eb42	0.07271434
94	0xbca95481	-0.020670177
95	0x3da74de6	0.08169155
96	0x3c86d73f	0.01646006
97	0x3da87322	0.08225085
98	0xbd43d3a5	-0.04780926
99	0x3cd5ad22	0.026083533
100	0xbc7e7bb1	-0.01553242
101	0xbd8ae2a0	-0.067815065
102	0xbdb18037	-0.08667033
103	0xbb20983f	-0.0024504808
104	0xbe17f5a7	-0.14839803
105	0x3c23e9c9	0.010004469
106	0xbdf6d011	-0.12051404
107	0x3d8b9e84	0.06817344
108	0x3d6e6e4b	0.058210652
109	0x3d2a2db1	0.04154748
110	0xbde62734	-0.11237946
111	0x3e19ca16	0.15018496
112	0xbda04c5c	-0.078270644
113	0xbc18688c	-0.00930227
114	0xbaea3094	-0.0017867261
115	0xbd8942b9	-0.067021795
116	0x3ca1828c	0.01971557
117	0xbd046e07	-0.032331493
118	0xbd83b615	-0.06431214
119	0xbe2a609e	-0.16638419
120	0xbe4a0ec9	-0.19732203
121	0x3db6cdf5	0.08926002
122	0xbd0f68dd	-0.035012115
123	0xbe2c065c	-0.16799301
124	0x3d462d06	0.04838278
125	0x3d7c98f2	0.061669298
126	0x3c8787a2	0.016544167
127	0x3d664b0d	0.056223918

hidden.1.weight f4 [128, 128]
0	0x3cb3678d	0.021899963
1	0x3d0e398c	0.03472285
2	0x3dad1546	0.08451323
3	0x3bb24a49	0.0054409844
4	0x3de5e17f	0.112246506
5	0x3db96f16	0.09054391
6	0xbd1b1685	-0.037863273
7	0x3d64f5cd	0.055898476
8	0xbdc01da3	-0.09380653
9	0x3d6b294a	0.057412423
10	0x3e12b9c6	0.1432868
11	0xbc507b6a	-0.012724737
12	0xbd4096f6	-0.047018968
13	0xbd7302dd	-0.059328903
14	0x3d7064c0	0.058689833
15	0xbe1b9ad4	-0.15195781
16	0xbd96cb52	-0.07362999
17	0xbe0114ad	-0.12605543
18	0xbd2c292e	-0.04203146
19	0x3c8eacae	0.017416324
20	0x3d5a54f5	0.053303678
21	0xb89ee467	-7.57657e-05
22	0xbd9ac69c	-0.07557413
23	0x3d944469	0.07239611
24	0xbc862417	-0.01637463
25	0x3d64bf6e	0.055846624
26	0xbd8bb528	-0.06821662
27	0x3d3c9ba7	0.04604688
28	0x3d79e871	0.06101269
29	0x3e0a24d2	0.13490608
30	0xbc8cb4be	-0.017176028
31	0xbd54e31a	-0.051974393
32	0x3d8dd304	0.06925014
33	0xbdec2a05	-0.11531452
34	0x3c5012a0	0.012699753
35	0x3c464fa5	0.01210395
36	0xbb8eb03a	-0.004354504
37	0xbc3e040b	-0.011597644
38	0xbd7ebd0e	-0.062192015
39	0xbc81a0c9	-0.015823739
40	0xbd1ecfa3	-0.038772237
41	0xbca5ffac	-0.020263515
42	0x3b99ed9c	0.0046975147
43	0xbdbbd795	-0.091719784
44	0x3dce285b	0.10066291
45	0xbc4976ba	-0.012296373
46	0x3d558d38	0.05213663
47	0x3e13e63f	0.144433
48	0xbba22686	-0.00494844
49	0xbd3f6013	-0.046722483
50	0xbda61bde	-0.08110784
51	0x3ca56d97	0.020193858
52	0x3d0fc2c3	0.03509785
53	0xbdb2e061	-0.08734203
54	0x3dd6c538	0.10486835
55	0x3ddfe8d3	0.109330796
56	0xbe21aaeb	-0.15787856
57	0xbe3bd4db	-0.18342917
58	0x3c02f72d	0.007993502
59	0x3af37a3d	0.0018575859
60	0x3dfb88d7	0.122819595
61	0x3da78d70	0.08181274
62	0xbd4f1392	-0.050555773
63	0x3dbcc3fc	0.092170686
64	0x3de2d020	0.11074853
65	0xbd003aca	-0.031306066
66	0xbdfc67d3	-0.123244904
67	0x3d47e316	0.04880055
68	0x3e0b71a6	0.13617572
69	0xbd8c064c	-0.068371385
70	0x3d661981	0.056176666
71	0x3e097633	0.13423996
72	0xbd8b6503	-0.06806376
73	0xbd579195	-0.052629072
74	0xbd36c5d7	-0.04462227
75	0xbd9fca67	-0.07802277
76	0xbe1c5971	-0.15268494
77	0xbd23e1ca	-0.04001025
78	0xbdef65ba	-0.11689325
79	0xbd0e28f4	-0.034707025
80	0xbd515da3	-0.05111469
81	0xbdb6aaa0	-0.08919263
82	0xbcf47bb2	-0.029844139
83	0xbd87168f	-0.065960996
84	0xbdb0fc6e	-0.08641897
85	0xbe03ffac	-0.128905
86	0xbd3ffb3c	-0.046870455
87	0x3cfb8bf4	0.030706383
88	0xbdde2f75	-0.108488955
89	0xbda5a38b	-0.08087834
90	0x3dd39d1d	0.10332701
91	0x3dd25f13	0.1027204
92	0x3d49f4dd	0.049305785
93	0x3dab43f5	0.08362571
94	0xbceed07e	-0.029152151
95	0x3d0ae990	0.03391415
96	0x3d31a118	0.04336652
97	0xbdf44b46	-0.1192842
98	0xbd38e043	-0.045135748
99	0x3e1b5fd8	0.1517328
100	0x3c4b847c	0.012421723
101	0x3db53ab4	0.08849087
102	0xbdb61bb6	-0.08892004
103	0x3ddf2f1b	0.108976565
104	0xbd6a838f	-0.05725437
105	0x3caa8f8c	0.020820402
106	0xbc616a01	-0.013758183
107	0xbe3c1fa9	-0.18371452
108	0xbde6e258	-0.112736404
109	0xbe121a58	-0.14267862
110	0xbd1cd187	-0.03828576
111	0x3d771907	0.060326602
112	0x3bc697c1	0.006060571
113	0xbd872720	-0.065992594
114	0x3d2027bf	0.039100405
115	0xbd8b4ca0	-0.068017244
116	0xbd732544	-0.05936171
117	0x3e3e1664	0.18563229
118	0x3d9fdbc5	0.078055896
119	0xbdb8d808	-0.0902558
120	0xbd7f0a14	-0.06226547
121	0x3c9d7b17	0.019223733
122	0x3df2af8b	0.118498884
123	0xbdbb3308	-0.09140593
124	0xbcf7f65a	-0.030268837
125	0xba85bdad	-0.0010203623
126	0xbd4a8e31	-0.04945201
127	0x3dbb0f29	0.09133751
128	0xbdae847c	-0.08521363
129	0x3d9f74f2	0.077859774
130	0xbcaeb474	-0.021326281
131	0x3d3fddd0	0.046842396
132	0xbca72f34	-0.02040825
133	0x3c83eef8	0.01610516
134	0xbd50494a	-0.050851144
135	0xbdbd642f	-0.09247624
136	0xbde68454	-0.11255708
137	0xbc2ba341	-0.0104759345
138	0x3dd945d3	0.10609021
139	0xbc9f3289	-0.019433277
140	0xbdc27975	-0.09495822
141	0x3dc3cc78	0.09560484
142	0x3db6b406	0.089210555
143	0xbdf22fb3	-0.11825504
144	0x3d978f3a	0.07400365
145	0xbe2ace08	-0.16680157
146	0x3d18d4ad	0.0373122
147	0xbd5736fd	-0.052542675
148	0x3da29681	0.079388626
149	0x3d7a015c	0.061036453
150	0x3c49d0b0	0.012317821
151	0x3da290e4	0.07937792
152	0x3d9b3d87	0.07580095
153	0x3ddb9c3a	0.10723157
154	0xbdb065b6	-0.0861315
155	0xbc4bdce6	-0.012442803
156	0x3d20f8a1	0.03929961
157	0x3df47eb1	0.11938227
158	0x3d5c0a1e	0.053720586
159	0xbc5f8058	-0.013641439
160	0xbc158578	-0.00912606
161	0xbdb4dd55	-0.08831278
162	0x3d9aecc7	0.07564693
163	0x3c4bb8c6	0.01243419
164	0x3dfa93c0	0.12235212
165	0x3c2e12ff	0.010624646
166	0xbcebf04d	-0.028801108
167	0xbabdc30a	-0.0014477682
168	0x3d0818ab	0.03322665
169	0x3cf23918	0.02956824
170	0x3d1adeb2	0.037810035
171	0xbc9286dd	-0.017886573
172	0xbae00656	-0.0017091732
173	0xbd821862	-0.06352307
174	0xbce1e919	-0.02757697
175	0x3c83ff9d	0.016113097
176	0x3db562db	0.08856746
177	0x3da8983c	0.082321614
178	0x3d198128	0.03747669
179	0x3d7abb89	0.061214004
180	0xbcabb8a3	-0.020962065
181	0xbe08f5a7	-0.13374959
182	0x3dc5368b	0.09629544
183	0xbd8f902a	-0.07009919
184	0xbd5ef484	-0.054432407
185	0xbe24c6e7	-0.160915
186	0xbe088d17	-0.13335072
187	0x3d5e0d73	0.054212045
188	0x3d01e235	0.03170987
189	0xbd95dd09	-0.0731755
190	0x3d41e992	0.04734189
191	0xbabb7a49	-0.0014303412
192	0xbbb11037	-0.0054035443
193	0x3dbab69c	0.09116861
194	0x3d4206cd	0.047369767
195	0xbdf85c66	-0.121269986
196	0x3cda62fd	0.02665853
197	0x3e61e01f	0.22058152
198	0x3dd791be	0.10525845
199	0x3e11de57	0.14244972
200	0xbd7f20e5	-0.06228723
201	0xbd7ecb8b	-0.062205832
202	0xbd93e08b	-0.072205625
203	0x3d0b7eb7	0.03405639
204	0x3d2209f1	0.039560262
205	0xbc9b26cc	-0.018939398
206	0xbe2b229b	-0.1671242
207	0x3cd877e0	0.026424348
208	0xbe01a01e	-0.12658736
209	0x3e2eb89a	0.17062607
210	0xbce05ecb	-0.02738895
211	0xbc98ac85	-0.018636951
212	0xbd8aa8ba	-0.06770463
213	0xbc16544d	-0.009175372
214	0xbe51c85a	-0.20486584
215	0xbd27caed	-0.04096501
216	0x3cd6973a	0.026195157
217	0xbc94cfee	-0.018165555
218	0xbc9de0bf	-0.019272206
219	0x3d8b9383	0.06815245
220	0xbdb6a2e7	-0.0891779
221	0xbd23a574	-0.03995271
222	0xbd9a9b6e	-0.07549177
223	0x3d19e623	0.03757299
224	0x3d2e9367	0.042621043
225	0x3ca69753	0.020335829
226	0xbd4f61c2	-0.05063034
227	0x3d9e66cd	0.077344514
228	0x3de49349	0.11160905
229	0xbd3e6c78	-0.046490163
230	0xbd8b4a3f	-0.06801271
231	0x3c2cb9a5	0.010542308
232	0xbd5cb304	-0.05388166
233	0x3ca9a5c3	0.020708924
234	0xbd812eb2	-0.063077345
235	0xbe19395c	-0.14963287
236	0xbd97207f	-0.07379245
237	0x3d02b465	0.03191032
238	0xbd6ead29	-0.058270607
239	0xbcfb5710	-0.030681163
240	0x3da48d60	0.08034778
241	0x3dbfbcfb	0.09362217
242	0xbd724952	-0.059151955
243	0x3d50b2cd	0.050951768
244	0xbdca30f5	-0.09872619
245	0x3dae8dab	0.08523115
246	0x3d4b2f18	0.04960546
247	0x3d53ea4d	0.05173712
248	0xbd0ed76e	-0.03487342
249	0x3ddf77e6	0.10911541
250	0xbdd2d765	-0.102949895
251	0xbe09e58a	-0.13466468
252	0x3d97cef0	0.07412517
253	0x3e52b8f6	0.2057837
254	0xbced5d75	-0.028975228
255	0xbcae0403	-0.021242147

hidden.1.bias f4 [128]
0	0x3d92d3c2	0.07169296
1	0x3db5c600	0.08875656
2	0xbd4e152f	-0.05031317
3	0x3db84e62	0.08999325
4	0x3d870297	0.06592291
5	0xbd46491b	-0.048409563
6	0x3dc8f959	0.09813184
7	0x3da9a366	0.08283119
8	0xbda7985d	-0.08183358
9	0xbd50b07d	-0.050949562
10	0xbde6da10	-0.11272061
11	0x3d6b2c91	0.05741555
12	0xbd54cadf	-0.051951285
13	0x3d065f02	0.03280545
14	0xbd62d35a	-0.05537734
15	0xbcc10428	-0.023561552
16	0xbccdbbf1	-0.025114032
17	0x3d1f9e83	0.038969528
18	0xbd3b93c8	-0.045795232
19	0x3c1a9381	0.009434582
20	0x3d6fb530	0.058522403
21	0x3cd21d3d	0.025648708
22	0xbccfe5b9	-0.025378095
23	0x3c0934ee	0.008374436
24	0x3daa2c45	0.08309225
25	0xbd42d0ab	-0.047562283
26	0x3d10ea08	0.03537944
27	0x3d3bf14f	0.045884427
28	0xbd0deaeb	-0.034647863
29	0xbbe2813b	-0.006912378
30	0xbd8385d9	-0.06422014
31	0xbda45b0f	-0.080251805
32	0x3b123b89	0.0022313318
33	0x3db5db11	0.08879674
34	0xbb2ed251	-0.0026675651
35	0xbdfe40d8	-0.12414712
36	0x3da35202	0.07974626
37	0xb7067299	-8.013704e-06
38	0x3d9230f2	0.07138242
39	0xbd00ff04	-0.0314932
40	0xbc44fc89	-0.0120231
41	0x3d36e2eb	0.04465
42	0xbdb23894	-0.08702198
43	0xbdbf73d8	-0.09348267
44	0xbd9256a4	-0.07145432
45	0x3d79ce87	0.060987975
46	0x3d89a21d	0.06720374
47	0xbd41deab	-0.047331493
48	0x3dab8b31	0.08376158
49	0xba449d76	-0.000750027
50	0xbcdf68b2	-0.027271602
51	0xbd0104ed	-0.03149884
52	0xbc7d06f2	-0.01544355
53	0x3d770100	0.060303688
54	0x3d03dd22	0.03219331
55	0x3d8459dd	0.064624526
56	0xbda450aa	-0.08023198
57	0xbd0489cf	-0.032357987
58	0x3c0ef0a2	0.0087243635
59	0xbd9e13f0	-0.077186465
60	0xbd2f8672	-0.042852826
61	0x3d5d1b12	0.053980894
62	0xbd2429e0	-0.040078998
63	0x3d7f93e5	0.062396903
64	0xbdb1f0c6	-0.08688502
65	0xbbd669ed	-0.006543389
66	0xbd30aadf	-0.043131705
67	0xbd6052ed	-0.054766584
68	0xbce1a0af	-0.02754244
69	0xbd7daaa3	-0.06193031
70	0x3c5fd479	0.013661497
71	0x3d83b646	0.0643125
72	0xbdae8bd1	-0.085227616
73	0x3d85ea76	0.065388605
74	0xb8be984e	-9.088275e-05
75	0xbdd89056	-0.10574405
76	0x3c9f5dfd	0.019453997
77	0x3d8bc6bd	0.06825016
78	0x3bf1316e	0.007360629
79	0x3da138a0	0.078721285
80	0x3d8d1c39	0.06890149
81	0xbb535f73	-0.0032252937
82	0x3dbad5db	0.09122821
83	0x3e10ed58	0.1415304
84	0xbd7e59c6	-0.062097333
85	0x3cdcc6e9	0.026950317
86	0x3d9a9e71	0.075497515
87	0x3d621908	0.055199653
88	0x3c0423d4	0.008065183
89	0xbc40588e	-0.011739863
90	0x3dd10e7a	0.10207839
91	0xbd65d4ff	-0.056111332
92	0xbd06cf9e	-0.032912843
93	0x3dd1adf3	0.10238256
94	0x3cd75a2d	0.026288116
95	0xbd86ab5b	-0.06575652
96	0x3d4efbf8	0.050533265
97	0xbdfdb7eb	-0.12388595
98	0x3db4b7cd	0.0882412
99	0x3cb481fd	0.02203464
100	0x3c8dff50	0.017333657
101	0x3db0da69	0.086354084
102	0xbca59ecd	-0.020217324
103	0x3dc40bcf	0.09572565
104	0x3e2c9cb1	0.16856648
105	0x3cf980bd	0.030456895
106	0xbd2fb18b	-0.042893928
107	0x3d67b099	0.0565649
108	0xbd3acba1	-0.045604352
109	0xbd743cdc	-0.059628353
110	0xbd8889ca	-0.06666906
111	0x3e0b006a	0.13574377
112	0xbd961393	-0.07327952
113	0x3b5da72e	0.003382157
114	0x3b92282e	0.004460356
115	0x3c2592b2	0.010105776
116	0xbd70b69a	-0.058767892
117	0x3a659c1e	0.000875892
118	0x3d8fdda4	0.070246965
119	0xbd75c46a	-0.06000177
120	0x3d110cf8	0.03541276
121	0xbd9859fb	-0.074390374
122	0xbcfc6b11	-0.030812772
123	0xbd033632	-0.032034107
124	0xbd516dc9	-0.05113009
125	0xbd9d77a7	-0.076888375
126	0x3cd6bef1	0.026214095
127	0xbd269916	-0.040673338

v.weight f4 [1, 128]
0	0xbf1529de	-0.5826701
1	0xbe6ef2db	-0.2333483
2	0x3db22c51	0.08699859
3	0xbeacbc0b	-0.33737215
4	0xb9a6d302	-0.000318192
5	0xbe73d7b3	-0.23812751
6	0x3e9b2fd1	0.3030992
7	0xbee3d287	-0.44496557
8	0x3edddde9	0.43333367
9	0xbdd0903c	-0.101837605
10	0x3ed1b3f9	0.4095762
11	0xbd88ae33	-0.06673851
12	0x3f0eaf36	0.557361
13	0x3d598b45	0.053111333
14	0xbe2dbeb5	-0.1696728
15	0x3d9111a2	0.07083441
16	0x3c92cf3b	0.01792108
17	0x3e0bde34	0.13658983
18	0x3f0db499	0.55353695
19	0x3e3957d6	0.18099913
20	0xbf0fc811	-0.5616465
21	0xbed08233	-0.40724334
22	0x3f14c6b3	0.5811569
23	0x3e574367	0.21021806
24	0x3d2b8a5a	0.04187999
25	0xbd489a96	-0.04897555
26	0xbed7be94	-0.42137587
27	0x3de24e12	0.11050047
28	0xbd91b264	-0.071141034
29	0x3d8bbde0	0.06823325
30	0xbdb67401	-0.08908845
31	0x3e2eb117	0.17059742
32	0xbefe95ae	-0.49723572
33	0xbf2dd4d1	-0.6790286
34	0x3dd6f5b1	0.10496081
35	0x3e7b39d6	0.24533781
36	0x3e9103e7	0.2832329
37	0xbed5b3f3	-0.41738853
38	0xbca5a14d	-0.020218516
39	0xbdfaffc6	-0.12255816
40	0xbe65aa8c	-0.2242834
41	0xbf1bc884	-0.6085284
42	0xbd8b854c	-0.06812534
43	0x3eb4f706	0.35344714
44	0xbe6f287a	-0.23355284
45	0xbea4d109	-0.3219073
46	0x3e1a134a	0.1504642
47	0xbed4175e	-0.41424078
48	0x3d30b266	0.043138884
49	0x3e0677d8	0.13131654
50	0x3da64997	0.08119505
51	0xbe467023	-0.19378714
52	0x3e28bac5	0.16477497
53	0xbdd2b8a2	-0.10289122
54	0xbedb5200	-0.42836
55	0x3e2650d9	0.16241778
56	0x3c92da44	0.017926343
57	0x3e39d985	0.18149383
58	0x3e7c70f1	0.24652459
59	0x3d63def6	0.055632554
60	0x3e61a34f	0.22034954
61	0x3eab10e7	0.33411333
62	0x3e00ec72	0.12590197
63	0x3df20632	0.11817588
64	0xbbf9643e	-0.0076108268
65	0xbf007b09	-0.50187737
66	0x3eb2cc18	0.34921336
67	0x3e34d65c	0.17659897
68	0xbea4b0e3	-0.32166204
69	0xbdbea4ac	-0.093087524
70	0x3e82fd77	0.25584003
71	0xbc7ee5f8	-0.0155577585
72	0x3e11f3bd	0.14253135
73	0x3da26a52	0.07930435
74	0x3c76d7fe	0.015066145
75	0x3e9d0f30	0.3067565
76	0xbf0ce478	-0.55036116
77	0x3e06d4b8	0.13167083
78	0xbe708a0f	-0.23490165
79	0xbc7639c0	-0.015028417
80	0x3ddb5b10	0.10710728
81	0x3d184125	0.0371715
82	0xbe93775c	-0.28802
83	0xbe7a3778	-0.24435222
84	0xbec5aa18	-0.38606334
85	0xbda3633a	-0.0797791
86	0xbebf5d31	-0.37375787
87	0xbe4b40c8	-0.19848931
88	0xbe67696b	-0.22598808
89	0x3e9ef600	0.31047058
90	0x3cc89cbb	0.024488797
91	0x3e5162c1	0.20447828
92	0x3d14d081	0.036331657
93	0xbf3f2779	-0.74669605
94	0xbe77c935	-0.24197848
95	0xbefb3a4e	-0.4906792
96	0xbd936d56	-0.071985886
97	0x3ed6d8d7	0.4196231
98	0xbf002fb6	-0.500728
99	0xbc66d16e	-0.014088018
100	0xbd1afcfc	-0.03783892
101	0xbe932cd9	-0.28745154
102	0x3ef6f8fc	0.48236835
103	0x3e8b9552	0.2726236
104	0xbf32ef10	-0.6989603
105	0x3dbfb6ae	0.09361015
106	0x3e844d40	0.25840187
107	0xbf5218e3	-0.82069224
108	0x3dd85b8a	0.10564335
109	0x3c8355b2	0.016032074
110	0xbed9e2cb	-0.42555842
111	0xbe6123aa	-0.21986261
112	0xbd7348b4	-0.059395507
113	0x3e1744b2	0.14772299
114	0x3e552a13	0.20816831
115	0x3e8d1a73	0.27559242
116	0x3e5f172f	0.21786188
117	0x3ce4df07	0.027938379
118	0x3e1a6e94	0.15081245
119	0xbd0a5c44	-0.033779398
120	0x3e83389b	0.25629124
121	0x3ea9d141	0.3316746
122	0x3e848c2f	0.25888202
123	0xbdbbd1a8	-0.09170848
124	0xbdbf7c97	-0.093499355
125	0x3d5c672c	0.05380933
126	0x3e147d3d	0.145009
127	0xbdf6a0dd	-0.12042401

adv.weight f4 [16, 128]
0	0xbcbf85e5	-0.023379276
1	0xbde06908	-0.10957533
2	0x3d6cff75	0.05786081
3	0xbe89c9a1	-0.26911643
4	0xbca06328	-0.019578531
5	0xbd00d043	-0.031448614
6	0xbd1c841d	-0.03821193
7	0x3dc69866	0.096970364
8	0x3e5f25f3	0.2179182
9	0x3ea02545	0.31278434
10	0x3de5101d	0.11184714
11	0x3da6bae9	0.08141119
12	0xbdb52fd6	-0.088470146
13	0x3d2d2fce	0.04228192
14	0x3e1f618d	0.15564556
15	0x3cada14b	0.021195075
16	0xbe69cee5	-0.2283283
17	0x3b86fdcb	0.00411961
18	0xbe89cfa0	-0.26916218
19	0xbd5bb9ce	-0.053643994
20	0xbc40f278	-0.011776559
21	0x3da6b731	0.0814041
22	0x3de25ac3	0.11052468
23	0xbdd67c19	-0.104728885
24	0xbbf4f4cd	-0.0074754716
25	0x3d69f30d	0.057116557
26	0x3ebfb612	0.37443596
27	0x3d1ee6a4	0.038794175
28	0xbe227f2c	-0.15868825
29	0x3e831570	0.25602293
30	0xbc6455cf	-0.013936474
31	0x3d08885b	0.033333164
32	0xbc847856	-0.016170662
33	0x3e01ad55	0.12663777
34	0x3d081d4a	0.033231057
35	0x3d98373f	0.07432412
36	0xbdc6232f	-0.096746795
37	0x3e6fbaac	0.23411053
38	0x3c566f67	0.013088084
39	0x3c38fe2d	0.011291069
40	0x3d9a3e2b	0.07531389
41	0x3dab439f	0.08362507
42	0x3d82075a	0.063490584
43	0x3d88cd22	0.06679751
44	0x3ca19491	0.019724162
45	0xbbdfb8f1	-0.0068274667
46	0x3d5f8a31	0.05457515
47	0x3d94706d	0.07248006
48	0xbda770e3	-0.08175828
49	0x3d025a3c	0.031824335
50	0xbdbbd48b	-0.09171399
51	0x3d826f25	0.063688554
52	0x3e2c1a9e	0.16807029
53	0xbe128e48	-0.14312088
54	0xbe9919ce	-0.299025
55	0xbde15a3a	-0.110035375
56	0xbbcc10a2	-0.0062275687
57	0x3b3d470f	0.0028881466
58	0xbe7280ab	-0.23681895
59	0xbc830b0f	-0.015996484
60	0x3d54d821	0.05196393
61	0xbe15eb48	-0.14640534
62	0xbd204ec9	-0.039137635
63	0x3d3c72d8	0.04600796
64	0xbd861bb5	-0.065482534
65	0xbdda3791	-0.1065513
66	0xb9348b3f	-0.00017218011
67	0xbc83491a	-0.016026068
68	0xbecaf3c4	-0.39639103
69	0x3da86209	0.08221824
70	0xbe85ef3d	-0.26159087
71	0xbbd74ba5	-0.006570297
72	0xbdcb843d	-0.09937332
73	0xbd834728	-0.06410056
74	0xbd938dde	-0.072047934
75	0x3eb82407	0.35964987
76	0x3e0fab1c	0.14030117
77	0x3ca46f72	0.020072673
78	0x3bbbd38c	0.0057320055
79	0xbe3b0797	-0.18264614
80	0xbe150f32	-0.14556578
81	0xbca49a73	-0.020093178
82	0x3e2eff8c	0.17089671
83	0xbd9b42c3	-0.07581093
84	0xbe95b60d	-0.29240456
85	0xbcd9622e	-0.026536074
86	0xbda5e4c3	-0.081002735
87	0x3eaac7ea	0.33355647
88	0x3d3f813f	0.046754118
89	0x3c09659d	0.008386043
90	0xbdab464e	-0.08363019
91	0xbd733c62	-0.059383757
92	0xbd510782	-0.05103255
93	0x3e83c06c	0.25732744
94	0xbdb907cc	-0.0903469
95	0xbea653db	-0.32485852
96	0x3d5b7c8a	0.053585567
97	0x3dde4289	0.10852534
98	0xbe41f89e	-0.18942496
99	0x3cd79e99	0.026320742
100	0xbd7b057c	-0.061284527
101	0xbe668835	-0.22512896
102	0xbe6cd5ba	-0.23128405
103	0x3e1b5873	0.1517046
104	0xba126785	-0.00055848836
105	0xbc2dbf41	-0.0106046805
106	0x3dca77cc	0.09886131
107	0xbdf32924	-0.11873081
108	0x3cbff040	0.02342999
109	0xbe13818b	-0.14404885
110	0xbd1afb91	-0.03783757
111	0xbce015e6	-0.027354192
112	0x3d953d73	0.07287111
113	0xbd27f7fd	-0.041007984
114	0x3e91590c	0.2838825
115	0x3db1c3c0	0.086799145
116	0xbe0225d8	-0.12709749
117	0xbdc367ea	-0.095413044
118	0xbdd26eda	-0.102750495
119	0x3d17e875	0.037086923
120	0xbdf6d9d6	-0.12053268
121	0x3e7b6ee1	0.24554016
122	0x3da0b837	0.07847636
123	0x3d8a989b	0.067673884
124	0xbe42616d	-0.18982477
125	0xbdbb0b2a	-0.09132989
126	0xbd916934	-0.07100144
127	0x3ea772e5	0.32704845
128	0xbc66b3df	-0.014080971
129	0x3be84a04	0.0070889015
130	0xbe025585	-0.12727936
131	0xbd4e53e6	-0.05037298
132	0xbd23c9f7	-0.03998753
133	0xbd9c9526	-0.07645635
134	0x39ba6953	0.00035555157
135	0xbd0aaa0c	-0.033853576
136	0xbdbe3fd7	-0.0928952
137	0xbc74ea78	-0.01494848
138	0xbd9bdba2	-0.07610251
139	0xbd9dd1d6	-0.07706039
140	0xbca81a1d	-0.020520264
141	0x3de1e4c1	0.110299595
142	0x3d58723f	0.05284333
143	0x3cff034c	0.031129502
144	0xbd3f9ba9	-0.04677931
145	0xbd3d3be6	-0.0461997
146	0x3decf5c6	0.11570315
147	0x3c87d1dc	0.016579561
148	0xbe074f97	-0.13213955
149	0x3dd471ae	0.10373245
150	0xbd86ca84	-0.065815955
151	0xbd4b2405	-0.049594898
152	0x3dc7b20d	0.09750757
153	0x3d0dd5c7	0.034627702
154	0x3c765cee	0.015036805
155	0xbbe0bc37	-0.0068583745
156	0xbdb42928	-0.087969124
157	0xbdde7614	-0.10862365
158	0x3d7149ed	0.05890839
159	0x3d744489	0.059635673
160	0x3d43b7a6	0.047782563
161	0x3d5a14ae	0.053242378
162	0x3d6c525d	0.057695735
163	0x3de6b60c	0.112651914
164	0x3d343eb7	0.044005122
165	0xbd9837b1	-0.07432497
166	0x3d7fa4cc	0.062413022
167	0x3ca362a7	0.019944502
168	0xbbb31c66	-0.005466032
169	0xbdd3ef27	-0.10348349
170	0x3d7c3242	0.061571367
171	0xbd5592df	-0.05214202
172	0x3c4ab4dd	0.012372223
173	0x3e155278	0.1458224
174	0x3d999460	0.074990034
175	0xbd9e9cf5	-0.07744781
176	0x3da9e87e	0.082962975
177	0xbd0fd3f4	-0.035114244
178	0x3d4a0a41	0.049326185
179	0xbd72d1fa	-0.05928228
180	0x3da1b172	0.07895173
181	0xbd07028c	-0.032961413
182	0x3de33a38	0.11095089
183	0xbce5e0b7	-0.028061254
184	0x3d538aab	0.051645916
185	0xbe214429	-0.15748657
186	0xbcac1467	-0.021005822
187	0xbd7e208b	-0.062042754
188	0xbd46c863	-0.048530947
189	0xbc5f2990	-0.013620749
190	0xbe1aadec	-0.15105408
191	0xbd8c020a	-0.068363264
192	0xbcc3e802	-0.02391434
193	0x3db02513	0.08600821
194	0xbb32b07a	-0.0027265833
195	0x3dd310e1	0.10305954
196	0x3d17fdab	0.03710715
197	0x3d3eaddc	0.046552524
198	0xbd5d8f55	-0.05409177
199	0xbd2cc265	-0.042177577
200	0x3d9b307b	0.07577606
201	0x3c8c8ac5	0.017156014
202	0x3d5fe5a2	0.054662354
203	0x3cb899c2	0.022534255
204	0xbdb82ebb	-0.08993288
205	0x3d68d1c0	0.05684066
206	0xbcf1f5a3	-0.029536074
207	0xbd578453	-0.05261643
208	0xbdd902f7	-0.105962686
209	0x3d9da700	0.07697868
210	0x3df80248	0.1210981
211	0x3d9d3de1	0.07677818
212	0xbce43cbc	-0.027860992
213	0x3dcac9a8	0.09901744
214	0xbd891876	-0.06694119
215	0x3ceee7af	0.02916321
216	0xbd65163c	-0.055929407
217	0xbcfc6569	-0.030810075
218	0x3c2498ee	0.010046227
219	0xbcb73cf1	-0.022367926
220	0xbdab2dc6	-0.0835834
221	0xbc93f19b	-0.018059542
222	0x3da53854	0.08067384
223	0x3bd36660	0.006451413
224	0x3dd887d7	0.105727844
225	0x3c86028f	0.016358642
226	0x3d6bf269	0.057604227
227	0x3ca5c06a	0.020233352
228	0xbd04c872	-0.032417722
229	0x3d8d8391	0.0690986
230	0xbc99dc54	-0.018781818
231	0xbdbc13a8	-0.09183437
232	0xbd2a89a3	-0.041635167
233	0x3c9b3c2c	0.01894959
234	0xbdd51760	-0.10404849
235	0x3c4c981c	0.012487438
236	0x3d85591d	0.06511138
237	0x3c8e535c	0.017373733
238	0x3d53bfa9	0.051696453
239	0x3ce99bd9	0.028516697
240	0x3c8c063a	0.017092813
241	0xbd6e5c02	-0.058193214
242	0x3d434456	0.047672592
243	0x3d8b960e	0.0681573
244	0xbc8411c8	-0.01612176
245	0xbd5faea0	-0.054609895
246	0xbe3bf219	-0.18354072
247	0x3bfde7fb	0.0077486015
248	0x3c9ebf82	0.019378427
249	0xbd80df33	-0.06292572
250	0xbd340b63	-0.04395617
251	0x3d0cd1f0	0.0343799
252	0x3d8c9a60	0.06865382
253	0xbc061baf	-0.008185311
254	0x3d83f961	0.064440496
255	0xbcd4e60c	-0.025988601

adv.bias f4 [16]
0	0xbda9f3a0	-0.08298421
1	0x3d4956d4	0.04915507
2	0xbd434d4d	-0.04768114
3	0x3d94a1ad	0.072574
4	0xbd901165	-0.07034568
5	0x3d325b06	0.043543838
6	0xbe0773a3	-0.13227706
7	0x3d85ddd5	0.06536452
8	0xbe0e127c	-0.13874239
9	0x3da2d254	0.07950273
10	0x3d2dbb3d	0.042414892
11	0x3e14e387	0.1453992
12	0xbd92c209	-0.071659155
13	0xbcdc1a22	-0.02686793
14	0xbcf6d10c	-0.030128978
15	0x3d007bb5	0.031367976
