DDPG/savedModels/10cyl/actor1000.pt (torch, 176335 bytes, 12 tensors)

fc.weight f4 [128, 53]
0.106788054 -0.03875901 0.055044346 0.086229086 -0.08177872 0.031914786 -0.11243851 -0.055708602
-0.059449013 -0.032813262 -0.10432593 -0.11111184 -0.07709793 0.033092316 0.006384422 0.032681286
-0.050722 -0.034284797 -0.032410495 -0.10148161 -0.060934138 0.043778874 0.12422189 0.012182975
0.11495087 -0.05273342 0.110978946 0.064005844 -0.09273542 -0.08358775 -0.005859371 0.05766547
-0.09723053 0.008474592 -0.032481458 0.11021154 -0.057025235 0.06562934 0.01863295 -0.11882868
0.17470762 0.04663297 0.10127096 0.102975495 0.011671853 -0.15142457 -0.06512126 -0.0052237087
0.09362473 0.12042809 0.06556777 -0.03412336 -0.77541035 -0.21019985 -0.040497858 -0.049171362
-0.0036987285 -0.052972592 -0.03995509 -0.10866723 0.12201597 -0.14297457 0.002751186 0.13849567
0.1075037 -0.0015962168 0.065781325 0.07259692 0.031589843 0.05768524 -0.09112857 0.07974428
-0.055735115 0.10056486 -0.047132194 -0.049557604 0.020660564 -0.081033275 0.008142005 0.11224658
-0.109718494 0.07942583 -0.11312456 0.11899609 0.066472046 0.11710597 0.14662081 -0.012241797
-0.14808229 -0.0028456203 0.011461746 0.009413602 -0.07798788 0.16790852 -0.0064295414 -0.047410097
-0.0008999305 0.010730794 0.083805844 -0.033373542 -0.122519396 0.28195116 -0.115163416 0.105403975
-0.07445035 -0.48489347 -0.10913953 -0.010248151 -0.048283484 0.09692273 -0.07154878 0.00929496
0.03209077 0.03438166 0.06582776 -0.020196242 0.09930444 -0.005943207 -0.021277273 0.030400796
0.04241056 0.06659393 0.054014616 -0.1169583 -0.12836978 -0.07963068 -0.047143925 -0.10468953
-0.06849187 -0.08607086 0.05429861 -0.018567327 0.07560708 -0.039681636 -0.038900774 0.116317034
0.11108777 0.0887858 -0.058799516 0.02981656 -0.09065152 -0.014906701 0.016315337 -0.00931817
-0.034925424 0.007888149 0.10378989 -0.13909474 0.17305486 0.08091892 -0.018376485 -0.10464305
-0.11861034 0.12850107 0.15091845 -0.02660519 0.093034476 -0.08169919 0.8639136 0.011732898
-0.076799095 -0.017465303 0.066292316 0.15466762 -0.15592216 -0.03053738 -0.092396 0.008090576
-0.084746346 0.011442315 0.07572458 -0.01282098 -0.036727056 -0.048662715 -0.001281262 0.021272726
0.039744236 0.02165872 -0.09574077 0.037219506 0.07969107 0.008477463 -0.051525272 -0.041544877
-0.03603178 0.043267854 0.0027405734 -0.0140117565 0.07814371 -0.03793874 -0.08011064 0.02928349
-0.114519455 0.016558435 -0.044439774 -0.122080915 -0.12506883 0.16878799 0.23607785 -0.05520932
-0.11793009 -0.061744604 0.024893971 -0.04169407 0.109487504 0.08819444 -0.111777894 0.18199842
-0.1330303 0.17602485 -0.13732184 0.4647146 -0.018979399 0.009720711 0.12101523 0.0108113615
-0.0059356974 0.11641027 -0.06444876 -0.11964748 -0.018260255 0.020966247 0.17328894 -0.052828267
0.039057277 0.1525354 -0.010013571 -0.005402618 -0.19851364 -0.080876246 -0.13179095 0.08337376
0.12302805 -0.0033326491 -0.09138875 0.024230737 -0.04277614 -0.03330732 0.11199496 -0.07286223
0.1391729 -0.061491404 -0.11596714 0.054935925 -0.009116434 -0.09395521 0.109580584 -0.09890416
0.06165653 0.12932134 0.04511639 0.17357656 -0.1254892 0.18580362 -0.02671743 0.05977197
00000000: b2b3 da3d c5c1 1ebd 2e76 613d e098 b03d
00000010: 9a7b a7bd 14b9 023d 2946 e6bd b42e 64bd
00000020: cf80 73bd 3367 06bd d5a8 d5bd 9b8e e3bd
00000030: 85e5 9dbd cf8b 073d 6a34 d13b d0dc 053d
00000040: dfc1 4fbd 376e 0cbd dec0 04bd 97d5 cfbd
00000050: 1396 79bd 7a51 333d 0c68 fe3d 1a9b 473c
00000060: 5d6b eb3d 00ff 57bd ee48 e33d 7f15 833d
00000070: 11ec bdbd 0e30 abbd f7ff bfbb a132 6c3d
00000080: cd20 c7bd 04d9 0a3c 470b 05bd 96b6 e13d
00000090: 4b93 69bd ad68 863d 21a4 983c 735c f3bd
000000a0: 8ee6 323e 3702 3f3d 2667 cf3d d1e4 d23d
000000b0: 4d3b 3f3c 0b0f 1bbe 4c5e 85bd a52b abbb
000000c0: 53be bf3d 01a3 f63d 6548 863d f0c4 0bbd
000000d0: 4b81 46bf a13e 57be 15e1 25bd e967 49bd
000000e0: 5e66 72bb caf9 58bd f3a7 23bd ed8c debd
000000f0: 82e3 f93d ed67 12be 3e4d 343b cfd1 0d3e
00000100: e62a dc3d 2638 d1ba 5cb8 863d b2ad 943d
00000110: 5a64 013d 5c47 6c3d 9ea1 babd f850 a33d
00000120: 814a 64bd f3f4 cd3d b00d 41bd eafc 4abd
00000130: 5840 a93c c6f4 a5bd 0b66 053c 89e1 e53d
00000140: 17b4 e0bd 02aa a23d d9ad e7bd 39b4 f33d
00000150: 7f22 883d 41d5 ef3d c423 163e d191 48bc
00000160: e2a2 17be 967d 3abb 0cca 3b3c 823b 1a3c
00000170: 1cb8 9fbd 36f0 2b3e e7ae d2bb 1731 42bd
00000180: 50e9 6bba 36d0 2f3c 66a2 ab3d b2b2 08bd
00000190: 73eb fabd e75b 903e ccda ebbd 0ade d73d
000001a0: 6d79 98bd f543 f8be 8c84 dfbd dce7 27bc
000001b0: e7c4 45bd 6d7f c63d 2b88 92bd e349 183c
000001c0: 9c71 033d c9d3 0c3d b4d0 863d 9772 a5bc
000001d0: 2060 cb3d 3cbf c2bb ad4d aebc 170b f93c
000001e0: b2b6 2d3d 6662 883d 6e3e 5d3d d587 efbd
000001f0: 5e73 03be 6915 a3bd fd19 41bd 7767 d6bd
00000200: 7745 8cbd eb45 b0bd 3868 5e3d 821a 98bc
00000210: e2d7 9a3d 3689 22bd 6b56 1fbd a037 ee3d
00000220: fc81 e33d 54d5 b53d c3d7 70bd dc41 f43c
00000230: 81a7 b9bd 3c3b 74bc bea7 853c 3dab 18bc
00000240: f60d 0fbd 4b3d 013c cb8f d43d da6e 0ebe
00000250: 4b35 313e d2b8 a53d 488a 96bc 184f d6bd
00000260: fae9 f2bd c995 033e 5e8a 1a3e 21f3 d9bc
00000270: dc88 be3d e851 a7bd 7129 5d3f 573b 403c
00000280: d848 9dbd 6513 8fbc 44c4 873d 3061 1e3e
00000290: 0faa 1fbe 8729 fabc 1d3a bdbd 568e 043c
000002a0: 7e8f adbd 8c78 3b3c 7d15 9b3d 160f 52bc
000002b0: 1c6f 16bd 8e52 47bd 05f0 a7ba 2444 ae3c
000002c0: daca 223d a16d b13c bd13 c4bd 7b73 183d
000002d0: 1235 a33d 0fe5 0a3c 2a0c 53bd f62a 2abd
000002e0: 0f96 13bd a239 313d 319b 333b 9191 65bc
000002f0: cf09 a03d a765 1bbd 0c11 a4bd eee3 ef3c
00000300: 2d89 eabd 8ea5 873c 7b06 36bd 8f05 fabd
00000310: 0b12 00be c2d6 2c3e 64be 713e 2b23 62bd
00000320: 5585 f1bd e9e7 7cbd 71ee cb3c 67c7 2abd
00000330: fc3a e03d 499f b43d cfeb e4bd cb5d 3a3e
00000340: 1839 08be dc3f 343e 199e 0cbe 12ef ed3e
00000350: af7a 9bbc 9e43 1f3c d5d6 f73d 2322 313c
00000360: 3d80 c2bb 8268 ee3d b6fd 83bd bd09 f5bd
00000370: 8896 95bc 68c1 ab3c a872 313e 7462 58bd
00000380: 86fa 1f3d 3d32 1c3e f60f 24bc 7208 b1bb
00000390: 2947 4bbe 72a2 a5bd 35f4 06be ddbf aa3d
000003a0: 21f6 fb3d 9368 5abb 062a bbbd 8a7f c63c
000003b0: 0936 2fbd 426d 08bd 9d5d e53d cb38 95bd
000003c0: 5783 0e3e 69de 7bbd 2e80 edbd 7e04 613d
000003d0: 185d 15bc 976b c0bd c96b e03d 448e cabd
000003e0: 8f8b 7c3d d06c 043e f7cb 383d 0ebe 313e
000003f0: 3e80 00be 4e43 3e3e 83de dabc 74d3 743d

fc.bias f4 [128]
0.011218346 -0.057476148 -0.17735216 0.0590248 0.07400804 0.07107846 0.0020900397 -0.07175722
0.041490488 -0.049460765 0.022940734 -0.066359706 0.026879165 -0.11693588 -0.07399942 0.12174851
-0.14910337 -0.04834312 0.08415888 -0.12366728 -0.06582356 -0.11332034 -0.069878094 0.18989173
0.118005835 -0.113823205 -0.023880772 -0.13214251 -0.13775524 0.010456969 0.023103006 0.10120041
0.20477462 0.08195175 -0.065362416 -0.112152144 -0.118377455 0.047369514 0.0029169468 0.05408611
-0.011112792 0.0009915171 -0.18442665 -0.074087046 0.10254486 0.09385727 0.04503902 -0.046576947
-0.091396414 0.17113008 -0.09406477 -0.029954866 0.010390281 0.103827626 -0.04011869 0.018424662
0.0963735 -0.113802336 -0.10386961 -0.017431112 -0.036922853 -0.06453666 0.12607194 0.06838175
-0.08821189 0.05750596 -0.118258536 0.10215584 -0.012638115 0.17421398 -0.14049098 -0.012387894
0.059801247 -0.025600027 0.0003023265 -0.01858124 -0.06648994 0.11675248 0.05371706 0.09409516
-0.19920486 -0.10509128 -0.14575015 -0.14795718 0.07722558 -0.014164097 -0.037633944 -0.050636098
0.013312944 0.13520133 0.049493328 0.09139679 -0.07671627 0.031018386 0.041793894 0.19719996
0.100775555 0.090028204 0.19037782 -0.1493149 0.04034094 -0.11589642 -0.07921411 -0.09858356
0.14915149 -0.15449409 0.06552015 -0.06762538 -0.099002644 -0.0068052453 -0.04444532 0.15268828
0.064548746 -0.008667805 0.13355671 -0.02280077 0.012343212 -0.11190169 0.09776476 -0.083809234
0.094159454 0.11069547 -0.11366718 0.11339757 -0.060613114 0.119023226 0.032600317 0.1177647
00000000: 27cd 373c 1c6c 6bbd ce9b 35be fdc3 713d
00000010: 8791 973d 9591 913d 0cf9 083b 73f5 92bd
00000020: eef1 293d 5f97 4abd 35ee bb3c 99e7 87bd
00000030: b231 dc3c 147c efbd 028d 97bd 4857 f93d
00000040: 8eae 18be 6f03 46bd 7e5b ac3d 4545 fdbd
00000050: 81ce 86bd 7f14 e8bd 3f1c 8fbd fa72 423e
00000060: 0bad f13d 241c e9bd 9ca1 c3bc 5e50 07be
00000070: b60f 0dbe b553 2b3c 8442 bd3c 2942 cf3d
00000080: 70b0 513e 52d6 a73d bbdc 85bd 06b0 e5bd
00000090: e16f f2bd 8906 423d 3f2a 3f3b 6689 5d3d
000000a0: 6e12 36bc cbf5 813a 57da 3cbe f3ba 97bd
000000b0: 0a03 d23d 3e38 c03d d67a 383d 78c7 3ebd
000000c0: 0b2e bbbd b93c 2f3e 08a5 c0bd e863 f5bc
000000d0: ff3b 2a3c 94a3 d43d 7f53 24bd 51ef 963c
000000e0: 785f c53d 3311 e9bd 97b9 d4bd b1cb 8ebc
000000f0: 6b3c 17bd cc2b 84bd 0119 013e bb0b 8c3d
00000100: 6fa8 b4bd 5f8b 6b3d 8831 f2bd 1537 d13d
00000110: 1910 4fbc 2665 323e dedc 0fbe 98f6 4abc
00000120: 27f2 743d 26b7 d1bc 9381 9e39 af37 98bc
00000130: e12b 88bd ed1b ef3d 6b06 5c3d f7b4 c03d
00000140: 5cfc 4bbe 193a d7bd 873f 15be 1682 17be
00000150: 7228 9e3d 8710 68bc 0d26 1abd cc67 4fbd
00000160: 891e 5a3c 3872 0a3e 84b9 4a3d 3e2e bb3d
00000170: 6b1d 9dbd 451a fe3c 1330 2b3d c9ee 493e
00000180: 6a63 ce3d b560 b83d 67f2 423e 01e6 18be
00000190: 8b3c 253d 1a5b edbd 023b a2bd 2de6 c9bd
000001a0: 2bbb 183e b333 1ebe 6e2f 863d 2d7f 8abd
000001b0: e6c1 cabd 89fe debb 4c0c 36bd 515a 1c3e
000001c0: 2232 843d 6903 0ebc 17c3 083e aec8 babc
000001d0: 2f3b 4a3c b72c e5bd e438 c83d 2da4 abbd
000001e0: acd6 c03d 4eb4 e23d 57ca e8bd fc3c e83d
000001f0: 7545 78bd 73c2 f33d e987 053d 9e2e f13d

layers.0.weight f4 [128, 128]
-0.009480788 0.020605989 0.03705589 0.10734018 0.069220476 0.18767677 -0.0059140217 0.059049033
-0.036046844 0.0356855 -0.04419304 -0.102868505 0.037681215 0.023169361 -0.03618336 0.07015159
0.068871185 -0.06531907 0.014238304 0.007958023 0.12379351 -0.036525156 -0.038945023 0.058494873
0.0031039708 0.13524385 -0.10516891 0.091876015 0.0010961143 0.07421318 0.011421583 0.050149057
-0.030916385 -0.023387333 0.029844308 0.031271257 0.06736241 -0.0051067034 0.17702375 -0.061262306
0.0176453 -0.08001011 0.016036898 0.039649174 0.009962896 -0.019666193 -0.016200535 0.056042682
-0.08328942 0.049653165 -0.062483255 0.06771344 0.005512952 -0.032165296 0.095265016 0.012536469
0.009462081 0.09334126 0.10183701 0.012225771 -0.007317778 -0.045036927 0.006603475 0.10677472
0.09308513 0.036432073 0.081620485 -0.045551248 -0.15967587 0.022347325 0.068376824 0.010246028
0.08564348 -0.040843237 0.046493024 0.059561532 0.05265843 -0.078308605 -0.11838401 -0.018795498
0.027410394 0.121829785 0.09952976 -0.029069616 -0.14823312 0.093938634 -0.001939129 -0.055309657
0.044527043 -0.027495824 -0.013335891 -0.18881816 0.10054173 -0.02342922 0.00026644228 -0.042941783
-0.17668423 0.0540835 -0.026874837 0.0351504 -0.08564968 0.075806834 -0.18242754 0.04293109
0.05666445 0.021421148 0.09069331 0.08782797 -0.024132593 0.023927718 0.070743285 -0.05638096
0.0012754718 -0.0005451081 -0.054658495 0.012253315 -0.060915906 0.048721157 -0.033907633 0.14088939
-0.106187046 0.034207832 -0.037152223 0.015213455 0.008640266 -0.116449475 -0.043213982 -0.13850152
0.12955122 -0.010307161 0.03314532 -0.020611843 0.066123016 -0.026645334 0.10211655 -0.08237525
0.07256458 -0.15197323 0.032137174 0.07757891 -0.10678913 0.04110933 -0.07677546 0.05744327
-0.09337862 -0.02967869 -0.014699464 -0.007659771 0.09636161 0.10990356 -0.06894689 -0.0112513285
-0.07645328 0.058645364 0.029583558 0.022728862 0.026929151 0.041289877 -0.097590216 -0.0017433513
0.05897432 0.024003152 0.004586222 0.01101118 -0.06338208 -0.047003295 -0.068831876 -0.03423762
-0.07253731 -0.10661009 0.0055107437 -0.017448327 -0.079875536 0.10558863 0.047835488 -0.013066472
-0.035578657 -0.11454417 0.019228816 0.008557503 0.021642976 -0.007501319 -0.0062033157 0.018196087
0.026752548 -0.04121886 -0.034501936 0.10340342 0.08018519 0.044402067 0.12041755 0.03435114
0.00028614732 -0.023263888 0.08282028 -0.010810766 -0.038412668 -0.029620377 -0.14537339 0.050334144
-0.03632634 -0.014855984 0.03643055 -0.058571137 0.113524854 0.016906101 -0.037506565 -0.054100014
0.047477275 0.038037676 -0.06198257 0.050648224 0.09228658 0.017408317 0.031611864 0.01902428
-0.027663784 -0.08034235 -0.06774956 0.049326923 -0.031290863 -0.048705366 0.068064325 -0.006294499
-0.08043125 -0.02168411 -0.027433153 -0.010485412 0.07936017 0.09701106 0.07836086 -0.062383983
0.045226447 0.04816738 0.080617204 0.018956276 -0.11090833 -0.09860964 -0.048286006 -0.059935607
0.054472134 0.060178556 0.06244389 -0.029220967 0.17851757 -0.11064913 -0.00880599 -0.0044752876
0.098150894 -0.027781332 0.068635 -0.060685307 -0.10831027 0.14152057 -0.0028622544 -0.12766096
00000000: 4f55 1bbc e4cd a83c ebc7 173d 2bd5 db3d
00000010: 77c3 8d3d 572e 403e 69ca c1bb 66dd 713d
00000020: dba5 13bd f52a 123d c303 35bd b9ac d2bd
00000030: 9e57 1a3d accd bd3c 0135 14bd a3ab 8f3d
00000040: 560c 8d3d 01c6 85bd c747 693c 5e62 023c
00000050: 7487 fd3d 679b 15bd d184 1fbd 5298 6f3d
00000060: fd6b 4b3b 5d7d 0a3e cc62 d7bd 7e29 bc3d
00000070: 7eab 8f3a 14fd 973d 9721 3b3c 1969 4d3d
00000080: 5c44 fdbc cb96 bfbc 0d7c f43c 4a16 003d
00000090: 4ef5 893d 2256 a7bb b745 353e 2fee 7abd
000000a0: e08c 903c 57dc a3bd d05f 833c 2c67 223d
000000b0: 6a3b 233c ff1a a1bc fcb6 84bc 038d 653d
000000c0: a593 aabd 1e61 4b3d 71ee 7fbd 58ad 8a3d
000000d0: fea5 b43b c2bf 03bd 4e1a c33d c365 4d3c
000000e0: d806 1b3c b429 bf3d ec8f d03d 9a4e 483c
000000f0: f9c9 efbb a478 38bd f761 d83b b4ac da3d
00000100: 6ba3 be3d cc39 153d a428 a73d f293 3abd
00000110: 1282 23be bd11 b73c 2609 8c3d f5de 273c
00000120: d965 af3d 3d4b 27bd 786f 3e3d cbf6 733d
00000130: 5eb0 573d 4360 a0bd 5173 f2bd 04f9 99bc
00000140: c38b e03c e581 f93d 42d6 cb3d 6723 eebc
00000150: 6cca 17be e662 c03d 5f2a feba 618c 62bd
00000160: fd61 363d ec3e e1bc c87e 5abc 8c59 41be
00000170: d3e8 cd3d a3ee bfbc 47b1 8b39 b9e3 2fbd
00000180: b6ec 34be a986 5d3d 9e28 dcbc def9 0f3d
00000190: 1969 afbd 9d40 9b3d 49ce 3abe 83d8 2f3d
000001a0: fb18 683d 677b af3c 6abd b93d 27df b33d
000001b0: b7b1 c5bc 1004 c43c dbe1 903d b9ef 66bd
000001c0: bb2d a73a 96e5 0eba 96e1 5fbd 21c2 483c
000001d0: f582 79bd d68f 473d bbe2 0abd 4f45 103e
000001e0: 9878 d9bd 831d 0c3d ee2c 18bd db41 793c
000001f0: e78f 0d3c 107d eebd 2501 31bd 58d3 0dbe
00000200: 13a9 043e 5edf 28bc 63c3 073d 2bda a8bc
00000210: 816b 873d 5147 dabc 7b22 d13d 5bb4 a8bd
00000220: bd9c 943d df9e 1bbe 45a2 033d b1e1 9e3d
00000230: 42b4 dabd 4262 283d 743c 9dbd a249 6b3d
00000240: 4a3d bfbd b920 f3bc 05d6 70bc d1fe fabb
00000250: 3c59 c53d 1e15 e13d 0734 8dbd 7e57 38bc
00000260: 8a93 9cbd 1f36 703d 3859 f23c e131 ba3c
00000270: 869a dc3c 931f 293d 61dd c7bd 2a81 e4ba
00000280: 0e8f 713d 42a2 c43c 0548 963b 3c68 343c
00000290: 77ce 81bd 8786 40bd baf7 8cbd bf3c 0cbd
000002a0: 718e 94bd 6456 dabd 7893 b43b cbef 8ebc
000002b0: c995 a3bd da3e d83d 25ef 433d c114 56bc
000002c0: edba 11bd 2296 eabd c085 9d3c c534 0c3c
000002d0: 9c4c b13c a0cd f5bb 2f45 cbbb f60f 953c
000002e0: 2928 db3c 1bd5 28bd e751 0dbd 2cc5 d33d
000002f0: 2238 a43d f1de 353d 7a9d f63d c8b3 0c3d
00000300: 0b06 9639 e993 bebc ae9d a93d a41f 31bc
00000310: 9a56 1dbd 6fa6 f2bc c3dc 14be 2d2b 4e3d
00000320: eeca 14bd 8366 73bc 3338 153d 4ae8 6fbd
00000330: b87f e83d aa7e 8a3c 7ca0 19bd fa97 5dbd
00000340: 8877 423d 65cd 1b3d 6fe1 7dbd 8374 4f3d
00000350: bf00 bd3d e39b 8e3c 717b 013d cfd8 9b3c
00000360: 299f e2bc 888a a4bd 48c0 8abd 070b 4a3d
00000370: d92a 00bd 477f 47bd 4f65 8b3d 1642 cebb
00000380: 24b9 a4bd e0a2 b1bc 7ebb e0bc 01cb 2bbc
00000390: 9687 a23d bcad c63d a97b a03d 5986 7fbd
000003a0: 5e3f 393d 294b 453d a21a a53d 314a 9b3c
000003b0: e823 e3bd daf3 c9bd 8cc7 45bd 0a7f 75bd
000003c0: 2c1e 5f3d ca7d 763d 2ac5 7f3d cf60 efbc
000003d0: 4fcd 363e 039c e2bd 0047 10bc 6fa5 92bb
000003e0: 5603 c93d ad95 e3bc 8290 8c3d 2891 78bd
000003f0: c6d1 ddbd c5ea 103e a994 3bbb 8eb9 02be

layers.0.bias f4 [128]
0.0057041324 -0.077330485 -0.03486989 -0.07483621 0.049962077 -0.039540686 -0.034925822 -0.11959083
0.046610937 -0.038384825 -0.013338705 0.07329464 -0.007336286 -0.06756265 0.044849575 0.014902944
0.07129066 -0.1017217 0.04543343 -0.02255391 0.06767576 -0.023756903 0.008753656 0.017624361
-0.1080529 -0.093196 -0.0792271 0.039710287 -0.026787536 0.037301436 0.02726993 -0.0065526967
0.02235716 -0.107247815 -0.12337146 0.08493543 -0.07372852 -0.033903703 -0.013104213 -0.052308023
0.043085538 0.044627123 0.089161515 -0.0918806 -0.09453605 -0.061557177 -0.04037695 -0.10442341
-0.057114683 0.038495176 -0.115348384 0.010720482 0.01706409 -0.019941274 -0.062371336 -0.021119619
-0.040868763 -0.017813418 -0.06309463 0.024826543 0.027670542 -0.04387185 -0.10808083 -0.010406243
-0.084103964 -0.118391 -0.033651587 0.053051565 -0.036581658 -0.031628303 -0.13908306 -0.02205062
-0.09089452 0.022613775 -0.05792806 0.00664786 -0.08419081 0.008144896 -0.08678264 0.01383978
-0.067069314 -0.019961525 0.01320965 -0.0563848 0.024172088 -0.029348683 0.04798834 -0.077446215
-0.074020915 -0.0015346064 -0.07950667 -0.037712887 0.048952047 -0.10200344 -0.11006728 0.058488987
0.034715965 -0.030319652 -0.03729811 -0.018514236 -0.082757406 0.08074224 -0.048260354 -0.068171844
0.04947348 -0.11381965 -0.09405274 0.008656309 -0.07508048 -0.05448518 0.04427889 -0.0016234685
-0.026007205 0.012214011 0.060653098 -0.0025750112 -0.07961333 -0.07732845 -0.031731486 -0.0012646369
0.010284509 -0.07249389 -0.088199735 0.0011159679 -0.10960407 -0.024070315 0.03915411 0.014734021
00000000: bbe9 ba3b 725f 9ebd bbd3 0ebd ba43 99bd
00000010: 09a5 4c3d 6af5 21bd 610e 0fbd 09ec f4bd
00000020: 1ceb 3e3d 6839 1dbd 958a 5abc 801b 963d
00000030: 3a65 f0bb 495e 8abd 30b4 373d 7a2b 743c
00000040: d600 923d 7753 d0bd 6718 3a3d fac2 b8bc
00000050: 9799 8a3d d69d c2bc 7f6b 0f3c f760 903c
00000060: d74a ddbd 8bdd bebd d141 a2bd 41a7 223d
00000070: 8971 dbbc 64c9 183d 3065 df3c 01b8 d6bb
00000080: 5d26 b73c bea4 dbbd 2daa fcbd a0f2 ad3d
00000090: fafe 96bd 9cde 0abd 0eb3 56bc f040 56bd
000000a0: 767a 303d eeca 363d 509a b63d e52b bcbd
000000b0: 1e9c c1bd 6123 7cbd 4d62 25bd f1db d5bd
000000c0: 16f1 69bd 1ead 1d3d c63b ecbd f6a4 2f3c
000000d0: fec9 8b3c e25b a3bc 1679 7fbd 0d03 adbc
000000e0: 0166 27bd 72ed 91bc c237 81bd 0961 cb3c
000000f0: 55ad e23c f8b2 33bd 7b59 ddbd f27e 2abc
00000100: b33e acbd fb76 f2bd 3fd6 09bd 994c 593d
00000110: a6d6 15bd ae8c 01bd ca6b 0ebe 80a3 b4bc
00000120: e826 babd 8640 b93c f945 6dbd 4bd6 d93b
00000130: 3b6c acbd 2b72 053c 19bb b1bd 3fc0 623c
00000140: a35b 89bd 5a86 a3bc 4a6d 583c bff3 66bd
00000150: 8b04 c63c a66c f0bc 6c8f 443d 1f9c 9ebd
00000160: 4798 97bd d924 c9ba 65d4 a2bd d478 1abd
00000170: f181 483d 2ee7 d0bd f46a e1bd 2692 6f3d
00000180: 5432 0e3d eb60 f8bc e7c5 18bd 2bab 97bc
00000190: b77c a9bd 305c a53d a6ac 45bd ae9d 8bbd
000001a0: b4a4 4a3d 471a e9bd b99e c0bd 31d3 0d3c
000001b0: cbc3 99bd da2b 5fbd c85d 353d 90ca d4ba
000001c0: 100d d5bc 461d 483c 626f 783d 85c1 28bb
000001d0: 500c a3bd 615e 9ebd e0f8 01bd 2cc2 a5ba
000001e0: 5b80 283c ad77 94bd 10a2 b4bd ab45 923a
000001f0: 1978 e0bd 1c2f c5bc 0f60 203d f766 713c

layers.1.weight f4 [128, 128]
-0.094847076 0.19303307 0.025500627 -0.08736755 0.11541375 0.11785684 -0.22963892 -0.056267243
-0.21943927 0.12732197 -0.1032444 0.070753336 0.3943591 0.16459395 0.08654608 -0.13427684
-0.06289204 -0.33075333 -0.12667508 -0.16651559 -0.22842437 -0.12650032 -0.1563077 -0.10563721
0.10108509 -0.07854549 -0.13466248 0.072109304 0.31772038 0.041593626 -0.17483197 0.04226234
0.067169495 -0.19827841 -0.16689156 -0.11121228 -0.3175747 -0.07834292 0.0053676423 0.24496937
0.22245766 0.0763087 -0.1700236 -0.073067114 0.003874986 -0.1883831 -0.0034427952 -0.14848848
-0.024320073 0.27319202 0.16418661 -0.22179584 0.12564221 -0.28441373 0.09681671 0.022410253
0.17359251 -0.093346216 -0.028860237 -0.14189667 -0.17900534 -0.08103311 0.12690851 -0.16201265
0.025117226 -0.12174763 0.07313283 -0.014596536 0.042995874 -0.12066711 -0.11877168 0.16930184
0.062305886 -0.12058564 0.27466032 0.31265175 -0.004589624 -0.05906758 0.08908254 0.0982228
0.2652718 -0.09850613 -0.07783288 0.05388352 -0.20353794 0.013833006 -0.07334832 -0.13907322
0.059563894 0.007542433 -0.20657867 0.0709648 -0.02360679 -0.19445069 0.09041318 -0.26045606
0.30536294 0.098412335 -0.15776283 0.09239327 -0.10563401 -0.11403349 -0.26399404 0.22286078
0.013846244 -0.051040296 0.022841422 -0.20116793 -0.3073066 -0.011020522 0.050112214 -0.22111611
-0.25129572 0.05374209 -0.15385278 -0.025839733 -0.28207305 -0.03454925 -0.0719229 -0.17536889
-0.11266508 0.12212377 0.024715377 0.0034406479 0.01988405 0.2295772 0.059173293 -0.027425004
-0.046200592 -0.036421068 0.06476966 0.027958399 0.1401595 -0.1660403 0.28631884 -0.039975293
-0.18639497 -0.114247516 0.17388716 -0.021227082 0.09007713 -0.14414214 -0.1131072 -0.20991457
-0.010888469 -0.2093976 0.009259342 -0.21946058 -0.02476101 -0.064707085 -0.09662709 -0.23080634
0.13142425 0.14903559 -0.10735773 -0.04609123 0.0713625 0.07678291 -0.016952148 -0.08856909
0.21226114 -0.16149877 -0.24669912 -0.005388824 -0.13823949 -0.28226894 -0.148846 -0.19673306
-0.16275826 0.020519748 -0.07600883 -0.23626761 0.13094851 0.2377247 0.2659605 0.12200913
-0.17008202 0.14490758 0.10074632 0.17724726 0.1424396 -0.1774485 -0.08649913 -0.18864517
-0.0612076 -0.0133743705 -0.16934557 0.16599959 -0.055586405 -0.14902513 -0.193449 -0.1344733
-0.19880053 -0.13961871 -0.15640783 0.118818164 0.11680427 -0.20068592 0.19498028 -0.00961617
-0.16351011 0.19250986 -0.21397315 -0.005679162 -0.1266158 0.20022914 -0.04465089 -0.2148874
-0.34063852 0.12986155 0.038061347 -0.0065356526 -0.099532925 0.02667282 -0.094300725 -0.12747103
-0.09621266 -0.023405785 -0.017874178 -0.04338248 0.07845652 0.22281832 -0.101790644 -0.14615126
0.033232093 -0.16831473 0.0523895 0.14314508 0.110314555 -0.07818106 0.00087274244 -0.16045904
-0.19499396 0.1971692 0.08875212 0.031356398 -0.09841078 0.05036343 -0.053460035 0.1316154
-0.12416103 0.11443389 0.10624037 -0.07589054 0.028291175 0.10759139 -0.031951476 -0.12997967
-0.09802664 -0.011514723 -0.024979295 0.15667991 -0.123115875 -0.09042924 -0.06501955 0.09978426
00000000: 2f3f c2bd 76aa 453e b1e6 d03c c2ed b2bd
00000010: 0b5e ec3d ed5e f13d 7726 6bbe 7b78 66bd
00000020: b0b4 60be b160 023e cd71 d3bd 20e7 903d
00000030: 70e9 c93e 518b 283e 123f b13d de7f 09be
00000040: 8bcd 80bd 8058 a9be 1db7 01be 1083 2abe
00000050: 14e8 69be 4d89 01be 200f 20be 5258 d8bd
00000060: b305 cf3d 75dc a0bd f6e4 09be 0bae 933d
00000070: 3fac a23e 145e 2a3d 2707 33be 471b 2d3d
00000080: 2990 893d 7f09 4bbe 9fe5 2abe 44c3 e3bd
00000090: 2799 a2be 4172 a0bd 0ce3 af3b 40d9 7a3e
000000a0: f1cb 633e bc47 9c3d ab1a 2ebe 36a4 95bd
000000b0: 7af3 7d3b 80e7 40be 85a0 61bb 5d0d 18be
000000c0: e43a c7bc d3df 8b3e 8920 283e 731e 63be
000000d0: 5aa8 003e ad9e 91be d747 c63d b595 b73c
000000e0: 3cc2 313e 4d2c bfbd 4e6c ecbc 5c4d 11be
000000f0: 2d4d 37be b0f4 a5bd 4ef4 013e a5e6 25be
00000100: a4c2 cd3c d256 f9bd aac6 953d 4f26 6fbc
00000110: 711c 303d 5120 f7bd 913e f3bd 765d 2d3e
00000120: 7534 7f3d 9bf5 f6bd 47a0 8c3e e413 a03e
00000130: 8e64 96bb d9f0 71bd e870 b63d 0929 c93d
00000140: b5d1 873e 95bd c9bd d866 9fbd f7b4 5c3d
00000150: 406c 50be d5a3 623c a537 96bd 3669 0ebe
00000160: 45f9 733d 8426 f73b 5c89 53be fe55 913d
00000170: 0763 c1bc 151e 47be 8c2a b93d 7f5a 85be
00000180: 8858 9c3e 688c c93d 948c 21be af38 bd3d
00000190: a556 d8bd 648a e9bd 3a2a 87be 9e35 643e
000001a0: 5bdb 623c a10f 51bd ef1d bb3c f7fe 4dbe
000001b0: 4a57 9dbe 6b8f 34bc 7742 4d3d 436c 62be
000001c0: d5a9 80be aa20 5c3d 958b 1dbe d9ad d3bc
000001d0: e16b 90be 8483 0dbd 504c 93bd e793 33be
000001e0: f3bc e6bd 071c fa3d e777 ca3c 7e7c 613b
000001f0: e0e3 a23c 4916 6b3e b25f 723d 67aa e0bc
00000200: d53c 3dbd 422e 15bd f5a5 843d 0309 e53c
00000210: f985 0f3e 7806 2abe 6298 923e 22bd 23bd
00000220: 53de 3ebe 9afa e9bd 7a0f 323e 6be4 adbc
00000230: 5c7a b83d ff99 13be bfa4 e7bd d8f3 56be
00000240: 8d65 32bc 536c 56be 7fb4 173c 46ba 60be
00000250: 9ad7 cabc 2685 84bd 6ce4 c5bd 7f58 6cbe
00000260: 1494 063e c99c 183e 5fde dbbd 28ca 3cbd
00000270: 8126 923d 5c40 9d3d 3bdf 8abc b663 b5bd
00000280: fc5a 593e ef5f 25be b29e 7cbe bb94 b0bb
00000290: a78e 0dbe 8e85 90be 166b 18be 6474 49be
000002a0: 1aaa 26be 0819 a83c 84aa 9bbd 23f0 71be
000002b0: 5e17 063e 1b6e 733e fa2b 883e ecdf f93d
000002c0: fb29 2ebe a762 143e 1654 ce3d 4e80 353e
000002d0: b0db 113e 0fb5 35be 7526 b1bd 332c 41be
000002e0: d2b4 7abd 2d20 5bbc ed68 2dbe ccfb 293e
000002f0: 92ae 63bd 0b9a 18be 7f17 46be 5eb3 09be
00000300: 5e92 4bbe 35f8 0ebe 6029 20be f056 f33d
00000310: 1437 ef3d 9c80 4dbe e9a8 473e 248d 1dbc
00000320: 326f 27be 4e21 453e c71b 5bbe 4418 babb
00000330: 93a7 01be de08 4d3e dae3 36bd 710b 5cbe
00000340: 2c68 aebe 6dfa 043e 37e6 1b3d 0729 d6bb
00000350: ebd7 cbbd f580 da3c bd20 c1bd c487 02be
00000360: 250b c5bd 7dbd bfbc de6c 92bc d4b1 31bd
00000370: d0ad a03d 7c2a 643e 9d77 d0bd ada8 15be
00000380: 601e 083d b25a 2cbe 5f96 563d a094 123e
00000390: 99ec e13d 641d a0bd c1c8 643a 604f 24be
000003a0: 7fac 47be b9e6 493e acc3 b53d 916f 003d
000003b0: 978b c9bd e249 4e3d e9f8 5abd 30c6 063e
000003c0: 2348 febd 515c ea3d 8d94 d93d 806c 9bbd
000003d0: e5c2 e73c e058 dc3d 8ddf 02bd 6419 05be
000003e0: 31c2 c8bd 40a8 3cbc 61a1 ccbc b370 203e
000003f0: 2d24 fcbd f732 b9bd f828 85bd b15b cc3d

layers.1.bias f4 [128]
0.2165467 0.17036921 0.002730207 0.16799507 0.21608306 0.10277507 -0.010176685 0.12605318
0.13989605 0.18774977 0.09716607 0.09660383 0.25421557 0.17322218 0.045162883 0.18714999
0.09966737 0.1871612 0.19960336 0.13851258 0.03749861 0.12844236 0.10834232 0.21609648
0.14686626 0.06995822 0.017431134 0.20236315 0.14887352 0.08966168 0.05986223 0.086768135
0.08273133 0.1565987 0.11199137 0.10709291 0.14043213 0.20237043 0.2562375 0.25792083
0.059059 0.19045933 0.22758427 0.113858685 0.16670914 0.18391217 0.19850521 0.10397191
0.11531037 0.079872206 0.082730636 0.12789583 0.03887928 0.16182345 0.05464973 0.19467124
0.031865202 0.06888945 0.28899097 0.1262386 0.08942839 0.17835002 -0.011865735 0.11154274
0.23424473 0.057211705 0.06938482 0.04077624 0.09349455 0.06303177 0.13889909 0.13397726
0.15446281 0.07896075 0.019565852 0.13211782 0.13586114 0.087053835 0.12577038 0.13075458
0.09056922 0.12016612 0.026249107 0.07895098 0.21816753 0.051736392 0.094883755 0.12194798
0.12803258 0.16658288 0.06494402 0.08526221 0.16843356 0.14686199 0.10533521 0.14429519
0.15386075 0.060094323 0.09661038 0.017464817 0.024405751 0.069589026 0.06147615 0.22828266
0.21195523 0.19311386 0.05401263 0.1328446 0.16006103 0.15339613 0.14343996 0.16181353
0.16295923 0.03659107 0.22532868 0.08473666 0.15433446 0.11022969 0.17152424 0.12063455
0.06818959 0.080844514 0.15330672 0.09111642 0.19800791 0.14583673 0.1275737 0.0777792
00000000: 6bbe 5d3e 4475 2e3e 46ed 323b e606 2c3e
00000010: e144 5d3e bc7b d23d 1cbc 26bc 1614 013e
00000020: e940 0f3e 7a41 403e 01ff c63d 3bd8 c53d
00000030: 8b28 823e 2861 313e b7fc 383d 3fa4 3f3e
00000040: 681e cc3d 30a7 3f3e d364 4c3e 3ed6 0d3e
00000050: 2498 193d 6586 033e 94e2 dd3d 6548 5d3e
00000060: 1c64 163e 4146 8f3d bdcb 8e3c 4938 4f3e
00000070: 4d72 183e 8ba0 b73d 1932 753d 7eb3 b13d
00000080: 0b6f a93d 695b 203e bb5b e53d 8753 db3d
00000090: 71cd 0f3e 323a 4f3e 9031 833e 330e 843e
000000a0: dae7 713d c507 433e da0b 693e be2e e93d
000000b0: cdb5 2a3e 7953 3c3e f344 4b3e 3aef d43d
000000c0: d827 ec3d 0a94 a33d ae6e a93d 20f7 023e
000000d0: e13f 1f3d 0cb5 253e 65d8 5f3d e657 473e
000000e0: 1685 023d e915 8d3d a0f6 933e b144 013e
000000f0: 3b26 b73d 63a1 363e 8068 42bc 8570 e43d
00000100: dadd 6f3e d256 6a3d a119 8e3d fd04 273d
00000110: 127a bf3d cd16 813d 903b 0e3e 5631 093e
00000120: 802b 1e3e 2cb6 a13d 9148 a03c e549 073e
00000130: 2f1f 0b3e 4849 b23d f3c9 003e 87e4 053e
00000140: 5b7c b93d a819 f63d 5e08 d73c 0db1 a13d
00000150: 4f67 5f3e 8ae9 533d 6a52 c23d ddbf f93d
00000160: f91a 033e b494 2a3e 5f01 853d f49d ae3d
00000170: d979 2c3e fd62 163e fdb9 d73d 1ec2 133e
00000180: ac8d 1d3e 7725 763d aadb c53d 6012 8f3c
00000190: 92ee c73c b184 8e3d 6ace 7b3d eec2 693e
000001a0: cb0a 593e a4bf 453e 593c 5d3d 6a08 083e
000001b0: 0ae7 233e e013 1d3e ede1 123e 72b2 253e
000001c0: c9de 263e 85e0 153d 90bc 663e 6a8a ad3d
000001d0: da09 1e3e 1bc0 e13d 0da4 2f3e 3f0f f73d
000001e0: fca6 8b3d cf91 a53d 70fc 1c3e 3f9b ba3d
000001f0: 96c2 4a3e 3956 153e aea2 023e b44a 9f3d

norms.0.weight f4 [128]
1.0649393 1.0461211 1.1325331 1.0220623 1.0284636 1.071532 0.8994929 0.9689607
0.9486857 0.95095795 1.0721389 1.0237352 1.059772 1.1071587 0.98465025 1.029601
1.0298412 0.96449834 1.027984 0.93104106 1.0349807 1.0756028 0.9686052 0.96287245
1.022308 1.0596268 1.1380603 0.92542404 0.98030037 1.0177532 0.9749264 0.9928724
1.0301429 1.0169076 0.96284807 1.1051158 1.0174012 0.98683584 1.0461162 1.0638316
0.9610546 1.0113956 1.01194 0.98456043 1.0174359 1.0167876 1.0218378 0.9141075
0.9657733 0.9407641 0.9711481 1.0048611 1.0789387 0.9517236 1.0801406 1.0439291
0.88152826 1.0017838 0.9728032 1.0220368 0.9601338 1.0353814 0.99787116 1.0231754
1.0253695 1.1069047 1.0968426 0.945582 1.0060353 0.99324495 1.0565208 1.0036999
0.9717047 1.0391688 1.0408047 0.97810125 0.93004596 0.9388452 1.0974579 1.0148296
0.9422596 0.9708294 1.0012648 0.9974915 1.0513595 1.0362846 1.0089118 1.0280058
1.1101254 0.8870779 1.0659326 0.9939842 1.0839688 0.9842911 1.1004038 1.0323718
1.2179059 0.9217156 0.9698173 1.0704753 1.0607378 0.915163 0.95397115 0.9014022
0.95084006 1.0831014 0.96116036 0.9571 1.1151437 0.96351653 0.9718978 0.95220065
1.0366914 1.0499594 1.1018987 1.0475159 1.0149766 1.0725372 0.98566085 1.1569862
0.9272293 1.0196939 0.9685435 0.9406097 0.96371156 0.9957531 0.98283976 0.9635446
00000000: ee4f 883f 4ce7 853f d8f6 903f f0d2 823f
00000010: b2a4 833f f627 893f 2b45 663f cf0d 783f
00000020: 11dd 723f fb71 733f d93b 893f c109 833f
00000030: 9ca6 873f 60b7 8d3f 0a12 7c3f f7c9 833f
00000040: d6d1 833f 5de9 763f fb94 833f b558 6e3f
00000050: 3f7a 843f 5aad 893f 83f6 773f cf7e 763f
00000060: fdda 823f daa1 873f f6ab 913f 97e8 6c3f
00000070: f7f4 7a3f bd45 823f c794 793f e32c 7e3f
00000080: b9db 833f 072a 823f 367d 763f 6f74 8d3f
00000090: 343a 823f 46a1 7c3f 23e7 853f a22b 883f
000000a0: ad07 763f 6975 813f 4087 813f 270c 7c3f
000000b0: 573b 823f 1926 823f 95cb 823f f302 6a3f
000000c0: eb3c 773f ebd5 703f 299d 783f 4a9f 803f
000000d0: aa1a 8a3f 28a4 733f 0c42 8a3f 789f 853f
000000e0: d6ab 613f 743a 803f a109 793f 1ad2 823f
000000f0: 54cb 753f 6187 843f 7c74 7f3f 69f7 823f
00000100: 4f3f 833f 0eaf 8d3f 5765 8c3f a911 723f
00000110: c4c5 803f 4d45 7e3f 133c 873f 3d79 803f
00000120: a4c1 783f 7c03 853f 1739 853f d864 7a3f
00000130: 7e17 6e3f 2958 703f 8079 8c3f f0e5 813f
00000140: ed37 713f 4788 783f 7229 803f 9a5b 7f3f
00000150: f392 863f f9a4 843f 0624 813f b295 833f
00000160: 9718 8e3f 8a17 633f 7b70 883f c075 7e3f
00000170: 7dbf 8a3f 80fa 7b3f 08da 8c3f c224 843f
00000180: 57e4 9b3f 8ef5 6b3f f245 783f 5605 893f
00000190: 42c6 873f 1f48 6a3f 7437 743f 4bc2 663f
000001a0: 416a 733f 11a3 8a3f 9b0e 763f 8104 753f
000001b0: 07bd 8e3f 05a9 763f 4bce 783f 6cc3 733f
000001c0: 4eb2 843f 1265 863f 040b 8d3f 0015 863f
000001d0: c1ea 813f e648 893f 4554 7c3f 2018 943f
000001e0: e65e 6d3f 5485 823f 78f2 773f cccb 703f
000001f0: cdb5 763f ade9 7e3f 639b 7b3f dcaa 763f

norms.0.bias f4 [128]
-0.0535605 0.049817957 -0.07848889 -0.036596503 0.030788803 -0.03257355 0.11638774 0.04301589
0.12507114 0.029342147 -0.011482196 0.013659783 0.0177562 -0.053886484 0.02030806 0.01531918
-0.02363398 -0.054070365 0.032938182 -0.018763078 0.044296425 -0.0050919554 0.080911174 0.10720474
0.043936938 -0.006836857 0.011927032 0.0073790527 0.018313332 0.040207613 -0.033979714 0.11983338
0.06776032 0.040233858 0.034854848 -0.09265359 0.010639984 -0.044101417 -0.047755077 -0.08209746
-0.025702022 0.078101516 0.017488856 0.008336244 0.036678556 0.08553316 -0.019170426 0.09080167
0.021650504 0.11786556 0.030881597 -0.0036026945 0.035953198 -0.010504913 0.020928515 0.010847816
0.076116115 0.06259784 0.0070146243 0.06324743 -0.016221996 -0.0025640537 0.05768059 0.008920913
0.02596645 -0.024313148 -0.03879066 -0.002583369 0.030016925 0.07959158 -0.048849534 0.011256489
-0.043727588 0.029649118 0.060395073 0.0523629 -0.0026971411 0.074346095 0.012245391 0.012610134
-0.014143704 0.0048054736 -0.048146132 -0.019747468 0.06743114 0.02092008 0.08635003 0.043921005
0.02588891 0.15021709 -0.01237939 0.008975171 -0.011281548 -0.0062415907 -0.10216473 0.04635243
-0.004999992 0.022674022 0.09195094 -0.069165066 0.015981305 0.096317045 0.06326982 0.11679237
-0.024185939 -0.056234393 -0.07024877 -0.040488396 -0.0040294053 0.05862025 0.04331288 -0.010320184
0.058590267 -0.036525957 0.012677868 -0.06660368 0.018331356 -0.01752115 0.036427855 -0.13482273
-0.02621239 0.008175479 -0.058354825 0.0033437628 -0.08818422 0.07540119 0.018066378 0.032932825
00000000: 4162 5bbd ea0d 4c3d c8be a0bd 37e6 15bd
00000010: cd38 fc3c d86b 05bd b25c ee3d 6e31 303d
00000020: a612 003e f15e f03c d21f 3cbc 48cd 5f3c
00000030: 7375 913c 13b8 5cbd 175d a63c 4cfd 7a3c
00000040: 0c9c c1bc e378 5dbd 30ea 063d 07b5 99bc
00000050: 2b70 353d 6bda a6bb c2b4 a53d 298e db3d
00000060: 38f7 333d b707 e0bb 9969 433c fbcb f13b
00000070: d705 963c bdb0 243d 502e 0bbd 346b f53d
00000080: ecc5 8a3d 42cc 243d f5c3 0e3d 2ac1 bdbd
00000090: 5453 2e3c b0a3 34bd d49a 43bd b722 a8bd
000000a0: 0c8d d2bc b0f3 9f3d ca44 8f3c be94 083c
000000b0: 413c 163d 022c af3d 4c0b 9dbc 3af6 b93d
000000c0: 665c b13c 8063 f13d 67fb fc3c 2f1b 6cbb
000000d0: a943 133d cc1c 2cbc 4772 ab3c 0abb 313c
000000e0: c4e2 9b3d 4c33 803d efda e53b de87 813d
000000f0: fee3 84bc af09 28bb 7b42 6c3d 0529 123c
00000100: 98b7 d43c 5e2c c7bc f5e2 1ebd bd4d 29bb
00000110: 0ee6 f53c e900 a33d 7316 48bd 236d 383c
00000120: b31b 33bd b5e2 f23c d360 773d 7b7a 563d
00000130: 85c2 30bb c442 983d e4a0 483c bc9a 4e3c
00000140: ffba 67bc 3c77 9d3b e134 45bd 71c5 a1bc
00000150: 5619 8a3d 9660 ab3c 49d8 b03d 83e6 333d
00000160: fb14 d43c 82d2 193e edd2 4abc 980c 133c
00000170: 3ed6 38bc 4286 ccbb be3b d1bd 0cdc 3d3d
00000180: f9d6 a3bb dfbe b93c c650 bc3d 6aa6 8dbd
00000190: 3aeb 823c df41 c53d 9b93 813d d730 ef3d
000001a0: 9721 c6bc 0956 66bd 96de 8fbd 29d7 25bd
000001b0: 1a09 84bb ca1b 703d d968 313d fd15 29bc
000001c0: 59fc 6f3d 3e9c 15bd d5b6 4f3c 8367 88bd
000001d0: a42b 963c 8488 8fbc 6035 153d f80e 0abe
000001e0: 5ebb d6bc 72f2 053c 7805 6fbd 0823 5b3b
000001f0: ee99 b4bd f06b 9a3d f1ff 933c 92e4 063d

norms.1.weight f4 [128]
1.4297428 1.3372245 1.4002856 1.4760308 1.3536922 1.5515633 1.4479065 1.5374647
1.5241351 1.5019214 1.4042974 1.4728366 1.4375621 1.6473264 1.4650233 1.3811219
1.587342 1.4190931 1.44077 1.8715694 1.4295869 1.3182054 1.4265655 1.497696
1.4369991 1.4732221 1.4290977 1.393959 1.4118946 1.6353368 1.4214058 1.540475
1.450153 1.4567516 1.4384456 1.74244 1.5400684 1.4166027 1.4470443 1.4086366
1.415158 1.4458088 1.6038861 1.6504232 1.4302071 1.8206869 1.3409152 1.3928192
1.4128525 1.4678203 1.436415 1.2969246 1.375213 1.962192 1.938004 1.4204559
1.3693928 1.8228679 1.3509468 1.4489108 1.443742 1.5350056 1.4051019 1.7375163
1.399217 1.4676907 2.0142574 1.3171095 1.5464367 1.8354412 1.4099307 1.4332153
1.3630733 1.4541453 1.74497 1.4413201 1.4403998 1.39427 1.349117 1.3787248
1.4376118 1.441274 1.4221916 1.4446032 1.4666256 1.4516828 1.3815731 1.6397241
1.470921 1.4943669 1.4310966 1.3400381 1.4076631 1.4670612 1.5278296 1.8424183
1.4709405 1.7639381 1.4774095 1.3687751 1.4397445 2.0221665 1.3818728 1.4526747
1.6405277 1.5509385 1.5132056 1.5308166 1.7459832 1.4118496 1.3590156 1.5859241
1.5825995 1.5192131 1.4622004 1.3100857 1.3732191 1.5761251 1.3689231 1.481231
1.4481729 1.5182811 1.4477106 1.4842769 1.4551951 1.5044261 1.3886943 1.3461038
00000000: d001 b73f 2c2a ab3f 8f3c b33f 94ee bc3f
00000010: c945 ad3f a099 c63f 0055 b93f a5cb c43f
00000020: dc16 c33f f63e c03f 04c0 b33f e985 bc3f
00000030: 0902 b83f 97db d23f e285 bb3f 9ac8 b03f
00000040: 062e cb3f d8a4 b53f 276b b83f 968f ef3f
00000050: b4fc b63f f4ba a83f b399 b63f 81b4 bf3f
00000060: 96ef b73f 8b92 bc3f acec b63f 406d b23f
00000070: f6b8 b43f b752 d13f a0f0 b53f 492e c53f
00000080: 9d9e b93f d676 ba3f fc1e b83f 4608 df3f
00000090: f620 c53f 3d53 b53f bf38 b93f 344e b43f
000000a0: e623 b53f 4310 b93f 244c cd3f 1141 d33f
000000b0: 0711 b73f 450c e93f 1ca3 ab3f e647 b23f
000000c0: 5ad8 b43f 89e1 bb3f 72dc b73f a001 a63f
000000d0: fb06 b03f 1c29 fb3f 8410 f83f 80d1 b53f
000000e0: 4348 af3f bc53 e93f d3eb ac3f e975 b93f
000000f0: 8acc b83f 107b c43f 61da b33f ef66 de3f
00000100: 8b19 b33f 4add bb3f 98e9 0040 0b97 a83f
00000110: a3f1 c53f bdef ea3f 9c78 b43f 9973 b73f
00000120: 3079 ae3f 6f21 ba3f 2d5b df3f 2d7d b83f
00000130: 055f b83f 7077 b23f deaf ac3f 0e7a b03f
00000140: aa03 b83f ab7b b83f 600a b63f c2e8 b83f
00000150: 63ba bb3f bed0 b93f 63d7 b03f 7be2 d13f
00000160: 2447 bc3f 6a47 bf3f 2c2e b73f 5e86 ab3f
00000170: 4e2e b43f a9c8 bb3f ec8f c33f 5dd4 eb3f
00000180: c747 bc3f b9c8 e13f c11b bd3f 0634 af3f
00000190: 8c49 b83f 2d6b 0140 35e1 b03f 3ff1 b93f
000001a0: d0fc d13f 2785 c63f b9b0 c13f ccf1 c33f
000001b0: 617c df3f 7db7 b43f 39f4 ad3f 90ff ca3f
000001c0: 9f92 ca3f 9375 c23f 6229 bb3f e3b0 a73f
000001d0: a5c5 af3f 78be c93f df38 af3f fa98 bd3f
000001e0: bb5d b93f 0957 c23f 954e b93f c9fc bd3f
000001f0: d543 ba3f 0991 c03f bcc0 b13f 214d ac3f

norms.1.bias f4 [128]
-0.16802971 -0.17699488 0.13259502 -0.17608172 0.044046775 0.0757056 0.07567452 -0.32008234
0.14902717 0.25357196 -0.05803506 0.05744052 0.12491506 -0.019863324 0.06377257 -0.085931055
0.29030117 -0.13784322 -0.049541403 -0.700939 -0.2723106 -0.21171062 0.026755847 -0.20552503
0.070295185 0.2001071 -0.10863862 0.040043015 0.10362844 -0.44676352 0.0553824 -0.0500405
0.019352198 -0.1813116 -0.07169001 -0.3602702 -0.3709117 0.11850036 0.24650568 0.064096004
-0.004375444 -0.1354104 -0.4156314 -0.55070513 -0.19995283 -0.58446234 0.12783636 -0.0822857
-0.13809346 0.022598764 -0.27312228 0.0014422245 0.065037064 -0.64958394 -0.6751126 -0.17761306
0.11032812 -0.6534791 -0.2109475 -0.054276373 -0.036857393 -0.4399786 -0.15844539 -0.3475281
-0.039563138 0.04204043 -0.8204546 -0.01085086 0.05639838 -0.45040205 0.013743899 -0.020178191
-0.09670209 -0.077544495 -0.52803534 0.039251454 -0.16273919 -0.014811909 -0.1126198 -0.043561134
0.0066735116 -0.015907003 0.2259583 -0.07564873 -0.054113463 -0.15317404 -0.15169442 -0.36108062
0.12340259 0.005193495 -0.07851988 -0.029836785 0.23834653 -0.04900079 0.067351304 -0.7318998
0.10495825 -0.50325733 -0.21674678 0.06579448 0.10102506 -0.89609766 0.029726956 -0.026778294
-0.24271679 -0.32821566 0.17482081 0.015727725 -0.65001446 -0.026525667 0.005827736 -0.3191244
-0.17363365 -0.06540103 -0.1719646 0.09087194 -0.07317169 -0.39611804 -0.12794043 0.0068647237
-0.36798376 -0.19475679 0.0117885135 0.08763406 0.056061696 0.039226167 0.11737031 0.14995787
00000000: fb0f 2cbe 253e 35be fdc6 073e c44e 34be
00000010: 646a 343d 8a0b 9b3d 3efb 9a3d d5e1 a3be
00000020: 949a 183e 2fd4 813e 2cb6 6dbd c046 6b3d
00000030: 78d3 ff3d 69b8 a2bc 319b 823d 9ffc afbd
00000040: 5ba2 943e c626 0dbe edeb 4abd bd70 33bf
00000050: 4c6c 8bbe abca 58be 142f db3c 2775 52be
00000060: ecf6 8f3d e0e8 4c3e ed7d debd 2504 243d
00000070: 263b d43d 30be e4be a8d8 623d 44f7 4cbd
00000080: 8088 9e3c c0a9 39be 36d2 92bd 5675 b8be
00000090: 23e8 bdbe 51b0 f23d fc6b 7c3e c444 833d
000000a0: e25f 8fbb 06a9 0abe a4cd d4be 03fb 0cbf
000000b0: 6fc0 4cbe 539f 15bf 89e7 023e 6885 a8bd
000000c0: 5f68 0dbe 0b21 b93c afd6 8bbe 0609 bd3a
000000d0: 2732 853d 224b 26bf 2ed4 2cbf 33e0 35be
000000e0: b6f3 e13d 684a 27bf 9f02 58be e750 5ebd
000000f0: c7f7 16bd e044 e1be 823f 22be 34ef b1be
00000100: f50c 22bd 9632 2c3d 5009 52bf cec7 31bc
00000110: fd01 673d 199b e6be 172e 613c bc4c a5bc
00000120: bf0b c6bd a6cf 9ebd 532d 07bf 22c6 203d
00000130: 1aa5 26be a6ad 72bc 36a5 e6bd 296d 32bd
00000140: 79ad da3b 674f 82bc 9d61 673e b9ed 9abd
00000150: 14a6 5dbd a8d9 1cbe c855 1bbe 8fdf b8be
00000160: 7fba fc3d 322e aa3b 08cf a0bd 466c f4bc
00000170: 1d11 743e 0db5 48bd 7bef 893d c95d 3bbf
00000180: 5af4 d63d 79d5 00bf def2 5dbe 42bf 863d
00000190: 3ae6 ce3d a866 65bf f285 f33c 275e dbbc
000001a0: c08a 78be e20b a8be 3a04 333e 6ed7 803c
000001b0: 5967 26bf 5b4c d9bc 98f6 be3b 4664 a3be
000001c0: 05cd 31be faf0 85bd 7d17 30be 111b ba3d
000001d0: 0adb 95bd fccf cabe d102 03be 7af1 e03b
000001e0: 5e68 bcbe 536e 47be 9c24 413c 7c79 b33d
000001f0: f3a0 653d 9eab 203d d85f f03d 8e8e 193e

mu.weight f4 [20, 128]
-0.16176867 0.027246453 0.04558695 -0.21594183 -0.075757824 0.24035129 0.1916845 -0.012083114
-0.28366444 0.1829511 0.1714964 0.25475982 0.111757055 0.12010771 -0.034027953 0.0724755
-0.109180294 -0.03541273 -0.11066478 -0.2130848 0.16854216 -0.2010779 -0.20707285 0.16251172
0.008934569 -0.16152972 -0.32894042 -0.040878486 -0.07061164 -0.15580788 -0.12523897 -0.081723385
-0.08304744 -0.0088743055 0.20830055 -0.18897308 -0.0689818 0.0033793487 0.05762382 0.03349778
-0.0013345928 0.124087654 0.031832498 -0.021248342 0.21418834 0.17944512 -0.12049757 0.16228306
-0.091772065 0.27204147 0.15700576 0.009146507 0.3806251 0.1910881 -0.057924617 -0.14656413
-0.04354683 0.03416472 0.10678984 0.119466916 -0.093918025 -0.105674624 0.3070532 -0.034775186
-0.20971905 -0.045839436 0.4028351 0.31812108 0.101566516 -0.019066926 0.0048913565 0.031153196
-0.0035687769 -0.09795825 -0.051749036 -0.22096379 -0.19006974 -0.27849743 0.119438685 -0.039614525
0.016001774 0.26683107 -0.16173717 0.19111742 -0.012866989 -0.34111908 0.1216773 0.37048057
-0.027516602 0.25958344 0.30832145 0.107223235 0.059179273 0.06846055 0.019900795 0.20197573
0.21687655 -0.15782955 -0.1570333 0.3281459 0.037664033 0.10427481 -0.1686626 0.1025479
-0.25240618 -0.084056504 -0.25207016 0.18749073 -0.23483956 -0.12151034 -0.22175258 0.11868978
-0.17586288 0.10471871 0.023315888 -0.047480155 0.06414011 -0.12272308 -0.107608475 -0.12972394
-0.067983404 -0.12608428 0.055574413 -0.045756716 -0.22129956 -0.12734064 -0.075783364 -0.120051056
0.31645572 -0.061047807 0.06879862 0.19388254 0.2838839 -0.08323136 0.21137646 0.053643662
0.29393843 -0.1871067 -0.11191546 -0.06626721 -0.023548225 0.0490473 0.19983174 0.24122094
0.05115015 0.09790708 0.06974261 0.14816298 0.08138744 -0.06992073 0.24357799 -0.33602655
-0.2288563 0.17422244 0.058380645 0.01756387 0.10020964 -0.032454103 -0.03214224 -0.037118718
-0.028775284 -0.12748635 0.07569081 -0.21297096 -0.112964876 -0.12971607 -0.029137366 -0.089915365
0.11820377 -0.28487995 -0.0014366031 0.03558967 0.21181789 0.04274174 -0.086238734 -0.04185988
-0.19157049 0.25785854 0.114056095 0.06774414 0.03710881 0.07844922 -0.028168142 0.13226365
0.2617183 -0.30678982 -0.21147117 -0.08633553 0.06599849 -0.09775908 0.112756245 -0.17201227
0.051881883 0.11508638 0.16003768 0.08403789 -0.18615317 -0.012920633 -0.076574065 -0.024546366
-0.05478066 0.1262107 0.111913286 0.28713447 -0.1737314 0.17157196 -0.06001101 0.043405768
0.15762351 -0.07029362 0.29244688 0.13863336 0.14221887 -0.02559868 -0.004403963 0.019192725
0.077115625 -0.19078703 0.20644437 -0.14097445 0.048369914 0.020878218 0.11284995 0.15353595
0.03892583 -0.13563387 0.036901675 -0.12408821 0.104999855 -0.08097106 -0.10539211 0.18093514
0.20886289 0.2445211 0.07397822 -0.32325128 0.02555706 -0.23909397 -0.22249967 -0.14424846
-0.3311088 -0.12553279 -0.077769585 0.070806414 -0.082479216 -0.009103778 -0.18288362 -0.18822744
0.017692406 0.29257062 -0.22371641 -0.047256 -0.13944714 0.012418944 -0.17995138 -0.022499036
00000000: b0a6 25be f433 df3c 62b9 3a3d db1f 5dbe
00000010: eb26 9bbd a61e 763e f148 443e 41f8 45bc
00000020: 773c 91be 8857 3b3e c19c 2f3e e16f 823e
00000030: e2e0 e43d 08fb f53d e560 0bbd 096e 943d
00000040: eb99 dfbd f00c 11bd 37a4 e2bd e732 5abe
00000050: 5196 2c3e 5de7 4dbe e80a 54be 7969 263e
00000060: 4c62 123c 0c68 25be e16a a8be 3370 27bd
00000070: d69c 90bd 1a8c 1fbe a53e 00be 975e a7bd
00000080: c714 aabd 8965 11bc bd4c 553e 2982 41be
00000090: 5446 8dbd 1078 5d3b f406 6c3d f834 093d
000000a0: 81ed aeba ab21 fe3d cb62 023d 0111 aebc
000000b0: 3054 5b3e 76c0 373e 6ec7 f6bd 882d 263e
000000c0: fef2 bbbd 0549 8b3e 1ec6 203e 3bdb 153c
000000d0: 4be1 c23e 99ac 433e 5d42 6dbd e814 16be
000000e0: 295e 32bd 4ef0 0b3d a2b4 da3d 12ab f43d
000000f0: 1858 c0bd f06b d8bd 1436 9d3e 6d70 0ebd
00000100: 97c0 56be 22c2 3bbd 6740 ce3e c4e0 a23e
00000110: 1b02 d03d 3e32 9cbc ac47 a03b fd34 ff3c
00000120: 24e2 69bb 569e c8bd ccf6 53bd 5544 62be
00000130: a4a1 42be 3797 8ebe 459c f43d d742 22bd
00000140: 2716 833c 159e 883e 6e9e 25be 49b4 433e
00000150: 10d0 52bc 29a7 aebe f331 f93d a1af bd3e
00000160: 7f6a e1bc 1fe8 843e 4fdc 9d3e db97 db3d
00000170: f765 723d 0b35 8c3d fe06 a33c bad2 4e3e
00000180: e314 5e3e 129e 21be 56cd 20be bd02 a83e
00000190: 9a45 1a3d 088e d53d e3b5 2cbe a204 d23d
000001a0: 623b 81be d125 acbd 570f 81be 92fd 3f3e
000001b0: c879 70be 6ada f8bd 1c13 63be a113 f33d
000001c0: 6615 34be c376 d63d f600 bf3c 8d7a 42bd
000001d0: e45b 833d 3d56 fbbd d561 dcbd 5ad6 04be
000001e0: e23a 8bbd 3d1c 01be ffa1 633d 656b 3bbd
000001f0: 5a9c 62be 9665 02be 4f34 9bbd 54dd f5bd
00000200: 7c06 a23e 440d 7abd 4ae6 8c3d 2589 463e
00000210: 3b59 913e 3475 aabd 1273 583e 75b9 5b3d
00000220: 197f 963e e698 3fbe ef33 e5bd 1ab7 87bd
00000230: 35e8 c0bc d2e5 483d b1a0 4c3e 9f02 773e
00000240: d282 513d 8283 c83d 37d5 8e3d 09b8 173e
00000250: 75ae a63d 9a32 8fbd 826c 793e ac0b acbe
00000260: 4e59 6abe 5e67 323e 8b20 6f3d 1be2 8f3c
00000270: b63a cd3d 98ee 04bd 95a7 03bd cc09 18bd
00000280: 25ba ebbc c88b 02be c903 9b3d 0f15 5abe
00000290: 215a e7bd 4ad4 04be 7cb1 eebc 8c25 b8bd
000002a0: d114 f23d c9db 91be 674c bcba 79c6 113d
000002b0: cae6 583e f611 2f3d ef9d b0bd 4475 2bbd
000002c0: 0e2b 44be 0906 843e 3e96 e93d 71bd 8a3d
000002d0: 68ff 173d fca9 a03d e0c0 e6bc 1f70 073e
000002e0: f1ff 853e 8e13 9dbe e68b 58be afd0 b0bd
000002f0: 372a 873d ea35 c8bd bfec e63d fc23 30be
00000300: 1982 543d 68b2 eb3d ebe0 233e 0f1c ac3d
00000310: f09e 3ebe 10b1 53bc ddd2 9cbd 7615 c9bc
00000320: af61 60bd 613d 013e cb32 e53d 4a03 933e
00000330: a5e6 31be 8fb0 2f3e 1bce 75bd 3fca 313d
00000340: 0f68 213e 1af6 8fbd 99bb 953e e7f5 0d3e
00000350: d3a1 113e 53b4 d1bc 1f4f 90bb 103a 9d3c
00000360: ccee 9d3d ad5d 43be 2766 533e 9b5b 10be
00000370: 881f 463d cc08 ab3c e01d e73d 8738 1d3e
00000380: b170 1f3d 9be3 0abe 3626 173d f621 febd
00000390: 2a0a d73d 28d4 a5bd d2d7 d7bd 1047 393e
000003a0: 27e0 553e bd63 7a3e e581 973d 3181 a5be
000003b0: 0a5d d13c 0dd5 74be f4d6 63be deb5 13be
000003c0: 1887 a9be ab8b 00be a945 9fbd f402 913d
000003d0: ddea a8bd 0328 15bc d845 3bbe b2be 40be
000003e0: aaef 903c d1cb 953e ea15 65be 828f 41bd
000003f0: 3bcb 0ebe d478 4b3c 2d45 38be e64f b8bc

mu.bias f4 [20]
-0.035224937 0.11153563 0.022956591 -0.03376329 -0.009198863 -0.07909151 0.11249535 0.019886956
0.034076225 -0.062306687 -0.00020138705 0.028443629 0.0992437 -0.0926917 -0.078543425 -0.021653652
0.09402628 -0.12316874 -0.019893095 0.03384177
00000000: 0648 10bd cb6c e43d 760f bc3c 604b 0abd
00000010: d4b6 16bc bbfa a1bd f663 e63d f8e9 a23c
00000020: 8393 0b3d 4c35 7fbd 6d2b 53b9 9d02 e93c
00000030: 4840 cb3d 25d5 bdbd 60db a0bd 0063 b1bc
00000040: da90 c03d e43f fcbd d8f6 a2bc ab9d 0a3d
