DDPG/savedModels/10cyl/critic2500.pt (torch, 586959 bytes, 35 tensors)

fc.weight f4 [128, 73]
00000000: 2506 283d 01af 03bb 8d2c 38be edd4 9dbd
00000010: 3ef7 e03e 466b e2bd 0d63 81bd 3b80 44be
00000020: 2112 bebe 4efe 17be 3b48 d33e 741a a3bd
00000030: 572e f53e 0829 073c d511 88bd 7c73 bebe
00000040: 7367 d4bd bf95 4f3e fc2d bb3e d2c7 033e
00000050: 23b0 3fbd 02ec 34bd b1c6 0dbd 46db a3bc
00000060: 6669 fbba cfef 953c b5e2 213d 0301 793d
00000070: 8f9c a63d 7322 ce3d 2150 f23d 4469 2b3d
00000080: 7ff2 bb3c 8141 af3d eee0 db3d a7a2 0bbe
00000090: 13d0 973d 71b9 c2bc 3818 eb3d 4212 4d3d
000000a0: bbea 24be 090c 133e e707 f6bd 59b8 e2bb
000000b0: 13a0 c83c 67bc b2bd 47e8 3f3e 3aaf ad3d
000000c0: 5916 3fbe ab27 793d 4058 7abd fd03 37be
000000d0: c74d bb3c d8f0 96bd 3247 343e d67d a3bd
000000e0: 0d8d 693d b7cd 7d3c 871e 123c e406 a6bd
000000f0: 3ba9 a6bd ee43 dc3d 9a31 81bb 596c dc3c
00000100: 5643 6ebd cd74 27be 5834 c53b 3aae b2bd
00000110: 87d9 09be 81c2 223e 76eb ff3d f1a3 f1bd
00000120: de81 f43d f407 dd3c dd18 123c de8a 7cbd
00000130: fe25 b6bc dac0 863c 3847 adbc 0c34 183c
00000140: 5e67 2e3d 632f 41bd a261 833c 5b85 4bbd
00000150: 5bf8 3b3b 1ab1 4e3b 8671 f23c 4f55 333c
00000160: f34b c13c 67ec 8cbd fbee 24bd 7cca 53bc
00000170: 73ce 023c fd05 bbba 226d 253c bdff 9f3c
00000180: 74d6 d93c f16e 003d bbe8 0b3d 4d6c 113d
00000190: b580 133d 6006 153d 8a31 193d 067e 233d
000001a0: 8bc0 fb3c 280b d7bc ac6e ef3d 9cc6 533c
000001b0: b54a b73d c1ac 513d ce78 44bd 5c74 da3c
000001c0: 1cd8 0f3d 2126 4e3d 37c9 03bd e12d adbc
000001d0: 99e3 f7bb db49 c3bc 9890 273d d8e8 56bd
000001e0: 5359 b1bd e872 3e3d a62a 10be b773 9cbd
000001f0: a3d3 903c 859a fc3d bc1a 1ebc eb30 01bc
00000200: de35 a33c 5106 09bc e87b 57bc cd9f 21bd
00000210: 4e77 9e3d 04ef 6f3d f491 583d 9f36 92bc
00000220: 6394 a33c 780d b6bc 519e eabc 66d6 c1bc
00000230: 1a96 15bc e7a1 06bd 9819 f03c 2d6d 35bd
00000240: 761a e5bc 753f 083d 37af 5ebd 52b9 193f
00000250: ffef 043e dff3 313f fc10 a5bd f36b f93d
00000260: fed2 943e 59d2 13be 3c14 a7be 3bde b6be
00000270: 6085 453f 89cf 5d3e e946 bd3c 56e2 7b3e
00000280: 7c74 90be 308e 053f c262 06be 5370 cabe
00000290: 88d0 5abe 6dd1 84be d7fe 8bbd a331 05be
000002a0: 4f84 14be d1e6 08be 4f37 b4bd e458 f4bd
000002b0: 5411 60bd 55ec 8ebd 7b10 be3c cb9f e73a
000002c0: e391 e43c b315 8ebd 715a adbe 548b 413d
000002d0: acd1 66bd bd63 d1bc 7c34 643e f888 bbbd
000002e0: c93a ed3d 8f69 933e 9030 c4bc 4a36 153e
000002f0: fc6f 24be 392c 0abe 32b9 6dbd 0026 51be
00000300: ddfd 1c3e eebf ebbc 9137 6b3e a5d9 f63d
00000310: ad7b 81bd f791 88bd 7a99 52be a3e4 643d
00000320: 934b 24be da46 b83c e58d 163e 15f7 58bc
00000330: 96f0 cfbc 9f36 373d 7846 84bd 2947 9f3d
00000340: c7d4 753d 3fca 38bd f64c 853d 9b43 003d
00000350: 4c1b a83d 4d7a 483d a175 04be 5496 30bc
00000360: 439e b039 bd53 4e3d c4ac 893c 2fc9 dabd
00000370: 4ba2 f3be 5f2b 40bf ed75 fb3d 318f 1e3f
00000380: 6777 a3be 4ef6 ea3e 21e7 4d3d 8222 363f
00000390: 0eb8 103f c5c2 cd3e af80 ee3d abb7 b83b
000003a0: b313 483d e43e 96be 27b8 91be 14e0 2fbf
000003b0: 42f5 acbe 9a37 953e 5dd6 00bf 81c8 67bd
000003c0: e3fc 9cbc 44f4 7ebd 2f0c 48bd 7e89 a6bc
000003d0: dcb4 4fbd c3ec 893d ecc0 fa3b 7e6c 36bd
000003e0: 8f5e 41bd b353 22bd b008 a7bc fce2 1f3e
000003f0: de31 2abd 7207 ca3d 5f88 afbd 2495 24be
0.041021485 -0.0020093324 -0.17985745 -0.07706628 0.4393863 -0.11055617 -0.063177206 -0.19189541
-0.37123206 -0.14843103 0.41266045 -0.0796403 0.47886917 0.008249529 -0.06644026 -0.37197483
-0.10371294 0.20271967 0.3655852 0.12869194 -0.046798836 -0.044170387 -0.034613315 -0.020002019
-0.0019181191 0.018302826 0.039522845 0.06079198 0.0813533 0.100651644 0.118316896 0.041848436
0.02294278 0.08557416 0.10736261 -0.13636266 0.07412734 -0.023770066 0.11479229 0.05006624
-0.16105168 0.1436006 -0.12013226 -0.0069189486 0.024490392 -0.08727341 0.1874095 0.084806874
-0.18660869 0.060828846 -0.061119318 -0.17872615 0.022864236 -0.07370156 0.17605284 -0.07982986
0.057019282 0.015490941 0.008918411 -0.08106783 -0.08137747 0.10755144 -0.0039426805 0.026907133
-0.058169685 -0.1635315 0.0060182028 -0.08724637 -0.13461886 0.1589451 0.124960825 -0.117988475
0.11938833 0.026981331 0.008917061 -0.06165587 -0.022234913 0.01644938 -0.021152124 0.009289753
0.042579047 -0.047164332 0.016037766 -0.049687725 0.0028681967 0.0031538666 0.029595148 0.010945632
0.023595786 -0.06881028 -0.040266972 -0.012926694 0.007983792 -0.0014268752 0.01009682 0.019531125
0.026591517 0.031355802 0.034157496 0.035503674 0.036011416 0.036383033 0.03740076 0.039915107
0.03073146 -0.026250437 0.11691031 0.01292577 0.08949796 0.05119014 -0.04796677 0.026666813
0.035118207 0.05032933 -0.032174315 -0.02114004 -0.0075649736 -0.023838928 0.04090938 -0.05246815
-0.08659615 0.046496302 -0.14078769 -0.07639258 0.017679041 0.1233416 -0.009649929 -0.007885198
0.019923147 -0.008363322 -0.0131521 -0.03945904 0.07737599 0.058577552 0.052873567 -0.017848311
0.019968217 -0.02222322 -0.028639944 -0.023661803 -0.009130025 -0.032869246 0.029309079 -0.04429357
-0.02796672 0.033263642 -0.054366317 0.600484 0.12982176 0.6951274 -0.0805988 0.12178793
0.29067224 -0.1443571 -0.32632625 -0.35716423 0.7715664 0.216612 0.023105102 0.24598059
-0.2821387 0.52170086 -0.1312361 -0.39538822 -0.21368611 -0.2594103 -0.06835716 -0.13007216
-0.14503597 -0.133693 -0.08799612 -0.11931017 -0.054704025 -0.069786705 0.023201218 0.0017671523
0.027901595 -0.069377325 -0.33858064 0.047252014 -0.056352302 -0.025560254 0.22285646 -0.09156984
0.11583478 0.28791472 -0.023948938 0.14571491 -0.16058344 -0.13493432 -0.058037944 -0.20424652
0.15331216 -0.028778043 0.22970416 0.12053231 -0.063224174 -0.066684656 -0.20566359 0.055882107
-0.16044454 0.022494722 0.14702566 -0.013242503 -0.025383275 0.044729825 -0.06458753 0.077772446
0.060017373 -0.045114752 0.0650882 0.031314474 0.082083315 0.04894476 -0.12935497 -0.0107780285
0.0003368725 0.050372828 0.016806014 -0.10682904 -0.47584757 -0.7506618 0.12278352 0.6193724
-0.31927034 0.4589104 0.05026925 0.71146405 0.56530845 0.4018766 0.11645638 0.0056371293
0.04884691 -0.29344857 -0.2846081 -0.6870129 -0.33780867 0.29143983 -0.5032709 -0.0565877
-0.019163555 -0.06224467 -0.048839744 -0.020329233 -0.05070959 0.06734612 0.0076523926 -0.04453706
-0.04720932 -0.039630603 -0.020389885 0.15613931 -0.041551463 0.09864701 -0.085709326 -0.16072518

fc.bias f4 [128]
00000000: 6baa f03d 104f b23d b162 4b3e 68f1 113f
00000010: 5559 073e 64aa 093e 549f 3e3b b932 a93e
00000020: 8fe4 f63e 3e9f b83d c181 6f3d 1252 f33e
00000030: 5d69 c83e f41b 003f e762 193f 0912 9c3e
00000040: 0240 f83d 1948 083e c40e 1a3f 08be 92bf
00000050: a0fe 263e 14bf b73d f989 fa3d 7572 2e3e
00000060: bb3a 953e ba6e 3d3d 89d4 3a3f 39c0 1c3f
00000070: 27e9 563e 6c31 633e 8b15 cb3e 0cb0 703e
00000080: ad64 083e 2d9f 053e cf1d 8d3c d983 563e
00000090: 343a f83e 7036 0f3e fc5f 2c3f 758f 373e
000000a0: 9a5b 7c3f 21ad 3a3f 7732 603f a512 163f
000000b0: bdef ccbf 79ff 2fbe 0dcc 193e 95c5 613f
000000c0: a8c4 6d3e 6d15 80bf a539 063e 8a91 7e3e
000000d0: c713 1a3f 00f7 063f 587d 1d3f 8add ad3e
000000e0: 1e6e 0c3d 7b7b 933e d7d2 973e 28e0 0dbf
000000f0: d3b7 093f 8dd1 6e3e 6b43 0d3f 2fba 2d3e
00000100: 4023 063f 1d0f ba3d ee8f 95bb 1397 163f
00000110: 60eb 023f 02d8 b73d 4752 3e3f b3be d43e
00000120: 6d6b b83d abaa 373f e90d a33e daaa c53e
00000130: 0244 333e 975d 623f 562c bebe b5c7 b73d
00000140: d2dd be3e 5feb 053f 1dc9 603e b6db 0a3f
00000150: b101 863e 33f7 0d3f 440e 233f 1181 593f
00000160: 6c41 ea3e c7a6 b83d 1760 bc3d 1d53 2b3f
00000170: 36ee 903e d3d6 c03e a52f 753e 489f b83d
00000180: ad19 473f afa3 5e3e 4307 de3d 7776 123f
00000190: 6ee6 4b3e 5763 9b3e 3c50 233f b378 163e
000001a0: 22bb 0ebd 58a7 233f ec81 613e e647 1b3f
000001b0: efc1 bf3d 3687 c13c c5f3 80bf 803f 0a3f
000001c0: c080 123e 73b7 d43e a806 373f dd95 3b3e
000001d0: 26d2 863e 43b8 953e 95be 2bbf 17f8 283e
000001e0: f5ed 163f d173 db3e 5121 82bf c04b 443e
000001f0: b568 8f3e 2fca d73e 6190 b93d cfd9 713f
0.11751255 0.08706486 0.19861867 0.5700898 0.13217671 0.13443905 0.0029086666 0.3304651
0.4822125 0.09014748 0.058473352 0.47523552 0.39142886 0.50042653 0.5991654 0.3048251
0.121215835 0.13308753 0.6017878 -1.1464243 0.16308069 0.08971992 0.122333474 0.1703585
0.2914637 0.046248175 0.7298055 0.6123081 0.20987378 0.22186822 0.39664873 0.23504657
0.13319655 0.13049002 0.017226128 0.20948733 0.48481905 0.1398561 0.6733396 0.17925818
0.9857727 0.72920424 0.87577003 0.586222 -1.6010662 -0.17187299 0.15019245 0.8819211
0.2321955 -1.0006539 0.13107927 0.24860206 0.6018643 0.5272064 0.61519384 0.33958083
0.034284703 0.28805146 0.29653046 -0.5542016 0.5379612 0.23322125 0.55180997 0.16965555
0.5239754 0.09084914 -0.004564277 0.5882427 0.51140404 0.08976747 0.74344295 0.41551742
0.09004865 0.71744794 0.3184655 0.38606912 0.17506412 0.88424057 -0.371432 0.08973638
0.3727861 0.5231227 0.21951719 0.542415 0.26173165 0.5545532 0.6369364 0.84962565
0.45753038 0.09016185 0.09198015 0.66923696 0.2830674 0.37663898 0.23943956 0.090147555
0.77773553 0.21742128 0.10841229 0.57212013 0.1991212 0.30349228 0.637943 0.1469448
-0.034846433 0.6392722 0.22022218 0.60656583 0.09363162 0.023624044 -1.0074393 0.54003143
0.14306927 0.4154621 0.7149453 0.18318887 0.26332206 0.29242143 -0.6708768 0.16500889
0.58956844 0.42861798 -1.0166417 0.19169521 0.28009573 0.4214644 0.09060741 0.94472975

layers.0.weight f4 [128, 128]
00000000: 193d 58bc f378 ff3b 1fdf a73d 73bc 1ebe
00000010: ae14 65bc 020c e93b 8dcb 93bb aba9 9c3e
00000020: 9492 d73e 11e9 5f3c e473 923c 028b dd3d
00000030: d33b 5d3d e831 183e 61fc 9cbd 39b3 b13d
00000040: 8378 1f3e 94de 323d 4432 09bd f16c 903e
00000050: 5139 e83c 7bb1 3b3a d926 9c3b 0e5e 713c
00000060: 0cf6 303e 23a7 f7ba 293b ad3d dfc7 f8bb
00000070: 7bce 493e fc78 8c3e ab57 0bbe 0dce 3d3c
00000080: 4173 f03c 4f71 c23b 23da 7c3b 05f7 0b3c
00000090: 1b4b 033e 4c64 25be 4b1d 19be 8ed5 673d
000000a0: 4176 35be ebf0 92be 47c1 88be 3b21 473e
000000b0: 210e 6dbe 2435 debd 4d22 02bc 6384 efbd
000000c0: d62e 31be 1887 a83e 6947 433c 3bad 39bb
000000d0: 2d5a 87be 88dc eabd 0002 283e 38b9 783e
000000e0: 6d31 833b 6087 89bc 6455 0abe 35b5 12be
000000f0: d594 a4be e738 21bd 1beb bbbc 9c4d 3dbc
00000100: 0b7e 16bc 80ba 5cbc 3df3 f63d eef4 4fbe
00000110: 7b07 86be 1e7d 2bbb 2dc2 f0bd fb16 28be
00000120: bbe9 903c 3ed7 4ebe 28c9 73bb cd59 b63e
00000130: b47d 0fba a651 e0bd 479f 07be 12af 713b
00000140: 8f26 18be 8527 5d3d 77c5 30be 32b7 8e3e
00000150: eb49 21bd e52f b03e 0b6d cf3c a622 bebd
00000160: bd71 de3d 29fc 893c 1526 993c 1f99 2c3b
00000170: 69e1 09bd bca5 47bd 1026 7f3c 27d8 6f39
00000180: 8900 b23e a8a9 f93b 4a2e 96bc c0fa fe3c
00000190: 3a3d aa3d 84d2 ddbc c78e 52bb 19b0 35be
000001a0: 4516 6bbc 0927 0b3e 5142 a73b 6a4a 89bd
000001b0: f027 803a f86d 8e37 7220 843e dff5 5abe
000001c0: ad2b 46bc cc64 51be bced 3dbd aef4 c23c
000001d0: 7396 e7bd 385f 3cbd 56b3 d5be 1f1f 3dbd
000001e0: 1026 0e3d 4e78 f3bd f0d4 8ebe 8e78 9bbc
000001f0: 40ba 10be 351d 81bd 9508 573c de19 97bc
00000200: b263 913a 0578 f8b9 d286 8cbc 9275 09bc
00000210: 3cd5 5639 f22c fdb8 4ed4 573a df21 e0bb
00000220: 8fc3 0abc e6a5 62ba 0de2 86b8 480e e23b
00000230: 0fc5 f9bb 0170 21bc 8554 9ebb bcd6 9fbb
00000240: 4a21 a1b9 6419 45bb 611e 55bb da7c e3bc
00000250: 981e 0839 d45d a8ba 847d 953a 04c0 4eba
00000260: b799 97bc 8d46 9339 620a df3b 7d68 213c
00000270: b0e0 ffbb e1ec f73b 7c46 123c 20dc 6438
00000280: 8a44 02bb 42a5 83b8 9251 203a 45b5 8d39
00000290: 4727 3f3c 9971 2c3c 6ce1 40bb ec39 56ba
000002a0: 71f2 153c 2349 abbb 0b5e cdbb 403a 103c
000002b0: ce5c d5bb fe59 1b3c 7d77 3cbb 3f8b 2fbc
000002c0: 44b0 493c 0ab9 9e3b 86a3 103a 2398 5e38
000002d0: da81 5abc e2cc 70bb 8f51 b43c 1479 cebb
000002e0: 5503 ebb9 54c0 913a d34f fabb bc07 d63b
000002f0: fe42 ac3c 4784 2d3c 6250 8ebb 051c 87b9
00000300: 15d3 4cbb 9126 593a 22c4 fdbb ce58 9cbc
00000310: 4ca5 413c 190a 9b39 a97a 10bc 01e6 783b
00000320: a0a1 6bba f699 b13c d5a4 bbb8 9796 1c3c
00000330: e0c9 aeb8 61b6 133a fe97 7eba 9c8e 30ba
00000340: 4e97 78bc 37bc 03bc b82c 92ba cdc5 4fbb
00000350: 366c 1539 a97f ba3b abf4 d5bb ad74 8ab9
00000360: 03ca dbbb 1702 78ba 5cac 5bba 0127 93ba
00000370: e910 0cbb 661d 6439 371e e338 9702 deb9
00000380: 9477 95bd eb4b 82ba ef30 9db9 9875 113a
00000390: 6adb 4f3d 32b4 96bc 8096 32bb 5718 25bc
000003a0: de19 1aba 84d6 81bc 89b5 07ba cf25 f7bb
000003b0: 8616 2aba 9fe9 8f39 91eb 12bd e1cb 1fbc
000003c0: 586b 99ba e339 163c 9aa5 583c a960 fc39
000003d0: abca 113a 18a9 143b 7420 05bc e662 18bb
000003e0: 2524 2abc db98 9bbc 9769 02bd 6882 1238
000003f0: 1b75 8dbc 1402 1abc 5665 e2b9 3298 b8bb
-0.013198161 0.0077964007 0.08196854 -0.15501575 -0.013981981 0.007112027 -0.004510349 0.30598196
0.42104018 0.013666407 0.017877527 0.10817529 0.05401213 0.14862788 -0.07665325 0.08676762
0.15573315 0.0436693 -0.033495203 0.28208116 0.028347643 0.00071599305 0.004765373 0.014731897
0.1728136 -0.0018894415 0.084585495 -0.007592186 0.19707672 0.27436054 -0.13607661 0.011584771
0.029351832 0.0059339176 0.0038582168 0.008542781 0.12821619 -0.16151541 -0.1495258 0.056600146
-0.17720892 -0.2869943 -0.2670996 0.1944627 -0.23149921 -0.108499795 -0.007942748 -0.11695173
-0.17303023 0.32915568 0.011918881 -0.0028332013 -0.26435986 -0.11467844 0.16407013 0.24289405
0.0040036947 -0.016788185 -0.13509136 -0.14326937 -0.321448 -0.039360907 -0.022939255 -0.011554148
-0.009185324 -0.013472199 0.12058113 -0.20308277 -0.26177582 -0.0026167105 -0.11755786 -0.16415016
0.017689576 -0.20199296 -0.0037198756 0.35615388 -0.00054737483 -0.10953073 -0.13244353 0.0036878032
-0.14858459 0.053992767 -0.17262827 0.27874142 -0.039377134 0.3441154 0.02532055 -0.092839524
0.108615376 0.016843872 0.018694917 0.0026336384 -0.033662234 -0.04874204 0.01557304 0.00022873339
0.34766033 0.0076191016 -0.01833262 0.031125426 0.08312459 -0.02707792 -0.003212856 -0.17742957
-0.014348571 0.1358911 0.005104341 -0.067036465 0.0009777527 1.6978927e-05 0.25806004 -0.21382855
-0.012095374 -0.20448607 -0.0463693 0.023798313 -0.11307993 -0.045989245 -0.41738385 -0.046172258
0.034704268 -0.11888181 -0.27896833 -0.018978383 -0.14133549 -0.06304399 0.013124605 -0.018444952
0.0011092334 -0.00047391668 -0.017154131 -0.008389847 0.00020488066 -0.00012072352 0.0008233235 -0.0068399752
-0.008469476 -0.00086459366 -6.431723e-05 0.006898675 -0.007622368 -0.009853364 -0.004831853 -0.0048778933
-0.00030733115 -0.0030074948 -0.0032519328 -0.027769495 0.00012981368 -0.0012845346 0.0011405204 -0.0007886889
-0.018505914 0.0002809059 0.0068066576 0.009851572 -0.0078087673 0.00756608 0.008927938 5.4564443e-05
-0.0019877278 -6.2773484e-05 0.00061156705 0.00027028672 0.011667079 0.010525131 -0.0029431237 -0.0008172083
0.009152041 -0.0052272244 -0.0062673143 0.00880295 -0.0065113073 0.009481905 -0.0028757744 -0.010714351
0.012310091 0.0048438357 0.0005517531 5.3070613e-05 -0.013336623 -0.0036743213 0.022011546 -0.0063010547
-0.00044825175 0.001111994 -0.0076389103 0.0065316837 0.021028038 0.010590619 -0.0043430785 -0.00025770083
-0.0031253744 0.000828364 -0.007744328 -0.019085314 0.011819195 0.00029571427 -0.008818307 0.003797889
-0.00089886226 0.02167986 -8.947557e-05 0.009557388 -8.334569e-05 0.00056347816 -0.00097119797 -0.00067351176
-0.015172793 -0.008040479 -0.0011152243 -0.0031703592 0.00014250059 0.005691488 -0.006529411 -0.0002640834
-0.0067074313 -0.00094607606 -0.00083798706 -0.0011226834 -0.0021372384 0.00021754726 0.000108298314 -0.0004234507
-0.07298198 -0.0009940838 -0.00029981832 0.0005548834 0.05074636 -0.01839647 -0.002725035 -0.010076604
-0.00058784883 -0.01584936 -0.0005176892 -0.007542349 -0.00064883416 0.00027449147 -0.035869185 -0.009753198
-0.0011704965 0.009169075 0.013223076 0.00048137203 0.0005561511 0.0022683796 -0.008125413 -0.0023252307
-0.010384594 -0.018993786 -0.03183898 3.4930563e-05 -0.017267754 -0.0093999095 -0.0004318158 -0.0056333775

layers.0.bias f4 [128]
00000000: 54b2 8ebe 9f61 76bd dfa2 aebe f4ca cf3c
00000010: 7794 d23c 3041 2ebc ca97 f8be 139b 92bd
00000020: 0390 a9be d3d5 ea3d 349a 99be 0647 ad3d
00000030: 23e3 153e 225a 0abc 2868 273e bacd 14bf
00000040: d99e 04bf 990e 9fbd 0a12 4a3d 5b53 e3be
00000050: 93d1 86be 6e40 61be 9be7 bbbc 7d7e 97be
00000060: 39ef ecbd dfd6 06bf ed1f 05bf fdc1 33bd
00000070: b5ca 82be bad5 983c a4a9 013d 3220 e7be
00000080: 3a11 f9bd d323 e5bc 7f9e 7dbd d479 8cbe
00000090: 9772 093e 8b30 9cbe 44ba 17be e872 bbbe
000000a0: 2e89 12bf cde9 803f 5e98 bcbe b152 773e
000000b0: 9595 30bf f2ff 45be b770 223e 0b01 60be
000000c0: c6f3 903c 49a5 e4be c17f 60bc 9c48 72be
000000d0: 9ae8 023f 84dc 94be 8351 35bd a433 abbe
000000e0: e524 a8bd 2e79 d6be 862b 99be f361 62bc
000000f0: 7ba6 b9bd 1a95 2dbe df93 77bd d199 e0bd
00000100: 63bd 2e3d 6ddc 6fbe 85ee 19bd a8fd e8be
00000110: 3674 18bf 59dd adbe 79aa 35be 5ea2 d9bd
00000120: d103 ffbd e295 e6be d934 df3d 526b 003d
00000130: 86e9 2a3d d349 88bd 0e48 68be 57ff cabe
00000140: dc5a 263e d620 cfbe f7c7 7abe d4b3 5dbd
00000150: 1830 8ebc ed3b fa3e ef2b 843e 04bc 313e
00000160: 69ef 653e a38f c6be d423 f4be 1f12 3fbe
00000170: 7e0e 14be 41f8 5cbe 7c96 57be da26 48be
00000180: 8699 9e3d c9a5 0abd 2cb5 443d df4d 98bd
00000190: b771 c6be 0ac7 8abe ec03 88bd 1986 e8be
000001a0: 6732 ebbc d920 55be bd61 043f e2df 84be
000001b0: f7f8 1ebe 9941 ecbd 778e b2be 5063 083e
000001c0: eabd 02bf 5b32 5c3e e082 44bd 6e70 d63d
000001d0: 06a6 a13d fe5c 22be 3296 16bd e25f 74be
000001e0: c6ed 60be 8bb1 b53d 78b5 c3be 7b21 d4be
000001f0: fb6c 91bc 2ed9 723e 8eed 793d a439 303f
-0.2787043 -0.060151692 -0.34108636 0.02536533 0.02570556 -0.010635659 -0.48553306 -0.07158484
-0.33117685 0.11466565 -0.3000046 0.08460812 0.14637427 -0.008444341 0.16348326 -0.58126414
-0.5180488 -0.07766456 0.04933361 -0.44399533 -0.26331767 -0.21997234 -0.022937587 -0.2958869
-0.115690656 -0.5267162 -0.5200184 -0.043886174 -0.25545278 0.0186566 0.031655923 -0.4514175
-0.12161489 -0.027971184 -0.06191873 -0.27436697 0.13422619 -0.30505785 -0.14817148 -0.36611104
-0.5724057 1.007135 -0.36834997 0.24152638 -0.68978244 -0.19335917 0.1586331 -0.21875398
0.017694365 -0.44657353 -0.013702334 -0.23660511 0.5113617 -0.2907449 -0.04426719 -0.33437836
-0.08210162 -0.41889328 -0.29916018 -0.013817298 -0.09064957 -0.16951409 -0.060443755 -0.10966838
0.042661082 -0.2342393 -0.037580986 -0.45506024 -0.59552324 -0.33957937 -0.17740811 -0.10626672
-0.124519 -0.45036227 0.10898752 0.03135235 0.04172661 -0.06654706 -0.22683737 -0.39647934
0.16245598 -0.4045474 -0.24490343 -0.054126576 -0.017356917 0.48873845 0.2581477 0.17356879
0.22454609 -0.3878146 -0.47683585 -0.18659256 -0.14458653 -0.21579076 -0.21053499 -0.1954607
0.07744126 -0.03384951 0.04802434 -0.07436728 -0.38758633 -0.2710498 -0.06641373 -0.45414808
-0.028710557 -0.20813312 0.51711637 -0.2595206 -0.1552466 -0.11535949 -0.34874317 0.13319135
-0.51071036 0.21503584 -0.047976375 0.10470663 0.078929946 -0.15855786 -0.03676433 -0.23864701
-0.21965703 0.08871754 -0.38224387 -0.41431794 -0.017752161 0.2371566 0.061017565 0.6883795

layers.1.weight f4 [128, 128]
00000000: a771 59ba 80ea 3fba 6722 b4ba 0f04 243d
00000010: a9f7 cbbc 8b01 e83b 56f2 dbb9 cf65 d4b7
00000020: 8dac e33c 7f92 f1bc 2e42 a7bc 3c60 403b
00000030: e021 e0bb 8a6f 07bb a61b b23c 6f1e 2c3c
00000040: eefb b1bc e22b 4c3a 87e6 9dbc def5 093d
00000050: 0285 77bc fd14 2c39 69d5 46bc de77 783c
00000060: 6da3 1dbc 32d5 783a 0c48 d1bb d21d 3f3b
00000070: 4649 83bc 8918 9b3c 0243 873c 23d9 d3bb
00000080: 55a6 c33c 735a a139 299e 6fba 44a8 6fbc
00000090: 7db1 49bc 22fc 35bc 9ec4 363b 8484 c3bc
000000a0: 23af 683d b91c 92bd 20cc a33c 29ca 01bd
000000b0: c59b 9ebb 523b 0a3b 509a 203c c61f f83b
000000c0: eb38 743c 21c8 603c 7395 a43b cdc4 ee3c
000000d0: 7735 4c3b 0e04 273d 5e25 443a 1875 33bc
000000e0: 92ba e63a 0cce a8bb b8ee cebb afe5 54bc
000000f0: 31fc 9fbc 5cfd 753b f630 a93b 876e f8bc
00000100: bbca 5ebc 14ae 623b c9b4 1f3a 13fd 94bb
00000110: f550 2ebb 988c 643c a810 60bc 93c7 e6bb
00000120: eed8 b23c ac9f 2abc f022 4c3c 0278 553d
00000130: 4847 9dbb a454 0cbb 56c8 353c 4b6b f439
00000140: 476f e8bc 15f1 1f3c 03ee 4a3b e4c6 84bb
00000150: e84e cabc 445e 98bc 7720 3d3d 550f 803c
00000160: b6ae 84bc 72ce 0dbd 0f0a 20bc 217e 1b3c
00000170: 5e09 063d d041 de3c 6ed1 48bc 7a8f 12bc
00000180: 38f7 053d b936 083a b601 443c 3a48 8bba
00000190: e418 823d 6f06 98bc 4ca6 f33a 1415 8ebc
000001a0: aaef 143a 029f e03a bd58 78bc d9a7 833c
000001b0: c4eb e53b 561a 823c 1147 9a3c fa60 3fbc
000001c0: 12e9 c2bb aee2 dbbc 031d 40bc 8a83 13bc
000001d0: 7b71 633c d127 273c ceef 9ebc d445 3d3c
000001e0: 253e 48bc 077b cdbc 1f4d 91bc e613 18bc
000001f0: 9afe bbbb c940 673c 3b22 1d3c 68f2 efbc
00000200: 0631 1a3e b08a 32bc 640b 92bd 8078 05be
00000210: 53b7 16bd 83eb 0b3d 53db d6bc b5fd bf3a
00000220: 5ac3 8cbd 8148 07be bdca 8f3d 0ffa bb3d
00000230: a992 73be 85a5 0dbc e0b7 92bd 645f 2f3d
00000240: ff94 eb3d bcca ab3a 599d c5bd ae7b 5cbd
00000250: af09 233d 44e7 2d3d c0c3 823d 722d c63d
00000260: af9c 263d fc5b 1fbd d535 ebbc 406b caba
00000270: 4ae4 103d 962a 2b3e d928 fb3c 7bb0 d9bc
00000280: 32fd 013e 5830 743c 57c6 cebb 9c63 3ebd
00000290: 61f8 9e3c eeeb 5ebd 68ac 013c ae13 b5bc
000002a0: ba40 623e 320a 15be bce0 82bc 2b8f 90be
000002b0: 6dc0 8abc 6562 adbd 063d f9ba d6e7 33be
000002c0: 64bb 1b3e ac83 72bd e523 003e 6256 aebd
000002d0: 5691 4c3c a39b 333e 8e72 093a 44eb 493d
000002e0: 7d1f debb 2508 113d ecc5 093e b586 a63c
000002f0: c7b6 c5bc 76e7 b2bd a0e7 c2bd 625d 883d
00000300: 1e2f e7bd b509 6f3d 2b1b c13b 38be 063c
00000310: 1396 8d3b 466a 573d 667d b33d 224c 333d
00000320: f5ba b9bd 782a ec3d 4b32 2bbd 6c54 f5bd
00000330: 8858 50bc 7de5 543c a402 473c 7d5e d13c
00000340: a323 24bd 2c05 b43d 36c3 26bd 1de5 2bbd
00000350: 057a df3d 6288 74bc fba7 09be 066f 42be
00000360: 319f 4abe a99a 083e 79c5 c9bc e60c 48bc
00000370: 1cd6 bc3c 7966 bdbc 8316 2fbe 19cc 213d
00000380: 6343 b33c aa47 93b9 e189 0ebe 54b7 a6ba
00000390: 2c7e 37bd ef3b 443c 6a03 393b af37 a63d
000003a0: e5ca 60bd 4da5 c6bc d8f4 123c 4c92 6bbd
000003b0: 36a1 bcbd cc46 a5bd 8697 883d d387 16bd
000003c0: bdfe eb3d ffb7 533e 17eb 0e3d f627 fabc
000003d0: dcc8 20bd 0b8e 04be bc29 87bd 0ebb 283e
000003e0: 9011 34bd ce13 8dbc 2fe2 6e3b 8707 26bc
000003f0: 0b57 143d 6752 b2bd c844 db3b 442d a4bd
-0.00082948286 -0.0007321015 -0.0013743163 0.040042933 -0.024898367 0.007080262 -0.0004195149 -2.5319778e-05
0.02779224 -0.0294888 -0.0204173 0.0029354235 -0.0068399757 -0.0020665848 0.0217417 0.010505303
-0.021726575 0.00077885215 -0.019274963 0.033681743 -0.015107395 0.00016411017 -0.012135842 0.015165297
-0.009621483 0.0009492218 -0.0063867625 0.0029162061 -0.01602615 0.018932598 0.016511444 -0.0064650937
0.023883024 0.00030775703 -0.0009140694 -0.01462752 -0.012310383 -0.011107476 0.002788819 -0.0238669
0.05680765 -0.07134385 0.019994795 -0.031686936 -0.0048403465 0.0021092487 0.009802416 0.007572147
0.014906148 0.013719589 0.0050226985 0.029146576 0.0031159797 0.04077535 0.0007482375 -0.01095321
0.001760321 -0.005151516 -0.0063150786 -0.012994214 -0.019529434 0.0037535047 0.0051633073 -0.030326141
-0.013598139 0.0034588622 0.0006092308 -0.0045467704 -0.0026598547 0.013949536 -0.013675846 -0.007042834
0.021831956 -0.010414045 0.012459502 0.0521164 -0.004799757 -0.0021412754 0.011095127 0.00046619246
-0.028373374 0.009762068 0.003096462 -0.00405203 -0.024695829 -0.018599637 0.04617354 0.01563231
-0.01619659 -0.03462071 -0.009768023 0.009490521 0.032723777 0.027130991 -0.012256963 -0.00894534
0.03270647 0.00051961426 0.011963299 -0.0010626384 0.06352404 -0.018557755 0.0018588989 -0.017344035
0.00056814647 0.0017137232 -0.015157876 0.016071247 0.007016631 0.015881699 0.018832715 -0.011680836
-0.0059481943 -0.026841488 -0.011725667 -0.009003529 0.013882036 0.010202364 -0.019401457 0.011552293
-0.012221848 -0.025083078 -0.01773697 -0.009282088 -0.005737138 0.014114567 0.009590681 -0.029290393
0.15057763 -0.0108973235 -0.07131079 -0.13034248 -0.036795925 0.03416015 -0.026227629 0.0014647754
-0.06873198 -0.13211252 0.07021091 0.09178554 -0.23786415 -0.00864542 -0.071639776 0.04281558
0.11503028 0.0013106684 -0.09649152 -0.053828888 0.039804157 0.04245688 0.063849926 0.09676637
0.04067677 -0.038906083 -0.028712193 -0.001544334 0.035373963 0.16715464 0.030659126 -0.02657341
0.12694243 0.014904104 -0.006310265 -0.046481714 0.019405546 -0.05442422 0.00791464 -0.02210411
0.22095004 -0.1455467 -0.015976302 -0.28234228 -0.016937459 -0.08466033 -0.0019015379 -0.17568907
0.15208203 -0.059207603 0.12513693 -0.0851257 0.012485823 0.1753984 0.0005243205 0.049296632
-0.006778656 0.035408158 0.13454407 0.020327905 -0.024135007 -0.08735554 -0.09516835 0.06658436
-0.11288284 0.058358867 0.0058931313 0.008224063 0.0043208688 0.052591585 0.08764152 0.043773778
-0.09068862 0.11531538 -0.04179601 -0.11978993 -0.01271642 0.012994167 0.012146626 0.02555775
-0.04007305 0.08790049 -0.04071351 -0.041966546 0.10911945 -0.014925094 -0.13442986 -0.18987665
-0.19787289 0.13340248 -0.024630295 -0.0122101065 0.023051314 -0.023120152 -0.17098431 0.039501283
0.021882718 -0.0002809142 -0.13919784 -0.0012719431 -0.04479806 0.01197718 0.0028230795 0.081160896
-0.054880995 -0.024248743 0.008969508 -0.057512566 -0.09210436 -0.08070144 0.06669526 -0.036750626
0.11523197 0.20675658 0.034892168 -0.030536633 -0.039254054 -0.1294481 -0.06599757 0.16477606
-0.04396206 -0.017221358 0.0036450734 -0.010133631 0.036215823 -0.08707123 0.006691549 -0.08016446

layers.1.bias f4 [128]
00000000: 25ca 94bc 3d31 30be a991 f2bc 8b0c 53be
00000010: 4335 20be a3db e6bd 7a8f 99bc 0baf 74be
00000020: c71b e4bd 2c8a 3739 cc13 13bc 96a1 8a3e
00000030: 9bde 24be accc 35be d5d1 48be b7e2 62bc
00000040: 7f03 fabc 122a 84be efe0 febe 7b79 cbbe
00000050: 917d 28be 7bd1 03bd b9dc 3f3d dd6b 773c
00000060: bce7 44bc 7ea7 663e 60d2 1fbe 585e 8dbe
00000070: ba3c e9bc 14b4 18bd e03a 17be 0ae5 dbbd
00000080: 9d97 df3c dee6 50be 3713 3ebd 42ec 86bd
00000090: 4a0e 6ebe b0c4 aebc 2d64 bb3c d7f2 eebc
000000a0: f922 543d eba1 46be c486 28be a239 f3bc
000000b0: c665 26be 0f5e 86be 5b4c 3fbe 6e8f 31bd
000000c0: 4120 3abe 55e4 2bbe 9c4f dfbd 20ed 04bd
000000d0: a6cb 49be c5f9 04be cc8d 34be c7b6 b8bc
000000e0: 472c 29be a7c5 13be b734 f4bd af80 e63c
000000f0: b059 a5bd 804c 87be b620 7d3c 4bb1 aebe
00000100: 8e0d b7be 71dc 4ebe 9301 44be 24fc 30bc
00000110: 9867 9bbe 773f 16be 457d 58be ea75 7cbe
00000120: 2981 79be 3e5e 06bd f724 8fbe 7967 9dbc
00000130: 03d6 06bf b351 92be 2c5c 7abe 0c65 d6bc
00000140: 57e1 47bd b7ab 1fbd 7ce4 cebd fb52 34bd
00000150: b724 8ebe 91da e6bd fc80 1abe a523 9dbe
00000160: 83f0 3abc 4d37 b5be 043d c3bc a370 d5bc
00000170: c4a7 38be 46e7 5ebb c7ce 18be 88ca edbd
00000180: d81f 8abb fa3f a5bc 8c83 06bb 05d7 22be
00000190: 28b7 3cbe fbf6 9bbc fb47 fcbc 6a13 44be
000001a0: 7918 dbbc 31eb 23be ae64 82be 13bd f4bc
000001b0: 5646 abbe 0e6a 0bbe 2b47 0bbd 654e 8e3c
000001c0: 9fdd 67be e953 4f3c 24cd 6cbe 4c68 adbd
000001d0: 1819 e9bd 57dc 91bc a71c 87be fdc5 a3be
000001e0: fd5c e0bc 4253 0fbd edc9 75be e915 03bc
000001f0: a086 b1bd 550b 50be d861 ebbc 9357 1f3c
-0.018162796 -0.17206283 -0.029610472 -0.20610254 -0.15645318 -0.11272361 -0.018745173 -0.23894899
-0.111381106 0.00017503713 -0.008976888 0.27076405 -0.16100542 -0.17753857 -0.19611295 -0.013847998
-0.030519245 -0.25813347 -0.49780986 -0.3974112 -0.1645415 -0.032182198 0.046841357 0.0151014
-0.01201814 0.2252483 -0.15607595 -0.2761104 -0.02847134 -0.03728111 -0.14768553 -0.10737045
0.027293975 -0.20400569 -0.046405043 -0.06588031 -0.23247638 -0.021334022 0.022874916 -0.02916853
0.051791165 -0.19397704 -0.16457659 -0.029690567 -0.16249761 -0.26243636 -0.18681471 -0.043349676
-0.18176366 -0.1678632 -0.10903856 -0.032452703 -0.19706592 -0.12985905 -0.17632216 -0.022548093
-0.16520797 -0.14430867 -0.11924117 0.028137533 -0.08073747 -0.26425552 0.015449693 -0.3411964
-0.3575253 -0.20201279 -0.19141226 -0.0108023025 -0.30352473 -0.14672647 -0.21141537 -0.24654356
-0.24365677 -0.03280472 -0.2795789 -0.019214379 -0.52670306 -0.28577957 -0.24449223 -0.02617123
-0.048798885 -0.03898212 -0.10102174 -0.04402445 -0.27762386 -0.11272157 -0.15088266 -0.30691257
-0.0114098815 -0.35393754 -0.023832805 -0.026054686 -0.18032748 -0.0034012361 -0.1492263 -0.116108954
-0.004215222 -0.020172108 -0.0020525185 -0.15902336 -0.18429244 -0.019038668 -0.030796042 -0.19148031
-0.026745068 -0.16007687 -0.25467438 -0.029875314 -0.334521 -0.13614675 -0.034003418 0.017371366
-0.22643135 0.012654283 -0.2312513 -0.08467159 -0.113817394 -0.017805262 -0.26389048 -0.3198699
-0.02738809 -0.03499151 -0.2400281 -0.008000829 -0.08668256 -0.20316823 -0.028733179 0.009725469

layers.2.weight f4 [128, 128]
00000000: faa2 e4b9 e5d9 b3bb 9eaa 8cba 6fa4 7b3c
00000010: 9e79 0bbc 8569 bcbb 58e6 b939 4372 4bbb
00000020: 4c44 a83b 29a6 46ba 6db2 86b8 78ca 08bd
00000030: f240 683b a707 20bc 877f 6ebc 1cbe d638
00000040: 31b7 bfb9 4882 803c bd13 3abc 93ea a4bb
00000050: 6c30 44bc d8c2 8cb9 0840 00ba 98e8 fc39
00000060: ab9e 403a 6f34 debc 3811 70bc 11e0 a1bb
00000070: 7581 00b9 be9e 023b fd04 ba3b 635a f9bb
00000080: 10fb a2b9 52d7 c4bb 38d4 b5b9 ed12 b73c
00000090: c346 2fbc 2813 b739 4e39 07b8 cb17 2c39
000000a0: 6978 35bc db91 1f3c 8a89 de3c cefa 4739
000000b0: ce41 9ebb 52be 9dbb 3516 49bc 144b 383a
000000c0: a4f3 9c3b 21ff 1b3d b307 763c 74f2 33b8
000000d0: 56d5 91bb dd5e 94bb 1182 0ebb 494e 9c3a
000000e0: 9ac0 153b f8cf 7eba 87fe 7e3c a7ce 91b6
000000f0: cee0 87bc 91bb 4ebc 6d7f 28b9 5032 2fbc
00000100: f3ff 28bc 9ec5 193d 5e46 aebc 9242 2539
00000110: 7c9b 05bc ae43 70bc 20e6 ac3b 6ec5 2e3c
00000120: c511 2dbc 686c 3d3b f6c0 26b9 2f1b 65ba
00000130: b394 06bc 99f3 e4bb 0692 14bc 3ee7 c538
00000140: 4694 db3b b803 b238 5d9f 6bbc 975a bdb8
00000150: 74bd 42ba 11d1 f2ba 98a3 16bc b3c3 233b
00000160: 2c97 c839 74ff fc38 4c2d 86b9 9966 8c3a
00000170: 1dc1 903b 86b2 a7b8 f9c4 87bb e028 66bb
00000180: db24 ec39 a191 eab9 2f32 87b9 55e2 44bc
00000190: 21e2 dabc c5f8 69bc 5ecd 0038 e59a a1bb
000001a0: e4bd 36b8 d95f a23c 1c0b 08b9 e22b b039
000001b0: 0712 4a3b 0d08 a8bb 8829 4938 7617 9039
000001c0: 538c 11bc 52ff bc39 7aca a43c 9208 0b3c
000001d0: eea8 aabb cc6d f939 ee6c c03c 4dad c7bb
000001e0: 749e 7739 c511 cd39 9971 533c 38f6 38ba
000001f0: bf1a 7cbb c70e 043d dfa7 1837 9add 1d3a
00000200: a9c2 7e3b 3deb 55bd 6f78 093b fba6 d93d
00000210: 6e66 99bd 748d 7abe f344 c6bb e6aa 11bd
00000220: 9ce8 593c 71df 0b3b 1257 5fbb 8b71 2abe
00000230: 48aa 01b9 6dce e3bd 9e71 11be 2ac8 c53b
00000240: 4db9 493a 6bbd 1cbe 8c8d 47be 4e9a 453b
00000250: ce17 c13c a205 a0bb 8790 cebc 8a34 17bc
00000260: e4ae 4d3c c184 9ebe 26c7 23bd be00 d8bd
00000270: bfb8 99b9 43de 383b 7c2b 9fbd 15af 06bc
00000280: 4ad5 f93d 935e f63c 2522 2ebc 57c9 25bc
00000290: 7558 013e 0175 ffbb d039 bbbc 43fc 6f3b
000002a0: a6f1 003d 0a95 efbc 9d26 54be 05a2 b239
000002b0: f5ab 253c 55a1 51bd c933 f13c 126d 263c
000002c0: c6f6 673d 5bcb 223e c1fb 80bb 81b7 63bb
000002d0: 00c0 c2bd cdcb b93d 2836 9f3d bd80 ea3b
000002e0: a5d8 3a3d 8e1b e4bb df4f 953d d8fc 35ba
000002f0: 3251 443c f6e0 2abd 7112 12bd b166 4b3c
00000300: 1955 013e 917a 95bd 6f0a 10be 3a31 783b
00000310: e4fc a0bd d41f 99bd 0371 f43d 480f 6f3d
00000320: 3045 47bc 5e88 7d39 16b2 dfbb fe66 723c
00000330: 3aff cc3d 71ef 733d fe9f e83c 3d94 6a3c
00000340: 35d3 233e ec42 483c 760f dfbc 5d2a 07bc
00000350: 1fd1 513d 2aef 8bbc 3694 cfbb 5753 afbd
00000360: 8c48 48bc 9ce0 cf3c 50ac 8b3b 40cc 5d3b
00000370: 3a3a 2a3d ccf7 8dbb 1038 a33d 1898 663d
00000380: 591a 8a3b 1e36 ddbb 5c08 a73c 71b8 afbd
00000390: 9302 58bd 2d8a 003e 0289 2dbc 0e23 243e
000003a0: 9c5a 703b 3b00 8d3d 221c 163c 4676 7d3b
000003b0: da17 4f3d a2ee fe3d d394 fbbb 1b79 a43c
000003c0: 19c6 983d fd4f 9f3b 0704 5d3c 2a5c 983d
000003d0: e8f6 ccbc 917c 2bbb 75ac 8bbd c5c6 473e
000003e0: 314d c7bb 81c0 733a 0b84 573d ea5d 3abc
000003f0: 1d14 4c3d 7dbb a2bd 8e44 f73b 9bfc 5cbc
-0.00043608976 -0.0054886215 -0.0010732 0.015359028 -0.0085128825 -0.0057498836 0.0003545757 -0.0031043447
0.0051350947 -0.00075778604 -6.422852e-05 -0.033396214 0.00354391 -0.009767449 -0.014556772 0.00010239726
-0.00036566847 0.015687123 -0.011357245 -0.0050328462 -0.011974435 -0.0002684805 -0.0004892354 0.0004823848
0.0007347862 -0.027124612 -0.014652543 -0.004940041 -0.00012255258 0.0019931043 0.005676864 -0.007609652
-0.00031086104 -0.0060071135 -0.00034681126 0.022347892 -0.010698023 0.00034918752 -3.2239877e-05 0.00016412062
-0.011076071 0.0097393645 0.027165193 0.00019071551 -0.004829622 -0.0048139477 -0.012273361 0.00070302305
0.0047897864 0.038085107 0.015016484 -4.2902728e-05 -0.0044504805 -0.00452791 -0.0021745006 0.0011925186
0.0022850395 -0.0009720321 0.015563614 -4.3453942e-06 -0.016586687 -0.0126179615 -0.00016069198 -0.010693148
-0.010314929 0.037541978 -0.021273788 0.00015760426 -0.008154746 -0.014664574 0.0052764565 0.010667188
-0.010563319 0.0028903726 -0.00015902877 -0.00087397074 -0.008214164 -0.006987047 -0.009068018 9.436764e-05
0.006701025 8.488394e-05 -0.014381257 -9.029096e-05 -0.00074287434 -0.0018525441 -0.009194277 0.0024988472
0.00038259604 0.00012063878 -0.0002559222 0.0010711729 0.004417552 -7.996433e-05 -0.004143354 -0.0035119578
0.00045040887 -0.0004474046 -0.00025786596 -0.012016852 -0.026719155 -0.014280503 3.070884e-05 -0.004931795
-4.356903e-05 0.019821094 -0.00012974109 0.0003360203 0.00308335 -0.005127913 4.7960813e-05 0.000274833
-0.008883554 0.00036048383 0.02011608 0.00848593 -0.0052081263 0.00047574786 0.023489442 -0.006093657
0.00023614784 0.00039113886 0.012905502 -0.00070557324 -0.003846809 0.032240655 9.0989915e-06 0.0006022096
0.003887335 -0.052226294 0.0020976325 0.10627552 -0.0749024 -0.24468023 -0.0060507 -0.035563372
0.013300087 0.0021342898 -0.0034078998 -0.16644876 -0.00012365833 -0.11123357 -0.14203498 0.0060358243
0.00076951535 -0.15306632 -0.1948759 0.0030151787 0.023570921 -0.004883484 -0.0252154 -0.009228835
0.012553904 -0.30960658 -0.039984845 -0.105470166 -0.0002932008 0.002820865 -0.07771966 -0.008220454
0.12198885 0.030074393 -0.010628258 -0.010118804 0.126314 -0.0077959304 -0.022854716 0.0036618866
0.031480454 -0.029245872 -0.20717855 0.0003407152 0.0101117985 -0.05117925 0.029443638 0.01015784
0.056631826 0.15897886 -0.0039362614 -0.0034746828 -0.09509277 0.09072075 0.07774001 0.00715646
0.045616765 -0.0069612926 0.07290625 -0.00069422787 0.011982249 -0.041718446 -0.03566212 0.01241462
0.12630118 -0.07298768 -0.1406648 0.0037871138 -0.07860735 -0.07476774 0.11935618 0.058364183
-0.012162492 0.00024178761 -0.0068266494 0.014795063 0.10009618 0.05955452 0.028396603 0.014317569
0.15998538 0.012222987 -0.027229052 -0.008249846 0.051224824 -0.017081816 -0.006334807 -0.08560818
-0.012224328 0.025375657 0.0042624846 0.0033843666 0.041559435 -0.004332518 0.079696774 0.05629739
0.0042145667 -0.006750836 0.020389728 -0.08580101 -0.05273683 0.1255271 -0.010591747 0.16028997
0.00366751 0.068848096 0.009161981 0.0038675233 0.050559856 0.12447859 -0.0076776533 0.020077279
0.07459659 0.0048618303 0.01348973 0.07439454 -0.025020078 -0.0026166777 -0.06820003 0.19509418
-0.0060822 0.00092983997 0.05261616 -0.01137493 0.04982387 -0.07945917 0.007546014 -0.01348796

layers.2.bias f4 [128]
00000000: c257 8fbc 3389 52bd 06a1 ea3b 1929 22be
00000010: b458 b9bc fb91 ccb9 71c9 07bd a9a1 35be
00000020: 278f 03be 3a76 6bbc d4b1 debd f890 00bc
00000030: 9e69 c0bb 0859 34be 5709 9ebe f734 d0bb
00000040: b824 2fbc 5a5f 8dbc f52e 8cbc 4ded d9bc
00000050: 1df4 09bd 975d d7bc e73d 14bd 1d39 f9bd
00000060: 5f02 32be da8f 9cbc 92a1 29be cae8 cdbc
00000070: c2de 0cbd 3c14 90bc bfad 79bc f6c9 f0bc
00000080: 2f04 29be 8bb4 1bbd f751 74bc 8a54 f2bc
00000090: bf77 e0bb d729 e83a 620c 1cbc dbba 56be
000000a0: d48e e6bd c56e 85be 2d3d 26bc 4794 5fbc
000000b0: 9a4a d3bb 0952 2fbe 3676 a5bd 9f97 0abc
000000c0: 22d8 48bc dc6a dfbc 4477 cdbc fdba 93bb
000000d0: 32aa bdbd a771 d4bd ef2f debc 5050 01be
000000e0: 17dc acbc 2ae5 25be b8b0 83bc 087d aebc
000000f0: d8bb d7bc 63cc a6bc 6b3c 93bd 3100 cfbc
00000100: 0fa9 90bc d524 4cbc 4122 47bc 4366 4bbb
00000110: 3dca 08be fb74 83bc 6bde 5cbd a3c4 bfbc
00000120: abd7 87be 3aaf 04bd ab07 29bd 1a6e 68bc
00000130: 3305 5cbe 6c17 36be 3979 93bc 694b 21bc
00000140: f627 18bc c12f acbc 913d 0dbc a8c6 7bbc
00000150: 7ac6 e7bc 0f8f b3bb 8b8f 25be 1da3 98bd
00000160: 86c1 84be 1bc1 0a3d 4f4f 72bb b2b7 b1bb
00000170: db17 e8ba 664a 12be fa50 d7bd 976a 91be
00000180: eb5d 14bd 7c9b fb3c 88cc 98be caf6 91bb
00000190: 4575 10bd 0353 13bc 8f77 0dbd 2078 dbbc
000001a0: 87df e9bb 4ee8 15bc 0eb1 40be cf39 1bbc
000001b0: 3107 223e 02b9 05be e269 12bc 9038 77be
000001c0: 7048 94be 33fb d2bc a812 f4bc dd00 24bc
000001d0: 9a57 e3bd e7b2 19be c1f4 ddbc 9514 67bb
000001e0: 427b debb 09c6 85bc 8e95 e5bb 30b9 ec3c
000001f0: 165e a3bc 7e6a 71be c9a9 83bc e7fc 91be
-0.0174979 -0.051400375 0.007160309 -0.1583599 -0.022625305 -0.00039018676 -0.033151094 -0.1773745
-0.12847577 -0.014371449 -0.10873762 -0.007847063 -0.0058719655 -0.17612088 -0.308665 -0.00635397
-0.010689907 -0.017257381 -0.017112235 -0.026602412 -0.03368007 -0.026289744 -0.036191847 -0.121690966
-0.17383717 -0.019111563 -0.1656554 -0.025135417 -0.034392126 -0.017587774 -0.015239178 -0.029393177
-0.16505502 -0.038013976 -0.01491212 -0.029581327 -0.0068502123 0.0017712665 -0.009524437 -0.20969717
-0.11257711 -0.26061073 -0.010146421 -0.013646192 -0.006448102 -0.17121138 -0.080791876 -0.008459001
-0.012258561 -0.027272634 -0.025081284 -0.0045083747 -0.09260978 -0.1037324 -0.027122466 -0.12628293
-0.02110104 -0.162007 -0.016075477 -0.021299854 -0.026334688 -0.020361131 -0.07189258 -0.025268646
-0.017658738 -0.012459953 -0.012154163 -0.0031036295 -0.13358398 -0.016046992 -0.05392305 -0.023409193
-0.2653173 -0.03239367 -0.04126708 -0.0141864065 -0.21486358 -0.17782372 -0.01800214 -0.009844639
-0.009286871 -0.021018865 -0.008620636 -0.015367188 -0.028292883 -0.0054797004 -0.16168039 -0.074529864
-0.25928897 0.033875566 -0.003697354 -0.0054235095 -0.0017707305 -0.14286193 -0.10513492 -0.28401634
-0.03622238 0.03071379 -0.29843545 -0.0044544684 -0.035268087 -0.0089919595 -0.034537848 -0.026790679
-0.0071372422 -0.009149624 -0.18817541 -0.009474232 0.15823056 -0.13058856 -0.008936377 -0.2414267
-0.28961515 -0.025754547 -0.029794052 -0.010009971 -0.11100693 -0.15009652 -0.027094247 -0.003526007
-0.006789596 -0.016329782 -0.0070063537 0.028896898 -0.019942325 -0.2357578 -0.01607217 -0.28513262

layers.3.weight f4 [128, 128]
00000000: 1c29 59ba 6da4 9fbc 3400 983a d491 283a
00000010: d03b 863a 64c6 ebb9 b3e0 44b6 da5d 123a
00000020: ac00 ef39 501c c33a 1ada 00bb f105 93ba
00000030: 1d93 83ba 8b70 053c 7665 963c f5b1 21ba
00000040: 0169 43ba 4d48 db3a c5ab 5cb9 3886 37ba
00000050: 02c7 9739 b952 4a39 53d3 d2b9 11d7 cf3b
00000060: 5c87 cabb 11da 4db9 1535 49bb 34bb aaba
00000070: c046 43ba c9f7 d5bb 6cab a1b9 c2b5 e6ba
00000080: 40dd 1e3d ee6b c938 1328 cbb9 eb6d a4b9
00000090: 71e3 203a 324f 3b38 099b 923a 9b80 613b
000000a0: edcf 903b 3add 37ba 46b0 3839 0656 6cba
000000b0: d9b6 eb39 02b8 763c a960 853b 852e ec38
000000c0: 5b81 313a fb6a 7a3a 1ed1 e939 ff67 5eb7
000000d0: ee0b 1ebb 005d a73a 9cde 27ba 6504 a93a
000000e0: 2e8f a438 0373 483b 1c1b b539 1d7b 29b9
000000f0: 2c31 80ba 82ca 263a 9c67 9e3b 4112 5c3b
00000100: 512a 563a 6433 75b6 e56d 9c39 1245 9e39
00000110: e99f 27bc e142 a6b8 04a0 54bc 433a f339
00000120: 118b 80bc c276 5a39 74e3 953a db00 b6ba
00000130: 2ce6 7b3c 3263 4fbc 2f16 4cb9 1868 4739
00000140: 9b49 2cb9 291d e1ba de66 c1b9 c94d 0eba
00000150: cbab 8bb9 3e21 7138 b12d 6cbc 5dbd 9ebb
00000160: f773 4c3c 630a 583c 3d6f 92b9 e1e4 b0b9
00000170: e783 e939 a84c 563b d69c 5a3a ca57 01bc
00000180: 7851 12ba 47b3 61bc 8fe0 613b 1cf9 a839
00000190: c5ca 54ba c99a 5c3a eefd 2b3a 2dc1 6aba
000001a0: e0c0 20b9 8cb8 3a3a 4300 16bc 3bab 9ab9
000001b0: cf0e 783c ed17 71bb 53c3 8cba 4ad1 873b
000001c0: c130 57bb 2067 12b9 05bd fb39 b4e7 9738
000001d0: cf9b c8bc ef8b e4b7 a9bb 8f39 0cd2 163a
000001e0: 1cf2 8c3a 2d89 a83a cf5d d8b9 2ace babb
000001f0: adcb 37b7 b9a8 a53c 4d04 bcba f27c e73b
00000200: df1c 7938 b3fe eebc cfcf 1734 acc2 06b9
00000210: 8fca 1c39 07b4 abb9 6383 8eb9 a714 e8ba
00000220: 8758 c33b 2f85 a839 71d5 223c c2db 1cba
00000230: 9a61 5fba 9ce2 1c3c 6f95 283d dea5 4eb8
00000240: be66 d1b9 4624 c33a 1dad 9337 4b9f 15b8
00000250: f6ee 303a 6f17 6c39 540c 29b9 6394 8e3b
00000260: eac9 8536 da19 9038 2f9b 013b d6c8 42ba
00000270: 53e8 f5b9 f7e9 92ba bfa4 3bba 330b adb9
00000280: abd3 633d 3846 d739 5ba1 e738 ac4e b2b9
00000290: f2a7 133a 6d3d 8b38 3de6 0b3a 7e4f 073c
000002a0: d84f 9d3a 40e0 58bb f77b 43b9 b1d6 2db9
000002b0: dc57 8939 645e 583c 2400 b03b f6e9 2cb9
000002c0: 7301 8b37 6d99 93b8 a20c dc38 f839 9739
000002d0: 991f 4fbb 1e0e 8b3a b201 85b6 f99c efb9
000002e0: 5ce9 d5b8 f9ab bfbb 1b19 c639 b26b 4439
000002f0: 5515 4fba 93f4 bc39 9358 183c d287 c639
00000300: 6c4f 2739 d4d1 8939 8575 b739 6dcc a239
00000310: 0f28 2f39 1148 5eb7 f5a8 e4bc ea5b 1f39
00000320: e7f0 13bc 534e 2d38 7dbb 463a 0aa4 0bb9
00000330: a72f 893c 66b2 77bb 298a fbb9 a7a0 0239
00000340: 08bd 36b9 992a 0dba 84af 23b8 6bba 6db9
00000350: 493d dc38 e4b7 91b8 58ad 1f3b b2a6 69bc
00000360: 8928 be3c d61a 763c d8dd d937 7c58 afb7
00000370: 3c0d 35b8 0a3b acbb 80ef 7a3a 78a9 843c
00000380: 3d02 0739 720a aabc ff30 be3a 6357 1237
00000390: 260a 5db9 203f 6936 fbe8 ab39 d6a3 a8ba
000003a0: f139 02b9 96ab d338 f396 b5bc daeb 4cb9
000003b0: 5c8d 803c 0662 bc3a 8b9c 83ba f733 6b3a
000003c0: ddc9 15bc 14e0 53b9 43ac b439 dadb b738
000003d0: 39c8 d9bc e60c 933a 05e6 c338 d321 2439
000003e0: b447 5738 f642 f739 05e4 f038 a3b4 90bc
000003f0: b306 9ab8 742a 9d3c 3dce 17ba 64b5 913b
-0.0008284019 -0.019487584 0.001159674 0.00064304215 0.0010241214 -0.00044970505 -2.9337068e-06 0.0005583443
0.00045586133 0.0014885757 -0.0019661249 -0.0011216981 -0.001003835 0.008144508 0.018358927 -0.000616818
-0.00074543065 0.0016729921 -0.00021044824 -0.0007000896 0.00028949237 0.00019295038 -0.0004021177 0.0063427766
-0.006180687 -0.0001963156 -0.0030701805 -0.0013025762 -0.0007449202 -0.0065297824 -0.00030836032 -0.0017601775
0.03878522 9.60453e-05 -0.00038749035 -0.00031362413 0.0006137407 4.465803e-05 0.001118512 0.003440893
0.004419318 -0.00070138613 0.00017613274 -0.0009015504 0.00044958925 0.015058519 0.0040703607 0.00011262022
0.00067712896 0.00095526845 0.00044597028 -1.3256445e-05 -0.0024115997 0.0012768805 -0.0006403716 0.0012894986
7.846799e-05 0.003058613 0.00034543208 -0.00016162959 -0.0009780279 0.00063625735 0.0048341285 0.0033580216
0.0008169758 -3.6537758e-06 0.00029836516 0.0003018757 -0.010230997 -7.927954e-05 -0.012977604 0.0004639198
-0.015691312 0.00020834341 0.0011435584 -0.0013885753 0.0153747015 -0.012657927 -0.0001946322 0.00019016897
-0.00016430618 -0.0017174828 -0.0003688847 -0.0005428461 -0.00026640142 5.7489837e-05 -0.014415191 -0.004844351
0.01247882 0.01318607 -0.0002793017 -0.00033739864 0.00044539498 0.00326995 0.00083394104 -0.007894466
-0.0005581598 -0.013775653 0.0034466123 0.00032229058 -0.0008117373 0.0008415399 0.0006560971 -0.0008955177
-0.0001533064 0.00071228365 -0.009155336 -0.00029500746 0.015140249 -0.0036787943 -0.0010739363 0.0041448222
-0.0032835456 -0.00013962062 0.0004801528 7.243399e-05 -0.024488358 -2.724488e-05 0.00027414903 0.00057533453
0.0010753307 0.0012858264 -0.00041268623 -0.005700846 -1.0955072e-05 0.020222055 -0.0014344543 0.007064455
5.9393114e-05 -0.029174184 1.4138571e-07 -0.00012851757 0.00014952778 -0.00032749792 -0.0002718224 -0.001770635
0.005961481 0.00032142687 0.009938584 -0.0005983674 -0.00085213187 0.009575512 0.041158136 -4.9268703e-05
-0.00039940135 0.001488813 1.7604378e-05 -3.567272e-05 0.0006749475 0.00022515444 -0.00016121689 0.004351185
3.9872148e-06 6.87127e-05 0.0019776335 -0.00074304396 -0.00046903137 -0.0011208643 -0.0007158033 -0.00033005475
0.055621784 0.00041060313 0.00011044993 -0.0003400942 0.0005632631 6.639478e-05 0.00053367374 0.0082586985
0.0012001945 -0.0033092648 -0.0001864283 -0.00016578544 0.00026196137 0.013206098 0.0053711105 -0.00016490355
1.6570766e-05 -7.038084e-05 0.000104927705 0.00028844154 -0.0031604527 0.0010609066 -3.9639062e-06 -0.00045702586
-0.00010200098 -0.005849358 0.00037784208 0.00018732136 -0.0007899602 0.00036040376 0.0092984615 0.00037866697
0.00015955948 0.0002628701 0.0003499204 0.00031051357 0.00016704224 -1.324901e-05 -0.027912596 0.00015197662
-0.009029604 4.131936e-05 0.00075810385 -0.00013317182 0.016746355 -0.0037795543 -0.00047977388 0.00012457614
-0.00017427292 -0.00053850707 -3.902569e-05 -0.00022671527 0.00010501833 -6.948391e-05 0.0024364796 -0.014260935
0.023212688 0.015021047 2.597172e-05 -2.090283e-05 -4.316609e-05 -0.0052560614 0.00095724314 0.01619409
0.00012875437 -0.020756934 0.0014510452 8.722624e-06 -0.00021079983 3.475645e-06 0.00032789246 -0.001286621
-0.00012419351 0.000100932244 -0.022166705 -0.00019542818 0.015692405 0.0014372475 -0.001004116 0.0008972282
-0.009142366 -0.00020206004 0.0003446062 8.7670705e-05 -0.026584731 0.0011219054 9.341169e-05 0.0001565286
5.1326773e-05 0.000471614 0.00011486564 -0.01766426 -7.34454e-05 0.019185282 -0.0005790925 0.0044466723

layers.3.bias f4 [128]
00000000: 5e8b 54bb 2bc9 d4bb 3cda 01bc 44a3 44bc
00000010: 5412 c3bc 4d9e 4fbc 40df fa3b 1492 ecbb
00000020: 9ab4 64bd 2c67 e2bd 80d8 0ebe f827 edbb
00000030: 6966 3dbc e571 62bc e604 6dbc 26b8 80bc
00000040: 0bb2 d8bd 01ff a1be 4b20 a339 c24c 2fbc
00000050: 9645 10bb 83a8 9f3c ac34 da3a 43c9 30be
00000060: c96f e1bb de54 9cba 87ad 553c f3a0 65bc
00000070: 7c2c 0fbc 0e03 39bb e60f 5cbc 5f35 41b9
00000080: d94c e0bd e45d c6ba 1fea 39bc 1801 26bc
00000090: fe4d 03bc 04ed 2b3e 0c30 b5bd 39f8 a2bc
000000a0: b6fe 90ba 1633 e2ba 50d5 5cba 00d0 32bc
000000b0: 4b2f 89bc bd29 65bc 6906 52bc 956a b1bc
000000c0: 9c26 ef3b 1240 1fbc b8f2 8c3e 3743 08bc
000000d0: 4ed4 0abc 1294 c43b 51ff 24bc a051 e9bc
000000e0: 4ea7 82bd 094b 193c 3ab3 3dbc 97c3 1d3c
000000f0: 7364 a6bc 24b5 c3bb c30e e1bb a101 1abc
00000100: e767 74bc ff1c 0dbe 9751 37bb 4557 33bc
00000110: 883f 4dba c93e 453c 986d 5fbe bf11 823c
00000120: 552d 9cbc 1c14 5cbc c6ef 023d 03ae 4bbd
00000130: 6c62 16b8 422b 99bc 6840 b1bc 784b 88bc
00000140: f794 a4bd 7383 8039 265c 9fba f32f a5bc
00000150: c787 46bc c14a 3cbc 0f8b 00bd 4d80 8dbc
00000160: 112e 72bd 79eb 633b 59c1 0cbc d2bf d3bd
00000170: 6bce 9fbc e01d 08bd 3200 27bc 7c88 39bc
00000180: 59ff 883b d85a a7bc 7f06 a4bb d855 5bbb
00000190: 5899 f2bb cb61 d0bb f197 13bc 02f7 97bc
000001a0: ee56 55bc b33f 98bc 7c45 473c fe4d 0dbe
000001b0: 39b2 07bc 0018 83bc 9059 5cbb 77eb 93bc
000001c0: b995 0abc 2c03 05bc ebd2 7ebd 5d5a 56bc
000001d0: 9aa7 36bc 9368 a2bc 2226 783c 824f 483b
000001e0: 8aa0 1fbc 6804 87bc 0adc 41bc dd56 46bc
000001f0: 56f9 923c 64ee 563c e6df 133d 19c9 a0bd
-0.0032431702 -0.0064937077 -0.007925566 -0.012001816 -0.02381245 -0.012672019 0.007656008 -0.0072195623
-0.055836298 -0.11054835 -0.13949776 -0.0072374307 -0.011560061 -0.0138211 -0.0144665 -0.015712809
-0.10580834 -0.31639865 0.00031113843 -0.010699453 -0.0022014133 0.019489532 0.0016647778 -0.17264275
-0.006879781 -0.0011927148 0.01304186 -0.014015424 -0.008738633 -0.002823058 -0.013431525 -0.00018425797
-0.109521575 -0.0015134183 -0.011347323 -0.010132097 -0.0080142 0.16789633 -0.08847055 -0.019893752
-0.0011062238 -0.0017257656 -0.000842412 -0.010913849 -0.016746184 -0.013987002 -0.012818911 -0.021657268
0.007298304 -0.009719865 0.2752893 -0.0083168065 -0.008473469 0.0059990967 -0.010070638 -0.028481305
-0.06379567 0.009356269 -0.0115783755 0.009629152 -0.02031157 -0.0059725214 -0.006868215 -0.009399802
-0.01491735 -0.13780592 -0.0027972215 -0.0109461 -0.0007829596 0.012038895 -0.2181915 0.015877603
-0.019064585 -0.013432529 0.031966947 -0.049726497 -3.585445e-05 -0.018697385 -0.021637157 -0.016637549
-0.08036225 0.00024512 -0.00121582 -0.020164466 -0.012117333 -0.011492432 -0.031382617 -0.017273093
-0.059125964 0.0034777804 -0.00859102 -0.10339321 -0.019507607 -0.033231616 -0.010192918 -0.011324044
0.0041808304 -0.02042906 -0.005005657 -0.0033467915 -0.007403534 -0.006359314 -0.009008394 -0.0185504
-0.013021214 -0.018585062 0.012162562 -0.13799283 -0.008282238 -0.016002655 -0.003362272 -0.018056614
-0.008458548 -0.008118432 -0.062212866 -0.013083068 -0.011148358 -0.019825255 0.01514581 0.0030564968
-0.009742865 -0.016481593 -0.011832247 -0.012105671 0.017941158 0.01311836 0.036102198 -0.07850856
