DDQN/3cylDDQNNOTGOOD.pt (torch, 85943 bytes, 7 tensors)

fc.weight f4 [128, 19]
00000000: 8909 76bc 7068 8f3e 453a 343d 526e e73c
00000010: ca03 97be e688 a2bd 601e c93d 8579 b0bc
00000020: 5cae 8c3d ebc9 27be ca5e a0bd ab83 1a3e
00000030: 5768 14be e65f 4fbe 8909 cebd 35e7 9f3d
00000040: ef4c 43be 9569 44be 096a 443e f21e cabd
00000050: 7844 76be 4118 543d 61a4 2dbe 45b8 8d3e
00000060: f6b7 75be 7acf f2bd 09d3 d0bd cd31 083c
00000070: 2a47 a53d f537 ef3d d2e2 aabd 2d96 863d
00000080: 78ae 0a3c bb39 d9bd b8e6 c2bb b67a e13d
00000090: b33d 55bd 4a7e 3dbe f85d 3abc 3a86 7fbc
000000a0: 0602 9c3d 22e4 093b 5458 3cbe a28b 7b3e
000000b0: 3a73 5e3d b227 f7bd f5e9 3e3e d472 14bd
000000c0: af37 193e 3130 0dbe 07aa 89bd 4ef7 d13d
000000d0: f723 2dbd 444d 13be 3311 e7bc 3e65 2cbe
000000e0: 82f0 39bd 46a4 32be 56d3 4a3e 7e69 84be
000000f0: 1e12 12be 3059 62be 0d9e 9bbe 1d3f 3dbe
00000100: b34e 61bd 14d7 ccbd 2116 09be fb3c 4a3c
00000110: 3520 4fbe de0f 413e cfb8 d4bd 270e e83d
00000120: 9157 8e3d e822 e6bd 2f21 d93d 9391 8ebe
00000130: 2e7d bd3c c967 64be fc8e db3e 130c b9bd
00000140: d484 003e bc79 973e d2e7 0ebd 9b2a 5bbd
00000150: 0787 4b3e b8db 493d 3e3c 11bd 835e 5e3c
00000160: 52ca 91bd cdbb 293e 398f 35be fdeb 69be
00000170: 2cb2 1f3e 7449 3b3e 5900 edbd b125 9d3e
00000180: 00ce 7abe 3d89 8f3e f22c 853d 5a59 31be
00000190: ddb8 a73e bf1d f6bd ca7f 363e 93ec 8bbd
000001a0: 9466 ae3d e583 c13c ba37 4b3d 5d87 3dbd
000001b0: fb73 eabd b5e0 2bbd d101 72be cad5 9bbd
000001c0: d1d3 1abe eddc e63d c200 403e 2ef5 56bc
000001d0: f47b fe3e c8ad e4bd 1b61 6dbe e83f 283e
000001e0: 69f8 de3d 3e77 353e 0384 813e b918 6cbc
000001f0: 3d05 3f3e 9437 9fbd f295 febd ddd4 e0bd
00000200: 360e 96be d6a0 1a3d 1e35 0abe 329a 273e
00000210: a5d1 d3bd f3bc 6c3d 5616 ee3e 8894 f53d
00000220: 8149 efbd 6620 99bd 9971 99be 0954 5fbe
00000230: b6c5 863b cd5f 68be a852 c33d 3a31 f63d
00000240: 05cf c4bd 27f7 0cbd 9186 27bc 9ae3 273e
00000250: 0dd7 e03d 383f 8ebe 9908 6fbd ac89 943d
00000260: 4df8 fdbe 06a5 773c e98f 423e ca9c b7bc
00000270: b0fa 223d 0f48 643d 2c44 ee3a e558 273e
00000280: 9526 163e 39b8 31be 32f9 43be 34f0 593d
00000290: b755 043e 5d94 bbbd 0ce0 3d3e b007 7e3e
000002a0: 5a0d 153e 6187 2ebe 5854 56be db30 b2be
000002b0: 8633 b13e 22ae ad3e 3d3e 1cbe 35c6 f8bb
000002c0: d649 8c3d a1d3 15bd d5ef 75be c8ba 543e
000002d0: c236 733e e752 c63d eeff 9e3d f6b3 30be
000002e0: 9831 bdbd aa1c 8abd 7b64 7fbe ccfe c1bc
000002f0: c0d1 083c 011f 4b3e 8167 1f3e 3908 23be
00000300: d69a 58be 83a8 5d3d 2567 2f3d 6c47 10be
00000310: 77e7 2dbc 30b9 713e 599a 833e 56cf b63d
00000320: 23b5 e03c 9fdf 363e c558 173e 85d1 d83d
00000330: 9863 4abe d37d ea3d ce06 3b3e 46f5 a7bd
00000340: 0f40 32bd 1baa 03be 8c03 5cbc e831 923c
00000350: 19df c8bd 3e7c 75be 9a90 5b3d 947a 3cbe
00000360: cc63 22bd cd28 1cbe 4da1 8c3c 3e57 8cbd
00000370: b0fa 353d 9353 bd3d 123d 453e 48f4 453e
00000380: 28a8 52be 36ef 4f3e 257c b23d 092a 4b3e
00000390: 14c2 76be b6cc b9bd 947c 45be fd0b c2be
000003a0: 87b9 393e f8a7 b93c 4fce 333e 2cbd a7bc
000003b0: 43ce 0fbe 2dc8 2f3e 7a62 b0bd ed18 483e
000003c0: 62d8 a7bd 290b 69be 0a4c 443e ae0a 4fbe
000003d0: bba5 ae3d e99d 66be 1f7a 88bd f075 87be
000003e0: e256 fa3d aeff 2e3e 0941 98bc 4b0c 30bd
000003f0: 65df 7f3c 687b c7be a310 c9be c63a dabd
-0.015016922 0.28009367 0.044000883 0.028250847 -0.29495078 -0.079362676 0.09820247 -0.02154232
0.06869194 -0.1638562 -0.078305796 0.1508929 -0.14492927 -0.20251426 -0.100604124 0.07807771
-0.19072317 -0.19180901 0.19181074 -0.098691836 -0.24049556 0.051780943 -0.16957237 0.2767965
-0.23995957 -0.11855979 -0.10196502 0.008312655 0.08070214 0.11680595 -0.08344044 0.065716125
0.008464448 -0.10606714 -0.005947914 0.110097334 -0.052060794 -0.18505207 -0.011374943 -0.015595967
0.076175734 0.0021040519 -0.1839307 0.24564984 0.054309107 -0.12068118 0.18643935 -0.03624232
0.14962648 -0.13787915 -0.06721883 0.10252248 -0.042270627 -0.14384943 -0.028206443 -0.16835496
-0.04539538 -0.17445478 0.19807181 -0.25861734 -0.14264724 -0.22104335 -0.3039402 -0.18481107
-0.055006694 -0.100019604 -0.13387348 0.01234364 -0.2022713 0.18853709 -0.10386812 0.11330824
0.06950296 -0.112371266 0.106020324 -0.2784544 0.02313098 -0.22305216 0.42882526 -0.09035506
0.1255067 0.29585063 -0.03488905 -0.05350743 0.19875728 0.049281806 -0.035457842 0.013572338
-0.07118668 0.16575547 -0.17730416 -0.22843929 0.15595311 0.18289739 -0.11572332 0.3069282
-0.24492645 0.28034392 0.06502713 -0.17319241 0.32758227 -0.12017392 0.17822185 -0.06832232
0.08515659 0.023622463 0.049613692 -0.04627167 -0.11447903 -0.041962344 -0.23633505 -0.076091364
-0.15119864 0.11272607 0.18750289 -0.013119979 0.49703944 -0.11165959 -0.23181574 0.16430628
0.10887224 0.17721269 0.2529603 -0.014410191 0.18654342 -0.077742726 -0.124309435 -0.109781004
-0.29307717 0.03775104 -0.13496825 0.16367415 -0.10342721 0.057797384 0.46501416 0.11991221
-0.11683942 -0.07476883 -0.2996948 -0.218094 0.0041129244 -0.22692795 0.0953725 0.12021108
-0.09609798 -0.03441539 -0.010224954 0.16395417 0.10978518 -0.27782607 -0.05835781 0.07252821
-0.496035 0.015115028 0.1900021 -0.02241363 0.039789855 0.055732783 0.0018178276 0.16342504
0.14663155 -0.17355432 -0.19138029 0.05320759 0.12923323 -0.091591574 0.18542498 0.2480762
0.14555874 -0.1704383 -0.20930612 -0.348029 0.34609622 0.33921915 -0.15258117 -0.0075919875
0.068500206 -0.03657878 -0.2401727 0.20774376 0.23751357 0.09683781 0.077636585 -0.1725615
-0.09237975 -0.067437485 -0.24940674 -0.023681067 0.00835079 0.19836046 0.15566827 -0.15921105
-0.21152815 0.054115783 0.042822976 -0.14089745 -0.010614268 0.236058 0.25703695 0.08926265
0.027430123 0.17858742 0.14779957 0.10586838 -0.19764555 0.1144978 0.18264315 -0.08201079
-0.043518122 -0.12857859 -0.01342858 0.017846063 -0.098081775 -0.23973176 0.0536047 -0.18406135
-0.039645955 -0.1524994 0.017166758 -0.068525776 0.044428527 0.09244456 0.19261578 0.19331467
-0.20571959 0.20306095 0.08715085 0.19840254 -0.24097472 -0.09072249 -0.19285804 -0.3789977
0.1813718 0.022663102 0.17559169 -0.020475946 -0.14043526 0.17166205 -0.08612533 0.19540758
-0.081955686 -0.22758164 0.19169632 -0.20218918 0.08527704 -0.22521175 -0.06663918 -0.26457167
0.12223603 0.17089722 -0.018585699 -0.042980473 0.015617226 -0.3896134 -0.39270505 -0.106557414

fc.bias f4 [128]
00000000: e9af ca3c f4d0 783e b358 8abe 07f5 fc3c
00000010: 4971 6f3d 1603 50bd 0569 2e3e 3d70 9e3d
00000020: 109a 9ebc adae c0be ac25 4abe 0e6e c13c
00000030: f1b9 463e 9b34 13bf 6b36 7bbe 425c 903d
00000040: 8aba 7c3d c1dc 583e 7394 bfbd 1acc c4bd
00000050: 11a3 6e3e d2d2 2bbc 9293 27be 53fe d1bd
00000060: 4c88 803e 0ff2 8bbd b725 a5be 8d0e 19be
00000070: f17d 4fbe c8b5 e0bd 8c73 2abe 1272 273e
00000080: a1ad 23bd 3de4 15be aa47 3e3d 52f5 b5bd
00000090: 2dee 45be 089e 6cbd 084e b43e ec39 823e
000000a0: 0211 b0bd 2ba7 cbbd 9234 f83b bec8 80bc
000000b0: b25d d1bd 1f98 0abe 2210 14be 1715 563d
000000c0: eaa0 733d 233f ff3d bc7f 1bbd 4aa2 3ebd
000000d0: 6e22 d8be ec5f 123e 9cd4 ef37 9b68 6f3e
000000e0: 10fd c8be ea9e 8fbd b75b cd3c dfc5 533e
000000f0: f57d e5bd 8b41 5fbd e63e 97be e289 42be
00000100: 08e9 e63d 2c90 673e f701 81be fc59 b6bc
00000110: 1a93 68be af6d be3d 79a9 983d 8611 793d
00000120: e04d a73b f5ba 7d3e 0f68 5e3c 140c a4be
00000130: 05ac f2bd 3c58 ae3d a78e 3f3d c103 2b3e
00000140: d93c d03d 5a61 993d eae0 b8be cb0f 2e3e
00000150: 674b fb3d 94f1 ddbc 75bf 363e d348 193e
00000160: d754 f53d 6f98 813e 540f c03d f797 debd
00000170: 7d59 083e 2f10 96be 72b5 e4bd 309a de3d
00000180: a787 9b3e bfda 023d e31e c53d 9978 3c3e
00000190: 2c6a 7abe 43e3 34bd bcf4 753e c32c 4dbe
000001a0: 57a0 4ebe 1799 3bbe 75b1 bebd 6ce1 7fbe
000001b0: e1a0 0a3e 82ef 82be ac99 39be d7d0 ea3d
000001c0: 5c75 b1bd ef89 c4bd ec64 5dbe dbcc ad3d
000001d0: 30a5 80be 100c 9b3c 64bc 3c3e 27f0 1abe
000001e0: c8b2 f4bd 0f34 b1bd cfc5 49bd a789 eebd
000001f0: 13dc 1b3e 29ad 9c3d 396c 683e b20c 573e
0.024742084 0.2429846 -0.27020797 0.030878557 0.058457647 -0.050784193 0.1703225 0.077362515
-0.019360572 -0.37633267 -0.19740933 0.023612048 0.19406869 -0.57502145 -0.24532478 0.07048847
0.061701335 0.21177961 -0.09354486 -0.09609242 0.23304392 -0.010487275 -0.16364887 -0.102535866
0.25103986 -0.068332784 -0.32255337 -0.14946957 -0.20262887 -0.10972172 -0.1664564 0.16352108
-0.039960507 -0.14637847 0.046455063 -0.08884682 -0.19329138 -0.057767898 0.35215783 0.25434816
-0.08596994 -0.09943994 0.0075746262 -0.015720721 -0.10222949 -0.13534592 -0.14459279 0.052266207
0.05947963 0.12463214 -0.037963614 -0.04654149 -0.42213768 0.14294404 2.8590024e-05 0.23379748
-0.3925557 -0.07012732 0.025068147 0.2068095 -0.11205665 -0.054505866 -0.29540175 -0.1899791
0.11274916 0.22613591 -0.25196812 -0.022259705 -0.22712365 0.09298264 0.07454199 0.060807727
0.005105719 0.2477835 0.013574614 -0.32040465 -0.11849216 0.08512923 0.046766903 0.16700651
0.10167856 0.074892715 -0.36109096 0.16998212 0.12270241 -0.027092732 0.17846473 0.14969186
0.119790725 0.2531161 0.093779236 -0.10868829 0.13315387 -0.29309222 -0.111674204 0.10869253
0.30376932 0.031946894 0.09625032 0.1840538 -0.24454564 -0.044162046 0.2401914 -0.20036606
-0.20178352 -0.18320118 -0.09311191 -0.24988335 0.13537933 -0.25573355 -0.18125027 0.11465614
-0.08664963 -0.09596621 -0.2162053 0.08486339 -0.25126028 0.01892665 0.1843124 -0.15130673
-0.11948162 -0.086525075 -0.04926091 -0.11647349 0.1522067 0.07650215 0.22697534 0.21000937

hidden.0.weight f4 [128, 128]
00000000: 5d1d 6f3d 37a9 25bd ec60 2d3d 1c85 2ebd
00000010: d18a 0ebd f413 2e3c 4db1 ad3d 5328 c23c
00000020: a4c8 6abd eba9 8f3d 6505 543d 3e1b 283c
00000030: d544 7ebd 50c8 aebd 71f1 0c3d dc6a debd
00000040: 7e87 ee3c e7a5 b93b c8de 2c3b 91a7 863d
00000050: 3c3a 793d b476 153d 34c4 80ba 098b 4a3d
00000060: c602 99bc 2900 033d ea8a a23d 2154 ee3d
00000070: 3681 fcbc f5ca 1cbd 5be8 51bd 0e66 b33d
00000080: 3ccf db3d 32db 23bd 96a4 27bd 7e61 0e3d
00000090: 7077 d6bd 0062 20bd 4cdf 46bd f1fd a63c
000000a0: ca19 6f3d bff7 8fbd 6b4a f9bd 24c7 4abd
000000b0: eb14 023d 79f2 883d 0724 ef3d 8ba6 193b
000000c0: 5090 0d3e 1f02 c6bd 93d7 57bd 9e90 2abd
000000d0: 6c20 62bd b7de 10bc 7905 6a3d f4dd e5bd
000000e0: 4577 3cbd 4860 afbc 1f9f 173d 77fd 263d
000000f0: a6fc 9c3d 85e7 793d cd0d 643d 26d8 d9bd
00000100: 4e47 d83d aedf a9bd 6e19 9fbc 54d4 723d
00000110: 6494 84bd 488c a13c db85 0d3e 036f d53b
00000120: 0f87 983b f415 f5bd efa3 063b 59ef ab3d
00000130: ffed b53c 740b f4bd b898 d5bd a99a 5d38
00000140: fcc6 80bd 5772 903d 38fd 70bb 5261 9b3d
00000150: 54f0 acbc cda8 843d 9611 943d d4e2 a2bd
00000160: 6681 173d 58bc 8dbd dede 5eba 08f7 a6ba
00000170: 9757 77bd ab2a 203e 7533 e63b 4083 4ebd
00000180: e796 33be ff2b 53bd bd43 bc3d 54c8 0abd
00000190: 3826 703d c794 873c 5ac3 863d 3e52 b0bd
000001a0: 9428 9cbd b564 a9bc 01ae ca3d e571 363d
000001b0: cc61 b23c 22e5 04bd 8ce4 853c bee3 fabc
000001c0: f4d8 91bc 3c2e 10bd 6615 bebd 1b28 99bd
000001d0: 4489 03bd f70c db3b e674 423d d42a 5f3d
000001e0: 05ec 353d b2f8 81bc 17cb 87bb efe6 4c3d
000001f0: 158b 2b3d 2898 8a3c 3f97 653d 42fb 2e3d
00000200: 118b 76bd 781b fcbd bdab 5bbc 693c 3c3d
00000210: 4c16 0dbe e40f 11be 0a61 e23c 32ba 8fbd
00000220: 90da 213e 4c95 26bd 7ab1 cf3c daa6 dbbd
00000230: 9555 d63d 382d 1fbe 8924 063d 2296 40be
00000240: 861e 883d 8655 14bd cc8a 683d add9 533e
00000250: f2f0 5ebe 721e 9d3d a869 a2bd 485e fc3c
00000260: 3f7e 98bc eaff e9bd 263d fa3d 1ba2 d23c
00000270: 6a59 b3bd 64b3 08be d8b1 1abe 09d2 ac3d
00000280: 47a5 0e3d f6db 1a3e e097 203c 3856 51bd
00000290: 3365 9ebe bf8b 1a3e f07d 69bd 6519 a33c
000002a0: 6504 06bd f040 1b3c b421 103d f6f8 683d
000002b0: 9d49 87bc 3998 c3bd 0f29 453d abf6 083c
000002c0: 3a52 24be 0ed8 2a3e 7470 1f3e d17c 8f3d
000002d0: 8fcf 513e a5ad a33d 2332 fd3d 528c af3c
000002e0: 3541 053e 23c0 d4bd 9805 873d 4866 f0bd
000002f0: 9564 653d 0ca3 433e 87c4 a8bd 8621 e9bc
00000300: 9df5 883d 349a 763d 0afa 39bd e6e1 623d
00000310: 6161 d03c 1530 55bc f732 8d3c 3b5a a4bd
00000320: 970d 253d a43f 0fbe 4381 293d 9e48 8c3c
00000330: 33e7 b5bd 0714 d7bd e426 a23d 5ae2 13be
00000340: 51d7 983c ca2f 18bd e74d b23d 817e f9bc
00000350: 73ab 83bd ea47 38be 7943 b2bd a3a7 dcbd
00000360: 636a d0bc 4426 4cbe 3424 103e f281 183e
00000370: 53b2 13bd fd54 a03d 42db 4c3d 811d 283a
00000380: bd62 97bc cdc4 d5bc 023a a03b 7574 47bd
00000390: 6043 1f3e e473 f33d 1f1b f6bd f2aa a0bd
000003a0: 682f ab3d 0fc3 313d 92bd 1f3e a1f0 c73d
000003b0: eaac 333d d44e 243d c1ff 953d 2612 c7bd
000003c0: 501f ad3d 9d58 083e f568 a53d e3ef 923d
000003d0: 1b05 7dbd 9fe8 78be 391a 4a3d fd57 e93b
000003e0: b8cb ebbd 7113 e33d 86ff 663c 0ec1 0b3e
000003f0: 022f c53d 173c f33d 1d09 0dbe 84c2 ebbe
0.058377612 -0.04044458 0.04232876 -0.04260741 -0.034800354 0.010624874 0.08481083 0.023700869
-0.057320252 0.07014831 0.051762957 0.010260401 -0.062077362 -0.085343 0.034409944 -0.108602256
0.029117342 0.005665529 0.0026377905 0.065749295 0.060846552 0.036490157 -0.0009824098 0.049449
-0.01867808 0.031982575 0.07936652 0.1163714 -0.030823331 -0.038279492 -0.051246982 0.087597
0.10732886 -0.040003963 -0.040928446 0.034760945 -0.10472 -0.03915596 -0.048552796 0.02038476
0.058374204 -0.07029676 -0.12172397 -0.04950632 0.03175823 0.06686873 0.116767935 0.0023445215
0.13824582 -0.09668373 -0.052695822 -0.041641824 -0.0552067 -0.008842162 0.057134125 -0.11223975
-0.04601218 -0.021408215 0.037016984 0.040769067 0.07665376 0.06101181 0.055677224 -0.1063693
0.10560475 -0.08294617 -0.019421306 0.059284523 -0.06473616 0.019720212 0.13820593 0.006513478
0.004654772 -0.11967078 0.002054449 0.08395261 0.022208212 -0.11916247 -0.104295194 5.2834544e-05
-0.06287953 0.070530586 -0.0036772024 0.07586922 -0.021110691 0.06477509 0.07229917 -0.0795342
0.03698864 -0.06920689 -0.0008501838 -0.0012738416 -0.060386267 0.15641277 0.007025177 -0.05041814
-0.17538033 -0.05155563 0.091926076 -0.033882454 0.0586302 0.016550435 0.06580229 -0.086094365
-0.07624927 -0.020677904 0.0989647 0.044542212 0.021775149 -0.03244508 0.016344331 -0.030626174
-0.017803647 -0.035200343 -0.09281425 -0.07478353 -0.03211333 0.006684895 0.047474764 0.054484203
0.04441454 -0.015865657 -0.0041440832 0.050024923 0.041880686 0.016918257 0.056052443 0.042720087
-0.060191218 -0.12309927 -0.013407645 0.04595605 -0.13778037 -0.14166218 0.027634162 -0.07017936
0.15806031 -0.040669724 0.025353182 -0.10725184 0.10465542 -0.15544593 0.032749686 -0.18807271
0.06646447 -0.036214374 0.056772992 0.20688505 -0.21771601 0.076718226 -0.079303086 0.030806676
-0.018614886 -0.11425765 0.122186944 0.025712064 -0.08757289 -0.13349682 -0.15106905 0.084384985
0.03482559 0.15122971 0.009801835 -0.051107615 -0.30936584 0.15092371 -0.05700487 0.01990957
-0.032719035 0.0094759315 0.03518839 0.056878053 -0.016514594 -0.095505185 0.04813486 0.0083595915
-0.16046992 0.16683981 0.15570241 0.07006229 0.20489334 0.079921044 0.123630784 0.021429215
0.13013156 -0.1038821 0.06592864 -0.117382586 0.056004126 0.19105166 -0.082406096 -0.028458368
0.06687472 0.060205653 -0.04540447 0.055391215 0.025437059 -0.013011952 0.017236216 -0.080250226
0.040296163 -0.1398912 0.04138304 0.01712447 -0.088819884 -0.10501867 0.07917574 -0.14441815
0.018657358 -0.03715495 0.08706265 -0.03045583 -0.06429186 -0.17996183 -0.08704276 -0.10774162
-0.025441354 -0.19936472 0.1407631 0.1489332 -0.036058735 0.0782871 0.050013788 0.0006413088
-0.0184797 -0.026094818 0.0048897276 -0.048695046 0.15553045 0.11887339 -0.12016892 -0.07845105
0.083586514 0.043398913 0.15599659 0.09762693 0.043866076 0.04011424 0.07324172 -0.097202584
0.08453238 0.13315053 0.080766596 0.07174661 -0.061772447 -0.24307488 0.049341414 0.0071210847
-0.11513466 0.110876925 0.0140990075 0.13647863 0.09628107 0.118766956 -0.13773008 -0.4604684

hidden.0.bias f4 [128]
00000000: 1a57 edbd aa91 96be d51c 7abd 3769 62bd
00000010: a296 96bd ebda 9f3d 4455 ce3c 5ee0 24bd
00000020: e818 a4bd 5c46 7bbd 9a18 963d cee6 cd3d
00000030: d60e 79bd c991 713c 4df3 1ebe 9a20 32bd
00000040: 7c02 5abd b80d f53d b689 bdbd 0a06 c4bd
00000050: 07f4 16be 075a 97bd 0796 133e 8257 6f3c
00000060: 655f 94be d51c 90bd 4b0f b4bc 1daa 2abc
00000070: fa36 7cbd a2f8 83bd 4615 b3bd 59a9 ebbd
00000080: e0ec 253e 21ae 8fbd b9c7 b23d 918d a5bb
00000090: 3fe8 b2bc 29f1 01bc 7ba8 a4bc 305f 1dbd
000000a0: c5f7 b9bd b63c 2f3d b19e 043c 58c5 02be
000000b0: 1b7d 2fbd e0de 813d 2d63 c5bc ca1f df3c
000000c0: 825f 79bd 9744 a23d aba9 f03d fc06 753d
000000d0: 4197 b9bc 6e23 1e3e 5eeb 27bc bd47 143e
000000e0: 707e 6b3d 6006 5fbe 1492 c4bb d59a b3bd
000000f0: 48d1 74bd 543d d33c d20b c5bb 78f9 803d
00000100: 7d3c 2dbc e0ea 38bd 8066 40bc 9582 7b3c
00000110: a3b7 0c3d 6093 a53d 9f6d 363d 9f6c fe3c
00000120: bf66 433d f970 8f3d 8a8d 01be c975 9c3c
00000130: 7e72 6ebd ccbe 3abd c5f7 1dbd 4244 4f3d
00000140: b67a f5ba 58e1 b83d 40ef 17be bc6d 9c3d
00000150: ee60 c33d fcda 0c3e 94df 3a3e 28e1 bb3d
00000160: 4c42 0b3d db30 34bd f680 793c e56d 2cbd
00000170: 470b cbbd 6268 cbbd dec1 bdbd aa53 8fbd
00000180: 9644 aebc 7325 7e3c 861d 62bd 54bf dd3d
00000190: d3f4 37bd 2d71 193d d230 80bc 4f7c 3a3d
000001a0: 93ba a8bd 9152 a33d 5b01 2a3d 2cfc 863d
000001b0: 73b7 cbbd 5d3e 2d3c efd1 9d3d a886 08bd
000001c0: b183 a1bc efe7 8abd f9b9 a23d 1159 463d
000001d0: 68da f8bc cce7 293c 3ebe aabd 338f 29bd
000001e0: dedb 60be cb1e 7abd 4da1 b8bd a9b1 6a3c
000001f0: 8ebe 463d af76 88bd fe8b 383d eaac e4bc
-0.11588879 -0.29408008 -0.061062653 -0.055276122 -0.0735295 0.07805427 0.025187142 -0.040253036
-0.08012563 -0.061346397 0.07328911 0.10053788 -0.060805164 0.014744231 -0.155225 -0.043488123
-0.053225026 0.11965507 -0.09254782 -0.09571464 -0.14741527 -0.07390218 0.144127 0.014608266
-0.2897903 -0.07036749 -0.021979949 -0.010416535 -0.061575867 -0.06443907 -0.08744292 -0.1150691
0.16203642 -0.07015634 0.087295 -0.0050522764 -0.02183926 -0.007931032 -0.020099869 -0.038420856
-0.090804614 0.042782508 0.008094476 -0.12770593 -0.04284392 0.06341338 -0.024095142 0.027236838
-0.0608821 0.07923239 0.117511116 0.059821114 -0.022655131 0.15443203 -0.010248987 0.14480491
0.057493627 -0.21779776 -0.005998859 -0.08769766 -0.0597699 0.02578608 -0.006013372 0.062975824
-0.010573504 -0.04514587 -0.011743188 0.015350957 0.034354817 0.0808475 0.044538137 0.031057654
0.04770541 0.0700397 -0.12651649 0.019099133 -0.058214657 -0.045592114 -0.03856637 0.050602205
-0.0018728587 0.09027356 -0.1483736 0.07638118 0.09539972 0.13755411 0.18249351 0.091738045
0.033998773 -0.043991905 0.015228501 -0.04209699 -0.0991426 -0.09932019 -0.09265493 -0.069983795
-0.021272939 0.015511858 -0.055203937 0.108275086 -0.044911217 0.03746145 -0.01564828 0.045528706
-0.08238711 0.07974733 0.0415052 0.06591067 -0.099470995 0.010573951 0.07706057 -0.033331543
-0.019716116 -0.06782519 0.07945628 0.048424784 -0.030377582 0.010370206 -0.08337067 -0.04139633
-0.21958873 -0.061064523 -0.09015141 0.014324584 0.04852157 -0.06663262 0.045055382 -0.027914483

v.weight f4 [1, 128]
00000000: 26b6 f8bd 3c88 86bf 8d27 843d b21b 16bf
00000010: 299f c9be 642e b63e 41ec 8dbe 1e12 d23e
00000020: f6ed 153e b7db f63d 8f7a ccbe f888 af3e
00000030: 9033 ac3e d747 c1be 2973 3abf fa58 5d3e
00000040: 2fee 37be 8a79 09bf dc00 ed3e 3aec 0b3e
00000050: 1781 1a3f 6e8a 853e 515b ea3e 3093 cfbd
00000060: f4d7 913f 1072 d9bc ef5a 30be 52be 34be
00000070: dd20 b63e 3c00 8dbe 0d96 a1bd d9f4 113d
00000080: 903f cd3e 6fc9 c83d 4ca8 62be 1475 073e
00000090: 4663 53bf 3999 453e d850 d83e 6737 79be
000000a0: 29c6 4bbf a24f a7bd 223f c23e 5099 90be
000000b0: 2fcc c63e b57e 723e e2cb 27be 105d 16bf
000000c0: be75 b43e 5812 2c3f 3b48 b23e 3c52 c5be
000000d0: 9eb5 4dbe a6c8 2e3e b325 9bbe 3033 0c3f
000000e0: 29e1 623e fe46 973d d733 143f 50f7 463e
000000f0: a45e c73e f999 75bf d8df 003f 821b 72be
00000100: 4138 303e 1968 8bbd 0c77 14bf d05a 5bbe
00000110: ec68 90be f53f ddbe 5d02 3fbe f416 e1be
00000120: 1c3e ccbe b66f 8dbe fc10 5e3e e8fd 163e
00000130: a4af a43d 9682 3d3e 79ff a43e 0f63 813e
00000140: 7d84 003f fd23 b0be 3193 c6be 3f83 163e
00000150: f41a 7e3e f19d 02bf a80f d4be 0363 99be
00000160: d9dd c3be 4ee9 94bc 6539 98be 87a8 b23e
00000170: ba97 d23e 59e3 92be 6a26 c43e aa61 003f
00000180: d1d9 303f be72 5e3d 9573 fabe be51 24bd
00000190: a52b fabe 5e8d 67be c452 35bf eed8 f0be
000001a0: 35bd 80be 6e2c ddbe 6dd4 173f 717a 00be
000001b0: f822 723d fe69 513b 3334 98bc eec6 babd
000001c0: e581 7bbe 920d f3bd 87af a53e ca04 38be
000001d0: 6b88 13be f87f b13e d20b 9e3e 0da2 9a3c
000001e0: 3a3a 82bf 19a3 0ebf 011e 043f 6a40 ebbe
000001f0: ce32 eebd 98cc 06be 8712 2bbe f2cd 943e
-0.12144117 -1.0510325 0.06452856 -0.5863601 -0.39379242 0.35582268 -0.2771931 0.41029447
0.14641556 0.12053626 -0.39937255 0.34284186 0.3363309 -0.37750122 -0.7283197 0.21615973
-0.17961954 -0.5370108 0.46289718 0.13664332 0.60353225 0.26082176 0.45772794 -0.10135496
1.1394029 -0.026543647 -0.17222188 -0.17650726 0.35571948 -0.2753924 -0.07889948 0.035633896
0.40087557 0.098040454 -0.22134513 0.13228256 -0.82573354 0.19296731 0.4224918 -0.2433754
-0.79599243 -0.08169486 0.37938792 -0.28241968 0.38827655 0.23681147 -0.16386369 -0.5873575
0.3524608 0.6721549 0.34820732 -0.38539302 -0.20088813 0.17068729 -0.303022 0.54765606
0.22156204 0.073865876 0.578916 0.1943028 0.38939393 -0.9593807 0.5034156 -0.23643306
0.17208959 -0.068069644 -0.5799415 -0.21421361 -0.2820505 -0.43212858 -0.18653245 -0.43962824
-0.39891136 -0.2762429 0.21686167 0.14745295 0.08041313 0.18506846 0.3222616 0.25270888
0.5020216 -0.34402457 -0.38784173 0.14698504 0.2481497 -0.5102225 -0.41418195 -0.29958352
-0.38255194 -0.018177655 -0.2973129 0.348942 0.41131383 -0.28689077 0.38310558 0.50149024
0.6908236 0.054308645 -0.48916307 -0.040117018 -0.48861423 -0.22612521 -0.70829415 -0.47040504
-0.25144354 -0.4319796 0.5930851 -0.12546708 0.05911538 0.0031954045 -0.018579578 -0.09119974
-0.2456127 -0.11867823 0.3236048 -0.17970577 -0.14407508 0.34667945 0.30868393 0.0188761
-1.0174019 -0.5571762 0.5160828 -0.45947582 -0.11630784 -0.13163984 -0.16706286 0.29063374

adv.weight f4 [12, 128]
00000000: bb6d 94be 2544 17be 6ae5 233d 7924 04be
00000010: 5e58 ffbd 118b d6bd 2eaf e4bc 2507 bb3d
00000020: 240f b7bd a9fb 493e ae58 2abe eaf3 803d
00000030: 9427 353d 8c8e a1bc d95f c33d dce9 a13d
00000040: 8bc9 55bd b390 27be 8bc5 3d3d 260e 1bbe
00000050: 5261 be3d b7e9 a2bd 226d 21be 018e 34be
00000060: 4346 6f3e 12d4 21be 5fd0 af3d bf94 b53d
00000070: deff a43d 6dcb 933d 6939 e73d 767a 523e
00000080: 5a21 71bd 13ef d5bd d4d7 72be a1e2 22be
00000090: 0cd3 9abe 95aa 81be 7fb5 833d 0508 ccbd
000000a0: 1618 89bc ed36 9fbd 3680 fd3d 28e8 3c3e
000000b0: b929 4c3e 1b08 9cbd 42cf 403e 257a 363e
000000c0: 6eaa 9ebe c5ac a83e e950 44be 6a2c c9bd
000000d0: 55c1 b83d 9d59 8bbe dbc5 8abe 9aec f3bd
000000e0: aa16 9abe 271b b33e edea ec3c aa99 b73d
000000f0: 45b4 8fbe 0b59 7cbe 3cb4 90bd 39ea cb3d
00000100: efae a5bd 85c6 4c3e 5cd6 88bd d6cd 513e
00000110: 236b 9c3d fc43 0f3f 502c 823e bf22 4d3d
00000120: 71b2 e3be 763d 173c 5223 15bf f78b 953e
00000130: 0c82 213d 1361 6e3e 6daf b7bd e774 ec3b
00000140: 9909 803e 70e6 743e de3d 1b3d dc77 2c3a
00000150: 6228 8a3c 5aa0 12bd cfc5 a0be e7c9 67be
00000160: a005 9f3c 7a8b 57be 7d29 883d aacb d3bd
00000170: fc7b 873e e1a5 193e 9212 98bd 6167 0fbb
00000180: b126 a63e 4761 37bd 7676 af3d 6af0 fc3d
00000190: fc26 4f3e 7f05 7fba 87d5 bebd 6f53 69bd
000001a0: 46b7 bc3d a007 fd3c 1e90 27be 3979 4abc
000001b0: 141d 9f3c 0344 c5bc b187 ae3d 87dd 603e
000001c0: 84da 81be ff0c 893d 6e97 5cbd ee96 57be
000001d0: ce00 403e c73c 063e b448 14bd 0ebb a83d
000001e0: 1845 f53d c8fc 903e 02bb 2e3e 50a2 50bd
000001f0: e351 cd3d 1169 243e 7aea 433e 5b36 f3bd
00000200: 4db3 28bd 8ac0 f8bd 3382 143d 595b 91bd
00000210: 8351 0e3e bfa0 ff3c 9f42 913d 6529 c6bc
00000220: 0a13 c43c 3047 07bc 6c45 893d b497 b1bc
00000230: ae4b 103e da15 153e 61ac 84bd 2fff 423c
00000240: 84e4 db3d 842c 1d3d 1c80 233d 6f41 c23d
00000250: de65 4c3d 0b1c 9f3d dbad 19bd 0581 8dbd
00000260: a84e da3d d5e0 2a3e 4918 1b3d 612a 21be
00000270: 8e96 523e a496 b93c 3a26 6f3e 9f70 893d
00000280: 93f7 373d 5f19 543d ab64 1c3e 77d3 fe3d
00000290: a315 50bd 8bd7 82ba 8195 c23d 555e 4abe
000002a0: 1d5d 903b af47 743c c941 62bc 69e9 003d
000002b0: dd7a 0b3d 0f15 9d3d 1ac0 99bd 6061 d73d
000002c0: 2086 bdbd c44e 6abd b362 bd3a ff95 eebd
000002d0: e3f8 25be b945 533e 351d 8cbd dc9b 743d
000002e0: 1f22 2fbe 3da7 3cbe 9ed9 563e 8c91 c5bd
000002f0: 6fd1 85bd a531 bf3d aaef c0bc 153a 023e
00000300: 0352 e4bc 469e 8f3b 73b3 1cbe 3ff4 69bc
00000310: 4315 cf3d 2a54 ab3d 52aa b3bd 012b 14be
00000320: 1a9d 0dbe 9e23 b5bc 916d b5bd 06ad 303d
00000330: fc01 3b3e aae3 ac3d ede2 edbc 74d2 153e
00000340: f147 c3bc 12b0 ecbd 598a 2dbe 33ba 91be
00000350: bc0a 283e 0f07 78bd c9a4 c4bd a953 7e3d
00000360: bcad 053e 4ad1 203e 0b46 51bd 97af 75bc
00000370: 2f1c b23d a4cc 8fbc 4a2a 58bd 1985 953d
00000380: f2f9 043e 8f0a ddbd d140 90bd 1e9e 053e
00000390: 34ee c2bd 08a7 543d e3ad 2fbd 7b44 2bbd
000003a0: 2fb6 94be 00ef 023d d64c e7bb 2707 2e3e
000003b0: a1f7 90bd 4c2f bcbb ce63 d53b 4000 01be
000003c0: c899 423c ad08 803c 36be 0ebe 98c7 813e
000003d0: 9900 813c 2133 c93d 427d 613c ba07 3c3c
000003e0: d6bb 88bd 9089 79bd 3098 a03d 0528 2abe
000003f0: 84b9 403e 8178 0c3d 7dc5 b0bd fb5b 733b
-0.28989968 -0.14772089 0.04001371 -0.12904538 -0.124680266 -0.104757436 -0.027915563 0.09132222
-0.08938435 0.19724907 -0.16635391 0.06296523 0.044227198 -0.019721292 0.09539766 0.07905933
-0.05219416 -0.16363792 0.04633097 -0.15142116 0.09295906 -0.07954734 -0.15764287 -0.17632295
0.23366646 -0.15803555 0.085846655 0.08866262 0.08056615 0.07216535 0.11290247 0.20554528
-0.058869697 -0.104459904 -0.23715144 -0.15906765 -0.3023914 -0.25325456 0.06431102 -0.09962467
-0.016735118 -0.07774148 0.1237797 0.18447936 0.19937791 -0.076187335 0.18829063 0.17820032
-0.30989403 0.32944313 -0.1917149 -0.098229244 0.0902125 -0.27216807 -0.27104077 -0.119103625
-0.30095416 0.34981653 0.028920615 0.08964856 -0.28067222 -0.24643342 -0.07065627 0.09956784
-0.080900066 0.19997604 -0.06681511 0.20488676 0.07637622 0.5596311 0.25424433 0.050081965
-0.44472077 0.009230962 -0.5825702 0.29208347 0.039430663 0.23279218 -0.08969007 0.0072160843
0.25007322 0.2391603 0.037900798 0.000657914 0.01686496 -0.035797454 -0.31400916 -0.22635613
0.019411862 -0.210493 0.06648538 -0.1034158 0.2646178 0.15004684 -0.07425417 -0.0021881687
0.32451394 -0.044770505 0.085675165 0.12350543 0.20229715 -0.0009728297 -0.09318071 -0.056964334
0.09214644 0.030887425 -0.1636357 -0.012358003 0.019423045 -0.024080282 0.08521975 0.21959506
-0.25362027 0.06691932 -0.053855352 -0.21053669 0.18750307 0.13109122 -0.036202148 0.08238803
0.11976069 0.28317857 0.17063525 -0.050936043 0.10025384 0.16055705 0.19132414 -0.11875602
-0.04118662 -0.12146099 0.03625698 -0.07097501 0.13898282 0.03120458 0.07092785 -0.02418966
0.02393486 -0.0082567185 0.06702694 -0.021678783 0.1409137 0.14559117 -0.06478191 0.011901661
0.10736945 0.03837253 0.039917096 0.09485137 0.049901836 0.07769021 -0.037519317 -0.06909374
0.10659534 0.16687329 0.037864957 -0.15738823 0.20565245 0.022654839 0.23354426 0.06710934
0.04491384 0.05178201 0.15272777 0.124426775 -0.050801884 -0.000998245 0.09501172 -0.19762547
0.004405631 0.014909669 -0.01380963 0.031472597 0.03405272 0.07670032 -0.075073436 0.1051662
-0.09254098 -0.057204023 0.001444897 -0.11649703 -0.16208224 0.20632066 -0.06841508 0.05971895
-0.1710286 -0.18423171 0.20981452 -0.096469015 -0.06534087 0.09335641 -0.02355178 0.12717469
-0.027871137 0.0043828813 -0.1530283 -0.014279424 0.10111477 0.083656624 -0.087727204 -0.1446953
-0.1382946 -0.02211171 -0.08858789 0.043133758 0.18262476 0.08441861 -0.02903887 0.14631063
-0.023838015 -0.1155702 -0.16947307 -0.2846237 0.16410345 -0.060553607 -0.09601743 0.062091503
0.13054556 0.15704837 -0.05109219 -0.014995477 0.08696782 -0.017553635 -0.052774705 0.07300777
0.12985972 -0.107930295 -0.07043613 0.13048598 -0.0951809 0.051917106 -0.04289044 -0.041813355
-0.29045245 0.03196621 -0.00705872 0.16994916 -0.070784815 -0.005742943 0.006512142 -0.12597752
0.011877485 0.015629137 -0.13939747 0.2534759 0.015747355 0.09824205 0.013762774 0.0114764515
-0.06676452 -0.060922205 0.078415275 -0.16616829 0.18820769 0.03429461 -0.08631418 0.0037133682

adv.bias f4 [12]
00000000: 4f11 33bd f065 87bd 7bf1 acbd 69d5 b3bc
00000010: a51a 0fbc 2cbc 293e 4725 bebc 011c 673d
00000020: b93c ed3c ce07 e4bc 1812 bd3c 339c e8bc
-0.04371768 -0.0661124 -0.08444496 -0.021952348 -0.00873438 0.16575688 -0.023211135 0.05642319
0.028959619 -0.027835753 0.023079917 -0.028394794
