DDQN/ddqn10000.pt (torch, 239007 bytes, 14 tensors)

linear.weight f4 [128, 21]
00000000: f836 193d aa9d 353e 6fa6 053e d599 b9bc
00000010: 12bf 083d ea7b 33be 7bff 543e dd8b 6ebe
00000020: 5d7c 79bd 4933 6e3c 0186 403e 58b8 543d
00000030: 6c31 27be e437 c3bc 8357 403e 5be5 523d
00000040: 3c3f 3abd ab23 7abd 37d6 40be 2950 eebd
00000050: 0937 85bd 92c2 eabd 15b3 923d 9de6 2abc
00000060: 7952 1fbe 0592 c23d 5bc3 acbd a494 33be
00000070: 6677 6a3e 6567 3d3e 9b51 213e 3ccc d93d
00000080: ef5c 2abe aa8d f93c cf06 cf3d 0670 04be
00000090: 9a58 ee3d 8b80 86bd 81b1 053e aa6c 91bc
000000a0: e6d1 1ebe f83a dcbd f9a5 3a3e 700c e0bd
000000b0: 32a5 263e e5db 1a3d b4e5 043e ba38 053e
000000c0: f554 b7bc 3709 7fbe b124 c4bd 4182 3fbe
000000d0: 5c24 f33d 4f84 0dbe cb76 debc eae8 44be
000000e0: 7977 cfbd 26b0 12be 4815 42be 993b 75bd
000000f0: 2647 b43d 002c 5ebe 438e b43d 165c 293d
00000100: 25da 1d3d ceae 08be 93a7 403e 479e 7d3d
00000110: 0cfb 433d 3c2c 9c3d fe67 98bd bf41 abbd
00000120: 0d07 dd3d 4b6a 013e a8be 83be 6f65 ba3d
00000130: 8e51 0f3e 4c0f afbd 3aef 5abe d692 aabd
00000140: 693c 95bb a666 5abe 640c a93d 21bc 403e
00000150: fd38 7a3c 5ee0 6ebb ea1c aaba dfd3 c6bd
00000160: f504 943e 82b6 0abe 48f8 95be 56a7 58bc
00000170: 8262 86bd 05d4 ee3b 4d46 a53d f61d 673e
00000180: 40b8 94bc 3292 c23d 6e64 13be e0fe 163e
00000190: 0469 073e 76f9 1bbe 4dea c53d a09b 47bd
000001a0: a38c 11be 74c2 7ebd 59da f53d b36d febc
000001b0: fa3b 44be 5770 6c3d 8173 093e 6405 f43d
000001c0: 71bc b9bc fcb4 3f3e 0bf9 eb3d 3746 8bbd
000001d0: 09f2 c4bd 68da c0bd 5134 36bd 84d3 2f3e
000001e0: 78fc 183e 7222 573e 349b 983d 5682 283e
000001f0: 5594 213e d968 713e c8c5 4f3e 50c9 7bbe
00000200: 3f21 4a3d 229e 84bd 1d9b 843d 11bb 27bd
00000210: 4039 d9bd 0750 593e 233e 37bd af79 3a3e
00000220: 6e7e a6bd c589 8ebc 3ac6 c1bd 6dc5 5abe
00000230: fbc7 63bd f44a d73d 5454 253e d7bf d9bd
00000240: b50e 3cbe f23e 913d 6b4f 71be df55 98bd
00000250: cb30 63bc c3ce 803e d077 513d 3fa3 c53d
00000260: 6b58 2bbc 23d7 b3bc 207f 98bd 0bff 79bd
00000270: ed08 9abd 978d 3dbe 55db 90bd 57f7 303e
00000280: e41b 2e3d dbed 6cbe 5ab2 07bd fdc7 bbbd
00000290: b71e 8b3d 6dd0 033e e508 3c3e e83d 47be
000002a0: d0ad 9f3c f94b d1bd ff0d 89bd 3b4d 003e
000002b0: 5c12 2b3e 0bcc 713d ae4d a73e 0bc4 3c3e
000002c0: 98d8 5cbc c438 1cbe 67df 023e a9b2 f7bd
000002d0: adaa fbbd f4f6 b53d 7d98 c13c 1450 923d
000002e0: 7ed5 72bd c5b8 ec3d 279d 443e 9618 ddbd
000002f0: 1f3a 0ebe 6605 5e3e f407 babd 1fed 793c
00000300: 1aee 03be 061e 99be 0e9d 37be 0337 a93d
00000310: a1c6 5ebd e2dd abbd d1a1 763d d7f7 04be
00000320: 1ead a93d ad8d 303e f2ef 67bd 4084 c13d
00000330: d2f2 363d 7ffd babc 0564 e33d 0b95 35be
00000340: de3c 2f3e f835 3dbe 97ff a0be ab0e 0e3d
00000350: 4fcd ec3b 8210 953c 803c b33a cfca e13b
00000360: 3957 963e 7fa0 c3bc a415 293c bf1c 1cbb
00000370: 4d6a 38be 37d3 3a3e c439 0e3c 9e11 113e
00000380: 0b6f 003a 8a00 393e 0da1 b5bd 269d 893d
00000390: 100c 14be 62a3 483e d035 36be f853 2ebd
000003a0: 6b13 e53d 7a25 68bd 7f26 0c3e ccc8 01be
000003b0: f81f 43bd 62d2 373e f1cd bebd 5ef1 c9bd
000003c0: 44b9 7f3e 83e9 7e3d 2e45 3d3e 5d95 ef3d
000003d0: d280 4c3e 9fb8 403e 0a93 2d3d 2408 25bc
000003e0: 1398 323d 340f 523e 696f a43d abf8 1ebd
000003f0: 0d93 74bd f68d f8bd f560 26be 7991 163d
0.037405938 0.17735925 0.1305177 -0.02265636 0.033385344 -0.17527738 0.20800583 -0.23295541
-0.060909618 0.0145385945 0.18801118 0.051933616 -0.16327447 -0.023830362 0.18783383 0.05148826
-0.04547046 -0.061069172 -0.18831716 -0.11636383 -0.06504638 -0.114628926 0.071630634 -0.010430959
-0.15558805 0.09500507 -0.084356986 -0.1753717 0.2289711 0.18496473 0.15753786 0.10634658
-0.16637014 0.030463059 0.101087205 -0.12933359 0.11637993 -0.065674864 0.13055994 -0.01775201
-0.15509757 -0.10753435 0.18227376 -0.10939872 0.16273955 0.037807364 0.1297825 0.1300992
-0.022379378 -0.24905859 -0.09577311 -0.18702032 0.118721694 -0.13820003 -0.027156254 -0.19229475
-0.101302095 -0.14325008 -0.1895343 -0.05987129 0.08802633 -0.21696472 0.08816197 0.041347586
0.038538117 -0.13347933 0.18813924 0.061918523 0.04784684 0.076256245 -0.0744171 -0.083621494
0.107923605 0.12638204 -0.25731397 0.09101378 0.13995954 -0.085478395 -0.2138032 -0.08328788
-0.0045543206 -0.2132822 0.082543164 0.18821765 0.015272376 -0.0036449651 -0.0012978588 -0.0970838
0.28910032 -0.13546184 -0.29290986 -0.01322349 -0.065617576 0.0072884583 0.080700494 0.22570023
-0.018154263 0.09500541 -0.1439378 0.14745665 0.13223654 -0.1523188 0.0966383 -0.0487324
-0.14213805 -0.062197164 0.12004537 -0.031058168 -0.19163504 0.057724323 0.13422967 0.11915091
-0.022672864 0.18721384 0.115221106 -0.06800502 -0.09616477 -0.09416658 -0.044483487 0.1717053
0.14940059 0.21009234 0.07451478 0.16455969 0.1577924 0.23575152 0.20290291 -0.24588513
0.049348112 -0.06475474 0.06474898 -0.040949885 -0.10606623 0.21221934 -0.044736993 0.18210481
-0.08129583 -0.017399678 -0.09461637 -0.21364374 -0.055610638 0.10512343 0.1614545 -0.10632294
-0.18364985 0.07092084 -0.23565452 -0.074382536 -0.013866614 0.25157747 0.051139653 0.09650277
-0.010458092 -0.021953171 -0.07446122 -0.061034244 -0.07521234 -0.18511043 -0.07073084 0.17281853
0.042507067 -0.2313761 -0.033129074 -0.09169004 0.06792968 0.12872477 0.18362768 -0.19457209
0.01949206 -0.10219569 -0.06692123 0.12529461 0.16706222 0.05903248 0.32676452 0.1843416
-0.013479374 -0.1525603 0.12780534 -0.120946236 -0.12288413 0.08884993 0.023632282 0.0714418
-0.059285633 0.115586795 0.19200574 -0.10795705 -0.13889359 0.21681747 -0.09083548 0.015254288
-0.12883797 -0.2990572 -0.17931005 0.08262446 -0.054388646 -0.0839193 0.060212914 -0.12985168
0.082849726 0.17241545 -0.056625314 0.09449053 0.044665165 -0.022825954 0.111030616 -0.17732637
0.17113063 -0.18477619 -0.31445 0.034681957 0.007226623 0.018196348 0.0013674647 0.0068906317
0.2936342 -0.023880241 0.010320101 -0.0023820845 -0.180093 0.18244635 0.008680765 0.14166877
0.0004899359 0.18066612 -0.088686086 0.06719427 -0.14457726 0.19593576 -0.17793965 -0.042560548
0.11185344 -0.056676365 0.1368656 -0.12674254 -0.04763791 0.17951348 -0.09316624 -0.0986049
0.24973017 0.062234413 0.18483421 0.11698411 0.19971016 0.18820427 0.042376556 -0.010072742
0.04360206 0.20513612 0.08029062 -0.038811367 -0.05971055 -0.12136452 -0.16247924 0.036759827

linear.bias f4 [128]
00000000: 42fb b2bc 4ca9 1ebe a40e 1c3e 1540 fbbd
00000010: 3c4c fdbd 9081 313e 65b9 e63c bcd9 a0bd
00000020: c3ee bc3d 043a 5b3d 8b1e 973d 7482 04be
00000030: 2584 4f3e 25ff 19be 03b4 0a3d 757a 6ebe
00000040: beef 2d3e 4df9 363e 32b7 c83d 4931 0cbd
00000050: a313 0cbe 37ce 12bd efb0 233e c33d 56bd
00000060: 6696 41bd 767f 8f3c ddb7 e53d 3386 e93d
00000070: fb37 473e 7f30 213e a32e 2a3e 6f79 3e3e
00000080: c609 c23c 2ce0 edbd 20f1 843c 448e e43d
00000090: 59c7 aabd d0f9 113d 1359 1a3d 71b9 203e
000000a0: b243 32be 36e0 50be fc6f c5bd a711 593d
000000b0: 29e0 64bd 2f07 26be 11b0 cdbd 9064 41bc
000000c0: 5190 323e cc46 3bbd e160 21bd 046e cbbc
000000d0: 76dd 543e 02f6 95bd 1003 583d 3ca5 cf3d
000000e0: 1099 f43b afa1 c33d ed04 1a3d 1a03 54be
000000f0: aa3c 263e 0812 40bd 988e 303e deac 6bbe
00000100: 6692 cfbd 42dd 2a3c 141a f7bd 5ba2 b73d
00000110: 46c7 f93d 465b 173e 7e7e 213e a6f2 4fbe
00000120: 5246 0d3c 571f c7bd a93d 92bd a624 04be
00000130: 8d33 e33c e496 29be 76aa 80bd daa6 6f3d
00000140: 3b4c 3e3d 18a3 fa3c d215 c93d 025e 23bd
00000150: 6a7f 493c c284 4abe e1ad 39be d4ae 00be
00000160: 3ffd 333e 40a8 663e 43d8 4cbe d717 813d
00000170: 2e0a 94bd cf84 8ebd a01c 623e c9b6 25be
00000180: 8211 073e 191e 0bbd 3033 873d 25e5 39be
00000190: 2656 713e b423 1abe 3541 15bc 3c84 dabd
000001a0: 9425 45be f6f9 403e f192 6d3e f71c 833e
000001b0: 1523 453e 8a90 223e 88df 7cbd d12a dfbd
000001c0: 1059 f23d 5362 cdbd 5163 9d3d 7d8a 88bd
000001d0: d7ae 673e ee0f 923d ef26 df3d 44d5 2d3e
000001e0: 2d95 543e 2638 ecbd 02e6 ff3d b68d 163d
000001f0: 8e80 12be c55d 31be a31a 62bd e442 75bd
-0.021848325 -0.15494269 0.1523996 -0.12268082 -0.12368056 0.1733458 0.028164575 -0.078540295
0.09225228 0.053522125 0.073788725 -0.12940389 0.20265253 -0.15038736 0.03386308 -0.23288901
0.16985986 0.17868538 0.09800567 -0.03422669 -0.13679366 -0.035841193 0.15985464 -0.052304994
-0.04726257 0.017516833 0.1121671 0.114025496 0.19454949 0.15741156 0.16619353 0.1860101
0.023686301 -0.11615023 0.016228259 0.111599475 -0.08338804 0.03563863 0.037682604 0.1569574
-0.17408636 -0.2039803 -0.096405 0.05299535 -0.05587784 -0.16213678 -0.100433476 -0.011803761
0.17437865 -0.045721814 -0.03939903 -0.024832733 0.20787606 -0.07322313 0.052737296 0.10138938
0.0074645355 0.09552323 0.037602354 -0.20704308 0.16234079 -0.046892196 0.17241895 -0.23015162
-0.10135345 0.010428729 -0.12065521 0.08966514 0.121962115 0.14780912 0.15770909 -0.20307407
0.008622723 -0.097227745 -0.07140667 -0.12904605 0.027734542 -0.16561466 -0.06282513 0.05850873
0.046459418 0.030595347 0.09818615 -0.039884575 0.012298444 -0.19777206 -0.18132736 -0.12566692
0.17577074 0.2252512 -0.20004372 0.06303375 -0.07228504 -0.06958925 0.22081232 -0.16183008
0.13190272 -0.03396425 0.0660156 -0.18153818 0.2356802 -0.15052682 -0.009109785 -0.10669753
-0.19252616 0.18845353 0.23200585 0.25608036 0.19251664 0.1587545 -0.061736614 -0.108968385
0.118333936 -0.100285195 0.07684959 -0.066670395 0.2262529 0.071319446 0.10896098 0.16975886
0.20760031 -0.11534147 0.124950424 0.03675624 -0.14306852 -0.17320926 -0.055201184 -0.059878245

noisy1.weight_mu f4 [128, 128]
00000000: a3d3 48bb 46b0 93bd 8e03 213b 5025 063d
00000010: 687e 0bbd 1900 203c 8767 f2ba 1f8e e6bc
00000020: 4f19 a2bc 2ca1 603d 4b7f 7cbd 3036 1d3d
00000030: ab6a 65bd 31f2 84bd c621 f33c a923 08be
00000040: 02e9 8e3d 283f 9c3d 6c9e f8bc 1755 85bd
00000050: e3d5 0b3c 33d6 a33c 8ded 30bd 6d26 a5bd
00000060: 41f9 e43c 2f03 81bc 20d1 c53c 45fd 8bbd
00000070: 5141 97bc dcd5 e5bc e5fe e2bd cc9f cb3c
00000080: 37a4 1dbc f83e 0bbe a5ca ec3b 1dc6 b3bd
00000090: cd54 f7bc 1cdb 643d 7495 75bd 7bb8 82bd
000000a0: 65c8 43bd 50b1 9c3d 2926 da3c fd00 3b3d
000000b0: 73c2 ff3b 41f6 9f3d 198b ddbc 05cb 573d
000000c0: 92a9 753c 4588 1e3d a527 8f3d 3fe4 04bd
000000d0: 199a 7f3d 95fd 933c aea2 843b 5793 55bb
000000e0: 32f4 43bc 2952 eebd 9b55 3bbd 6847 19bd
000000f0: 29ea 593d 9814 2ebb 9e65 5abc 8ec5 92bd
00000100: 8ef8 793c 0ceb 44bd 5799 133d bbdd 5f3d
00000110: 0c6c 3d3d e683 93bc 64d1 bbbc b7e1 1a3d
00000120: 9cea 603d 5f1c 113d 3ef1 8b3c a1ee 343d
00000130: c77e d53c d331 763d 08da 6d3d 86d1 a5bc
00000140: adb5 853d 2cd6 6bbd 1658 7cbd 7146 2abd
00000150: 0f8f cabd 9c9b 0a3d a333 1e3b 58a9 87bc
00000160: a98e 31bc 0179 10bd eb73 5fbc 5f13 8f3c
00000170: 414f 92bd 74e9 74bd 8ee7 c93d b02b 78bd
00000180: feeb f43c cbaa 8b3c 80f5 b43a eea5 87bd
00000190: 0802 61bd 6c81 9cbd 6432 30bd 238f a63c
000001a0: c0ab 55bd 6bd2 33bd a012 bd3b 4b9f 14bd
000001b0: 6144 20bc c2f9 30bc e423 8ebd 7401 713d
000001c0: fd51 9dbd d082 06bd 2207 51bc bde4 e6bc
000001d0: 1c69 c7bc 8576 163d aeb0 c0bd 665b 313c
000001e0: e87d 4b3d 0944 06bd 8963 48bd 30c9 87bd
000001f0: 6b9d 8fbd e613 0abc 6372 f13b 1747 b0bd
00000200: 07f1 533d dae4 aabc b7c9 1ebc ccd4 8bbd
00000210: 344d 583d a45b 81bc 4536 68bc 0c0a 063d
00000220: dce6 8cbd 0a81 743c 34f2 aabd 320b 38bd
00000230: 0cff 103d bc7a c4bc 9db8 9fbd cad2 3a3d
00000240: 87c6 163b 4ff6 2ebd 07d9 54bd 1f41 873c
00000250: 9388 5cbd dcc2 e03c 87ad a2bd 1b33 193d
00000260: 54cb 5fbc 0148 a13d e5f3 01bd b66a c33c
00000270: c315 1b3c 761f 4cbd 4f28 9cbd 2505 93bb
00000280: fc52 7fbd a1f3 84bd 981d 8fbd 03c0 133c
00000290: 5034 82bd d317 c3bc d8d7 52bd 1853 573d
000002a0: 1bf4 2d3c 3edb 4e3c 9ec9 3e3d 7b9f 933a
000002b0: 78a0 033d fc8b c4bc 58c4 12bd a69d 0a3d
000002c0: c8ae 473d 2e16 af3c 6eb8 abbc 6436 0abd
000002d0: fa6a 5cbc 7e18 46bd baab 3bbc 317a 12bb
000002e0: 2bf6 4b3d 1c4f 913d 8622 99bc 7ed5 9abc
000002f0: f36d 4bbc 9b1a eabc 1337 01bb 9931 13bb
00000300: 48c8 8a3d dd2c 03bc 61a5 96b9 bbc4 42bd
00000310: 27c1 36bd 10e2 953d 7c92 0abd 0100 b2bd
00000320: a4f5 dc3c ad3e 53bd e29c 463d 8a95 1dbd
00000330: c9ec 143d a4e7 ab3c 670a aa3d 845a f03c
00000340: 6bad 3d3d 8af0 123d c6ac 893b 7e78 8fbb
00000350: e58f aebd 8c26 1abd a0cb 32bd 0075 c03b
00000360: 1c32 0f3c 29e3 15bc b4c6 953d af1c a53d
00000370: 7a15 59bb 9629 1c3d 2446 efbc c7d8 6ebd
00000380: 15dc 1cbd df9e 9b3d 3493 583d 870f 1fbc
00000390: 37fe 623d feef 57bd 47de 883d 78d7 ea3c
000003a0: fa0a 7abd fdd1 053d 3008 2fbd 0bad 23bd
000003b0: b0db cf3b 1941 afbc 2d38 6fbd 56da 103d
000003c0: 0f22 473d 243a 8abd a480 6ebc 3195 f8bc
000003d0: 27bc f0bc 874d ff3b c42c 543d 297a 5ebd
000003e0: 087d 603d 97b8 a1bd 4552 08bd a90c 0ebc
000003f0: d4a0 943d 42a7 793d 0168 fabc 1a22 09bd
-0.0030643723 -0.07211356 0.002456877 0.032750428 -0.034056097 0.009765648 -0.0018493988 -0.02814394
-0.019787459 0.054841205 -0.061644834 0.038381755 -0.05600993 -0.06491507 0.02967919 -0.13294853
0.069780365 0.076292336 -0.030348979 -0.0651037 0.008534881 0.0199996 -0.043195296 -0.0806397
0.027950885 -0.015748588 0.02414757 -0.06835417 -0.018463762 -0.028056078 -0.110837735 0.02485647
-0.009621671 -0.1359824 0.0072263055 -0.087780215 -0.030191803 0.05587302 -0.059956983 -0.06382843
-0.047798533 0.07651007 0.026629524 0.04565524 0.0078051626 0.07810641 -0.027043866 0.05268385
0.014994042 0.038704176 0.069899835 -0.032444235 0.06240282 0.018065253 0.0040477132 -0.0032589042
-0.011960076 -0.116367646 -0.045735937 -0.037421614 0.05320183 -0.0026562568 -0.0133298915 -0.07166587
0.015257014 -0.04807572 0.03603491 0.054654818 0.04624562 -0.01800723 -0.022926994 0.037812915
0.05491124 0.035427447 0.017082807 0.044172887 0.026061429 0.06010611 0.05806926 -0.02024151
0.065287925 -0.057577297 -0.061607443 -0.041571084 -0.098905675 0.033839807 0.0024139665 -0.016560242
-0.0108372355 -0.03527165 -0.013638477 0.017465292 -0.07144023 -0.05979295 0.09858619 -0.06058854
0.029897686 0.017049214 0.0013806075 -0.066234455 -0.054933578 -0.07641873 -0.043016806 0.020331925
-0.052165747 -0.043901842 0.0057700425 -0.036284726 -0.009781928 -0.010801734 -0.06940439 0.058839276
-0.07681654 -0.032839596 -0.012758048 -0.028185243 -0.024342112 0.036734123 -0.09408699 0.010825014
0.04968062 -0.032779727 -0.04892305 -0.0663017 -0.07012447 -0.008427596 0.0073683723 -0.08607309
0.051743533 -0.020861078 -0.009691647 -0.06827697 0.052808 -0.015790768 -0.014173095 0.032724425
-0.068799704 0.014923343 -0.08346978 -0.04493255 0.03539948 -0.023984306 -0.07798884 0.04561118
0.0023006515 -0.042715367 -0.051964786 0.016510544 -0.053841185 0.027436666 -0.07943254 0.037402254
-0.013659317 0.07875062 -0.031726737 0.023854595 0.009465638 -0.04983469 -0.07624876 -0.0044866973
-0.062335 -0.06491781 -0.069880664 0.009017947 -0.06357634 -0.023815071 -0.051475376 0.05256948
0.010617281 0.012625514 0.046578996 0.0011262739 0.032135457 -0.023992531 -0.03583178 0.03384175
0.04875067 0.02137288 -0.020961966 -0.033743277 -0.01345324 -0.0483632 -0.011454517 -0.0022350664
0.04979531 0.07095167 -0.01869322 -0.01890063 -0.012416351 -0.02857714 -0.0019716665 -0.0022459982
0.06776482 -0.008006302 -0.00028733446 -0.047550898 -0.0446178 0.073185086 -0.033831105 -0.08691407
0.0269726 -0.051573444 0.04848946 -0.03847269 0.03635863 0.020984478 0.08302765 0.029340036
0.046307962 0.035873927 0.0042015044 -0.0043783775 -0.085235395 -0.037634417 -0.043651223 0.0058733225
0.008739974 -0.0091483975 0.0731329 0.080621116 -0.0033124373 0.038125597 -0.02920825 -0.058312204
-0.038295824 0.07598662 0.05287476 -0.009708292 0.05541822 -0.05271911 0.06683021 0.028667197
-0.061045624 0.032670964 -0.042732418 -0.03995995 0.0063433275 -0.021393346 -0.058403183 0.03536447
0.048616465 -0.06749371 -0.0145570375 -0.030344578 -0.029386593 0.0077912244 0.051800504 -0.05431572
0.05480674 -0.07896536 -0.033281583 -0.008670011 0.07257238 0.060950525 -0.030567171 -0.033479787

noisy1.weight_sigma f4 [128, 128]
00000000: 91b5 e63c 87e1 df3c 6fd7 c83c b29a e63c
00000010: b6ed 9a3d 932e be3c f7eb 363d ec1a aa3d
00000020: b588 f53c 7b03 5a3d 639d 013c e86a fe3c
00000030: f9f4 513d abbc df3c 00f6 033d e8f4 fcbb
00000040: 5b1a 023d fb07 003d 431d ef3c 485e 583d
00000050: d727 b13c 6e6c 643c f6cb 3c3c f386 c93c
00000060: 69e2 193d 3277 fe3c 7bd0 be3c 5add 1b3d
00000070: b4e9 153d 82a0 2a3d 8b96 853d 2fe1 0c3d
00000080: a085 8e3d 2283 9e3d f27e 813d 1b71 ce3c
00000090: 09b3 0cbd 94f7 aa39 86fd cb3b 59b0 2c3d
000000a0: c9a7 213d 9752 d33c 057c 263d c181 193d
000000b0: 0683 8c3d cde3 383c 6c28 213d ecf8 2b3d
000000c0: 0c6e 4a3d 6b9e 543d 4e51 873c d3db 4d3d
000000d0: e48b 5a3d ec02 463d b5e3 203d ffb2 1d3d
000000e0: 2308 8b3c b5bd e7bc b316 5d3d 2059 b93c
000000f0: be79 0d3d d626 5c3d 9be8 1bbc 10e4 de3c
00000100: 81d3 3a3c ade5 7d3d 1861 183d d145 293c
00000110: 8452 113d 1b31 da3c 1cdb bd3c 8aaf 233d
00000120: 79ae 7b3c 9ead 5c3d 792c 1f3d 2ac6 473d
00000130: b528 ad3c cb26 d53c 669d fc3b 0762 8c3c
00000140: c387 cf3c 683d 3d3d a39d 343d 6f04 643d
00000150: e31f 943d 8972 1a3d 61fa 1bbd d602 c23d
00000160: 46e1 003d a41a 663c 83a3 073d 2248 a63d
00000170: 91da 383d 745c 50bb 77ef ba3c f630 463d
00000180: ed44 6bb9 1e51 be3c bd5a a7bc c0e1 6d3d
00000190: 3391 563d 695d d23c 192b 75ba b58e 603d
000001a0: 1da7 023d f9d2 2f3d 7efe 193d 2b6f 6bbd
000001b0: 710e ddbc 8a82 2e3d 85b4 bb3c 355e 243d
000001c0: 2cf6 4f3d 7dc2 9f3c 8526 6bbd 7070 103d
000001d0: 386f 5d3d d516 413d df6c 03bc 9f90 583c
000001e0: afd1 493d a43c ba3c 2fa0 0e3d 91d1 193d
000001f0: 69a2 003d 7909 c63c 1a1b 843d ab5d 1c3d
00000200: 5ced 123d 2bb2 133d 46cd 0a3d 8097 113d
00000210: 91d8 fc3c 6b10 0c3d f7fb 0d3d 56c8 0b3d
00000220: 9146 193d aac5 f23c ad31 123d eef4 123d
00000230: 610c 133d 6000 0f3d dd49 0f3d c5cf 1a3d
00000240: ffff 193d 8c64 133d f4ef ff3c dd4f e43c
00000250: 8340 103d e4f4 0c3d 7f0a 053d 98a8 243d
00000260: 6a4f 233d a2d4 093d 6fa2 113d 1681 043d
00000270: 2db1 113d 16c2 113d a8d0 073d 7449 0f3d
00000280: 6171 113d 2b69 013d 15e1 103d 97e4 163d
00000290: 8382 3e3d 4f64 173d 4715 173d 73cd 1e3d
000002a0: f3ab 133d 4922 0d3d 2319 143d 5318 0f3d
000002b0: 56b4 e13c 7859 203d 819e 103d 23fe 023d
000002c0: a566 f83c 7842 0a3d 9e39 113d 49e4 f93c
000002d0: e0cf f93c c62b 043d 55c1 0e3d 25b2 0f3d
000002e0: c937 053d 85af 183d 8745 103d dc37 1d3d
000002f0: 3660 0f3d 6aa3 0c3d 28c1 063d 3513 0f3d
00000300: a715 143d 00ab 0e3d ce95 133d afac 0a3d
00000310: c5b7 113d 2c35 133d 6fdf 183d 3349 003d
00000320: efb9 1b3d a92e 153d 6aed 103d 6b35 0c3d
00000330: a312 133d a8e2 133d ab4a 123d 8cb1 363d
00000340: 50ee 0b3d 8a58 073d 16ee 123d 6de6 0d3d
00000350: bb36 103d db07 0f3d ccc5 1a3d fae1 da3c
00000360: c956 253d 24bf 133d 06b9 133d 8857 f53c
00000370: f6eb fb3c d7f9 3e3d d4e4 143d ac3d 183d
00000380: 9551 183d 5bc1 103d c57e 1c3d a74e 183d
00000390: c113 0c3d d1ca 1e3d a9c9 0f3d ca47 123d
000003a0: 3c4d 113d 13b8 113d cb4d 023d 5b8c 133d
000003b0: 2b44 233d 9a5f 223d 6005 1e3d bc69 0e3d
000003c0: cc2b 1b3d 7352 0a3d 50ac 3f3d c8e6 0f3d
000003d0: 8a77 1f3d e9d4 073d 2dc2 153d 843f 0f3d
000003e0: 1d31 123d 4a01 0d3d 1553 003d 9fed 173d
000003f0: 08c5 123d d24e 183d 253a 0f3d 6a33 0f3d
0.02816275 0.02732922 0.02451679 0.028149936 0.07564871 0.023215568 0.044658627 0.08305916
0.029972414 0.053225975 0.007911059 0.031056836 0.051259015 0.027311644 0.032217026 -0.007719625
0.031763416 0.03125761 0.029188758 0.05282429 0.021625442 0.013941867 0.011523237 0.024600482
0.037569437 0.031062696 0.02329277 0.038052894 0.03659983 0.04165698 0.065228544 0.03439444
0.06959081 0.07739855 0.06323041 0.025200417 -0.03435043 0.00032609387 0.0062252907 0.042160366
0.039466653 0.025796218 0.040645618 0.03747726 0.06860928 0.011284781 0.03934519 0.041985437
0.049421355 0.05190889 0.016518261 0.05025847 0.053356066 0.04834263 0.03927966 0.038500782
0.016971653 -0.028288702 0.053976726 0.022625506 0.03453993 0.053747974 -0.009515907 0.027208358
0.0114029655 0.061986614 0.03720197 0.010331587 0.035479084 0.026634743 0.023175769 0.03996233
0.015361422 0.05387651 0.03886077 0.04877297 0.021137575 0.026019474 0.007709193 0.017136587
0.02533329 0.04620114 0.044095647 0.05566829 0.072326444 0.037706885 -0.038080577 0.09473197
0.031464837 0.014044438 0.03311492 0.08119227 0.045130316 -0.0031793388 0.022819264 0.048386537
-0.00022437023 0.023232039 -0.02042901 0.05807662 0.052384567 0.025679307 -0.00093524304 0.054823596
0.031897653 0.04292581 0.03759622 -0.057479065 -0.026984425 0.04260496 0.022913227 0.040128905
0.050771877 0.019501919 -0.057409782 0.03526348 0.054061145 0.047140915 -0.008021562 0.013218074
0.049272235 0.022733994 0.03482073 0.037553374 0.031404886 0.024174439 0.06450482 0.038175266
0.035870895 0.036058586 0.03388717 0.035544872 0.030864986 0.034195345 0.03466412 0.034126602
0.037420813 0.02963527 0.035691906 0.035878114 0.035900477 0.034912467 0.03498255 0.0377958
0.037597653 0.03598456 0.031242348 0.027870113 0.035217773 0.034413233 0.032480713 0.040199846
0.039870657 0.033650048 0.0355553 0.03234967 0.03556936 0.035585485 0.033157974 0.03498216
0.035508517 0.031594437 0.035370905 0.036839094 0.046511184 0.036960896 0.036885526 0.03877015
0.036052655 0.034456525 0.036156785 0.034935307 0.027551811 0.039147824 0.03530741 0.031980645
0.030322382 0.033754796 0.03545534 0.030504363 0.03049463 0.032268308 0.034852345 0.035082
0.032523904 0.037276763 0.035222556 0.03838335 0.035003863 0.03433553 0.032899052 0.034930427
0.03615346 0.034831047 0.036031537 0.03385609 0.035575647 0.03593938 0.037322458 0.03131981
0.038019117 0.03642145 0.035382666 0.03423063 0.035906445 0.036104828 0.03571574 0.044602916
0.03416282 0.03304342 0.035871588 0.03464358 0.035208445 0.0349196 0.03778629 0.026719082
0.040365968 0.036070958 0.036065124 0.029948965 0.030752163 0.046624985 0.03635104 0.03716819
0.037187178 0.03534065 0.038206834 0.037184384 0.034198526 0.03876764 0.035104427 0.035712995
0.035474047 0.035575937 0.03181247 0.036022525 0.039859932 0.039641954 0.038579345 0.034768805
0.037883565 0.033770036 0.04679519 0.0351322 0.03893236 0.03316203 0.036562134 0.034972683
0.03569137 0.034425057 0.031329233 0.037091848 0.035832435 0.037184544 0.03496756 0.03496114

noisy1.bias_mu f4 [128]
00000000: 9535 7dbf f0f9 7fbf 3e11 823f 1d42 80bf
00000010: f509 8a3f 9bed 803f 2410 80bf 39e9 803f
00000020: 7d6c 85bf 5fd4 7fbf 7e28 823f c979 82bf
00000030: adc0 7d3f 7b71 7d3f d031 96bf 513f 80bf
00000040: 7ceb 7e3f 0000 80bf 5f40 803f bf14 7bbf
00000050: 3ccf 86bf a007 853f a618 80bf 77bf 7e3f
00000060: 8202 80bf 0000 803f 0000 80bf c78f 803f
00000070: 58e4 873f 17b7 7fbf 0000 80bf 59a2 7b3f
00000080: f19f 843f 0000 80bf b9e8 7f3f 6125 883f
00000090: ae28 80bf 17e1 803f 6acf 803f 0c8a 7fbf
000000a0: 8b1b 80bf 0000 80bf 0000 80bf f9b9 7c3f
000000b0: c9eb 80bf bed5 833f f884 813f dc40 813f
000000c0: 4d2e 80bf 690f 80bf 6d81 7abf 64d0 80bf
000000d0: 359d 7ebf 0000 80bf 5bf7 7fbf 5cb9 7b3f
000000e0: 13e6 81bf e203 883f cf66 7ebf 7b45 803f
000000f0: 0000 80bf a487 80bf 8e7f 80bf 0000 80bf
00000100: ff61 803f 5aba 793f 579d 7e3f af01 803f
00000110: 0b37 7c3f 1561 7e3f 0000 80bf 383a 7d3f
00000120: a121 803f ad5e 7c3f 2b0b 81bf 2dd9 7e3f
00000130: 1931 813f 4167 7cbf 92a6 7ebf 2d1a 7dbf
00000140: 0000 80bf cd90 7dbf d7fc 7fbf 3910 823f
00000150: 6efb 7fbf da30 7f3f a314 853f db32 80bf
00000160: de59 6ebf 1d29 7d3f 2ca6 7d3f 6862 80bf
00000170: 1b48 7d3f f318 80bf 3372 833f 336a 803f
00000180: 2130 7fbf 28e2 7fbf 42f1 7fbf 8098 7cbf
00000190: 583b 813f fb34 823f 15da 833f 2bad 813f
000001a0: ff9a 803f 048e 803f 4632 873f 0000 80bf
000001b0: defb 7b3f 95c7 803f 9eb2 7d3f 0000 80bf
000001c0: 0000 80bf 91fc 7dbf 30b6 7fbf 0000 80bf
000001d0: 12c7 81bf 8d23 803f 3eda 7d3f 8267 843f
000001e0: c728 793f 4ca4 7d3f 0f25 7bbf 3922 803f
000001f0: d85d 803f 127f 7ebf ac8b 7fbf 77cb 843f
-0.98909885 -0.9999075 1.0161512 -1.0020176 1.0784289 1.0072511 -1.0004926 1.0071174
-1.0423733 -0.9993343 1.0168607 -1.0193416 0.99122125 0.9900128 -1.1733952 -1.0019323
0.9957807 -1.0 1.0019644 -0.9807853 -1.0531993 1.0392952 -1.0007522 0.995109
-1.0000765 1.0 -1.0 1.0043877 1.061656 -0.9988875 -1.0 0.982946
1.036131 -1.0 0.9996448 1.0636407 -1.0012414 1.0068692 1.0063298 -0.9982002
-1.0008405 -1.0 -1.0 0.9872127 -1.0071956 1.0299604 1.0118704 1.0097919
-1.001413 -1.0004703 -0.9785374 -1.0063596 -0.9945863 -1.0 -0.9998681 0.9832971
-1.0148338 1.0626185 -0.99375623 1.0021204 -1.0 -1.0041394 -1.0038927 -1.0
1.0029906 0.97549975 0.9945883 1.0000514 0.9852149 0.99366885 -1.0 0.9891696
1.0010263 0.98581964 -1.0081533 0.99550134 1.0093108 -0.9859505 -0.99472916 -0.98868066
-1.0 -0.99049073 -0.9999518 1.0161201 -0.99993026 0.99683917 1.0396923 -1.001552
-0.93105876 0.9889086 0.99081683 -1.0030031 0.9893815 -1.0007614 1.0269226 1.003241
-0.99682814 -0.9995446 -0.99977505 -0.98670197 1.0096235 1.0172418 1.0300928 1.0130972
1.0047301 1.004334 1.0562217 -1.0 0.98431194 1.0060908 0.99100673 -1.0
-1.0 -0.9921351 -0.9988737 -1.0 -1.0138876 1.0010849 0.99161136 1.0344088
0.97327846 0.9907882 -0.9810342 1.0010444 1.0028639 -0.99412644 -0.998225 1.0374593

noisy1.bias_sigma f4 [128]
00000000: 1750 14c0 b86c 6abf 3836 a43f ad53 abbe
00000010: 9e64 b53f 294b 853f e508 35bf 2b9c a23f
00000020: 942f 48bf 6e94 92be e140 e33f 6f03 53bf
00000030: bb34 193f 9088 373e fadd 64bf 67af aebf
00000040: c623 d43f 93da 3cbe 65d0 b83e 9d70 96bf
00000050: 19a9 31bf 652a a43f 0322 22bd 16af 923f
00000060: 24f4 11be 6d14 ce3f 4e2c bdbf 32d9 823f
00000070: 09b3 6d3f 6960 23bf 7395 efbe 0bb0 a83e
00000080: 4eb4 863f 2eaf b4bf a0ee 0d40 ad16 313d
00000090: ee65 b1bd d399 da3f 0429 0c3f 7436 a5be
000000a0: 7b01 27bf 536e 7bbf 2ac5 92bf ebdc 7d3f
000000b0: 546d f6be 8fd8 843d c96b 183f 71f4 8d3f
000000c0: 74cc 14bf 0319 febf 648b a3be 8763 49bf
000000d0: 10e0 1bbf effb c9be 8d3d 29bf e1fe ac3f
000000e0: e11f 70bf cbfe fe3e 5f4e 23c0 da16 1f3e
000000f0: ffae 54bf b5aa 25bf 6ccb 93be ad2c 0cbf
00000100: b7d3 0a3f e517 833e 299c 2c3f 6e61 ad3f
00000110: 6358 203f e53a aa3f 7df9 85bf c206 1e3f
00000120: 8433 d53d 31cb 2a3f d1e1 1abf 7e62 e93f
00000130: ea49 323f 4541 83bf 46e1 93bf cdfa 2fbf
00000140: fefd cfbe 0e37 70bd 1e41 febe f878 143f
00000150: c854 92bf 2fb0 4f3f 694d c43f e5d4 9abe
00000160: c1e0 d8bf 9aa7 393f 8fbb e53e 41ab ccbf
00000170: ec6d 863f 8ad0 bebe dea7 2e3f 0217 bb3e
00000180: 76b9 47be d126 3ebe 968d 1cbf bcd6 d6bf
00000190: 6350 7c3e ad40 a93f 2a0f 383d 9ceb eb3e
000001a0: 09c4 413e 10b4 893f e2d6 513d 0926 16be
000001b0: 648f 743e ac70 0f3e dc4c df3c d3ee d2bf
000001c0: 0104 fcbf 9752 0ebf 5e54 cbbf a220 3abf
000001d0: 798a 10be 90d5 d13f ccf3 bf3e 575f 503f
000001e0: 64f5 3240 000a 4f3f 3699 d7bf fa6c ed3d
000001f0: 45d7 c73f 60ea 18bf 45b1 57bd 52a1 923e
-2.3173883 -0.9157214 1.2829046 -0.33462277 1.4171331 1.0413562 -0.70716697 1.2703909
-0.781976 -0.28628868 1.7754174 -0.82427114 0.59846085 0.17923188 -0.8940121 -1.3647279
1.6573417 -0.18442754 0.36096492 -1.1753117 -0.6939865 1.2825438 -0.039583217 1.1459682
-0.14253289 1.6099983 -1.4779146 1.0222533 0.9285131 -0.63818985 -0.46793708 0.3294681
1.0523775 -1.4115961 2.2176895 0.043234516 -0.0866202 1.7078193 0.54750085 -0.32268107
-0.65236634 -0.98215216 -1.146642 0.9916522 -0.48130286 0.06486618 0.5953947 1.1090223
-0.5812447 -1.9851383 -0.31942284 -0.7866749 -0.6088877 -0.39450023 -0.66109544 1.3515283
-0.93798643 0.49803767 -2.5516584 0.15536061 -0.8307952 -0.64713603 -0.28866136 -0.5475567
0.542293 0.25604168 0.6742578 1.3545358 0.6263487 1.3299223 -1.0466763 0.6172906
0.104102165 0.66716295 -0.6050082 1.8233182 0.69644034 -1.0254294 -1.1553123 -0.68742067
-0.40623468 -0.058646254 -0.49659055 0.57997084 -1.1432123 0.8112821 1.5336124 -0.3024055
-1.694359 0.72521365 0.44869658 -1.5989763 1.0502295 -0.37268478 0.68224895 0.3654099
-0.19504341 -0.18569495 -0.61153543 -1.6784282 0.2464004 1.3222862 0.044936337 0.46078193
0.18922438 1.0758076 0.05123032 -0.14662947 0.23882824 0.14007825 0.02725833 -1.6479133
-1.9688722 -0.5559477 -1.5885122 -0.72706044 -0.14115323 1.6393299 0.3749069 0.8139548
2.7962275 0.80874634 -1.6843631 0.11593051 1.561257 -0.5973263 -0.05265929 0.28638703

noisy1.weight_epsilon f4 [128, 128]
00000000: 9acc 95bf 90a1 89bf 010f 2ebf 6612 883f
00000010: 3f7d bcbf e332 283f 9313 a7be fd52 adbf
00000020: 2e12 04c0 9e75 1abf e814 883f ebc1 a03e
00000030: b2bf c23f 1516 a9bf d73e 983e 44d3 4f3f
00000040: 71fc 063f b721 913f 6b49 a4bf b18b 8fbf
00000050: d4a6 8cbf 96c7 703f c747 5c3f 5266 9a3f
00000060: 8b0f 3c3f f23e bebf c3f8 a73f 5f4f 90bf
00000070: 55b8 c7bf bf08 45bf c4bb 29bf fb66 d1be
00000080: 7814 993f 0541 5bbf 89e6 f8bf 7694 843f
00000090: eed2 953f 21c3 72bf 4a69 553f 455c 82bf
000000a0: 2359 7bbf 306c 97bf e69e 1e3f cbcc 0a3f
000000b0: 8adc f8bf 203f a2bf 0a6d 87be 9937 4dbf
000000c0: 538d fdbf 2f03 623f 4641 9f3f c518 f1bf
000000d0: 4160 6cbf 4710 6c3f 4eec 64bf 2333 59be
000000e0: 90f2 843f c4a8 dc3f eacd 5d3f 120a 653f
000000f0: 7fd7 1dbf 43b4 d4bf 4e61 b4bf 9de9 ae3f
00000100: a0c8 89bf 7daf 953f 8540 473f 7233 8e3f
00000110: 834c ab3f 8278 8e3e 3540 883f d277 95bf
00000120: 5ddc 2e3f ebcc a43f 8dce a83f 426b 0a40
00000130: 68ed d43e 4801 003f 698a 0040 d1a0 9f3f
00000140: 5737 e7bf 0f69 33bf f08a 56bf 1228 9f3f
00000150: e2c7 a6bf 8e19 51bf e9c7 ff3f d263 8dbf
00000160: b2f6 9c3f 488a 89bf 775c 86bf 88d9 5fbf
00000170: 9ca8 b3bf 33b1 e93f debe 91bf 9f10 523f
00000180: 9261 983f ecbd 5f3f e0d3 9f3f c805 b33f
00000190: c8f8 933f 634f c83e 0f3b c13f 67ff 893f
000001a0: 96b9 963e 8b83 3cbf c37e 9fbf 84a7 04c0
000001b0: f5a5 cd3f ab66 7e3f 9b0d 743f 1e31 8dbf
000001c0: 5286 d4bf 198d cd3f 3cf5 c33f 3e0b 303f
000001d0: bbbb f9bf 7f6b 203f 4876 853f 9d0f 7b3f
000001e0: 2d90 97bf 3da1 40bf 9ac8 89bf fcd9 cf3f
000001f0: 7aec 343f 1ca8 f13f d238 bf3f ac4b ba3f
00000200: 1e21 743f 814c 603f 23d5 0d3f fbc1 5dbf
00000210: 6997 993f c20e 09bf a424 883e ef3b 8d3f
00000220: ce3c d73f 62b9 fb3e 11c6 5dbf 7cfe 82be
00000230: 2db1 9ebf e4c7 893f b51d 78be f558 29bf
00000240: fefc dbbe cc85 6cbf b5de 853f 18f0 693f
00000250: b438 653f 5733 44bf 227f 33bf 75a0 7bbf
00000260: 043e 19bf d905 9b3f 65df 88bf ff2e 6b3f
00000270: 30be a23f e88d 203f e64e 0a3f eea1 aa3e
00000280: dc79 79bf 06a9 323f 62d1 ca3f 2011 58bf
00000290: 6f2b 74bf e9d0 453f 38e6 2dbf 2273 543f
000002a0: f8cf 4c3f 66c6 763f be40 01bf 2b34 e2be
000002b0: 3cc9 ca3f 1d35 843f 7fb4 5c3e e838 273f
000002c0: b49b ce3f dc2a 38bf 0ec5 81bf 7e75 c43f
000002d0: ba9c 403f 8f5b 40bf 068a 3a3f 82fc 303e
000002e0: 7caa 58bf 2bce b3bf 0abd 34bf 47a2 3abf
000002f0: 429e 003f b552 ad3f d1fb 923f 4687 8ebf
00000300: 2a8c 603f abf1 73bf 8f5c 22bf 14bf 67bf
00000310: 7395 8bbf a12f 68be a30c 5ebf f296 733f
00000320: 797c 0ebf dc49 86bf 9b8d 89bf 3695 e1bf
00000330: 4681 adbe 709c d0be eb7b d1bf e812 82bf
00000340: 5f68 bc3f 8931 123f 3ed2 2e3f 85b0 81bf
00000350: f7e6 873f d662 2a3f a56c d0bf b46c 663f
00000360: 28ce 7fbf 9126 603f 47f8 5a3f b667 363f
00000370: 5165 923f e06c bebf e985 6d3f 292c 2bbf
00000380: 4d56 78bf 3751 36bf 843c 82bf a3e0 91bf
00000390: b426 71bf 4739 a3be 7e74 9dbf 6fe5 60bf
000003a0: 55a3 75be 8a9c 193f 29f7 813f 2d30 d83f
000003b0: d592 a7bf ce4c 4fbf 34de 46bf 121a 663f
000003c0: 462d ad3f 947e a7bf 67ad 9fbf 4773 0fbf
000003d0: 1b7f cb3f 11b8 02bf 2681 59bf 0f94 4cbf
000003e0: 0d01 773f 26f7 1c3f 208c 603f 6f5e a9bf
000003f0: 396d 13bf 4bea c4bf 76d1 9bbf cfcd 97bf
-1.1703064 -1.075243 -0.67991644 1.0630615 -1.4725722 0.65702647 -0.3263212 -1.3540951
-2.0636096 -0.6033572 1.063138 0.31397948 1.5214751 -1.3209864 0.29735443 0.8118174
0.52728945 1.1338414 -1.2834905 -1.1214505 -1.0988412 0.94054544 0.86047024 1.2062476
0.73461217 -1.4862959 1.3122791 -1.1274222 -1.5603129 -0.7696647 -0.6630213 -0.4089888
1.1959372 -0.85646087 -1.9445354 1.0357807 1.1704996 -0.94828993 0.83363783 -1.0184408
-0.98182887 -1.1829891 0.6196121 0.5421874 -1.9442303 -1.2675514 -0.26450378 -0.8016296
-1.9808754 0.8828611 1.2441795 -1.8835684 -0.9233437 0.9221234 -0.8942307 -0.21210913
1.0386524 1.7239003 0.86642325 0.8946849 -0.61656946 -1.6617512 -1.4092195 1.3665043
-1.0764351 1.169418 0.77832824 1.110945 1.3382725 0.27826315 1.0644594 -1.1677191
0.68305 1.2875036 1.3188034 2.1627965 0.41587377 0.50001955 2.008448 1.2470952
-1.8063763 -0.7008218 -0.8380575 1.2434103 -1.3029749 -0.8167962 1.9982883 -1.1046088
1.2262785 -1.0745325 -1.0496968 -0.874413 -1.403583 1.8257202 -1.1386373 0.8205661
1.1904776 0.8739917 1.2486534 1.3986139 1.1560297 0.39123067 1.5096148 1.0781068
0.29438466 -0.7363822 -1.246056 -2.0727243 1.6066271 0.9937541 0.9533326 -1.1030614
-1.6603491 1.6058685 1.5309215 0.68767154 -1.9510416 0.62664026 1.0426722 0.980707
-1.1840874 -0.7524603 -1.0764344 1.6238399 0.70673335 1.8879428 1.4939215 1.4554343
0.9536303 0.87616736 0.55403346 -0.86624116 1.1999332 -0.53538144 0.26590455 1.1033915
1.6815431 0.49164873 -0.8663035 -0.2558478 -1.239782 1.0764127 -0.24230082 -0.6615136
-0.42966455 -0.9239166 1.045859 0.9138198 0.8953965 -0.7664084 -0.70115864 -0.98291713
-0.59860253 1.211116 -1.0693175 0.91868585 1.2714291 0.6271653 0.5402664 0.33326668
-0.9745157 0.6978916 1.5845149 -0.8440113 -0.95378774 0.77271897 -0.6792941 0.8298818
0.80004835 0.9639648 -0.50489414 -0.44180426 1.5842662 1.0328709 0.21553229 0.6532121
1.6141267 -0.719404 -1.0138261 1.5348356 0.75239146 -0.7513971 0.7286686 0.17283824
-0.8463514 -1.4047292 -0.7060095 -0.72903866 0.5024148 1.3540865 1.1483098 -1.1135032
0.87713873 -0.9529063 -0.63422483 -0.9052594 -1.0904983 -0.22674419 -0.8673803 0.951522
-0.5565868 -1.049129 -1.074634 -1.762366 -0.3388769 -0.40744352 -1.6365942 -1.016202
1.4719352 0.57106835 0.68289554 -1.0131994 1.061736 0.6655706 -1.6283156 0.9000962
-0.99923944 0.8755885 0.8553509 0.71252 1.1437169 -1.4876976 0.92782456 -0.6686426
-0.97006685 -0.71217674 -1.0174718 -1.1396679 -0.9419968 -0.31879637 -1.2301176 -0.8785009
-0.23988087 0.60004485 1.0153552 1.6889702 -1.3091685 -0.8097657 -0.77682805 0.8988353
1.3529441 -1.3085504 -1.2474793 -0.56035274 1.5898165 -0.51062113 -0.8496269 -0.7991342
0.9648598 0.6131462 0.87713814 -1.3231944 -0.57588536 -1.5384 -1.2173297 -1.1859683

noisy1.bias_epsilon f4 [128]
00000000: 42b3 babf 5eba 61bf d813 683f c77e 7e3f
00000010: ef85 153f e4d9 823f 8d81 5a3f f25e 97be
00000020: ecc8 66bf d317 d03e f8a0 36bf cf35 38bf
00000030: 234a 6cbf c1d3 a13e 274f 1abf ed01 84bf
00000040: c932 0a3f a162 103f 3f65 0b3f 516d 92bf
00000050: e175 88bf 7a66 633f fede 67bf 1305 96be
00000060: eca6 94be 81a4 66bf 9a4f 433f 0e11 903f
00000070: e4a7 4a3f 68df 59bf 4ddb 3c3f 5921 91bf
00000080: 3f29 9dbf 65fe 963f 2884 5fbf fc3f 8f3d
00000090: 117d 85bf 7c0d 78bf 4175 7ebf 8d89 4abf
000000a0: 78db c63e f4a1 263f add5 593e 9d3e a6bd
000000b0: 227c 883f 5ee6 2ebf ee04 9fbf 1209 0f3f
000000c0: 164f 803f 8050 843f 9b7d bdbf 3be3 38bf
000000d0: f2c2 16bf c3b8 ef3e bfb7 bc3e 716f 1e3f
000000e0: 475e 78bf 90b2 663f ff8b 98bf c451 a43f
000000f0: db37 af3f 49c0 a7bf fc5c 35bf 957f ba3f
00000100: ef47 5b3f 2236 51bf a658 c13e d0a0 9ebf
00000110: 07fb 253f 9e57 2c3f f573 af3f e518 8b3f
00000120: af42 823f 23fb 75bf 9a66 9c3f d030 b33f
00000130: 5c45 813f c776 7cbf be82 06bf 5c8e 85be
00000140: cc55 2d3f a29e 11bf aa3a 4dbf aa82 9abf
00000150: 7a23 e63e d103 943f 37dd aebe 2754 9abf
00000160: 22af a0bf 073f 393f d6cd 42bf 9e33 01bf
00000170: 8230 813f d310 a13f 66a3 4dbf e845 80bf
00000180: 2876 a13f 8d7d 5b3f 9cd1 073f 902b 01bf
00000190: 4f85 01bf 1308 1d3f 83be 1bbf ca90 9c3e
000001a0: ac44 493f 0b22 083f b032 c4be d198 93bf
000001b0: 3522 263f 800e 84bf 240e 48be 0fc1 943f
000001c0: 0b90 1e3f d634 3ebf 164c 8a3e e65e b33f
000001d0: b55b 783f 3ba6 17bf 9275 c4be 5c7f a7bf
000001e0: 7a9f 013f 0dfe 30bf 05bd 90bf a766 843f
000001f0: 202d 073f 755f 96bf 959a 9e3f 9afb 06bf
-1.4585955 -0.88175 0.9065528 0.99412197 0.5840749 1.0222745 0.8535393 -0.29564625
-0.9015033 0.40643176 -0.7133937 -0.71957105 -0.92300624 0.31606868 -0.60277027 -1.0313088
0.5398374 0.56400496 0.54451364 -1.1439611 -1.0660974 0.8882824 -0.90574634 -0.29300746
-0.290336 -0.90094763 0.7629334 1.1255205 0.7916243 -0.85106516 0.73772126 -1.1338302
-1.2278212 1.1796385 -0.8731103 0.06994626 -1.0428792 -0.96895576 -0.99397665 -0.79116136
0.38839316 0.6509087 0.21272917 -0.08117411 1.0662882 -0.6832026 -1.242338 0.55873215
1.0024135 1.0337067 -1.4803957 -0.72221726 -0.5889121 0.4682065 0.36858937 0.61888796
-0.97018856 0.90116215 -1.1917723 1.2837453 1.3688921 -1.3105556 -0.7084501 1.4570185
0.85656637 -0.81723225 0.37762946 -1.2392826 0.6483616 0.67321193 1.3707262 1.0866972
1.01766 -0.9608633 1.2218812 1.3999271 1.0099292 -0.9861874 -0.52543247 -0.26085174
0.6770904 -0.5688268 -0.8016764 -1.2071126 0.4494894 1.1563665 -0.3415315 -1.2056931
-1.2553446 0.723618 -0.7609533 -0.50469387 1.0092928 1.2583259 -0.8032745 -1.0021334
1.2614183 0.8573845 0.53054214 -0.50457096 -0.5059404 0.61340445 -0.6083757 0.30579215
0.7862041 0.53176945 -0.38319921 -1.1531011 0.64895946 -1.0316925 -0.19536644 1.1621417
0.6193854 -0.7429937 0.27011174 1.4013336 0.97014934 -0.5923802 -0.3837095 -1.3085742
0.50633967 -0.6913765 -1.1307684 1.0343827 0.5280323 -1.1747881 1.2390925 -0.52727664

noisy2.weight_mu f4 [16, 128]
00000000: 1024 133e 182f abbd 53ec 473e 5eb6 0cbd
00000010: 9100 243e eb77 d33d 1e46 b2bc a91f 8d3d
00000020: 00c6 603c 1c35 b2bd 9f38 8c3d 2061 0a3e
00000030: d153 bc3d 1b30 b33d 1729 8ebc df7e 473c
00000040: f027 84bd 0e91 3d3d 1343 e2ba 7b93 173d
00000050: caea c7bd 0571 c83d ef27 923c 767e ae3d
00000060: 8efa bb3c ec8f 923c ded3 4b3d 67e6 223d
00000070: 9b52 013e 8997 12bd 8626 3ebd a173 0ebd
00000080: b2dc 4a3e 224d 0abd c293 e03b 98c5 6ebd
00000090: 7727 e33b b2e4 84bd 8605 27be de7d 763d
000000a0: a50f 893d 486a b1bc 8edc dfbc e8f8 ad3b
000000b0: 83fe 693d 11cb ac3d d4cc a63d 99f1 e13c
000000c0: 32db 6bbd 05db 3a3d 4c24 5dbc 024d 25bd
000000d0: e411 a83d abc9 87bd 8aa0 21bd 1ec6 0bbc
000000e0: ad08 c13c a591 2e3e 4ea8 9a3d 491a d23c
000000f0: 425c 6c3d 4bd1 b23d 3eaf 273d a03a e4bb
00000100: 5d73 c8bc e8c8 debc c00a fb3d 7def 4abd
00000110: ef24 403e fc8c ac3d de14 9bbd 7554 dc3c
00000120: effc 513d 2e6b 6a3c 072e 723d 69aa c83c
00000130: dc0c 1abd 318b 363d 38eb 62bd 71c4 02bb
00000140: 62eb 58bd a73d 113d 5cc2 b33c 2819 d33d
00000150: c845 1ebd 7b69 d9bc 6a87 afbc a3bf 353c
00000160: 9b4b 0d3e 1141 b1bd 2723 f3bb a6f9 8f3d
00000170: 4b38 d03c fe3f 463d 1050 44bc 3237 00bd
00000180: 0979 90bc 0ddd adbb 0a7e 753d 7f52 fdbc
00000190: 8ada 023e 082c 4a3d 73fc 073e 548f 0fbc
000001a0: 6638 853d 3236 d5bc b821 cebc e050 77bb
000001b0: c9e2 183d 2835 b8bc 314f 693d f8df 59bc
000001c0: 220b 2c3d 4c67 2a3d 2120 02bd 5a2d 12bd
000001d0: 598e d1bd e75e 4fbd 013a 2bbe 9966 b8bb
000001e0: 39a2 edbd 878e 793d 7bb0 b8bc eeed 183b
000001f0: 0b24 d43d 12d2 75bd 3e5c 5f3d 48db 103b
00000200: f325 b13d 1922 5abd efae 4bbd a17c 4abd
00000210: b19c 923d 9963 ffbc 005b 35bd 9232 2ebd
00000220: 7a9e 083d 31d8 4cbd 872a 4d3d d81b 9dbd
00000230: c381 66bd b835 763d 1d2f 69bd 142d 6ebd
00000240: 672a 29bc b124 26bd fea0 8e3c 3ae4 223d
00000250: d9a0 82bd b91e 243d 2242 dfbb c119 8ebd
00000260: 8b44 b0bd 6847 a8bd 3009 cbbc 7546 023b
00000270: 7507 833d 5bc6 883d 8cc8 bb3c dcf7 35bd
00000280: a799 e23c 4a07 613d b88c fd3c 569b 4a3d
00000290: 23be 96bd f3d9 973a 807c 77bd 364b 22bd
000002a0: b704 45bd 820e eebc 9ff7 abbd 0842 2cbc
000002b0: e8eb 353d 5b2e da3d 03b9 973d b6b8 66bb
000002c0: dc12 623d 7784 ba3d 6176 22bd 9029 5d3d
000002d0: f364 ebbc 1fc3 8f3d f8b9 92bc 84f8 3bbc
000002e0: 7133 843d 68bb 1d3c 7f48 eebb fb26 983b
000002f0: df57 86bd af29 68bd be69 65bc c525 36bd
00000300: 187b f3bc 785a 05bd c1f6 283d fd42 903b
00000310: 1505 5d3d 1fec 123d 1265 e8bc 4a7a 8bbc
00000320: bf92 8a3d 9f4d 47ba 1768 a03d 14bc c93c
00000330: 98b0 a1bb a6f4 82bd f275 ea3b 7b2b 203d
00000340: 0065 73bc c987 a5bd 640c a8bd 5a9e a5bc
00000350: 6726 a33d 6654 25bd f5ae ca3d 9cd5 1c3d
00000360: 11f0 d13d c8d3 e7bd 5929 033d bd2d afbd
00000370: 6446 7a3c 1e82 2a3c f9d9 413c b4f6 f5bc
00000380: 07d6 323d bb14 8e3d 59b2 87ba 16bc 71bd
00000390: 4f3b 713c 3d97 d13d bbee 963d 5c96 49bc
000003a0: 816e 1c3d 4ffb 413d a5db ce3d 2c03 f53c
000003b0: fdd9 303c 5e8f 753d 1ca2 19bd 778d 33bd
000003c0: ff9c 993d 9eff 40bd a4a5 9d3d 0944 99bd
000003d0: 83d0 3fbc 1b3f 8d3d 534c 4abd 094a 72bd
000003e0: d02b 0cbe eaff cfbc ea14 ba3d c93c 9dbd
000003f0: c718 d0bb e463 e8bc c83f 3c3d eea2 ddbb
0.14369226 -0.08358592 0.19523744 -0.034353606 0.16015841 0.10325607 -0.02176195 0.06890804
0.013719082 -0.08701536 0.06846737 0.13513613 0.09195674 0.0874941 -0.017353578 0.0121762445
-0.0645293 0.046280913 -0.0017262421 0.037005883 -0.09761579 0.09787182 0.017841307 0.08520214
0.022946622 0.017890893 0.0497626 0.03977051 0.12629168 -0.035789046 -0.046423458 -0.03477824
0.19810751 -0.033764966 0.0068535516 -0.05829391 0.006932195 -0.06488933 -0.16310701 0.06017863
0.06692437 -0.021657124 -0.027326848 0.005309213 0.057127487 0.08437169 0.081445366 0.027581023
-0.057582088 0.04561903 -0.013497423 -0.040356643 0.08206537 -0.06630262 -0.039459743 -0.008531122
0.023563707 0.17047746 0.07551633 0.0256473 0.05770517 0.08731326 0.04093861 -0.0069649965
-0.024469072 -0.027195409 0.1225791 -0.0495448 0.18764089 0.08425328 -0.075723395 0.026895741
0.051266607 0.01430778 0.059125926 0.02449532 -0.03760992 0.044566337 -0.055400103 -0.0019953514
-0.052958854 0.035459187 0.021943264 0.103075325 -0.038640767 -0.026539555 -0.021426875 0.011093053
0.13798372 -0.086549886 -0.007419962 0.070300385 0.025417468 0.04840087 -0.011981979 -0.03130264
-0.017635839 -0.0053058923 0.059934653 -0.030923126 0.12778679 0.049358398 0.13279895 -0.008762199
0.06504898 -0.026026819 -0.025162563 -0.0037737414 0.037325654 -0.022486284 0.05696029 -0.013298027
0.042002805 0.041602418 -0.03176892 -0.035687782 -0.10232229 -0.050627615 -0.16721345 -0.005627465
-0.11603207 0.06092694 -0.02254509 0.0023335177 0.10358437 -0.06001479 0.05453133 0.0022103358
0.08649816 -0.053255174 -0.049727377 -0.04943526 0.07158793 -0.031175422 -0.044276237 -0.042528696
0.03335426 -0.050010864 0.050089385 -0.076713264 -0.056276094 0.060109824 -0.056929696 -0.05814846
-0.010325051 -0.040562335 0.017410751 0.039768435 -0.063783355 0.040068362 -0.0068133036 -0.06938506
-0.086068235 -0.08216745 -0.024784654 0.0019878421 0.06397907 0.06678458 0.022922777 -0.04442583
0.027661158 0.054938592 0.030950889 0.049464546 -0.073604845 0.001158534 -0.060421467 -0.039622508
-0.0481002 -0.029059652 -0.08396839 -0.01051379 0.04441443 0.10653373 0.07408335 -0.003520531
0.055193767 0.09107297 -0.039663676 0.053994715 -0.02873466 0.07019638 -0.017910942 -0.011472825
0.06455124 0.009627201 -0.007271826 0.0046433187 -0.06559729 -0.056680378 -0.014002262 -0.044469614
-0.029721782 -0.03255698 0.041250948 0.004402517 0.053959925 0.035869714 -0.028368507 -0.017026085
0.06766271 -0.0007602814 0.078323536 0.024625815 -0.0049343817 -0.06394319 0.0071551735 0.039103966
-0.014855623 -0.080825396 -0.08205488 -0.02021711 0.07966309 -0.04036369 0.09896652 0.03828965
0.10250867 -0.11319691 0.032021854 -0.08553646 0.0152755715 0.010406999 0.011831754 -0.030024864
0.043661144 0.06937548 -0.0010352834 -0.059017263 0.014723613 0.102339245 0.07369753 -0.012303915
0.038191322 0.047358807 0.101004876 0.029908739 0.01079416 0.05995118 -0.037508115 -0.043836083
0.07500648 -0.047118776 0.07697609 -0.0748368 -0.011707428 0.06896802 -0.049389195 -0.059152637
-0.13688588 -0.025390584 0.0908602 -0.076776095 -0.00635061 -0.028367944 0.045959264 -0.0067638075

noisy2.weight_sigma f4 [16, 128]
00000000: 5afa b83d 91ee cc3d 37de 9f3d e32e cd3d
00000010: 6e0c f43d 2458 d53d cc6a cc3d f7c8 c93d
00000020: eb1b d23d f3d5 cc3d 1743 cd3d 8a3b ae3d
00000030: cbfa c83d dd7f b43d caa0 cd3d 2416 c83d
00000040: 1a53 d43d cdcc cc3d f17a cf3d 0aa5 d53d
00000050: 811f ce3d 3926 083e cf82 cc3d 154f ac3d
00000060: 9937 cc3d cdcc cc3d cdcc cc3d 4147 ce3d
00000070: 564a d83d b61f cc3d cdcc cc3d 92a1 e23d
00000080: e62e fd3d cdcc cc3d 36d2 cc3d d974 d83d
00000090: e1cc cc3d c859 cf3d 0361 e43d 82c1 c93d
000000a0: 65c9 cc3d cdcc cc3d cdcc cc3d b429 e33d
000000b0: a361 ce3d 5f0b c53d 6b92 ce3d 2929 da3d
000000c0: caa5 cc3d 8c4a ca3d 93bc ca3d 2521 ca3d
000000d0: 89a4 ca3d cdcc cc3d cdcc cc3d 0933 b83d
000000e0: c3f1 cb3d 7f28 8d3d 36f8 ce3d 6333 c93d
000000f0: cdcc cc3d 3b97 c73d 4e05 d23d cdcc cc3d
00000100: e5f0 c43d 9e99 cc3d 5d57 843d d0cc cc3d
00000110: a6e0 ad3d 4768 ca3d cdcc cc3d 6fd3 c33d
00000120: f0f1 d03d 2457 c83d 3593 cd3d c5b7 c03d
00000130: 58e4 d63d b417 ca3d 1864 ce3d 0cc6 cd3d
00000140: cdcc cc3d 46c7 ca3d cdcc cc3d d1d1 c63d
00000150: cdcc cc3d 8c9a cd3d 014d ba3d b94a d03d
00000160: cdb3 d93d 39bb d93d c6f2 cd3d 3174 cf3d
00000170: 944d c13d f5bc cb3d 1ae4 da3d 406c c43d
00000180: e7a9 cc3d db8c ce3d 7fb5 cc3d 43cf d13d
00000190: 281f c33d 6145 e63d 0ff7 b03d 2a91 e03d
000001a0: 4035 de3d a1ae cf3d 7c99 d03d cdcc cc3d
000001b0: 22a6 c93d 560a c93d cc0a d33d cdcc cc3d
000001c0: cdcc cc3d af8d c83d 3e87 cc3d cdcc cc3d
000001d0: 2698 d73d 11f1 cb3d 4e6c cf3d e580 da3d
000001e0: 2749 f83d 6614 cd3d 275a ca3d 8df5 c63d
000001f0: 1602 d43d b545 ce3d 920e d13d ad20 d53d
00000200: 11d4 f63d 56d2 c83d ef23 173e 2a2b c93d
00000210: 8e3f 63bc cbca 983d 9e3c d03d 696d 9a3d
00000220: dfc8 923d 78ba cc3d cb54 c73d f475 993d
00000230: a2fe 043e f77f 383d c63e 5f3d 9357 6d3d
00000240: a145 a03d cdcc cc3d b43f cf3d d321 de3d
00000250: 3c68 b33d 86d5 71bd 80c3 d23d 4f85 d83d
00000260: 5963 c93d cdcc cc3d cdcc cc3d 70a9 ba3d
00000270: 30ed 813d 9346 cf3d cdcc cc3d 010a 803d
00000280: 2b9a b03d cdcc cc3d ac16 cc3d 62c1 703d
00000290: ecca cc3d 66f1 8c3d 58fe db3d ed39 ae3d
000002a0: 46ce cc3d cdcc cc3d cdcc cc3d 3b24 5f3d
000002b0: ed24 d63d 62e9 f93d b988 c03d 8e4d 483d
000002c0: bdb3 d03d 74d8 2fba 5256 c03d 73c7 c93d
000002d0: 85b8 b73d cdcc cc3d c9cc cc3d b6c5 a33d
000002e0: 122a c93d 49f5 483e dda8 ee3d 9605 ba3d
000002f0: cdcc cc3d f9a8 bf3d 7412 a13c cdcc cc3d
00000300: fa4c be3d bfac c43d 670e d83d b2bd cc3d
00000310: e3b3 0f3e 416b 5f3d cdcc cc3d 4032 ec3d
00000320: 0e25 c33d fe08 ce3d 1900 bd3d 94f7 c03d
00000330: 2215 593d 737a ce3d 06e7 b83d e465 da3d
00000340: cdcc cc3d 5b5b ca3d cdcc cc3d ca9f ca3d
00000350: cdcc cc3d 1514 b73d 87e1 063e 1471 843d
00000360: 57d9 813d edb4 6d3d 2f59 d83d 8b01 c93d
00000370: 2ab8 c73d bdef da3d 9a3b ac3d d565 c63d
00000380: 8bc0 cd3d 3465 c73d 79b9 cc3d 695f 0d3e
00000390: 757b e93d cc66 663d 4eed 053e 3011 db3d
000003a0: 9719 dc3d d6b1 e23d 00d9 a43d cdcc cc3d
000003b0: 393b bc3d 1f06 c13d 710a c93d cdcc cc3d
000003c0: cdcc cc3d 4193 1c3e ade6 cd3d cdcc cc3d
000003d0: 6b78 ad3d b20d b63d c8fd cb3d 7368 5e3d
000003e0: 1c4c 723c 6e92 fb3d 6b61 a83d 04a4 0c3e
000003f0: 9e6f bd3d d75c 943d 3fc0 ac3d 10d8 823d
0.09032126 0.100064404 0.07806056 0.100187086 0.11916433 0.10417202 0.099813074 0.09852784
0.10259231 0.10001745 0.10022562 0.0850745 0.0981346 0.088134505 0.10040434 0.09769848
0.10367413 0.1 0.10130871 0.10431869 0.10064603 0.13295831 0.09985887 0.08413521
0.09971542 0.1 0.1 0.10072184 0.105610535 0.09966986 0.1 0.11065973
0.12362461 0.1 0.10001032 0.10569162 0.10000015 0.10124546 0.11151316 0.09851362
0.099993505 0.1 0.1 0.110919386 0.100772165 0.096213095 0.10086521 0.10652382
0.09992559 0.098775 0.09899249 0.09869603 0.09894664 0.1 0.1 0.08994109
0.09958222 0.0689249 0.10105936 0.09824254 0.1 0.09745642 0.10254918 0.1
0.096162595 0.09990238 0.06461976 0.100000024 0.08490114 0.098831706 0.1 0.09561812
0.10202396 0.09782246 0.10037843 0.09410051 0.10492772 0.09867802 0.10077685 0.1004754
0.1 0.0990129 0.1 0.09707988 0.1 0.10039243 0.090967186 0.10170502
0.106299974 0.10631413 0.10056071 0.101295836 0.09438625 0.0994815 0.10688038 0.095909595
0.09993344 0.1008546 0.09995555 0.1024461 0.09527427 0.11243702 0.08640873 0.10965188
0.108500004 0.1014073 0.10185525 0.1 0.098461404 0.098164245 0.10304794 0.1
0.1 0.09792649 0.09986733 0.1 0.10527067 0.09958089 0.10128079 0.10669116
0.12123328 0.10013656 0.098804764 0.09714804 0.1035196 0.10071889 0.10207857 0.10406623
0.12052167 0.098057434 0.14759801 0.09822686 -0.013870133 0.07460555 0.10167812 0.075403996
0.07167219 0.099965036 0.0973297 0.07493201 0.1298776 0.04504391 0.054503225 0.057944845
0.07825781 0.1 0.10119572 0.10846295 0.087601155 -0.059041522 0.10291195 0.105723016
0.09833402 0.1 0.1 0.09114349 0.06344068 0.10120883 0.1 0.06251908
0.08623155 0.1 0.09965262 0.058778174 0.09999642 0.068819806 0.107418716 0.08507142
0.10000281 0.1 0.1 0.05447791 0.10456262 0.12202717 0.09401078 0.048902087
0.10190532 -0.0006707974 0.09391464 0.09852495 0.08970741 0.1 0.09999997 0.07996695
0.098224774 0.19624819 0.11653302 0.09083097 0.1 0.09358401 0.01966212 0.1
0.09292026 0.09603261 0.10549622 0.09997119 0.14033465 0.054545645 0.1 0.11533022
0.09528552 0.10060309 0.09228534 0.09422222 0.05299867 0.10081949 0.09028439 0.10663965
0.1 0.09880706 0.1 0.098937586 0.1 0.08939377 0.1317197 0.064668804
0.063402824 0.058033872 0.105638854 0.098147474 0.097519234 0.10690258 0.084098056 0.09687392
0.1004649 0.097361 0.099963136 0.13805927 0.11400501 0.05625038 0.13078806 0.10696638
0.107470684 0.11069076 0.08049202 0.1 0.09190983 0.09424996 0.09816445 0.1
0.1 0.15290548 0.100537635 0.1 0.084702335 0.08889331 0.09960514 0.05429883
0.014788654 0.122837886 0.08221706 0.13734442 0.09249805 0.0724427 0.084351055 0.06388867

noisy2.bias_mu f4 [16]
00000000: 150a 343c deef 4bbb 4a4f a0bb 7e67 233c
00000010: cb2e 6bbc 910a 863c 9a13 87ba 6ca2 223c
00000020: afc6 84ba 15d3 18bb 649b a43c aa9d 663c
00000030: 7793 a63c ed74 033d a16f 2bbb ffff 943c
0.010988732 -0.0031118314 -0.0048922645 0.009973405 -0.014354418 0.01636246 -0.0010305524 0.00992642
-0.0010130013 -0.0023319174 0.020093627 0.014075676 0.020333989 0.03209393 -0.0026159065 0.018188475

noisy2.bias_sigma f4 [16]
00000000: bd2d 3dbf 4c42 a0bf e5f9 9abf 0707 b13e
00000010: c0a8 803f 6027 19bf 2904 89bf b81d 55bf
00000020: ea8e 91bf 9483 8abf eb70 413f 9286 93bf
00000030: 034e 62bf 3edc 41bf ecf1 4fbf be06 6bbe
-0.73897916 -1.2520232 -1.2107512 0.34575674 1.0051498 -0.59825706 -1.0704395 -0.8324847
-1.1371739 -1.0821404 0.75562924 -1.1525443 -0.88400286 -0.7572669 -0.8122852 -0.2295179
