DDPG/savedModels/actor.pth.tar (torch, 677777 bytes, 18 tensors)

conv.0.weight f4 [32, 3, 5, 5]
0	0x3d32a97c	0.043618664
1	0xbdcba00c	-0.09942636
2	0xbd5300c9	-0.05151442
3	0x3ddb92da	0.10721369
4	0xbd9d049a	-0.07666893
5	0xbd862d61	-0.06551624
6	0xbd811f54	-0.063048035
7	0x3cdffe6b	0.027342996
8	0x3dd5ea5e	0.104450926
9	0xbc310943	-0.010805431
10	0x3b93d5b1	0.004511558
11	0xbd5dfcdd	-0.054196227
12	0x3cd9900c	0.026557945
13	0x3d26eb6c	0.04075186
14	0xbdd0e371	-0.10199631
15	0x3d719a95	0.05898531
16	0xbdbd3595	-0.092387356
17	0xbde0fce1	-0.10985733
18	0xbdd2e157	-0.102968864
19	0x3ce4b84b	0.027919909
20	0xbdd56798	-0.104201496
21	0x3c88e9ad	0.016712988
22	0x3d894e38	0.06704372
23	0xbd6b15c9	-0.057393823
24	0x3dc35ad3	0.09538808
25	0x3aa1fff3	0.0012359604
26	0x3dda5c97	0.10662191
27	0xbc738297	-0.014862678
28	0xbdaaf9fc	-0.08348462
29	0x3dbf4c4c	0.09340724
30	0x3daa4cc3	0.083154224
31	0xbd77479c	-0.060371026
32	0xbcd066ad	-0.025439585
33	0xbd996a3d	-0.074909665
34	0x3c0eb467	0.008710003
35	0x3c4b87d3	0.01242252
36	0xbde7fa9d	-0.113270976
37	0x3d4140e1	0.047181014
38	0x3cdf0857	0.027225656
39	0xbdc33141	-0.09530879
40	0x3ccdfaec	0.025144063
41	0x3daec4af	0.08533608
42	0x3d1279fc	0.035760865
43	0x3b75611e	0.003744192
44	0x3d194824	0.037422314
45	0xbd1bc69d	-0.03803121
46	0xbda5f33c	-0.08103034
47	0xbcbe8004	-0.023254402
48	0xbd7bbe7e	-0.061460964
49	0x3a58e411	0.00082737306
50	0xbd664502	-0.056218155
51	0x3dc42a47	0.09578376
52	0x3cd4faf7	0.025998576
53	0xbdd7f817	-0.10545366
54	0xbc75633f	-0.014977275
55	0x3d264d6b	0.040601175
56	0xbd27a8b4	-0.040932372
57	0x3db733af	0.08945405
58	0x3c400446	0.011719769
59	0xbdcd5aa8	-0.10027057
60	0x3dee065b	0.11622306
61	0xbdb6d1a4	-0.089267045
62	0xbc394e11	-0.011310116
63	0x3d197bb1	0.037471477
64	0x3bff1e17	0.0077855694
65	0xbdaa13ed	-0.08304582
66	0xbd001f11	-0.031279627
67	0x3c030dc0	0.007998884
68	0xbd3b2db5	-0.045697886
69	0xbdb3176b	-0.08744701
70	0xbdd6b3e7	-0.104835324
71	0x3dad3982	0.08458234
72	0x3ce18228	0.027527884
73	0x3df014d2	0.11722721
74	0x3c557168	0.013027526
75	0x3d1bc0b1	0.03802556
76	0xbdad423f	-0.08459901
77	0xbdf6bcce	-0.120477304
78	0xbdeca2f8	-0.11554521
79	0xbdbc8936	-0.092058584
80	0x3da3e407	0.08002477
81	0xbd2d3d88	-0.04229501
82	0xbe06d239	-0.13166131
83	0xbc2fdd9a	-0.010733986
84	0xbcaed799	-0.02134304
85	0x3d2fe121	0.04293931
86	0x3d7f4a10	0.06232649
87	0xbbcc3a6e	-0.0062325513
88	0x3da38de6	0.07986049
89	0x3d8d14f1	0.0688876
90	0xbd2adf9c	-0.041717157
91	0xbd3855ea	-0.04500381
92	0x3da23d34	0.0792183
93	0x3d3df284	0.04637386
94	0xbd961b86	-0.073294684
95	0x3d165f6f	0.036712106
96	0x3d5eca3d	0.05439209
97	0x3dc55c36	0.096367285
98	0x3ccdbd1b	0.025114587
99	0x3dc78a46	0.097431704
100	0xbd6a83bd	-0.05725454
101	0xbd434b35	-0.047679145
102	0xbd0b4ac3	-0.034006845
103	0x3da0eb6d	0.07857404
104	0xbd9bd358	-0.0760867
105	0x3dbd1aa9	0.09233601
106	0xbc742f6c	-0.014903884
107	0x3d93c602	0.07215501
108	0xbd4ac7bf	-0.0495069
109	0x3b975c3c	0.0046191495
110	0x3c1a92c4	0.009434406
111	0xbce5c1bd	-0.028046483
112	0x3d720fca	0.05909709
113	0x3d985d5c	0.07439682
114	0xbd655d5b	-0.055997234
115	0x3d77e299	0.060518835
116	0xbd80e16b	-0.06292995
117	0x3deef42a	0.11667664
118	0x3d442783	0.047889244
119	0x3b265bf7	0.0025384405
120	0xbdcd1bf3	-0.100150965
121	0x3d07a6bb	0.03311799
122	0xbda5b5f7	-0.08091348
123	0xbddd2536	-0.10798113
124	0xbcaac162	-0.020844165
125	0xbda561ae	-0.080752715
126	0x3de9de07	0.114193015
127	0x3de05227	0.10953169
128	0xbd6bc848	-0.05756405
129	0xbdbc2b32	-0.09187926
130	0xbdab3cae	-0.08361183
131	0xbd73eef2	-0.059554048
132	0xbb8a50ad	-0.004221043
133	0x3d2e5686	0.042562984
134	0x3cd2dc2e	0.025739755
135	0x3d80750e	0.062723264
136	0x3dc97988	0.09837633
137	0xbdbb8e98	-0.09158057
138	0x3dd6ba90	0.10484803
139	0xbcb98997	-0.022648616
140	0x3db881ff	0.0900917
141	0xbbce3902	-0.006293417
142	0x3c0b9550	0.008519486
143	0xbcb38391	-0.021913322
144	0xbcf6e179	-0.03013681
145	0xbd03a165	-0.03213634
146	0x3c4ea382	0.0126122255
147	0xbd1fe19c	-0.039033517
148	0xbd9644be	-0.0733733
149	0xbcdca8ca	-0.026935954
150	0xbc8d6d00	-0.01726389
151	0x3c2a0460	0.01037702
152	0xbdc36a23	-0.09541728
153	0x3d8f34a2	0.06992461
154	0x3d3b1a7b	0.04567955
155	0x3d511024	0.051040784
156	0x3d184ead	0.037184406
157	0x3da235a8	0.0792039
158	0xbde907e4	-0.11378458
159	0x3c5e3cda	0.013564313
160	0xbcd6b94b	-0.026211401
161	0xbd93755d	-0.0720012
162	0xbd7fab0f	-0.062418994
163	0xbc82768a	-0.015925664
164	0xbd82afe1	-0.063812025
165	0x3cc304ad	0.02380594
166	0xbe026e4c	-0.12737387
167	0x3d84e34d	0.06488667
168	0xbde6879e	-0.11256336
169	0x3c39f8c4	0.011350814
170	0x3d6e65b2	0.058202453
171	0xbd74cde7	-0.059766676
172	0xbda2278e	-0.07917701
173	0x3ceda0cb	0.029007336
174	0xbde0adfe	-0.109706864
175	0xbdd0bb92	-0.10192026
176	0x3bc0bdd3	0.005882004
177	0xbdc88d5e	-0.09792589
178	0xbc43ed30	-0.011958405
179	0x3d031eab	0.03201167
180	0xbdcb6132	-0.09930648
181	0x3b961a35	0.004580761
182	0xbd3dc5be	-0.04633116
183	0x3de55d32	0.11199416
184	0xbd996f6a	-0.07491954
185	0xbd932d3c	-0.07186362
186	0xbdc48a11	-0.095966466
187	0x3db46359	0.088080116
188	0x3d46774f	0.048453625
189	0xbd9cb225	-0.07651166
190	0x3d0d4797	0.0344921
191	0xbdb9025d	-0.09033654
192	0x3d9aa4ec	0.075509876
193	0xbd9ba536	-0.07599871
194	0x3d7e9fe9	0.06216422
195	0xbd7fc3ed	-0.06244271
196	0x3d0a23dc	0.033725604
197	0xbd5565f5	-0.052099187
198	0xbd4e67dd	-0.05039202
199	0x3d9742af	0.07385766
200	0x3d7749b4	0.060373023
201	0xbc1d648e	-0.009606494
202	0xbc5d2568	-0.013497688
203	0xbd6e9f94	-0.058257654
204	0x3c02a817	0.007974646
205	0xbceefcb4	-0.029173233
206	0x3dcdac54	0.100426346
207	0xbc5df0d3	-0.0135461865
208	0xbdbd40e2	-0.09240891
209	0xbc5dd017	-0.013538382
210	0xbd98f707	-0.07468992
211	0xbd3c6a02	-0.045999534
212	0x3c86e9cb	0.016468903
213	0xbda03b60	-0.07823825
214	0x3dda276b	0.1065205
215	0xbca38aea	-0.0199637
216	0xbcbfa4bf	-0.023393987
217	0xbd260c9d	-0.040539373
218	0x3ccae16b	0.02476569
219	0x3d6ae0ca	0.05734328
220	0xbdbf5be8	-0.093437016
221	0x3d3297c1	0.043601755
222	0x3da28692	0.079358235
223	0x3dde6002	0.10858156
224	0xbcfe505a	-0.031044174
225	0xbc298a41	-0.010347904
226	0xbd4e3869	-0.050346766
227	0x3dc80d8a	0.09768207
228	0x3df20234	0.118168265
229	0xbd87a87b	-0.06623932
230	0xbd9f4a4b	-0.07777842
231	0xbdac899c	-0.084246844
232	0xbcd24ff5	-0.025672892
233	0x3ddc9fdd	0.10772679
234	0x3dc80374	0.09766284
235	0xbd1d5a48	-0.038416177
236	0xbdd1036a	-0.10205729
237	0xbc8c441a	-0.017122317
238	0xbd322c62	-0.043499358
239	0x3d86ee64	0.06588438
240	0x3d6bec8e	0.057598643
241	0xbdda734b	-0.10666522
242	0xbd67e34d	-0.056613255
243	0x3daedaa8	0.08537799
244	0xbdd74311	-0.10510839
245	0x3c8ce5ed	0.01719948
246	0x3d8bbade	0.068227515
247	0xbdbcb94f	-0.09215032
248	0x3b1e0263	0.002411031
249	0xbdc3806e	-0.095459804
250	0xbdbb1f8b	-0.09136876
251	0x3daa63a7	0.083197884
252	0x3dcfbb18	0.10143107
253	0xbdd48d84	-0.103785545
254	0xbda5fb20	-0.08104539
255	0x3d20ea06	0.039285682

conv.0.bias f4 [32]
0	0x3bc33050	0.005956687
1	0xbcfd9343	-0.030954009
2	0x3d3fc25e	0.046816222
3	0x3cd8ae1b	0.026450207
4	0x3da11794	0.07865825
5	0xbda96b6d	-0.08272443
6	0xbd0d6b18	-0.03452596
7	0xbccca6d0	-0.024981886
8	0xbdc4998b	-0.095995985
9	0x3d881426	0.06644468
10	0xbcd5d492	-0.026102338
11	0xbc20f690	-0.00982441
12	0x3d98bcd9	0.07457895
13	0x3dba1fbc	0.09088084
14	0x3d23f767	0.040030863
15	0x3ca8ee3b	0.02062141
16	0xbd16d6e9	-0.036826048
17	0x3d5b5add	0.05355345
18	0xbd84f73a	-0.06492467
19	0xbcbf810a	-0.02337696
20	0xbd7b9361	-0.06141985
21	0xbb9397b2	-0.0045041675
22	0xbdb3196b	-0.087450825
23	0xbc8b1516	-0.016977828
24	0xbc85431e	-0.016267356
25	0x3c9d1aa9	0.019177752
26	0xbe12f777	-0.14352213
27	0xbdc00455	-0.09375826
28	0x3c613347	0.013745136
29	0xbdcba045	-0.09942678
30	0x3df682b3	0.12036648
31	0xbc148395	-0.009064575

conv.2.weight f4 [32, 32, 4, 4]
0	0xbd0d3da7	-0.034482624
1	0x3d16e160	0.036836028
2	0xbc877785	-0.016536484
3	0xbcf572e9	-0.02996202
4	0xbd1b4a41	-0.03791261
5	0xbc8b9569	-0.017039018
6	0xba784158	-0.0009470186
7	0xbc3a41ab	-0.0113681955
8	0xbd19c635	-0.03754254
9	0xbbd61ebd	-0.006534426
10	0xbb0eb5ff	-0.0021775959
11	0x3aaca287	0.0013170996
12	0xbd14f07f	-0.036362167
13	0xbcb9d255	-0.022683302
14	0x3b497245	0.0030738276
15	0x3b1e7ec2	0.002418444
16	0xbd1ff443	-0.039051306
17	0xbd5386bb	-0.05164216
18	0x3c978473	0.018495774
19	0x3d579156	0.052628838
20	0xbd0ada05	-0.033899326
21	0xbcb037d0	-0.021510988
22	0xbccb22ae	-0.02479681
23	0x3bf261f9	0.007396933
24	0xbc5a3578	-0.013318412
25	0xbd672b58	-0.05643782
26	0x3cb9a11f	0.022659836
27	0x3a69249e	0.0008893701
28	0xbbe2d221	-0.006922022
29	0x3bc982ec	0.0061496403
30	0x3df407eb	0.11915573
31	0x3dc2223a	0.094791844
32	0xbd219ed0	-0.039458096
33	0xbcc7a6b4	-0.024371482
34	0xbd3db4ce	-0.046315007
35	0x3de1f0ea	0.11032279
36	0x3b97546f	0.0046182196
37	0x3ce373ec	0.027765237
38	0x3d88100b	0.06643685
39	0x3d4d3c2e	0.05010622
40	0xbd1c69ef	-0.038186964
41	0x3d875c2a	0.06609376
42	0x3c9fdc49	0.01951422
43	0x3d812c68	0.06307298
44	0xbcd609f5	-0.026127795
45	0xbcec4347	-0.028840674
46	0x3b69201b	0.0035572115
47	0xbc58f9b2	-0.013243126
48	0x3c685e43	0.01418263
49	0xbcb4ac7e	-0.022054907
50	0x3d137296	0.03599795
51	0xbc9491fa	-0.018136013
52	0x3d156f07	0.036482837
53	0x3cfe6104	0.03105212
54	0x3d0a6c03	0.033794414
55	0x3d241a3f	0.040064093
56	0xbd0b9447	-0.034076955
57	0x3c81530b	0.015786668
58	0x3d5a99db	0.053369384
59	0xbc90820a	-0.017640132
60	0xbd212810	-0.039344847
61	0x3cfc39fd	0.03078937
62	0xbac8fbae	-0.0015333795
63	0xbc313520	-0.010815889
64	0x3d420b7f	0.047374245
65	0xbd841f2e	-0.064512596
66	0x3dd2f347	0.10300308
67	0x3d3acc44	0.04560496
68	0xbca5c995	-0.020237723
69	0xbb036c65	-0.0020053622
70	0x3e0f190e	0.13974401
71	0x3bc22ab9	0.005925503
72	0xbd929656	-0.071575806
73	0x3e0d5915	0.13803513
74	0x3e0553ce	0.1302025
75	0x3c707b54	0.014677841
76	0xbd87cf37	-0.0663132
77	0x3cf85364	0.030313201
78	0xbbaef2d9	-0.0053390083
79	0xbb72a590	-0.0037024952
80	0x3d100673	0.0351624
81	0x3cce6f92	0.025199685
82	0x3cf72475	0.030168751
83	0x3cb39cb0	0.0219253
84	0x3c99778f	0.018733768
85	0xbd1ab037	-0.037765708
86	0xbce560c7	-0.028000249
87	0xbd26a640	-0.040685892
88	0xbd29a302	-0.041415222
89	0x3ca01f61	0.019546213
90	0xbc6d7f29	-0.014495649
91	0x3cf4f1c4	0.02990044
92	0xbcc596d1	-0.024119766
93	0x3a1c0ed3	0.0005953137
94	0x3d2200ec	0.03955166
95	0x3d1f84fc	0.038945183
96	0xbd825cbd	-0.06365345
97	0xbd01dd54	-0.031705216
98	0xbcc7fd35	-0.02441273
99	0x3d5aa997	0.05338439
100	0xbcc97e16	-0.024596255
101	0xbc22dc75	-0.009940256
102	0x3d08399c	0.033258066
103	0x3d62d33a	0.055377223
104	0x3c447285	0.011990194
105	0xbd4cafdc	-0.0499724
106	0x3c8e400c	0.017364524
107	0xbc503ddb	-0.01271006
108	0xbc57a03e	-0.013160763
109	0x3c2a0fb9	0.010379725
110	0xbd04a7d6	-0.032386623
111	0x3d5864ca	0.052830495
112	0x3d4afb06	0.0495558
113	0xbc8dccee	-0.017309632
114	0xbdd16b3f	-0.10225534
115	0xbd0ddf74	-0.03463693
116	0x3c955804	0.018230446
117	0x3cc48629	0.023989754
118	0x3d99d1cb	0.07510718
119	0x3d5d9377	0.05409571
120	0x3c060ad6	0.008181294
121	0x3b08efdb	0.0020894918
122	0x3ca34961	0.01993245
123	0xbcb3832e	-0.021913137
124	0xbcffe973	-0.031239247
125	0xbd69f0f6	-0.057114564
126	0xbb529f0a	-0.0032138252
127	0x3b158d59	0.0022819845
128	0x3cb9ebd5	0.022695461
129	0x3c11ca55	0.008898337
130	0x3d0569dd	0.032571662
131	0xbcbd1b91	-0.023084434
132	0x3cfdd511	0.030985387
133	0x3cb18cf7	0.021673663
134	0x3d30a569	0.043126497
135	0x3ceec074	0.029144503
136	0xba236cae	-0.0006234151
137	0x3c8290df	0.01593822
138	0x3b7aa6ab	0.0038246315
139	0xbd0a83d7	-0.03381714
140	0xbcbdd085	-0.023170719
141	0x3d16363f	0.036672827
142	0xbcc1415b	-0.023590734
143	0xbc3f1556	-0.011662802
144	0xbd03cea9	-0.03217951
145	0xbd679b21	-0.056544427
146	0xbc084f77	-0.008319727
147	0x3db40f7f	0.08792018
148	0xbd82f038	-0.06393474
149	0xbd2e6d29	-0.042584572
150	0x3d8036d9	0.06260461
151	0x3d637999	0.055535886
152	0x3ae3eecb	0.0017389891
153	0x3d10b86c	0.03533213
154	0x3d06af35	0.032881934
155	0x3d425705	0.04744627
156	0xbc78f0f7	-0.015194169
157	0x3d2a3251	0.04155189
158	0xbb94eed0	-0.00454507
159	0x3c24440b	0.010025988
160	0x3d043fbc	0.032287344
161	0xbccbc5eb	-0.024874648
162	0x3c21aadf	0.009867399
163	0x3bbbe0df	0.005733594
164	0x3ba97b52	0.0051721716
165	0xbd0d324e	-0.034471802
166	0xbceecf31	-0.029151531
167	0x3bfc9687	0.007708374
168	0xbc8be4e7	-0.017076923
169	0xbcce6ed7	-0.025199337
170	0x3ca9fa0c	0.020749114
171	0xbc88578d	-0.01664331
172	0xbb9ace82	-0.0047243247
173	0x3bae2572	0.0053145224
174	0xbc105f96	-0.008811852
175	0xbc05b134	-0.008159924
176	0xbc122688	-0.008920319
177	0xbca5213c	-0.020157449
178	0x3cde1ab8	0.02711235
179	0xbcad5245	-0.021157393
180	0x3ba4b9aa	0.0050270157
181	0x3d3070aa	0.043076195
182	0xbc22572c	-0.009908479
183	0x3ae9d0e0	0.0017838739
184	0xbbb394e7	-0.005480397
185	0x3cb1af9c	0.021690182
186	0xbb4bd486	-0.0031102016
187	0x3cfc78f7	0.0308194
188	0x3c4b50db	0.012409414
189	0xbaf615b7	-0.0018774782
190	0x3c71cb39	0.014757925
191	0x3d5e071f	0.05420601
192	0xbc619951	-0.013769464
193	0xbd1a2f4f	-0.037642773
194	0x3b6d2904	0.0036187777
195	0x3d5a134f	0.05324107
196	0xbd747a16	-0.059686743
197	0x3d65d7fc	0.056114182
198	0x3cadba90	0.021207124
199	0xbd4f3ec9	-0.050596986
200	0xbd770c30	-0.060314357
201	0x3d28d5f2	0.04121966
202	0x3d82fe1b	0.06396123
203	0xbd5b4bd2	-0.053539105
204	0x3c2ade89	0.010429033
205	0x3dcb7803	0.09935
206	0xbc719ffd	-0.014747617
207	0x3dc56f36	0.096403524
208	0xbcac3982	-0.021023516
209	0x3c8e000e	0.01733401
210	0x3bbdc511	0.0057913144
211	0x3bac10b8	0.0052510165
212	0xbd416e6c	-0.047224447
213	0x3b46e4b9	0.0030348732
214	0xbc9ec4de	-0.019380983
215	0xbce19fb0	-0.027541965
216	0xbcef77b2	-0.02923188
217	0x3dcd5db3	0.10027637
218	0x3c846530	0.016161531
219	0xbc79b4c7	-0.015240855
220	0xbca10922	-0.019657675
221	0x3b869349	0.004106913
222	0xbd19eb5f	-0.037577983
223	0xbc2660f5	-0.010154952
224	0xbc225cdd	-0.009909836
225	0x3c27e291	0.010246889
226	0xbd2d8dfa	-0.042371728
227	0xbbe2b578	-0.0069186054
228	0x3b376e61	0.0027989375
229	0xbc945d63	-0.018110937
230	0x3b8d15d3	0.00430558
231	0x3bac0ecd	0.005250788
232	0x3a92e616	0.0011207487
233	0x3caa3fda	0.0207824
234	0xbd17aaf6	-0.037028275
235	0xbcd508ee	-0.026005235
236	0x3d136bb7	0.035991397
237	0xbbab8b6c	-0.0052351262
238	0xbd42d671	-0.04756779
239	0x3c7a120b	0.015263091
240	0xbd08c0d7	-0.03338703
241	0xbc18dd6a	-0.009330133
242	0xbc272f17	-0.010204098
243	0xbcd7a199	-0.026322173
244	0x3d1fd5c1	0.03902221
245	0x3cd460bd	0.025925035
246	0xbce6c908	-0.028172031
247	0xbd067abf	-0.032831904
248	0x3d0409f5	0.03223606
249	0x3b6355d4	0.0034688609
250	0x3ce1d473	0.027567124
251	0x3d01d756	0.0316995
252	0xbc80a253	-0.015702402
253	0xbcd5a9db	-0.02608197
254	0xbd07ab81	-0.033122543
255	0x3d56ed06	0.052472137

conv.2.bias f4 [32]
0	0xbc7cfde5	-0.015441393
1	0x3c876454	0.016527332
2	0x3d01684c	0.031593606
3	0x3cdc8820	0.026920378
4	0xbbe2a4f1	-0.006916635
5	0x3c878256	0.016541641
6	0x3cb757fd	0.022380823
7	0x3d0e8656	0.03479608
8	0x3c8bb9b2	0.01705632
9	0x3cd99afd	0.026563162
10	0xbb71f531	-0.0036919827
11	0x3cc9108d	0.024544025
12	0x3d8c0aed	0.068380214
13	0x3bd82466	0.006596136
14	0x3d1af79e	0.037833802
15	0x3d201499	0.039082143
16	0xbca5721a	-0.02019601
17	0x3cb3b2d3	0.021935856
18	0x3cce1ace	0.025159266
19	0xbb88c729	-0.0041741324
20	0x3c50f1bd	0.012752947
21	0x3d05b7b9	0.032645915
22	0xb9c6699f	-0.00037844197
23	0xbc93e749	-0.018054621
24	0xbd32cb7b	-0.043651085
25	0xbbbb258a	-0.005711262
26	0xbb39db1c	-0.002835936
27	0x3c6a06eb	0.014283876
28	0x3ab2ee2d	0.0013651304
29	0x3c6698e3	0.014074537
30	0xbd06aaed	-0.03287785
31	0x3c2cad5d	0.01053938

conv.4.weight f4 [32, 32, 3, 3]
0	0x3d34eeca	0.04417304
1	0xbe048def	-0.12944768
2	0x3bf6cc76	0.007531698
3	0x3d455c0b	0.048183482
4	0x3d38945d	0.045063365
5	0xbb5aff48	-0.003341632
6	0xbcf23043	-0.029564029
7	0xbd5e7977	-0.054315057
8	0xbd8fd287	-0.07022577
9	0x3d64c18c	0.055848643
10	0xbd6faa72	-0.05851216
11	0xbd133e3c	-0.035948023
12	0x3cfa47f3	0.030551886
13	0xbc36a5c5	-0.011147921
14	0x3cb3fd4c	0.021971367
15	0xbbe26764	-0.006909298
16	0xbcef6bfa	-0.029226292
17	0xbd0d49ff	-0.034494396
18	0xbd1dae83	-0.038496505
19	0xbcc14ccb	-0.023596188
20	0xbd2f8a10	-0.042856276
21	0x3c74a344	0.014931504
22	0x3d404326	0.046939038
23	0x3d820d37	0.06350177
24	0x3b6a5c7f	0.0035760698
25	0xbd889856	-0.06669681
26	0xbb610791	-0.0034336785
27	0x3d981db4	0.074275404
28	0xbc9cd29c	-0.019143395
29	0xbd51b78e	-0.051200442
30	0xbc5ddd3c	-0.013541516
31	0xbd365498	-0.04451427
32	0x3b397700	0.002829969
33	0xbd674c63	-0.056469332
34	0x3c560a1c	0.013063934
35	0xbd58e007	-0.052948024
36	0xbc788515	-0.015168448
37	0xbcc93876	-0.024563055
38	0xbd90a4b9	-0.07062668
39	0xbd1729c0	-0.03690505
40	0x3c96d707	0.01841308
41	0x3b49e447	0.003080623
42	0x3cc146b8	0.023593292
43	0xbcd3244a	-0.02577414
44	0xbd222e1b	-0.03959475
45	0xbd5a9ddf	-0.053373214
46	0x3d8d8812	0.06910719
47	0x3d7f895d	0.06238686
48	0xbcd99b49	-0.026563304
49	0xba5f9b54	-0.00085299206
50	0x3d9c40fd	0.07629583
51	0x3c64641c	0.013939884
52	0xbcd6dc46	-0.026228081
53	0x3d96cfd1	0.073638566
54	0x3d313d9e	0.043271653
55	0x3d0a780f	0.033805903
56	0xbd42c1cb	-0.047548097
57	0x3d763be9	0.06011573
58	0xbcda3b74	-0.026639678
59	0xbcd92b51	-0.026509913
60	0x3c84061b	0.016116193
61	0x3d1342e0	0.03595245
62	0xbd078dc1	-0.03309417
63	0xbc3c5b50	-0.01149638
64	0xbc59362a	-0.013257543
65	0x3d0c0ac5	0.034189958
66	0x3cd52c03	0.026021963
67	0xbca5a737	-0.020221336
68	0x3d18d35e	0.03731095
69	0x3d94f0b3	0.07272472
70	0x3d95896a	0.073016
71	0x3d4ed5bc	0.0504968
72	0x3b0e6ddb	0.002173296
73	0xbd3a5b41	-0.045497183
74	0xbd8efd47	-0.069819026
75	0xbc69cc33	-0.014269876
76	0xbca1c683	-0.019747978
77	0xbd1fc833	-0.039009284
78	0xbd779799	-0.06044731
79	0xbc17e94d	-0.009271932
80	0xbd51a48b	-0.05118231
81	0xbd4b1721	-0.049582604
82	0x3c489f00	0.01224494
83	0xbd3f30b6	-0.046677314
84	0x3c252249	0.010078975
85	0x3cf526fd	0.029925818
86	0x3d1736d3	0.03691752
87	0x3c384f4d	0.0112493755
88	0xbcc0e7e2	-0.02354807
89	0x3d26020d	0.0405293
90	0x3d75f6b1	0.060049716
91	0xbd2f9b34	-0.042872623
92	0x3c4935a9	0.01228086
93	0xbd4fb51e	-0.050709836
94	0x3cd23fc9	0.02566518
95	0xbd91aeb4	-0.071134
96	0x3ccfd6ac	0.025370918
97	0xbbc4c154	-0.006004492
98	0x3c74e535	0.014947225
99	0x3ab79e33	0.0014008939
100	0xbc88d07e	-0.01670098
101	0xbcf5fce2	-0.03002781
102	0x3d1976d9	0.037466858
103	0xbd44fdc9	-0.04809359
104	0x3d630255	0.055422146
105	0x3d01945d	0.03163563
106	0x3d7828f4	0.06058593
107	0x3c107680	0.008817315
108	0x3d61e1f8	0.05514714
109	0x3d5223ea	0.05130378
110	0x3b1db97a	0.0024066851
111	0xbc9ca47e	-0.019121405
112	0x3ce49bd5	0.027906338
113	0xbd3a05d0	-0.0454157
114	0x3c3b5bc0	0.011435449
115	0x3d6af83e	0.05736565
116	0xbd287906	-0.041131042
117	0xbc91cdc0	-0.017798305
118	0xbbbf9758	-0.005846899
119	0x3d0b391a	0.033990003
120	0x3d50f3d3	0.05101378
121	0xbb05b6b9	-0.00204031
122	0xbca0cae9	-0.019628005
123	0x3d80fbdf	0.062980406
124	0x3c2dc53e	0.010606108
125	0x3d30636b	0.043063562
126	0x3d1f22b2	0.038851447
127	0x3d3b0766	0.045661353
128	0xbd2a93da	-0.04164491
129	0xbcf156e1	-0.029460372
130	0x3d22da84	0.039759174
131	0x3d21301e	0.03935253
132	0xbcdf0207	-0.027222646
133	0x3d1bd446	0.038044237
134	0x3cd0f627	0.025508
135	0xbc28ffcd	-0.010314894
136	0xbd3e7f50	-0.046508133
137	0x3d0bb2fc	0.03410624
138	0xbb654af6	-0.0034987307
139	0x3d756f4a	0.059920587
140	0xbcefe236	-0.02928267
141	0x3ce21b55	0.027600924
142	0x3c5246d2	0.012834268
143	0x3d18a858	0.03726992
144	0xbd3f55cb	-0.046712678
145	0x3cb9c3ac	0.022676311
146	0xbd769bc1	-0.060207132
147	0xbd8eb983	-0.06968977
148	0x3d926268	0.07147676
149	0x3c7a7466	0.015286541
150	0xbd6f8437	-0.0584757
151	0x3c11be6a	0.008895496
152	0xbc941373	-0.01807568
153	0x3d20ee49	0.039289746
154	0x3cb609e7	0.022221519
155	0x3c8c9267	0.017159654
156	0x3c9da1f5	0.019242266
157	0x3dd4d440	0.10392046
158	0xbd83e257	-0.06439655
159	0xbd00c1e0	-0.031434894
160	0x3cad6fc1	0.021171452
161	0x3ce29d67	0.027662946
162	0x3db94505	0.090463676
163	0x3d112acf	0.035441216
164	0x3d86cc8b	0.06581982
165	0x3dbf8bb6	0.093528196
166	0xbd3697f7	-0.04457852
167	0xbddfc227	-0.109257035
168	0xbd10a7f1	-0.03531641
169	0x3cc9ae97	0.024619384
170	0xbb91a7df	-0.0044450606
171	0x3cd08244	0.02545274
172	0x3d332e98	0.043745607
173	0xbd494384	-0.049136654
174	0xbd045125	-0.032303948
175	0x3c240642	0.010011258
176	0xbd8d6834	-0.06904641
177	0x3cb7c3ee	0.022432294
178	0x3d943fec	0.07238755
179	0x3d806b11	0.06270421
180	0x3d47f41d	0.04881679
181	0xbcd98e0e	-0.026556995
182	0xbc8c89e0	-0.017155588
183	0x3c62078c	0.013795745
184	0x3d6e8854	0.05823548
185	0x3c8b2aaa	0.016988117
186	0x3c043560	0.008069366
187	0xbd012d4f	-0.03153735
188	0x3cf1b7c8	0.029506579
189	0x3ae93040	0.0017790869
190	0xbd19ff1e	-0.037596814
191	0xbc226e2b	-0.009913961
192	0xbbc609ce	-0.0060436493
193	0xbc55e707	-0.0130555695
194	0xbd7fa9b3	-0.062417697
195	0xbcd5a6f3	-0.026080584
196	0x3d12ce28	0.035841137
197	0x3d5f4222	0.05450643
198	0x3ccc0af3	0.024907565
199	0x3d293600	0.041311264
200	0xbd036f60	-0.032088637
201	0x3cb82ea3	0.022483176
202	0x3dab2b56	0.08357875
203	0x3d65f624	0.05614294
204	0x3a1b92e3	0.00059346686
205	0xbd231da5	-0.039823193
206	0xbac5d45d	-0.0015093196
207	0x3d2faf64	0.042891875
208	0x3c0d4aee	0.008623822
209	0xbd326a9b	-0.0435587
210	0xbc877dbd	-0.016539449
211	0xbcb0bb8d	-0.021573806
212	0x3cb8b448	0.022546902
213	0xbc83dae0	-0.016095579
214	0x3d1930fb	0.037400227
215	0x3ac2f7f7	0.0014874925
216	0x3d6b7a09	0.05748943
217	0xbd252978	-0.04032275
218	0xbd39141d	-0.045185197
219	0xbcc0a306	-0.023515236
220	0x3c7d1fa9	0.015449443
221	0xbc269ce8	-0.010169245
222	0x3d046612	0.032323904
223	0xbd421fa8	-0.04739347
224	0x3c8dfce6	0.017332505
225	0xbc33837f	-0.010956644
226	0x3d141ea2	0.036162026
227	0x3d19881e	0.037483327
228	0xbd03f452	-0.032215424
229	0x3cf56418	0.029954955
230	0xbdbdb313	-0.09262671
231	0xbc918bac	-0.017766796
232	0x3d031723	0.032004487
233	0xbbf8fa07	-0.007598165
234	0x3baaf60e	0.0052173203
235	0x3d3ef661	0.046621684
236	0x3cabee1a	0.02098756
237	0x3c5db24d	0.01353128
238	0xbab47ff3	-0.0013771042
239	0xbbb7a1e3	-0.005604015
240	0xbd166300	-0.036715508
241	0x3d88452e	0.0665382
242	0x3cec7347	0.028863562
243	0xbd0e5e3b	-0.034757834
244	0x3d81d983	0.06340315
245	0xbb03a53d	-0.0020087503
246	0xbceef7e6	-0.029170942
247	0x3d7f5553	0.06233723
248	0xbc770299	-0.015076303
249	0xbad2ef93	-0.0016093127
250	0xbd0c44a4	-0.03424515
251	0xbd79ca67	-0.06098404
252	0x3bf9fd1f	0.0076290513
253	0x3a4ec95a	0.000788828
254	0x3d400e62	0.046888717
255	0xbc0b6a96	-0.008509299

conv.4.bias f4 [32]
0	0xbd43a353	-0.04776318
1	0x3c85702c	0.01628884
2	0x3bb1d0ac	0.005426487
3	0x3c64c6dd	0.013963428
4	0x3ca8e99a	0.020619202
5	0x3c47bff0	0.012191758
6	0xbaeebcc3	-0.0018214214
7	0xbb1c2f9e	-0.0023832093
8	0xbcd88893	-0.026432311
9	0xbd004cf4	-0.03132339
10	0x3cc47061	0.023979368
11	0x3d3b7bf7	0.04577252
12	0x3d3d6d67	0.046246912
13	0x3d1f7ebd	0.038939226
14	0xbd10b858	-0.035332054
15	0xbc0f7673	-0.008756268
16	0xbb3d68d6	-0.0028901598
17	0x3cc17fdc	0.023620538
18	0xbcde080b	-0.027103445
19	0xbd3c8faa	-0.046035446
20	0xbcdd5b5b	-0.0270211
21	0x3ce3428a	0.02774169
22	0x3c980ff2	0.01856229
23	0xbbdf344c	-0.006811654
24	0xbcdf405d	-0.02725237
25	0x3d0006de	0.03125655
26	0xbc86a6c8	-0.01643695
27	0xbd6c2cf8	-0.057660073
28	0x3c640efe	0.01391959
29	0x3ca9f3bf	0.02074611
30	0xbd247847	-0.040153768
31	0xbcb89a73	-0.022534585

fc.weight f4 [128, 821]
0	0x3ada4f1a	0.0016655654
1	0x3cddb705	0.02706481
2	0x3cfcc6ea	0.030856568
3	0x3b3e8101	0.0029068592
4	0x3cd68051	0.026184233
5	0x3c0c5672	0.008565532
6	0x3b8cbc8f	0.004294939
7	0x3cbed8f0	0.023296803
8	0x3bc8dc5e	0.0061297854
9	0x3cc17c8c	0.023618959
10	0xbbab6667	-0.005230713
11	0x3c5900b7	0.013244799
12	0x3d387ee9	0.045042906
13	0xbc1680b1	-0.009185956
14	0x3d42dfe8	0.047576815
15	0xbc601f89	-0.013679394
16	0xbbe762d5	-0.0070613422
17	0x3cfdf4fc	0.031000607
18	0xbc9c4ea6	-0.019080471
19	0x3d0efa73	0.034906816
20	0x3ca398ba	0.019970287
21	0x3c8f32e0	0.017480314
22	0x3c938f6d	0.018012727
23	0x3acf4fcd	0.0015816629
24	0xbd1e5ea3	-0.03866447
25	0xbc349ed8	-0.011024199
26	0x3d2c6964	0.042092696
27	0xbbb020d8	-0.005375009
28	0xbca3a5c0	-0.019976497
29	0xba3e967b	-0.0007270348
30	0xbcc08847	-0.023502482
31	0x3c252179	0.010078781
32	0xbc89ea9a	-0.0168355
33	0xbc848cca	-0.016180415
34	0xbcbb9bf4	-0.022901513
35	0x3c7de82f	0.015497251
36	0x3d3206f5	0.043463666
37	0xbbba41c0	-0.0056841075
38	0xbcce533a	-0.02518617
39	0x3ca82154	0.020523705
40	0x3d0b70ae	0.034043007
41	0xbca5a73b	-0.020221343
42	0xbc82285e	-0.01588839
43	0x3c9c227f	0.019059418
44	0xbc86da2c	-0.016461454
45	0x3d4c1916	0.04982861
46	0x3d247704	0.040152565
47	0xbce32ef0	-0.027732342
48	0xbc368495	-0.011140008
49	0x3c86fa6b	0.01647683
50	0x3bec074c	0.0072030183
51	0xbd7de9f7	-0.061990704
52	0x3d26943e	0.04066872
53	0xbd197eac	-0.03747432
54	0x3bad544d	0.0052895905
55	0xbc7c4ce5	-0.015399192
56	0xbbe232ff	-0.006903052
57	0x3beba62e	0.007191441
58	0xbd73e145	-0.059541006
59	0x3b0a6e47	0.002112286
60	0x3d11b8fd	0.03557681
61	0xbd1a1107	-0.037613895
62	0xbd0755fd	-0.03304099
63	0x3c838b74	0.016057707
64	0xbc9c1964	-0.019055076
65	0xbd733f4e	-0.059386544
66	0xbd0a7348	-0.033801347
67	0xbcbf5f4f	-0.023360876
68	0xbd52d531	-0.051472846
69	0xbbf6ff7f	-0.0075377817
70	0xbb804c71	-0.0039153625
71	0xbd756fb8	-0.059920996
72	0xb9db889b	-0.00041872714
73	0xbcb36257	-0.021897478
74	0x3d3b774b	0.045768064
75	0xbd2b4b57	-0.041819897
76	0xbc25f772	-0.010129796
77	0xbb87d8d7	-0.0041457224
78	0x3d246f4d	0.040145207
79	0x3c034a96	0.008013388
80	0x3cd0008f	0.025390891
81	0xbc98f2d0	-0.01867047
82	0xbbecba92	-0.0072243894
83	0xbc0d2874	-0.008615602
84	0x3d2a4af0	0.041575372
85	0xbc8bf7f3	-0.017086005
86	0xbce085d2	-0.02740756
87	0xbc7b65ca	-0.015344093
88	0xbd2c1bb9	-0.042018626
89	0xbd8faf35	-0.0701584
90	0xbc645eb2	-0.013938593
91	0xbd4ba7f8	-0.049720734
92	0x3c6f4f55	0.014606317
93	0xbd2721cb	-0.04080371
94	0xbc74d042	-0.014942231
95	0xbcde2193	-0.027115619
96	0xbbe20716	-0.0068978174
97	0x3d6c8daa	0.05775229
98	0x3bdefc83	0.006805004
99	0xbb2a6362	-0.0025999178
100	0xbccce2eb	-0.025010547
101	0x3cb129b8	0.021626338
102	0xbcbe7f5e	-0.023254093
103	0x3d35d1ac	0.04438941
104	0xbd63f57c	-0.055654034
105	0xbd24d0db	-0.040238243
106	0xbbdd04b0	-0.0067449436
107	0x3c0d0e60	0.008609384
108	0xbd28c6cf	-0.041205224
109	0x3cfb73df	0.0306949
110	0x3cfae969	0.030628877
111	0xbd1e7863	-0.03868903
112	0xbc34838d	-0.011017692
113	0x3ce0db65	0.027448365
114	0xbc310b13	-0.010805863
115	0x3d18541b	0.037189584
116	0xbccb0cb4	-0.02478633
117	0x3b8139c7	0.003943655
118	0x3c7a337d	0.015271065
119	0xbd4842fc	-0.048892006
120	0x3bd196fe	0.0063961735
121	0xbca7fe56	-0.020507019
122	0xbcd5cc57	-0.026098413
123	0xbcba9af1	-0.02277896
124	0x3ca7688a	0.02043559
125	0x3bc69d6d	0.006061247
126	0x3b573245	0.003283636
127	0xbc8d3b69	-0.017240243
128	0xbba6c677	-0.005089577
129	0xbd0524d3	-0.03250582
130	0x3c77bff2	0.015121447
131	0x3d0c1753	0.03420193
132	0xbb170a97	-0.0023047084
133	0x3d467b81	0.048457626
134	0x3cbf59f8	0.02335833
135	0xbced5b8a	-0.028974313
136	0xbd1681aa	-0.03674475
137	0xbc2d6b7f	-0.010584711
138	0x3cc1effc	0.023674004
139	0xbc8494a2	-0.016184155
140	0xbd5dfcad	-0.05419605
141	0x3d305f56	0.04305967
142	0x3ce07480	0.027399302
143	0xbc56eed8	-0.013118468
144	0xbbd6490d	-0.00653947
145	0x3d4eeb0b	0.050517123
146	0xbd2653bb	-0.040607195
147	0xbd326a4b	-0.0435584
148	0x3c8d45f5	0.017245272
149	0xbd0af62c	-0.033926174
150	0xbd280944	-0.04102446
151	0xbd4d0185	-0.050050277
152	0xbbd49dee	-0.0064885532
153	0xbbecd268	-0.007227231
154	0x3b6bc431	0.0035975093
155	0xbc9955f7	-0.018717749
156	0xbc8048e1	-0.015659751
157	0xbcd2f407	-0.025751127
158	0x3c2cb40b	0.010540972
159	0xbcd6da1e	-0.026227053
160	0xbae6e928	-0.0017617093
161	0x3cd0d616	0.02549271
162	0x3c193ddf	0.00935313
163	0xbc196bcb	-0.009364079
164	0xbd300a2b	-0.042978447
165	0xbab5e1e1	-0.0013876521
166	0xba28d993	-0.00064411125
167	0xba16537b	-0.00057344855
168	0xbcf85683	-0.03031469
169	0x3d50ad8a	0.05094675
170	0x3b890267	0.0041811946
171	0x3ce44f8f	0.027869968
172	0x3b881358	0.0041526966
173	0x3b38c289	0.0028192124
174	0xba87ad11	-0.001035126
175	0x3c839e59	0.016066717
176	0xbb5d6a6a	-0.0033785352
177	0xbd08efb9	-0.033431742
178	0xbcb8d4ed	-0.022562468
179	0x3d31f760	0.043448806
180	0x3cd31d61	0.025770845
181	0xbc84b193	-0.016197955
182	0x3c5fe2e4	0.013664935
183	0xbceaec4d	-0.02867713
184	0xbc3f6277	-0.011681191
185	0x3ceb3754	0.028712906
186	0xbccf3847	-0.02529539
187	0x3c4077b5	0.01174729
188	0x3d4aea08	0.049539596
189	0xbabaa4ba	-0.0014239766
190	0x3cf951f9	0.030434595
191	0x3ba62c80	0.005071223
192	0xbc7d7568	-0.015469886
193	0x3d4a4a43	0.049387228
194	0x38de71d0	0.00010606984
195	0x3d0b8bd6	0.034068905
196	0x3b6f62e9	0.003652746
197	0x3c9dc298	0.019257829
198	0xbc813c68	-0.015775874
199	0x3cf7f5ac	0.030268513
200	0xbca51c58	-0.020155117
201	0x3bec58e2	0.007212744
202	0xbcee6167	-0.02909918
203	0xbd005ca0	-0.031338334
204	0xbd5c4fe4	-0.053787127
205	0x3c75c098	0.014999531
206	0x3ce8817b	0.028382054
207	0xbd35800a	-0.04431156
208	0x3d384249	0.04498509
209	0xbc135b90	-0.008993998
210	0xbd76454d	-0.060124684
211	0xbd8800bf	-0.06640767
212	0xbc5e1043	-0.013553682
213	0x3b442e11	0.0029934684
214	0x3d05e9ef	0.0326938
215	0x3b9c0337	0.0047611254
216	0x39baf81e	0.00035661546
217	0x3c9db171	0.01924965
218	0xbac2318f	-0.0014815795
219	0xbc96a708	-0.018390194
220	0xbd380fe5	-0.044937033
221	0xbc1ce190	-0.009575263
222	0xbd691be9	-0.056911383
223	0x3bcc58e9	0.006236185
224	0x3bdadf1e	0.0066794297
225	0x3ca1cdf5	0.019751528
226	0x3ccdf908	0.025143161
227	0x3c149269	0.00906811
228	0x3c779f04	0.015113596
229	0x3946bda5	0.000189534
230	0x3d249064	0.040176764
231	0x3caf2d74	0.021383978
232	0x3d1deb5a	0.038554527
233	0xbc540029	-0.012939491
234	0x3d5e6c48	0.054302484
235	0xbb20f704	-0.0024561295
236	0xbcdfca06	-0.027318012
237	0xbd1e1519	-0.03859434
238	0x3d02bbc0	0.031917334
239	0xbbd92c15	-0.0066275694
240	0x3d01c92c	0.031685993
241	0x3cd87722	0.026423994
242	0x3d8f6a4a	0.07002695
243	0x3bd1c7c4	0.0064019877
244	0x3d131edf	0.035918113
245	0x3cd17293	0.025567329
246	0x3cfacfef	0.030616729
247	0x3bdbc4fc	0.006706832
248	0xbc38437a	-0.011246556
249	0x3d2dc75d	0.042426456
250	0xbd0d2bfc	-0.034465775
251	0x3d07c1be	0.03314375
252	0x3ce34d86	0.027746927
253	0x3d2b764c	0.041860864
254	0xbcbdc4e3	-0.023165172
255	0x3acfddd6	0.0015858959

fc.bias f4 [128]
0	0xbd24ad8d	-0.040204573
1	0xbd2ecf19	-0.042677972
2	0xbcc4839d	-0.02398854
3	0xbcb9d5e3	-0.022684997
4	0x3c38c9ca	0.011278579
5	0xbd0aa092	-0.033844538
6	0x3d0e0904	0.034676567
7	0xbaefac65	-0.001828563
8	0xbb08ed9e	-0.0020893584
9	0x3bd2d6bb	0.0064342893
10	0xbc940f43	-0.018073684
11	0xbc4d37a5	-0.012525474
12	0xbbdb6332	-0.0066951746
13	0x39b66637	0.000347899
14	0x3cc708a5	0.024296114
15	0xbc2ffd82	-0.010741593
16	0xbac422b3	-0.0014963954
17	0x3a616b7c	0.0008599085
18	0xbcc433ef	-0.023950545
19	0xbcafc9b5	-0.021458486
20	0xbcb0f8ae	-0.021602955
21	0x3a81fdbc	0.0009917538
22	0x3c95d2f5	0.018289069
23	0xbd541da2	-0.051786073
24	0xbc1a6162	-0.009422632
25	0x3c844b4c	0.016149186
26	0x3b4844c4	0.0030558566
27	0x3c69e666	0.014276123
28	0x3c743cc6	0.014907068
29	0xbcd1b164	-0.025597282
30	0xbcdbbf7f	-0.02682471
31	0xbbe5ca77	-0.007012661
32	0xbd05229f	-0.03250372
33	0xbc682ed6	-0.014171323
34	0xbc8180f2	-0.015808556
35	0xbcfb0c97	-0.030645652
36	0x3c206331	0.009789274
37	0x3bf40d20	0.0074478537
38	0xbca6bda3	-0.020354098
39	0xbd0b594e	-0.034020714
40	0xbcc08b43	-0.023503905
41	0xbc6ff596	-0.014645955
42	0xbbecb3b4	-0.0072235707
43	0xbd141211	-0.036150042
44	0xbc44cd84	-0.012011889
45	0x3cc55d02	0.024092201
46	0x3c2706d2	0.010194497
47	0xbb11eda4	-0.002226689
48	0x3b02865a	0.0019916506
49	0xbd08cc7a	-0.03339813
50	0xbc47769b	-0.012174274
51	0xbcc2fce7	-0.023802234
52	0x3c948c70	0.018133372
53	0xbc88f707	-0.016719354
54	0x3bf23aa2	0.0073922435
55	0x3be409fa	0.006959197
56	0xbc37399e	-0.011183171
57	0x3ce19d18	0.027540728
58	0xbcfa8450	-0.03058067
59	0x3cbae2c9	0.022813218
60	0xbc1c4c0d	-0.009539616
61	0x3cd48c17	0.025945706
62	0xbb67fe2a	-0.0035399296
63	0xbcc3b887	-0.0238917
64	0x3c73c191	0.014877693
65	0xbbea4c4e	-0.0071502095
66	0x3c8504e3	0.016237682
67	0x3cbc57ef	0.022991149
68	0xbc1a2438	-0.009408049
69	0x3ce44075	0.027862767
70	0xbbe47a91	-0.006972619
71	0x3c812e46	0.015769135
72	0x3d33b56e	0.043874197
73	0x3b817d90	0.003951736
74	0x3c9fc4db	0.019503048
75	0xbd132200	-0.035921097
76	0x3a4f2303	0.00079016405
77	0x3d352c1d	0.044231523
78	0x3cf22512	0.029558692
79	0x3d0336c8	0.032034665
80	0x3c03c293	0.008041996
81	0x3a896f75	0.0010485487
82	0xbcc332d6	-0.023827951
83	0xbc949b2f	-0.018140404
84	0x3b949836	0.0045347465
85	0xbc7e05eb	-0.015504341
86	0xbc90d40a	-0.017679233
87	0xbcf162fd	-0.029466147
88	0xbc148ba6	-0.009066498
89	0xbd0ebc6f	-0.034847673
90	0x3c4a350a	0.012341747
91	0xbbb67984	-0.005568685
92	0xbcb7853c	-0.022402398
93	0x3c343ebf	0.011001288
94	0xbcdffebe	-0.02734315
95	0xbc60e1eb	-0.013725738
96	0x3c58706b	0.013210396
97	0xbd08e422	-0.03342069
98	0x3d1d7973	0.0384459
99	0xbc7ff428	-0.015622176
100	0xbcb12e31	-0.021628471
101	0x3c8739bd	0.016507024
102	0xbc49c36d	-0.01231466
103	0x3c55c3b0	0.013047144
104	0xbc9287ae	-0.017886963
105	0x3ca0444d	0.019563818
106	0x3d0e51de	0.034746043
107	0x3cf6b4e4	0.030115552
108	0xbd1c5607	-0.03816798
109	0xbcd7f5db	-0.02636235
110	0x3d4c59f1	0.049890462
111	0xbd077e12	-0.033079214
112	0xbcd8b3de	-0.026452955
113	0xbc5128c7	-0.01276607
114	0xbadc3cc4	-0.0016802778
115	0x3c80427b	0.0156567
116	0xbc0d57cf	-0.008626892
117	0x3c00b556	0.007855734
118	0xbaf4ea70	-0.001868559
119	0xbc800664	-0.015628047
120	0xbc14045b	-0.009034242
121	0x3c8d50b3	0.017250394
122	0xbd0794d9	-0.033100937
123	0xbc946e1e	-0.018118914
124	0xbab27878	-0.0013616225
125	0x3d000dfb	0.031263333
126	0x3ca8421f	0.020539341
127	0xbbe9854f	-0.0071264873

layers.0.weight f4 [128, 128]
0	0xbce373c4	-0.027765162
1	0x3d89192c	0.06694254
2	0x3d8b37fe	0.06797789
3	0x3d61d103	0.05513097
4	0x3d87cc5e	0.06630777
5	0xbd7534cc	-0.059864804
6	0xbd6b749d	-0.057484258
7	0xbc937516	-0.018000167
8	0xbd7b7b4c	-0.061396882
9	0x3d12e7de	0.035865657
10	0xbc713054	-0.014720995
11	0xbd3d6e86	-0.04624798
12	0x3da5a19c	0.08087465
13	0xbdab4845	-0.08363394
14	0xbc077ecd	-0.008269978
15	0x3b245daf	0.0025080254
16	0x3c782bf4	0.015147198
17	0xbcdefe4d	-0.02722087
18	0x3d91a859	0.07112188
19	0x3db20a8a	0.086934164
20	0x3d8d5058	0.0690009
21	0xbd7e37fd	-0.062065113
22	0x3d49b756	0.04924711
23	0x3c877ebd	0.016539926
24	0xbd63dbd9	-0.055629585
25	0xbcbf898c	-0.023381017
26	0x3d311fea	0.043243326
27	0x3d8e58ec	0.06950554
28	0xbdb5a0f7	-0.08868592
29	0xbd4a02d2	-0.049319096
30	0xbd778c6f	-0.060436662
31	0xbd21bca7	-0.039486554
32	0x3da7a3a0	0.08185506
33	0xbc26c577	-0.010178915
34	0x3d603bf2	0.05474467
35	0x3d4367e8	0.047706515
36	0x3d395539	0.04524729
37	0x3a316356	0.00067668164
38	0x3d431285	0.047625083
39	0x3d963ed0	0.07336199
40	0xbba8f01a	-0.0051555755
41	0xbc801043	-0.015632754
42	0x3d1f5efe	0.03890895
43	0x3dd495eb	0.10380157
44	0x3d8e8df4	0.06960669
45	0x3cab33a5	0.02089865
46	0x3b99fb9a	0.0046991827
47	0x3b2936a7	0.002581993
48	0xbd3a22c6	-0.04544332
49	0xbc678c36	-0.01413255
50	0xbc901a50	-0.017590672
51	0x3c10f2ab	0.008846919
52	0x3d68f630	0.056875408
53	0xbbf5771a	-0.0074910047
54	0xbcc3a810	-0.02388385
55	0x3cc207fe	0.023685452
56	0x3d961a55	0.07329241
57	0x3cd80a97	0.026372237
58	0x3d609206	0.05482676
59	0xbaa84d30	-0.0012840386
60	0xbd36e308	-0.044650108
61	0xbd30fe73	-0.04321141
62	0x3d3b0456	0.045658432
63	0xbbeb7803	-0.0071859374
64	0xbcbfc1e4	-0.023407884
65	0x3d845724	0.06461933
66	0xbd5f9fd1	-0.054595772
67	0xbc24cf82	-0.010059239
68	0xbc9dfbc9	-0.0192851
69	0xbdb57827	-0.08860808
70	0xbd3dbc3c	-0.046322092
71	0x3b9e94f0	0.004839532
72	0xbb0289a7	-0.0019918473
73	0x3d4b95a2	0.049703248
74	0xbd36a582	-0.044591434
75	0xbb9a0dc9	-0.0047013503
76	0x3d9adfc1	0.07562209
77	0xbd77c4fe	-0.0604906
78	0x3d4e53ae	0.050372772
79	0xbd95fb15	-0.07323281
80	0x3d43c5b6	0.047795974
81	0x3d98d021	0.074615724
82	0xbd917816	-0.07102983
83	0x3c57a929	0.0131628895
84	0xbcc22aef	-0.023702113
85	0x3c885d0c	0.01664593
86	0x3d1852a6	0.037188195
87	0xbd4a3794	-0.04936941
88	0x3d7882cf	0.060671624
89	0xbc4ae350	-0.012383297
90	0xbd59e0ba	-0.05319283
91	0x3d063611	0.032766405
92	0xbd207a8b	-0.039179366
93	0xbbf0c53a	-0.00734773
94	0xbd86e63b	-0.06586882
95	0x3c08e447	0.008355207
96	0x3d9ae832	0.07563819
97	0xbcea3d6f	-0.028593747
98	0xbd20db7a	-0.03927181
99	0xbd90b225	-0.070652284
100	0xbd061fcb	-0.032745164
101	0x3d73eec0	0.05955386
102	0x3d995a73	0.07487955
103	0xbc167d0b	-0.009185086
104	0x3d898c44	0.06716207
105	0xbbd98888	-0.0066385902
106	0xbd96d2d4	-0.07364431
107	0x3c84d36c	0.016214095
108	0xbd4f92e4	-0.050677195
109	0x3da1f4f0	0.07908046
110	0x3d448475	0.047977883
111	0x3d8cde0d	0.0687829
112	0xbd15db0c	-0.036585853
113	0x3d18d7cd	0.03731518
114	0x3dcb631c	0.09931013
115	0x3dd07b45	0.10179762
116	0xbc87207d	-0.016494984
117	0x3d9c61f1	0.07635868
118	0xbb0e1554	-0.0021680193
119	0xbd6baf2d	-0.057540108
120	0x3db64773	0.089003466
121	0x3db490b8	0.088166654
122	0x3d3903e6	0.045169733
123	0xbd2c5c77	-0.04208037
124	0xbd49dbc0	-0.049281836
125	0x3c599919	0.01328113
126	0xbd40be00	-0.047056198
127	0xbd118b49	-0.035533223
128	0xbd0b53f8	-0.034015626
129	0x3b99448d	0.0046773613
130	0x3c88ac6a	0.016683776
131	0x3c917afa	0.017758835
132	0xbde64453	-0.112435006
133	0xbc4c3bb9	-0.012465411
134	0x3ced21d1	0.028946789
135	0x3d6ea3e6	0.058261774
136	0x3c81f7f9	0.015865313
137	0xbd1b2816	-0.037880026
138	0xbcf3b92b	-0.02975138
139	0xbb9bb56c	-0.004751852
140	0xbd5b0059	-0.05346713
141	0xbd570dd3	-0.05250342
142	0x3c50cce6	0.012744164
143	0xbd8658e2	-0.06559922
144	0xbcdb3f32	-0.026763532
145	0x3cb6cabd	0.02231347
146	0x3d5df05f	0.054184314
147	0x3da877c8	0.082259715
148	0x3d5c614a	0.05380372
149	0xbd044f69	-0.032302294
150	0xbd07a4a6	-0.033116005
151	0x3d004b5f	0.03132188
152	0x3db2d095	0.0873119
153	0x3c92daa8	0.017926529
154	0xbd5204b8	-0.05127403
155	0x3da32248	0.07965523
156	0x3c3f37f1	0.011671052
157	0x3d5b977e	0.05361127
158	0x3cf59de9	0.029982524
159	0x3d5d831b	0.05408011
160	0x3d1c3196	0.038133226
161	0x3d1c8b6d	0.038218904
162	0x3d2ee59e	0.04269945
163	0x3dc4f245	0.09616522
164	0xbd44c988	-0.048043758
165	0xbd85d42c	-0.06534609
166	0xbdb86d81	-0.09005261
167	0x3d5cfeee	0.053954057
168	0xbacb7508	-0.0015522549
169	0x3bb29cf3	0.0054508387
170	0xbddf1e1a	-0.10894413
171	0xbd13981f	-0.036033746
172	0x3ca2f6bc	0.019893043
173	0x3d041c66	0.032253645
174	0xbc8c3734	-0.017116167
175	0x3d4e4bda	0.050365306
176	0xbcbf419c	-0.023346715
177	0xbdcf3781	-0.101180084
178	0x3d5b8caa	0.053600945
179	0xbd6a258f	-0.057164725
180	0xbcfd5a17	-0.030926747
181	0xbd99fcb2	-0.07518901
182	0xbdb6023e	-0.088871464
183	0xbb909515	-0.004412303
184	0xbd2fd360	-0.042926192
185	0x3d8a8bd8	0.06764954
186	0xbd3cd281	-0.04609919
187	0xbd5dc5cf	-0.054143723
188	0xbd338af3	-0.043833684
189	0xbc8b0228	-0.016968802
190	0x3da1d78c	0.079024404
191	0xbcd1c399	-0.025605964
192	0xbd89baf0	-0.067251086
193	0x3c6973a2	0.01424876
194	0x3dbca74a	0.09211595
195	0xbda8d3b4	-0.08243504
196	0x3cd91c9b	0.026502898
197	0xbd99002b	-0.07470735
198	0xbd217a4e	-0.03942328
199	0xbcbb1b48	-0.022840157
200	0x3d39b609	0.045339618
201	0x3d05588e	0.032555155
202	0x3d1c83d0	0.038211644
203	0xbd5b9dd7	-0.053617325
204	0xbd28cde1	-0.041211966
205	0x3ca5e874	0.020252444
206	0x3a713e5f	0.00092027144
207	0xbdfc3bbd	-0.12316082
208	0x3c210d7b	0.009829874
209	0xbd11512f	-0.035477813
210	0x3d4fac02	0.05070115
211	0xbcedd248	-0.029030934
212	0xbd4c6e25	-0.04990973
213	0xbc42b605	-0.011884217
214	0x3d98aeae	0.074551925
215	0xbd70416c	-0.05865614
216	0xbd40706b	-0.04698221
217	0xbd726b5b	-0.059184413
218	0x3d7ba10d	0.061432887
219	0x3df11597	0.11771696
220	0xbd688673	-0.056768846
221	0xbd15bced	-0.036557127
222	0x3d7a911a	0.061173536
223	0x3d956d23	0.07296207
224	0x3d8c513b	0.06851431
225	0x3da32542	0.07966091
226	0x3bdafa04	0.006682636
227	0x3d880c2c	0.066429466
228	0xbd15e7a9	-0.03659788
229	0x3de2ac21	0.11067987
230	0xbd2e8a87	-0.04261258
231	0xbd2f6004	-0.042816177
232	0xbc157362	-0.009121748
233	0xbdba4f85	-0.090971984
234	0x3d3b1972	0.045678563
235	0xbd9f9c9f	-0.07793545
236	0x3d79f589	0.061025176
237	0xbd79b8a3	-0.0609671
238	0xbd87b99f	-0.06627201
239	0x3da0399b	0.07823487
240	0x3b76fe66	0.0037688254
241	0x3da784ed	0.081796505
242	0xbd8f4623	-0.069957994
243	0x3da93061	0.08261181
244	0x3cee7b68	0.029111579
245	0x3cce095c	0.025150947
246	0x3db86322	0.09003283
247	0x3d141e77	0.036161866
248	0x3da4d83a	0.080490544
249	0xbcbcd458	-0.023050472
250	0xbd28c271	-0.04120106
251	0xbd630cc7	-0.055432107
252	0x3b7d2e8c	0.003863248
253	0x3d50fc2b	0.051021736
254	0xbd436c4f	-0.047710713
255	0xbd8094fe	-0.06278418

layers.0.bias f4 [128]
0	0xbdb1a638	-0.08674282
1	0x3d4c9efb	0.049956303
2	0xbde2b253	-0.11069169
3	0x3d476134	0.048676684
4	0xbd1d438d	-0.0383945
5	0x3d533df5	0.05157276
6	0xbcf81d62	-0.030287448
7	0xbd8b621e	-0.06805824
8	0x3cc5aabb	0.024129262
9	0xbd1aa82b	-0.037758034
10	0xbdde92a9	-0.10867817
11	0x3d6249b5	0.055246074
12	0x3d0ad314	0.033892706
13	0x3d172ae9	0.036906157
14	0x3d62dcf7	0.05538651
15	0xbda792d6	-0.081823036
16	0x3c4cabd5	0.01249214
17	0xbd984db1	-0.074366935
18	0x3b02538e	0.0019886228
19	0x3d57fb70	0.052730024
20	0x3d984d2a	0.07436593
21	0xbd7098ef	-0.0587396
22	0x3d7b91fe	0.061418526
23	0xbbb10f2c	-0.00540342
24	0x3c0ff977	0.008787504
25	0x3d8e7fde	0.069579825
26	0xbd2a467c	-0.041571125
27	0x3d0fe8c2	0.035134085
28	0xbd7a88b7	-0.061165538
29	0x3dd7969c	0.10526773
30	0x3c892a28	0.016743734
31	0xbd59029f	-0.052981015
32	0xbdbef940	-0.093248844
33	0x3ca5c8c8	0.020237342
34	0x3d27e078	0.040985554
35	0xbd4f2eb3	-0.050581645
36	0xbd7b081f	-0.06128704
37	0x3d4e1e8e	0.050322108
38	0x3d62b580	0.055348873
39	0xbd560e84	-0.052259937
40	0xbd3a3456	-0.045460068
41	0xbd480b76	-0.048839055
42	0xbd641139	-0.055680487
43	0x3c2e2a22	0.010630162
44	0x3ca90b6d	0.020635331
45	0xbb057137	-0.002036167
46	0xbbc2612a	-0.005931993
47	0x3bdf2f8c	0.006811088
48	0x3d226add	0.039652694
49	0x3d1e157e	0.038594715
50	0xbd44b3b1	-0.04802293
51	0xbad14fa4	-0.0015969169
52	0xbcd08de5	-0.025458286
53	0x3d804bd4	0.06264463
54	0xbcb1d5d5	-0.021708408
55	0x3cd77adb	0.0263037
56	0x3d7dc029	0.061950836
57	0x39de7f95	0.00042438196
58	0xbca0b0a3	-0.019615477
59	0x3d04165f	0.032247897
60	0xbd34fa2a	-0.044183888
61	0x3d2d5db4	0.04232569
62	0xbd4efcc9	-0.050534043
63	0xbc8b7433	-0.017023182
64	0xbc91c861	-0.017795743
65	0xbd8763e2	-0.06610848
66	0xbd326127	-0.043549683
67	0xbd4e2518	-0.050328344
68	0x3d5c4a40	0.053781748
69	0x3d86fd70	0.06591308
70	0xbd0f510f	-0.034989413
71	0x3dca8eef	0.09890544
72	0xbba82fcb	-0.0051326505
73	0xbb15f741	-0.002288297
74	0xbb85f486	-0.0040879874
75	0xbce09ecb	-0.027419468
76	0x3d8f20bb	0.06988665
77	0x3d1022dd	0.0351895
78	0x3a4636d9	0.00075612735
79	0x3ba40417	0.0050053704
80	0xbca9dfe8	-0.02073665
81	0xbcfe1ac2	-0.031018618
82	0xbd9b130c	-0.07571992
83	0xbce3154c	-0.027720116
84	0xbd201e5f	-0.039091464
85	0x3be51372	0.0069908435
86	0x3ddfa123	0.10919406
87	0x3d88f664	0.0668762
88	0x3d68e6b3	0.056860637
89	0x3bdbf2ee	0.006712309
90	0x3d2391b3	0.03993387
91	0x3c30fbf1	0.010802255
92	0xbd56401c	-0.052307233
93	0xbd98fb48	-0.07469803
94	0x3cd1400b	0.025543233
95	0x3ce245b5	0.02762113
96	0x3d42043c	0.04736732
97	0x3c0f6fa6	0.008754646
98	0x3ce16d8c	0.027518056
99	0xbdcc54d1	-0.09977115
100	0xbdb789df	-0.08961844
101	0x3d85a0da	0.065248206
102	0xbdc1cee3	-0.09463289
103	0x3d3c43af	0.045962986
104	0x3d915853	0.07096925
105	0x3d519d74	0.05117555
106	0x3c84d129	0.016213017
107	0xbd4ecd3b	-0.05048869
108	0x3cb25558	0.02176921
109	0xbcbd59fb	-0.023114195
110	0xbd4c75c5	-0.049917
111	0x3da833e5	0.08213023
112	0xbd90f70b	-0.0707837
113	0xbcaa0e85	-0.020758877
114	0xbcbb4a3f	-0.022862552
115	0xbd4638cd	-0.048394013
116	0xbd8731d0	-0.06601298
117	0x3c310920	0.010805398
118	0x3d5c6c55	0.05381425
119	0x3d598911	0.053109232
120	0xbd3024a6	-0.0430037
121	0xbc01a745	-0.007913415
122	0xbd617c84	-0.055050388
123	0xbda13cb5	-0.07872907
124	0xbce51ce1	-0.027967872
125	0x3c2c5a6c	0.010519605
126	0x3d856d57	0.065149955
127	0xbb59baba	-0.003322287
