DDPG/savedModels/argetActor.pth.tar (torch, 677777 bytes, 18 tensors)

conv.0.weight f4 [32, 3, 5, 5]
0.13041225 0.099565044 -0.10837196 0.06915608 -0.039863016 0.12621634 -0.001328871 -0.084733605
-0.08052493 -0.17796241 0.029952556 -0.02294465 -0.011589579 -0.10478034 -0.027015366 0.08899198
0.113718174 0.019903097 -0.13596502 -0.031090643 0.16245429 0.1259764 0.12437818 -0.037636656
-0.029837696 -0.069843605 0.07350265 -0.08334406 -0.016525026 0.09368538 0.037918262 -0.044002224
-0.047488693 -0.04382544 0.058263086 -0.030438783 0.005426328 0.0031768377 0.03386608 0.006896307
0.035668228 -0.05692479 -0.02190689 0.14182146 0.00049652666 0.1253908 -0.045860153 -0.025073295
0.03950806 -0.073726766 -0.089135 0.02077029 0.038876556 0.007161526 -0.013240473 0.015576843
0.090559304 -0.031924166 0.08470715 0.016555026 0.021122871 -0.06594843 0.02895089 -0.0478266
0.05725815 -0.07094987 -0.064143896 -0.0045243874 0.011553704 0.03895707 -0.019541407 -0.12467684
0.076565385 0.017554898 -0.015082271 0.022133349 -0.0794106 0.070213534 -0.080939785 -0.049027428
0.018740289 -0.070125975 -0.07927205 -0.07285803 -0.13729283 0.031400036 -0.10772581 -0.094301075
-0.056394972 -0.093522705 0.090702616 -0.07928269 -0.056470547 -0.11497805 0.096045345 0.026762517
0.060855243 -0.05276349 -0.058043662 0.003608025 0.08677043 0.1075419 0.018552093 0.124052174
0.10635964 -0.018098002 0.051222894 -0.07961479 0.12994353 0.12589386 -0.028899109 0.030686155
0.0756144 0.019134127 -0.0050652055 -0.043348994 0.032673188 0.06901844 0.086712345 0.02933561
0.07416023 0.06066329 0.07121738 0.06737946 -0.0018806601 0.04577519 0.087479785 -0.0536337
-0.10624196 -0.04589564 -0.101248726 -0.0022158222 -0.06505186 -0.08059445 -0.043715533 -0.055627245
0.032970637 -0.07750976 0.0798318 0.12792027 -0.062993236 0.1017858 -0.08869507 0.005183096
-0.094234385 -0.05473501 0.11088782 0.07347041 -0.05243428 0.13079065 0.049185738 0.0978317
0.05689333 0.12727153 -0.033539776 -0.06850888 -0.0855148 -0.019166773 0.0746787 0.13222517
-0.07886617 0.0015793307 0.009815691 -0.05381479 0.020759115 0.05067483 0.06251093 0.06353486
0.003701224 0.033232205 -0.15102917 -0.0960648 0.02046769 -0.024147978 -0.034561124 0.04045516
0.07420563 -0.06976088 0.015533635 -0.028734842 -0.004838702 -0.032351837 -0.027056037 0.06308908
-0.03511359 0.06338195 -0.0028038118 0.026676834 0.036594596 -0.08672822 -0.066901125 0.093418546
-0.01975702 -0.013426603 -0.079342 -0.029024515 -0.0016449655 0.02871386 0.08466113 -0.029489277
-0.044657692 -0.075131506 0.012236394 0.10294579 -0.10563418 -0.047738325 0.008604379 0.10034564
-0.007607993 0.09008797 0.06735844 -0.07618543 0.058352802 0.04533535 -0.031617377 -0.09416955
0.027647806 -0.009072839 0.0653389 0.012458535 -0.01263515 -0.03169908 -0.017141042 -0.08765576
0.039609905 0.085269265 -0.13057311 0.007289788 -0.08327994 -0.0025575613 0.009782272 -0.04684799
0.053497717 -0.0505249 0.09348736 0.039635733 -0.11341047 0.050368436 -0.06861701 0.053914957
-0.115638226 0.047198173 -0.040868826 0.05088998 -0.085015945 -0.05796813 -0.06989852 -0.038022667
-0.07378778 0.09080511 0.0806871 -0.024590027 0.04988414 0.03891302 -0.09234741 0.07579945
00000000: ca8a 053e c2e8 cb3d 1ef2 ddbd b4a1 8d3d
00000010: 6747 23bd db3e 013e 832d aeba d088 adbd
00000020: 41ea a4bd c73b 36be 105f f53c 6bf6 bbbc
00000030: 38e2 3dbc 1397 d6bd 544f ddbc 6d41 b63d
00000040: 13e5 e83d d20b a33c 6a3a 0bbe ceb1 febc
00000050: 6b5a 263e f5ff 003e fdb9 fe3d e528 1abd
00000060: 2f6e f4bc 2a0a 8fbd 8f88 963d 4ab0 aabd
00000070: 7e5f 87bc 1fde bf3d 2e50 1b3d ad3b 34bd
00000080: 8183 42bd 4e82 33bd 46a5 6e3d c15a f9bc
00000090: 57cf b13b 7e32 503b 29b7 0a3d 6bfa e13b
000000a0: d918 123d f829 69bd 1476 b3bc a539 113e
000000b0: 5729 023a 7266 003e dbd7 3bbd 8366 cdbc
000000c0: 34d3 213d 0ffe 96bd 698c b6bd 7526 aa3c
000000d0: 063d 1f3d 3cab ea3b 92ee 58bc 0436 7f3c
000000e0: 2877 b93d eac2 02bd f17a ad3d 689e 873c
000000f0: df09 ad3c f80f 87bd 6b2a ed3c d3e5 43bd
00000100: 8687 6a3d 2a4e 91bd e05d 83bd 5041 94bb
00000110: bf4b 3d3c 7391 1f3d 4d15 a0bc 9256 ffbd
00000120: 50ce 9c3d 4acf 8f3c a11b 77bc ff50 b53c
00000130: 06a2 a2bd 1dcc 8f3d c2c3 a5bd fcd0 48bd
00000140: 3c85 993c 359e 8fbd 6259 a2bd 9736 95bd
00000150: 7e96 0cbe 539d 003d 599f dcbd ec20 c1bd
00000160: 6afe 66bd d588 bfbd 4bc2 b93d f75e a2bd
00000170: a94d 67bd 9d79 ebbd 6cb3 c43d 113d db3c
00000180: 5943 793d 871e 58bd 31bf 6dbd 9d74 6c3b
00000190: b2b4 b13d ed3e dc3d 8ffa 973c 110f fe3d
000001a0: 15d3 d93d 4342 94bc 19cf 513d 140d a3bd
000001b0: eb0f 053e 52ea 003e d3bd ecbc 8861 fb3c
000001c0: b9db 9a3d 2cbf 9c3c 06fa a5bb b78e 31bd
000001d0: 52d4 053d 8a59 8d3d 3e96 b13d 3c51 f03c
000001e0: 52e1 973d 127a 783d 6bda 913d 3efe 893d
000001f0: 7b80 f6ba c47e 3b3d 9a28 b33d 03af 5bbd
00000200: 6295 d9bd 11fd 3bbd 7e5b cfbd 5437 11bb
00000210: e939 85bd b40e a5bd 0f0f 33bd 65d9 63bd
00000220: 380c 073d 70bd 9ebd db7e a33d 88fd 023e
00000230: 9902 81bd 1375 d03d c3a5 b5bd f6d6 a93b
00000240: f5fd c0bd d131 60bd 2719 e33d a877 963d
00000250: 54c5 56bd fced 053e fc76 493d fd5b c83d
00000260: fb08 693d 7853 023e 0161 09bd 624e 8cbd
00000270: 6222 afbd a303 9dbc 25f1 983d 0966 073e
00000280: 9684 a1bd 8b01 cf3a fed1 203c e66c 5cbd
00000290: 050f aa3c 6990 4f3d bb05 803d 911e 823d
000002a0: 3c90 723b 7e1e 083d 64a7 1abe 9fbd c4bd
000002b0: dbab a73c fbd1 c5bc f78f 0dbd 4fb4 253d
000002c0: 1ff9 973d cbde 8ebd ca80 7e3c 5565 ebbc
000002d0: f98d 9ebb 5c83 04bd 9fa4 ddbc d934 813d
000002e0: 45d3 0fbd 65ce 813d 28c0 37bb 6089 da3c
000002f0: 37e4 153d 919e b1bd 7503 89bd 3952 bf3d
00000300: 79d9 a1bc 41fb 5bbc 0f7e a2bd d2c4 edbc
00000310: e29b d7ba 5439 eb3c d162 ad3d 7f93 f1bc
00000320: fcea 36bd 8cde 99bd 287b 483c 3ed5 d23d
00000330: bc56 d8bd 4389 43bd 62f9 0c3c 0482 cd3d
00000340: 794c f9bb 0b80 b83d 39f3 893d 1b07 9cbd
00000350: 5903 6f3d 8fb1 393d 3981 01bd f7db c0bd
00000360: a77d e23c 3fa6 14bc 67d0 853d e21e 4c3c
00000370: a903 4fbc e5d6 01bd 5f6b 8cbc dd84 b3bd
00000380: ff3d 223d a7a1 ae3d f5b4 05be 2ddf ee3b
00000390: ac8e aabd c29c 27bb d345 203c aee3 3fbd
000003a0: 6c20 5b3d 33f3 4ebd 4d76 bf3d 1459 223d
000003b0: c043 e8bd 224f 4e3d 1387 8cbd eed5 5c3d
000003c0: bcd3 ecbd df52 413d 1266 27bd 0372 503d
000003d0: d71c aebd fd6f 6dbd f526 8fbd a8bd 1bbd
000003e0: 0c1e 97bd 08f8 b93d 473f a53d 0671 c9bc
000003f0: 5053 4c3d 4263 1f3d a420 bdbd be3c 9b3d

conv.0.bias f4 [32]
-0.069736086 0.047839664 0.007842603 0.020583425 -0.1504121 0.09358923 -0.12017386 -0.06343289
0.049892288 0.050051488 0.083757594 -0.0014175825 -0.0373223 -0.018653337 0.0044203466 0.09725298
0.01861432 0.0920038 -0.008672978 0.04730325 0.11618534 0.0054503027 0.056164738 0.12023785
-0.06513389 -0.011371635 -0.06533704 -0.057595596 0.1474237 -0.015328382 0.06198556 -0.041857716
00000000: cbd1 8ebd 86f3 433d 437e 003c 929e a83c
00000010: a105 1abe b6ab bf3d b61d f6bd 1ae9 81bd
00000020: db5b 4c3d ca02 4d3d 1a89 ab3d 2dce b9ba
00000030: 45df 18bd e2ce 98bc 8ed8 903b 922c c73d
00000040: 0f7d 983c 7d6c bc3d 1b19 0ebc 0dc1 413d
00000050: 94f2 ed3d 7498 b23b ff0c 663d 433f f63d
00000060: eb64 85bd 1850 3abc 6dcf 85bd 5ce9 6bbd
00000070: 3df6 163e e523 7bbc 92e4 7d3d ff72 2bbd

conv.2.weight f4 [32, 32, 4, 4]
0.056417294 -0.028442306 -0.01280921 0.032589532 0.051891938 -0.0065592714 -0.08916901 -0.025654899
0.023959797 -0.0013510081 -0.06820243 0.026374718 -0.041114867 -0.005309791 -0.029565096 0.047727764
0.06374633 0.042678982 -0.0031715787 0.03278944 0.096285105 0.10948764 0.010561116 -0.011187202
0.020226628 0.05702033 0.040695883 -0.019694448 -0.0006615756 -0.026444739 0.005554896 -0.02862071
-0.0016004995 0.040962406 0.023932466 0.02750216 -0.072596475 -0.040177055 -0.0021726964 -0.015750164
0.011729459 -0.08599703 0.0056559294 0.0386682 0.001272304 -0.07040862 -0.043798316 0.04138296
-0.02042696 0.027777052 0.023796529 -0.044933166 -0.018115388 0.033868913 0.0035196296 -0.011389756
0.014479925 0.008590165 -0.017990591 -0.011686852 -0.031793896 -0.016137235 -0.030163132 -0.016872987
-0.012527711 -0.0256388 0.03683969 0.0021166601 0.006422134 -0.06425606 0.006250529 -0.02425694
-0.009575044 -0.08917947 -0.02565551 0.041143768 0.016980093 -0.011230715 -0.0108451275 0.004714542
0.03298138 0.004277764 0.041251812 0.0564197 0.0043612295 0.010233539 0.045948945 -0.022148566
-0.041373298 -0.1009871 -0.019906422 -0.0041440753 0.019551754 -0.015846023 -0.014399446 0.037141234
0.031354457 0.023467898 -0.047043037 -0.032313116 0.050245617 0.02199386 -0.07852593 -0.032814268
-0.0002192605 -0.029823098 -0.023308592 0.02983291 -0.035966787 -0.00038030636 0.023762891 -0.017651534
-0.068918206 -0.021298176 0.03747849 0.010369412 -0.05023784 -0.02299377 0.010204932 -0.028909447
0.0186169 -0.04394712 -0.030163908 0.020994762 0.030769056 -0.056870244 0.015588204 -0.020569434
0.10503395 0.1083618 -0.04255516 -0.003286727 0.07634245 0.059038416 -0.03296355 -0.0020428386
-0.06538767 0.026454708 -0.040084247 -0.053750418 -0.03421397 0.06472349 0.036175575 0.054699395
0.020245532 -0.019733302 -0.08385319 0.03838127 0.03850445 -0.033354174 -0.09991095 0.04157145
0.06435489 -0.025131283 -0.08105917 0.013120787 0.05949442 0.054556083 -0.026658671 -0.029173277
-0.040614042 0.069775485 -0.005000529 0.0029334596 -0.05234567 0.07526352 0.038281657 0.016071023
-0.039796893 0.0058632563 0.06159972 0.009188964 -0.13887876 -0.089531474 0.03741996 0.016268723
-0.0074885073 -0.081042 -0.06670241 0.0020288285 -0.014564472 -0.017509205 -0.04818708 0.05205524
0.022728201 0.019819565 -0.033592474 -0.018713431 0.00094031024 0.025348084 0.012176114 -0.015634973
-0.021419765 0.0140645495 0.015270627 0.004369589 0.113157146 -0.0066755735 -0.07601553 -0.06300665
-0.03271406 -0.020691462 0.0033054228 0.0005481777 0.06407954 0.10584058 -0.05322204 -0.042046033
0.029394202 0.009887587 -0.04946761 0.042122826 4.3616372e-05 -0.035404574 -0.022261988 0.03407848
0.020999465 -0.029039303 0.023719162 0.03236731 0.0062458934 0.042833965 0.040086713 -0.0062911753
-0.029179642 0.025675964 0.011802337 0.025612632 -0.020216478 0.05470473 0.0445122 0.046076845
0.019894239 0.046732508 0.0686021 -0.0107788015 -0.06821466 -0.009533606 0.00086634484 0.0018301306
-0.011289588 -0.004418591 0.026887566 -0.017546808 0.06911771 -0.011822663 0.04644493 0.016038563
0.03909624 0.028980525 0.063769005 -0.049482815 -0.059299387 -0.042309508 -0.047875945 0.033827562
00000000: d215 673d d7ff e8bc b9dd 51bc 9a7c 053d
00000010: a48c 543d 28ef d6bb 3e9e b6bd 392a d2bc
00000020: 5647 c43c 4f14 b1ba b7ad 8bbd cb0f d83c
00000030: 1068 28bd c1fd adbb 8032 f2bc 307e 433d
00000040: 708d 823d 28d0 2e3d 43da 4fbb 384e 063d
00000050: 2031 c53d 0e3b e03d 8808 2d3c 874a 37bc
00000060: 50b2 a53c 268e 693d bab0 263d 4056 a1bc
00000070: 966d 2dba a3a2 d8bc d805 b63b fb75 eabc
00000080: dac7 d1ba 32c8 273d 050e c43c 364c e13c
00000090: 76ad 94bd b290 24bd cc63 0ebb 7d06 81bc
000000a0: eb2c 403c 361f b0bd 6055 b93b 8c62 1e3d
000000b0: 70c3 a63a 6532 90bd dd65 33bd 2e81 293d
000000c0: 7156 a7bc b38c e33c f0f0 c23c d70b 38bd
000000d0: b966 94bc 21ba 0a3d 96a9 663b 199c 3abc
000000e0: 353d 6d3c c3bd 0c3c 0161 93bc 367a 3fbc
000000f0: 513a 02bd 3c32 84bc ac18 f7bc 3839 8abc
00000100: 0741 4dbc 7608 d2bc 37e5 163d aab7 0a3b
00000110: c470 d23b ae98 83bd 3dd1 cc3b 7eb6 c6bc
00000120: a5e0 1cbc baa3 b6bd 812b d2bc 5e86 283d
00000130: d619 8b3c 0801 38bc c3af 31bc 727c 9a3b
00000140: 7c17 073d 7c2c 8c3b a9f7 283d 5818 673d
00000150: a5e8 8e3b 93aa 273c f634 3c3d e970 b5bc
00000160: 0c77 29bd 53d2 cebd cb12 a3bc 06cb 87bb
00000170: 002b a03c 85cf 81bc a7eb 6bbc 6821 183d
00000180: 886d 003d c03f c03c 33b0 40bd c25a 04bd
00000190: 59ce 4d3d 782c b43c 34d2 a0bd 4168 06bd
000001a0: 4be9 65b9 924f f4bc a9f1 bebc 2664 f43c
000001b0: e951 13bd db63 c7b9 65aa c23c f399 90bc
000001c0: fd24 8dbd 8379 aebc 0c83 193d 77e4 293c
000001d0: 31c6 4dbd 6e5d bcbc 9632 273c 81d3 ecbc
000001e0: 7882 983c e501 34bd 4d1a f7bc 35fd ab3c
000001f0: 630f fc3c c6f0 68bd ab65 7f3c 3b81 a8bc
00000200: 0a1c d73d cbec dd3d 524e 2ebd 2166 57bb
00000210: 6e59 9c3d 44d2 713d ca04 07bd 25e1 05bb
00000220: f9e9 85bd 8bb7 d83c 612f 24bd 6629 5cbd
00000230: f323 0cbd c08d 843d d72c 143d 790c 603d
00000240: f5d9 a53c bca7 a1bc 39bb abbd ae35 1d3d
00000250: d8b6 1d3d 639e 08bd 1d9e ccbd d346 2a3d
00000260: 7fcc 833d 1fe0 cdbc 5a02 a6bd 92f8 563c
00000270: 6cb0 733d 3376 5f3d 4963 dabc ccfc eebc
00000280: e95a 26bd 73e6 8e3d 7adb a3bb 493f 403b
00000290: 6a68 56bd c323 9a3d 3acd 1c3d 61a7 833c
000002a0: 1102 23bd 8f20 c03b fd4f 7c3d 4f8d 163c
000002b0: 3c36 0ebe 475c b7bd ac45 193d fc45 853c
000002c0: 2762 f5bb 59f9 a5bd 469b 88bd 18f6 043b
000002d0: d39f 6ebc 776f 8fbc d15f 45bd e037 553d
000002e0: 7e30 ba3c a45c a23c 4398 09bd e94c 99bc
000002f0: 277f 763a c9a6 cf3c 537e 473c ea14 80bc
00000300: 8178 afbc ff6e 663c a731 7a3c c52e 8f3b
00000310: efbe e73d c5be dabb 08ae 9bbd a109 81bd
00000320: 2eff 05bd 2481 a9bc cb9f 583b 95b3 0f3a
00000330: 223c 833d f2c2 d83d 5bff 59bd 7638 2cbd
00000340: 1ccc f03c 8cff 213c 8c9e 4abd fc88 2c3d
00000350: b9f0 3638 6304 11bd c65e b6bc e095 0b3d
00000360: 1207 ac3c d5e3 edbc b04e c23c 9693 043d
00000370: 5aaa cc3b ab72 2f3d f731 243d 3426 cebb
00000380: 250a efbc 6656 d23c 975e 413c 95d1 d13c
00000390: 079d a5bc 1112 603d 6d52 363d 13bb 3c3d
000003a0: 3ef9 a23c 966a 3f3d 427f 8c3d 9299 30bc
000003b0: 21b4 8bbd d732 1cbc 6b1b 633a fee0 ef3a
000003c0: f7f7 38bc d4c9 90bb 5043 dc3c 53be 8fbc
000003d0: 968d 8d3d d8b3 41bc 0a3d 3e3d 4e63 833c
000003e0: 6123 203d 9168 ed3c 5399 823d 7eae 4abd
000003f0: eae3 72bd bc4c 2dbd 9119 44bd c58e 0a3d

conv.2.bias f4 [32]
0.04174378 -0.039199874 0.037363272 0.021352947 -0.019700637 0.017206404 0.041158035 0.003012518
0.0019738476 -0.024582576 -0.015271559 0.02570398 -0.029988043 -0.016953085 0.00836741 0.010737783
-0.044992775 -0.04029885 -0.049526513 -0.0025899252 0.0353706 -0.008987118 -0.03086986 0.030319596
0.011014128 -0.024135536 -0.017493257 -0.025489697 -0.02939199 0.053941622 0.0046075447 -0.040924706
00000000: 87fb 2a3d 0c90 20bd 3b0a 193d 60ec ae3c
00000010: 3b63 a1bc 72f4 8c3c 5495 283d aa6d 453b
00000020: ab5b 013b 6661 c9bc 9035 7abc 2791 d23c
00000030: 7ca9 f5bc 32e1 8abc 7617 093c 87ed 2f3c
00000040: 584a 38bd 6810 25bd 50dc 4abd bcbb 29bb
00000050: c3e0 103d b43e 13bc cae2 fcbc cd60 f83c
00000060: 9a74 343c e3b7 c5bc 054e 8fbc c5cf d0bc
00000070: 78c7 f0bc e4f1 5c3d e3fa 963b aaa0 27bd

conv.4.weight f4 [32, 32, 3, 3]
-0.048335373 -0.029439941 0.07578682 -0.040704668 0.0837633 -0.03124329 0.052385952 -0.041360755
-0.07501445 -0.04709759 0.04233661 -0.0043830937 0.015814994 -0.031267695 -0.03326168 -0.038294613
-0.0080658225 0.011066583 0.0939153 -0.028150188 0.05266766 -0.008741637 0.041196853 -0.039209083
-0.0021096796 -0.08029922 -0.08166471 -0.03284999 -0.048672426 0.097953245 -0.020267533 0.012574361
-0.068583444 0.10999469 -0.0063072597 -0.055752903 -0.0128631275 0.021483095 -0.028475553 0.009196253
-0.05566587 -0.00372563 0.02003974 0.044717096 0.0006259532 -0.05438435 0.004875769 -0.0069377436
0.013504816 -0.028991513 -0.01459634 -0.04175173 0.043931052 0.022447957 0.02881173 0.045420527
0.1036552 -0.044244513 -0.066404685 0.03160124 0.010335977 0.03431606 -0.08750313 -0.0037552572
0.017603155 0.015353517 -0.026562592 -0.024470815 0.056969736 -0.03931908 0.03428615 -0.02330665
0.049477585 0.048964024 -0.004284465 -0.017365536 -0.04730249 -0.04720349 0.016700724 -0.010521095
-0.06524186 0.050521173 0.04055217 -0.011386962 -0.03447987 0.046155076 -0.009961089 0.018316556
-0.0040301178 -0.03484123 -0.041587815 -0.044981595 0.03767621 0.03144744 -0.0254245 0.035731584
0.0019959665 -0.033276588 -0.04000827 0.0035420882 -0.003343963 0.047803752 0.0029464115 -0.060760934
-0.02912182 -0.026358722 0.042760164 0.046962295 -0.055342115 0.01593257 -0.008711238 -0.011523988
0.029206524 0.053121462 0.018931236 0.025636846 -0.021430941 0.0028036663 0.020179225 0.014551637
-0.048975162 0.040365905 -0.0024243805 0.014202387 0.052026212 0.05056215 -0.029629825 -0.033324994
-0.043258313 0.015545262 -0.059365828 -0.006300021 -0.038943402 0.05342647 0.01854204 0.0071744896
0.042219244 0.07478992 -0.048012566 0.042593453 -0.042676948 -0.026796775 -0.08133057 0.014269197
-0.017156204 0.04572393 0.0284383 -0.039962187 -0.0041864887 0.04159154 -0.02482613 -0.002071925
0.044816677 0.025551163 0.020361766 -0.002164538 -0.02771931 -0.057685003 -0.0117418 0.05332263
-0.035452183 -0.0023093603 0.033343643 -0.058672212 0.014408212 0.046047043 0.02401446 -0.059000045
-0.024219355 0.047939513 0.03087281 0.008582714 0.039587308 -0.038868316 -0.0051006866 -0.027471574
-0.038290888 0.0007963202 0.015116026 0.025055695 0.024819182 -0.016508408 0.01864717 0.00822587
0.0660345 -0.08718475 0.019502928 -0.03684177 -0.11060735 -0.06825378 -0.036864858 0.08662946
-0.019441135 0.009946433 0.015762 0.06144305 -0.040695053 0.037327837 0.032628376 -0.038078543
0.03899498 0.034561828 -0.0052832286 0.033988126 0.015926752 -0.01764227 0.036431946 -0.026521616
-0.032982282 -0.03787365 0.053296555 0.060467824 0.030962218 0.0086358 0.0018915988 0.00866467
-0.04095078 0.00617838 -0.009846209 0.0146550145 -0.0154507 -0.04577882 0.03917007 0.0579793
-0.045979984 -0.0028806669 0.03354853 0.015805678 0.0035234133 0.026217524 -0.017778244 0.033149924
-0.026814254 -0.043372247 -0.0025016812 -0.05013374 -0.027082277 0.0066127083 0.027624315 0.027197761
-0.04051492 -0.041729376 -0.05513687 -0.020678421 -0.056634456 0.0557888 -0.048785165 0.042880505
0.04095823 -0.038730476 -0.06341644 0.007953131 0.035277087 0.0306586 0.027616862 -0.053464193
00000000: 50fb 45bd 082c f1bc 1f36 9b3d f0b9 26bd
00000010: 188c ab3d eef1 ffbc a792 563d e569 29bd
00000020: 2da1 99bd 67e9 40bd 2769 2d3d 0ea0 8fbb
00000030: 728e 813c 8e12 00bd 663d 08bd d0da 1cbd
00000040: 8326 04bc 9d50 353c aa56 c03d 399b e6bc
00000050: 0bba 573d 1539 0fbc 08be 283d b499 20bd
00000060: 8d42 0abb eb73 a4bd d43f a7bd b68d 06bd
00000070: bd5c 47bd b69b c83d 1908 a6bc b104 4e3c
00000080: 7a75 8cbd e544 e13d 21ad cebb 285d 64bd
00000090: debf 52bc 51fd af3c 9045 e9bc e1ab 163c
000000a0: e501 64bd b329 74bb 612a a43c 4629 373d
000000b0: 0217 243a 20c2 5ebd eac4 9f3b 0356 e3bb
000000c0: 4e43 5d3c 9c7f edbc 7d25 6fbc dd03 2bbd
000000d0: 0cf1 333d c7e4 b73c 9406 ec3c e00a 3a3d
000000e0: 2d49 d43d bc39 35bd 2eff 87bd 4d70 013d
000000f0: 3b58 293c ff8e 0c3d d734 b3bd c31a 76bb
00000100: 7e34 903c 518d 7b3c cb99 d9bc 0577 c8bc
00000110: 1959 693d 0b0d 21bd a26f 0c3d 96ed bebc
00000120: 02a9 4a3d 808e 483d b364 8cbb 2b42 8ebc
00000130: 41c0 41bd 7258 41bd f5cf 883c ac60 2cbc
00000140: 869d 85bd 4aef 4e3d 081a 263d 6190 3abc
00000150: c43a 0dbd 1b0d 3d3d d633 23bc 9a0c 963c
00000160: 140f 84bb adb5 0ebd fc57 2abd 9f3e 38bd
00000170: 5f52 1a3d 08cf 003d 0b47 d0bc 485b 123d
00000180: c3ce 023b 084d 08bd b6df 23bd 6122 683b
00000190: 6426 5bbb decd 433d 9518 413b 75e0 78bd
000001a0: e290 eebc 3fee d7bc 4825 2f3d 895b 403d
000001b0: 6aae 62bd 0585 823c 95b9 0ebc 1ccf 3cbc
000001c0: 8542 ef3c e495 593d ae15 9b3c 5d04 d23c
000001d0: f18f afbc b7bd 373b e74e a53c fd69 6e3c
000001e0: 2e9a 48bd b856 253d 5be2 1ebb 21b1 683c
000001f0: 7019 553d 421a 4f3d 3fba f2bc ca7f 08bd
00000200: a12f 31bd 8eb1 7e3c 9529 73bd 6870 cebb
00000210: 1e83 1fbd b7d5 5a3d 7ae5 973c fb17 eb3b
00000220: 16ee 2c3d 752b 993d d3a8 44bd 7976 2e3d
00000230: 06ce 2ebd e984 dbbc a490 a6bd 5ac9 693c
00000240: 2b8b 8cbc 0449 3b3d 70f7 e83c 64af 23bd
00000250: d02e 89bb e45b 2a3d 2b60 cbbc 22c9 07bb
00000260: b191 373d ac50 d13c b8cd a63c ecda 0dbb
00000270: 9b13 e3bc 1c47 6cbd ae60 40bc d468 5a3d
00000280: 4f36 11bd a358 17bb 5893 083d 4652 70bd
00000290: 6c10 6c3c d39b 3c3d f9b9 c43c 08aa 71bd
000002a0: ab67 c6bc 395c 443d fae8 fc3c 839e 0c3c
000002b0: 4d26 223d 6234 1fbd a923 a7bb 110c e1bc
000002c0: e8d6 1cbd 25c0 503a 35a9 773c 9a41 cd3c
000002d0: 9951 cb3c a43c 87bc f3c1 983c cdc5 063c
000002e0: 193d 873d eb8d b2bd 9bc4 9f3c 65e7 16bd
000002f0: 1b86 e2bd a3c8 8bbd 9bff 16bd c96a b13d
00000300: 0443 9fbc 5df6 223c 4f1f 813c b5ab 7b3d
00000310: dbaf 26bd 13e5 183d 55a5 053d 3ff8 1bbd
00000320: 33b9 1f3d b490 0d3d ef1e adbb 2237 0b3d
00000330: d278 823c 8686 90bc aa39 153d dc43 d9bc
00000340: 6e18 07bd 6721 1bbd 7d4d 5a3d 1cad 773d
00000350: 7aa4 fd3c 2c7d 0d3c 86ef f73a 43f6 0d3c
00000360: 01bc 27bd 0274 ca3b fe51 21bc 961b 703c
00000370: ef24 7dbc 9282 3bbd cc70 203d b47b 6d3d
00000380: 8255 3cbd 92c9 3cbb 2f6a 093d e97a 813c
00000390: 11e9 663b 22c6 d63c aea3 91bc 37c8 073d
000003a0: 91a9 dbbc 19a7 31bd 3ff3 23bb 0959 4dbd
000003b0: a7db ddbc 6baf d83b 634c e23c d7cd de3c
000003c0: f9f2 25bd 6cec 2abd 33d7 61bd cb65 a9bc
000003d0: 88f9 67bd cc82 643d f4d2 47bd 78a3 2f3d
000003e0: d1c3 273d d9a3 1ebd 7ae0 81bd d94d 023c
000003f0: b57e 103d bf27 fb3c c23c e23c 45fd 5abd

conv.4.bias f4 [32]
0.018068412 0.036967475 0.019846706 0.03592237 0.012171623 0.0021355562 0.008971768 -0.02837921
0.008110028 -0.017388282 0.013574253 -0.020674998 0.028729878 0.0058802785 -0.017387701 0.02497923
0.039686937 0.015551278 -0.0009285447 0.011194278 -0.020460825 0.0064620622 0.004231804 -0.0023899158
-0.0043199915 -0.011177813 0.02406394 0.014548545 0.016468158 -0.024278473 -0.02530849 -0.03330661
00000000: 3504 943c 356b 173d 8f95 a23c 5623 133d
00000010: 7d6b 473c b0f4 0b3b 53fe 123c 847b e8bc
00000020: ecdf 043c df71 8ebc 8b66 5e3c 9d5e a9bc
00000030: ec5a eb3c 5aaf c03b a770 8ebc 3ea1 cc3c
00000040: c58e 223d caca 7e3c 9469 73ba 3468 373c
00000050: 769d a7bc b5bf d33b f2aa 8a3b 22a0 1cbb
00000060: b78e 8dbb 2523 37bc bd21 c53c 055d 6e3c
00000070: 3be8 863c a6e3 c6bc c053 cfbc 836c 08bd

fc.weight f4 [128, 821]
-0.00028708758 -0.0389037 0.013025297 0.020554492 -0.048573133 -0.014447875 -0.04511441 0.013267365
-0.013534558 0.008909812 0.06680153 0.024958925 0.0032098817 -0.023119252 0.023933109 -0.035476424
-0.020226227 -0.00017384237 -0.011528482 0.023768501 -0.01917438 -0.015457216 -0.042316597 0.021240225
0.028212238 0.05811682 0.008975172 -0.054843783 0.018700931 -0.008001465 0.03707693 -0.0040102093
-0.009541639 0.0032488809 0.019079555 0.07253893 -0.055448752 0.05862711 -0.01742004 -0.0036954104
0.020630445 0.004607877 -0.040516518 0.02765118 0.042595275 -0.012194617 0.015115296 -0.010321422
0.07821892 0.00606639 -0.026039071 0.083212174 -0.05294443 0.0009325335 -0.010473101 -0.023523666
0.004938976 0.046718527 -0.010457191 0.06836033 -0.030656928 0.09865564 0.0032920288 -0.019243205
0.009219435 0.049717393 -0.008715793 0.03716145 0.0034569914 0.012490541 0.007901204 0.008532326
-0.03887271 0.055988014 0.0024348139 -0.054067895 0.027246138 -0.030112615 -0.010754976 0.015848331
-0.009968332 0.0022542137 0.041213203 0.040381692 0.029608043 0.04694438 -0.026940268 -0.017260984
8.427402e-05 0.03431004 0.05377163 -0.017744344 0.012158265 0.05020501 -0.08193975 -0.060410175
0.0561159 0.010692563 -0.08243812 0.020473352 -0.026103534 -0.022302812 -0.009619052 0.03913043
-0.008603823 -0.0083918 0.02972008 0.051864278 0.05809436 0.012654655 0.009908262 0.09505837
-0.019077571 -0.05701441 0.045079775 0.007277458 -0.04349853 -0.007951787 -0.029902788 -0.020775435
0.02185118 0.03710473 0.012495891 0.004315198 -0.014589256 -0.008910119 -0.0047137993 -0.019162038
0.00454715 0.011760318 0.008904688 0.04938961 -0.012978495 -0.016937325 0.027202219 -0.029803894
0.0562966 0.0070877504 -0.05795492 0.030716302 0.07993692 -0.039482787 0.06380328 -0.029114215
-0.013734703 0.045152966 0.02116695 0.014841234 -0.042942002 0.047282077 0.02767457 0.052726645
0.038003758 0.05689786 0.06613989 0.0020226543 -0.017150635 -0.022342678 -0.0026319136 -0.0025559803
-0.059922226 -0.048344962 0.0014342441 0.03498219 0.0023462547 0.0027911207 0.06374082 0.017695999
0.05160623 -0.047866814 -0.025693687 -0.011519348 0.008665592 0.0013659337 0.076977834 -0.019595958
0.030246682 -0.052566092 0.028011393 -0.03735387 0.051360056 -0.0014546663 -0.01406956 0.014695885
-0.05048912 0.005423458 0.0071772602 -0.029716369 0.005034061 0.0069160657 0.031544153 0.014711245
0.046266407 0.019001063 -0.039814178 -0.01770836 -0.012605427 -0.015828595 -0.00955225 0.045995854
-0.06215146 0.03079039 0.022339609 -0.045173023 0.03213003 0.007971878 -0.020173585 0.028929722
-0.052377064 0.024895638 -0.009481292 -0.00522826 0.033222366 -0.04145287 0.005520586 0.02246607
-0.024167558 0.04869315 0.00675367 -0.04219625 -0.08797397 0.08031906 0.011817167 0.037379526
-0.031282738 -0.022748204 -0.025787268 0.049473554 0.007798046 0.005892751 0.013984117 -0.0025372105
0.042153787 -0.021774463 -0.006949807 0.012026268 0.04569155 0.014935932 0.05024403 -0.023002142
-0.029681766 -0.016193243 0.036359813 -0.021285594 -0.021957133 0.052632537 -0.06872213 0.021873938
-0.020743776 -0.03795165 -0.11022799 0.011594566 0.006107643 -0.0039102575 0.027012104 -0.007381237
00000000: 3e84 96b9 7c59 1fbd 0e68 553c e561 a83c
00000010: 9ff4 46bd c8b6 6cbc e3c9 38bd 5d5f 593c
00000020: 0dc0 5dbc 76fa 113c 3ecf 883d a976 cc3c
00000030: e15c 523b 9664 bdbc 5e0f c43c ba4f 11bd
00000040: 79b1 a5bc 7549 36b9 f5e1 3cbc 29b6 c23c
00000050: 9713 9dbc 4340 7dbc 2b54 2dbd fbff ad3c
00000060: 5a1d e73c e70b 6e3d 9a0c 133c e0a3 60bd
00000070: b232 993c 9418 03bc fbdd 173d 1368 83bb
00000080: 8954 1cbc 2deb 543b ba4c 9c3c 4a8f 943d
00000090: 3b1e 63bd fb22 703d 79b4 8ebc b32e 72bb
000000a0: 2e01 a93c adfd 963b a6f4 25bd ba84 e23c
000000b0: 6278 2e3d eecb 47bc 25a6 773c 2e1b 29bc
000000c0: 3e31 a03d 91c8 c63b e44f d5bc 256b aa3d
000000d0: 42dc 58bd 4475 743a 5f97 2bbc b4b4 c0bc
000000e0: 22d7 a13b ed5b 3f3d a354 2bbc 8000 8c3d
000000f0: 3d24 fbbc f80b ca3d 14bf 573b eda3 9dbc
00000100: 1d0d 173c 77a4 4b3d afcc 0ebc 9b36 183d
00000110: b18e 623b 20a5 4c3c 0d74 013c 2bcb 0b3c
00000120: fe38 1fbd b053 653d 6691 1f3b 4c76 5dbd
00000130: 4b33 df3c bbae f6bc a435 30bc 5cd4 813c
00000140: 3752 23bc 6ebb 133b 2dcf 283d 4667 253d
00000150: 918c f23c c048 403d d6b1 dcbc e866 8dbc
00000160: 45bc b038 af88 0c3d a43f 5c3d 965c 91bc
00000170: 7633 473c c5a3 4d3d 07d0 a7bd a970 77bd
00000180: c9d9 653d dc2f 2f3c 51d5 a8bd bbb7 a73c
00000190: 14d7 d5bc 63b4 b6bc 3a99 1dbc 3b47 203d
000001a0: 0df7 0cbc c37d 09bc 8677 f33c a36f 543d
000001b0: 5af4 6d3d 7855 4f3c 4356 223c f6ad c23d
000001c0: 9148 9cbc f187 69bd 92a5 383d be77 ee3b
000001d0: 842b 32bd 3648 02bc b1f6 f4bc 3f31 aabc
000001e0: 3f01 b33c 21fb 173d 91bb 4c3c 8166 8d3b
000001f0: c607 6fbc bffb 11bc 3776 9abb b5f9 9cbc
00000200: 4200 953b 59ae 403c f8e4 113c c24c 4a3d
00000210: c1a3 54bc 25c0 8abc 30d7 de3c 4c27 f4bc
00000220: 4397 663d 5c40 e83b 2362 6dbd c1a0 fb3c
00000230: f8b5 a33d b4b8 21bd 4bab 823d ef80 eebc
00000240: 8507 61bc 51f2 383d 5066 ad3c a628 733c
00000250: f4e3 2fbd daaa 413d c8b5 e23c e5f7 573d
00000260: d4a9 1b3d bb0d 693d 5a74 873d 828e 043b
00000270: 7d7f 8cbc fe07 b7bc 2f7c 2cbb 3c82 27bb
00000280: 0271 75bd 5e05 46bd 3ffd bb3a 7c49 0f3d
00000290: 9fc3 193b 3ceb 363b 8c8a 823d 33f7 903c
000002a0: 0e61 533d fe0f 44bd 917b d2bc a6bb 3cbc
000002b0: 21fa 0d3c 2109 b33a 8ea6 9d3d b487 a0bc
000002c0: e4c7 f73c 8b4f 57bd 2678 e53c 5f00 19bd
000002d0: ec5e 523d 80aa beba 0384 66bc 02c7 703c
000002e0: aecd 4ebd 43b7 b13b 392f eb3b be6f f3bc
000002f0: c4f4 a43b 2aa0 e23b 7134 013d 6f07 713c
00000300: d881 3d3d 1ea8 9b3c 3114 23bd 1f11 91bc
00000310: fe86 4ebc f8aa 81bc 0a81 1cbc 2666 3c3d
00000320: 8892 7ebd 213c fc3c 8e01 b73c 5907 39bd
00000330: c79a 033d 7b9c 023c 1343 a5bc 06fe ec3c
00000340: 5589 56bd f0f1 cb3c 6c57 1bbc d351 abbb
00000350: 2d14 083d 7cca 29bd 08e6 b43b c30a b83c
00000360: 0bfb c5bc 7872 473d e44d dd3b fad5 2cbd
00000370: b22b b4bd 527e a43d ca9c 413c 461b 193d
00000380: 5422 00bd 715a babc d23f d3bc c8a4 4a3d
00000390: c086 ff3b fa17 c13b a31d 653c 5447 26bb
000003a0: 73a9 2c3d 5c60 b2bc 35bb e3bb d309 453c
000003b0: 1027 3b3d d7b5 743c afcc 4d3d fd6e bcbc
000003c0: 2d27 f3bc b1a7 84bc 07ee 143d 205f aebc
000003d0: 72df b3bc 3795 573d 30be 8cbd f930 b33c
000003e0: daee a9bc 3073 1bbd 36bf e1bd 22f7 3d3c
000003f0: 9f22 c83b 9e21 80bb 7d48 dd3c 4ede f1bb

fc.bias f4 [128]
0.048149318 0.014311871 -0.001223263 -0.028652178 -0.055061974 0.020202924 0.04246301 -0.016411262
-0.045136325 -0.0062586437 -0.046024635 -0.0100243315 -0.008938153 0.003940604 0.016448472 0.0038962783
0.023185749 0.015394065 0.004591487 -0.022665761 -0.045234006 -0.036121257 0.005249249 -0.005557821
-0.03553635 0.013036918 0.015735148 -0.014919901 -0.010923944 -0.0065263193 0.012399895 -0.049015526
0.03760616 -0.015034186 0.015870167 -0.018106515 -0.0136048915 -0.06265106 -0.047538325 -0.01935361
-0.020195477 -0.00836543 0.005876488 0.02988532 0.007575624 -0.026952835 0.016585723 0.014137795
0.03519882 -0.028160764 -0.0033037772 -0.04579745 -0.06932003 -0.014483283 0.015428204 -0.02855559
0.011934018 -0.035885092 0.00024352457 0.03455 0.007497644 -0.027192364 0.0017464211 0.015859902
0.07423925 0.010681914 -0.04778932 0.017684726 0.004497324 -0.012484191 -0.035289835 0.028080601
0.012418681 0.015665224 -0.007868259 0.033812497 0.022720115 0.028777242 0.0060590906 -0.0056258957
-0.010319647 -0.029435135 0.008003512 -0.033058308 -0.017852383 0.008673344 -0.016116384 -0.0009196545
-0.021500882 -0.037776757 -0.03973114 0.023095025 0.022576964 -0.025142984 0.017009104 0.015890215
0.008685884 0.026191084 0.018217606 0.05495789 0.048329175 -0.027731597 0.03384068 -0.01956289
0.031838488 0.017157594 -0.032674097 0.0034910103 -0.026789716 -0.03653977 -0.037728395 -0.054931227
-0.024484925 -0.010293687 -0.02919082 -0.0039743152 0.024791297 0.003764746 -0.06402422 0.0028405047
0.025015496 -0.0352897 0.0042090993 0.006572356 0.014453235 -0.018458273 -0.02754877 0.017297842
00000000: 3838 453d 567c 6a3c e555 a0ba f9b7 eabc
00000010: aa88 61bd 9a80 a53c b1ed 2d3d e970 86bc
00000020: dee0 38bd 4f15 cdbb 5484 3cbd 183d 24bc
00000030: 5571 12bc 2f20 813b f2be 863c b458 7f3b
00000040: 0af0 bd3c 6337 7c3c 2f74 963b 8cad b9bc
00000050: 4b47 39bd e2f3 13bd e401 ac3b 621e b6bb
00000060: 908e 11bd cc98 553c ffe6 803c 9a72 74bc
00000070: 58fa 32bc bcda d5bb ee28 4b3c 81c4 48bd
00000080: eb08 1a3d f251 76bc 2702 823c 1d54 94bc
00000090: 0de7 5ebc 334f 80bd 8cb7 42bd 768b 9ebc
000000a0: fc70 a5bc 280f 09bc 8e8f c03b 0fd2 f43c
000000b0: f13c f83b 31cc dcbc c8de 873c 36a2 673c
000000c0: a32c 103d 67b1 e6bc 2f84 58bb 1b96 3bbd
000000d0: a9f7 8dbd 4b4b 6dbc 94c6 7c3c 6aed e9bc
000000e0: e686 433c 3ffc 12bd a15a 7f39 4d84 0d3d
000000f0: ccae f53b 85c2 debc 2be8 e43a a0ec 813c
00000100: bf0a 983d 3203 2f3c bcbe 43bd 8fdf 903c
00000110: 4a5e 933b 7e8a 4cbc 138c 10bd 4a09 e63c
00000120: b977 4b3c 5b54 803c dfe9 00bc f97e 0a3d
00000130: 891f ba3c 40be eb3c 568b c63b 6f59 b8bb
00000140: bd13 29bc f421 f1bc 2a21 033c 2668 07bd
00000150: 293f 92bc a41a 0e3c 8206 84bc f814 71ba
00000160: 9e22 b0bc cdbb 1abd 1fbd 22bd c731 bd3c
00000170: 53f3 b83c a9f8 cdbc ad56 8b3c 322c 823c
00000180: 3d4f 0e3c af8e d63c 173d 953c 861b 613d
00000190: d0f4 453d 602d e3bc 869c 0a3d 5b42 a0bc
000001a0: 1369 023d 158e 8c3c 46d5 05bd 6fc9 643b
000001b0: 1b76 dbbc baaa 15bd 1789 1abd 91ff 60bd
000001c0: 9c94 c8bc daa6 28bc 9621 efbc f93a 82bb
000001d0: 1e17 cb3c f5b9 763b 211f 83bd c327 3a3b
000001e0: 4ced cc3c ef8b 10bd 7cec 893b eb5c d73b
000001f0: 43cd 6c3c ce35 97bc f5ad e1bc 34b4 8d3c

layers.0.weight f4 [128, 128]
0.02558812 0.022701995 0.08011741 0.12602332 0.054118752 -0.049538758 -0.09503893 0.011562156
0.04573905 -0.047039926 -0.052080993 -0.0015051259 -0.11238101 0.027357554 -0.025627809 -0.03548383
-0.015736638 0.06998132 -0.07055459 0.035799306 -0.025826719 0.08670557 0.007280201 0.07113655
0.07424934 0.051360827 0.011869195 0.09627144 -0.05622887 -0.028531767 -0.104562216 0.014798314
-0.050481234 -0.10903619 -0.017455097 0.038292363 -0.008525776 0.08414192 0.06143388 0.03941942
-0.006657096 -0.028195266 0.006843527 0.03681592 0.08760759 -0.033467084 0.031818103 0.032431826
-0.058332704 -0.058819283 -0.0692662 0.087543264 -0.105148785 0.10662913 -0.06652193 0.0019558007
-0.05601933 0.033521343 -0.025609044 0.06967808 0.010424109 -0.09157599 -0.099442594 -0.002323006
0.06318832 -0.03185775 -0.029689508 0.07762239 -0.002928067 0.0988696 0.09571398 -0.09162682
-0.06021117 -0.025373891 -0.004718735 -0.037328854 0.086541794 -0.09420921 0.019181028 0.047027033
0.03563739 -0.05721428 0.03317809 0.06477017 -0.057388563 -0.05708309 0.02065902 0.10304995
0.012715639 -0.0289446 -0.0038816745 0.0038270443 -0.08885222 0.042619295 -0.05170074 0.01874299
0.07643145 -0.060318246 -0.086520486 0.053052425 -0.075517 0.034578595 0.023910396 -0.09733353
0.0434172 -0.036583707 -0.022072226 0.020983657 0.09646057 -0.091526225 -0.014224892 0.015219756
0.013145653 -0.06814837 0.107185476 -0.08807127 0.028565397 -0.06463957 -0.004521243 -0.0668654
0.017246073 0.083782814 0.11261914 0.07299288 -0.025236767 -0.08046211 -0.0435721 -0.076853834
-0.026646875 -0.08405458 0.056026414 0.07929432 -0.010336529 0.089179486 0.05829039 -0.045956828
-0.03646012 0.041028533 -0.10754069 -0.07246236 0.0620431 -0.034772173 0.13781705 -0.0012004267
0.0044729384 0.054318212 0.0016520238 0.0014217027 0.026131641 -0.0062459535 0.018093886 -0.0067999093
-0.055911157 -0.053467482 0.07974447 0.05942656 0.015408903 0.009558547 0.04077543 -0.0719946
0.081692204 -0.058076054 -0.10771737 -0.09912414 -0.111560434 -0.115149446 0.030688306 -0.029196456
0.073905796 0.0665602 0.0491515 0.0012892246 -0.038086277 0.048467685 0.040143907 0.0350607
0.022766285 -0.092312336 -0.08414978 -0.05570035 -0.074582845 0.052767467 -0.11430348 -0.12719153
-0.044124994 0.009497447 0.008840809 0.024087373 -0.07219186 0.09772357 -0.026228664 -0.09711419
-0.0023371417 0.0612522 0.049164772 -0.06571497 0.007933947 0.049028322 -0.015315722 -0.07454375
-0.057691634 0.010233192 -0.0017682364 -0.0070488146 0.0373988 -0.03185591 -0.0018918846 0.048601042
0.0592382 0.030764068 -0.018181777 0.09160988 -0.09491401 -0.09347812 -0.14 -0.025158029
0.055151846 0.003458187 -0.05384281 0.08939323 0.030163048 -0.034369424 -0.069337316 -0.008296268
-0.012848943 -0.08285157 0.0862759 0.0013402132 0.012227524 -0.02285251 -0.072480306 -0.004451263
-0.047521595 -0.012556823 -0.070521615 -0.05419639 0.17597806 -0.059886083 -0.0010870645 -0.07629312
0.040793274 -0.04567142 0.06841471 -0.078971475 -0.017369032 0.08427883 0.02228986 0.036797363
-0.026796384 -0.05927245 0.06311477 0.009535353 0.052131776 -0.044115152 0.057513684 -0.028988782
00000000: 2d9e d13c 89f9 b93c 9914 a43d 420c 013e
00000010: a0ab 5d3d 27e9 4abd c5a3 c2bd 326f 3d3c
00000020: df58 3b3d f0ac 40bd e152 55bd a547 c5ba
00000030: 0428 e6bd f31c e03c 69f1 d1bc 7e57 11bd
00000040: 1fea 80bc 5e52 8f3d ed7e 90bd 4ba2 123d
00000050: 8e92 d3bc b192 b13d c18e ee3b 0ab0 913d
00000060: 0a10 983d bb5f 523d 0377 423c f629 c53d
00000070: 3e50 66bd 74bb e9bc b724 d6bd a174 723c
00000080: 69c5 4ebd 5e4e dfbd fefd 8ebc 74d8 1c3d
00000090: b2af 0bbc 9952 ac3d 18a2 7b3d 4276 213d
000000a0: c523 dabb c2f9 e6bc aa3f e03b 4acc 163d
000000b0: 9c6b b33d c814 09bd b353 023d 3cd7 043d
000000c0: 46ee 6ebd 7dec 70bd 70db 8dbd e249 b33d
000000d0: 3f58 d7bd 6060 da3d a63c 88bd e42c 003b
000000e0: 8674 65bd ad4d 093d 0fca d1bc 62b3 8e3d
000000f0: e2c9 2a3c 318c bbbd 8fa8 cbbd 933d 18bb
00000100: e168 813d 467d 02bd 6937 f3bc 7df8 9e3d
00000110: d0e4 3fbb 257c ca3d b105 c43d d8a6 bbbd
00000120: fd9f 76bd e8dc cfbc 9e9f 9abb 24e6 18bd
00000130: d33c b13d c2f0 c0bd 8821 9d3c 6b9f 403d
00000140: 83f8 113d 8559 6abd c0e5 073d 39a6 843d
00000150: 4510 6bbd f5cf 69bd 1b3d a93c da0b d33d
00000160: 4155 503c 3a1d edbc b163 7ebb 26cf 7a3b
00000170: 27f8 b5bd 9291 2e3d 28c4 53bd e68a 993c
00000180: 1888 9c3d 4410 77bd a731 b1bd 804d 593d
00000190: a8a8 9abd 49a2 0d3d bcdf c33c cd56 c7bd
000001a0: 3cd6 313d ccd8 15bd d0d0 b4bc ebe5 ab3c
000001b0: 1f8d c53d 1a72 bbbd 850f 69bc 495c 793c
000001c0: dd60 573c 5f91 8bbd 0f84 db3d b65e b4bd
000001d0: fb01 ea3c c061 84bd ef26 94bb baf0 88bd
000001e0: a347 8d3c 5396 ab3d dda4 e63d 4b7d 953d
000001f0: 56bd cebc 52c9 a4bd a978 32bd 8b65 9dbd
00000200: 8c4a dabc cf24 acbd f47b 653d 0f65 a23d
00000210: 8c5a 29bc bca3 b63d e7c1 6e3d 3a3d 3cbd
00000220: 3557 15bd 890d 283d 4b3e dcbd 2567 94bd
00000230: e820 7e3d 446d 0ebd ea1f 0d3e a357 9dba
00000240: ba91 923b c67c 5e3d b888 d83a 6d58 ba3a
00000250: 0612 d63c dbaa ccbb a139 943c c6d1 debb
00000260: 1903 65bd b800 5bbd 1251 a33d 4469 733d
00000270: a075 7c3c 749b 1c3c 2304 273d e871 93bd
00000280: 3e4e a73d 28e1 6dbd ed9a dcbd 9901 cbbd
00000290: cc79 e4bd 79d3 ebbd 0b66 fb3c 682d efbc
000002a0: ec5b 973d b750 883d 1553 493d 33fb a83a
000002b0: 5b00 1cbd 0d86 463d f06d 243d cf9b 0f3d
000002c0: 5c80 ba3c 400e bdbd b856 acbd 0d26 64bd
000002d0: e4be 98bd b322 583d f117 eabd 7f3e 02be
000002e0: 69bc 34bd 2e9b 1b3c 0ad9 103c e252 c53c
000002f0: 53d9 93bd 4c23 c83d 7fdd d6bc cee3 c6bd
00000300: bb2a 19bb 96e3 7a3d 0061 493d 9295 86bd
00000310: 63fd 013c ecd1 483d cbee 7abc 65aa 98bd
00000320: 104e 6cbd 1ea9 273c 2bc4 e7ba bef9 e6bb
00000330: 7c2f 193d 587b 02bd 1df9 f7ba e311 473d
00000340: c1a3 723d ed04 fc3c f3f1 94bc f69d bb3d
00000350: 4762 c2bd 7571 bfbd 295c 0fbe 3618 cebc
00000360: e7e6 613d c0a2 623b 478a 5cbd cc13 b73d
00000370: 7f18 f73c f4c6 0cbd b900 8ebd 12ed 07bc
00000380: 5f84 52bc 15ae a9bd 6bb1 b03d 18aa af3a
00000390: f455 483c 3035 bbbc 8e70 94bd e7db 91bb
000003a0: 01a6 42bd 22bb 4dbc a36d 90bd 09fd 5dbd
000003b0: 9833 343e 1c4b 75bd d57b 8eba 913f 9cbd
000003c0: d916 273d f411 3bbd 031d 8c3d ccbb a1bd
000003d0: 8049 8ebc 619a ac3d 3999 b63c d5b8 163d
000003e0: 1784 dbbc abc7 72bd 5142 813d 2b3a 1c3c
000003f0: 2188 553d 17b2 34bd 7893 6b3d e279 edbc

layers.0.bias f4 [128]
-0.025619265 -0.028903142 -0.011766129 -0.09876295 -0.110882506 0.04591223 -0.103540555 -0.01716805
-0.0862895 -0.0018839585 -0.1369972 -0.008706596 -0.06254231 -0.07110314 0.03402554 -0.03751058
0.01118091 -0.04895007 -0.09914024 -0.08472716 -0.113970645 -0.03572979 0.03975812 0.02351052
-0.06359958 0.01884397 -0.13299254 -0.016096797 -0.06411639 -0.08933111 0.0745096 -0.057028815
0.06515576 -0.074526645 0.029358372 -0.04926179 0.03264007 -0.07140649 -0.029462295 -0.10515954
0.0016054327 0.031126047 0.026488522 0.07530868 -0.04005583 0.058857523 -0.05667823 0.043564864
0.012939056 0.011049894 -0.09578991 -0.052313592 -0.11404734 0.012557915 -0.04703206 -0.07999348
-0.0024389783 0.024801131 0.0038508866 -0.063438445 0.018802913 -0.029811915 -0.04605998 0.011863322
0.04191432 -0.050219342 0.013039439 -0.008119593 0.019091224 0.0149248075 -0.051711112 -0.10603729
-0.028208934 -0.036878098 0.02742531 0.080153234 -0.017923368 0.020731293 -0.029150631 0.056233276
-0.03434709 -0.034672614 0.00051190937 -0.050493587 0.020176712 0.06975781 -0.04423319 0.04808091
0.057668798 0.008597951 -0.09937796 0.07362222 0.07612948 -0.014295595 -0.039661076 0.012953237
0.048371464 -0.09946284 0.05890774 -0.028524736 0.036852725 -0.013602163 -0.13511273 -0.038808152
-0.09504571 0.028062318 -0.09085927 0.0070722443 0.03019215 0.023727423 0.055883255 -0.06826484
-0.04400361 -0.094743416 0.008562966 -0.07074088 -0.060836717 -0.049472574 0.03835608 -0.01115593
-0.07618705 -0.056020856 0.049186304 -0.056334432 0.04566563 -0.07717376 -0.018067453 0.006430889
00000000: 7edf d1bc 48c6 ecbc b9c6 40bc 3b44 cabd
00000010: 5e16 e3bd 760e 3c3d 120d d4bd 03a4 8cbc
00000020: 8db8 b0bd 28ef f6ba fe48 0cbe 1ca6 0ebc
00000030: 2f16 80bd 869e 91bd 5d5e 0b3d b2a4 19bd
00000040: 2330 373c de7f 48bd 0a0a cbbd 6f85 adbd
00000050: 7169 e9bd 6659 12bd 69d9 223d 2299 c03c
00000060: 7f40 82bd ab5e 9a3c 322f 08be 6edd 83bc
00000070: 744f 83bd 3bf3 b6bd 7d98 983d 0c97 69bd
00000080: 6270 853d 6da1 98bd f880 f03c bbc6 49bd
00000090: 98b1 053d 913d 92bd e95a f1bc e35d d7bd
000000a0: 626d d23a 0dfc fe3c 75fe d83c 703b 9a3d
000000b0: 9511 24bd 9614 713d 6f27 68bd 1271 323d
000000c0: 56fe 533c 9d0a 353c 802d c4bd c746 56bd
000000d0: a791 e9bd b7bf 4d3c b0a4 40bd 9fd3 a3bd
000000e0: 44d7 1fbb be2b cb3c 285f 7c3b 04ec 81bd
000000f0: 9108 9a3c 1e38 f4bc 64a9 3cbd 615e 423c
00000100: 5aae 2b3d ccb2 4dbd 5fa3 553c 0b08 05bc
00000110: 3365 9c3c 2e87 743c 08cf 53bd 142a d9bd
00000120: 6c16 e7bc 7d0d 17bd 0bab e03c 6127 a43d
00000130: 07d4 92bc acd4 a93c 4ecd eebc dd54 663d
00000140: 89af 0cbd df04 0ebd a831 063a 5dd2 4ebd
00000150: a249 a53c 2fdd 8e3d dd2d 35bd 7df0 443d
00000160: 1e36 6c3d 6cde 0c3c ac86 cbbd 3fc7 963d
00000170: c6e9 9b3d 1238 6abc a773 22bd d039 543c
00000180: 2821 463d 2cb3 cbbd 3e49 713d b5ac e9bc
00000190: e2f2 163d 9bdb 5ebc fe5a 0abe 4cf5 1ebd
000001a0: 53a7 c2bd f2e2 e53c 6d14 babd 49be e73b
000001b0: 8755 f73c 0360 c23c d7e5 643d 70ce 8bbd
000001c0: 213d 34bd d608 c2bd af4b 0c3c 98e0 90bd
000001d0: ec2f 79bd c1a3 4abd 441b 1d3d 5dc7 36bc
000001e0: f507 9cbd 2076 65bd 9477 493d efbe 66bd
000001f0: e20b 3b3d 470d 9ebd 3202 94bc 35ba d23b

layers.1.weight f4 [128, 128]
-0.0049674087 -0.06610855 -0.14023195 -0.014758916 -0.07882313 -0.24987592 0.0121430755 -0.09583683
0.16586275 0.039805498 0.06159657 0.061489392 -0.13964005 -0.061390344 -0.017571535 -0.14788596
-0.115199186 0.017712558 -0.0754742 -0.007881811 -0.10675426 -0.0015431071 0.1341987 -0.18481323
0.086374834 0.043282367 0.014544861 0.13551046 -0.18226533 0.0046046274 -0.004232783 -0.13039625
-0.08943085 0.119713895 0.06992153 0.019104803 -0.005156533 0.07535532 -0.0061287386 0.035017926
0.09765702 -0.13155179 -0.083890125 0.00039933636 -0.13587695 -0.07431296 -0.105689816 -0.017992506
-0.17249295 0.09589967 0.08667708 -0.17550994 0.01620694 -0.0716294 0.1055919 0.08308534
-0.018066883 0.08527738 0.257029 -0.15600166 -0.0032667355 0.1322558 -0.15124658 -0.09492465
0.19596753 -0.19099939 -0.14055839 -0.2078223 -0.08821738 -0.103392094 -0.0002860235 0.05329687
-0.020166373 -0.037899453 0.1412998 -0.035732333 -0.08004887 0.053804044 0.09954703 0.11653724
-0.047332413 -0.08161814 -0.021122353 -0.039220843 -0.107422076 0.15075006 0.069259435 -0.16346726
0.007381647 0.006893302 -0.0056939283 0.09992188 0.024354856 0.06330114 0.0427607 0.0007785212
-0.26642227 0.11231257 -0.093220234 -0.11266442 -0.03834528 0.20307267 -0.19297528 -0.059770077
-0.03428329 0.10892786 0.093382485 0.053491328 0.07887233 0.036130603 -0.08317383 0.0056008827
-0.04690584 0.09308798 0.011819163 -0.07864106 -0.065180786 0.18386652 -0.03805639 -0.100660495
-0.055093024 0.037242103 -0.0054168836 -0.036594864 -0.15210736 -0.12719049 -0.024811434 -0.17695715
-0.120456696 -0.00635279 -0.050783135 -0.050380383 -0.114472024 0.04612905 -0.1435906 -0.052327722
-0.0062012007 0.07234208 0.09071726 0.0682548 -0.036620848 -0.0041950657 0.22031413 0.12559074
0.011935722 3.050965e-05 0.09408702 -0.072084546 -0.12573394 -0.06478863 0.20457451 -0.0025281683
-0.16307738 0.017669927 -0.019606877 0.16632234 -0.15110111 -0.05809449 -0.018100888 -0.086370096
0.08424007 -0.15889725 -0.2441121 0.12638336 0.071140796 0.2500814 -0.1344744 -0.03585946
-0.09335775 -0.00018333332 0.009785771 -0.07965542 -0.05186085 -0.09662191 0.16072708 0.028781442
-0.17159906 0.09375692 -0.0068430076 -0.15761656 0.009895601 0.061919436 -0.12428115 0.09441748
0.12071727 0.17847207 0.053302597 0.02503516 0.072946474 0.27117315 -0.08024005 -0.062088534
-0.0861941 0.1452955 -0.08672648 -0.07941116 -0.16289845 -0.17415026 -0.07502427 -0.0509545
0.10467207 0.08960729 0.02657199 0.027641784 -0.027092228 -0.026642019 -0.104362465 -0.029880116
-0.060853973 -0.031864792 -0.0809551 0.1953505 0.053813543 -0.010815408 -0.13130328 -0.060720712
0.14352463 0.026966145 -0.09826951 -0.017498298 -0.014795926 0.11691958 0.04825702 0.07110539
0.23207289 -0.16282739 0.0060071237 0.14067738 0.019063046 -0.003762078 -0.05364057 -0.11341378
-0.08546283 -0.10724042 -0.042338807 0.019081896 -0.02832242 -0.073468596 -0.115807585 -0.044439394
-0.04598089 -0.04954741 -0.08531133 0.15552695 -0.09599789 -0.049554963 -0.0858373 -0.019155808
-0.11553346 -0.059721444 -0.14189239 0.10806591 -0.25869676 -0.22432436 -0.0039125127 0.10245431
00000000: a5c5 a2bb eb63 87bd f798 0fbe 61cf 71bc
00000010: 056e a1bd 79df 7fbe c0f3 463c 1a46 c4bd
00000020: edd7 293e 170b 233d af4c 7c3d 4ddc 7b3d
00000030: cdfd 0ebe 7174 7bbd 2ef2 8fbc 6b6f 17be
00000040: 8ded ebbd ed19 913c 3892 9abd b622 01bc
00000050: faa1 dabd 1542 caba 626b 093e ae3f 3dbe
00000060: 4ae5 b03d da48 313d 924d 6e3c 41c3 0a3e
00000070: c3a3 3abe 6ae2 963b 28b3 8abb 9886 05be
00000080: 8627 b7bd 8f2c f53d 0533 8f3d ad81 9c3c
00000090: 22f8 a8bb e453 9a3d 96d3 c8bb f56e 0f3d
000000a0: 6700 c83d 83b5 06be 96ce abbd 055e d139
000000b0: 5423 0bbe 6531 98bd e773 d8bd 0565 93bc
000000c0: fea1 30be 0c67 c43d c183 b13d e1b8 33be
000000d0: 6bc4 843c 6fb2 92bd 9140 d83d a628 aa3d
000000e0: 0001 94bc e8a5 ae3d 4e99 833e e6be 1fbe
000000f0: ba16 56bb 106e 073e 62e0 1abe db67 c2bd
00000100: b6ab 483e 5895 43be 8aee 0fbe 5ecf 54be
00000110: 50ab b4bd 3cbf d3bd 6df5 95b9 d24d 5a3d
00000120: f333 a5bc 753c 1bbd e5b0 103e 115c 12bd
00000130: a9f0 a3bd a161 5c3d 50df cb3d 14ab ee3d
00000140: a2df 41bd 6927 a7bd c908 adbc 09a6 20bd
00000150: 1b00 dcbd 395e 1a3e e4d7 8d3d f663 27be
00000160: bee1 f13b 35e1 e13b 2294 babb d8a3 cc3d
00000170: d683 c73c 07a4 813d d825 2f3d ac15 4c3a
00000180: 8068 88be 2204 e63d 40ea bebd 9abc e6bd
00000190: f10f 1dbd 48f2 4f3e 509b 45be 78d1 74bd
000001a0: a36c 0cbd 9215 df3d 513f bf3d b919 5b3d
000001b0: d187 a13d affd 133d 0a57 aabd 9c87 b73b
000001c0: 5720 40bd e9a4 be3d 2aa5 413c 900e a1bd
000001d0: 817d 85bd 8147 3c3e 04e1 1bbd 1727 cebd
000001e0: 39a9 61bd 2d8b 183d 1d80 b1bb 7fe4 15bd
000001f0: 08c2 1bbe 393e 02be 5941 cbbc 4134 35be
00000200: 00b2 f6bd 112b d0bb fa01 50bd a95b 4ebd
00000210: 4f70 eabd d1f1 3c3d 6a09 13be 9855 56bd
00000220: 7133 cbbb 1628 943d f9c9 b93d 2cc9 8b3d
00000230: beff 15bd c376 89bb 079a 613e dc9a 003e
00000240: 0c8e 433c f9ee ff37 b2b0 c03d 10a1 93bd
00000250: 66c0 00be e7af 84bd fb7b 513e a0af 25bb
00000260: c2fd 26be 86c0 903c 9a9e a0bc 6750 2a3e
00000270: 40ba 1abe 7df4 6dbd 5048 94bc cee2 b0bd
00000280: 0f86 ac3d f6b5 22be 86f8 79be a46a 013e
00000290: 44b2 913d ab0a 803e a8b3 09be 5ee1 12bd
000002a0: 5932 bfbd 2a3d 40b9 8054 203c 6122 a3bd
000002b0: 0b6c 54bd b5e1 c5bd a495 243e 0fc7 eb3c
000002c0: aab7 2fbe a103 c03d 4f3b e0bb 3c66 21be
000002d0: 2921 223c 3c9f 7d3d 1e87 febd f45d c13d
000002e0: 9e3a f73d 62c1 363e d353 5a3d 8916 cd3c
000002f0: f664 953d 35d7 8a3e e554 a4bd 8c50 7ebd
00000300: 8886 b0bd 58c8 143e a79d b1bd 51a2 a2bd
00000310: dace 26be 7254 32be 53a6 99bd aab5 50bd
00000320: 4f5e d63d 0784 b73d 81ad d93c 0671 e23c
00000330: 85f0 ddbc 5d40 dabc fdbb d5bd 25c7 f4bc
00000340: 0442 79bd a884 02bd cacb a5bd f609 483e
00000350: 976b 5c3d 1c33 31bc 5e74 06be 48b6 78bd
00000360: 1ff8 123e 1be8 dc3c 8641 c9bd 9758 8fbc
00000370: 9d6a 72bc 8873 ef3d 27a9 453d b49f 913d
00000380: 84a4 6d3e 39bc 26be 68d7 c43b bb0d 103e
00000390: 1b2a 9c3c 328d 76bb 37b6 5bbd 7c45 e8bd
000003a0: 2307 afbd dea0 dbbd 756b 2dbd a351 9c3c
000003b0: 6b04 e8bc b476 96bd 872c edbd 1506 36bd
000003c0: 7556 3cbd 3af2 4abd b5b7 aebd 7542 1f3e
000003d0: 8b9a c4bd 25fa 4abd 77cb afbd a4ec 9cbc
000003e0: cf9c ecbd 799e 74bd 3d4c 11be a951 dd3d
000003f0: e773 84be 49b5 65be 8934 80bb 91d3 d13d

layers.1.bias f4 [128]
0.09100029 0.04475488 0.0859188 0.12686038 0.10104944 0.09945535 0.13006274 0.078475274
0.15443051 0.058046635 0.10639086 0.18906556 0.010954005 0.13914943 0.12252153 0.066439785
0.15845539 0.14485689 0.0847228 0.051939726 0.07670221 0.0075661833 0.031067945 0.059178904
0.14743422 0.10831536 0.14358181 0.1498155 0.124119274 0.20232886 0.08878492 0.14165151
0.13375261 0.1328124 0.085943714 0.05460657 0.037933104 0.16159095 0.056713194 0.12501533
0.0260433 0.11687148 0.08613193 0.07200869 0.13682191 0.16731288 0.03978588 0.11946684
0.051964846 0.14589988 0.1364237 0.06550437 0.06293088 0.07526108 0.0817968 0.08625286
0.0820627 0.014840269 0.014478286 0.08883679 0.078142054 0.18609175 0.05681837 0.061772663
0.10475727 0.07460613 0.041847553 0.112141944 0.10306018 0.11334748 0.14575441 0.1092048
0.06582698 0.058561187 0.06409516 0.04823108 0.069868945 0.16157497 0.024868697 0.13525996
0.16136163 0.04073335 0.050233778 0.06046329 0.060686067 0.097657956 0.11915487 0.14217834
0.13093677 0.053422198 0.13938904 0.117607854 0.16210757 -0.0032727367 0.0994476 0.16672271
0.17609793 0.06283317 0.07156609 0.038776826 0.15395078 0.11252861 0.181908 0.16781367
0.16454732 0.047816753 0.14532742 0.17458837 0.037072387 0.10950397 0.03188536 0.08755624
0.033316575 0.028541243 0.05837447 0.13904732 0.118309096 0.12603952 0.10783083 0.024812307
0.07605025 0.16468775 0.17078838 0.11300765 0.11381347 0.13356954 0.068326086 0.15945715
00000000: 5c5e ba3d e550 373d 32f6 af3d b0e7 013e
00000010: 02f3 ce3d 3faf cb3d 2b2f 053e a5b7 a03d
00000020: 0823 1e3e 4fc2 6d3d 74e3 d93d 679a 413e
00000030: 6d78 333c 307d 0e3e 91ec fa3d 9511 883d
00000040: 2142 223e 5d55 143e 2683 ad3d c0be 543d
00000050: 0c16 9d3d bfed f73b 3482 fe3c 9465 723d
00000060: fff8 163e 72d4 dd3d 1c07 133e 3c69 193e
00000070: 3f32 fe3d 4c2f 4f3e ded4 b53d 180d 113e
00000080: 72f6 083e f9ff 073e 4203 b03d 24ab 5f3d
00000090: be5f 1b3d 1978 253e 184c 683d 0504 003e
000000a0: c258 d53c 515a ef3d f065 b03d 4b79 933d
000000b0: 0b1b 0c3e 1154 2b3e 85f6 223d 08ab f43d
000000c0: 17d9 543d c766 153e a8b2 0b3e 2827 863d
000000d0: e8e1 803d 7b22 9a3d 1585 a73d 57a5 b03d
000000e0: 7d10 a83d 9a24 733c 5536 6d3c 10f0 b53d
000000f0: f108 a03d d68e 3e3e 61ba 683d 5505 7d3d
00000100: fb8a d63d 19cb 983d 5768 2b3d adaa e53d
00000110: 3711 d33d b922 e83d a540 153e c4a6 df3d
00000120: 4cd0 863d dbdd 6f3d 5344 833d f48d 453d
00000130: 7317 8f3d e973 253e 70b9 cb3c 9681 0a3e
00000140: fc3b 253e 03d8 263d efc1 4d3d 5ba8 773d
00000150: f491 783d e500 c83d 7807 f43d 3397 113e
00000160: 4a14 063e 3cd1 5a3d 00bc 0e3e 63dc f03d
00000170: 87ff 253e 697b 56bb 2fab cb3d 5cb9 2a3e
00000180: 0453 343e adae 803d 3e91 923d 73d4 1e3d
00000190: 46a5 1d3e 6675 e63d 1746 3a3e 59d7 2b3e
000001a0: 187f 283e 80db 433d b6d0 143e 4bc7 323e
000001b0: 37d9 173d 9e43 e03d 399a 023d b050 b33d
000001c0: f676 083d 53cf e93c 111a 6f3d 6c62 0e3e
000001d0: 0a4c f23d 8110 013e 69d6 dc3d 2e43 cb3c
000001e0: 3cc0 9b3d e8a3 283e 26e3 2e3e 8e70 e73d
000001f0: 0917 e93d 74c6 083e 8cee 8b3d bc48 233e
