DDPG/savedModels/argetActor.pth.tar (torch, 677695 bytes, 18 tensors)

conv.0.weight f4 [32, 3, 5, 5]
0	0x3d241a7a	0.040064313
1	0x3cbc9106	0.023018371
2	0xbd2564c0	-0.040379286
3	0xbd944ff8	-0.07241815
4	0x3cde7fde	0.027160581
5	0x3daddc49	0.08489282
6	0xbcb693a6	-0.022287201
7	0x3dc1b9bb	0.094592534
8	0xbab637ca	-0.0013902124
9	0x3da6117b	0.08108803
10	0xb96768ee	-0.00022068966
11	0xbdae0399	-0.0849678
12	0xbd2ab86c	-0.041679785
13	0xbbc19c2c	-0.0059085097
14	0x3cd61fda	0.026138235
15	0x3d6ce644	0.057836786
16	0xbd375ef3	-0.044768285
17	0xbdbee2a4	-0.09320572
18	0xbdea6dcb	-0.114467226
19	0xbde29287	-0.11063104
20	0xbd2fe4b6	-0.042942725
21	0x3dbcb7b8	0.09214729
22	0xbdc29182	-0.0950041
23	0x3cab3ea8	0.0209039
24	0xbd958635	-0.073009886
25	0xbde18dff	-0.11013412
26	0x3d7acb4d	0.06122904
27	0xbc87ae54	-0.016562618
28	0xbc875d17	-0.01652388
29	0xbc7c38c1	-0.015394391
30	0x3d01b220	0.031664014
31	0x3d7f6d9f	0.062360402
32	0xbd962881	-0.07331944
33	0xbd2422b1	-0.040072147
34	0xbd0575c5	-0.032583017
35	0xbcfbb4f4	-0.030725934
36	0x3dd20a5e	0.10255884
37	0xbd02a61e	-0.031896703
38	0x3cdc9295	0.026925365
39	0x3d6b27e0	0.057411075
40	0xbdd4f7c2	-0.103988186
41	0xbdc5533c	-0.09635016
42	0x3d12839d	0.035770047
43	0x3d5069f9	0.050882313
44	0x3d6bf5d3	0.057607483
45	0x3daa0ba0	0.083029985
46	0x3d6c8a1c	0.0577489
47	0xbd701ba7	-0.05862012
48	0x3dea432a	0.11438592
49	0xbd9e2654	-0.07722154
50	0x3dcb1494	0.09916034
51	0x3ba1e706	0.00494087
52	0x3dd6dc8f	0.10491287
53	0xbd9bbfbe	-0.07604931
54	0xbdb549b7	-0.088519506
55	0xbce25443	-0.02762807
56	0x3cb1a040	0.021682858
57	0x3de4bca1	0.111687906
58	0x3cc5ddb1	0.024153562
59	0x3ca951a7	0.020668818
60	0xbcc272a4	-0.023736306
61	0x3cf47cea	0.02984472
62	0xbdd3fbd4	-0.10350767
63	0x3c8a8b56	0.016912144
64	0x3dca9a94	0.09892765
65	0xbc7cafb2	-0.015422748
66	0x3dcc96d1	0.099897034
67	0x3d9bae5d	0.076016165
68	0x3c9c1b8f	0.01905611
69	0xbcc04508	-0.023470417
70	0xbd7a4a8a	-0.061106242
71	0x3dd2a1b6	0.1028475
72	0xbd81b74d	-0.0633379
73	0x3d52a598	0.051427454
74	0xbd9e8b93	-0.077414654
75	0xbddcc2ef	-0.10779368
76	0xbda4610d	-0.080263235
77	0x3db5a289	0.08868892
78	0x3d165019	0.03669748
79	0xbddd7cc9	-0.108148165
80	0x3ce1ca75	0.02756236
81	0xbd1d05f8	-0.03833577
82	0x3d3bf6e1	0.04588974
83	0xbda10d47	-0.078638606
84	0x3d80fd6e	0.06298338
85	0xbd6256ad	-0.05525844
86	0xbca0c480	-0.019624949
87	0xbce1d45d	-0.027567083
88	0x3b5c2aaf	0.0033594777
89	0xbde05f4a	-0.10955675
90	0x3c87661a	0.016528178
91	0x3db878f5	0.09007446
92	0xbd09d768	-0.033652693
93	0xbd44c096	-0.048035227
94	0xbd14377c	-0.036185727
95	0x3d95469d	0.07288859
96	0x3d9e4a39	0.077290006
97	0x3cf56460	0.02995509
98	0xbcb485e6	-0.022036504
99	0xbd1ea5e3	-0.03873242
100	0xbd7df81c	-0.062004194
101	0xbd2f3498	-0.042774767
102	0x3de06ff1	0.10958851
103	0xbdcbbfc1	-0.099486835
104	0x3d047aae	0.03234356
105	0x3c362172	0.011116372
106	0xbc3bd9be	-0.011465488
107	0x3dbba0ec	0.09161553
108	0x3d63d88c	0.055626437
109	0x3d939e93	0.0720798
110	0xbd2433d3	-0.040088486
111	0x3d31690f	0.043313082
112	0xbd8a61fc	-0.0675697
113	0x3d4c71d4	0.049913242
114	0xbc62874c	-0.013826203
115	0x3de14623	0.10999706
116	0x3dce5136	0.100740835
117	0xbd4a8427	-0.049442437
118	0x3cfcc74a	0.030856747
119	0xbd0cd1b3	-0.034379672
120	0xbce6122e	-0.02808484
121	0xbdb7707f	-0.08957004
122	0xbca164ce	-0.019701388
123	0x3cdec414	0.027193107
124	0xbd78c500	-0.06073475
125	0x3da498b1	0.08036936
126	0xbdd75b3d	-0.10515449
127	0x3d58097f	0.05274343
128	0x39c32c9b	0.00037226532
129	0x3dd88145	0.10571531
130	0xbd98615b	-0.07440444
131	0x3b0f674b	0.0021881636
132	0xbdb72a99	-0.08943672
133	0xbda6d2e6	-0.081456944
134	0x3d6f1bde	0.058376186
135	0x3c3c4ff2	0.01149367
136	0xbdbbecf1	-0.09176052
137	0xbdd3ada6	-0.10335855
138	0x3dde7597	0.10862272
139	0xbd868b79	-0.06569571
140	0x3d7355bb	0.05940793
141	0x3db88b6c	0.090109676
142	0x3dd964cf	0.10614931
143	0x3db0f2e0	0.08640075
144	0xbc85a261	-0.01631278
145	0x3dbd6b1f	0.09248947
146	0x3da35297	0.07974737
147	0x3d7902f7	0.060793843
148	0x3b77c5fe	0.0037807222
149	0xbdd9f1b2	-0.10641803
150	0x3dd8518a	0.10562427
151	0xbdb8768b	-0.09006985
152	0x3dc81eb6	0.09771483
153	0x3c7d71e9	0.015469053
154	0x3d9a5e4b	0.07537516
155	0x3d6e010b	0.058106463
156	0x3dd11e91	0.10210908
157	0x3c8a728c	0.016900323
158	0x3c2908d1	0.010317043
159	0x3d670d70	0.0564093
160	0xbd7de2b0	-0.061983764
161	0xbd81f2f5	-0.063451685
162	0x3d28c2a9	0.041201267
163	0xbd67736a	-0.05650655
164	0x3dc137bf	0.09434461
165	0xbc29f122	-0.010372432
166	0x3c553a46	0.013014382
167	0x3d9fdaa3	0.078053735
168	0xbdca0fe3	-0.098663114
169	0x3d55f429	0.052234802
170	0x3c1596dd	0.009130207
171	0x3dbd0eab	0.09231313
172	0x3daaa72d	0.083326675
173	0xbda298bd	-0.07939289
174	0xbcade704	-0.02122832
175	0x3db26e03	0.08712389
176	0xbc92ff35	-0.017943958
177	0xbcb8432a	-0.022492964
178	0x3ca91974	0.02064202
179	0x3dde8ce7	0.10866719
180	0x3d5edb32	0.05440826
181	0x3ddcaba1	0.10774923
182	0x3da78945	0.08180479
183	0x3d9782ea	0.07398017
184	0xbd0ed769	-0.0348734
185	0x3d660c84	0.05616428
186	0x3c878b76	0.016545992
187	0x3dbd287b	0.09236237
188	0x3d6225bd	0.05521177
189	0x3c4d23c2	0.012520732
190	0xbd51bdb1	-0.051206294
191	0x3cf9577b	0.030437222
192	0x3d8ebd12	0.06969656
193	0x3dd95414	0.1061174
194	0xbdab0ed7	-0.0835244
195	0xbc2e84e1	-0.010651798
196	0x3cc8d1d3	0.024514114
197	0x3dc960b9	0.098329015
198	0xbced2b60	-0.028951347
199	0x3cb2dacd	0.021832848
200	0x3ca574de	0.020197328
201	0x3d35f0da	0.044419147
202	0xbdb06de5	-0.08614711
203	0x3dcc1bc1	0.09966231
204	0xbd8ebac1	-0.06969214
205	0xbb89785e	-0.004195257
206	0xbde7aab2	-0.113118544
207	0x3d6c8522	0.057744153
208	0xbd2eaf1e	-0.042647474
209	0xbc306cd3	-0.010768133
210	0x3dc81965	0.097704686
211	0xbd6db5c2	-0.058034666
212	0x3d7d5deb	0.061857145
213	0x3d63bee5	0.055601973
214	0x3d671822	0.0564195
215	0xbd3463e6	-0.044040583
216	0xbde3af24	-0.1111739
217	0x3cdefade	0.027219232
218	0x3d372417	0.044712152
219	0x3cca7cbc	0.024717681
220	0xbd6acca7	-0.057324078
221	0xbdec7961	-0.11546589
222	0xbdd4efac	-0.10397276
223	0xbddcd04a	-0.107819155
224	0x3db4e21f	0.08832192
225	0xbd8189aa	-0.063250855
226	0x3c4a47b5	0.012346198
227	0xbc21a588	-0.009866126
228	0x3d055c6c	0.032558843
229	0x3b5e1258	0.0033885445
230	0xbda5467e	-0.08070086
231	0x3d573859	0.05254397
232	0xbda5e39c	-0.08100054
233	0x3d318f69	0.043349657
234	0xbdda9bf4	-0.10674277
235	0xbd3ae23f	-0.04562592
236	0xbd650d7b	-0.05592106
237	0x3d627960	0.055291533
238	0x3d2e9bbc	0.04262899
239	0x3d9e5997	0.07731932
240	0xba967ec0	-0.0011481866
241	0x3d293858	0.0413135
242	0xbb02eee0	-0.0019978806
243	0x3d816f88	0.06320101
244	0xbd1cecfc	-0.038311943
245	0xbd7353d2	-0.05940611
246	0xbd3c185e	-0.045921676
247	0x3d6b60e4	0.05746545
248	0xbce60119	-0.028076695
249	0xbdeaf8ac	-0.11473212
250	0xbd0f06a4	-0.034918442
251	0x3cc5d348	0.024148598
252	0xbd4b059e	-0.049565904
253	0x3d0eca70	0.03486103
254	0x3dc8da88	0.098073065
255	0x3dbea594	0.09308925

conv.0.bias f4 [32]
0	0xbd548946	-0.051888727
1	0x3d898819	0.06715412
2	0xbda46d9d	-0.080287196
3	0xbd018bf4	-0.03162761
4	0x3da262e9	0.07929022
5	0xbd8b07fe	-0.06788634
6	0x3de42e25	0.11141614
7	0x3d852cd4	0.06502691
8	0x3d0f2f5b	0.03495727
9	0x3c9e7c17	0.01934628
10	0x3c013a05	0.007887368
11	0x3dde35e2	0.10850121
12	0xbd82ca03	-0.06386187
13	0x3de8f7b1	0.113753684
14	0xbda053e0	-0.07828498
15	0xbda0b716	-0.07847421
16	0xbafa1af6	-0.0019081521
17	0xbb875e92	-0.0041311467
18	0xbdd8a6d1	-0.10578693
19	0x3c81923e	0.015816804
20	0xbaa30ba8	-0.0012439387
21	0x3d12f77b	0.035880547
22	0xbde88616	-0.113537
23	0xbd60a978	-0.054849118
24	0x3ca75592	0.020426545
25	0x3c8621fa	0.016373623
26	0x3d49b69a	0.049246408
27	0x3d98f27d	0.07468126
28	0x3cfd11fe	0.030892368
29	0x3d02977c	0.031882748
30	0xbd928167	-0.07153588
31	0xbd679052	-0.05653412

conv.2.weight f4 [32, 32, 4, 4]
0	0xbcc4eb97	-0.02403812
1	0xbc94e711	-0.018176587
2	0xbc8f5abf	-0.017499326
3	0xbd0d516e	-0.034501486
4	0xbd3295f3	-0.043600034
5	0x3c902e12	0.017600093
6	0x3c876a0d	0.016530061
7	0x3d34e97f	0.04416799
8	0xbbb5b5e8	-0.0055453666
9	0xbcd098e2	-0.025463525
10	0xbb5bc682	-0.0033535068
11	0xbb59ca10	-0.003323201
12	0xbc0797f9	-0.008275979
13	0xbbaa9235	-0.0052054175
14	0xbb2078c9	-0.0024486056
15	0xbd0a80ae	-0.033814125
16	0xbcecfa06	-0.028927814
17	0x3cfd9295	0.030953685
18	0xbcbfdba9	-0.023420172
19	0x3d0e7283	0.034777176
20	0x3d2ef2b5	0.042711932
21	0x3c13af9d	0.009014037
22	0x3d2794a4	0.04091324
23	0xbd0bb212	-0.034105368
24	0x3d34e839	0.044166777
25	0x3b8cf9af	0.0043022255
26	0x3cce0cde	0.02515262
27	0xbd019d08	-0.031643897
28	0xbccdfdf8	-0.025145516
29	0x3bb1904f	0.0054188143
30	0xbcb2ac4d	-0.021810675
31	0xbcc05520	-0.02347809
32	0x3d2187ba	0.03943608
33	0x3d157163	0.036485087
34	0xbd23df96	-0.04000815
35	0xbb2aa358	-0.0026037302
36	0x3d1cee1f	0.038313027
37	0x3ceae305	0.028672704
38	0xbcc8b5a4	-0.024500675
39	0xbac4f4b6	-0.0015026543
40	0xbc3ecc1e	-0.011645345
41	0x3d13a27e	0.036043637
42	0xbc8a1d3f	-0.016859649
43	0xbcdbcf40	-0.026832223
44	0x3c67cc41	0.014147819
45	0xbc3459be	-0.011007724
46	0xb9b6d606	-0.00034873205
47	0x3c954881	0.01822305
48	0xbc653594	-0.013989825
49	0x3ca5a722	0.020221297
50	0x3d2bb9f1	0.041925374
51	0xbd1715aa	-0.036885895
52	0x3ced709a	0.028984357
53	0xbbf35fe0	-0.0074272007
54	0x3d12c545	0.035832662
55	0x3d28a7ad	0.041175533
56	0x3ca074da	0.01958697
57	0x3d1fefe3	0.039047133
58	0xbca5ca8c	-0.020238183
59	0xbc13c691	-0.00901951
60	0xbc9d399c	-0.01919251
61	0xbc5de24e	-0.013542725
62	0xbd052e13	-0.032514643
63	0xbd15b575	-0.036550004
64	0xbcaaaa61	-0.020833196
65	0xbccdcbf7	-0.025121672
66	0x3d1ff668	0.03905335
67	0x3d014451	0.031559292
68	0x3c24e1af	0.010063573
69	0x3d2842b4	0.041079238
70	0xbcbc3564	-0.022974677
71	0xbc37fb92	-0.011229413
72	0x3cd397c0	0.025829196
73	0xbd1675dc	-0.036733493
74	0x3cc2fdf6	0.023802739
75	0xbc80dff9	-0.015731798
76	0x3c401efb	0.011726136
77	0x3d0f72b8	0.035021514
78	0xbd159be4	-0.036525622
79	0x3c5dbcc2	0.013533773
80	0xbd16d1ac	-0.036821052
81	0x3c91c647	0.017794741
82	0x3cedc626	0.029025149
83	0xbd27d468	-0.04097405
84	0xbc81248c	-0.015764497
85	0x3d15230e	0.036410384
86	0x3b9916a9	0.0046718908
87	0x3c0ae1c0	0.008476675
88	0xbcee5d2d	-0.029097164
89	0xbca141ed	-0.019684756
90	0x3d0a5ac8	0.033777982
91	0xbc42cb30	-0.011889264
92	0x3c9c1ef6	0.019057732
93	0xbced51d0	-0.028969675
94	0x3d157cf4	0.036496118
95	0x3d0d4989	0.034493957
96	0x3ca13772	0.019679759
97	0xbba86fb9	-0.0051402715
98	0xbbf3a208	-0.007435087
99	0xbaae7b6b	-0.0013311928
100	0x3d0cfdf6	0.034421884
101	0x3c4680aa	0.012115637
102	0xbcb8a4dc	-0.022539549
103	0x3c6ce6c4	0.014459316
104	0xbd180748	-0.03711632
105	0xbd14a8a0	-0.036293626
106	0x3cd91fb9	0.026504384
107	0x3d16e013	0.036834788
108	0xbb6489f8	-0.0034872275
109	0xba0dae3f	-0.0005404688
110	0xbd16187f	-0.036644455
111	0x39b5f8c6	0.0003470836
112	0xbd1c5201	-0.038164143
113	0x3d148e9c	0.036268815
114	0x3ca89c74	0.020582415
115	0x3d122b46	0.0356858
116	0x3d142a8f	0.0361734
117	0xbd217b5f	-0.039424296
118	0x3d1ef815	0.03881081
119	0x3c31fbe1	0.010863275
120	0xbd006612	-0.03134734
121	0x3bbc5090	0.0057469085
122	0x3a75d888	0.0009378274
123	0xbd0f9a2a	-0.03505913
124	0xbcd56ce1	-0.026052894
125	0x3a9b5110	0.001184972
126	0x3d21c991	0.03949887
127	0xbc64d024	-0.01396564
128	0xbd323656	-0.04350885
129	0x3d30d1be	0.043168776
130	0xbce49c53	-0.027906572
131	0xba04e35e	-0.0005069281
132	0xba99576f	-0.0011699031
133	0x3c507811	0.012723939
134	0x3cae70b5	0.021293977
135	0x3d04567a	0.032309033
136	0xbc8fa883	-0.017536407
137	0xbadce9c9	-0.0016854341
138	0xbc6a7cd6	-0.01431199
139	0xbcda1cb1	-0.02662501
140	0x3c0a9c0c	0.008460056
141	0xbc981bff	-0.018568037
142	0xbc3734e2	-0.011182042
143	0xbc492d09	-0.012278804
144	0x3d2a8435	0.04162999
145	0xbb807495	-0.0039201477
146	0x3d195cf4	0.037442163
147	0x3cc1e381	0.023668053
148	0xbc5fea99	-0.013666772
149	0xbbd373fd	-0.006453036
150	0xbcb34909	-0.021885412
151	0xba2b2d23	-0.0006529858
152	0x39ccdf7a	0.00039076415
153	0xbc9182cf	-0.01776257
154	0xbca82923	-0.020527428
155	0xb9bb165f	-0.00035684087
156	0xbbd52bc9	-0.0065054637
157	0xbc0c4ba3	-0.008562955
158	0x3c8c1549	0.017099993
159	0xbce1ca2c	-0.027562223
160	0x3d19fb32	0.037593074
161	0xbbca886c	-0.0061808135
162	0xbbaa8826	-0.0052042184
163	0xbcdbd4d6	-0.026834887
164	0xbcb5a59d	-0.022173697
165	0x3ce889ba	0.028385986
166	0x3c6fe529	0.014642038
167	0x3b41ae20	0.002955325
168	0xbc633a44	-0.013868872
169	0x3cb2caad	0.021825159
170	0x3d04a3ef	0.0323829
171	0xbc1d89c4	-0.009615365
172	0xbd1032db	-0.03520475
173	0x3c6fd8c8	0.014639087
174	0x3ccbde63	0.024886316
175	0x3d0fcfc9	0.03511027
176	0xbbdb5e2c	-0.006694576
177	0x3d2056a3	0.039145123
178	0x3c83091e	0.015995558
179	0xbcc3face	-0.023923304
180	0x386d04d8	5.6509714e-05
181	0x3d2871c3	0.041124117
182	0xbbd05be6	-0.0063586114
183	0xbc16b606	-0.009198671
184	0xbd1028ee	-0.035195284
185	0xbc5fc162	-0.013656946
186	0x3ce63591	0.028101714
187	0xbb6c42b2	-0.0036050496
188	0xbd3058dc	-0.043053493
189	0xbaa8fb21	-0.0012892225
190	0x3cef8b8b	0.029241344
191	0x3b27a58b	0.002558085
192	0xbc8a479f	-0.016879855
193	0x3cae95c7	0.021311654
194	0xbd0407a4	-0.03223385
195	0xbd0d2a7c	-0.034464344
196	0x3cc75b12	0.024335418
197	0x3d0a9b34	0.03383942
198	0x3c8cc871	0.017185422
199	0xbcf102c4	-0.029420264
200	0xbd1a89f6	-0.037729226
201	0xbc014b76	-0.007891526
202	0x3bfc1430	0.007692836
203	0xbd1030ca	-0.03520278
204	0xbbb60fed	-0.0055560977
205	0x3cebb3b2	0.028772209
206	0x3caf5bad	0.02140602
207	0xbb44aa34	-0.0030008676
208	0x3d139240	0.036028147
209	0xbc46c7dc	-0.012132611
210	0x3c454f0c	0.012042772
211	0xbcda88c0	-0.026676536
212	0x3d0b6157	0.034028377
213	0xbd06eab4	-0.032938674
214	0xbd0a8a0c	-0.033823058
215	0xbc783098	-0.015148304
216	0x3d0e0f3b	0.034682494
217	0x3d3062e1	0.04306305
218	0xbd304a0d	-0.04303937
219	0x3d065da3	0.032804143
220	0xbccb8519	-0.02484374
221	0xbcf959a8	-0.03043826
222	0xbcd45b05	-0.025922308
223	0xbd2afe05	-0.04174616
224	0xbceaa81b	-0.028644612
225	0x3bccf485	0.006254735
226	0xbcb1bbb4	-0.02169595
227	0x3c2aaf77	0.010417811
228	0xbcff0858	-0.031131908
229	0x3d345910	0.04403025
230	0x3d2365a4	0.039891854
231	0xbd134fcd	-0.035964776
232	0x3ba286df	0.0049599255
233	0xbb024302	-0.0019876366
234	0xbceee873	-0.029163575
235	0x3c0fbec0	0.008773506
236	0xbcac9805	-0.021068582
237	0xbc911180	-0.01770854
238	0x3b9c52e6	0.0047706245
239	0xbcf94e02	-0.030432705
240	0xbc83a34b	-0.016069075
241	0x3a869b45	0.0010269663
242	0xbd06f952	-0.032952614
243	0xbcad786d	-0.021175588
244	0x3d2ce05e	0.04220616
245	0xbc941a86	-0.018079054
246	0xbcc9c63e	-0.024630662
247	0x3d279f1b	0.04092322
248	0xbd24bf4f	-0.04022151
249	0x3bf0d685	0.0073497915
250	0x3d1eed52	0.038800545
251	0xbd09d9a8	-0.03365484
252	0xbd104b6d	-0.03522818
253	0xbb96148d	-0.0045800866
254	0x3b0cdb6c	0.002149309
255	0x3a1e8072	0.00060463615

conv.2.bias f4 [32]
0	0xbb06a9d8	-0.0020548012
1	0x3d327251	0.043566052
2	0xbca1703a	-0.019706834
3	0x3ceb470d	0.028720403
4	0x3abc756e	0.0014378258
5	0x3cc56a24	0.024098463
6	0x3c9887fe	0.018619534
7	0xbd0cc4b0	-0.034367263
8	0x3cb255f9	0.02176951
9	0x3d0a3a89	0.03374723
10	0xba43faf7	-0.00074760563
11	0xbc7baabb	-0.01536053
12	0x3d2e9ed8	0.042631954
13	0x3d1d38e3	0.03838433
14	0x3cd51fba	0.026016105
15	0xbc8c3b62	-0.01711816
16	0x3cefce72	0.029273245
17	0xbbdc141a	-0.0067162635
18	0xbb59ea40	-0.0033251196
19	0xbcfc1cb4	-0.030775405
20	0x3b91db23	0.004451172
21	0xbbf347df	-0.007424339
22	0xbc91ce57	-0.017798586
23	0xbc660e6c	-0.014041524
24	0xbd1d09ef	-0.03833955
25	0x3a1c97f4	0.00059735705
26	0xbc493271	-0.012280093
27	0x3bfa0cc0	0.0076309144
28	0x3cc6445b	0.024202516
29	0x3b09389f	0.002093829
30	0xbd0a643e	-0.033787005
31	0x3ba8c1de	0.005150064

conv.4.weight f4 [32, 32, 3, 3]
0	0xbbb81535	-0.0056177625
1	0x3d1878ad	0.03722446
2	0xbd330ff1	-0.043716375
3	0xbd281a2c	-0.041040584
4	0xbc7f3b01	-0.0155780325
5	0x3d0e03dd	0.034671653
6	0x3d6892fb	0.056780796
7	0xbbf1754c	-0.007368719
8	0x3d33bce5	0.043881316
9	0x3d06808a	0.03283743
10	0x3d3faeb6	0.046797477
11	0x3d23b3b5	0.039966304
12	0x3aa3df9a	0.0012502552
13	0x3d69ff52	0.057128258
14	0x3c4eba4e	0.012617661
15	0x3d6043be	0.054752104
16	0x3d382d37	0.044964995
17	0xbb34fd32	-0.0027616736
18	0xbca1a282	-0.01973081
19	0x3bcd1f6f	0.0062598507
20	0x3c42add5	0.011882265
21	0x3cc87b29	0.02447279
22	0x3d1de13e	0.038544886
23	0xbd6a98bc	-0.057274565
24	0xbd46ed96	-0.048566423
25	0x3aaf5f33	0.0013379812
26	0xbd0d132b	-0.034442108
27	0xbbdb8e22	-0.006700293
28	0xbd388510	-0.045048773
29	0xbd2df49f	-0.042469617
30	0x39df4bce	0.00042590353
31	0xbd2e917a	-0.042619206
32	0x3d53a73c	0.05167316
33	0xbd69636e	-0.05697959
34	0xbd064982	-0.032784946
35	0xba4d504b	-0.0007832094
36	0x3c24cbea	0.0100583825
37	0xbd2e1e5b	-0.042509418
38	0x3aa9e023	0.0012960475
39	0xbd4773d5	-0.04869445
40	0xbd4e93d0	-0.050433934
41	0x3d3eee33	0.046613883
42	0xbd2e60e6	-0.04257288
43	0xbd1df3fd	-0.038562763
44	0x3d135432	0.035968967
45	0xbc9cbfc4	-0.01913441
46	0xbbe7f6a1	-0.007078961
47	0xbc8a0009	-0.01684572
48	0x3bc47a04	0.0059959907
49	0x3d237ec3	0.03991581
50	0x3d0caee2	0.03434647
51	0xbd508483	-0.050907623
52	0x3baa8846	0.0052042333
53	0xbcf184a2	-0.02948219
54	0x3d3870af	0.04502934
55	0xbbed0f38	-0.00723448
56	0x3d25898d	0.04041438
57	0xbd1deb2c	-0.038554356
58	0xbd62ffb4	-0.05541964
59	0x3d251f6f	0.04031318
60	0x3d10ed39	0.035382483
61	0xbba743c8	-0.0051045157
62	0x3c1c4bfc	0.0095396
63	0xbc776ede	-0.015102116
64	0xbd37fae6	-0.04491701
65	0xbcfd7e32	-0.030943964
66	0x3d1fd85a	0.03902469
67	0x3c93b5c2	0.018031005
68	0x3cd7836d	0.026307786
69	0x3d06a348	0.03287056
70	0xbc13dd65	-0.009024953
71	0x3d67797b	0.056512337
72	0x3954dcdd	0.00020300173
73	0x3c90836c	0.017640792
74	0xbd69ae1d	-0.057050813
75	0x3c96c827	0.018405987
76	0x3ce8e9b6	0.028431755
77	0xbd074a65	-0.033029933
78	0x3be020cf	0.0068398486
79	0xbd2ac07d	-0.041687477
80	0x3d4093d8	0.047015995
81	0x3d3bd843	0.04586054
82	0xbd208756	-0.039191566
83	0xbcaf45f4	-0.021395661
84	0x3c83d6e0	0.016093671
85	0x3d5c678d	0.05380969
86	0xbd384f11	-0.04499728
87	0xbc72b00a	-0.014812479
88	0xbd2d6fc5	-0.04234292
89	0x3c3215dc	0.0108694695
90	0xbd50f439	-0.05101416
91	0x3d264600	0.0405941
92	0xbcd24d6c	-0.025671683
93	0xbd5a48b4	-0.05329199
94	0x3d11081a	0.035408117
95	0x3cd79335	0.026315311
96	0x3d278797	0.040900793
97	0x3d41a884	0.04727985
98	0xbd65d948	-0.05611542
99	0xbc8d9c72	-0.017286513
100	0xbcaa6134	-0.020798303
101	0xbd47e232	-0.0487997
102	0xbc9710a6	-0.018440556
103	0xbb3c93a3	-0.0028774522
104	0xbd49b72e	-0.04924696
105	0x3d57801e	0.052612416
106	0x3ba7f897	0.0051260698
107	0x3c214aab	0.009844462
108	0xbd53bbd5	-0.051692802
109	0xbce44f56	-0.027869862
110	0x3cd4b060	0.025963008
111	0x3cc2c813	0.023777043
112	0x3d608408	0.054813415
113	0xbcad64d0	-0.021166235
114	0x3bcdd09a	0.0062809708
115	0xbab2e602	-0.001364887
116	0x3c6937a1	0.014234454
117	0xbcd0884f	-0.025455622
118	0x3a4a77f6	0.0007723564
119	0x3abfbcb7	0.0014628385
120	0xbd17f0a6	-0.037094735
121	0xbcd5da6d	-0.02610513
122	0x3cce2afd	0.025166983
123	0xbb91c27c	-0.004448233
124	0xbc0c150b	-0.008549939
125	0xbb7f7adb	-0.003898314
126	0x3c4b46e6	0.01240704
127	0x3d35bebd	0.044371355
128	0x3d2426eb	0.040076178
129	0xbca4ab99	-0.020101355
130	0xbc481b4a	-0.0122135375
131	0xbc35cbc3	-0.011095944
132	0xbb63fb83	-0.0034787364
133	0xbd34bb28	-0.0441238
134	0xbd5952c8	-0.053057462
135	0x3cd3113a	0.02576505
136	0xbc1b0527	-0.009461678
137	0xbd1f19e3	-0.038843047
138	0x3cdcc0ed	0.026947463
139	0xbd585d32	-0.052823253
140	0x3c88865f	0.016665636
141	0xbd1663d5	-0.0367163
142	0xbc403a3d	-0.011732635
143	0xbd017dde	-0.031614177
144	0xbb8f6f10	-0.0043772534
145	0x3cfed366	0.031106662
146	0x3d1bc08b	0.03802542
147	0xbd2b7d7e	-0.041867726
148	0xbd522ef1	-0.051314298
149	0x3d25aed5	0.040449936
150	0x3ca784f3	0.020449137
151	0xbd4772e2	-0.048693545
152	0xbb1eaa90	-0.002421055
153	0xbb335811	-0.0027365724
154	0x3d5fc12f	0.054627594
155	0xbc8d538f	-0.017251758
156	0xbd0fcc33	-0.03510685
157	0xbbb7943e	-0.0056023886
158	0xbb89489a	-0.004189563
159	0x3cb18294	0.02166871
160	0xbd195a51	-0.037439648
161	0x3cc008af	0.02344164
162	0xbd5c6bf7	-0.0538139
163	0xbd0fca15	-0.03510483
164	0x3b9552d9	0.0045569954
165	0x3cc61e9b	0.024184516
166	0x3d4fe629	0.050756607
167	0xbd1a1958	-0.037621826
168	0xbb5f6ed6	-0.0034093163
169	0xbd31845e	-0.043339126
170	0x3c984215	0.018586198
171	0x3d1685fc	0.03674887
172	0x3d6c4c52	0.057689972
173	0xbd6d5f49	-0.0579522
174	0x3d481b68	0.04885426
175	0x3c2d3833	0.010572481
176	0xbd7069de	-0.058694713
177	0x3d1d8208	0.038454086
178	0x3cd6087d	0.026127094
179	0x3cce5826	0.025188517
180	0x3c8763b9	0.016527044
181	0xbccaccd1	-0.024755867
182	0x3d634d0e	0.055493407
183	0xbd008a48	-0.031381875
184	0xba54eef0	-0.00081227627
185	0x3d1cf6d7	0.038321342
186	0xbcb68bdd	-0.022283489
187	0x3d455065	0.048172373
188	0xbd3dfa91	-0.046381537
189	0x3d6445b8	0.05573055
190	0xbc947695	-0.01812295
191	0xbd265870	-0.040611684
192	0xbcbfa458	-0.023393795
193	0x3d6e449e	0.058170907
194	0xbcd5252d	-0.026018703
195	0xbd0fe79a	-0.03513298
196	0xbc65449e	-0.01399341
197	0xbd0b0858	-0.033943504
198	0xbc608810	-0.013704315
199	0xbd1a7e8d	-0.037718344
200	0xbc437b9c	-0.011931326
201	0x3d4c08a8	0.049812943
202	0xbd4985ca	-0.049199857
203	0x3bdfd7b0	0.006831132
204	0xbbaf9352	-0.005358138
205	0x3c797287	0.015225059
206	0x3bd4298e	0.0064746803
207	0x3d184a76	0.037180386
208	0x3c38c670	0.01127778
209	0x3d027072	0.031845517
210	0x3cb11d47	0.021620406
211	0xbd19905c	-0.037491187
212	0x3cd1d834	0.025615789
213	0xbd3e656d	-0.046483446
214	0x3d59225d	0.053011287
215	0x3bfb5852	0.0076704407
216	0x3d1dc00c	0.03851323
217	0xbcb33902	-0.02187777
218	0xbb1b02a4	-0.0023652697
219	0x3d6de6a2	0.058081277
220	0xbc540d93	-0.0129426895
221	0x3c526ee1	0.012843818
222	0xbccb223d	-0.0247966
223	0xbc919378	-0.017770514
224	0x3c2fce44	0.01073033
225	0x3d52ef89	0.05149797
226	0xbc6e5ad0	-0.014548019
227	0x3d216f50	0.039412796
228	0x3d592f85	0.053023834
229	0xbd53da32	-0.05172176
230	0xbbe89176	-0.0070974184
231	0x3c62dcfb	0.013846631
232	0xbcbdd723	-0.023173874
233	0x3ce699ab	0.028149446
234	0xbd0ed6d8	-0.03487286
235	0x3c588f96	0.013217827
236	0x3d646b65	0.055766482
237	0xbc473b54	-0.012160141
238	0x3cc98103	0.02459765
239	0xbcc5a57e	-0.024126764
240	0x3d1c9b50	0.038234055
241	0xbc792b54	-0.015208084
242	0x3c9c17d0	0.019054323
243	0x3d6ef89f	0.058342572
244	0x3cbe93de	0.023263868
245	0x3c2bb62c	0.010480445
246	0xbc397dc8	-0.0113214925
247	0xbd1259f0	-0.035730302
248	0xbd6ad8b3	-0.057335567
249	0xbc21abc8	-0.009867616
250	0xbd551d1a	-0.052029707
251	0xbc389d0c	-0.011267912
252	0xbad58e25	-0.0016292973
253	0xbc116ea4	-0.008876476
254	0xbd52b77a	-0.051444508
255	0xbcbf18a0	-0.023327172

conv.4.bias f4 [32]
0	0xbd009c2f	-0.03139895
1	0x3d25bdea	0.04046432
2	0x3ca5fdb8	0.020262584
3	0xbc8a38f2	-0.016872857
4	0xbd0d0772	-0.03443093
5	0x3d47f3dd	0.04881655
6	0x3c017f7d	0.007903931
7	0xbb3f0a11	-0.0029150287
8	0xbca2a29b	-0.019852927
9	0xbcdc1c6f	-0.026869027
10	0x3d31c8ec	0.043404505
11	0xbd706ad7	-0.05869564
12	0x3cbb6ff7	0.022880537
13	0x3bc4cbb9	0.006005731
14	0xbd115704	-0.035483375
15	0x3d0a5f34	0.0337822
16	0x3c1eea25	0.009699379
17	0xbc04c647	-0.008103914
18	0x3d025514	0.031819418
19	0x3b7373f0	0.0037147962
20	0x3bdc453a	0.0067221196
21	0x3cf73971	0.030178757
22	0x3d37e35d	0.044894565
23	0x3baa1f7b	0.005191741
24	0xba6cf49f	-0.0009039137
25	0x3c2aee2c	0.010432761
26	0x3d203eed	0.03912251
27	0xbcd632f0	-0.026147336
28	0xbc80291b	-0.0156446
29	0x3c9e784c	0.019344471
30	0x3d5c547e	0.053791516
31	0x3c172c20	0.009226829

fc.weight f4 [128, 821]
0	0x3c257607	0.010098941
1	0xbcb75215	-0.022378007
2	0x3ca26d4d	0.01982751
3	0x3ce3ca5b	0.027806452
4	0xbcaf2b2a	-0.021382887
5	0x3bcbfbb1	0.0062250723
6	0x3cca2e0d	0.024680162
7	0xbab64c89	-0.0013908307
8	0x3c81f62d	0.015864456
9	0xbc6a6c60	-0.014308065
10	0x3cf9203e	0.030410882
11	0xbb1a55d8	-0.0023549702
12	0xbcce1577	-0.02515672
13	0x3cb88b25	0.022527287
14	0x3d0e57ae	0.034751587
15	0xbce94c70	-0.028478831
16	0xbd03d1e1	-0.032182578
17	0x3c997a7e	0.018735167
18	0xbc432ebf	-0.011913001
19	0x3c695276	0.014240852
20	0x3cd8bb39	0.026456462
21	0xbc46a544	-0.012124363
22	0xbd0b3332	-0.03398437
23	0x3be5f81d	0.007018103
24	0xbc3cf974	-0.011534084
25	0x3c87da28	0.016583517
26	0x3cf55fa3	0.02995283
27	0x3d0974fb	0.033558827
28	0xbcb7689e	-0.022388753
29	0x3d02843c	0.03186439
30	0xbc2eb926	-0.01066426
31	0x3cbfcedb	0.023414066
32	0x399f477b	0.000303801
33	0x3cdddb08	0.027081981
34	0x3bb5ddf8	0.0055501424
35	0xbc0b4704	-0.008500818
36	0xbacdb9a6	-0.0015695586
37	0xbcec8587	-0.028872265
38	0xbc51bdfa	-0.012801642
39	0xbc472b3c	-0.012156304
40	0x3c3906a8	0.011293091
41	0x3ca07f27	0.019591881
42	0xbbf0e98c	-0.0073520597
43	0x3b86917f	0.0041067
44	0x3d0c4b8f	0.034251746
45	0x3ca24219	0.019806908
46	0xbc6e5429	-0.0145464325
47	0xbbae9cbc	-0.005328743
48	0xbb971ba7	-0.0046114507
49	0xbcf44a75	-0.02982066
50	0xbcfaee5f	-0.030631242
51	0x38e06889	0.000107006235
52	0xbca230b2	-0.01979861
53	0x3c0e3cba	0.0086814705
54	0x3ca226da	0.019793916
55	0xba821935	-0.0009925725
56	0x3cf9cf75	0.030494431
57	0xbc97c32c	-0.018525682
58	0xbb87e725	-0.0041474276
59	0xbccd202e	-0.025039759
60	0xbc942c96	-0.018087666
61	0x3c3d235a	0.011544073
62	0x3c1a2252	0.009407597
63	0xbc97aedf	-0.018516002
64	0xbbb98ff6	-0.0056629134
65	0xbc0a59d9	-0.008444273
66	0xbc12ceb6	-0.008960417
67	0x3c8e158d	0.01734426
68	0xbc0f99e0	-0.008764714
69	0xbcb66b2d	-0.022267902
70	0x3b490035	0.003067029
71	0x3cb06ebf	0.021537183
72	0xbd001da7	-0.03127828
73	0xbd0a84b3	-0.033817958
74	0x3cb71124	0.02234704
75	0xbd09d3d4	-0.03364928
76	0xbc755692	-0.014974253
77	0x3b667146	0.003516273
78	0x3d0746a5	0.033026356
79	0x3cf747e5	0.03018565
80	0x3b1b0070	0.0023651384
81	0xbc8f3f63	-0.01748628
82	0xbca77021	-0.02043921
83	0x3cb518eb	0.022106608
84	0xbcb2cee3	-0.021827167
85	0x3cce62ad	0.025193537
86	0xbc20238a	-0.009774098
87	0xbd00cbca	-0.03144435
88	0xbc9b6ed7	-0.018973751
89	0xbc88110e	-0.016609695
90	0x3c8db852	0.017299805
91	0xbc2c34d4	-0.010510642
92	0x3baf9c3a	0.0053592
93	0x3c81dece	0.015853312
94	0xbcd01a56	-0.025403183
95	0xbbe2c5ab	-0.0069205365
96	0x3c65aab0	0.014017746
97	0x3cd8180f	0.02637866
98	0x3c05cbc9	0.008166262
99	0xbc72c3cb	-0.0148171885
100	0xbc47b5d4	-0.012189347
101	0xbc5cd995	-0.01347961
102	0x3ce5de1f	0.028060017
103	0x3be86634	0.0070922617
104	0xbcf276ed	-0.029597724
105	0x3c8b41cf	0.016999153
106	0x3cd9014e	0.02648988
107	0xbbaaf1ab	-0.0052167973
108	0x3c261fa0	0.010139376
109	0xbd0031e9	-0.031297598
110	0xbbb0a355	-0.0053905644
111	0x3b212233	0.0024587035
112	0x3c0ae1f4	0.008476723
113	0x3c6467c7	0.013940758
114	0x3cff2975	0.031147698
115	0x3cd55963	0.0260436
116	0xbcb1ed77	-0.021719677
117	0xbcda9185	-0.026680717
118	0xbc038a89	-0.008028635
119	0x3c3406b2	0.010987924
120	0xbd0cf30b	-0.03441147
121	0x3b98ec90	0.0046668723
122	0x3c1de25c	0.009636488
123	0xbce3821c	-0.027772002
124	0x3c646931	0.013941095
125	0xbbce3fb1	-0.0062942137
126	0x3c4baddf	0.012431591
127	0xbc98ca00	-0.018651009
128	0x3b33326d	0.0027343289
129	0x3ba9876b	0.005173614
130	0x3ccb5984	0.024822958
131	0x3d0ac0e4	0.03387536
132	0xbd05cfae	-0.032668762
133	0xbc84c75c	-0.016208343
134	0x3cf5c8ed	0.030003035
135	0xbd0de127	-0.03463855
136	0xbc4abdfc	-0.012374397
137	0xbb5a23b7	-0.0033285448
138	0xbb82d2aa	-0.0039923983
139	0xbd0d92ba	-0.034563757
140	0xbc6246a8	-0.013810791
141	0xbc4fa6f6	-0.012674084
142	0x3c075ccd	0.0082618715
143	0x3bb612ab	0.0055564246
144	0xbc00934e	-0.00784762
145	0xbc0d877f	-0.008638262
146	0x3c0fe57b	0.00878274
147	0xbd025623	-0.031820428
148	0x3c58743f	0.013211309
149	0x3ce87da6	0.028380226
150	0xbb1fda70	-0.0024391674
151	0x3c60cd82	0.013720872
152	0x3c9021cb	0.017594239
153	0xba2814f7	-0.00064118154
154	0x3cab6bc4	0.02092541
155	0xbcbbde94	-0.022933282
156	0x3ca11d05	0.019667158
157	0x3cf4be1c	0.029875807
158	0x3b231615	0.0024884988
159	0x3d08b0dd	0.033371795
160	0xb9881361	-0.0002595438
161	0x3a916894	0.0011093789
162	0x3cb3ed28	0.02196367
163	0xbca30f02	-0.019904617
164	0x3b1ea913	0.0024209663
165	0x3b85658b	0.0040709428
166	0xbc69f8fb	-0.014280553
167	0xbc5070bc	-0.0127221905
168	0xbb90565d	-0.0044048266
169	0xbb646c79	-0.0034854694
170	0x3c11ccbb	0.008898909
171	0x3cea9e40	0.028639913
172	0xbb08ddd4	-0.0020884173
173	0x3ca9c8e2	0.020725671
174	0x3c884d0f	0.016638307
175	0xbd0e5e52	-0.03475792
176	0xbcdc07f8	-0.026859269
177	0x3d03e3e7	0.032199766
178	0x3ca78495	0.020448962
179	0xbab0f84a	-0.001350173
180	0xbcd9d7be	-0.026592132
181	0x3ca138bc	0.019680373
182	0xbbbe5766	-0.0058087585
183	0xbca8abc3	-0.020589715
184	0xba507731	-0.0007952331
185	0x3ca04296	0.019563
186	0xbbad2009	-0.00528336
187	0xbcc05aed	-0.023480857
188	0xba33c2d7	-0.00068573415
189	0x3cc76ab6	0.024342876
190	0xbd097400	-0.03355789
191	0xbcbbefde	-0.022941526
192	0xbca2af24	-0.019858904
193	0x3c9067a3	0.017627543
194	0xbbad9926	-0.0052977977
195	0xba0ea493	-0.00054413936
196	0xbc55751e	-0.013028411
197	0xbc8cbdc3	-0.01718033
198	0x3cf9956d	0.03046676
199	0x3cafaa11	0.021443399
200	0xbce49181	-0.027901413
201	0xbc1dce31	-0.009631679
202	0xbc797f11	-0.015228049
203	0x3c4c695f	0.012476294
204	0xbcb47790	-0.022029668
205	0x3c19d4b1	0.0093890885
206	0x3ce75e91	0.028243335
207	0x3c4988e8	0.012300707
208	0xbd07374b	-0.033011716
209	0xbcb76d69	-0.022391038
210	0xbc850243	-0.01623643
211	0xbcef291f	-0.029194413
212	0xbc3965e4	-0.0113157965
213	0xbc925dd1	-0.017867
214	0xbc976d4d	-0.018484736
215	0x3bc0c72e	0.005883119
216	0x3aa1658b	0.0012313587
217	0x3cb0c774	0.021579482
218	0x3d0ea307	0.034823444
219	0xbc37fc94	-0.011229653
220	0xbcdc7d3c	-0.026915185
221	0x3b09062e	0.0020908224
222	0xbc3bf57e	-0.011472104
223	0xbb5bc2e4	-0.0033532912
224	0xbaa2a068	-0.0012407424
225	0xbc6f7de3	-0.014617416
226	0xbd095a65	-0.033533473
227	0xbd0b9359	-0.03407607
228	0x3cbb8926	0.022892546
229	0x3c14724d	0.009060455
230	0x3c9a8dc2	0.018866424
231	0x3bdc165e	0.0067165336
232	0x3d0d84df	0.034550544
233	0xbd011af8	-0.03151986
234	0xbcf570a2	-0.029960934
235	0x3d0806ba	0.03320954
236	0x3ce896e6	0.028392266
237	0xbcce1fcb	-0.025161644
238	0xbc3e157a	-0.0116018
239	0xbab90817	-0.0014116791
240	0x3caa4ecd	0.020789528
241	0x3c8751a7	0.016518427
242	0xbb86d53d	-0.0041147755
243	0x3c13c3e2	0.00901887
244	0x3cc8fbb1	0.024534078
245	0x3c5dceea	0.013538102
246	0x3cfe4e89	0.031043308
247	0x3ce9d61e	0.028544482
248	0xbc4922e5	-0.012276386
249	0xbcc0a317	-0.023515267
250	0xbd0c88c3	-0.034310114
251	0xbcf421c8	-0.029801264
252	0x3c8a6412	0.01689342
253	0xbba3aec8	-0.004995201
254	0x3cc35148	0.023842469
255	0xbc72bff1	-0.01481627

fc.bias f4 [128]
0	0x3bc72508	0.0060774125
1	0x3c36751a	0.011136318
2	0xbc0d64d6	-0.008629998
3	0xbcd1116a	-0.025520999
4	0xbb204af5	-0.002445874
5	0xbc3c4dec	-0.011493187
6	0x3c3d2f38	0.011546902
7	0xbc92c7ca	-0.017917532
8	0x3d055722	0.0325538
9	0xbcab178a	-0.020885248
10	0x3b478a14	0.0030447291
11	0xbbd7861d	-0.006577267
12	0x3be68650	0.0070350543
13	0x3c5edd35	0.013602545
14	0x3b719380	0.0036861598
15	0xbc81c90a	-0.015842933
16	0xbcfeea81	-0.03111768
17	0x3c22aa57	0.0099283075
18	0x3b1ed7e0	0.0024237558
19	0x3cdb03ee	0.026735272
20	0xbc2cac5b	-0.01053914
21	0xbc3de2b9	-0.011589699
22	0xbcc81123	-0.024422234
23	0xbcec98a4	-0.028881378
24	0xbc039cd6	-0.008032998
25	0xbc902e21	-0.017600121
26	0xbd0d10bb	-0.034439784
27	0x3cff4839	0.031162368
28	0xbbb9ccf7	-0.0056701857
29	0x3c6d7824	0.014493976
30	0x3c34b57d	0.011029598
31	0xbcb31010	-0.021858245
32	0x3c3af4dc	0.011410918
33	0x3cffcacd	0.031224633
34	0x3bbf7a80	0.0058434606
35	0x3cf909ef	0.030400245
36	0xbb024fe5	-0.0019884047
37	0x3ae562d6	0.0017500769
38	0x3bed8d58	0.0072495155
39	0xbb7476bc	-0.0037302217
40	0x3b84f60b	0.004057651
41	0xbceb0c4c	-0.028692387
42	0xbc62a14e	-0.013832403
43	0x3cdf180b	0.027233144
44	0x3cbb6cf2	0.022879098
45	0x3b975dd0	0.0046193376
46	0x3cb3d3b1	0.021951528
47	0x3b80ccc8	0.003930662
48	0xbaa8efe0	-0.0012888871
49	0x3c436658	0.011926256
50	0x3c125235	0.0089307325
51	0xbc4c1baa	-0.0124577675
52	0x3c6227a5	0.013803397
53	0x3bc6940d	0.0060601295
54	0x3c9b1c0c	0.018934272
55	0x3c217150	0.009853676
56	0x3cc61dbc	0.0241841
57	0x3d01838e	0.0316196
58	0xbcbfb265	-0.023400495
59	0xbc901494	-0.017587937
60	0xbd0ed9ba	-0.03487561
61	0x3956bc00	0.00020478666
62	0x3cfa8888	0.030582681
63	0xbce95dd6	-0.028487127
64	0x3cb015e6	0.021494817
65	0xbbb36a54	-0.005475322
66	0xbcb241ce	-0.021759894
67	0x3b12e230	0.002241265
68	0x3cf599b9	0.029980527
69	0x3b71c4e1	0.003689103
70	0x3c8b5f6e	0.017013278
71	0xbc610541	-0.013734163
72	0xbc2bf521	-0.010495455
73	0xbb84b278	-0.0040495954
74	0x3b97acc9	0.004628752
75	0xbcef60a9	-0.029220896
76	0x3d07f925	0.033196587
77	0xbcc9f3aa	-0.02465232
78	0xbc9e602d	-0.01933297
79	0xbd0ba516	-0.034092985
80	0x3ca778b3	0.020443296
81	0x3b394a80	0.0028273165
82	0x3c800c2a	0.0156308
83	0x3ca6997e	0.020336863
84	0xbcf166b1	-0.029467912
85	0xbce644c0	-0.028108954
86	0xbc93797e	-0.018002268
87	0xbd0d8ae4	-0.034556285
88	0x3c302c50	0.010752752
89	0xbb34fc03	-0.002761603
90	0xbcd89338	-0.026437387
91	0x3cec1380	0.028817892
92	0x3af96cf9	0.0019029669
93	0x3d0cbe41	0.034361128
94	0x3cb33d96	0.021879952
95	0x3b528747	0.0032124089
96	0xbd0d5a29	-0.03450981
97	0x3c82148b	0.015878936
98	0xbc620b9a	-0.013796711
99	0x3ca9d444	0.020731099
100	0xbcbb4ee8	-0.022864774
101	0x3bc4edb3	0.0060097813
102	0x3ce8d0d1	0.028419884
103	0xbc3d2001	-0.011543275
104	0xbcccc792	-0.024997506
105	0xbbda0de3	-0.0066544875
106	0x3c5ac705	0.013353114
107	0xbc7d19a3	-0.015448007
108	0xbc784520	-0.015153199
109	0xbcd32e9b	-0.02577906
110	0xbad57c7a	-0.0016287707
111	0x3c7979b9	0.015226775
112	0xbc38a99f	-0.01127091
113	0x3c0ad965	0.008474682
114	0xbbbf18e4	-0.0058318246
115	0xbc99d06d	-0.018776143
116	0x39fad717	0.0004784397
117	0xbc8cae8b	-0.017173072
118	0x3bdcc3f9	0.006737229
119	0xbcfdef9a	-0.03099804
120	0xbcbaa261	-0.022782506
121	0xbaa857f4	-0.0012843595
122	0x3cb09577	0.021555645
123	0xbc60beac	-0.013717335
124	0xbce532b8	-0.027978286
125	0xbd0da328	-0.034579426
126	0x3d0060ee	0.03134244
127	0xbc969f49	-0.0183865

layers.0.weight f4 [128, 128]
0	0xbd5598bb	-0.05214761
1	0xbcc62917	-0.024189515
2	0x3d8af613	0.06785216
3	0xbbc6546e	-0.0060525453
4	0x3d6caa1f	0.057779428
5	0x3daf03d6	0.085456535
6	0x3d5d778c	0.054069087
7	0x3d531db3	0.051541995
8	0xbcbb25da	-0.022845197
9	0xb938beda	-0.00017618705
10	0x3d1334c1	0.035938982
11	0xbbaf05e9	-0.0053412807
12	0xbcd65f99	-0.026168631
13	0xbd9a2e92	-0.07528414
14	0xbc171bcb	-0.009222935
15	0xbd8f5de1	-0.07000328
16	0xbc4a6f75	-0.012355675
17	0x3c1d7c0a	0.009612093
18	0xbd4f2c56	-0.05057939
19	0xbd6e208b	-0.058136504
20	0x3db36e39	0.08761258
21	0x3bf70524	0.0075384546
22	0xbba25e7c	-0.004955111
23	0xbce304c2	-0.02771223
24	0xbdb18d3b	-0.08669516
25	0x3d6db0f9	0.058030102
26	0xbd9a74ec	-0.07541832
27	0xbdaeb79b	-0.08531114
28	0xbd82e68f	-0.06391632
29	0x3cb834ec	0.022486173
30	0x3c6c5a86	0.014425879
31	0x3d9c26f3	0.076246165
32	0x3cc39f1b	0.023879578
33	0x3d6fb372	0.05852074
34	0xbd9387ce	-0.07203637
35	0x3b62a03d	0.0034580373
36	0x3d3bd938	0.045861453
37	0x3d48768a	0.048941173
38	0x3d838e96	0.064236805
39	0x3c959f5d	0.018264467
40	0xbd834a1f	-0.06410622
41	0x3d9aff8e	0.075682744
42	0x3d1d7523	0.03844179
43	0x3d4933b8	0.04912159
44	0x3daa9071	0.08328331
45	0xbcbdf4cd	-0.02318802
46	0x3d4c9b6c	0.04995291
47	0x3c3c37e9	0.011487939
48	0x3d0cce59	0.034376476
49	0xbd660a0f	-0.056161936
50	0x3ced200a	0.028945941
51	0xbd5bfec7	-0.05370977
52	0x3da0e29e	0.07855724
53	0x3da5b795	0.08091656
54	0x3d48bc44	0.04900767
55	0xbdb2e8d0	-0.08735812
56	0xbbf04e96	-0.007333587
57	0xba3266a0	-0.00068054534
58	0xbd5eeb52	-0.054423638
59	0xbd9a0d35	-0.0752205
60	0x3ce85ebd	0.028365487
61	0xbd0c70d8	-0.034287304
62	0x3c9a953c	0.018869989
63	0xbd9c3fa4	-0.07629326
64	0x3b2edfc8	0.0026683677
65	0xbd319520	-0.043355107
66	0x3d7b201d	0.061309922
67	0xbda13caf	-0.078729026
68	0xbd1c427b	-0.03814934
69	0xbd6e0aa5	-0.05811562
70	0x3d4dd0f5	0.050248105
71	0x3cab204b	0.020889422
72	0x3d0c275f	0.034217235
73	0xbd3936f2	-0.045218416
74	0x3d81388f	0.06309616
75	0xbd33fdc0	-0.043943167
76	0xbd9fd8d0	-0.078050256
77	0x3c2fe0cc	0.010734748
78	0x3cd3daf3	0.025861239
79	0xbd5b7260	-0.053575873
80	0xbd8e45cf	-0.06946909
81	0x3d2cd3ab	0.04219405
82	0xbd3fdf79	-0.04684398
83	0xbcbbc70f	-0.022922067
84	0x3d97dda2	0.0741532
85	0x3d94fcfe	0.07274817
86	0xbd964248	-0.07336861
87	0x3d724bcc	0.059154317
88	0xbd92547c	-0.0714502
89	0xbdabe620	-0.08393502
90	0x3cac04f7	0.020998461
91	0x3d8029b7	0.062579565
92	0x3d03efd4	0.03221114
93	0xbc0f6e33	-0.008754301
94	0xbdb15980	-0.08659649
95	0x3d88734c	0.06662616
96	0x3c7d6fcf	0.015468552
97	0x3d742af5	0.05961128
98	0x3da4174c	0.08012256
99	0xbda1636d	-0.07880292
100	0x3d1de60f	0.03854948
101	0xbb2adec6	-0.0026072725
102	0xbd4bdf05	-0.049773235
103	0xbd29504c	-0.041336343
104	0xbd9f15a5	-0.077678
105	0x3b304a26	0.0026899665
106	0xbd8543b5	-0.06507055
107	0x3d10d5db	0.0353602
108	0x3d6938b3	0.05693884
109	0xbc3cb208	-0.011517055
110	0xbc960249	-0.018311637
111	0x3d292434	0.04129429
112	0x3bb23e46	0.0054395525
113	0xbd8d23e8	-0.06891614
114	0xbce24259	-0.027619528
115	0x3db3b616	0.087749645
116	0x3d1f462e	0.038885288
117	0xbcf3c457	-0.029756708
118	0x3d0eab7b	0.034831505
119	0xbd7d426a	-0.061830916
120	0xbd8e5a74	-0.06950846
121	0x3c9a0c83	0.018804794
122	0xbda34b5e	-0.079733595
123	0x3d474694	0.048651293
124	0xbd2b9c82	-0.041897304
125	0x3d27769a	0.04088459
126	0xbda67549	-0.08127839
127	0x3d0973e0	0.033557773
128	0xbc210d47	-0.009829826
129	0x3d11e3a3	0.035617482
130	0xbd01b0b3	-0.031662654
131	0x3c9412c9	0.018075364
132	0xbd8e8040	-0.069580555
133	0xbd785c0d	-0.06063466
134	0xbd11ff3f	-0.035643812
135	0xb9e0e889	-0.00042897862
136	0xbd8ca98e	-0.068682775
137	0x3d689213	0.056779932
138	0xbd4374ea	-0.04771892
139	0xbb69e216	-0.0035687736
140	0x3af578b0	0.0018727984
141	0xbd399e33	-0.045316886
142	0x3d1a5754	0.03768094
143	0x3d1a17bc	0.03762029
144	0x3d32072c	0.04346387
145	0xbcb72c53	-0.022360003
146	0x3c0ca48a	0.008584151
147	0xbb57457c	-0.0032847812
148	0x3d886035	0.06658975
149	0xbca80b53	-0.020513212
150	0x3c474892	0.012163298
151	0xba36a55f	-0.0006967391
152	0xbd8caedc	-0.06869289
153	0xbd8fc399	-0.07019729
154	0xbd4ff625	-0.05077185
155	0x3c3a1b1b	0.0113590015
156	0x3d993bd8	0.074821174
157	0xbda93018	-0.08261126
158	0x3d8d766b	0.06907352
159	0x3d452ef9	0.0481405
160	0x3cd07499	0.025446223
161	0xbca33a15	-0.019925157
162	0xbcf168bc	-0.029468887
163	0xbd2f4e69	-0.042799387
164	0xbcee9b2d	-0.029126728
165	0x3d2d6810	0.04233557
166	0xbd6cf029	-0.057846222
167	0xbc8d4518	-0.01724486
168	0xbd4ca0c2	-0.049957998
169	0x3d7c4e01	0.061597828
170	0xbc86c7e4	-0.016452737
171	0xbc8f87f2	-0.017520878
172	0xbda2b6d9	-0.07945032
173	0xbd22376f	-0.039603647
174	0xbdaaa975	-0.083331026
175	0xbc5e00c6	-0.013549989
176	0xbbd26c85	-0.006421628
177	0xbd9c1e37	-0.076229505
178	0x3d9a35d6	0.075298
179	0x3d05d32f	0.032672103
180	0x3d990afe	0.074728
181	0xbcbb5413	-0.022867238
182	0xbc864c84	-0.016393907
183	0xbd8b9005	-0.06814579
184	0xbd6a4a5f	-0.057199832
185	0xbd8fb3e5	-0.07016734
186	0xbd88d92f	-0.066820495
187	0x3cb3a965	0.02193136
188	0x3d809191	0.062777646
189	0xbcf063c4	-0.029344447
190	0x3cded1ec	0.027199708
191	0xbd1a8ddc	-0.037732944
192	0x3d9acc24	0.07558468
193	0x3d5b68a4	0.05356659
194	0xbc9dfae3	-0.019284671
195	0x3d6c74e2	0.057728656
196	0xbda09e37	-0.07842677
197	0x3caac941	0.020847918
198	0x3d8c5814	0.06852737
199	0xbc566855	-0.013086398
200	0x3bba3169	0.0056821597
201	0x3c00ca0c	0.007860672
202	0x3d403367	0.04692402
203	0x3c9010c0	0.017586112
204	0x3da9f650	0.082989335
205	0xbca8612f	-0.020554153
206	0xbd722518	-0.059117407
207	0xbcbe66bb	-0.023242345
208	0xbd616051	-0.055023495
209	0x3d7e1f84	0.062041774
210	0xbd157017	-0.03648385
211	0x3da96439	0.08271069
212	0xbd8bebd0	-0.06832087
213	0xbd9cd824	-0.07658413
214	0x3c583d4d	0.013198209
215	0xbcb6f7c5	-0.022334943
216	0xbccc295e	-0.02492207
217	0xbc9d17b3	-0.01917634
218	0xbbcb0683	-0.0061958446
219	0x3d708692	0.058722086
220	0xbca0e28b	-0.019639274
221	0x3d89f970	0.067370296
222	0x3d4899b8	0.048974723
223	0xbd8160a3	-0.0631726
224	0xbd139e7c	-0.036039814
225	0x3d4bff43	0.049803983
226	0x3d3d8556	0.046269737
227	0xbcdba65a	-0.026812721
228	0xbc2aea40	-0.010431826
229	0xbc706096	-0.014671465
230	0x3a679db2	0.0008835449
231	0xbd477c8d	-0.048702765
232	0xbceb310c	-0.02870991
233	0x3ceac2a1	0.02865726
234	0xbc25fa24	-0.010130439
235	0xbda74fbe	-0.081695065
236	0xbc390be1	-0.011294336
237	0x3da2b5d4	0.07944837
238	0x3cfdd904	0.03098727
239	0xbd076a17	-0.03306016
240	0x3d3a760e	0.045522742
241	0x3b6fc88b	0.0036588039
242	0x3d3a8ec0	0.045546293
243	0x3d2e7f80	0.042602062
244	0xbcb65573	-0.022257542
245	0x3d36cf4f	0.0446313
246	0x3d6c847e	0.057743542
247	0xbc94372a	-0.01809271
248	0xbd88b395	-0.066748776
249	0x3cc5966e	0.024119582
250	0xbd488043	-0.048950445
251	0x3d0dbc25	0.034603257
252	0xbccc2855	-0.024921576
253	0xbd6007a9	-0.054694805
254	0x3d34d6f7	0.04415032
255	0xbba5bb12	-0.005057701

layers.0.bias f4 [128]
0	0x3d6c9b11	0.05776507
1	0x3c358770	0.011079654
2	0xbc9d29f8	-0.019185051
3	0xbd80c1c4	-0.06286958
4	0x3d95de77	0.073178224
5	0xbc7da6a0	-0.015481621
6	0x3d6c0587	0.05762246
7	0x3d993cc1	0.07482291
8	0x3d872118	0.06598109
9	0xbd84dd85	-0.06487564
10	0x3d1685d2	0.036748715
11	0xbcad2c22	-0.021139208
12	0xbcbef137	-0.02330838
13	0x3c7be30f	0.015373959
14	0x3a348800	0.00068867207
15	0x3d435f2e	0.047698192
16	0xbd8b7bf4	-0.068107516
17	0xbc9f9a52	-0.019482765
18	0x3d983d76	0.07433598
19	0xbd90dc7e	-0.070733055
20	0xbc070fc5	-0.008243506
21	0x3d8bcfd5	0.0682675
22	0x3d83c3b5	0.064338125
23	0xbd9dbb5b	-0.07701751
24	0xbd162d08	-0.03666404
25	0x39118489	0.00013877651
26	0xbccc66d9	-0.024951385
27	0xbb8d785b	-0.004317326
28	0xbcddc01d	-0.027069146
29	0x3ce8a658	0.028399631
30	0x3d645516	0.055745207
31	0xbd6f9c21	-0.058498506
32	0xbd044a48	-0.032297403
33	0xbdae1b39	-0.08501286
34	0xbc7a1e49	-0.01526601
35	0xbd9408c5	-0.07228235
36	0x3d435ade	0.04769408
37	0x3d812e61	0.06307674
38	0xbd8a3d50	-0.06749976
39	0xbd561a56	-0.05227121
40	0x3d61bf4f	0.055114087
41	0xbd0d0dd8	-0.03443703
42	0x3d90e516	0.07074945
43	0x3c8db984	0.017300375
44	0xbcc61c74	-0.02418349
45	0x3d3358af	0.043785747
46	0x3d9f008b	0.077637754
47	0xbd0364aa	-0.032078423
48	0x3be7f5a0	0.0070788413
49	0xbc3d68a2	-0.011560591
50	0x3cd5369f	0.026027022
51	0x38439800	4.6633184e-05
52	0xbd2d1967	-0.042260554
53	0xbda2966a	-0.079388455
54	0xbdb2b893	-0.08726611
55	0x3d4603ea	0.048343576
56	0xbd695ebd	-0.056975115
57	0x3d8682d5	0.06567923
58	0xbd56f688	-0.052481204
59	0x3addfc80	0.0016936213
60	0xbc64d695	-0.013967176
61	0x3d281ae2	0.041041262
62	0xbdb4b13c	-0.08822867
63	0x3d2202fb	0.039553624
64	0xbd7520ec	-0.05984585
65	0xbd2defbb	-0.042464953
66	0x3c9bdca5	0.01902611
67	0x3dae69e5	0.085162915
68	0xbd6ea7b9	-0.05826542
69	0xbb550185	-0.0032502126
70	0x3d5b1c91	0.05349404
71	0x3d71af81	0.059005264
72	0x3b88855f	0.0041662897
73	0x3c5f53db	0.013630833
74	0xbcc82adb	-0.024434498
75	0xbd33b90e	-0.043877654
76	0xbb2adac0	-0.0026070327
77	0x3c92435b	0.017854383
78	0x3d7a7d22	0.061154492
79	0xbd8f6c51	-0.070030816
80	0x3c3cb2e6	0.011517262
81	0xbd807a78	-0.06273359
82	0xbdb083c8	-0.08618885
83	0x3cc374a4	0.02385933
84	0x3d477cb7	0.04870292
85	0x3d915e13	0.07098021
86	0xbd25dad8	-0.04049191
87	0xbd94a86c	-0.072586864
88	0x3c231e00	0.009955883
89	0xbda80150	-0.08203375
90	0x3cc75b53	0.024335539
91	0xbbc0bae8	-0.005881656
92	0x3d19959e	0.0374962
93	0x3c548f57	0.012973628
94	0xbc61677b	-0.013757582
95	0x3c1df7fa	0.009641642
96	0xbd0b4d21	-0.034009103
97	0x3d984359	0.074347205
98	0xbcd41998	-0.02589111
99	0xbcd69b5e	-0.026197132
100	0xbc836124	-0.016037531
101	0x3d9516c0	0.0727973
102	0x3d17d7d2	0.037071057
103	0x3daa253c	0.08307883
104	0x3a838fdf	0.0010037384
105	0x3d77494c	0.060372636
106	0xbca836d8	-0.020533964
107	0xbc82c06c	-0.015960895
108	0x3d219305	0.03944685
109	0xbd20850f	-0.039189395
110	0xbd6a9744	-0.057273164
111	0xbdb3349a	-0.08750267
112	0xbc8b68f0	-0.017017812
113	0x3d32dbe6	0.043666743
114	0x3d2744e9	0.040837202
115	0xbc53ac83	-0.012919548
116	0x3cbec0e4	0.023285337
117	0xbd0a0954	-0.033700302
118	0x3cfb2280	0.0306561
119	0x3cb72698	0.02235727
120	0x3c563b48	0.013075657
121	0xbd5c7044	-0.053818002
122	0xbdaa2503	-0.08307841
123	0xbd95ef77	-0.07321065
124	0x3d04fe74	0.032469228
125	0xbc53cc43	-0.012927118
126	0xbc85176f	-0.016246526
127	0xbd8a759a	-0.06760712
