DDPG/savedModels/targetActor.pth.tar (torch, 677777 bytes, 18 tensors)

conv.0.weight f4 [32, 3, 5, 5]
-0.06926259 0.03607665 -0.026754173 -0.017766207 -0.023789007 -0.11610339 0.023865972 -0.006643299
-0.00027629378 -0.037487224 -0.036253545 -0.038057227 -0.07143246 0.005004711 0.04407412 -0.13928817
0.03656281 -0.13493478 0.0745196 0.13793127 -0.10854033 -0.09991897 -0.13583003 -0.013544167
0.0281936 -0.008150986 0.06779782 -0.043223534 -0.044408467 0.08458125 -0.09062712 -0.033608582
-0.014727831 0.10140857 -0.07634381 0.0770859 0.11259184 0.0323513 0.08507477 0.088308066
0.013089878 -0.07632819 0.07537276 -0.05241338 -0.0439846 0.08338124 0.10072977 0.046501692
-0.10873118 0.058273006 -0.09889604 -0.013979544 -0.084468886 0.0466603 -0.0235113 -0.08523525
0.034209516 -0.11925299 -0.13515896 -0.09412473 -0.016979223 -0.1401711 -0.0542581 0.031209728
0.01682695 -0.10855159 0.04946315 -0.11136009 -0.0598806 -0.11087671 -0.0070982254 0.030062506
-0.009078701 -0.053923514 0.06024387 0.023924699 0.011800698 -0.049952265 -0.042869676 -0.16746014
-0.050299868 0.10553371 -0.0014013065 -0.087406695 -0.1749572 0.09895284 0.07870855 0.066493005
0.03498691 -0.11325677 0.086607136 -0.037141297 0.1385225 -0.044486575 0.07127791 0.034306683
0.041227046 0.010417912 0.070276104 0.04601497 -0.10505281 -0.035941135 0.104927786 -0.074844666
0.10999738 0.045030728 -0.022768965 0.06646844 0.05630894 -0.09335955 -0.040271048 0.09119773
0.060787473 -0.02131435 0.11249314 -0.030971825 0.0050742985 -0.054569393 0.09205349 0.06557636
-0.08840167 -0.016559172 -0.1143844 0.08121063 -0.0038129664 0.0901519 -0.075725675 -0.000986188
0.0085201925 -0.08893847 0.08601393 -0.039881524 -0.026777215 -0.11421097 0.035958134 0.0029373134
-0.0010748862 0.096045166 0.017502617 0.10658488 -0.027570862 -0.11858776 0.10055174 -0.048062876
0.023271577 -0.06412772 -0.07487921 -0.097676925 0.06971163 0.0065974817 -0.1263696 -0.056239218
-0.0356715 0.16215982 0.20556726 -0.046703406 -0.036367226 -0.012183041 0.16063331 0.11946078
-0.03598247 0.046333067 0.09669088 0.023416612 0.049488287 -0.11435653 -0.11336319 0.018683616
-0.01626098 -0.026398381 -0.10642455 -0.108443215 -0.0026021865 -0.0022476728 0.10609206 -0.12079193
0.0904287 -0.038999084 -0.02290127 -0.078904405 0.071035445 -0.06317572 0.10157897 0.0037604335
0.10511348 -0.054512095 -0.042705227 -0.08791916 -0.08575259 0.104211204 0.07537215 0.015610498
-0.060274236 -0.072165355 0.08494661 0.051698446 -0.035395887 0.05807448 -0.09013101 -0.07269939
-0.09433596 0.00974747 0.0038062562 0.09419348 -0.04226135 0.07689196 0.06962256 0.031339608
0.021248586 0.090762086 0.014885207 -0.075729884 -0.027616657 0.11061893 -0.11163868 -0.03837679
0.092539184 -0.09358584 -0.06963504 -0.10662097 0.08841298 0.096457586 -0.04111124 -0.005334733
0.020125758 0.07166632 -0.008671157 -0.03191812 0.06993665 0.15819496 -0.10897457 0.0054591447
-0.009423898 0.14087579 0.024295082 -0.08599261 -0.006647393 -0.023984436 0.03687446 0.14232503
-0.01791107 -0.10115997 0.021561654 -0.018100597 -0.013379778 -0.16897283 -0.09153182 -0.086585574
-0.008898684 -0.09569486 0.06659777 -0.072817266 0.046346694 0.09571819 -0.025056375 -0.04427217
00000000: 8bd9 8dbd 1cc5 133d 912b dbbc 708a 91bc
00000010: 2ae1 c2bc 9dc7 edbd 9282 c33c 08b0 d9bb
00000020: 86db 90b9 348c 19bd 997e 14bd e5e1 1bbd
00000030: 2e4b 92bd 8ffe a33b 1087 343d 8fa1 0ebe
00000040: e3c2 153d 582c 0abe bb9d 983d db3d 0d3e
00000050: 644a debd 51a2 ccbd 0717 0bbe 5be8 5dbc
00000060: 44f6 e63c b78b 05bc 95d9 8a3d 290b 31bd
00000070: a7e5 35bd ef38 ad3d b69a b9bd 27a9 09bd
00000080: 004d 71bc 4caf cf3d 255a 9cbd 36df 9d3d
00000090: 8d96 e63d cc82 043d ae3b ae3d dcda b43d
000000a0: ed76 563c f451 9cbd 095d 9a3d 6aaf 56bd
000000b0: 3229 34bd c9c3 aa3d 694b ce3d 8f78 3e3d
000000c0: 74ae debd adaf 6e3d 028a cabd 750a 65bc
000000d0: 06fe acbd df1e 3f3d c59a c0bc d28f aebd
000000e0: 471f 0c3d e93a f4bd 1c67 0abe 77c4 c0bd
000000f0: 0318 8bbc 0389 0fbe be3d 5ebd 8bab ff3c
00000100: acd8 893c 4c50 debd df99 4a3d c210 e4bd
00000110: 5c45 75bd 5413 e3bd 3b98 e8bb a545 f63c
00000120: d5be 14bc e7de 5cbd 47c2 763d bbfd c33c
00000130: b757 413c bf9a 4cbd 1d98 2fbd ac7a 2bbe
00000140: 3c07 4ebd 0f22 d83d 0bac b7ba 4802 b3bd
00000150: fb27 33be c9a7 ca3d f331 a13d 7c2d 883d
00000160: 6f4e 0f3d 2af3 e7bd 155f b13d 7921 18bd
00000170: d8d8 0d3e 8e37 36bd 27fa 913d 2a85 0c3d
00000180: b1dd 283d e4af 2a3c ebec 8f3d 317a 3c3d
00000190: ed25 d7bd 0337 13bd 61e4 d63d 2948 99bd
000001a0: 4e46 e13d 2472 383d fb85 babc 9b20 883d
000001b0: 34a4 663d 4b33 bfbd 41f3 24bd e0c5 ba3d
000001c0: 49fc 783d 6f9b aebc ce62 e63d a0b8 fdbc
000001d0: 4d46 a63b 2884 5fbd 8a86 bc3d e64c 863d
000001e0: ef0b b5bd 1aa7 87bc 5e42 eabd c251 a63d
000001f0: f6e2 79bb 8fa1 b83d 1016 9bbd fa42 81ba
00000200: 4798 0b3c 5f25 b6bd 1228 b03d cf5a 23bd
00000210: e45b dbbc 71e7 e9bd d648 133d f17f 403b
00000220: 32e3 8cba 54b3 c43d a661 8f3c 2c49 da3d
00000230: 4adc e1bc 24de f2bd 12ee cd3d 94dd 44bd
00000240: 09a4 be3c 6555 83bd 455a 99bd d70a c8bd
00000250: f9c4 8e3d b02f d83b 0867 01be 185b 66bd
00000260: 471c 12bd 390d 263e 3980 523e 124c 3fbd
00000270: cdf5 14bd 619b 47bc 0f7d 243e daa7 f43d
00000280: 5b62 13bd bec7 3d3d de05 c63d 32d4 bf3c
00000290: 3bb4 4a3d c233 eabd f62a e8bd 620e 993c
000002a0: bf35 85bc 6b41 d8bc 1df5 d9bd 7a17 debd
000002b0: 7289 2abb b14d 13bb cb46 d93d c261 f7bd
000002c0: af32 b93d 81bd 1fbd 729b bbbc a298 a1bd
000002d0: 087b 913d 4662 81bd a308 d03d 9b71 763b
000002e0: bc45 d73d 1348 5fbd adeb 2ebd f60e b4bd
000002f0: 0e9f afbd af6c d53d b75c 9a3d 2dc3 7f3c
00000300: 1ee2 76bd 6ecb 93bd 7df8 ad3d c0c1 533d
00000310: 47fb 10bd 82df 6d3d 9b96 b8bd 6be3 94bd
00000320: 3633 c1bd dab3 1f3c 6272 793b 83e8 c03d
00000330: 3d1a 2dbd 8879 9d3d 4696 8e3d f65d 003d
00000340: 8411 ae3c 79e1 b93d 15e1 733c 4518 9bbd
00000350: 543c e2bc 2d8c e23d d2a2 e4bd fb30 1dbd
00000360: 2f85 bd3d efa9 bfbd d19c 8ebd 185c dabd
00000370: dd11 b53d 8e8b c53d 4264 28bd fcce aebb
00000380: c6de a43c cbc5 923d 7811 0ebc 93bc 02bd
00000390: f23a 8f3d dcfd 213e 0f2e dfbd a0e2 b23b
000003a0: b166 1abc be41 103e 7b06 c73c e51c b0bd
000003b0: 60d2 d9bb 027b c4bc ac09 173d a7bd 113e
000003c0: 3cba 92bc f52c cfbd 11a2 b03c b447 94bc
000003d0: db36 5bbc 3707 2dbe 0975 bbbd c753 b1bd
000003e0: c9cb 11bc abfb c3bd 6964 883d 3821 95bd
000003f0: 08d6 3d3d e607 c43d 0743 cdbc bc56 35bd

conv.0.bias f4 [32]
-0.015715284 -0.0373193 0.07630713 0.09548491 -0.033880092 0.082109086 0.0024688514 0.068676256
-0.06976441 0.01789214 -0.09007496 -0.09868049 -0.14456548 0.014153001 -0.122850485 -0.024510529
0.00014503862 -0.09336816 0.014462107 -0.020255167 -0.0050784983 0.14885892 0.08530633 -0.050150994
0.08639483 0.1362132 0.0118721835 -0.118572034 0.11267462 0.065730184 -0.11016154 -0.04219132
00000000: 57bd 80bc 1fdc 18bd ea46 9c3d 988d c33d
00000010: dac5 0abd cf28 a83d 74cc 213b 23a6 8c3d
00000020: a5e0 8ebd 8a92 923c 3879 b8bd ff18 cabd
00000030: f908 14be fde1 673c 0999 fbbd 4eca c8bc
00000040: 8215 1839 ce37 bfbd 79f2 6c3c 2aee a5bc
00000050: 8869 a6bb 796e 183e 16b5 ae3d 216b 4dbd
00000060: c6ef b03d 797b 0b3e 8c83 423c e5d5 f2bd
00000070: f3c1 e63d 8c9d 863d 609c e1bd ced0 2cbd

conv.2.weight f4 [32, 32, 4, 4]
0.026849443 -0.015874598 0.03465496 0.0063831345 -0.008701925 -0.006196402 0.0348077 -0.037080154
-0.045015126 0.0049055717 -0.002233224 -0.010032801 -0.031428818 0.028516533 0.008232531 0.024517382
-0.037631508 0.02984089 -0.017962651 0.01163749 -0.031693317 0.03866342 0.039482996 0.011575092
-0.015842933 -0.005532826 -0.023841234 -0.013293404 -0.022187185 -0.00019782857 -0.017213857 0.004627103
-0.0025824744 0.024332978 -0.045585103 -0.036107842 0.029162878 0.015494147 0.005366117 0.009541057
0.0003401263 0.02390829 -0.010318722 -0.030015983 -0.047693644 -0.023101754 -0.016835734 0.012525984
-0.030802028 0.014654083 -0.059927657 0.043565966 -0.018148918 -0.0036851745 -0.027004046 0.033466578
-0.025594005 0.034874752 -0.013418203 0.010681941 -0.00072606263 -0.027780779 0.025335094 0.022334334
-0.00028471186 0.006553103 -0.00024292551 -0.019497488 -0.037318572 0.00023588231 0.00088945363 -0.017221307
0.0066741765 -0.00842718 0.05447376 -0.004887411 0.026013106 -0.036998197 0.04342441 0.014736973
0.037877373 -0.052257184 0.0193373 -0.01092502 -0.036376067 0.020080503 -0.039430846 -0.040045526
-0.037981685 0.032922674 0.02871025 0.015449444 -0.04080177 0.018504685 -0.038123246 -0.0037175384
0.033891268 -0.013481533 -0.015036861 0.014236846 0.007860929 0.006859046 -0.010103582 0.04324559
0.009406946 0.03288542 -0.021486819 -0.022433056 0.034107335 -0.020372944 -0.02094292 0.024822861
0.0009591873 -0.049921397 0.01797569 0.013494572 0.029773833 0.0024688514 0.03081693 0.030358711
-0.04764149 0.017986864 -0.020561075 0.026309269 -0.037478767 -0.04110725 -0.03243466 -7.7348064e-05
0.027940968 -0.01930936 0.031410187 0.020080505 0.014849664 0.02118693 -0.049720228 -0.043048147
-0.034546927 -0.011392551 -0.012239134 0.023939954 0.020773416 -0.010939922 -0.00026265092 -0.03301954
0.034826323 0.000216106 -0.020853514 0.021425352 -0.0047160457 0.0171617 0.025363034 0.01738336
0.024981186 -0.027203353 0.028350754 0.016209878 -0.03954633 0.0009955384 -0.014793784 -0.021520348
-0.019052312 0.037810322 0.010821641 0.029922847 -0.022786962 0.008513794 -0.0051658796 0.03152195
-0.03337717 -0.03152195 0.017638544 -0.027296485 0.0052809 -0.009121026 0.041338217 -0.019223677
0.00023176408 -0.012341579 -0.035567667 -0.020015312 -0.026517889 0.008968286 0.03155548 -0.026530927
-0.021879843 0.013523444 -0.025426365 0.0230645 -0.0020565032 0.026447108 -0.0018542289 0.023982797
-0.011413971 -0.046184883 0.024666395 -0.03696467 -0.03778052 -0.0074187787 -0.01886977 -0.005130955
0.03887204 0.017584527 -0.04480278 0.021402998 0.02541705 -0.011988604 -0.047775604 0.009318468
-0.056396034 -0.0139807295 0.010072849 -0.018329596 -0.0074890945 0.00591281 -0.011155992 -0.05510707
-0.026182609 0.016237818 -0.016075768 -0.018070685 -0.02971423 0.020786455 -0.046073124 -0.002181535
0.034282424 -0.021820238 -0.02382633 -0.01396769 -0.03055057 -0.022835393 0.040052976 -0.036368616
0.0037759794 -0.04037708 -0.040023174 -0.0043099835 -0.025335096 -0.0057754386 0.005478808 0.0154196415
-0.015368418 -0.0013211564 -0.018184308 -0.026834544 0.0016385086 -0.052599914 -0.03907694 -0.031533122
0.018478608 -0.021529661 0.032836992 0.018702129 -0.002877242 -0.04726523 0.019171521 0.018651836
00000000: 5df3 db3c 720b 82bc 5cf2 0d3d 9d29 d13b
00000010: 8592 0ebc 300b cbbb 8592 0e3d 5ce1 17bd
00000020: c861 38bd ebbe a03b 485b 12bb 9e60 24bc
00000030: 81bb 00bd 819b e93c bde1 063c add8 c83c
00000040: 7f23 1abd e274 f43c 6926 93bc 2cab 3e3c
00000050: dad0 01bd 895d 1e3d ecb8 213d 74a5 3d3c
00000060: 0ac9 81bc b54c b5bb b14e c3bc 94cc 59bc
00000070: e6c1 b5bc 3470 4fb9 1304 8dbc f49e 973b
00000080: bb3e 29bb f455 c73c 72b7 3abd d1e5 13bd
00000090: fde6 ee3c 2adb 7d3c 41d6 af3b 1852 1c3c
000000a0: fb52 b239 51db c33c db0f 29bc 14e4 f5bc
000000b0: 695a 43bd e43f bdbc 18eb 89bc c939 4d3c
000000c0: 8954 fcbc ae17 703c b476 75bd 3a72 323d
000000d0: 0aad 94bc f882 71bb 9737 ddbc 4014 093d
000000e0: 85aa d1bc d4d8 0e3d 06d8 5bbc 4f03 2f3c
000000f0: 3d55 3eba 8494 e3bc 8b8b cf3c 7ef6 b63c
00000100: 6145 95b9 6abb d63b d2b9 7eb9 32b9 9fbc
00000110: 5cdb 18bd 2d57 7739 392a 693a b313 8dbc
00000120: 0db3 da3b 2812 0abc e11f 5f3d 9326 a0bb
00000130: 7019 d53c 6c8b 17bd cbdd 313d 5873 713c
00000140: 4e25 1b3d a10b 56bd 4269 9e3c dbfe 32bc
00000150: 12ff 14bd de7f a43c 3d82 21bd c706 24bd
00000160: af92 1bbd edd9 063d c231 eb3c aa1f 7d3c
00000170: c21f 27bd 2397 973c 1f27 1cbd f2a1 73bb
00000180: 92d1 0a3d a6e1 5cbc 2b5d 76bc a941 693c
00000190: 20cb 003c d9c1 e03b 7f89 25bc 4a22 313d
000001a0: 971f 1a3c ddb2 063d 2005 b0bc 87c5 b7bc
000001b0: 22b4 0b3d 29e5 a6bc 7d90 abbc 5059 cb3c
000001c0: f871 7b3a 617a 4cbd c141 933c 5618 5d3c
000001d0: 41e8 f33c 74cc 213b c973 fc3c d5b2 f83c
000001e0: b923 43bd 3059 933c b36f a8bc 8986 d73c
000001f0: 5683 19bd 1360 28bd 35da 04bd ed35 a2b8
00000200: 75e4 e43c aa2e 9ebc f8a7 003d df7f a43c
00000210: 014c 733c 3690 ad3c 70a7 4bbd 4153 30bd
00000220: 1481 0dbd d2a7 3abc a686 48bc b91d c43c
00000230: 032d aa3c 5c3d 33bc 69b4 89b9 7f3f 07bd
00000240: 0ca6 0e3d 839a 6239 fdd4 aabc 3884 af3c
00000250: 0f89 9abb b296 8c3c 23c6 cf3c 8c67 8e3c
00000260: 58a5 cc3c 91d9 debc d73f e83c 94ca 843c
00000270: 55fb 21bd ba7c 823a a161 72bc 714b b0bc
00000280: 9813 9cbc ffde 1a3d 414d 313c c220 f53c
00000290: b9ab babc 717d 0b3c 8a46 a9bb 291d 013d
000002a0: 80b6 08bd 291d 01bd b57e 903c e19c dfbc
000002b0: 660b ad3b 5b70 15bc 4352 293d f97a 9dbc
000002c0: b205 7339 5634 4abc 67af 11bd 27f7 a3bc
000002d0: 0b3c d9bc b8ef 123c 5240 013d 6357 d9bc
000002e0: 5b3d b3bc 6f91 5d3c f44a d0bc c3f1 bc3c
000002f0: 66c6 06bb 9ba7 d83c 9909 f3ba 9277 c43c
00000300: aa01 3bbc 5c2c 3dbd 2e11 ca3c 4468 17bd
00000310: bfbf 1abd 3a19 f3bb c794 9abc 9221 a8bb
00000320: 4a38 1f3d 6d0d 903c 1f83 37bd 5755 af3c
00000330: 6b37 d03c da6b 44bc 5ab0 43bd 7dac 183c
00000340: 87ff 66bd 6e0f 65bc 9708 253c f327 96bc
00000350: 1467 f5bb 3fc0 c13b 9fc7 36bc f3b7 61bd
00000360: e97c d6bc 2c05 853c 54b1 83bc f908 94bc
00000370: 426b f3bc 5b48 aa3c 2cb7 3cbd 15f8 0ebb
00000380: ba6b 0c3d 5bc0 b2bc 702f c3bc bdd8 64bc
00000390: 3045 fabc 4a11 bbbc 970e 243d 42f7 14bd
000003a0: 6c76 773b 7062 25bd 57ef 23bd c33a 8dbb
000003b0: 8c8b cfbc e43f bdbb 9387 b33b aaa2 7c3c
000003c0: d1cb 7bbc a72a adba 42f7 94bc 1ed4 dbbc
000003d0: 3ac3 d63a 0273 57bd 240f 20bd e028 01bd
000003e0: 7360 973c f95e b0bc 1580 063d 3535 993c
000003f0: 1c90 3cbb 3099 41bd 980d 9d3c bccb 983c

conv.2.bias f4 [32]
-0.025724392 -0.04012478 0.014501344 0.02223375 0.016317457 -0.04104019 0.024358405 0.010309117
0.027572159 0.0145863015 -0.015844796 -0.010006443 -0.013608296 -0.028572414 0.020721233 0.032235984
-0.027900908 -0.049066756 -0.03694977 0.0018804687 0.010811844 0.003146524 -0.042963605 0.014820813
0.009190803 -0.007098525 -0.03231605 0.014959018 0.040369745 -0.04547382 -0.00057748554 -0.0063440185
00000000: f6bb d2bc e259 24bd 0c97 6d3c 8e23 b63c
00000010: 30ac 853c c219 28bd 478b c73c 92e7 283c
00000020: 02df e13c 62fb 6e3c f2cc 81bc 10f2 23bc
00000030: 55f5 5ebc b210 eabc 93bf a93c e109 043d
00000040: 7290 e4bc 39fa 48bd a458 17bd 0f7a f63a
00000050: 2924 313c ea35 4e3b 9bfa 2fbd ffd2 723c
00000060: 0695 163c be9a e8bb d65d 04bd ab16 753c
00000070: bf5a 253d c242 3abd 6662 17ba 7ce1 cfbb

conv.4.weight f4 [32, 32, 3, 3]
0.023083128 0.007277216 0.031723116 -0.046870343 0.056653082 -0.038551662 -0.04234406 -0.030638114
-0.0148980925 -0.07365251 0.04830795 -0.031611305 -0.059572205 0.008134986 0.13399218 0.004326401
0.06931846 -0.011881623 0.03672997 0.038354218 -0.015396357 0.014978189 -0.04402046 0.0552002
-0.026450833 0.026886698 0.043249313 -0.050610583 0.039933767 -0.00478217 -0.027544219 0.044776704
-0.0033254465 -0.006841817 -0.021464467 0.011277996 -0.017660834 -0.041902155 -0.04510647 0.01607721
-0.013486577 0.05720052 0.011424995 0.063143484 -0.028410347 -0.038268536 -0.04158781 -0.08532887
0.023779765 0.063692115 0.028756818 -0.028531436 0.010264703 0.011035849 -0.033927966 -0.08641556
0.07156973 0.05228693 -0.05341771 0.042989958 0.016190693 -0.046170305 -0.066748686 0.0758014
0.014868178 0.011350799 0.016697995 -0.011531431 -0.08163235 0.06931284 -0.030846272 -0.010566838
-0.03523611 0.010777869 0.054440234 -0.008039746 -0.027918616 0.015551889 -0.04134194 0.044463776
0.053181067 -0.015986005 0.09040462 0.018241933 -0.11359621 0.035830684 0.07743795 0.07457135
0.12643367 -0.02068567 0.047529727 -0.035865694 -0.053646732 0.047954418 -0.013354872 -0.016293699
-0.009923835 0.014572127 -0.0034432602 -0.08285672 -0.0742461 0.031582784 0.05283638 0.047060777
0.05551864 -0.0471132 0.03247397 0.023675948 0.035371788 -0.05410671 -0.0011499218 -0.011500692
-0.10946103 -0.008799187 -0.0056472155 0.05066004 -0.031213602 -0.059760015 -0.0053819497 -0.0334554
0.03329149 -0.048557922 0.02963972 -0.028086256 -0.034751818 -0.004590781 0.031166045 -0.07821192
0.01193353 0.05448616 -0.063078485 0.04688493 -0.063147776 0.051577672 0.025455112 0.021266418
0.007003373 -0.08403596 0.0020246375 0.07371177 -0.07262493 0.056016292 0.09352668 0.04815597
0.0004916207 -0.023562973 0.030085262 -0.03493462 0.05507398 0.06834846 -0.11914799 0.012433461
-0.013408398 0.03148867 -0.02079871 -0.0018178445 -0.1006073 -0.03501935 0.035844043 0.04668418
0.08206536 0.016970161 -0.03598863 0.034122232 -0.0315443 0.0063170097 0.019758264 0.039982192
0.064995974 0.06415405 0.055371564 0.061922908 -0.033864222 -0.04176098 0.05212584 -0.04345965
0.09271128 -0.06343987 -0.00092952064 0.033041187 0.023808839 0.04259078 -0.011652022 0.060406186
-0.056970347 0.109020524 0.058559 -0.0505362 0.11324262 -0.015393452 -0.08991217 -0.048755597
-0.073445685 0.11078657 0.05093682 -0.032887407 0.024121076 0.06312373 -0.053919867 0.03370038
0.024413629 0.0127347 0.0015161934 -0.019884717 0.06491228 -0.036097832 0.0059818244 0.082718216
-0.080021136 0.007556982 -0.056611303 -0.029389644 0.08748011 0.06704971 0.030431915 0.021056313
-0.08392393 0.011402091 -0.1260755 -0.03148647 -0.056830455 0.0619418 -0.08192969 0.05154971
-0.0073739947 -0.010049566 -0.006342621 -0.035709232 -0.027158648 0.0036185842 -0.031700764 -0.051832497
-0.019337298 0.045693137 0.078632586 0.0130119305 -0.06072158 -0.06460146 0.10635349 -0.0056595234
-0.034885548 0.103654124 0.15002903 -0.048648722 0.0012671805 0.009744625 0.038217384 -0.042501625
0.09942744 -0.026353326 0.060163856 -0.03682643 -0.008365747 0.016868085 0.071815066 0.06154362
00000000: d418 bd3c b675 ee3b 19f0 013d 1efb 3fbd
00000010: 100d 683d 59e8 1dbd f770 2dbd c8fc fabc
00000020: 2117 74bc 21d7 96bd 8fde 453d db7a 01bd
00000030: fc01 74bd 9b48 053c 3f35 093e 7bc4 8d3b
00000040: d6f6 8d3d 24ab 42bc 2a72 163d 5019 1d3d
00000050: 0041 7cbc 1467 753c cc4e 34bd 9b19 623d
00000060: 6baf d8bc 7e41 dc3c 3126 313d 0b4d 4fbd
00000070: 9791 233d c0b3 9cbb 6aa4 e1bc c767 373d
00000080: bcef 59bb 5231 e0bb 40d6 afbc 58c7 383c
00000090: 74ad 90bc 98a1 2bbd 90c1 38bd 5ab4 833c
000000a0: cef6 5cbc 184b 6a3d e72f 3b3c 5f51 813d
000000b0: d1bc e8bc 78bf 1cbd fb57 2abd e7c0 aebd
000000c0: c8cd c23c 0371 823d 6b93 eb3c c2ba e9bc
000000d0: 492d 283c b5cf 343c 0df8 0abd a4fa b0bd
000000e0: 2793 923d d22a 563d 87cc 5abd 3d16 303d
000000f0: 58a2 843c 131d 3dbd 89b3 88bd c43d 9b3d
00000100: a999 733c b4f8 393c 3cca 883c 54ee 3cbc
00000110: dd2e a7bd e4f3 8d3d 52b1 fcbc 8820 2dbc
00000120: bd53 10bd a995 303c b9fc 5e3d 24b9 03bc
00000130: 95b5 e4bc 5acd 7e3c 2b56 29bd a61f 363d
00000140: 64d4 593d 15f5 82bc 0f26 b93d 1b70 953c
00000150: 21a5 e8bd 32c3 123d ca97 9e3d ddb8 983d
00000160: d477 013e ff74 a9bc 88ae 423d e8e7 12bd
00000170: adbc 5bbd da6b 443d 65ce 5abc 5d7a 85bc
00000180: 9597 22bc eebf 6e3c 52a8 61bb c9b0 a9bd
00000190: 570e 98bd f35c 013d f66a 583d cdc2 403d
000001a0: 8367 633d c5f9 40bd 6d03 053d 10f4 c13c
000001b0: 02e2 103d ff9e 5dbd f9b8 96ba 666d 3cbc
000001c0: 1b2d e0bd 772a 10bc 470c b9bb e780 4f3d
000001d0: abb3 ffbc ebc6 74bd 115b b0bb 8808 09bd
000001e0: a85c 083d ace4 46bd 00cf f23c 2615 e6bc
000001f0: ec57 0ebd 436e 96bb ef4f ff3c 922d a0bd
00000200: da84 433c e12c 5f3d 4b2f 81bd 6a0a 403d
00000210: 9f53 81bd 1c43 533d 3d87 d03c e936 ae3c
00000220: 8d7c e53b 0c1b acbd c8af 043b 32f6 963d
00000230: 61bc 94bd 5771 653d ea8a bf3d 323f 453d
00000240: 1be0 003a 2307 c1bc 5e75 f63c 9b17 0fbd
00000250: 4195 613d 47fa 8b3d dd03 f4bd b7b5 4b3c
00000260: e6ae 5bbc 43fa 003d 0e62 aabc bd44 eeba
00000270: 330b cebd 7370 0fbd 34d1 123d e937 3f3d
00000280: e211 a83d 0205 8b3c d068 13bd c1c3 0b3d
00000290: 9934 01bd ebfe ce3b 15dc a13c 5ec4 233d
000002a0: 9c1c 853d 3363 833d 4bcd 623d e0a2 7d3d
000002b0: 36b5 0abd 900d 2bbd e881 553d bf02 32bd
000002c0: 69df bd3d c3ec 81bd 13ab 73ba 3256 073d
000002d0: c10a c33c ab73 2e3d 1fe8 3ebc 7a6c 773d
000002e0: bd59 69bd 2746 df3d 90db 6f3d 0cff 4ebd
000002f0: bfeb e73d d134 7cbc df23 b8bd f3b3 47bd
00000300: b16a 96bd 12e4 e23d 21a3 503d f2b4 06bd
00000310: 9099 c53c 0447 813d 14db 5cbd 6909 0a3d
00000320: 17ff c73c 34a5 503c 02bb c63a 46e5 a2bc
00000330: bbf0 843d 52db 13bd 2e03 c43b 2b68 a93d
00000340: 1fe2 a3bd 8fa0 f73b 41e1 67bd 8dc2 f0bc
00000350: c628 b33d 5c51 893d 5a4c f93c 4a7e ac3c
00000360: 4fe0 abbd d6cf 3a3c f019 01be f5f7 00bd
00000370: 0dc7 68bd afb6 7d3d c1ca a7bd ca25 533d
00000380: 8da1 f1bb efa6 24bc c3d5 cfbb d843 12bd
00000390: d07b debc c525 6d3b a9d8 01bd 504e 54bd
000003a0: 4169 9ebc ba28 3b3d 1f0a a13d fe2f 553c
000003b0: 31b7 78bd c54d 84bd dccf d93d 8673 b9bb
000003c0: 26e4 0ebd 9d48 d43d 36a1 193e e243 47bd
000003d0: 8617 a63a eba7 1f3c d589 1c3d 2f16 2ebd
000003e0: 9da0 cb3d eee2 d7bc 606e 763d 50d7 16bd
000003f0: 7c10 09bc f02e 8a3c c713 933d 2a15 7c3d

conv.4.bias f4 [32]
-0.0410476 -0.052666675 -0.022991434 -0.03969173 -0.018724624 -0.01292191 -0.023488466 -0.031876814
-0.03152417 0.05241071 -0.0040199854 0.03013187 0.027108219 -0.008983529 -0.0035967946 -0.026024275
0.031256724 0.0142775 -0.010177744 -0.0109367585 -0.001802659 0.0089358715 0.023832053 0.008799972
-0.02165998 0.013675525 -0.06056699 0.0010877011 -0.028220896 -0.012528395 0.012400628 0.003383079
00000000: 8721 28bd 03b9 57bd 8858 bcbc cc93 22bd
00000010: 6264 99bc 6bb6 53bc e26a c0bc 4391 02bd
00000020: 7d1f 01bd 9dac 563d 15ba 83bb 1dd7 f63c
00000030: 0e12 de3c a72f 13bc 33b8 6bbb dc30 d5bc
00000040: 0d07 003d 2dec 693c 8dc0 26bc 1730 33bc
00000050: 3347 ecba c367 123c 703b c33c c22d 103c
00000060: 4570 b1bc 4f0f 603c 1815 78bd 3191 8e3a
00000070: 822f e7bc e643 4dbc 012c 4b3c a6b6 5d3b

fc.weight f4 [128, 821]
-0.03201335 0.002427349 0.03322987 0.017664013 -0.013602394 0.06965234 -0.03642129 -0.008080453
0.031709343 0.0022302037 0.0020499805 -0.012126413 0.056408327 -0.07715519 -0.033909913 -0.027093174
0.007823729 0.05042836 -0.15362874 0.030494146 -0.010975944 -0.0021666898 -0.01199564 0.03779676
0.063310035 -0.044388793 -0.049229592 -0.03879478 0.046561614 -0.017774554 -0.00059166923 0.029139081
-0.044766597 0.02783857 -0.098376215 0.0051546143 -0.016520621 -0.018897226 0.0055343197 -0.073723145
0.03950267 0.0013267746 -0.025714671 0.0112571055 -0.13679272 -0.015141905 0.005473014 0.01976516
0.023052195 -0.006349415 0.1083834 0.0074944957 -0.044636767 -0.03153783 0.02077661 -0.07589728
0.030276928 -0.020064434 0.03608971 -0.067701675 0.0016969511 0.0009712349 -0.019892553 -0.005898261
-0.09345878 -0.011823592 -0.002887641 0.04035049 0.07663875 0.018967995 -0.01282113 -0.046022322
0.0046662465 0.0143355355 -0.05688136 -0.008955154 0.036661517 0.06896078 -0.05055747 -0.015020893
0.012514077 0.0031720705 -0.038894273 0.018988037 0.013404767 -0.004867455 -0.044245772 0.021398697
0.042617366 -0.037895553 0.05491042 -0.076931715 0.060666494 -0.031827025 -0.0030652916 0.018749323
0.07640785 -0.005148399 -0.05152464 0.03476406 0.006811238 0.03716718 0.07263367 -0.04984157
-0.0091180615 -0.010355013 -0.024317205 -0.0075564254 -0.044237025 0.03572923 0.030570613 0.007910521
0.035912164 -0.01775511 -0.05048995 -0.07333571 -0.012382264 0.0051983627 -0.049879786 0.0063090194
0.07208179 0.037206065 0.0030637057 0.0265805 0.008659772 0.06883009 0.019493831 0.014715583
0.06695372 0.013103869 0.13437183 0.002749812 0.029726312 0.11169274 -0.071647406 0.040695455
0.06316445 -0.038983475 0.045400754 -0.0027280608 0.049077857 -0.075619325 0.026698858 0.0586656
-0.047767308 0.039891146 -0.020715889 -0.007779833 -0.031802837 -0.042213734 -0.05712795 -0.01588372
-0.00037345936 0.0025530136 -0.01907237 0.00892144 -0.015233727 -0.029743124 -0.020593615 0.019774878
0.034006067 0.056949537 0.01815332 -0.05037712 -0.068101525 0.018105881 -0.086682126 0.055222414
0.02309087 -0.09460622 0.022073397 -0.073133744 -0.06573657 -0.0053146244 0.026973892 0.014035055
-0.006055832 0.008504595 0.03324778 -0.023203727 -0.001004763 -0.0065610227 0.006398974 0.047075897
0.0039085927 0.01842632 -0.018177794 -0.010565382 0.07229796 -0.032506034 0.02951744 -0.016002465
-0.01836068 -0.037628606 -0.0044310703 -0.008687588 -0.041154977 0.00045868388 -0.031153692 0.0048791445
0.0328274 -0.007829487 0.026275732 0.024493605 0.08226936 0.034172054 0.015891865 0.047253065
-0.03139008 -0.02481492 -0.0312848 -0.011458118 -0.007495552 -0.007838703 0.009013095 -0.006419304
0.025124658 0.038842514 -0.121640295 0.05489944 -0.07831715 -0.016200574 -0.03510625 0.04671896
0.040124666 0.04749043 -0.010512065 0.01993552 0.042809293 -0.04064373 -0.00140784 -0.04126366
0.03131318 0.03826947 -0.05083021 -0.042543232 0.08175793 0.046066795 0.028129261 -0.006133564
0.060140334 -0.041500166 0.054664217 0.044092417 -0.0191086 0.010261351 -0.07477534 0.011978182
0.017443655 -0.028459946 0.11163336 -0.016887914 -0.05367438 0.025157245 0.058406875 -0.016291428
00000000: 6e20 03bd 2914 1f3b 0b1c 083d 1fb4 903c
00000010: 93dc 5ebc e3a5 8e3d 7e2e 15bd e063 04bc
00000020: a8e1 013d 9c28 123b f758 063b ddad 46bc
00000030: 6b0c 673d 8a03 9ebd 1fe5 0abd 81f2 ddbc
00000040: 192f 003c f88d 4e3d da50 1dbe dcce f93c
00000050: 72d4 33bc 06ff 0dbb 5c89 44bc c7d0 1a3d
00000060: b1a8 813d 06d1 35bd f8a4 49bd 46e7 1ebd
00000070: 64b7 3e3d f19b 91bc 401a 1bba 15b5 ee3c
00000080: 2e5d 37bd b60d e43c 7879 c9bd 0ae8 a83b
00000090: 4156 87bc 5bce 9abc 3d59 b53b 29fc 96bd
000000a0: 8dcd 213d 2be7 ad3a 93a7 d2bc b96f 383c
000000b0: 6413 0cbe c115 78bc f856 b33b 8bea a13c
000000c0: f5d7 bc3c c10e d0bb 1ef8 dd3d 6394 f53b
000000d0: 0bd5 36bd d02d 01bd b633 aa3c 0870 9bbd
000000e0: 5207 f83c 2b5e a4bc ced2 133d 2da7 8abd
000000f0: 3b6c de3a 799a 7e3a b5f5 a2bc 3346 c1bb
00000100: 5167 bfbd bdb7 41bc 943e 3dbb 8e46 253d
00000110: c7f4 9c3d c562 9b3c b80f 52bc e781 3cbd
00000120: 50e7 983b 98df 6a3c 6efc 68bd a3b8 12bc
00000130: 632a 163d 4f3b 8d3d 5a15 4fbd 311a 76bc
00000140: d807 4d3c 83e2 4f3b 9a4f 1fbd cd8c 9b3c
00000150: ab9f 5b3c 2c7f 9fbb 0e3b 35bd 524c af3c
00000160: 8c8f 2e3d 5e38 1bbd c0e9 603d 608e 9dbd
00000170: 6e7d 783d 0e5d 02bd 0fe3 48bb 2e98 993c
00000180: b87b 9c3d e7b3 a8bb 800b 53bd c264 0e3d
00000190: ce30 df3b 9d3c 183d f6c0 943d ad26 4cbd
000001a0: ec63 15bc 13a8 29bc e034 c7bc e49b f7bb
000001b0: e231 35bd d058 123d 396f fa3c 219b 013c
000001c0: a218 133d 2a73 91bc 8dce 4ebd 0831 96bd
000001d0: fbde 4abc 0757 aa3b bf4e 4cbd e4bb ce3b
000001e0: 9e9f 933d 6365 183d 74c8 483b 59bf d93c
000001f0: b7e1 0d3c caf6 8c3d 87b1 9f3c a119 713c
00000200: 081f 893d 9cb1 563c c598 093e 3136 343b
00000210: 9884 f33c 2abf e43d e0bb 92bd 47b0 263d
00000220: 5d5c 813d 23ad 1fbd 24f6 393d 44c9 32bb
00000230: dd05 493d 4ede 9abd 90b7 da3c 574b 703d
00000240: a7a7 43bd e664 233d 5eb4 a9bc f8ed febb
00000250: b143 02bd 4fe8 2cbd fffe 69bd 931e 82bc
00000260: decc c3b9 7650 273b a93d 9cbc 3b2b 123c
00000270: e296 79bc daa7 f3bc f1b3 a8bc edfe a13c
00000280: f249 0b3d eb43 693d 45b6 943c 3d58 4ebd
00000290: d078 8bbd c952 943c 6686 b1bd e630 623d
000002a0: 1029 bd3c e8c0 c1bd 45d3 b43c 25c7 95bd
000002b0: e5a0 86bd 4d26 aebb 5af8 dc3c 4af3 653c
000002c0: 0070 c6bb db56 0b3c d32e 083d be15 bebc
000002d0: 40b2 83ba d9fd d6bb 7cae d13b a8d2 403d
000002e0: a713 803b cbf2 963c 99e9 94bc 6d1a 2dbc
000002f0: f410 943d 0c25 05bd 8fce f13c 9a17 83bc
00000300: 2369 96bc 7420 1abd 8332 91bb 6356 0ebc
00000310: 1f92 28bd 827b f039 0736 ffbc 3be1 9f3b
00000320: 0676 063d 4047 00bc 3440 d73c d0a6 c83c
00000330: d77c a83d fff7 0b3d a82f 823c 6e8c 413d
00000340: e292 00bd a948 cbbc 7e24 00bd d5ba 3bbc
00000350: 3f9d f5bb e76d 00bc a9ab 133c 0659 d2bb
00000360: 3ad2 cd3c 5419 1f3d 8c1e f9bd 3cde 603d
00000370: be64 a0bd 11b7 84bc 92cb 0fbd 615c 3f3d
00000380: c359 243d 5385 423d cc3a 2cbc d14f a33c
00000390: cc58 2f3d 0a7a 26bd 4687 b8ba 1504 29bd
000003a0: 4042 003d 73c0 1c3d 5733 50bd d041 2ebd
000003b0: b470 a73d 89b0 3c3d 566f e63c 10fc c8bb
000003c0: b655 763d 14fc 29bd 96e7 5f3d 409a 343d
000003d0: a489 9cbc 3a1f 283c d023 99bd 2340 443c
000003e0: ffe5 8e3c d524 e9bc 08a0 e43d 8658 8abc
000003f0: abd9 5bbd 9116 ce3c 0c3c 6f3d 9a75 85bc

fc.bias f4 [128]
-0.006160155 0.067451976 0.037208844 -0.11975875 -0.0070399377 -0.020841384 -0.014994329 -0.0066660903
0.0069388873 0.033608984 -0.01901008 0.011180888 -0.030809581 0.004482487 -0.029059842 -0.049349856
0.057480775 -0.02305708 0.01729112 -0.040904325 0.04469757 -0.007566579 0.010560909 0.025230275
0.10038087 -0.03563017 -0.04464632 -0.0015565917 -0.010216853 0.045588873 0.012460817 0.08108675
0.025766201 -0.046438206 0.019197898 -0.08148348 0.02012387 0.023452278 0.022799272 0.012606306
0.018576028 -0.00092380657 -0.034326285 -0.057920996 -0.036425278 -0.022817248 0.057329394 -0.04885595
-0.0072917067 -0.032968424 0.041588165 0.06906826 0.0009016639 -0.0075534573 -0.0022809342 -0.037059363
-0.038557187 -0.03957323 0.017848996 -0.010447875 -0.06421137 0.00805502 0.064507194 -0.049992863
-0.021610692 -0.002448322 -0.028944949 -0.020720445 -0.016755527 0.031107688 -0.0077602905 -0.0046303817
0.0665128 0.0021376936 -0.054431506 0.03906209 0.03945117 0.057299104 -0.0232164 0.004065356
0.0040392578 0.049933266 0.005950499 0.10589521 0.017467376 -0.021238372 -0.059468344 -0.004218632
-0.08854715 -0.0699999 0.022505932 0.03301103 0.032525204 -0.0015295291 -0.029649463 0.029782612
-0.0070491605 -0.010070734 0.056468133 0.025708444 -0.02647974 -0.033767533 -0.021920217 0.0074727135
0.019241065 -0.023896862 0.014551496 -0.007807469 -0.034189798 0.037091635 -0.023312464 0.054350328
0.01924854 0.0205148 -0.026988951 0.020078119 -0.029988399 -0.0355475 0.014982467 -0.043392465
0.08633083 0.018734446 -0.06565063 0.033034552 0.11513537 0.009641341 -0.00056409574 0.016393
00000000: 20db c9bb 4324 8a3d 4d68 183d 1344 f5bd
00000010: 47af e6bb 8dbb aabc c6aa 75bc 386f dabb
00000020: 9b5f e33b 93a9 093d 07bb 9bbc 0b30 373c
00000030: 6064 fcbc d4e1 923b e80e eebc 1323 4abd
00000040: f670 6b3d 34e2 bcbc 1ba6 8d3c 4b8b 27bd
00000050: cd14 373d 11f1 f7bb aa07 2d3c b9af ce3c
00000060: 7c94 cd3d f1f0 11bd 0fdf 36bd 8d06 ccba
00000070: 9664 27bc 66bb 3a3d 7428 4c3c cf10 a63d
00000080: a413 d33c fd35 3ebd e944 9d3c d0e0 a6bd
00000090: d0da a43c fe1e c03c 8ac5 ba3c ae8a 4e3c
000000a0: c12c 983c 9c2b 72ba b899 0cbd 913e 6dbd
000000b0: ac32 15bd 3deb babc 3ad2 6a3d 2d1d 48bd
000000c0: 45ef eebb e609 07bd 5a58 2a3d a973 8d3d
000000d0: a45d 6c3a fe82 f7bb ba7b 15bb 8fcb 17bd
000000e0: 24ee 1dbd 8a17 22bd 0f38 923c 902d 2bbc
000000f0: 4081 83bd 34f9 033c 591c 843d 51c5 4cbd
00000100: e808 b1bc 0774 20bb f51d edbc ecbd a9bc
00000110: e342 89bc 8dd5 fe3c 094a febb 75ba 97bb
00000120: dd37 883d 8c18 0c3b 92f3 5ebd 92ff 1f3d
00000130: 8d97 213d 77b2 6a3d 5230 bebc ae36 853b
00000140: c05b 843b d386 4c3d 67fc c23b 96df d83d
00000150: be17 8f3c 18fc adbc 1495 73bd 733c 8abb
00000160: 3558 b5bd 1c5c 8fbd 5c5e b83c 9336 073d
00000170: 2639 053d 7b7a c8ba 6ee3 f2bc aafa f33c
00000180: a5fc e6bb b8ff 24bc 214b 673d 849a d23c
00000190: 0aec d8bc d34f 0abd 0792 b3bc aadd f43b
000001a0: 709f 9d3c 5ac3 c3bc 6669 6e3c ccd5 ffbb
000001b0: 9a0a 0cbd 66ed 173d c8f9 bebc 739e 5e3d
000001c0: 1daf 9d3c a70e a83c ef17 ddbc de7a a43c
000001d0: 3baa f5bc 419a 11bd 0579 753c 4cbc 31bd
000001e0: 38ce b03d fb78 993c d673 86bd 3d4f 073d
000001f0: 18cc eb3d b7f6 1d3c d3df 13ba 9d4a 863c

layers.0.weight f4 [128, 128]
-0.080306925 0.061745342 0.049614087 -0.10725294 -0.03721766 -0.13209923 -0.09260161 0.1601494
-0.06317486 0.20075701 -0.0067738835 -0.046376854 0.025710318 -0.012243034 -0.029281212 -0.030142846
0.08274494 0.03963528 0.16557223 0.0042013437 0.073735654 0.08601153 -0.020747233 0.10359243
0.056656815 0.01291729 0.108730905 -0.08032885 0.17393704 0.15287077 0.0072793257 0.08159037
0.14905798 -0.013868759 -0.010706099 0.008685432 0.07099577 0.0017263875 0.0115869595 -0.004420974
0.02316654 0.13723919 -0.23338409 0.034407884 -0.0677003 0.038062613 0.059771255 -0.059678786
0.041062567 -0.15657978 0.09910967 0.14086677 -0.012660213 0.008754153 0.042849388 -0.043853585
-0.1367425 -0.17445114 0.081451334 0.0009648701 0.08626206 0.020497054 0.0066161035 -0.14471787
0.11488568 0.17249057 0.034881685 0.02230336 -0.07740069 0.059735335 -0.088322565 0.0026519403
0.0132310055 0.06559656 -0.137994 0.04357472 -0.11101976 -0.07345951 -0.048931725 0.002529863
0.026195664 0.039870568 -0.1341589 0.1409077 0.038726248 0.10419192 -0.027764712 0.018460166
-0.1840194 -0.110939264 0.0136354 0.007575057 0.03079206 -0.014001422 0.08769344 0.15050025
-0.06437286 -0.003600471 0.09883157 0.07758306 0.016166642 -0.030222071 0.03257015 0.054009747
0.017696908 -0.18248555 0.055518743 -0.05599617 -0.27598473 0.077376336 -0.028313441 0.08294129
0.08144939 0.08590315 -0.19191167 0.105190806 -0.10945236 -0.010253387 0.06050925 -0.15919702
0.17817739 0.12371025 -0.2180719 0.0064803697 0.08014049 0.033221275 -0.06645869 0.2268956
0.006694541 0.03625448 0.008283668 -0.04374625 0.04243504 0.10138836 -0.009557493 0.0007728415
0.017203262 -0.044341467 0.14056337 0.053646293 0.012884113 -0.02851647 0.06581929 0.08773579
0.08362619 -0.07562519 0.013268334 0.057644557 -0.033717893 -0.058801554 0.04707598 0.03358559
0.063278 -0.06824564 0.028130423 -0.06551393 -0.044141065 -0.07645844 -0.0418755 -0.004719724
-0.06562316 0.07878059 -0.026479596 0.07669273 0.08236996 -0.044039935 -0.12701018 0.042478286
0.06939849 -0.032594834 -0.07991009 0.04376776 -0.05471253 0.06367232 -0.11493872 0.024163967
0.07149537 -0.005348674 0.0143570155 -0.08507687 -0.06936828 -0.009977376 -0.007216078 -0.04931128
-0.09292448 -0.04588476 -0.092674434 -0.001286428 0.04753199 0.015750663 0.07753044 0.010892908
-0.055268984 -0.09504104 -0.016295683 0.010565311 -0.054305162 -0.07381853 0.14939183 0.101663984
0.150375 0.047282927 -0.03989628 -0.05930086 0.06812314 0.12228255 0.12078393 0.108627856
-0.062763944 -0.15515393 -0.023941578 0.09319877 0.016283417 0.007980513 -0.061067015 0.18470263
-0.030301193 -0.014952304 -0.09745054 -0.041663576 0.15097581 0.025876215 -0.084011905 0.004560607
-0.13988517 0.060651507 0.089802936 -0.024777776 0.013192162 0.07099264 -0.05364491 0.048445065
-0.015571585 -0.08743933 -0.007678175 -0.016547784 -0.12524183 0.17171137 0.014749924 0.112482026
-0.0034049992 -0.009353862 -0.057180885 0.06980035 0.049943488 0.13478583 0.035073075 -0.105260015
0.14138299 0.07203051 -0.011032555 0.06460589 -0.026133608 -0.1281167 0.07418912 0.029032659
00000000: f577 a4bd afe8 7c3d 2438 4b3d 6ea7 dbbd
00000010: 8c71 18bd 0545 07be eaa5 bdbd 34fe 233e
00000020: d261 81bd 3f93 4d3e 74f7 ddbb a8f5 3dbd
00000030: 729e d23c 0297 48bc 27df efbc 21ee f6bc
00000040: 2e76 a93d 9a58 223d c48b 293e 6dab 893b
00000050: b802 973d d026 b03d 1af6 a9bc 4528 d43d
00000060: fa10 683d 0ba3 533c 4fae de3d 7483 a4bd
00000070: 8d1c 323e 288a 1c3e 6987 ee3b da18 a73d
00000080: a8a2 183e cb39 63bc a268 2fbc 584d 0e3c
00000090: 3b66 913d f447 e23a 3bd7 3d3c d1dd 90bb
000000a0: c1c7 bd3c 6e88 0c3e 3dfc 6ebe 48ef 0c3d
000000b0: 74a6 8abd 8be7 1b3d b4d2 743d be71 74bd
000000c0: 3931 283d 7356 20be 03fa ca3d 613f 103e
000000d0: c86c 4fbc 946d 0f3c d782 2f3d d19f 33bd
000000e0: 3a06 0cbe 52a3 32be f5cf a63d 56ef 7c3a
000000f0: 2aaa b03d 70e9 a73c e6cb d83b ec30 14be
00000100: 2f49 eb3d 5ea1 303e 19e0 0e3d 89b5 b63c
00000110: 4184 9ebd 0aad 743d 76e2 b4bd 2dcc 2d3b
00000120: dcc6 583c 7d57 863d 4d4e 0dbe 687b 323d
00000130: 545e e3bd f171 96bd a26c 48bd 0fcc 253b
00000140: 4a98 d63c 524f 233d f360 09be 1c4a 103e
00000150: 6a9f 1e3d 9362 d53d d272 e3bc c639 973c
00000160: 956f 3cbe 2034 e3bd 0367 5f3c 2f38 f83b
00000170: a13f fc3c 3866 65bc 9e98 b33d bd1c 1a3e
00000180: ebd5 83bd e1f5 6bbb 3568 ca3d dee3 9e3d
00000190: e86f 843c 4794 f7bc 4768 053d 5339 5d3d
000001a0: 1bf9 903c 7edd 3abe 9f67 633d 3d5c 65bd
000001b0: df4d 8dbe 7c77 9e3d 97f1 e7bc 20dd a93d
000001c0: f0ce a63d feed af3d 7e84 44be 476e d73d
000001d0: 8f28 e0bd d2fd 27bc 8cd8 773d 8b04 23be
000001e0: 2274 363e cd5b fd3d 3d4e 5fbe 4859 d43b
000001f0: b220 a43d 0813 083d 7e1b 88bd 5257 683e
00000200: e15d db3b 947f 143d 39b8 073c 452f 33bd
00000210: 5dd0 2d3d b3a4 cf3d 0897 1cbc 8498 4a3a
00000220: dbed 8c3c 669f 35bd d8ef 0f3e 37bc 5b3d
00000230: e317 533c 5f9b e9bc 44cc 863d d2ae b33d
00000240: 3544 ab3d 61e1 9abd 6d63 593c b31c 6c3d
00000250: c61b 0abd e6d9 70bd bed2 403d 0b91 093d
00000260: e597 813d 5fc4 8bbd c671 e63c 2b2c 86bd
00000270: 43cd 34bd 3e96 9cbd a585 2bbd eaa7 9abb
00000280: 6f65 86bd b857 a13d bdeb d8bc 1411 9d3d
00000290: 95b1 a83d 3863 34bd f50e 02be b6fd 2d3d
000002a0: cc20 8e3d 2982 05bd e7a7 a3bd d345 333d
000002b0: 3f1a 60bd a266 823d fe64 ebbd 83f3 c53c
000002c0: 2a6c 923d ee43 afbb b039 6b3c c83c aebd
000002d0: f510 8ebd 2678 23bc da74 ecbb a0fa 49bd
000002e0: 314f bebd a8f1 3bbd 18cc bdbd 5c9d a8ba
000002f0: e7b0 423d 8907 813c 48c8 9e3d 2b78 323c
00000300: bb61 62bd e0a4 c2bd 867e 85bc 201a 2d3c
00000310: 176f 5ebd 2b2e 97bd 2cfa 183e 3535 d03d
00000320: e7fb 193e beab 413d 486a 23bd 75e5 72bd
00000330: 2584 8b3d 466f fa3d 915d f73d 4878 de3d
00000340: 628a 80bd ace0 1ebe 2121 c4bc ffde be3d
00000350: cd64 853c b3c0 023c 6821 7abd b022 3d3e
00000360: 353a f8bc 82fa 74bc 2694 c7bd 6da7 2abd
00000370: 6799 1a3e 5bfa d33c 6f0e acbd 2571 953b
00000380: 0f3e 0fbe b76d 783d 9aea b73d c3fa cabc
00000390: f023 583c 9764 913d c4ba 5bbd 556e 463d
000003a0: f61f 7fbc 6413 b3bd 3399 fbbb 388f 87bc
000003b0: 653f 00be 1bd5 2f3e aaa9 713c fa5c e63d
000003c0: 6826 5fbb f140 19bc 8136 6abd 7cf3 8e3d
000003d0: 8b91 4c3d 4c05 0a3e c9a8 0f3d 9092 d7bd
000003e0: b4c6 103e bb84 933d e4c1 34bc 1850 843d
000003f0: 2616 d6bc 0631 03be 77f0 973d e6d5 ed3c

layers.0.bias f4 [128]
-0.089772895 0.018254891 0.034465652 -0.008558795 -0.09320456 0.022821393 -0.050340485 -0.08255532
0.0669158 -0.04982816 0.05009568 0.011155849 0.015352741 -0.06857345 -0.07230445 -0.011924384
0.00893913 0.040565718 0.02116241 0.038675334 0.0468363 0.02127291 -0.07320265 0.080968745
0.014071664 -0.00896311 0.025110004 -0.11337976 0.07226239 0.06237829 0.04366624 0.03257385
-0.0032972645 -0.02130328 -0.089026816 -0.040068112 -0.09215095 -0.03376676 0.06242103 -0.03165157
0.049244292 0.00884 -0.024018664 0.049097 -0.12200953 -0.12539944 -0.039593454 0.016346887
-0.031404134 0.029144272 0.039065145 -0.05327378 -0.080266826 0.066987604 -0.09469128 0.079253
0.03696879 -0.05514911 -0.05245196 -0.01653761 -0.012629061 -0.054967936 -0.05136089 -0.10112628
-0.021090409 -0.030335048 -0.103183985 0.03902825 -0.036202896 -0.008452997 -0.010620985 0.0754296
-0.03221943 -0.057738613 0.03691179 0.04695807 -0.023951422 0.019170947 -0.08405993 -0.07373315
-0.07015436 -0.00587434 -0.076571114 -0.09707684 0.028304623 0.042703547 -0.007326355 0.00095076027
-0.15728083 0.028563969 0.013312332 0.0059424 -0.089292765 -0.08092566 -0.03191608 0.06675433
0.017599484 -0.061555654 -0.034595985 -0.1152349 -0.057035007 -0.06499211 -0.028038487 -0.11239128
-0.020543609 -0.047172703 0.023751 0.008234561 0.042935073 -0.049700905 -0.0054642195 -0.12601957
-0.08006322 -0.06040169 -0.012064402 -0.04294486 0.056659117 -0.0018126363 0.00302913 -0.07311161
-0.039416634 0.019723644 -0.047929946 -0.061179228 0.077988565 -0.037394624 -0.04532136 0.0008680695
00000000: dada b7bd 488b 953c db2b 0d3d 303a 0cbc
00000010: 08e2 bebd eef3 ba3c d331 4ebd c312 a9bd
00000020: 270b 893d 9d18 4cbd 2131 4d3d 06c7 363c
00000030: 108a 7b3c 3d70 8cbd 5b14 94bd 7e5e 43bc
00000040: 6e75 123c 3d28 263d ca5c ad3c 076a 1e3d
00000050: 6cd7 3f3d 8744 ae3c 45eb 95bd f1d2 a53d
00000060: d68c 663c 02da 12bc 7fb3 cd3c a633 e8bd
00000070: 4efe 933d 6180 7f3d 5fdb 323d 286c 053d
00000080: eb16 58bb 3784 aebc b153 b6bd 761e 24bd
00000090: a3b9 bcbd 044f 0abd 32ad 7f3d 14a5 01bd
000000a0: 62b4 493d a6d5 103c cac2 c4bc f019 493d
000000b0: 22e0 f9bd b668 00be bf2c 22bd e8e9 853c
000000c0: 9fa1 00bd f8bf ee3c c602 203d 9b35 5abd
000000d0: ef62 a4bd cc30 893d 80ed c1bd 664f a23d
000000e0: 966c 173d 08e4 61bd ded7 56bd e279 87bc
000000f0: 1fea 4ebc 0f26 61bd cc5f 52bd 4c1b cfbd
00000100: cbc5 acbc 3581 f8bc 2052 d3bd 16dc 1f3d
00000110: 7d49 14bd 707e 0abc a403 2ebc d67a 9a3d
00000120: 85f8 03bd 537f 6cbd d130 173d 1b57 403d
00000130: c635 c4bc 640c 9d3c 9d27 acbd 6801 97bd
00000140: 17ad 8fbd 897d c0bb 51d1 9cbd 39d0 c6bd
00000150: 19df e73c eae9 2e3d ec11 f0bb 713c 793a
00000160: 3a0e 21be fcfe e93c f81b 5a3c 77b8 c23b
00000170: 20df b6bd 5abc a5bd 6fba 02bd 7fb6 883d
00000180: cb2c 903c c821 7cbd 85b4 0dbd 4600 ecbd
00000190: 8a9d 69bd 951a 85bd f8b0 e5bc 662d e6bd
000001a0: 124b a8bc 2a38 41bd 7591 c23c 41ea 063c
000001b0: b0dc 2f3d 2d93 4bbd 320d b3bb 460b 01be
000001c0: 2ff8 a3bd c367 77bd c5a9 45bc f3e6 2fbd
000001d0: 6413 683d fb95 edba 5e84 463b 8abb 95bd
000001e0: 5673 21bd 7b93 a13c 3152 44bd 1297 7abd
000001f0: 78b8 9f3d 1b2b 19bd e4a2 39bd 288f 633a

layers.1.weight f4 [128, 128]
-0.03187136 -0.1258008 0.0038362297 -0.17825098 -0.055225436 -0.21531099 0.05643613 -0.18048887
0.014881011 -0.021831194 0.14099568 0.078756794 0.023191314 -0.12518564 -0.06535254 -0.08769562
-0.20213276 -0.1853229 -0.0912957 0.16187502 -0.114286825 0.016392104 0.17207378 0.11011285
-0.05264999 -0.14004892 0.13753873 -0.046865787 -0.03657874 0.0724841 -0.039397158 0.16348179
0.07432941 0.032904647 0.1608009 -0.12844199 0.052817434 -0.013721971 -0.03853611 -0.028117424
-0.04653558 0.15924144 0.059818555 -0.034964394 0.108694114 -0.16333346 -0.044453446 -0.087695904
0.0666874 0.10209062 0.027281163 -0.018320449 -0.050578393 0.22329304 -0.040063977 -0.22065024
-0.074593075 0.066237226 0.22568125 -0.20862062 -0.21068855 0.012905 -0.15418041 0.13209553
-0.094022326 -0.14989376 0.088029884 -0.050562195 -0.026754914 0.063366435 -0.12963685 0.16656159
0.13996722 -0.09796921 0.037294112 -0.020472312 -0.03800948 0.082775265 0.1291592 0.079710215
-0.20273736 -0.10870008 0.09728089 -0.09498522 -0.25353447 -0.16650169 -0.068021774 -0.04947008
-0.23432069 0.010026963 -0.085513964 0.104982875 -0.1702962 0.00958207 -0.16662939 -0.10549653
-0.19336222 -0.02451606 -0.16412757 -0.15146081 -0.09419159 -0.0037465848 0.0060692662 -0.06729605
-0.0039020574 -0.17684439 0.20501482 -0.1641998 -0.010239216 0.11146651 0.03546179 0.112633266
-0.08713543 0.14539479 -0.052801702 -0.054244544 -0.088316955 -0.07564906 -0.062002882 0.0262192
0.012817693 -0.068464816 0.072728306 0.1761049 -0.13900626 -0.120893314 0.07275227 -0.06630487
-0.22612616 -0.019765364 0.08052792 -0.036405228 -0.13505638 0.11884544 -0.16491324 -0.14335975
-0.23303613 0.12067729 -0.12862252 -0.08903337 0.059322536 0.082132936 -0.09711189 -0.09047204
0.041781697 0.049564745 0.06338312 -0.11002008 -0.10694324 0.058304034 -0.120276175 -0.08460496
-0.052005064 0.1336749 -0.10718882 -0.08459621 -0.22493187 -0.027888939 0.082265474 0.044723533
-0.02294825 -0.109650135 -0.03991673 -0.23078693 0.15864341 -0.23006758 0.042513635 -0.15747495
-0.058302596 -0.10651645 -0.0812268 0.15050396 -0.25479484 0.025138691 0.09126151 -0.1932302
0.16080666 0.015988529 0.2115345 0.020799294 -0.1524232 -0.044969272 0.14644553 0.089273095
-0.18003626 0.028841428 -0.11791165 -0.12410123 -0.06619113 0.24069898 0.13531119 0.024000406
0.18507732 0.25373778 0.0103008095 -0.040626135 -0.19759592 -0.030967444 0.030568013 -0.14924948
-0.13912599 0.17935023 -0.010908782 -0.110790476 0.09069431 0.01712763 -0.22639666 -0.00673629
-0.058465295 -0.19427006 -0.09051509 -0.12890741 0.13974684 -0.13042456 0.04871938 -0.122543626
-0.061390184 0.047543302 -0.13120672 -0.09795265 0.0859953 -0.054541927 -0.03942519 -0.12509434
-0.12191631 0.053482763 0.20201701 0.15681276 0.09331215 -0.045597114 -0.13442771 0.0034387712
-0.09835185 0.07255932 -0.07237891 0.06833966 -0.08657117 0.07268529 -0.06316525 -0.014534203
0.06454262 -0.15015182 -0.1327994 0.040324308 0.033773392 -0.03412763 0.079113014 0.29115224
-0.09720587 0.17055069 -0.03225897 0.10170506 -0.17945217 -0.066418156 -0.0043892255 0.004972289
00000000: 8b8b 02bd edd1 00be 4169 7b3b 6d87 36be
00000010: 1134 62bd 7c7a 5cbe 9229 673d 13d2 38be
00000020: 7ccf 733c 55d7 b2bc 2c61 103e 3e4b a13d
00000030: b6fb bd3c aa30 00be 8dd7 85bd c399 b3bd
00000040: e4fb 4ebe 49c5 3dbe 3df9 babd 91c2 253e
00000050: 360f eabd bc48 863c 1c34 303e d982 e13d
00000060: 84a7 57bd fc68 0fbe f4d6 0c3e 57f6 3fbd
00000070: 97d3 15bd 8b72 943d ea5e 21bd c567 273e
00000080: 053a 983d 06c7 063d fea8 243e 4c86 03be
00000090: 1857 583d 1ed2 60bc 0ad8 1dbd 8356 e6bc
000000a0: 189c 3ebd 3010 233e 4d04 753d d336 0fbd
000000b0: 059b de3d e340 27be d114 36bd e999 b3bd
000000c0: 6793 883d e314 d13d bf7c df3c c414 96bc
000000d0: 4a2b 4fbd eea6 643e 201a 24bd 23f2 61be
000000e0: 41c4 98bd 62a7 873d fc18 673e a5a0 55be
000000f0: bdbe 57be 7e6f 533c 78e1 1dbe 0d44 073e
00000100: c78e c0bd c07d 19be 0349 b43d 4e1a 4fbd
00000110: 1f2d dbbc 43c6 813d 86bf 04be 1f8f 2a3e
00000120: 9153 0f3e 15a4 c8bd b6c1 183d 8db5 a7bc
00000130: d4af 1bbd 1486 a93d 4f42 043e 1c3f a33d
00000140: 629a 4fbe 269e debd 343b c73d 9c87 c2bd
00000150: 45cf 81be 6b7f 2abe 004f 8bbd 23a1 4abd
00000160: c3f1 6fbe 2248 243c f221 afbd 4301 d73d
00000170: 2162 2ebe 1dfe 1c3c e5a0 2abe 910e d8bd
00000180: bf00 46be e7d5 c8bc 0f11 28be 8b18 1bbe
00000190: 85e7 c0bd 4389 75bb b2e0 c63b 83d2 89bd
000001a0: a9b9 7fbb b216 35be 68ef 513e fe23 28be
000001b0: 62c2 27bc 8e48 e43d 6240 113d 45ac e63d
000001c0: 0f74 b2bd 5fe2 143e 9946 58bd 872f 5ebd
000001d0: 85df b4bd e5ed 9abd bcf6 7dbd a6c9 d63c
000001e0: 4d01 523c 4837 8cbd 94f2 943d d854 343e
000001f0: a857 0ebe ea96 f7bd 24ff 943d d9ca 87bd
00000200: 9e8d 67be f9ea a1bc d2eb a43d a61d 15bd
00000210: 384c 0abe 3d65 f33d 04df 28be e6cc 12be
00000220: 06a1 6ebe a825 f73d 9fb5 03be 2157 b6bd
00000230: 30fc 723d 5035 a83d 99e2 c6bd 6849 b9bd
00000240: 4923 2b3d 6704 4b3d 02cf 813d 3552 e1bd
00000250: 0f05 dbbd 36d0 6e3d 5b53 f6bd 5e45 adbd
00000260: 4303 55bd 13e2 083e d085 dbbd c740 adbd
00000270: 8a54 66be 5877 e4bc cd7a a83d 0630 373d
00000280: f8fd bbbc 4090 e0bd ba7f 23bd 6953 6cbe
00000290: 6b73 223e d696 6bbe c722 2e3d 1d41 21be
000002a0: b4ce 6ebd 4c25 dabd 3d5a a6bd b61d 1a3e
000002b0: 7874 82be a8ef cd3c 51e7 ba3d 23de 45be
000002c0: 80aa 243e 60fa 823c 809c 583e 4863 aa3c
000002d0: d414 1cbe b331 38bd d1f5 153e d0d4 b63d
000002e0: 6d5b 38be dc44 ec3c aa7b f1bd c928 febd
000002f0: 378f 87bd cb79 763e 048f 0a3e 809c c43c
00000300: e984 3d3e ebe9 813e bac4 283c 9767 26bd
00000310: 9656 4abe 70af fdbc c569 fa3c dbd4 18be
00000320: 0b77 0ebe 96a7 373e bfba 32bc 1ee6 e2bd
00000330: f0bd b93d 3e4f 8c3c 87d4 67be 19bc dcbb
00000340: 4e79 6fbd bbee 46be fa5f b9bd 4e00 04be
00000350: cc19 0f3e 048e 05be f98d 473d 27f8 fabd
00000360: 4674 7bbd c4bc 423d 0e5b 06be 669b c8bd
00000370: 4e1e b03d 5b67 5fbd 4f7c 21bd bb18 00be
00000380: 42af f9bd be10 5b3d 8cdd 4e3e 8693 203e
00000390: 711a bf3d 0ac4 3abd 6ba7 09be 025d 613b
000003a0: b26c c9bd fb99 943d 653b 94bd aaf5 8b3d
000003b0: 3a4c b1bd 06dc 943d c85c 81bd de20 6ebc
000003c0: ec2e 843d 66c1 19be 91fc 07be 1a2b 253d
000003d0: f855 0a3d 6ac9 0bbd 0106 a23d e811 953e
000003e0: df13 c7bd d7a4 2e3e fb21 04bd be4a d03d
000003f0: 4fc2 37be 3e06 88bd 7ed3 8fbb 95ee a23b

layers.1.bias f4 [128]
0.08373953 0.08569943 0.0071802335 0.17248483 0.115096726 0.22643487 0.104588404 0.084387906
0.23982944 0.1276435 0.18130182 0.062462762 0.22414486 0.15246917 -0.03405639 0.13422148
0.08747233 0.0762495 0.09002008 0.1311665 0.17588003 0.09910554 0.07529482 0.05476984
0.20175834 -0.018726492 0.09552146 0.117556535 0.13760343 0.06763363 0.12752426 0.12931967
0.03805508 0.05888459 0.1370616 0.15169187 0.07734992 0.15826604 0.05055735 0.16029449
-0.00986624 0.089480996 0.124328636 0.15156148 -0.014756613 0.104806535 0.07305607 0.09525249
0.02256184 8.0067504e-05 0.11614029 -0.002944578 -0.011284851 0.16553077 0.2044498 0.09041479
0.1498417 0.052089635 0.042231116 0.031250134 0.1406852 0.17485619 0.05006283 0.05081032
0.0015611547 0.11515766 0.008280755 0.064325824 0.14624396 0.1365521 0.04995593 0.19467415
0.056302253 0.15194552 0.057662327 0.14999543 0.18154243 0.18170072 0.065793574 0.07406179
0.13537572 0.15454395 0.21762584 0.15957263 0.106635824 0.05593414 0.16032441 0.03944963
0.0033290056 0.018125905 0.10793825 0.15809907 0.01028459 -0.007320422 0.041129816 0.20305848
0.028976142 0.059288982 0.07666119 0.024702555 0.083736375 0.060787227 0.1928642 0.055409607
0.11827533 0.06095781 0.034019068 0.10585456 0.060444217 0.0052413484 0.052713074 0.16251905
0.10201882 0.21149477 0.142146 0.12921649 0.17420031 0.21465644 0.052713823 0.03432975
0.20879617 0.12591958 0.16489832 0.15275179 0.015165819 0.17663375 0.11489464 0.17953046
00000000: a17f ab3d 2f83 af3d 2a48 eb3b dd9f 303e
00000010: d5b7 eb3d 8bde 673e 7232 d63d 91d3 ac3d
00000020: d995 753e fab4 023e 2fa7 393e f4d8 7f3d
00000030: 3b86 653e e120 1c3e b77e 0bbd 5b71 093e
00000040: b124 b33d b328 9c3d 735c b83d 8350 063e
00000050: e519 343e d8f7 ca3d 2c34 9a3d 5756 603d
00000060: bd99 4e3e 4d68 99bc c1a0 c33d 7bc1 f03d
00000070: eae7 0c3e 8083 8a3d b895 023e 606c 043e
00000080: a5df 1b3d f830 713d e059 0c3e 1d55 1b3e
00000090: a369 9e3d 7e10 223e 3915 4f3d 3d24 243e
000000a0: 03a6 21bc d041 b73d 03a0 fe3d ef32 1b3e
000000b0: b9c5 71bc cfa4 d63d 6c9e 953d bd13 c33d
000000c0: 9cd3 b83c eae9 a738 f6da ed3d d2f9 40bb
000000d0: 18e4 38bc e680 293e 4a5b 513e 642b b93d
000000e0: 1a70 193e f15b 553d 89fa 2c3d 2400 003d
000000f0: c80f 103e 800d 333e af0e 4d3d 7b1e 503d
00000100: a99f cc3a c7d7 eb3d 01ac 073c 42bd 833d
00000110: fac0 153e 50d4 0b3e 979e 4c3d a958 473e
00000120: 319d 663d 9b97 1b3e 552f 6c3d 6798 193e
00000130: 42e6 393e c10f 3a3e c8be 863d b5ad 973d
00000140: ef9f 0a3e c540 1e3e 4fd9 5e3e 0267 233e
00000150: e263 da3d 321b 653d 152c 243e ef95 213d
00000160: 722b 5a3b c77c 943c bb0e dd3d b9e4 213e
00000170: b280 283c 27e0 efbb bd77 283d 90ee 4f3e
00000180: 605f ed3c 01d9 723d 8b00 9d3d 035d ca3c
00000190: fa7d ab3d 07fc 783d 317e 453e 2ff5 623d
000001a0: 563a f23d e6ae 793d 9457 0b3d 47ca d83d
000001b0: 5b94 773d 9ebf ab3b aae9 573d 656b 263e
000001c0: 3eef d03d 1692 583e b98e 113e 5451 043e
000001d0: 9161 323e e6ce 5b3e 73ea 573d 5a9d 0c3d
000001e0: aace 553e 10f1 003e 1bdb 283e f76a 1c3e
000001f0: 0e7a 783c 7adf 343e e24d eb3d d5d6 373e
