DDPG/savedModels/targetActor.pth.tar (torch, 677695 bytes, 18 tensors)

conv.0.weight f4 [32, 3, 5, 5]
-0.04561972 -0.07612973 0.083310395 0.022514192 0.016400611 -0.082439706 -0.034616023 0.011297824
-0.026229426 0.092085764 0.014874728 0.043015834 0.065853424 -0.01672747 0.056278106 -0.10089964
0.07319828 0.05680298 -0.07590577 -0.09053126 -0.027852537 -0.09880983 -0.06299417 -0.09330414
0.059778377 0.086518176 0.1054445 -0.09624471 0.05002926 -0.07402785 0.10706131 -0.056650173
0.043285996 0.08649683 -0.039286193 -0.07508752 -0.026081111 0.08125474 -0.052450363 0.07419421
0.048743643 0.059846535 0.052116737 0.09006749 -0.04555526 0.06427054 -0.00017188606 0.08132719
-0.029712968 0.081827804 -0.042020146 0.06719498 0.08363856 0.075089306 0.011080353 -0.098155506
-0.091233306 0.070993446 -0.08442384 0.03782791 -0.041471843 -0.0008342009 0.010960315 0.04780037
-0.07452514 -0.005334715 0.05997922 -0.04057049 0.081478596 -0.07767546 -0.08398311 -0.0780371
0.025131233 -0.0701536 0.021765757 0.016203457 -0.054784928 -0.019964123 -0.09591136 0.012828063
-0.046258666 -0.10904349 -0.036469147 0.10819089 -0.09410984 0.08282581 -0.037226856 0.050565105
-0.03940816 0.028284974 0.025970077 -0.08707818 -0.05899851 -0.064103246 0.0044509987 0.10778489
0.017596755 0.079968244 -0.04235157 -0.03251035 -0.058467455 -0.0712032 0.0033545315 0.053045
-0.039154075 -0.058556534 -0.04981461 0.08536492 -0.05002088 0.058003742 -0.02150423 -0.012366684
0.09218179 0.010447669 0.029586213 -0.07442273 0.039634313 0.07372666 0.047635194 0.025994021
-0.074427545 -0.009883352 0.046335235 0.015825082 0.10563151 -0.05211509 0.10815438 0.021453477
0.10677603 -0.04487343 -0.06327653 -0.008653014 -0.0487439 -0.0009795038 0.09994713 0.09447581
0.10606839 -0.0775253 -0.0606225 0.029432481 0.07183906 -0.09568944 -0.0603561 0.009118734
0.059975006 0.05923592 0.07908674 0.037117954 -0.015467589 0.09243815 0.05214413 -0.0608804
-0.087628864 -0.010450363 0.015937267 0.047362875 -0.050752755 0.00049815536 0.104561314 -0.0009862452
-0.08399407 -0.028279988 -0.035942134 -0.09549297 -0.044736814 0.07531229 -0.019848552 -0.022977589
-0.011067465 0.006649295 0.040702965 0.042535666 -0.09656051 -0.10442373 -0.012524946 0.06668163
0.0662577 0.036967244 -0.07960706 -0.07824105 -0.06380961 0.04019955 0.013604297 -0.0042899773
0.110554345 0.025055014 -0.06426682 -0.10124663 -0.030764489 -0.0029156252 -0.07131108 -0.10125432
-0.061056193 0.055277247 -0.05724111 -0.0059971265 -0.003083079 0.042689037 0.0691982 -0.07869183
0.07930886 0.0045423987 -0.10338125 -0.108332686 -0.01032372 0.072512046 0.10807124 0.09629831
-0.047692087 -0.035538446 -0.064630836 0.0189424 -0.088583946 -0.085745126 0.045054946 -0.01887928
0.028103033 0.062556826 0.03085792 -0.10019747 0.032703597 0.01795206 -0.02061951 -0.04001327
0.082039945 0.010569927 0.03989505 0.09403652 0.014962438 0.053952496 0.11430031 0.086964495
-0.008455858 0.10070302 0.089133516 -0.07131823 0.015288998 -0.03801812 0.08915053 0.008111303
0.032292876 -0.023453828 0.023525005 -0.02679099 0.06867405 0.10550249 -0.0913023 0.03646497
-0.01056899 0.021018356 0.05190149 0.090858325 0.022115756 -0.11096864 0.07948945 -0.060746767
00000000: bedb 3abd e7e9 9bbd a49e aa3d af6f b83c
00000010: 935a 863c 26d6 a8bd 88c9 0dbd 821a 393c
00000020: 18df d6bc 7697 bc3d 22b5 733c 5f31 303d
00000030: 29de 863d 0c08 89bc df83 663d 78a4 cebd
00000040: fbe8 953d 3eaa 683d 7c74 9bbd 7468 b9bd
00000050: 012b e4bc cf5c cabd 1603 81bd 3e16 bfbd
00000060: 2cda 743d 7130 b13d 49f3 d73d f21b c5bd
00000070: 7beb 4c3d ea9b 97bd f642 db3d 030a 68bd
00000080: a84c 313d 4025 b13d 8fea 20bd 7cc7 99bd
00000090: 0ea8 d5bc e368 a63d 31d6 56bd 22f3 973d
000000a0: 6aa7 473d a421 753d 5c78 553d 4e75 b83d
000000b0: 2798 3abd 46a0 833d 503c 34b9 df8e a63d
000000c0: 9c68 f3bc 5695 a73d 511d 2cbd 869d 893d
000000d0: b14a ab3d 6cc8 993d 5e8a 353c c105 c9bd
000000e0: 87d8 babd 0365 913d 68e6 acbd 70f1 1a3d
000000f0: 61de 29bd 46ae 5aba e592 333c 52ca 433d
00000100: a3a0 98bd d5ce aebb c5ac 753d 3e2d 26bd
00000110: 40de a63d 5014 9fbd 56ff abbd ead1 9fbd
00000120: 04e0 cd3c b1ac 8fbd 1a4e b23c 1dbd 843c
00000130: 2966 60bd cd8b a3bc 2d6d c4bd cc2c 523c
00000140: ba79 3dbd 3152 dfbd ac60 15bd 2f93 dd3d
00000150: a9bc c0bd 94a0 a93d 307b 18bd 5b1d 4f3d
00000160: 736a 21bd e4b5 e73c 33bf d43c 0b56 b2bd
00000170: 6ca8 71bd 9048 83bd afd9 913b 53be dc3d
00000180: 1227 903c 64c6 a33d d778 2dbd 9329 05bd
00000190: 927b 6fbd fcd2 91bd b3d7 5b3b b745 593d
000001a0: 0660 20bd fad8 6fbd 680a 4cbd ced3 ae3d
000001b0: b2e2 4cbd 5595 6d3d a429 b0bc a29d 4abc
000001c0: cec9 bc3d b32c 2b3c c95e f23c f26a 98bd
000001d0: 9757 223d 01fe 963d 1f1d 433d 6af1 d43c
000001e0: 786d 98bd c8ed 21bc 04ca 3d3d 9aa3 813c
000001f0: 5555 d83d a276 55bd 0b80 dd3d 34bf af3c
00000200: 64ad da3d 34cd 37bd 2097 81bd 5fc5 0dbc
00000210: afa7 47bd b262 80ba 15b1 cc3d 897c c13d
00000220: 623a d93d 96c5 9ebd 4c4f 78bd 631c f13c
00000230: 5b20 933d d3f8 c3bd f537 77bd be66 153c
00000240: 5aa8 753d 5da1 723d 3bf8 a13d ff08 183d
00000250: c56b 7dbc 3650 bd3d 1595 553d ba5d 79bd
00000260: c376 b3bd 0038 2bbc df8e 823c 93ff 413d
00000270: 1fe2 4fbd a496 023a 3e24 d63d e644 81ba
00000280: 1505 acbd 6fab e7bc 0f38 13bd d191 c3bd
00000290: f33d 37bd 543d 9a3d 6e99 a2bc 7f3b bcbc
000002a0: 5054 35bc 54e2 d93b 27b8 263d e139 2e3d
000002b0: 84c1 c5bd 1cdc d5bd 6e35 4dbc 6190 883d
000002c0: 1eb2 873d f76a 173d 0709 a3bd d83c a0bd
000002d0: 9dae 82bd 49a8 243d 8fe4 5e3c f092 8cbb
000002e0: 516a e23d 2c40 cd3c 539e 83bd 655a cfbd
000002f0: cf05 fcbc 1314 3fbb 8b0b 92bd 6d5e cfbd
00000300: 0f16 7abd 656a 623d a775 6abd 8b83 c4bb
00000310: 7b0d 4abb b3da 2e3d c9b7 8d3d 2f29 a1bd
00000320: af6c a23d 67d8 943b 8cb9 d3bd 87dd ddbd
00000330: d224 29bc 3281 943d 7454 dd3d 0c38 c53d
00000340: c758 43bd c390 11bd 2c5d 84bd 182d 9b3c
00000350: 806b b5bd 249b afbd 898b 383d b8a8 9abc
00000360: 5538 e63c cb1d 803d c0c9 fc3c 5534 cdbd
00000370: 35f4 053d 3310 933c 3fea a8bc f4e4 23bd
00000380: 8f04 a83d 7d2d 2d3c fe68 233d 3896 c03d
00000390: 0325 753c 4bfd 5c3d 4816 ea3d 711a b23d
000003a0: 708a 0abc 633d ce3d a28b b63d 4b0f 92bd
000003b0: b57e 7a3c e3b8 1bbd 8e94 b63d 45e5 043c
000003c0: 8945 043d 3e22 c0bc 83b7 c03c c778 dbbc
000003d0: fba4 8c3d b111 d83d b3fc babd 4b5c 153d
000003e0: 8f29 2dbc b02e ac3c a896 543d ee13 ba3d
000003f0: 1a2c b53c 8743 e3bd 5dcb a23d 9ad1 78bd

conv.0.bias f4 [32]
-0.029892193 0.039000813 -0.07351035 0.09139821 0.014795294 0.10678165 -0.07073185 -0.018472118
-0.05878291 -0.062237535 -0.06721601 -0.048383087 0.0948743 0.053877316 0.0025608493 -0.049435135
0.053447373 -0.07807814 0.06697509 0.058087155 -0.064134516 -0.04076066 0.028266955 -0.060129408
-0.09783745 0.042390652 0.0931532 -0.059505172 0.049906388 -0.036015883 -0.07933647 0.09392425
00000000: 79e0 f4bc 51bf 1f3d 988c 96bd fc2e bb3d
00000010: f667 723c 56b0 da3d dcdb 90bd d752 97bc
00000020: 59c6 70bd c9ec 7ebd 8ca8 89bd 582d 46bd
00000030: 754d c23d 76ae 5c3d ecd3 273b 7f7c 4abd
00000040: a2eb 5a3d 6fe7 9fbd 3c2a 893d ccec 6d3d
00000050: f558 83bd a6f4 26bd 1a90 e73c 414a 76bd
00000060: 005f c8bd d2a1 2d3d 1bc7 be3d b2bb 73bd
00000070: a46a 4c3d 6485 13bd 297b a2bd 5b5b c03d

conv.2.weight f4 [32, 32, 4, 4]
0.028364982 -0.03279668 0.008648946 0.007709078 0.0055604824 0.01657582 0.04248358 -0.03581552
0.002005692 -0.035088785 -0.021575596 -0.02190763 0.04056414 -0.042708836 0.015217196 0.016406957
0.036578905 0.03871019 0.03913505 0.025372507 0.016203638 0.011431028 -0.033834476 -0.018842977
-0.042879276 0.01630051 -0.002469652 0.0068623163 -0.039473824 0.034088355 0.034444924 0.03230393
0.029004125 -0.034603074 -0.034603123 -0.022091059 -0.036306392 -0.04205048 0.016124398 0.03680621
-0.022911532 -0.02937113 -0.03875747 0.02256327 0.026275784 -0.0069235903 0.036469948 -0.007112148
0.022249976 -0.038623396 0.034902237 -0.02499048 -0.039485794 0.036812775 0.0035871903 -1.7779203e-05
0.0010886727 -0.03206089 0.012069774 0.030597102 0.020623319 0.03481321 0.023352213 0.017427495
-0.013368248 -0.024998154 -0.0016820584 0.025921881 -0.003975544 0.018359838 0.03551089 -0.03494038
-0.0011462168 -0.005155667 -0.031056099 0.01654297 -0.008286002 -0.018493313 -0.0047161495 0.034014322
0.012312565 0.013173335 -0.03977481 -0.0038836629 -0.004249629 -0.020059288 -0.014075594 0.007952582
-0.021972079 -0.025460664 0.018407872 0.03470734 -0.027247423 -0.0049870247 0.032684 -0.012424881
-0.009837762 0.008306986 0.028617315 -0.016398024 -0.024973627 -0.020086685 0.00047883595 0.014996896
-0.021147626 -0.03535853 -0.00821512 -0.01530172 -0.005172886 -0.003213715 -0.03843983 0.02797955
0.027444929 0.015214249 -0.0057466286 0.011842167 0.0087563945 -0.040523835 0.024572559 -0.029166128
-0.0097365845 0.032914076 0.0060569886 -0.019110147 -0.028771395 -0.014105815 -0.03789272 0.023818634
0.010837915 0.018134914 -0.03265486 0.026888087 -0.007851769 -0.042086374 -0.040731445 0.03230917
0.020592494 -0.021435583 0.0066051856 -0.0012537182 -0.022553058 -0.0034185504 0.008633114 -0.01258247
-0.0054917103 -0.0306961 -0.036841203 -0.025702013 -0.030932017 -0.012700242 0.026805151 0.029413393
-0.039020732 0.020662487 -0.035847627 0.04237283 0.041744843 0.025297724 -0.027809152 0.0067822854
-0.0027853237 0.036389276 0.0057872664 0.0026315649 0.0068755103 -0.033976786 0.015389248 -0.013615111
0.0060183858 0.010516895 0.003892949 -0.01826755 0.023679134 -0.037291948 0.03516278 0.024013814
0.041560743 -0.035441555 0.002658015 0.020823536 0.0019405576 0.009258416 -0.019798089 0.013367883
0.035520818 -0.030021641 -0.018690832 0.004481329 0.039729796 0.026162228 0.036765438 -0.041404255
0.022026245 -0.025759278 -0.020190766 0.025747178 -0.001867152 -0.018651536 -0.026063604 -0.030725073
0.018384421 -0.033253178 0.039323673 -0.015689421 0.007277085 0.01616478 -0.036870096 -0.012545304
-0.041502006 0.022455879 0.012417241 0.0149754025 0.008656973 -0.04007143 -0.017799074 -0.008268342
0.030351937 0.0070858086 -0.013915166 -0.03191043 -0.015730979 0.030672282 0.043265034 -0.0152151445
0.032982 0.0025971448 -0.018744532 -0.034242477 0.015888035 0.011258811 0.025230061 0.019448107
-0.021249715 0.036096632 -0.01631829 0.02811648 0.011629837 -0.02653314 -0.016727 -0.015217571
0.01379553 0.0095004095 0.0051182546 0.0011419111 -0.0037357695 0.022293467 -0.012242788 -0.025772037
-0.0015662359 -0.025612604 -0.04128834 0.04026473 0.03272729 0.010794128 -0.0073999316 0.0010892539
00000000: ae5d e83c d055 06bd 4fb4 0d3c 6f9c fc3b
00000010: b534 b63b 04ca 873c 4303 2e3d 4bb3 12bd
00000020: ee71 033b 42b9 0fbd 4ebf b0bc a177 b3bc
00000030: 9526 263d 76ef 2ebd 8c51 793c e267 863c
00000040: c3d3 153d 948e 1e3d 134c 203d 01da cf3c
00000050: 7ebd 843c 3549 3b3c 0596 0abd 965c 9abc
00000060: 2ea2 2fbd a688 853c e3d9 21bb 48dd e03b
00000070: 4eaf 21bd 3ba0 0b3d 1f16 0d3d 2051 043d
00000080: 0f9a ed3c f4bb 0dbd 01bc 0dbd 4ff8 b4bc
00000090: 03b6 14bd 203d 2cbd 5017 843c 1cc2 163d
000000a0: f7b0 bbbc b99b f0bc 27c0 1ebd 9bd6 b83c
000000b0: 5040 d73c 49df e2bb 8361 153d 060d e9bb
000000c0: 9545 b63c 9133 1ebd a6f5 0e3d d6b8 ccbc
000000d0: dbbb 21bd fec8 163d 1117 6b3b 8c24 95b7
000000e0: cbb1 8e3a 4852 03bd 4dc0 453c c6a6 fa3c
000000f0: 3cf2 a83c 4c98 0e3d 244d bf3c 1bc4 8e3c
00000100: 7f06 5bbc eec8 ccbc 8478 dcba 205a d43c
00000110: 4845 82bb 5f67 963c de73 113d a51d 0fbd
00000120: a73c 96ba dff0 a8bb 5c69 febc 1f85 873c
00000130: 03c2 07bc 4a7f 97bc ee89 9abb 9a52 0b3d
00000140: a4ba 493c f9d4 573c e9ea 22bd 0d85 7ebb
00000150: 7940 8bbb 6053 a4bc 529d 66bc 8c4b 023c
00000160: cafe b3bc e292 d0bc 1bcc 963c 4929 0e3d
00000170: fd35 dfbc 326a a3bb a8df 053d ba91 4bbc
00000180: 912e 21bc 061a 083c dc6e ea3c 2655 86bc
00000190: 7e95 ccbc d58c a4bc 460c fb39 8ab5 753c
000001a0: c93d adbc 1bd4 10bd b698 06bc 11b4 7abc
000001b0: 5081 a9bb 319d 52bb 1573 1dbd 5f35 e53c
000001c0: 30d4 e03c 2f45 793c 374e bcbb a605 423c
000001d0: fb76 0f3c 52fc 25bd 644c c93c ceed eebc
000001e0: 3286 1fbc e9d0 063d b479 c63b e28c 9cbc
000001f0: fdb1 ebbc 141c 67bc 6635 1bbd 4c1f c33c
00000200: 8391 313c ac8f 943c 1ac1 05bd 6844 dc3c
00000210: b5a4 00bc c362 2cbd 04d6 26bd 9f56 043d
00000220: 97b1 a83c ad99 afbc 5070 d83b cd53 a4ba
00000230: 31c1 b8bc c209 60bb e871 0d3c b426 4ebc
00000240: cef3 b3bb 6376 fbbc cde6 16bd 078d d2bc
00000250: 2465 fdbc ad14 50bc 7a96 db3c 5bf4 f03c
00000260: 34d4 1fbd 6044 a93c f6d4 12bd 228f 2d3d
00000270: a4fc 2a3d 2c3d cf3c 05d0 e3bc ef3d de3b
00000280: fa89 36bb ec0c 153d 1ca3 bd3b 5576 2c3b
00000290: f64b e13b 3e2b 0bbd 2f23 7c3c ea11 5fbc
000002a0: e135 c53b 0e4f 2c3c d920 7f3b d4a5 95bc
000002b0: befa c13c 71bf 18bd d906 103d 9eb8 c43c
000002c0: 993b 2a3d 2a2b 11bd 1732 2e3b 1f96 aa3c
000002d0: 4f5a fe3a 9cb0 173c 9a2f a2bc f704 5b3c
000002e0: 477e 113d f2ef f5bc 841d 99bc 1dd8 923b
000002f0: b6bb 223d 2b52 d63c 5b97 163d 8297 29bd
00000300: 6270 b43c 1f05 d3bc 1b67 a5bc bfeb d23c
00000310: 3abb f4ba 1bcb 98bc 5783 d5bc 26b3 fbbc
00000320: ed9a 963c 7c34 08bd dc11 213d 1a87 80bc
00000330: 9d74 ee3b 006c 843c 1905 17bd d28a 4dbc
00000340: 02fe 29bd 64f5 b73c af71 4b3c 645b 753c
00000350: fad5 0d3c f121 24bd 5dcf 91bc f177 07bc
00000360: a0a4 f83c 1230 e83b 70fc 63bc 83b4 02bd
00000370: 41de 80bc 7044 fb3c ad36 313d f148 79bc
00000380: 2218 073d dc34 2a3b 228e 99bc d741 0cbd
00000390: a027 823c e076 383c 46af ce3c a351 9f3c
000003a0: e213 aebc 10da 133d efad 85bc 8854 e63c
000003b0: 128b 3e3c 075c d9bc 1007 89bc 1e53 79bc
000003c0: a606 623c 9ba7 1b3c 08b7 a73b 2eac 953a
000003d0: d0d3 74bb caa0 b63c fa95 48bc e11f d3bc
000003e0: 284a cdba 86d1 d1bc f61d 29bd a1ec 243d
000003f0: 0d0d 063d dbd9 303c 207b f2bb 4cc5 8e3a

conv.2.bias f4 [32]
0.009611441 -0.040685803 0.006345311 -0.021349665 -0.0043189004 0.021826612 0.01942467 -0.0028322993
0.026457148 0.03207948 0.039691996 -0.037159763 -0.025079245 0.031133076 -0.027609592 -0.007828147
-0.037483487 -0.007911798 0.012783329 0.024061937 0.010581016 0.033080895 -0.007392472 0.012162954
0.00691884 0.0035204461 -0.0071619465 0.00992997 0.014379727 -0.0056170616 -0.012828678 0.0135641955
00000000: 4e79 1d3c 28a6 26bd 54ec cf3b 7ee5 aebc
00000010: 9085 8dbb b9cd b23c 7c20 9f3c 199e 39bb
00000020: a9bc d83c c665 033d 1394 223d d634 18bd
00000030: fd72 cdbc cb0a ff3c 832d e2bc a141 00bc
00000040: 4988 19bd 7ca0 01bc 2b71 513c 8a1d c53c
00000050: ff5b 2d3c d57f 073d 8d3c f2bb 2047 473c
00000060: 70b7 e23b 49b7 663b c3ae eabb 50b1 223c
00000070: f298 6b3c 540f b8bb 602f 52bc 5c3c 5e3c

conv.4.weight f4 [32, 32, 3, 3]
0.026323983 -0.03798243 0.037549235 -0.0030599008 -0.017845776 -0.015644165 0.0059666038 -0.03307878
-0.034644 0.012864891 0.057115886 -0.0034519779 -0.023347266 -0.016715758 -0.0059362934 -0.0049173604
-0.024076436 -0.025872376 0.03778917 -0.04512633 0.022220844 0.040339094 -0.031114737 0.03814549
0.050404668 0.004548905 0.04358969 -0.055131577 -0.011316007 0.051308088 -0.015081353 -0.02264698
-0.03748718 0.04819878 -0.037308786 -0.039599665 -0.047598828 -0.05104811 -0.052345954 -0.047237214
-0.017289454 0.043363065 0.010592766 0.001715326 0.0053444575 -0.027639618 -0.019674575 0.05062801
-1.5197711e-05 -0.026143719 0.0234804 -0.04802879 -0.04060399 0.050296217 -0.0080241235 -0.00061218394
0.046301737 -0.01936305 0.049703255 0.025194477 -0.025094653 0.006446418 0.020864453 -0.030383961
-0.012133963 0.023972109 0.0130237825 -0.044227153 0.047819264 -0.011485871 -0.01262436 -0.022883806
0.02293677 0.030139793 -0.048650306 0.04959756 0.0447843 0.03619861 0.05120107 0.01349617
-0.030821884 0.05566213 -0.043833647 -0.0032014467 -0.0004812346 -0.052434612 -0.023782425 -0.027869467
-0.005036628 0.01775963 -0.032528378 -0.03254928 0.0036733574 0.010716617 0.035475448 -0.023665057
-0.02539399 -0.0037857217 0.049698617 0.051821858 0.027816825 -0.03840523 -0.013195046 -0.027970616
0.006742893 0.015600145 -0.012566107 -0.045502253 -0.03635632 0.03375457 0.040041864 -0.027724745
-0.034923237 -0.014505638 -0.05358498 -0.006240192 -0.0048064706 -0.046798762 0.047310453 0.0050657378
-0.048642803 -0.026374148 -0.05467829 0.055181764 0.034841213 -0.013497591 0.041261468 0.045528155
-0.043403853 -0.023408271 -0.0036588493 -0.049039222 -0.0181048 0.009103026 0.03952573 0.052709553
0.054384753 0.028769001 -0.0267841 -0.0068709697 0.017970746 0.007982026 0.02075983 0.050778992
-0.02667208 -0.00043373668 0.008192401 0.035503108 -0.03689828 -0.038245622 -0.022624906 0.03957632
0.04357535 0.029664317 -0.0511261 0.043177158 0.020733617 0.049766157 0.0023379233 -0.000368138
0.027187925 0.01909433 0.03602547 -0.03787904 -0.031740777 0.02533449 -0.041797183 -0.026759597
0.03173968 0.00693886 -0.037673514 0.028735327 -0.05022869 0.021735199 0.040906303 0.0124906795
0.032827716 -0.03241539 0.0549386 -0.021366429 0.032469682 0.040752456 -0.0447269 -0.015119106
-0.034066487 -0.0064294003 -0.033763442 -0.019350752 0.05019861 0.034477852 -0.033455286 -0.050418366
0.022683429 0.03622259 0.027698956 -0.0048603653 0.026214715 0.03797707 0.045278277 -0.04456286
-0.053329717 0.023094285 0.00831031 -0.03428282 -0.01165766 -0.027504954 0.015252139 -0.014657272
-0.05119288 0.02629713 0.054612033 -0.007696396 0.02590211 -0.003246793 0.0009472874 -0.028628305
0.054170348 -0.04746998 -0.019186052 -0.053870156 -0.003341963 -0.018318301 -0.029974252 0.04647082
-0.050487798 -0.0131552825 0.043732263 0.012002438 -0.044369057 -0.05703586 -0.0445661 0.0026750767
-0.022826536 0.00199613 -0.020135755 0.036095623 0.02282987 -0.036242515 0.016092481 0.020906398
0.02754682 -0.010256039 -0.0033358422 -0.013774658 0.04194015 -0.04763194 0.001095695 0.044784755
0.054717854 -0.0471809 0.0419764 -0.021106856 0.034650717 -0.038606536 0.0013795333 -0.028376004
00000000: 65a5 d73c 7793 1bbd 3acd 193d 9e88 48bb
00000010: 4e31 92bc 3128 80bc 8083 c33b 9d7d 07bd
00000020: dee6 0dbd 44c7 523c 59f2 693d 943a 62bb
00000030: c442 bfbc 7cef 88bc 3d85 c2bb cf21 a1bb
00000040: f23b c5bc 4ef2 d3bc d1c8 1a3d 63d6 38bd
00000050: 7d08 b63c 9b3a 253d 55e4 febc 723e 1c3d
00000060: 2075 4e3d fb0e 953b 1a8b 323d a6d1 61bd
00000070: c666 39bc 6e28 523d c717 77bc 2986 b9bc
00000080: 288c 19bd 156c 453d 19d1 18bd 4233 22bd
00000090: fdf6 42bd d317 51bd b668 56bd cf7b 41bd
000000a0: 9da2 8dbc 789d 313d 488d 2d3c cad4 e03a
000000b0: 8f20 af3b 7b6c e2bc 932c a1bc 515f 4f3d
000000c0: acf9 7eb7 5a2b d6bc f859 c03c d6b9 44bd
000000d0: 5f50 26bd 6803 4e3d 9d77 03bc f87a 20ba
000000e0: e4a6 3d3d 429f 9ebc a495 4b3d a664 ce3c
000000f0: 4d93 cdbc 793c d33b eeeb aa3c c9e7 f8bc
00000100: 88cd 46bc 2861 c43c b461 553c 8827 35bd
00000110: 22de 433d 3c2f 3cbc 67d6 4ebc d276 bbbc
00000120: e5e5 bb3c bae7 f63c 8b45 47bd d026 4b3d
00000130: be6f 373d fe44 143d 37b8 513d 0a1f 5d3c
00000140: 2d7e fcbc f9fd 633d e98a 33bd 5dcf 51bb
00000150: 374e fcb9 adc5 56bd 5cd3 c2bc 824e e4bc
00000160: 4c0a a5bb a57c 913c 7a3c 05bd 6552 05bd
00000170: b6bc 703b c094 2f3c b44e 113d 39dd c1bc
00000180: 0f07 d0bc df19 78bb c790 4b3d 2843 543d
00000190: 1ce0 e33c cd4e 1dbd 0930 58bc a222 e5bc
000001a0: 7cf3 dc3b c097 7f3c 13e2 4dbc 9260 3abd
000001b0: 5dea 14bd 3b42 0a3d f002 243d 011f e3bc
000001c0: ab0b 0fbd 0ea9 6dbc ed7b 5bbd 867a ccbb
000001d0: 997f 9dbb 0fb0 3fbd 9bc8 413d 7dfe a53b
000001e0: ad3d 47bd 990e d8bc 58f6 5fbd 4606 623d
000001f0: a9b5 0e3d 0025 5dbc c901 293d bb7b 3a3d
00000200: 3dc8 31bd b4c2 bfbc 4ec9 6fbb 5add 48bd
00000210: 8450 94bc dc24 153c bbe5 213d f9e5 573d
00000220: 8cc2 5e3d f8ac eb3c 546a dbbc df25 e1bb
00000230: 6337 933c 0bc7 023c 8510 aa3c a2fd 4f3d
00000240: 687f dabc 2767 e3b9 6c39 063c b56b 113d
00000250: a722 17bd 71a7 1cbd de57 b9bc c81a 223d
00000260: 117c 323d 9502 f33c 9a69 51bd 88da 303d
00000270: 8cd9 a93c 99d7 4b3d d837 193b a502 c1b9
00000280: 36b9 de3c b66b 9c3c 718f 133d 0d27 1bbd
00000290: 9e02 02bd 478a cf3c 8633 2bbd f136 dbbc
000002a0: 7701 023d 605f e33b 8b4f 1abd 5966 eb3c
000002b0: 99bc 4dbd 040e b23c 5e8d 273d b5a5 4c3c
000002c0: 5b76 063d 00c6 04bd 4c07 613d a608 afbc
000002d0: eefe 043d 0cec 263d 8e33 37bd 20b6 77bc
000002e0: 4d89 0bbd b8ad d2bb 894b 0abd 7885 9ebc
000002f0: 0f9d 4d3d a638 0d3d 6908 09bd 7d83 4ebd
00000300: 99d2 b93c 235e 143d ece8 e23c b343 9fbb
00000310: 3ec0 d63c d88d 1b3d b775 393d 8c87 36bd
00000320: 4370 5abd 3a30 bd3c f727 083c 246c 0cbd
00000330: c5ff 3ebc 1252 e1bc 1ce4 793c 0e25 70bc
00000340: a0af 51bd 146d d73c deb0 5f3d 0d32 fcbb
00000350: a930 d43c 26c8 54bb 6253 783a e885 eabc
00000360: bae1 5d3d e26f 42bd 112c 9dbc f4a6 5cbd
00000370: d604 5bbb 4310 96bc 908c f5bc 3058 3e3d
00000380: 4bcc 4ebd 4189 57bc 9a20 333d e0a5 443c
00000390: 54bc 35bd 6f9e 69bd f18a 36bd 5750 2f3b
000003a0: b7fe babc 81d1 023b bdf3 a4bc 01d9 133d
000003b0: b505 bb3c 0873 14bd 61d4 833c e543 ab3c
000003c0: dea9 e13c f208 28bc 259e 5abb 1aaf 61bc
000003d0: 6fc9 2b3d b619 43bd 6c9d 8f3a 3870 373d
000003e0: d41f 603d c240 41bd 72ef 2b3d 49e8 acbc
000003f0: e9ed 0d3d e321 1ebd 75d1 b43a cb74 e8bc

conv.4.bias f4 [32]
-0.017987385 0.044326656 -0.021012519 -0.04337099 -0.054801553 -0.041654263 0.033171367 -0.037054516
0.00584192 0.014677869 0.011923093 0.02219687 0.03540078 -0.0472719 -6.452002e-05 -0.025027163
-0.04596305 -0.040636584 -0.0018109131 -0.0522272 -0.014699152 0.02458883 0.04238979 -0.0040470017
0.030031305 -0.025669476 -0.011035365 0.005156191 0.007948006 0.04365128 -0.04003359 -0.015080879
00000000: 485a 93bc de8f 353d 7222 acbc c7a5 31bd
00000010: 9877 60bd a99d 2abd b3de 073d 7ac6 17bd
00000020: 946d bf3b 727b 703c 1459 433c 36d6 b53c
00000030: 6900 113d 2ea0 41bd ec4e 87b8 c405 cdbc
00000040: c043 3cbd 8c72 26bd 295c edba 30ec 55bd
00000050: b6d4 70bc 846e c93c eba0 2d3d b69c 84bb
00000060: 3604 f63c cb48 d2bc adcd 34bc 44f5 a83b
00000070: 5a38 023c afcb 323d 43fa 23bd cb15 77bc

fc.weight f4 [128, 821]
0.0045882426 -0.0323726 0.030401561 0.02043702 0.02881807 -0.0071804184 -0.01933342 -0.016618429
-0.032632474 0.01000891 -0.017413903 -0.013873745 0.012599136 -0.003093935 -0.0030136383 0.009815656
-0.026962718 -0.009189952 0.020855062 0.022606354 0.030674433 -0.015831852 -0.0045430567 -0.0033726175
-0.008444001 0.028553952 -0.014542066 -0.0011214833 -0.030040093 0.014270459 -0.026016625 0.026984265
0.0052074604 -0.025810104 0.017445508 -0.030210504 0.002947455 -0.031349283 -0.019910334 -0.020848596
0.031863127 -0.00036858936 0.010699588 -0.011557678 -0.014445095 0.016672036 -0.009752462 -0.013094633
0.021546701 0.0021386517 0.02460901 -0.014568207 0.020282464 -0.0013462486 0.0026421952 -0.012912979
0.029960986 0.024196943 -0.02900349 -0.010141251 -0.023715885 0.0032345566 0.02531921 -0.014010173
-0.022898296 -0.011022614 -0.015664622 -0.028828116 -0.0019227755 -0.021283235 -0.008972459 0.0050318628
0.031187521 -0.02124705 -0.033194937 0.010096476 -0.02580809 0.0075051556 -0.0074997116 0.021563346
-0.016141536 -0.019173136 0.005079852 0.019178823 -0.0043324484 -0.025471332 0.0052163033 -0.006294512
-0.005510802 -0.02619423 0.029132498 0.0052155084 0.017872943 0.025054228 0.010240527 -0.003433806
-0.01627399 -0.005921821 0.026863368 0.029062018 -0.028287996 0.017044468 0.019634709 -0.0007862882
-0.017227203 0.00076539785 0.015442717 0.00026284964 0.03083597 0.012230122 0.0020837907 0.019850733
0.027126618 -0.008208648 -0.0057136435 -0.009730483 -0.030161638 -0.0035305119 0.031282827 0.021422274
0.016056897 0.0029330237 -0.011815519 -0.016255233 -0.024617212 -0.028482247 -0.019661222 0.002741523
0.029441211 -0.017388979 -0.030288257 -0.018444145 -0.013047193 -0.010516047 0.021180859 0.013789546
0.028516985 -0.0096949 0.020291448 0.0014328024 0.029098688 0.012852643 -0.010350192 0.03421836
-0.011467156 0.030295093 -0.03197136 -0.014338126 0.013325914 0.022262882 0.033544455 0.028860496
0.0014012468 -0.00054296484 0.011920294 -0.006781825 0.021275438 -0.026644044 -0.022459857 -0.0012523034
-0.021027694 0.016769825 -0.03201147 -0.018297901 0.009841192 -0.008963314 0.0064499597 -0.00826183
0.01220626 -0.002232427 -0.023572 -0.009024979 -0.03211342 0.0043795398 0.02782755 -0.027715163
0.012326659 -0.027612539 -0.015764842 -0.0001261933 0.029876864 -0.026619507 -0.020672873 0.027541516
-0.0062044887 0.0340038 -0.011975243 0.014296319 -0.013213883 0.031390466 0.0060809143 -0.0031275393
0.017519375 0.022605501 0.026118176 -0.009149011 0.027135272 0.0044636093 0.009183441 0.019020338
-0.029033517 0.0039870758 -0.0036463735 -0.014903006 -0.019739231 0.027025117 0.013644059 -0.013296824
0.028973686 0.023885855 -0.013406087 -0.020671759 -0.016087582 -0.0016465303 0.0054658093 0.004102715
0.0053562447 -0.012184525 -0.024348948 -0.02144176 -0.013085448 -0.0016895488 -0.023671854 0.0056064846
0.018470127 0.02741093 -0.027313098 0.0012692073 -0.025505632 0.005759242 -0.0049686604 -0.009458751
-0.009363368 0.027551813 0.0073525566 -0.017726824 -0.023439972 0.0008498843 -0.017967116 0.020186806
0.020816403 -0.009812331 -0.03269907 -0.0046310653 -0.019933822 0.014725493 -0.004348084 -0.010115723
-0.032001674 -0.013258801 0.02136411 -0.031866975 0.009129381 -0.021226443 -0.022328807 0.0012650598
00000000: f858 963b 2299 04bd b20c f93c 8a6b a73c
00000010: e013 ec3c b749 ebbb 1f61 9ebc 5f23 88bc
00000020: a1a9 05bd 69fc 233c 9aa7 8ebc b44e 63bc
00000030: 9b6c 4e3c 9ec3 4abb 7680 45bb d8d1 203c
00000040: ebe0 dcbc 7491 16bc 3cd8 aa3c f630 b93c
00000050: f348 fb3c cdb1 81bc ecdd 94bb 2207 5dbb
00000060: b558 0abc fae9 e93c d841 6ebc bcfe 92ba
00000070: a416 f6bc a5ce 693c d120 d5bc 1b0e dd3c
00000080: 58a3 aa3b b66f d3bc e2e9 8e3c 057c f7bc
00000090: 172a 413b 1b68 00bd ff1a a3bc adca aabc
000000a0: e982 023d 3a3f c1b9 534d 2f3c 6a5c 3dbc
000000b0: 1fab 6cbc cb93 883c cac8 1fbc df8a 56bc
000000c0: b582 b03c 9f28 0c3b d698 c93c 7daf 6ebc
000000d0: 6927 a63c 9b74 b0ba ae28 2d3b f690 53bc
000000e0: be70 f53c ab38 c63c ba98 edbc 7d27 26bc
000000f0: d147 c2bc dbfa 533b 3b6a cf3c ed8a 65bc
00000100: 3595 bbbc 3298 34bc 1853 80bc f128 ecbc
00000110: a405 fcba 2e5a aebc 3801 13bc 53e2 a43b
00000120: f97c ff3c 4b0e aebc 6af7 07bd b16b 253c
00000130: 7d6b d3bc cfed f53b 24c0 f5bb 9da5 b03c
00000140: 413b 84bc fb10 9dbc e374 a63b e81c 9d3c
00000150: 36f7 8dbb 41a9 d0bc 86ed aa3b 3242 cebb
00000160: f593 b4bb 4895 d6bc 47a7 ee3c dbe6 aa3b
00000170: 476a 923c 863e cd3c e2c7 273c b409 61bb
00000180: 0851 85bc d60b c2bb 9110 dc3c 7813 ee3c
00000190: 3abc e7bc d7a0 8b3c f8d8 a03c e81e 4eba
000001a0: 1020 8dbc fba4 483a 7303 7d3c 15cf 8939
000001b0: b79b fc3c da60 483c 3590 083b 019e a23c
000001c0: a438 de3c 917d 06bc 8439 bbbb 9b6c 1fbc
000001d0: 8a15 f7bc 2960 67bb 6c22 003d c47d af3c
000001e0: c189 833c f937 403b e195 41bc b229 85bc
000001f0: 09aa c9bc 9a53 e9bc 9210 a1bc 20ab 333b
00000200: b22e f13c 5573 8ebc 141f f8bc 2d18 97bc
00000210: e5c3 55bc 7f4b 2cbc 7b83 ad3c 8ced 613c
00000220: 749c e93c 5cd7 1ebc 403a a63c dfcc bb3a
00000230: 5f60 ee3c e493 523c da93 29bc 8d28 0c3d
00000240: bde0 3bbc 6a2d f83c 67f4 02bd 76ea 6abc
00000250: ef54 5a3c a660 b63c e965 093d d96c ec3c
00000260: 0aaa b73a c155 0eba 564d 433c 123a debb
00000270: d449 ae3c 9c44 dabc bcfd b7bc 5424 a4ba
00000280: 4542 acbc df60 893c 761e 03bd 7be5 95bc
00000290: f33c 213c ddda 12bc 2f5a d33b a05c 07bc
000002a0: c4fc 473c e94d 12bb 111a c1bc 81dd 13bc
000002b0: 5d89 03bd 3e82 8f3b 9af6 e33c e90a e3bc
000002c0: c1f5 493c b133 e2bc 4525 81bc c252 04b9
000002d0: 53c0 f43c 2711 dabc 285a a9bc bf9e e13c
000002e0: 064f cbbb 9247 0b3d cf33 44bc 1c3b 6a3c
000002f0: 0b7f 58bc 4a93 003d 6842 c73b 67f7 4cbb
00000300: cb84 8f3c 2c2f b93c c9f5 d53c bce5 15bc
00000310: ca4a de3c 7843 923b 2576 163c 8ad0 9b3c
00000320: b3d7 edbc 04a6 823b fff7 6ebb bd2b 74bc
00000330: 2bb4 a1bc c763 dd3c 558b 5f3c ecda 59bc
00000340: 395a ed3c 45ac c33c 34a5 5bbc d257 a9bc
00000350: 1bca 83bc 64d0 d7ba 881a b33b 1170 863b
00000360: 7083 af3b 9aa1 47bc 7277 c7bc a1a6 afbc
00000370: 5964 56bc da73 ddba 7aeb c1bc 9ab6 b73b
00000380: aa4e 973c e38c e03c b8bf dfbc 885b a63a
00000390: 30f1 d0bc 06b8 bc3b 25d0 a2bb e1f8 1abc
000003a0: d068 19bc 57b4 e13c b7ed f03b d837 91bc
000003b0: 2f05 c0bc c5ca 5e3a c62f 93bc cd5e a53c
000003c0: 2987 aa3c e6c3 20bc 76ef 05bd 31c0 97bb
000003d0: 414c a3bc 3243 713c 5f7a 8ebb 6bbc 25bc
000003e0: 3014 03bd 713b 59bc c903 af3c f286 02bd
000003f0: 6693 153c 14e3 adbc e7ea b6bc 5dd0 a53a

fc.bias f4 [128]
0.024100525 -0.031874746 -0.03038753 -0.0027682465 0.0316315 0.015230751 0.015930893 -0.0031745492
-0.024783053 0.015652176 0.0191904 0.020461125 0.013353762 -0.016895382 0.00040554703 -0.020884227
-0.011581293 0.021963915 -0.0061792335 0.018036077 -0.0015996511 -0.0021353476 -0.022933336 -0.009489675
0.024849772 -0.003283547 0.018031223 0.018439833 0.03339012 -0.029328197 0.00079751754 0.0087164715
-0.0034038597 -0.01694623 0.025478957 -0.015120177 -0.010321449 0.01195309 0.02507634 -0.020818425
0.0067015607 -0.031191729 -0.008195633 -0.0049082767 -0.023678914 0.022639241 0.0052748774 0.016848532
-0.0016321082 -0.0012457753 -0.010407805 0.022617796 0.00853748 -0.0087559745 -0.009904281 -0.012387093
0.012506235 0.012321129 -0.013892345 -0.002655343 -0.028471477 -0.0048966003 0.0341862 0.02663955
-0.015422379 -0.026520578 0.026050104 0.01856159 -0.018979497 -0.0018365721 -0.031174691 -0.023757782
-0.020238979 0.032203317 0.031984843 -0.025178505 0.013636451 -0.0033191366 0.023561053 -0.0034050345
0.030558567 -0.014360929 -0.021998484 0.022419414 -0.004918246 -0.0061204573 0.01985673 0.010702867
0.027102487 0.00023877852 -0.004248091 -0.008713637 -0.017479505 0.0110171195 0.029241087 -0.0057925717
-0.004623462 -0.032847434 0.028230589 0.004206864 0.028836206 0.0052081724 0.019140061 0.03195032
-0.019474197 0.011033312 0.015821412 -0.014064982 0.009624482 0.025049826 -0.007662489 0.017253827
0.010580746 0.033290584 -0.018356226 -0.021049133 0.013971872 0.022071617 -0.009136508 0.008918863
-0.0112790335 0.0010720487 -0.024518358 0.033413656 -0.010052764 -0.0026025726 0.009175533 0.020262536
00000000: 776e c53c 188f 02bd 45ef f8bc 786b 35bb
00000010: 0890 013d 668a 793c 8181 823c 190c 50bb
00000020: d405 cbbc fe38 803c 3035 9d3c 179e a73c
00000030: bdc9 5a3c 2f68 8abc 9a9f d439 6615 abbc
00000040: 77bf 3dbc abed b33c 2b7b cabb 65c0 933c
00000050: 62ab d1ba 30f1 0bbb b1de bbbc 957a 1bbc
00000060: c091 cb3c c730 57bb 37b6 933c 220f 973c
00000070: 14c4 083d b041 f0bc 7f10 513a 88cf 0e3c
00000080: 4a13 5fbb d2d2 8abc 3fb9 d03c 9eba 77bc
00000090: 4b1b 29bc e5d6 433c e66c cd3c 678b aabc
000000a0: c498 db3b cc85 ffbc fa46 06bc 9cd5 a0bb
000000b0: 48fa c1bc ee75 b93c e1d8 ac3b ef05 8a3c
000000c0: 77ec d5ba 4849 a3ba 8085 2abc f548 b93c
000000d0: c9e0 0b3c 3875 0fbc 9145 22bc 3cf3 4abc
000000e0: f4e6 4c3c 90de 493c b89c 63bc 4305 2ebb
000000f0: 043d e9bc a973 a0bb d406 0c3d 303b da3c
00000100: 25ae 7cbc af41 d9bc 0767 d53c 7a0e 983c
00000110: e47a 9bbc 22b9 f0ba 1162 ffbc ae9f c2bc
00000120: 37cc a5bc a0e7 033d 8a02 033d 2743 cebc
00000130: 6c6b 5f3c df85 59bb 1c03 c13c 0027 5fbb
00000140: f655 fa3c 1a4a 6bbc 2a36 b4bc eba8 b73c
00000150: 3d29 a1bb 1e8e c8bb 95aa a23c 145b 2f3c
00000160: 0906 de3c 9f60 7a39 9233 8bbb a4c3 0ebc
00000170: 2e31 8fbc 2681 343c 018b ef3c 9dcf bdbb
00000180: 6980 97bb 088b 06bd d643 e73c bcd9 893b
00000190: e839 ec3c 51a9 aa3b 9ecb 9c3c 57de 023d
000001a0: 5a88 9fbc 11c5 343c e89b 813c cf70 66bc
000001b0: 01b0 1d3c 4b35 cd3c 9e15 fbbb e657 8d3c
000001c0: de5a 2d3c b55b 083d cc5f 96bc 3b6f acbc
000001d0: 47ea 643c 89cf b43c 4bb1 15bc 6c20 123c
000001e0: b2cb 38bc fc83 8c3a b9da c8bc c2dc 083d
000001f0: 59b4 24bc ec8f 2abb fa54 163c 9efd a53c

layers.0.weight f4 [128, 128]
0.04377303 -0.01185479 -0.039890602 -0.05181185 0.0636516 -0.027893867 0.0720957 -0.071968384
0.061436765 0.080483355 -0.027388452 -0.00028811127 0.06556598 -0.07877084 0.04343353 0.017818928
0.012835373 0.0590596 0.032645646 -0.013206389 0.0067506074 0.020349758 -0.008827127 0.0155278975
0.06550742 0.04029132 -0.039238807 0.010668941 0.049870286 -0.081478745 0.042208873 -0.022966051
0.058515176 0.03645698 0.040959097 0.045918103 0.0038658308 0.02982171 0.07566159 0.015159993
0.043527212 0.069183305 -0.051148944 -0.040042233 0.04938599 -0.01848719 -0.08051995 -0.079730935
-0.008846568 -0.075793736 -0.018764557 -0.07432318 -0.07013272 -0.06562603 -0.004026534 0.00862579
-0.076478854 -0.015707599 -0.024894312 0.04883988 0.07051078 -0.07745044 -0.077444084 -0.0071258456
-0.02829445 -0.042205885 0.010085079 0.024274282 0.044533703 0.016035892 -0.016106933 -0.025881128
-0.055765316 -0.06854106 -0.025013397 -0.05013942 0.03592601 0.0047534993 0.002678553 -0.04192662
0.022719918 0.038088243 0.06328223 -0.05731178 -0.025543872 -0.010797287 -0.02573506 0.01229343
0.014806878 -0.056175824 -0.0038841586 0.023761043 0.082726926 -0.006215071 0.029083576 -0.014450942
0.07564334 -0.0055460325 -0.08249049 -0.0632277 0.071191646 -0.01640103 -0.026104622 -0.069806695
-0.039250158 -0.084545024 0.0153627675 -0.006139491 0.034940403 -0.014890242 0.012152329 -0.06126367
-0.03566223 -0.059153415 0.010050495 -0.03346686 -0.06393465 -0.059721876 -0.047682103 -0.0037578074
-0.042473044 -0.08577656 0.011535259 -0.07269293 -0.014838821 0.05150735 0.008675301 0.044550635
-0.08291736 0.033357706 0.0015201363 0.0649131 -0.0066701868 -0.036892146 -0.023020037 -0.007150339
-0.00441988 0.06893334 -0.05694555 -0.08009415 0.07774492 0.008654346 -0.07564235 -0.034720007
0.024262995 0.027220393 0.077816136 0.0028212531 -0.021899953 -0.07595902 -0.04920658 -0.034718044
0.068085626 -0.047277942 0.07609619 0.05692494 0.0144593455 0.05421697 -0.07639493 0.044813488
0.06368653 -0.07878071 0.024430813 -0.052987754 -0.050409604 -0.032157004 0.0013387336 0.016668374
0.06807631 -0.016562816 0.007548102 -0.037579797 0.046909366 -0.014179064 -0.07977029 0.031854182
-0.053821146 0.037643936 0.030327864 0.0026148309 -0.014995956 -0.056208927 0.06715299 0.0028066721
0.017184934 0.009789369 -0.02585214 0.021449275 0.05039734 0.026608102 -0.08298673 -0.0013777927
-0.043223906 -0.036045197 0.010174798 -0.013888961 -0.07511706 0.078617334 -0.037513882 0.06716597
0.08421266 0.08309354 -0.028644543 -0.007088354 0.052480936 0.07322229 -0.06445848 0.06980131
-0.051534645 0.06433517 -0.07221409 0.07431191 -0.05178681 0.035994075 0.048317153 -0.078288205
-0.0126577215 0.022571893 -0.06971737 0.07652529 0.025502574 0.006609426 -0.060911234 0.06760515
-0.023808753 -0.044451866 0.004399029 -0.03817288 0.06595156 0.043348886 -0.02742947 0.076770775
0.045628592 -0.011590495 -0.058632847 0.08307357 0.026367085 -0.01217881 0.026158614 -0.057508763
0.07057767 0.07166215 -0.017513102 -0.011139364 -0.025150936 0.04358637 0.06609632 -0.0146214925
-0.0021336935 0.08168837 -0.04132609 -0.06488915 0.07037586 0.017583897 0.040320013 -0.08004864
00000000: 594b 333d 983a 42bc 5464 23bd aa38 54bd
00000010: c55b 823d ae81 e4bc e9a6 933d 2964 93bd
00000020: 1ea5 7b3d 75d4 a43d bf5d e0bc a40d 97b9
00000030: 7547 863d 9b52 a1bd 5be7 313d 00f9 913c
00000040: 754b 523c 7be8 713d 71b7 053d 9c5f 58bc
00000050: 3334 dd3b 89b4 a63c a79f 10bc b968 7e3c
00000060: c128 863d 8308 253d dfb8 20bd c8cc 2e3c
00000070: c944 4c3d 54de a6bd 36e3 2c3d 4d23 bcbc
00000080: 9cad 6f3d ea53 153d bac4 273d 9f14 3c3d
00000090: e159 7d3b a94c f43c 77f4 9a3d 9f61 783c
000000a0: 9749 323d faaf 8d3d 8e81 51bd 5303 24bd
000000b0: f748 4a3d 7372 97bc a5e7 a4bd f949 a3bd
000000c0: 32f1 10bc bf39 9bbd 21b8 99bc c036 98bd
000000d0: bea1 8fbd f166 86bd 04f1 83bb 2f53 0d3c
000000e0: f2a0 9cbd 39ad 80bc 28ef cbbc 530c 483d
000000f0: f567 903d 569e 9ebd 019b 9ebd ed7f e9bb
00000100: c3c9 e7bc 14e0 2cbd e33b 253c dcda c63c
00000110: f968 363d b45d 833c b0f2 83bc a904 d4bc
00000120: 2c6a 64bd 415f 8cbd e5e8 ccbc fe5e 4dbd
00000130: 2727 133d 3ec3 9b3b aa8a 2f3b 3fbb 2bbd
00000140: 1f1f ba3c 6b02 1c3d 1d9a 813d c2bf 6abd
00000150: 6241 d1bc 1be7 30bc 55d2 d2bc 626a 493c
00000160: 8c98 723c 9f18 66bd 5e8d 7ebb 85a6 c23c
00000170: bc6c a93d cba7 cbbb ae40 ee3c a5c3 6cbc
00000180: e5ea 9a3d 7ebb b5bb c6f0 a8bd 867d 81bd
00000190: edcc 913d 745b 86bc 5cd9 d5bc d0f6 8ebd
000001a0: c6c4 20bd f125 adbd 1eb4 7b3c c92d c9bb
000001b0: ab1d 0f3d 34f6 73bc 901a 473c 9def 7abd
000001c0: 8f12 12bd da4a 72bd d5aa 243c 8c14 09bd
000001d0: 2bf0 82bd ed9e 74bd 4f4e 43bd 8c45 76bb
000001e0: 37f8 2dbd 9fab afbd 62fe 3c3c 08e0 94bd
000001f0: 871e 73bc 5ff9 523d da22 0e3c ba7a 363d
00000200: 94d0 a9bd 17a2 083d 4f3f c73a 29f1 843d
00000210: 9591 dabb 381c 17bd 8494 bcbc 644d eabb
00000220: a4d4 90bb ec2c 8d3d bd3f 69bd 6708 a4bd
00000230: bb38 9f3d f5ca 0d3c 60ea 9abd 9136 0ebd
00000240: 30c3 c63c 4dfd de3c 115e 9f3d c6e4 383b
00000250: 8867 b3bc 6790 9bbd d78c 49bd 8234 0ebd
00000260: 7a70 8b3d 84a6 41bd 52d8 9b3d 202a 693d
00000270: e4e6 6c3c 9d12 5e3d f274 9cbd 598e 373d
00000280: 156e 823d c857 a1bd 2123 c83c b009 59bd
00000290: 4d7a 4ebd 10b7 03bd 7278 af3a 1d8c 883c
000002a0: 986b 8b3d beae 87bc 1256 f73b 46ed 19bd
000002b0: 0924 403d 4e4f 68bc 9b5e a3bd 8879 023d
000002c0: 9073 5cbd 8730 1a3d 2472 f83c 955d 2b3b
000002d0: 99b1 75bc 553b 66bd 8287 893d 25f0 373b
000002e0: 6bc7 8c3c 9763 203c dec7 d3bc 64b6 af3c
000002f0: 716d 4e3d 3cf9 d93c f2f4 a9bd 0d97 b4ba
00000300: 8d0b 31bd 21a4 13bd 32b4 263c 868e 63bc
00000310: f9d6 99bd 2002 a13d 28a8 19bd 508e 893d
00000320: b077 ac3d f22c aa3d f6a7 eabc 6c45 e8bb
00000330: 40f6 563d 91f5 953d cf02 84bd fdf3 8e3d
00000340: fe15 53bd 28c2 833d fbe4 93bd d830 983d
00000350: 681e 54bd 866e 133d 35e8 453d 9155 a0bd
00000360: 5562 4fbc b1e8 b83c fbc7 8ebd 4bb9 9c3d
00000370: c6ea d03c e293 d83b 0f7e 79bd 9274 8a3d
00000380: 930a c3bc 2913 36bd bb25 903b 2a5b 1cbd
00000390: 9d11 873d 9a8e 313d c5b3 e0bc ff39 9d3d
000003a0: 0ce5 3a3d 0fe6 3dbc ff28 70bd 7a22 aa3d
000003b0: c9ff d73c a289 47bc 974a d63c 4f8e 6bbd
000003c0: 078b 903d 9bc3 923d a377 8fbc e181 36bc
000003d0: 5609 cebc 9f87 323d 825d 873d fc8e 6fbc
000003e0: 70d5 0bbb 3b4c a73d 8c45 29bd 9ae4 84bd
000003f0: 3821 903d 1b0c 903c 9926 253d 8bf0 a3bd

layers.0.bias f4 [128]
-0.07747435 0.054769848 0.04478703 0.0041949605 0.019305117 0.017411252 -0.059569973 -0.059630517
-0.08029251 -0.05095645 -0.030222476 -0.047924116 0.06579941 0.027329633 0.053220183 -0.08029777
-0.057796303 -0.03234551 -0.08367954 0.020595063 0.042264484 0.016377334 0.010236009 -0.0030132635
0.08573118 -0.06073943 -0.021046622 -0.0046492633 0.0059303986 -0.067061484 -0.035602387 -0.0035762377
-0.020974519 -0.008602931 -0.07796367 0.03215805 -0.013714054 -0.044398963 0.079438664 0.018329985
0.0030181736 0.017495453 -0.077836804 0.045500204 0.07704635 0.014202352 -0.0021884663 -0.052953493
0.06441412 -0.06846912 0.056672722 0.030467845 -0.07124469 0.06499555 -0.08379387 -0.06559854
-0.054453444 0.0006974714 -0.026394522 0.05173668 -0.04343666 0.011580353 -0.0150603345 0.0016637157
0.07884744 0.04302135 0.02149179 -0.019463707 0.026101267 0.044146683 -0.076136604 -0.07470081
0.0035077936 0.07439642 -0.07986617 0.011069601 -0.06798942 -0.03724181 -0.01645098 -0.050557647
0.048688866 -0.0765741 -0.04170596 0.024118982 -0.017209783 -0.019429484 0.003359624 0.014261767
-0.030445646 -0.0031465632 -0.07318527 -0.044396646 -0.07585656 -0.0061103664 0.060122244 -0.045498718
0.044412147 0.04753736 0.04340802 0.066375695 0.0065723825 0.029448716 -0.044737406 -0.029792305
-0.025199454 0.020419598 -0.007247345 0.018827198 -0.08365681 -0.029873108 -0.040335365 -0.0605853
0.023647381 -0.07804684 0.027618483 0.06133975 -0.06539311 -0.05491253 0.06625089 0.012885506
7.766401e-05 -0.022345062 0.00033103366 0.073006116 0.065898836 -0.0510612 0.067736536 -0.060332015
00000000: dfaa 9ebd 5956 603d 9b72 373d e175 893b
00000010: c425 9e3c 0ba2 8e3c a5ff 73bd 213f 74bd
00000020: 6670 a4bd b6b7 50bd 2095 f7bc 144c 44bd
00000030: d7c1 863d 65e2 df3c 68fd 593d 2873 a4bd
00000040: d1bb 6cbd ba7c 04bd 2e60 abbd fab6 a83c
00000050: 861d 2d3d c229 863c efb4 273c 2c7a 45bb
00000060: d493 af3d e9c9 78bd f769 acbc d958 98bb
00000070: ca53 c23b 8857 89bd cfd3 11bd 505f 6abb
00000080: c1d2 abbc 4ff3 0cbc 6bab 9fbd 29b8 033d
00000090: e9b0 60bc b0db 35bd bdb0 a23d c428 963c
000000a0: 8dcc 453b a052 8f3c e768 9fbd 6c5e 3a3d
000000b0: 7aca 9d3d fbb0 683c 5f6c 0fbb c3e5 58bd
000000c0: 8deb 833d 8a39 8cbd a821 683d b497 f93c
000000d0: bce8 91bd 631c 853d 1f9c abbd 8758 86bd
000000e0: 930a 5fbd 83d6 363a 5339 d8bc d7e9 533d
000000f0: a4ea 31bd 85bb 3d3c 9fbf 76bc 0911 da3a
00000100: c47a a13d 2837 303d 8d0f b03c 5a72 9fbc
00000110: 53d2 d53c 27d3 343d 82ed 9bbd bdfc 98bd
00000120: 03e3 653b 265d 983d e090 a3bd 465d 353c
00000130: 093e 8bbd de8a 18bd 35c4 86bc 8915 4fbd
00000140: fa6d 473d e2d2 9cbd ded3 2abd 2c95 c53c
00000150: 88fb 8cbc 952a 9fbc 232d 5c3b 30aa 693c
00000160: 2669 f9bc 9236 4ebb 29e2 95bd 42d9 35bd
00000170: af5a 9bbd 7839 c8bb be42 763d dd5c 3abd
00000180: 83e9 353d 89b6 423d 9ccc 313d fbef 873d
00000190: 245d d73b 6f3e f13c 923e 37bd fe0e f4bc
000001a0: 166f cebc 0047 a73c 237b edbb 7f3b 9a3c
000001b0: 4354 abbd 73b8 f4bc b236 25bd 4b28 78bd
000001c0: 27b8 c13c 06d7 9fbd 2840 e23c 643f 7b3d
000001d0: d3ec 85bd f6eb 60bd 8cae 873d bb1d 533c
000001e0: 8cdf a238 fe0c b7bc 968e ad39 3b84 953d
000001f0: f8f5 863d 8d25 51bd 74b9 8a3d b41e 77bd

layers.1.weight f4 [128, 128]
-0.06879833 -0.021365557 0.016050657 -0.07715894 -0.01073602 -0.053377826 -0.035604123 -0.031629935
-0.08179866 -0.0662358 -0.013583592 0.043598484 0.03776061 -0.01259973 -0.025412437 -0.042569786
-0.04371926 -0.056326356 0.080126494 0.046720058 0.043365538 -0.0147328 -0.009581656 0.0768504
0.067715526 -0.008940002 -0.07736423 0.07139067 -0.008262713 -0.078128375 -0.0580823 -0.018071275
-0.05661744 0.07413754 0.073795974 -0.0065066777 -0.057119913 -0.078463376 -0.04495079 -0.04609806
0.07708684 0.012258049 -0.033128876 -0.068504855 -0.053199645 0.03981839 0.019689752 -0.082953975
-0.0291121 -0.0060531558 -0.077685006 0.08067033 -0.02856884 0.0029111002 -0.004845001 0.08174306
0.0059913257 0.08054368 -0.037148118 -0.021074083 0.057819355 0.05710808 -0.018743787 -0.03506006
-0.011441142 -0.019025669 -0.049476653 -0.007686876 0.004746822 -0.0095657855 -0.06038695 0.07944308
-0.017288338 0.077323094 -0.0804851 -0.012995525 0.044805277 0.080341265 -0.048631243 -0.07703997
0.07120031 0.02301724 -0.045472022 0.05715645 0.07839013 -0.058702033 0.070617884 0.0053064837
0.06240081 -0.0151052 0.012784867 -0.0487581 -0.00072000985 0.05963881 0.02813334 -0.012463497
0.03089909 -0.01425765 0.07340459 0.010697122 -0.064314514 -0.00575195 -0.026870955 0.055276006
0.037337795 -0.064087294 -0.057173084 -0.013628409 0.022913923 -0.07733192 0.027623665 -0.0035102863
-0.078034244 -0.055272 -0.04273063 -0.003635172 -0.00023236766 -0.061315976 -0.046853658 0.050360747
-0.04601604 0.009475942 0.015671067 -0.063960984 -0.009297356 0.047289055 -0.08497435 -0.06823593
-0.046255834 0.023712812 0.045323174 0.03283117 -0.053873975 0.06754242 -0.081896596 0.08343624
0.050747365 0.07377858 0.060534064 0.009548646 -0.010208076 0.019641455 0.033522252 0.03793924
0.03606516 -0.025665058 0.07823353 -0.066893734 -0.05177705 -0.011980417 -0.014883992 0.019719059
0.054169714 0.017109072 0.07510147 0.018350743 -0.0502635 0.01701127 0.021447469 -0.02324255
-0.0661016 -0.044408917 -0.017741015 0.0037764595 0.015174028 -0.074785694 -0.0145762935 -0.018782409
0.075813994 0.071257725 -0.014574525 -0.05919844 -0.0072596986 -0.06919056 -0.012552457 -0.034656323
-0.041302487 0.034464493 -0.08134779 0.05118233 0.017442731 -0.07879907 0.014833854 -0.05189912
0.056703523 0.032835893 -0.0043062395 0.079727404 -0.049313664 -0.063947745 -0.054625686 0.073967755
-0.0076333303 -0.07634854 -0.061266113 0.058600817 -0.034185514 0.06453111 -0.049603987 -0.040878892
-0.0038968774 -0.004279142 -0.0757982 0.07735069 0.044430032 0.06801763 0.014474289 -0.029566133
0.03591717 -0.030690163 0.012921429 -0.059232987 0.04653392 0.0069421483 0.082223415 -0.020826537
-0.06489806 0.023225915 0.02402574 -0.052325543 0.00995351 -0.06415526 0.06251471 0.035775162
0.03217215 -0.06554732 0.021814184 0.04782523 -0.008396206 0.027117353 -0.06790557 0.038395006
0.08129799 0.069705874 -0.031794675 -0.06468058 0.026385043 -0.0636646 -0.07056278 0.0016330144
0.052164897 -0.033819985 0.054887593 0.047575187 -0.03614268 0.0055638966 0.045530558 0.08246613
0.025311457 -0.048377078 0.010016996 0.063145034 -0.040628362 0.039436836 0.02066306 -0.015344879
00000000: 24e6 8cbd d206 afbc ab7c 833c 8205 9ebd
00000010: 22e6 2fbc b5a2 5abd a1d5 11bd 648e 01bd
00000020: 0e86 a7bd a3a6 87bd b78d 5ebc 5394 323d
00000030: dfaa 1a3d 196f 4ebc be2d d0bc a85d 2ebd
00000040: f712 33bd 77b6 66bd 5c19 a43d 885d 3f3d
00000050: 10a0 313d d861 71bc 61fc 1cbc be63 9d3d
00000060: 70ae 8a3d 1679 12bc 2371 9ebd 4635 923d
00000070: 5560 07bc c501 a0bd b5e7 6dbd 360a 94bc
00000080: b0e7 67bd 6cd5 973d 5822 973d f835 d5bb
00000090: 92f6 69bd 68b1 a0bd 521e 38bd 52d1 3cbd
000000a0: b5df 9d3d fcd5 483c 25b2 07bd 464c 8cbd
000000b0: dfe7 59bd 9c18 233d 674c a13c c6e3 a9bd
000000c0: 807c eebc 8d59 c6bb 5119 9fbd 7c36 a53d
000000d0: 3309 eabc 28c8 3e3b d0c2 9ebb e868 a73d
000000e0: e252 c43b 16f4 a43d a028 18bd 8ea3 acbc
000000f0: fdd3 6c3d 29ea 693d 928c 99bc 239b 0fbd
00000100: a173 3bbc b8db 9bbc 08a8 4abd 31e2 fbbb
00000110: 3b8b 9b3b d0b9 1cbc 4e58 77bd 0eb3 a23d
00000120: 46a0 8dbc 925b 9e3d 5fd5 a4bd 2feb 54bc
00000130: bd85 373d f689 a43d 8e31 47bd 22c7 9dbd
00000140: 78d1 913d a78e bc3c df40 3abd e21c 6a3d
00000150: 018b a03d 8b71 70bd 1ca0 903d 03e2 ad3b
00000160: fe97 7f3d cd7b 77bc 9e77 513c 93b6 47bd
00000170: 0bbf 3cba d347 743d e477 e63c b233 4cbc
00000180: 1720 fd3c eb98 69bc 2555 963d fb42 2f3c
00000190: 54b7 83bd db7a bcbb 7a20 dcbc 1869 623d
000001a0: 84ef 183d 3340 83bd 532e 6abd b149 5fbc
000001b0: fbb5 bb3c 3360 9ebd 064b e23c d50c 66bb
000001c0: 6bd0 9fbd e564 62bd 5006 2fbd 113c 6ebb
000001d0: b8a7 73b9 7626 7bbd 9fe9 3fbd 1247 4e3d
000001e0: 517b 3cbd fb40 1b3c 9c60 803c fafd 82bd
000001f0: f053 18bc 2bb2 413d 0807 aebd 47bf 8bbd
00000200: c276 3dbd 5f41 c23c cba4 393d fa79 063d
00000210: f5aa 5cbd ae53 8a3d 67b9 a7bd 9fe0 aa3d
00000220: 78dc 4f3d 3919 973d 91f2 773d ed71 1c3c
00000230: c63f 27bc 1ee7 a03c a14e 093d 2d66 1b3d
00000240: 10b9 133d 873f d2bc e738 a03d 95ff 88bd
00000250: 2c14 54bd 8349 44bc fddb 73bc dd89 a13c
00000260: 10e1 5d3d 5328 8c3c cdce 993d 4c54 963c
00000270: 1ae1 4dbd 385b 8b3c 9ab2 af3c 2967 bebc
00000280: 4760 87bd 20e6 35bd 9b55 91bc 7a7e 773b
00000290: 7d9c 783c 3e29 99bd 68d1 6ebc 91dd 99bc
000002a0: 5e44 9b3d 92ef 913d fdc9 6ebc 107a 72bd
000002b0: c4e2 edbb c8b3 8dbd d2a8 4dbc caf3 0dbd
000002c0: cc2c 29bd a42a 0d3d ac99 a6bd 90a4 513d
000002d0: 0fe4 8e3c 6861 a1bd b109 733c 2c94 54bd
000002e0: f441 683d ee7e 063d 5b1b 8dbb 1f48 a33d
000002f0: 20fd 49bd 09f7 82bd 2fbf 5fbd 687c 973d
00000300: 0421 fabb a05c 9cbd 2df2 7abd 6907 703d
00000310: 1c06 0cbd e328 843d 8d2d 4bbd a070 27bd
00000320: c162 7fbb 0b38 8cbb 163c 9bbd 0a6a 9e3d
00000330: 44fc 353d d44c 8b3d 9125 6d3c ad34 f2bc
00000340: e21d 133d f069 fbbc 67b4 533c 4a9e 72bd
00000350: 5a9a 3e3d f67a e33b c064 a83d 6a9c aabc
00000360: 46e9 84bd 4644 be3c a1d1 c43c 4f53 56bd
00000370: 0c14 233c d563 83bd b607 803d fa88 123d
00000380: f2c6 033d ac3d 86bd a9b3 b23c 63e4 433d
00000390: 3e90 09bc 3625 de3c 1312 8bbd 1544 1d3d
000003a0: 907f a63d f4c1 8e3d 223b 02bd 4077 84bd
000003b0: 7225 d83c 9662 82bd 3883 90bd df0a d63a
000003c0: dcaa 553d d386 0abd d0d1 603d 33de 423d
000003d0: 590a 14bd 5951 b63b 407e 3a3d 01e4 a83d
000003e0: f959 cf3c 0b27 46bd 541e 243c 2f52 813d
000003f0: ed69 26bd 8588 213d 9445 a93c 1669 7bbc
