DDPG/savedModels/targetActor.pth.tar (torch, 677777 bytes, 18 tensors)

conv.0.weight f4 [32, 3, 5, 5]
0.04184293 0.03720986 0.13505678 0.10765322 0.20284012 0.019673577 -0.02796221 -0.030067738
0.04316391 0.06430982 0.03334146 -0.113787584 -0.039153747 0.0031316793 0.12426058 -0.052059535
-0.1689095 -0.095205106 -0.06318198 -0.075815804 0.019956369 -0.099895634 0.0014534142 -0.032108743
-0.07864025 0.045935288 -0.08106731 -0.004521833 0.06729232 0.07997472 -0.007932092 0.08390043
-0.02400746 -0.0057537956 0.061551996 -0.039723627 -0.10993049 -0.051463448 0.022259103 0.068076365
-0.07151784 0.0023362879 -0.06444143 0.07622307 0.064018995 -0.028170073 0.045976438 0.02650452
-0.028702978 -0.04899672 0.028483326 -0.08726761 -0.122879475 0.034247175 -0.03730601 0.0606774
-0.1419773 -0.13037099 -0.020191299 0.050455462 0.0061688167 -0.023410434 0.024864819 0.05194857
-0.02625083 -0.108605705 0.095024124 -0.03152158 0.09676097 0.047707483 0.10116499 0.056980312
0.10405866 -0.00470333 -0.040746756 -0.11960602 -0.08150137 -0.18613102 -0.20788763 -0.14562614
0.1166032 0.03227107 -0.035781752 -0.014733724 -0.10931284 0.07396999 0.0824754 -0.08532303
-0.011402728 0.040078357 0.16795458 -0.033130508 0.10746388 0.12875344 -0.010104116 0.03248326
0.09317083 0.2161166 0.0437951 0.0803745 0.031399596 0.0988925 -0.007509612 0.02590028
0.06731633 0.0007724221 0.07448778 -0.08625369 -0.057582594 -0.04551416 -0.07388193 -0.069778904
-0.0869333 0.033759832 -0.017902661 0.022570666 -0.041670766 0.096743636 0.046635985 -0.0756037
-0.011706465 0.001276554 0.010340041 0.047385905 0.08320617 -0.050374646 -0.05195154 0.10620773
-0.00506691 0.026885008 -0.040692646 0.03227908 -0.0038972679 0.04562794 -0.014712261 0.030430377
0.1020944 0.04343748 -0.007937327 -0.053465825 -0.072630614 0.008594928 -0.026655437 0.01286684
-0.11611206 -0.07011052 -0.016278727 -0.007813158 -0.1080173 0.10107211 -0.15766801 -0.07099918
-0.11286504 0.052208275 0.08005952 -0.08255938 -0.16381209 0.04903052 -0.07982513 0.12790844
-0.08517415 -0.112181075 0.051091414 0.1080192 0.09962604 0.011976811 0.039748445 0.12996008
-0.04033652 -0.025261637 0.105616264 -0.06454971 -0.01772341 0.10480657 0.10657167 0.037440725
-0.01576411 0.06657671 0.009085067 0.10039509 -0.09566549 0.029350348 -0.023362169 0.092513554
-0.02975796 0.07888433 -0.023593936 0.051059257 -4.607199e-05 -0.05387797 -0.063239284 -0.10164006
-0.039128996 -0.07059516 0.11321454 -0.13614616 -0.04738978 0.03811896 -0.082493044 0.07491765
0.017831668 0.07745618 -0.061231885 -0.12000268 0.049259417 0.09251168 -0.0029494704 -0.037557647
0.038742058 -0.040542047 -0.10777015 0.011914272 0.11764275 -0.016227832 -0.066091426 0.01741639
-0.04002048 -0.08383078 0.049916107 0.061111707 -0.039783895 0.08009229 -0.07859917 -0.07339864
-0.07037454 -0.13150905 -0.116963394 0.08527937 -0.09948936 0.054285858 -0.15486929 -0.1269401
0.04309586 0.026313633 -0.090034544 -0.054486472 -0.10040533 0.09144826 -0.04348804 -0.019967936
-0.11575299 -0.020916604 0.10710503 0.13364868 0.12638555 -0.09233286 -0.008767381 0.0520634
0.030666752 0.023792183 -0.09550749 -0.046801765 -0.064440005 -0.09894909 0.096624844 -0.10686255
00000000: 7e63 2b3d 5e69 183d 534c 0a3e 4b79 dc3d
00000010: 52b5 4f3e 7b2a a13c 0111 e5bc 9e50 f6bc
00000020: a4cc 303d deb4 833d 0e91 083d 7709 e9bd
00000030: ae5f 20bd dc3c 4d3b 557c fe3d 613c 55bd
00000040: 9df6 2cbe e5fa c2bd 8e65 81bd 5145 9bbd
00000050: 8a7b a33c 1596 ccbd 7d80 be3a 7584 03bd
00000060: 240e a1bd a426 3c3d 9e06 a6bd e22b 94bb
00000070: 8ed0 893d c9c9 a33d 9bf5 01bc fdd3 ab3d
00000080: 4bab c4bc 568a bcbb f21d 7c3d 3eb5 22bd
00000090: 3d23 e1bd 56cb 52bd b958 b63c 9f6b 8b3d
000000a0: f277 92bd 681c 193b def9 83bd d71a 9c3d
000000b0: 641c 833d edc4 e6bc ca51 3c3d 0220 d93c
000000c0: 8222 ebbc c9b0 48bd dd55 e93c 5cb9 b2bd
000000d0: 3ca8 fbbd c446 0c3d 30ce 18bd de88 783d
000000e0: 7f62 11be f97f 05be 3968 a5bc 63aa 4e3d
000000f0: c923 ca3b 3dc7 bfbc 4eb1 cb3c 06c8 543d
00000100: fb0b d7bc ab6c debd 029c c23d c61c 01bd
00000110: 9e2a c63d ec68 433d 972f cf3d 3064 693d
00000120: b51c d53d 641e 9abb 12e6 26bd 00f4 f4bd
00000130: 31ea a6bd 2199 3ebe 7fe0 54be 051f 15be
00000140: a9cd ee3d ab2e 043d e38f 12bd b865 71bc
00000150: 69df dfbd 947d 973d dde8 a83d d7bd aebd
00000160: 82d2 3abc 3429 243d 49fc 2b3e dbb3 07bd
00000170: 0616 dc3d f1d7 033e bc8b 25bc 2b0d 053d
00000180: 59d0 be3d ac4d 5d3e 7e62 333d 639b a43d
00000190: dd9c 003d 2788 ca3d 3113 f6bb d32c d43c
000001a0: 25dd 893d 5f7c 4a3a 0d8d 983d c6a5 b0bd
000001b0: badb 6bbd 0e6d 3abd 694f 97bd 3ee8 8ebd
000001c0: 160a b2bd c047 0a3d 9aa8 92bc 1ee6 b83c
000001d0: f7ae 2abd 8721 c63d 6005 3f3d 1dd6 9abd
000001e0: 79cc 3fbc 0b52 a73a 4669 293c b917 423d
000001f0: ff67 aa3d a555 4ebd 23cb 54bd 7083 d93d
00000200: 5208 a6bb f33d dc3c 55ad 26bd 1237 043d
00000210: 4e69 7fbb 5de4 3a3d b20b 71bc 2049 f93c
00000220: de16 d13d 80eb 313d 900b 02bc fbfe 5abd
00000230: 5cbf 94bd bed1 0c3c 815c dabc 70cf 523c
00000240: 29cc edbd 1b96 8fbd f75a 85bc c302 00bc
00000250: 2d38 ddbd e5fe ce3d b973 21be 0568 91bd
00000260: c925 e7bd 58d8 553d 3ff6 a33d e414 a9bd
00000270: 5bbe 27be 3ad4 483d 5c7b a3bd 6efa 023e
00000280: c96f aebd 31bf e5bd 3b45 513d 2c39 dd3d
00000290: bd08 cc3d 633a 443c 44cf 223d 4114 053e
000002a0: e837 25bd 7ef1 cebc 574d d83d a332 84bd
000002b0: af30 91bc d4a4 d63d 3f42 da3d 725b 193d
000002c0: bc23 81bc 5f59 883d 88d9 143c f19b cd3d
000002d0: 45ec c3bd 2470 f03c 0562 bfbc bf77 bd3d
000002e0: f7c6 f3bc 1c8e a13d 1248 c1bc 8323 513d
000002f0: 6c3d 41b8 25af 5cbd 9983 81bd aa28 d0bd
00000300: ba45 20bd 3294 90bd 06dd e73d e669 0bbe
00000310: c91b 42bd a022 1c3d 1df2 a8bd 6d6e 993d
00000320: b813 923c 58a1 9e3d 49ce 7abd f7c3 f5bd
00000330: 3ec4 493d c476 bd3d e74b 41bb 0cd6 19bd
00000340: feaf 1e3d 6b0f 26bd 99b6 dcbd 1434 433c
00000350: afee f03d 3bf0 84bc f15a 87bd d1ac 8e3c
00000360: 84ec 23bd 79af abbd d574 4c3d 4550 7a3d
00000370: 70f4 22bd 6d07 a43d 9af8 a0bd 0752 96bd
00000380: 8720 90bd 4faa 06be 818a efbd f3a6 ae3d
00000390: 14c1 cbbd d95a 5e3d 0e96 1ebe 96fc 01be
000003a0: 4985 303d b08f d73c 0864 b8bd 352d 5fbd
000003b0: 4fa1 cdbd 3a49 bb3d 8420 32bd cc93 a3bc
000003c0: e70f edbd 4c59 abbc e259 db3d 33db 083e
000003d0: 376b 013e 0319 bdbd 10a5 0fbc 6f40 553d
000003e0: d738 fb3c d3e7 c23c 6e99 c3bd 35b3 3fbd
000003f0: 1ff9 83bd d2a5 cabd 3fe3 c53d c1da dabd

conv.0.bias f4 [32]
0.1798204 0.005461116 0.00965057 -0.08550648 0.10361403 -0.13301367 0.13065827 -0.06849716
0.07741625 -0.07228382 -0.08254977 0.11036481 -0.04565795 -0.074547745 -0.12550665 0.020033423
-0.03153256 -0.018736623 0.05497295 0.09221855 -0.047492784 -0.07861073 0.09001743 0.043878905
0.21280055 0.035445917 -0.031002633 0.1769606 0.14873256 0.089943066 -0.12072704 -0.0016123217
00000000: d722 383e 29f3 b23b 6d1d 1e3c 051e afbd
00000010: 9833 d43d bc34 08be 48cb 053e 3d48 8cbd
00000020: 698c 9e3d 8a09 94bd db0f a9bd f206 e23d
00000030: d503 3bbd 7dac 98bd d184 00be 221d a43c
00000040: 4928 01bd 8c7d 99bc 512b 613d 14dd bc3d
00000050: cb87 42bd aafe a0bd 0f5b b83d 5eba 333d
00000060: 63e8 593e bd2f 113d 3cf9 fdbc 2935 353e
00000070: 594d 183e 1234 b83d bd3f f7bd 8a54 d3ba

conv.2.weight f4 [32, 32, 4, 4]
-0.00056015665 -0.07588642 -0.07155176 -0.07859367 -0.08091896 -0.15847856 -0.085359156 -0.058108125
0.026140999 0.019811505 0.049371984 0.04898303 -0.07259944 -0.070086196 0.001207316 0.018726703
-0.061292935 -0.06974641 -0.05500036 0.07139344 0.03225282 0.051430423 -0.006424864 0.03464279
-0.025865206 -0.04112396 -0.11020988 -0.07748948 -0.050924968 -0.01975039 -0.0132373 -0.08276387
-0.10249217 0.050624628 0.10239671 -0.07394562 -0.06823522 0.031072434 0.05584002 -0.07087264
0.004778759 -0.0021109837 -0.009399631 -0.1202263 0.018533312 -0.046421044 -0.05435834 0.01737451
-0.03326107 -0.012901763 0.088871405 0.029608045 0.036873378 -0.023502266 0.051677976 -0.14185219
0.004762361 -0.1522517 -0.03708128 -0.10856793 0.05983735 -0.038855255 -0.023403514 0.071852446
0.015001946 0.0723659 -0.057787396 0.015804078 0.027761972 0.054557562 0.059729315 -0.015469917
0.048864562 0.052759696 0.009858159 -0.013890195 0.023554187 0.06912885 0.09290202 0.09945
0.016960606 -0.116886035 -0.06701867 -0.007986103 0.043877784 0.0128875775 -0.07302198 -0.041070465
0.0293084 0.039796777 0.0029691309 -0.0004671737 -0.02457517 -0.08520666 -0.0015600936 -0.04163648
0.048866674 0.07481599 0.05200654 0.038332574 -0.07099069 0.03391448 0.028990185 0.02709342
-0.034474917 -0.028799376 -0.03898601 0.056314964 -0.043644756 0.0013923264 0.058268473 0.121086165
0.03208604 -0.040791847 -0.07342685 0.06724169 0.06256268 0.020826787 -0.12731023 -0.09303002
-0.022765862 -0.040268186 -0.09418467 -0.15105793 0.069749855 0.06434857 -0.013806734 -0.022586428
-0.0019992262 -0.02196925 -0.004753299 -0.031492148 -0.0527005 0.026024282 -0.025558613 0.00799411
0.004249912 -0.02626643 -0.010864483 -9.065596e-05 -0.054496113 0.010006725 -0.04760051 0.0052883504
0.039015643 0.05838261 -0.08716706 -0.1290636 0.019631006 -0.0764666 -0.15893434 -0.0486757
-0.16070361 -0.040525436 -0.056123678 0.0564244 -0.054965097 0.010710692 -0.040322434 0.022837386
-0.038965177 -0.010537585 0.023023522 -0.029280229 -0.010812329 -0.019843947 0.038141873 -0.023468701
0.020250006 -0.036521353 -0.01756404 -0.016440848 -0.017165428 0.012611667 -0.01410646 0.015930478
0.01607801 -0.08201943 -0.12656221 0.0798601 -0.011714125 -0.026777256 -0.12182229 -0.10006501
0.05050901 0.015050496 -0.06859575 -0.05568295 0.0073392186 0.029445129 -0.02239102 -0.04011496
0.07452945 -0.02825483 -0.06329133 0.022923455 0.05864092 0.07595992 -0.061817102 0.030677749
-0.021018064 -0.006738923 -0.10034784 0.024895446 0.021149507 -0.020235175 -0.0004184021 0.047759015
0.03274014 -0.030211562 -0.04540256 -0.03272151 0.054995306 0.015428955 0.035820987 -0.01981973
0.043446757 -0.037106235 0.01848606 -0.036592133 -0.021693574 -0.0026234533 -0.027499517 -0.053367335
0.006727262 0.038339317 -0.013245906 -0.028589176 0.0119886035 -0.0066951313 -0.0048799603 -0.04975003
0.03214036 -0.021883568 0.012932045 -0.010640963 -0.009648161 -0.00435981 0.04625939 0.0006488201
0.018982202 -0.073655434 -0.12506406 0.0031799197 0.049434792 -0.17742252 -0.13343395 0.034486398
-0.01148687 -0.07446664 0.019825295 0.024353374 -0.0122689195 -0.015196055 -0.038118046 -0.025303619
00000000: 7ad7 12ba 576a 9bbd bb89 92bd b8f5 a0bd
00000010: d7b8 a5bd 3448 22be c8d0 aebd c902 6ebd
00000020: a625 d63c bd4b a23c 473a 4a3d 6ea2 483d
00000030: 04af 94bd 5a89 8fbd cd3e 9e3a be68 993c
00000040: 4d0e 7bbd 35d7 8ebd 0f48 61bd b936 923d
00000050: 881b 043d b5a8 523d aa87 d2bb 99e5 0d3d
00000060: 45e3 d3bc 9971 28bd b8b5 e1bd ceb2 9ebd
00000070: b396 50bd 92cb a1bc 43e1 58bc 1b80 a9bd
00000080: 6ae7 d1bd c55b 4f3d 5eb5 d13d cd70 97bd
00000090: e8be 8bbd 9e8b fe3c 81b8 643d ad25 91bd
000000a0: 2397 9c3b 6e58 0abb e900 1abc 3539 f6bd
000000b0: 2cd3 973c fe23 3ebd daa6 5ebd fd54 8e3c
000000c0: c23c 08bd eb61 53bc 3602 b63d 928c f23c
000000d0: 8a08 173d d387 c0bc 49ac 533d b341 11be
000000e0: 940d 9c3b dfe7 1bbe 8ae2 17bd dd58 debd
000000f0: 0218 753d b026 1fbd bab8 bfbc 6027 933d
00000100: b9ca 753c 9334 943d 7ab2 6cbd 8e77 813c
00000110: 136d e33c c077 5f3d baa6 743d 8975 7dbc
00000120: 3526 483d 8d1a 583d 1e84 213c b393 63bc
00000130: b6f4 c03c 6d93 8d3d 6a43 be3d 71ac cb3d
00000140: f8f0 8a3c f261 efbd 1641 89bd 25d8 02bc
00000150: 31b9 333d 6b26 533c 8c8c 95bd 8139 28bd
00000160: 2b18 f03c f201 233d c095 423b feee f4b9
00000170: de51 c9bc d480 aebd 0e7c ccba 038b 2abd
00000180: 6c28 483d 2039 993d cf04 553d 9e02 1d3d
00000190: 9163 91bd e9e9 0a3d d37c ed3c 05f3 dd3c
000001a0: 9235 0dbd abec ebbc cbaf 1fbd 85aa 663d
000001b0: d8c4 32bd b97e b63a ecaa 6e3d 06fc f73d
000001c0: a76c 033d 5a15 27bd d160 96bd 03b6 893d
000001d0: dd20 803d f09c aa3c 9d5d 02be 8686 bebd
000001e0: 797f babc 41f0 24bd e4e3 c0bd eeae 1abe
000001f0: 03d9 8e3d 2fc9 833d a435 62bc 2c07 b9bc
00000200: 7305 03bb dbf8 b3bc 90c1 9bbb e9fd 00bd
00000210: 7bdc 57bd e030 d53c 4c60 d1bc baf9 023c
00000220: d942 8b3b b22c d7bc f200 32bc 8c1e beb8
00000230: 5137 5fbd 3ff3 233c c1f8 42bd e649 ad3b
00000240: dece 1f3d 9b22 6f3d a584 b2bd 4029 04be
00000250: 34d1 a03c 859a 9cbd afbf 22be 2c60 47bd
00000260: 7d8f 24be 00fe 25bd f1e1 65bd 461d 673d
00000270: 1523 61bd e67b 2f3c 2329 25bd 7815 bb3c
00000280: f399 1fbd d6a5 2cbc d39b bc3c 17dd efbc
00000290: 3226 31bc c68f a2bc a73a 1c3d 6f41 c0bc
000002a0: 57e3 a53c 6a97 15bd 76e2 8fbc f5ae 86bc
000002b0: 839e 8cbc 2aa1 4e3c c81e 67bc a280 823c
000002c0: 08b6 833c cef9 a7bd 8699 01be b18d a33d
000002d0: 9aec 3fbc fa5b dbbc f77d f9bd e2ee ccbd
000002e0: 89e2 4e3d 5b96 763c ee7b 8cbd ce13 64bd
000002f0: d47d f03b e936 f13c 5f6d b7bc 964f 24bd
00000300: e5a2 983d ac76 e7bc e39e 81bd f8c9 bb3c
00000310: 7631 703d e090 9b3d ee33 7dbd e74f fb3c
00000320: 132e acbc 2fd2 dcbb 2b83 cdbd 89f1 cb3c
00000330: bb41 ad3c 3dc4 a5bc fb5c dbb9 f59e 433d
00000340: 861a 063d 3d7e f7bc 09f8 39bd fd06 06bd
00000350: c242 613d bac9 7c3c 07b9 123d fd5c a2bc
00000360: 3af5 313d b5fc 17bd 1470 973c a2e1 15bd
00000370: b9b6 b1bc 3eee 2bbb ab46 e1bc b597 5abd
00000380: 5d70 dc3b b009 1d3d 5b05 59bc d933 eabc
00000390: d96b 443c d562 dbbb 13e8 9fbb b0c6 4bbd
000003a0: 9ca5 033d 2b45 b3bc eee0 533c 6f57 2ebc
000003b0: 5213 1ebc bddc 8ebb 7c7a 3d3d 9415 2a3a
000003c0: 9080 9b3c a9d8 96bd cb10 00be 3366 503b
000003d0: 237c 4a3d 40ae 35be e9a2 08be 9c41 0d3d
000003e0: 6d33 3cbc f781 98bd a868 a23c ba80 c73c
000003f0: 9403 49bc e0f8 78bc ab21 1cbd 8949 cfbc

conv.2.bias f4 [32]
-0.034445316 -0.06003393 0.0022093353 -0.018074783 -0.03826612 0.017560039 -0.071473114 -0.049586922
-0.05409168 -0.049940478 -0.0079715485 0.0029931404 -0.0083309105 3.9965496e-05 -0.015113893 -0.013346368
-0.014657794 -0.063124724 -0.026243793 0.015432398 -0.044475704 -0.009006934 -0.02402007 -0.0227385
-0.04804099 -0.020346321 -0.0010188159 0.006091696 -0.08113752 -0.02795257 -0.00587416 0.014913033
00000000: 8816 0dbd 23e6 75bd 7fca 103b 9111 94bc
00000010: efbc 1cbd 12da 8f3c 7f60 92bd a81b 4bbd
00000020: 3d8f 5dbd 638e 4cbd 199b 02bc 9028 443b
00000030: 5f7e 08bc a0a0 2738 43a0 77bc baaa 5abc
00000040: 3e27 70bc 8947 81bd 39fd d6bc 2bd8 7c3c
00000050: 282c 36bd d291 13bc bdc5 c4bc 1746 babc
00000060: a1c6 44bd 54ad a6bc ca89 85ba da9c c73b
00000070: 6e2b a6bd cafc e4bc 077c c0bb cb55 743c

conv.4.weight f4 [32, 32, 3, 3]
0.13290665 0.0431935 -0.021759713 0.039319348 0.08344122 -0.07774207 0.007603776 -0.055671804
0.011470119 -0.1127685 -0.020606289 0.016048066 0.14232802 0.07219616 0.00042919308 0.03283843
0.08184224 -0.026999025 0.08745533 -0.15686569 0.017590854 0.038607348 0.032381482 0.029839654
-0.018497301 0.14927335 0.03546124 0.038811892 0.030893244 -0.012898441 -0.02387862 -0.0381924
0.05656857 -0.11772367 -0.017772118 -0.09808084 -0.016832225 -0.003930639 0.12678151 0.026507184
0.035448264 0.10943113 0.0037228947 -0.024997031 -0.14158642 0.037202664 -0.024365364 -0.070658654
0.014669855 -0.03724285 -0.018267225 0.02508309 0.023640202 0.10197988 -0.09999716 -0.054341506
-0.040568225 -0.039931744 -0.036640387 -0.009024662 0.15142886 0.14041822 -0.029881999 -0.0037786877
-0.030578589 0.04568443 0.07921605 0.014397625 0.106435776 -0.029219078 0.0050058807 0.019518355
-0.0054885917 0.07007254 -0.0029478143 -0.033829805 0.06990067 0.070572324 -0.0013140518 0.104628466
-0.059753958 0.042060032 0.050140943 0.0033617883 -0.009920445 -0.070201926 0.021901743 0.12605713
0.16833301 0.03443073 -0.029412394 -0.0063302005 -0.024551444 -0.013331129 0.0886012 0.13034223
0.039118398 0.026488448 0.03042353 -0.035917956 0.02813355 -0.07305672 0.030672995 -0.07467072
-0.067240946 -0.003457381 -0.063211 0.09618551 -0.011492487 0.062158227 -0.058640886 0.05607906
-0.05203214 0.02919124 -0.026506666 -0.028878516 -0.073384784 0.06819805 0.010811579 -0.063324854
0.035850346 -0.019374756 -0.09860542 0.12162678 0.082587115 0.013084329 -0.059223533 -0.011772061
-0.05518862 0.08918647 -0.0193286 -0.093716435 0.01642045 -0.018566884 -0.050372574 -0.068536274
0.004241737 0.008757064 0.05205916 0.108676665 0.107225984 -0.023526767 -0.09392372 0.024479408
-0.022671368 0.14612773 0.028861638 -0.07637887 0.03233316 -0.08475643 -0.0038002494 0.15110914
0.015925854 0.1286575 -0.006551158 -0.050048105 -0.011604189 0.045629222 0.018479543 0.0716896
0.025458237 -0.017163055 -0.012545249 -0.08090253 0.09455469 0.09445059 0.11547863 0.055223472
0.0365859 0.004857171 0.082705975 -0.01083487 -0.03610268 0.028256422 0.029114276 0.045877747
0.04201873 -0.091779515 -0.0059913304 -0.07425421 0.052444305 -0.003466167 -0.014680162 0.13105278
-0.031612787 -0.098654285 -0.059153672 0.09827567 -0.09135484 0.12998632 0.11220934 -0.033252105
0.10835285 0.01835644 -0.13355736 0.06588485 -0.063131884 0.0071444022 -0.032988988 -0.08225233
0.032818027 0.06257141 0.047606386 0.023031723 0.054634783 0.070017494 0.0058507742 -0.024909051
0.058537304 -0.0061678756 0.04209662 -0.0052153794 0.055099618 -0.057748653 -0.020051649 0.009777617
-0.07599897 0.054305844 0.02078689 0.0873315 0.09172788 -0.052375164 0.102595896 0.08233203
0.0018933751 -0.06668166 -0.06160469 0.000966841 0.13002516 -0.028663592 -0.016504843 -0.037324715
0.062139392 -0.060518347 0.082626946 -0.06218485 -0.019948917 0.011370661 0.028825577 0.008851191
-0.03490094 0.13424699 0.020868026 -0.022870608 0.03546836 0.019715333 0.055285823 0.045502037
0.11632158 -0.09347672 -0.031423606 -0.07515622 0.05563064 -0.11187364 0.043093096 0.020017704
00000000: ae18 083e abeb 303d 6d41 b2bc 530d 213d
00000010: 3be3 aa3d 3c37 9fbd 1929 f93b 1e08 64bd
00000020: 2aed 3b3c 2cf3 e6bd 85ce a8bc 3c77 833c
00000030: 70be 113e 95db 933d 5205 e139 9781 063d
00000040: e89c a73d 0f2d ddbc c81b b33d 66a1 20be
00000050: b21a 903c bd22 1e3d 72a2 043d 4a72 f43c
00000060: a787 97bc 1ddb 183e ce3f 113d 38f9 1e3d
00000070: d413 fd3c fc53 53bc 189d c3bc a26f 1cbd
00000080: 72b4 673d 1c19 f1bd d596 91bc 9cde c8bd
00000090: bce3 89bc 97cc 80bb 03d3 013e 9825 d93c
000000a0: 3332 113d 6e1d e03d cffb 733b 93c6 ccbc
000000b0: 08fc 10be d261 183d df99 c7bc 7cb5 90bd
000000c0: d559 703c f58b 18bd 26a5 95bc 0d7b cd3c
000000d0: 19a9 c13c d4da d03d 50cb ccbd 3395 5ebd
000000e0: de2a 26bd 788f 23bd 3b14 16bd 2ddc 13bc
000000f0: 2b10 1b3e cbc9 0f3e 18cb f4bc dca3 77bb
00000100: f37f fabc 991f 3b3d 063c a23d 04e4 6b3c
00000110: 00fb d93d d95c efbc 5f08 a43b f5e4 9f3c
00000120: a5d9 b3bb 3182 8f3d 1e30 41bb 1f91 0abd
00000130: 1528 8f3d 3988 903d 433c acba 7347 d63d
00000140: 91c0 74bd 2447 2c3d 9760 4d3d 7351 5c3b
00000150: 5d89 22bc 07c6 8fbd 496b b33c 1f15 013e
00000160: 7d5f 2c3e 3d07 0d3d 43f2 f0bc 926d cfbb
00000170: 1c20 c9bc cf6a 5abc 8c74 b53d 6f78 053e
00000180: 9d3a 203d 4dfe d83c c43a f93c b51e 13bd
00000190: 5578 e63c c39e 95bd ef45 fb3c f6ec 98bd
000001a0: 9fb5 89bd 3a95 62bb c574 81bd e9fc c43d
000001b0: fc4a 3cbc a099 7e3d 6d31 70bd 28b3 653d
000001c0: a71f 55bd 7822 ef3c 8224 d9bc a392 ecbc
000001d0: c34a 96bd 6bab 8b3d 0d23 313c 76b0 81bd
000001e0: d0d7 123d cfb7 9ebc a3f1 c9bd 7617 f93d
000001f0: 6f23 a93d a75f 563c 6094 72bd 9adf 40bc
00000200: 760d 62bd 65a7 b63d 0357 9ebc 67ee bfbd
00000210: 2e84 863c 9419 98bc 7953 4ebd bf5c 8cbd
00000220: 45fe 8a3b ca79 0f3c fc3b 553d df91 de3d
00000230: 4c99 db3d 35bb c0bc 145b c0bd 0a89 c83c
00000240: 4eb9 b9bc 82a2 153e 3e6f ec3c 866c 9cbd
00000250: c76f 043d c794 adbd 9b0d 79bb 5bbc 1a3e
00000260: f076 823c cbbe 033e 19ab d6bb 3eff 4cbd
00000270: 7f1f 3ebc b5e5 3a3d 6962 973c ffd1 923d
00000280: cb8d d03c 8999 8cbc 978a 4dbc 3ab0 a5bd
00000290: e4a5 c13d 506f c13d 0f80 ec3d 0232 623d
000002a0: 19db 153d e728 9f3b c061 a93d bd84 31bc
000002b0: 67e0 13bd 037a e73c 1081 ee3c 4eea 3b3d
000002c0: d51b 2c3d e6f6 bbbd ec52 c4bb 9712 98bd
000002d0: d7cf 563d a228 63bb 1085 70bc b332 063e
000002e0: 697c 01bd 420b cabd 1f4b 72bd c144 c93d
000002f0: 3f18 bbbd 221b 053e 03ce e53d 5c33 08bd
00000300: 19e8 dd3d 3f60 963c 43c3 08be a3ee 863d
00000310: 4a4b 81bd 971b ea3b 761f 07bd e973 a8bd
00000320: 326c 063d 7025 803d eafe 423d 06ad bc3c
00000330: b9c8 5f3d 5565 8f3d dab7 bf3b 110e ccbc
00000340: d0c4 6f3d e41b cabb 816d 2c3d c6e5 aabb
00000350: 23b0 613d da89 6cbd 5b43 a4bc 4c32 203c
00000360: 59a5 9bbd ce6f 5e3d 4549 aa3c dcda b23d
00000370: d4db bb3d 5787 56bd cc1d d23d b29d a83d
00000380: 202b f83a 6590 88bd 3355 7cbd 9a73 7d3a
00000390: 5125 053e e9cf eabc 2a35 87bc cde1 18bd
000003a0: e085 7e3d 16e2 77bd 5138 a93d 8bb5 7ebd
000003b0: e96b a3bc 024c 3a3c 9e23 ec3c 9604 113c
000003c0: 4af4 0ebd 0b78 093e 6cf3 aa3c 245b bbbc
000003d0: 4547 113d 0d82 a13c 6373 623d 5860 3a3d
000003e0: 023a ee3d b970 bfbd 0ab6 00bd 81eb 99bd
000003f0: f4dc 633d 021e e5bd 6382 303d 2bfc a33c

conv.4.bias f4 [32]
-0.01639617 -0.060978208 -0.007821593 -0.027435487 0.009248008 -0.05663408 -0.020059505 -0.04053446
-0.06417634 -0.048964847 -0.013874469 0.014516565 -0.012285849 -0.013553263 0.03862901 -0.004518631
0.02801608 0.00069281465 -0.02004717 -0.025187803 0.013654186 0.043123465 -0.06804872 0.016162423
0.035755284 -0.04347347 0.028111018 0.012300525 -0.0070241205 0.02435774 -0.030535486 -0.012684183
00000000: 4351 86bc 49c4 79bd 2426 00bc 63c0 e0bc
00000010: f584 173c 23f9 67bd d553 a4bc 7607 26bd
00000020: e36e 83bd 5d8f 48bd be51 63bc e3d6 6d3c
00000030: 964a 49bc 810e 5ebc 7439 1e3d 0611 94bb
00000040: fa81 e53c 019e 353a f639 a4bc a756 cebc
00000050: cfb5 5f3c 3ba2 303d 215d 8bbd 0f67 843c
00000060: 2274 123d 3d11 32bd 1449 e63c 2488 493c
00000070: 982a e6bb e289 c73c 8e25 fabc 52d1 4fbc

fc.weight f4 [128, 821]
-0.022082802 0.054243807 0.0007676167 -0.029749764 0.008298122 -0.037136503 -0.0030022096 0.0033356063
0.007728281 -0.025935696 0.0055739586 0.07322512 -0.06543196 0.09547415 0.0034321528 0.004010537
-0.017077725 -0.020057587 0.01179941 0.0029184588 -0.0082583865 0.055677366 0.02151238 -0.06559652
-0.072972156 0.014270177 0.053056527 -0.0146913 0.07992219 -0.012372472 0.038207006 0.024602385
0.035924315 -0.013832475 0.09953333 0.09901106 0.050339103 0.06477757 0.08819175 0.05497994
0.116303295 -0.013763493 0.05451131 0.030531783 -0.04759899 0.056151126 0.046675652 0.02550338
-0.028642546 -0.05878191 -0.031045673 -0.04991136 0.021678286 0.013545404 -0.02525853 0.05502342
0.0610189 0.065122 -0.005970516 0.015673093 0.040901616 0.00890695 -0.02326242 0.044461016
0.0045134854 0.0020018232 0.053207703 0.028298283 0.0070827934 -0.03704354 0.015631776 0.038875487
-0.06659911 0.001074853 -0.010128548 0.05934391 0.017191783 0.028469173 -0.034130573 0.05634449
0.065151826 -5.635178e-05 0.002995439 0.0088719 0.06347354 -0.080407456 0.056085546 -0.0063686757
-0.03160193 0.069806494 0.10969246 0.01460656 -0.014335401 0.013702723 -0.024186566 0.09775879
0.030044436 -0.009828214 0.020457784 -0.06526494 -0.021016372 0.011536893 -0.09883921 -0.013865386
-0.05758531 -0.0022134723 -0.0044887713 0.0050169397 -0.038108777 -0.010789987 0.059226744 -0.036351457
-0.04994512 -0.032404337 0.055294387 0.028380439 0.011477479 -0.006826979 -0.08202103 -0.023631956
0.0025650233 -0.056165397 0.030810602 0.062363636 0.04034012 0.059243944 0.07238888 0.014170428
0.02228873 0.11317187 0.031322453 0.08999473 0.029643416 -0.052871816 0.019223146 0.034326084
0.014901476 0.034080498 0.059140183 0.07023165 -0.047615282 -0.024541179 -0.035817403 0.06531253
0.034105327 0.005080182 0.043042578 -0.0007730051 0.02528353 0.014354514 0.06458193 -0.019669468
-0.020465815 0.027828753 -0.031218939 0.063606754 0.09893366 0.06250767 0.048082903 -0.0048297313
0.038982216 -0.010741222 0.004075504 0.04116465 0.024069844 0.015904456 -0.05503211 -0.057120595
-0.0067432225 0.061074287 0.0853845 0.026788997 0.00056866766 -0.021616481 0.039429378 0.0373521
0.06856431 -0.0124477185 0.11435425 0.0073756026 0.007882246 -0.024985267 0.1111458 0.017697688
0.08260676 0.12348291 0.04699659 0.09957697 0.035810087 0.09637647 0.05374054 0.04509933
0.03229542 0.031526193 0.02802418 0.006394645 0.08030173 0.10029103 -0.013583513 0.044072498
0.07013934 -0.023495765 -0.021078518 0.027841492 -0.04415109 0.0071341405 0.027114518 0.013660633
-0.031644825 0.12195812 0.068461485 0.026308546 0.066282734 0.014534521 -0.0028707443 0.056646936
-0.020038666 0.02288789 0.01650456 0.008800749 0.08982781 -0.003600909 0.02758341 0.035430294
0.060922977 -0.0054974793 -0.09825996 0.09499988 0.0753503 -0.04256637 0.05787754 0.009144571
0.00030697914 0.062933445 0.003373489 0.070081756 0.060885534 -0.06558347 0.040613867 -0.0311709
0.027322024 0.022122873 0.023620598 0.053756032 0.0557305 0.06945332 0.0155957965 -0.011729207
0.05542326 0.04994792 0.07867521 0.038406406 0.09070253 -0.008677097 -0.040001795 0.006324716
00000000: fee6 b4bc c12e 5e3d e239 493a c7b5 f3bc
00000010: d9f4 073c 721c 18bd b8c0 44bb 309a 5a3b
00000020: 853d fd3b 1977 d4bc c1a5 b63b 0df7 953d
00000030: 3101 86bd f387 c33d f8ed 603b d36a 833b
00000040: 96e6 8bbc cf4f a4bc 5052 413c 9d43 3f3b
00000050: 2f4e 07bc f30d 643d bb3a b03c 7857 86bd
00000060: 6d72 95bd 76cd 693c cd51 593d c7b3 70bc
00000070: 3fae a33d e9b5 4abc f37e 1c3d f18a c93c
00000080: 6025 133d 9ba1 62bc 21d8 cb3d 50c6 ca3d
00000090: 6030 4e3d 1aaa 843d e09d b43d a532 613d
000000a0: 6c30 ee3d 4680 61bc 4047 5f3d ca1d fa3c
000000b0: 29f7 42bd b9fe 653d f82e 3f3d 77ec d03c
000000c0: c6a3 eabc 4dc5 70bd 7f53 febc db6f 4cbd
000000d0: a996 b13c 8bed 5d3c faea cebc 3d60 613d
000000e0: f4ee 793d af5e 853d 51a4 c3bb dc64 803c
000000f0: 7488 273d 75ee 113c d590 bebc c11c 363d
00000100: dce5 933b 0531 033b 52f0 593d cdd1 e73c
00000110: c716 e83b f8ba 17bd 360e 803c e73b 1f3d
00000120: 1d65 88bd 15e2 8c3a 36f2 25bc 9a12 733d
00000130: c8d5 8c3c 2f38 e93c 80cc 0bbd 7bc9 663d
00000140: 526e 853d 435b 6cb8 214f 443b 725b 113c
00000150: 6afe 813d aaac a4bd f5b9 653d 53b0 d0bb
00000160: 0671 01bd b5f6 8e3d 71a6 e03d 5a50 6f3c
00000170: 08df 6abc 6381 603c e822 c6bc c335 c83d
00000180: c01f f63c 8406 21bc 1597 a73c a0a9 85bd
00000190: 872a acbc 3d05 3d3c 366c cabd a52b 63bc
000001a0: 93de 6bbd e70f 11bb 8b16 93bb 2465 a43b
000001b0: f317 1cbd 7cc8 30bc be97 723d 44e5 14bd
000001c0: 4193 4cbd 69ba 04bd 5e7c 623d 187e e83c
000001d0: 090c 3c3c dab4 dfbb a4fa a7bd ce97 c1bc
000001e0: f319 283b b00d 66bd 8466 fc3c 0371 7f3d
000001f0: af3b 253d c7a9 723d 9f40 943d 152b 683c
00000200: db96 b63c a7c6 e73d f94b 003d 284f b83d
00000210: c0d6 f23c 1e90 58bd dc79 9d3c 8299 0c3d
00000220: 5225 743c fe97 0b3d fa3c 723d 9cd5 8f3d
00000230: 3e08 43bd 950a c9bc 45b5 12bd 93c2 853d
00000240: 07b2 0b3d a877 a63b 6a4d 303d 7ea3 4aba
00000250: 681f cf3c 322f 6b3c 8843 843d dd21 a1bc
00000260: eda7 a7bc 20f9 e33c dcbe ffbc 4244 823d
00000270: bb9d ca3d 0504 803d 94f2 443d b942 9ebb
00000280: d1ab 1f3d f3fb 2fbc ce8b 853b 449c 283d
00000290: 1f2e c53c 104a 823c 5a69 61bd 49f7 69bd
000002a0: 40f6 dcbb 0829 7a3d 12de ae3d 9974 db3c
000002b0: a412 153a 0c15 b1bc b380 213d 84fe 183d
000002c0: 726b 8c3d 84f1 4bbc 9032 ea3d 0aaf f13b
000002d0: 8924 013c e7ad ccbc 69a0 e33d befa 903c
000002e0: bc2d a93d 9ce4 fc3d 7f7f 403d 03ef cb3d
000002f0: 99ad 123d 0761 c53d 0a1f 5c3d 13ba 383d
00000300: 3448 043d 9c21 013d f792 e53c 2c8a d13b
00000310: 3c75 a43d 6265 cd3d 628d 5ebc 5d85 343d
00000320: 37a5 8f3d 317a c0bc dbac acbc d713 e43c
00000330: c6d7 34bd 82c5 e93b 441f de3c d9d0 5f3c
00000340: 019e 01bd 2ec5 f93d 8935 8c3d 0585 d73c
00000350: 3ebf 873d 3322 6e3c 1923 3cbb 9e06 683d
00000360: 2128 a4bc 627f bb3c 9234 873c 0431 103c
00000370: a5f7 b73d 3afd 6bbb 9af6 e13c 5b1f 113d
00000380: 5f8a 793d 3324 b4bb 853c c9bd 4c8f c23d
00000390: 4251 9a3d 135a 2ebd 0011 6d3d 1cd3 153c
000003a0: 0bf2 a039 40e3 803d c115 5d3b 0687 8f3d
000003b0: 1c63 793d a050 86bd ba5a 263d 1e5a ffbc
000003c0: 70d2 df3c 073b b53c fc7f c13c 492f 5c3d
000003d0: aa45 643d 8b3d 8e3d 8385 7f3c dc2b 40bc
000003e0: 8003 633d 3196 4c3d 7820 a13d 0950 1d3d
000003f0: 40c2 b93d 622a 0ebc ecd8 23bd 903f cf3b

fc.bias f4 [128]
-0.12359532 -0.043464653 -0.020717816 -0.037710812 -0.050729796 0.007138214 -0.010039418 -0.12607558
0.022877075 -0.037959937 0.095843345 0.012577806 -0.024018655 -0.10383562 0.11693447 0.011371413
-0.1453766 -0.05512297 0.026509767 -0.1321361 0.089853 0.071767814 0.022216503 0.08330536
-0.06618935 0.029610269 -0.07809187 0.006080873 0.09570094 0.01942903 -0.0846819 0.002401689
-0.1125299 0.02813334 0.012531349 0.037829056 0.01841247 0.042546783 0.032719232 -0.11287332
0.0071275947 -0.025578028 -0.0049821287 0.017305927 -0.013007903 0.05593813 -0.049861718 -0.0126076145
-0.02881475 0.015030198 0.016996158 0.03414644 0.006881241 -0.037236 0.05638287 0.06475289
-0.059359826 -0.025645545 -0.009425572 0.07991509 0.037725803 0.20673311 -0.0106223365 0.0017251093
0.021710726 0.020946652 -0.03692437 0.052571926 -0.019025985 -0.033371747 0.001959013 0.050648045
0.07305755 -0.06903996 -0.044547286 0.025353631 0.012031593 0.02813009 -0.020824753 0.032794226
0.0070432094 0.19628863 -0.04571859 -0.010109788 0.025723655 -0.0057742484 0.051941775 0.11570107
-0.03011042 -0.15246448 -0.017273815 -0.00010435633 0.091187984 0.021538887 0.050228924 0.03691052
-0.02974779 0.009875821 0.018192807 0.021311406 0.043171287 0.070643365 0.026928794 -0.07301829
0.0658385 -0.055608064 0.011897613 0.008126538 -0.03461928 0.032025967 0.015231996 -0.041903622
0.011426529 -0.014706508 0.038784258 -0.016244503 0.0049683433 -0.05254977 0.119741105 -0.076732524
-0.055086676 0.027761744 0.047974337 0.014399935 -0.08034797 -0.10819756 -0.0020804945 0.03521192
00000000: 8b1f fdbd fe07 32bd 69b8 a9bc a776 1abd
00000010: 0cca 4fbd aee7 e93b 5f7c 24bc f519 01be
00000020: b468 bb3c e17b 1bbd 8449 c43d 2413 4e3c
00000030: c5c2 c4bc c5a7 d4bd 577b ef3d 2a4f 3a3c
00000040: 9add 14be a0c8 61bd 032b d93c b04e 07be
00000050: da04 b83d 01fb 923d 62ff b53c 009c aa3d
00000060: 488e 87bd 3c91 f23c a1ee 9fbd 0f42 c73b
00000070: dbfe c33d a129 9f3c b46d adbd a865 1d3b
00000080: 1476 e6bd e477 e63c 4a50 4d3c a4f2 1a3d
00000090: c0d5 963c 8945 2e3d 9a04 063d 212a e7bd
000000a0: 998e e93b 0389 d1bc 2041 a3bb 29c5 8d3c
000000b0: 191f 55bc 611f 653d cd3b 4cbd 2b90 4ebc
000000c0: e90c ecbc 3841 763c 873b 8b3c 23dd 0b3d
000000d0: 097c e13b c784 18bd b9f1 663d 2a9d 843d
000000e0: 4a23 73bd 9b16 d2bc b76d 1abc 86aa a33d
000000f0: 5f86 1a3d d8b1 533e 4f09 2ebc 101d e23a
00000100: b1da b13c 5098 ab3c 023e 17bd a955 573d
00000110: 62dc 9bbc d0b0 08bd c962 003b 5374 4f3d
00000120: 329f 953d d364 8dbd 3777 36bd 6bb2 cf3c
00000130: 2920 453c 1371 e63c ac98 aabc 3d53 063d
00000140: b9ca e63b e3ff 483e 6b43 3bbd 86a3 25bc
00000150: 6aba d23c e835 bdbb e6c0 543d aff4 ec3d
00000160: 21aa f6bc a61f 1cbe d181 8dbc e1d9 dab8
00000170: c4c0 ba3d 5272 b03c d8bc 4d3d 7c2f 173d
00000180: a3b1 f3bc 32ce 213c 1509 953c 4295 ae3c
00000190: 60d4 303d 78ad 903d c699 dc3c 9d8a 95bd
000001a0: 56d6 863d 48c5 63bd 35ee 423c 2c25 053c
000001b0: f2cc 0dbd a92d 033d 9f8f 793c 22a3 2bbd
000001c0: 5636 3b3c 91f3 70bc 3edc 1e3d 3113 85bc
000001d0: 7ccd a23b 6d3e 57bd d33a f53d f125 9dbd
000001e0: 91a2 61bd 996c e33c bd80 443d b4ed 6b3c
000001f0: 7a8d a4bd af96 ddbd e858 08bb 603a 103d

layers.0.weight f4 [128, 128]
0.11053674 0.1067795 0.072709985 0.063060835 -0.033203878 0.0152099375 0.024257211 -0.0004661676
-0.09921132 0.14777105 -0.015325643 -0.05290427 0.07246635 -0.057198763 -0.111392654 -0.11618961
0.14940092 0.08685196 0.14226456 0.091743104 -0.11087373 0.005160834 0.04895568 0.008125808
0.014550247 -0.012918425 -0.04482152 0.061220814 -0.03218174 -0.04600705 0.14117603 -0.06343357
0.17699146 -0.027605329 0.06235132 0.0062437197 -0.13173223 -0.16347006 0.043769334 0.14428563
0.00014624427 0.075560175 0.051248863 -0.0024486529 -0.010242244 -0.014325006 -0.060284972 -0.06725674
0.09205275 -0.028241795 -0.052122276 -0.1502895 -0.052899867 -0.010530601 -0.075433396 -0.041499205
-0.010661015 -0.09807406 -0.033389743 0.036153253 -0.04965276 -0.11463756 0.12004215 0.06394384
-0.115218006 -0.13149266 0.12608898 -0.00703479 -0.025352363 0.003705867 0.022155294 0.03637842
-0.06462336 0.07870751 0.044994794 -0.023466073 0.007366205 -0.02614265 0.13789858 -0.008960537
-0.060855236 -0.06971597 0.046572916 -0.046672117 -0.05071812 -0.072995074 -0.088632025 -0.075076446
-0.111829564 0.15429708 0.053268485 -0.06257015 -0.08399045 0.00067527447 0.017194368 -0.015862932
0.027931817 -0.10108232 -0.07414032 -0.056996364 0.061101478 -0.08481119 -0.00046819533 0.010210228
-0.00027154043 -0.07352341 -0.019786408 -0.057509784 -0.0895089 -0.15498364 -0.008208568 0.10484879
-0.012084504 -0.21362515 -0.078062214 -0.106083475 -0.0055429633 -0.10754317 -0.20630364 0.023826541
0.038547277 -0.03501077 -0.06738472 0.010293971 0.051290017 0.19287409 0.032823622 -0.053018913
0.09815316 -0.0019837457 0.015061876 0.033262216 -0.0015828826 0.0427803 -0.026363518 0.12450749
-0.07646144 0.088664085 -0.09384658 -0.07172994 0.045715623 0.10615907 -0.09784746 -0.099511586
0.19528039 0.045114797 -0.039876282 0.19541521 -0.07151927 -0.054578498 -0.01693836 0.022274395
0.059855502 0.056593534 -0.050360274 -0.07307811 -0.07637098 -0.10163649 0.06378084 0.038956296
0.123037934 0.06670101 -0.087614894 -0.06384221 0.0007511504 0.03800874 0.015185106 0.03731667
0.017108776 0.03319364 -0.041712712 -0.097737096 0.08908732 -0.045468718 0.017011909 -0.042811584
-0.1350007 -0.05971956 0.007825232 -0.07369778 -0.02314351 -0.083114855 -0.09071763 -0.084536925
0.035878647 0.107438534 -0.039669044 0.15919545 -0.025109578 -0.09122582 0.087762475 -0.03850296
0.09436139 0.03930029 -0.02777447 -0.046999086 0.0011367403 0.00039987385 -0.016851278 0.09584871
-0.04755035 -0.032861155 0.09492584 0.03447453 -0.016349517 0.0018365375 -0.01150815 -0.041043244
0.049507312 -0.123583086 0.034160547 0.07088 0.06828724 -0.08720504 -0.025229845 -0.021247162
-0.010175626 0.16596891 0.006128537 -0.045694552 0.011969736 -0.085091956 -0.026852326 0.097648755
0.0025903347 -0.09987693 -0.024316754 0.01903796 0.0127042495 -0.13685186 0.11036014 -0.05276722
0.029825231 -0.071520016 -0.045317903 -0.073370226 -0.07282197 0.07442579 -0.06780951 -0.008572207
-0.08995508 0.09258567 -0.075911716 0.033557765 -0.13727836 -0.09187652 -0.092119984 -0.032567643
-0.030499112 -0.06137767 -0.028792836 -0.007164257 0.038418964 0.12084864 -0.08745204 0.013288835
00000000: 1661 e23d 36af da3d f9e8 943d 0a26 813d
00000010: ca00 08bd 1a33 793c 0fb7 c63c f567 f4b9
00000020: 4e2f cbbd 4b51 173e 6818 7bbc 26b2 58bd
00000030: 3d69 943d 4049 6abd d521 e4bd d1f4 edbd
00000040: 8efc 183e 71df b13d cdad 113e cfe3 bb3d
00000050: c411 e3bd 371c a93b c085 483d 1c22 053c
00000060: 2964 6e3c cda7 53bc c596 37bd adc2 7a3d
00000070: 00d1 03bd e371 3cbd 7390 103e 76e9 81bd
00000080: 403d 353e 9224 e2bc 1964 7f3d 1e98 cc3b
00000090: d0e4 06be b264 27be 7947 333d 9dbf 133e
000000a0: 2659 1939 4bbf 9a3d 54ea 513d 9479 20bb
000000b0: 16cf 27bc 6eb3 6abc 60ed 76bd e7bd 89bd
000000c0: 2786 bc3d 565b e7bc 2b7e 55bd 7ee5 19be
000000d0: 88ad 58bd 8b88 2cbc d37c 9abd 12fb 29bd
000000e0: 8aab 2ebc 0edb c8bd afc3 08bd 6f15 143d
000000f0: b160 4bbd 19c7 eabd a9d8 f53d fdf4 823d
00000100: 6bf7 ebbd 03a6 06be 781d 013e 1884 e6bb
00000110: c2af cfbc 22de 723b 057f b53c 8a01 153d
00000120: 4159 84bd 6731 a13d 764c 383d ec3b c0bc
00000130: 3560 f13b 1c29 d6bc 4935 0d3e 37cf 12bc
00000140: 5743 79bd 3fc7 8ebd 3ec3 3e3d 432b 3fbd
00000150: cebd 4fbd 717e 95bd b584 b5bd aec1 99bd
00000160: e606 e5bd 0e00 1e3e 0e30 5a3d c724 80bd
00000170: 2f03 acbd e704 313a 34db 8c3c fbf2 81bc
00000180: 44d1 e43c 3f04 cfbd e1d6 97bd 0575 69bd
00000190: 8b45 7a3d 7db1 adbd 1d78 f5b9 cd48 273c
000001a0: 8a5d 8eb9 7193 96bd 1b17 a2bc 618f 6bbd
000001b0: 7150 b7bd 08b4 1ebe 3b7d 06bc f6ba d63d
000001c0: 15fe 45bc 8dc0 5abe 15df 9fbd 4b42 d9bd
000001d0: bfa1 b5bb 983f dcbd 4341 53be e12f c33c
000001e0: c0e3 1d3d 7467 0fbd 0001 8abd 0ba8 283c
000001f0: 7b15 523d c980 453e 1072 063d 5c2a 59bd
00000200: 8604 c93d bb01 02bb 16c6 763c f63d 083d
00000210: ba78 cfba 653a 2f3d 4ef8 d7bc c8fd fe3d
00000220: d197 9cbd 8495 b53d a332 c0bd 26e7 92bd
00000230: 4e40 3b3d ed69 d93d 4064 c8bd bbcc cbbd
00000240: 95f7 473e 4bca 383d 5055 23bd ed1a 483e
00000250: b278 92bd b48d 5fbd 51c2 8abc cb78 b63c
00000260: 0b2b 753d 9fce 673d 9346 4ebd faa9 95bd
00000270: 6368 9cbd cb26 d0bd 879f 823d a390 1f3d
00000280: 50fb fb3d 8a9a 883d 706f b3bd b4bf 82bd
00000290: dae8 443a 0daf 1b3d f3ca 783c 5dd9 183d
000002a0: b427 8c3c 0ef6 073d f3da 2abd 632a c8bd
000002b0: 6a73 b63d 683d 3abd 8f5c 8b3c 335b 2fbd
000002c0: a03d 0abe 7f9c 74bd 6735 003c ddee 96bd
000002d0: 7597 bdbc 1f38 aabd 2aca b9bd b221 adbd
000002e0: 7df5 123d bc08 dc3d 027c 22bd 2204 233e
000002f0: 9ab2 cdbc 9ad4 babd d0bc b33d 48b5 1dbd
00000300: 8b40 c13d 57f9 203d 4987 e3bc 1d82 40bd
00000310: adfe 943a 29a6 d139 b10b 8abc 544c c43d
00000320: 28c4 42bd 6b99 06bd 7b68 c23d 2a35 0d3d
00000330: 6cef 85bc f9b7 f03a ae8c 3cbc f61c 28bd
00000340: 2ec8 4a3d 2119 fdbd eeeb 0b3d 8929 913d
00000350: 2eda 8b3d 8e98 b2bd d2ae cebc 870e aebc
00000360: abb7 26bc c1f3 293e e5d1 c83b 362a 3bbd
00000370: b61c 443c b144 aebd 69f9 dbbc 12fc c73d
00000380: 9bc2 293b 478c ccbd ee33 c7bc 7ff5 9b3c
00000390: 7c25 503c e522 0cbe 7f04 e23d 7122 58bd
000003a0: 0b54 f43c 1679 92bd 449f 39bd 2143 96bd
000003b0: af23 95bd 8c6c 983d b6df 8abd 7172 0cbc
000003c0: 5e3a b8bd 8e9d bd3d 9a77 9bbd de73 093d
000003d0: b392 0cbe c229 bcbd 67a9 bcbd a665 05bd
000003e0: 46d9 f9bc 2767 7bbd f4de ebbc 25c2 eabb
000003f0: 345d 1d3d 7e7f f73d 0e1a b3bd 6ab9 593c

layers.0.bias f4 [128]
-0.07161812 0.03127282 -0.0068974276 0.036331777 -0.10063565 0.061012756 -0.079905145 -0.023205364
-0.08391133 0.03986865 -0.0041748947 -0.025110621 0.01655541 -0.10054272 -0.008830265 0.003491248
-0.013049577 -0.09888934 -0.038569834 0.05101745 -0.017659513 -0.028867707 -0.105362326 -0.0394425
0.02927442 0.012317495 0.016166614 0.052626487 -0.015010878 -0.044054657 -0.007632808 0.03758381
-0.04210619 -0.039127264 -0.056396056 0.0056787413 -0.053189117 0.023482723 0.060338844 0.044684887
-0.05016318 -0.06346006 0.07545975 -0.015886636 0.025163138 -0.0037440956 -0.01894977 0.034014866
-0.10387418 -0.009643103 -0.14484127 -0.07463549 -0.019602757 0.03157042 0.03600982 0.049800567
-0.017247424 -0.032161552 -0.025090076 -0.043259155 -0.113892466 0.012375609 -0.042841546 0.04158353
-0.012885126 0.06902209 -0.1109282 0.07255593 0.08028208 -0.002778057 -0.08137732 -0.021432979
-0.024787655 0.022097308 -0.11596877 0.043211386 -0.032673277 -0.14048733 -0.11742041 -0.069620125
0.016451329 -0.023392878 -0.06574182 -0.044169936 -0.044295225 0.0324163 -0.075936384 -0.09401235
-0.048169684 0.011803392 -0.04298749 0.029678958 0.042372916 0.066496834 0.03423052 0.022983197
0.0036748243 0.04560841 -0.0077417456 -0.036520448 -0.15733868 0.017925696 0.04709231 -0.19512567
-0.041573044 -0.106564805 0.00643077 0.035719328 -0.030315436 -0.086388744 0.060978156 -0.047255483
0.03516674 -0.08195644 -0.082949266 0.033966955 0.022593675 -0.063277796 -0.07951849 -0.066403314
0.09878983 -0.09318151 -0.04132395 -0.015629774 -0.008417024 -0.10639077 -0.007459406 -0.0016289401
00000000: 85ac 92bd ee17 003d d103 e2bb a1d0 143d
00000010: 101a cebd 83e8 793d 4fa5 a3bd 2d19 bebc
00000020: b4d9 abbd 4f4d 233d 8ecd 88bb cab4 cdbc
00000030: 369f 873c 57e9 cdbd d1ac 10bc 6ccd 643b
00000040: e5cd 55bc 7f86 cabd 67fb 1dbd acf7 503d
00000050: afaa 90bc f87b ecbc 34c8 d7bd 758e 21bd
00000060: e9d0 ef3c 52cf 493c d96f 843c df8e 573d
00000070: 30f0 75bc a872 34bd a21c fabb 7bf1 193d
00000080: 8a77 2cbd e943 20bd 8dff 66bd bc14 ba3b
00000090: d5dc 59bd d75e c03c dd25 773d 8007 373d
000000a0: e877 4dbd 59f7 81bd a48a 9a3d b124 82bc
000000b0: ed22 ce3c 805f 75bb 8c3c 9bbc 2c53 0b3d
000000c0: fcbb d4bd 1bfe 1dbc 4551 14be 7eda 98bd
000000d0: f695 a0bc fc4f 013d 087f 133d aefb 4b3d
000000e0: 784a 8dbc d5bb 03bd b489 cdbc 8330 31bd
000000f0: 7440 e9bd 11c3 4a3c 9e7a 2fbd 7e53 2a3d
00000100: 231c 53bc 745b 8d3d 532e e3bd 3498 943d
00000110: ee6a a43d 1010 36bb 27a9 a6bd 3794 afbc
00000120: 7b0f cbbc 6a05 b53c 0981 edbd 6cfe 303d
00000130: 6ad4 05bd e9db 0fbe 1d7a f0bd ff94 8ebd
00000140: f0c4 863c 6ca2 bfbc a6a3 86bd 89eb 34bd
00000150: e96e 35bd f4c6 043d 8984 9bbd 8c89 c0bd
00000160: 934d 45bd 0463 413c a613 30bd 4921 f33c
00000170: 398f 2d3d 7e2f 883d 4d35 0c3d 4247 bc3c
00000180: 52d5 703b e2cf 3a3d 78ae fdbb 7796 15bd
00000190: 641d 21be e9d8 923c dee3 403d 06cf 47be
000001a0: 7f48 2abd a63e dabd 35b9 d23b 6e4e 123d
000001b0: 1458 f8bc 95ec b0bd 3bc4 793d f78e 41bd
000001c0: 000b 103d c7d8 a7bd 4ee1 a9bd ef20 0b3d
000001d0: 5f16 b93c ca97 81bd 97da a2bd 76fe 87bd
000001e0: 5352 ca3d f3d5 bebd 4d43 29bd 030a 80bc
000001f0: 8fe7 09bc 67e3 d9bd 086e f4bb 2982 d5ba

layers.1.weight f4 [128, 128]
-0.006420406 0.1880243 0.038218573 0.054483116 0.07430291 -0.09488435 -0.15284558 0.11704741
0.08083918 0.11705599 -0.15206404 0.00045568432 0.05446857 -0.17722346 -0.13103786 0.09537723
0.02981151 -0.08098013 0.20693271 0.001009726 0.21347047 0.07080662 -0.027387382 0.095549576
-0.11930257 0.123750485 0.24173394 0.1195938 0.09023669 -0.062147774 -0.17120627 -0.031178743
-0.21931551 -0.022826275 0.021795359 -0.0854746 -0.034079988 0.10062726 0.15960641 -0.13136229
-0.13429582 0.25890318 -0.08140254 -0.10737897 -0.09485229 -0.10057877 -0.2224332 -0.10034443
0.09648792 -0.03649171 -0.12923682 -0.27068675 -0.024054138 -0.048259098 -0.034229334 0.18974264
-0.06927639 -0.1525148 -0.065510854 -0.0060968427 -0.13755023 0.033181492 0.10687755 0.0857929
0.06621145 -0.05418847 -0.11478815 -0.19347225 -0.01412257 -0.12561314 -0.19499245 -0.12786293
0.0048636263 -0.23130308 0.013223395 0.06920035 0.25554216 -0.14408588 -0.087025486 -0.060667057
0.11147155 -0.16175811 0.0010607945 0.00042386682 -0.21756835 -0.046581242 -0.20313776 0.113679536
-0.14909928 0.17292412 -0.14443259 -0.31365362 0.1045616 0.112073846 0.053954605 -0.08851202
-0.029139426 0.19762833 -0.3238253 -0.059270572 -0.21905024 -0.11750955 -0.013283671 0.070890665
-0.10528159 -0.105373986 -0.105189495 0.114237435 0.16522834 -0.40249217 0.019793633 0.09194926
0.028084379 0.07457576 0.07963475 -0.034118954 -0.1364313 -0.18473595 -0.032772217 -0.11249004
0.007906597 -0.092242144 0.036107663 0.033112954 -0.06299613 0.20517892 -0.10158952 -0.12155059
-0.037425812 -0.098629855 -0.05580711 -0.06976755 0.08447558 -0.10279958 0.035357 -0.06863251
-0.06305958 0.014314697 0.028991358 0.08590901 -0.22337167 -0.012070479 -0.04963174 0.014318103
0.028621713 -0.053065486 -0.16164726 0.030128041 -0.067891926 -0.056588646 -0.21501404 0.17180187
-0.097789966 0.32888195 -0.11930322 0.12348984 -0.08838515 -0.07052904 -0.17356677 -0.17559442
0.10616501 -0.01681685 -0.063347 0.09227301 -0.054870464 -0.08699029 -0.0012987371 -0.26931116
-0.12684926 -0.14569187 0.0011303367 0.05852573 -0.037085403 0.08142093 0.11957387 0.056086306
0.10776531 0.0630976 -0.034864962 0.07699059 0.14129819 0.17891155 0.285227 0.07594209
0.13270673 -0.076312855 0.06890909 -0.06551613 -0.12175384 0.04029587 -0.14389251 0.25481325
-0.008906428 0.031103613 0.076409124 0.17281978 -0.41315347 0.2214846 -0.0050978726 -0.08710915
-0.2043121 -0.003639279 -0.020677535 0.15039304 -0.19747715 0.045479782 -0.041022096 -0.0067329165
-0.06445251 -0.06273073 -0.039949387 -0.05599364 -0.09845824 -0.059928022 0.05413328 -0.10925234
-0.042864785 -0.16501376 0.11743587 0.015425595 -0.19652133 -0.033321228 0.037975077 -0.11321252
0.11133844 -0.11262478 0.007157078 0.106736235 -0.0011447484 -0.18985689 0.035594404 -0.10679718
-0.19537772 0.020520758 0.132276 -0.24218279 -0.06803031 0.0016083559 -0.1452198 -0.14986807
-0.046284195 -0.1208156 0.1204986 -0.020189127 -0.17417116 0.04384784 0.02026972 -0.20285659
0.14805563 -0.07332662 0.17055929 -0.14346522 -0.16556485 0.042127363 -0.032741863 0.024708431
00000000: 4562 d2bb 7189 403e 148b 1c3d b029 5f3d
00000010: 202c 983d ba52 c2bd 8d83 1cbe 8db6 ef3d
00000020: 038f a53d 0dbb ef3d adb6 1bbe eae8 ee39
00000030: 6f1a 5f3d 117a 35be ca2e 06be 2355 c33d
00000040: 4537 f43c e9d8 a5bd 2be6 533e c858 843a
00000050: 0198 5a3e 1003 913d 815b e0bc 7faf c33d
00000060: e854 f4bd e570 fd3d 1a89 773e 98ed f43d
00000070: 04ce b83d aa8e 7ebd b250 2fbe 906a ffbc
00000080: 3f94 60be 2bfe babc 2e8c b23c 4f0d afbd
00000090: 7597 0bbd aa15 ce3d dd6f 233e d683 06be
000000a0: d884 09be f58e 843e 60b6 a6bd 81e9 dbbd
000000b0: eb41 c2bd 3efc cdbd 87c5 63be 6181 cdbd
000000c0: 759b c53d 5578 15bd a856 04be 7497 8abe
000000d0: 2f0d c5bc 55ab 45bd 0f34 0cbd e54b 423e
000000e0: c8e0 8dbd d72c 1cbe 8e2a 86bd 06c8 c7bb
000000f0: f8d9 0cbe 51e9 073d 9ee2 da3d 30b4 af3d
00000100: de99 873d bbf4 5dbd 0d16 ebbd 971d 46be
00000110: 5a62 67bc bba0 00be 1aac 47be 80ee 02be
00000120: 0e5f 9f3b b7da 6cbe f0a6 583c eab8 8d3d
00000130: 6cd6 823e 408b 13be 6b3a b2bd 057e 78bd
00000140: 324b e43d eba3 25be 5b0a 8b3a 713a de39
00000150: 3dca 5ebe f9cb 3ebd 5803 50be d1d0 e83d
00000160: 7bad 18be 0513 313e 23e6 13be 3597 a0be
00000170: 6424 d63d f986 e53d 81ff 5c3d ca45 b5bd
00000180: ceb5 eebc 155f 4a3e 6ecc a5be b3c5 72bd
00000190: b54e 60be d9a8 f0bd c1a3 59bc 202f 913d
000001a0: e09d d7bd 51ce d7bd 976d d7bd 51f5 e93d
000001b0: 9e31 293e 7413 cebe 4226 a23c e54f bc3d
000001c0: 3611 e63c 2dbb 983d 8b17 a33d 51c0 0bbd
000001d0: a6b4 0bbe 6c2b 3dbe 293c 06bd 2e61 e6bd
000001e0: ac8a 013c 73e9 bcbd a1e5 133d 73a1 073d
000001f0: 1d04 81bd 6c1a 523e 2b0e d0bd 84ef f8bd
00000200: cf4b 19bd 73fe c9bd ff95 64bd 4ae2 8ebd
00000210: 8801 ad3d 9688 d2bd 80d2 103d 348f 8cbd
00000220: 6225 81bd 3188 6a3c 497f ed3c 10f1 af3d
00000230: 8bbb 64be 42c3 45bc a74a 4bbd 7a96 6a3c
00000240: 1578 ea3c 325b 59bd dc86 25be 15cf f63c
00000250: ec0a 8bbd 7fc9 67bd a42c 5cbe d4ec 2f3e
00000260: 1b46 c8bd 3763 a83e 3f55 f4bd 3ee8 fc3d
00000270: 4603 b5bd 8871 90bd 7dbb 31be 06cf 33be
00000280: 0a6d d93d 7ec3 89bc 12bc 81bd a2f9 bc3d
00000290: dabf 60bd f727 b2bd 633a aaba 27e3 89be
000002a0: c6e4 01be 4030 15be ce27 943a adb8 6f3d
000002b0: dde6 17bd 04c0 a63d 25e3 f43d c1ba 653d
000002c0: 0fb4 dc3d 5139 813d 90ce 0ebd 3ead 9d3d
000002d0: 79b0 103e 9734 373e 4609 923e 8787 9b3d
000002e0: 46e4 073e ea49 9cbd 3520 8d3d 522d 86bd
000002f0: 145a f9bd 480d 253d 8f58 13be e276 823e
00000300: 44ec 11bc 01cd fe3c 637c 9c3d abf7 303e
00000310: da88 d3be dccc 623e 0e0c a7bb 4866 b2bd
00000320: 3137 51be f880 6ebb ef63 a9bc a200 1a3e
00000330: 7337 4abe 0249 3a3d c906 28bd cc9f dcbb
00000340: adff 83bd f878 80bd f8a1 23bd 9659 65bd
00000350: 79a4 c9bd 1677 75bd dcba 5d3d b1bf dfbd
00000360: fc92 2fbd 5ef9 28be 3882 f03d a3bb 7c3c
00000370: e33c 49be d77b 08bd c18b 1b3d f7db e7bd
00000380: 6805 e43d d2a7 e6bd ec85 ea3b 8798 da3d
00000390: 620b 96ba d869 42be 70cb 113d 7bb8 dabd
000003a0: 1911 48be 261b a83c 5c73 073e c4fe 77be
000003b0: 7a53 8bbd 78cf d23a 80b4 14be 0477 19be
000003c0: 7f94 3dbd 2b6e f7bd f8c7 f63d ab63 a5bc
000003d0: ed59 32be cb99 333d af0c a63c a3b9 4fbe
000003e0: e59b 173e 442c 96bd 18a7 2e3e 8ce8 12be
000003f0: d589 29be be8d 2c3d 551c 06bd 5669 ca3c

layers.1.bias f4 [128]
0.07163873 0.10046228 0.18907492 0.09597399 0.22332421 0.10913636 0.11668705 0.16425976
0.08544944 0.09051063 0.06630977 0.00017275475 0.12307782 0.06256434 0.14873463 0.23378499
0.05616963 0.09462762 0.10091707 0.0345607 0.124406874 0.0629956 0.1447318 0.16173223
0.19711459 0.022143383 0.19929689 0.050000113 0.17838565 0.16302148 0.08490946 0.18577209
0.21674404 0.18115595 0.13442555 0.09575092 0.099677995 0.1728016 0.111240536 0.085539676
0.1816555 0.08486906 0.11098224 0.12566389 0.14319153 0.095428474 0.13835745 0.13533199
0.0049884333 0.1560861 0.09972173 0.064084455 0.055733904 0.029304171 0.09313771 0.23494951
0.19935612 0.07788372 0.06210284 0.20922136 0.10705688 0.10276112 0.11916628 0.02138411
0.17576607 0.12492087 0.15642072 0.16371423 0.20931762 0.14486742 0.06191193 0.05269831
0.10760085 0.08061418 0.1777919 0.20320632 0.03799633 0.07853997 0.06748395 0.10928987
0.046637356 0.20546772 0.17864104 0.10909593 0.08209983 0.066705965 0.027233833 0.2262319
0.09318122 -0.037161835 0.02927079 0.13353433 0.1907217 0.17125243 0.11104483 0.1349647
0.18482181 0.12898964 0.18358934 0.108208746 0.08260749 0.19115606 0.06320452 0.14470251
0.16602682 0.17038669 0.09658847 0.023874247 0.09686716 0.13735652 0.1274907 0.20698515
0.005634572 0.20981513 0.20532244 0.13714719 -0.0018641758 0.11768051 0.042487577 0.04845981
0.14077404 0.19553982 0.13354148 0.14386666 0.086250275 0.071378715 0.03628248 0.14976017
00000000: 54b7 923d 2bbf cd3d db9c 413e 038e c43d
00000010: 1aaf 643e e282 df3d 9ff9 ee3d b633 283e
00000020: 1e00 af3d a35d b93d 6bcd 873d 8025 3539
00000030: 3910 fc3d bc21 803d e44d 183e 5565 6f3e
00000040: 2012 663d 20cc c13d 9cad ce3d 858f 0d3d
00000050: 08c9 fe3d d603 813d 9334 143e 229d 253e
00000060: 68d8 493e 0a66 b53c 7c14 4c3e ebcc 4c3d
00000070: baaa 363e 1aef 263e 03e5 ad3d 0a3b 3e3e
00000080: 26f2 5d3e f280 393e daa6 093e 0f19 c43d
00000090: fa23 cc3d e7f2 303e 14d2 e33d 6d2f af3d
000000a0: e603 3a3e d4cf ad3d a84a e33d 09ae 003e
000000b0: cda0 123e 0170 c33d 93ad 0d3e 7894 0a3e
000000c0: 0376 a33b 09d5 1f3e e83a cc3d b63e 833d
000000d0: 3c49 643d 4d0f f03c fcbe be3d 9b96 703e
000000e0: 0324 4c3e 8081 9f3d 8c5f 7e3d 203e 563e
000000f0: a340 db3d 6c74 d23d 730d f43d bb2d af3c
00000100: 05fc 333e 83d6 ff3d c12c 203e b4a4 273e
00000110: 5c57 563e 2058 143e 5d97 7d3d 2fda 573d
00000120: d65d dc3d 0c19 a53d 140f 363e 5115 503e
00000130: 0aa2 1b3d 90d9 a03d 0635 8a3d 5ed3 df3d
00000140: d006 3f3d 2166 523e aded 363e b06d df3d
00000150: f523 a83d 239d 883d 7d19 df3c 56a9 673e
00000160: ccd5 be3d 0237 18bd 4cc9 ef3c 39bd 083e
00000170: 8d4c 433e cc5c 2f3e 796b e33d 3034 0a3e
00000180: ee41 3d3e dc15 043e d8fe 3b3e 8c9c dd3d
00000190: 1e2e a93d 6abe 433e 5f71 813d e52c 143e
000001a0: ef02 2a3e d979 2e3e 2dd0 c53d ed93 c33c
000001b0: 4a62 c63d 30a7 0c3e ec8c 023e eaf3 533e
000001c0: 37a2 b83b c7d9 563e 0c40 523e 5070 0c3e
000001d0: 5c57 f4ba 7b02 f13d 7407 2e3d cb7d 463d
000001e0: 1227 103e 973b 483e 19bf 083e c851 133e
000001f0: fca3 b03d 012f 923d f09c 143d bb5a 193e
