DDPG/savedModels/targetActor.pth.tar (torch, 677777 bytes, 18 tensors)

conv.0.weight f4 [32, 3, 5, 5]
0.017421426 0.11596606 0.13690943 0.06693325 0.14523257 0.13088414 0.05331919 -0.06543247
0.087509066 0.0066255964 0.101357274 -0.08818598 -0.08257606 -0.10880103 -0.06993213 -0.047534466
-0.114360884 -0.104297034 -0.045315947 -0.09224037 0.0433641 0.013702965 -0.13347176 -0.18889841
0.004234325 -0.061819635 -0.014747051 -0.08875016 0.057933986 -0.0005338036 0.004509582 0.024256082
0.004784198 0.06941184 -0.006739155 -0.0877736 -0.06970879 -0.014735024 0.059714712 0.02686235
0.041050892 -0.006041447 0.008453349 -0.07700053 0.054707136 -0.117403455 0.008882718 0.052724615
-0.020069249 0.07407749 -0.007552352 -0.10999977 0.041433457 -0.01706189 0.093492925 0.019345678
-0.100794874 0.060259253 0.07550544 -0.044741534 -0.08690766 0.041192226 0.014047087 0.052637227
0.03401896 -0.03043899 0.04331652 -0.02659584 0.0679854 0.009335814 0.033233568 0.041065894
-0.07617263 -0.07699819 -0.038089838 -0.024444591 -0.15532269 -0.18373048 -0.14214188 -0.037526276
-0.02805096 -0.14991094 -0.17435706 -0.15877652 0.06679284 -0.12753344 -0.09129522 -0.13721186
0.0024410288 -0.057479143 0.026053928 -0.040844005 0.0029362529 -0.047925036 0.12881032 -0.029841013
-0.06633326 -0.041563187 0.14145774 0.01879733 -0.032853436 0.063824855 -0.047093634 0.029497895
-0.058653373 -0.04890977 -0.12982553 0.012339192 -0.07968543 0.020502357 0.04386345 0.06862696
-0.098460846 -0.11108035 0.10277821 0.026370391 0.08247933 -0.025028633 -0.017746206 -0.026806576
-0.1354717 -0.12656961 0.00025840304 0.018448722 0.106659085 0.0038629202 0.106166884 0.091176465
0.13734303 0.000115926305 0.09091241 0.05160186 -0.06852531 -0.00078916026 -0.044697125 0.026244944
0.07713212 -0.05140323 0.14059679 -0.010419533 0.13714743 0.038361683 0.022644076 -0.069594614
0.12617707 -0.0025972642 0.060856894 0.091177635 0.08038217 0.069681905 -0.084218726 0.08146942
0.031473517 0.111927785 -0.06944403 -0.05954022 0.017152388 -0.11855144 0.0008627359 0.017528648
-0.12084625 0.03199879 -0.117404036 0.017763343 -0.060527436 -0.03778797 0.002391085 0.004984735
-0.0932564 0.009289596 -0.043700084 -0.12564076 0.034960434 0.017819224 0.10230151 0.0806424
0.06787939 -0.12042156 0.07042752 -0.07211137 -0.06957069 0.07827309 0.06288744 -0.05138545
-0.048349302 0.033604417 -0.07542692 0.021727106 0.029056707 0.047131117 0.0944038 -0.06562183
-0.02771931 -0.10087843 0.05649662 0.062723525 -0.072185874 0.043290295 0.0070383283 -0.03824246
0.030068137 0.053941038 -0.080769055 0.022447959 -0.064027384 0.09670606 -0.05693248 0.09045494
-0.06001706 -0.07360151 0.065457925 0.031384114 -0.08330228 -0.04239621 -0.01914917 0.101616055
0.030544981 -0.053389683 0.0768351 0.11174153 -0.07319917 -0.06789429 0.020456765 -0.08488183
-0.064593635 -0.08034437 0.06606887 -0.079167165 0.015865283 -0.06806566 -0.029095825 0.03756072
-0.036890164 -0.031421367 -0.07831779 -0.02334949 -0.037977964 0.10391831 -0.13210796 -0.036856636
-0.031615086 -0.0014410657 -0.024470817 -0.13005157 0.044389267 -0.04476553 0.021388097 0.06728333
0.078340136 0.082944654 0.05542372 0.007338218 -0.034666132 -0.03132078 -0.027862735 -0.09130431
00000000: 61b7 8e3c 9d7f ed3d fc31 0c3e 4d14 893d
00000010: d9b7 143e 7e06 063e 3965 5a3d 7501 86bd
00000020: f437 b33d 881b d93b 6794 cf3d da9a b4bd
00000030: a31d a9bd 13d3 debd 9438 8fbd 80b3 42bd
00000040: 0a36 eabd af99 d5bd 379d 39bd 85e8 bcbd
00000050: 8e9e 313d 6782 603c d2ac 08be 966e 41be
00000060: 18c0 8a3b 9636 7dbd 9d9d 71bc a5c2 b5bd
00000070: 304c 6d3d f4ee 0bba 1ec5 933b b1b4 c63c
00000080: c3c4 9c3b cb27 8e3d 21d4 dcbb a5c2 b3bd
00000090: 7bc3 8ebd 2c6b 71bc 6a97 743d 6e0e dc3c
000000a0: fb24 283d 55f7 c5bb ea7f 0a3c 74b2 9dbd
000000b0: 9714 603d 3971 f0bd d288 113c c4f5 573d
000000c0: 4468 a4bc f0b5 973d b879 f7bb 8f47 e1bd
000000d0: 21b6 293d 60c5 8bbc 3879 bf3d d47a 9e3c
000000e0: 8b6d cebd 68d2 763d 99a2 9a3d e642 37bd
000000f0: a5fc b1bd 2eb9 283d c125 663c 229a 573d
00000100: 7757 0b3d 305b f9bc aa6c 313d 85df d9bc
00000110: ee3b 8b3d 3ef5 183c ec1f 083d b634 283d
00000120: 6500 9cbd 3ab1 9dbd 1704 1cbd 0640 c8bc
00000130: e90c 1fbe d823 3cbe a48d 11be 27b5 19bd
00000140: 20cb e5bc 4182 19be a88a 32be 5096 22be
00000150: afca 883d 2098 02be fdf8 babd 4481 0cbe
00000160: abf9 1f3b 406f 6bbd 0c6f d53c 0b4c 27bd
00000170: 266e 403b 0b4d 44bd dae6 033e 2475 f4bc
00000180: bbd9 87bd 293e 2abd 4cda 103e dcfc 993c
00000190: 5391 06bd 9bb6 823d 41e5 40bd 92a5 f13c
000001a0: 853e 70bd 9c55 48bd fcf0 04be 532a 4a3c
000001b0: 1d32 a3bd 8ff4 a73c 29aa 333d 4b8c 8c3d
000001c0: d7a5 c9bd 187e e3bd 627d d23d b806 d83c
000001d0: ecea a83d d908 cdbc 7e60 91bc 7799 dbbc
000001e0: 18b9 0abe 779b 01be 457a 8739 c621 973c
000001f0: 1470 da3d 0c29 7d3b 066e d93d baba ba3d
00000200: a7a3 0c3e 761d f338 4930 ba3d 795c 533d
00000210: ff56 8cbd a6df 4eba 5514 37bd a3ff d63c
00000220: 72f7 9d3d 318c 52bd 9bf8 0f3e b0b6 2abc
00000230: 6070 0c3e 2421 1d3d 1280 b93c 9f87 8ebd
00000240: 9034 013e dd36 2abb 1445 793d 57bb ba3d
00000250: 689f a43d 63b5 8e3d de7a acbd 70d9 a63d
00000260: 60ea 003d 653a e53d ac38 8ebd 72e0 73bd
00000270: 2a83 8c3c 19cb f2bd 3a29 623a 3d98 8f3c
00000280: 3d7e f7bd 2a11 033d 8771 f0bd 6e84 913c
00000290: 9eeb 77bd 8fc7 1abd c0b3 1c3b fd56 a33b
000002a0: 36fd bebd 6433 183c dcfe 32bd f9a7 00be
000002b0: ac32 0f3d 9ff9 913c 7483 d13d d827 a53d
000002c0: 5a04 8b3d 949f f6bd 4e3c 903d 20af 93bd
000002d0: 147b 8ebd a44d a03d 21cb 803d 8d79 52bd
000002e0: eb09 46bd c9a4 093d 6e79 9abd 0bfd b13c
000002f0: 5508 ee3c 8f0c 413d c856 c13d bd64 86bd
00000300: 9b13 e3bc 5a99 cebd 0069 673d 3175 803d
00000310: 30d6 93bd 2a51 313d c7a1 e63b 20a4 1cbd
00000320: 7451 f63c 47f1 5c3d 3f6a a5bd c8e4 b73c
00000330: ca20 83bd d40d c63d 0832 69bd 7140 b93d
00000340: 73d4 75bd 63bc 96bd ce0e 863d a18c 003d
00000350: 639a aabd a6a7 2dbd b8de 9cbc 141c d03d
00000360: 7839 fa3c 24af 5abd b95b 9d3d bed8 e43d
00000370: 72e9 95bd 290c 8bbd f294 a73c 86d6 adbd
00000380: ab49 84bd 978b a4bd 1e4f 873d 6522 a2bd
00000390: e9f7 813c 0266 8bbd 5e5a eebc 45d9 193d
000003a0: 241a 17bd b1b3 00bd 1465 a0bd 6e47 bfbc
000003b0: c88e 1bbd 1fd3 d43d 4f47 07be fcf6 16bd
000003c0: d27e 01bd 24e2 bcba 0677 c8bc 3d2c 05be
000003d0: 85d1 353d 0f5c 37bd 1736 af3c d8cb 893d
000003e0: cb70 a03d e3de a93d fc03 633d 6f75 f03b
000003f0: 13fe 0dbd 384a 00bd 6440 e4bc c1fd babd

conv.0.bias f4 [32]
0.09956187 0.01719905 0.060192153 -0.06577085 0.031581555 -0.019050712 0.0061620725 -0.1503025
-0.06546992 -0.011076915 0.030191634 0.069399215 -0.04165487 0.015536057 -0.10335206 -0.030214405
0.060209006 0.11801336 0.13910952 -0.106362134 0.006207904 -0.038071264 0.061548177 -0.009446993
0.007494014 -0.13198094 -0.039060988 -0.011347084 -0.06810291 -0.073318385 -0.07042007 0.0792859
00000000: 18e7 cb3d 06e5 8c3c 0c8c 763d deb2 86bd
00000010: a95b 013d 3d10 9cbc 36eb c93b e6e8 19be
00000020: 1815 86bd f37b 35bc 7254 f73c 2d21 8e3d
00000030: 4c9e 2abd f28a 7e3c 3faa d3bd 3384 f7bc
00000040: b89d 763d fdb0 f13d ba72 0e3e 64d4 d9bd
00000050: ac6b cb3b 9df0 1bbd f119 7c3d 8fc7 1abc
00000060: 5990 f53b 0326 07be 6afe 1fbd 1fe9 39bc
00000070: 8a79 8bbd f327 96bd 6638 90bd a560 a23d

conv.2.weight f4 [32, 32, 4, 4]
-0.027303115 0.04246019 -0.014289428 0.014302341 0.02200413 0.013047026 -0.061581083 -0.026298266
-0.016642215 -0.014399266 0.06980869 0.028197758 0.037120946 0.044284098 -0.029416418 0.0005550702
0.033293013 -0.08853443 0.00093425735 -0.009548938 0.007824135 0.061969094 0.12424955 0.05382338
0.08992705 0.076211646 0.08037472 0.09570504 0.05229035 0.07487282 0.071255624 0.06250447
-0.0001355019 -0.05757324 -0.021213006 -0.00021834702 -0.0017552747 -0.059182588 -0.001054096 -0.028449478
0.043629296 -0.033883817 0.008396447 0.028712112 0.08561945 0.015719995 -0.013838235 -0.01723062
-0.041900743 -0.021987878 -0.04260111 -0.07446579 0.057793036 0.0303494 -0.039691616 0.035847064
-0.04342441 0.036752325 0.03123044 -0.004484143 -0.042042308 0.03675978 0.001606261 -0.011650531
-0.04591293 0.0032141518 0.01439424 -0.0889052 -0.036752325 0.028613392 0.039896507 0.020441864
-0.0036763267 -0.015529538 -0.048073627 -0.03157038 -0.0020318227 0.070598885 -0.02480982 -0.030353123
0.019478211 0.030763285 0.025947588 0.023691602 0.0040143183 -0.03556948 -0.008033855 -0.035540793
0.043505054 0.052869756 0.10544433 0.05779729 0.007760598 0.05150128 -0.014535284 -0.0030544586
-0.057782117 0.021114558 -0.116819404 -0.07973621 -0.027547205 0.008863117 -0.0062259217 -0.06310837
-0.05713048 0.0008146411 -0.041224316 -0.09576517 -0.07570789 0.0973634 -0.020936871 -0.07549086
0.059558846 0.07936089 0.059860595 0.067052364 0.028170075 -0.012602354 0.001473313 0.07597828
0.017372185 -0.020235104 0.06647866 0.074786164 0.016256446 -0.042753845 0.11339557 0.064705394
-0.0582012 -0.06412432 -0.12016435 -0.036682524 -0.032684173 -0.1115901 -0.03918784 0.008670839
-0.025536235 -0.0013235146 -0.030318262 0.12710933 -0.12526244 -0.114092276 0.033758014 0.08472164
-0.028275408 -0.09415788 0.0112345535 0.025368871 -0.0180889 -0.09002732 0.043404322 -0.02247294
-0.028829504 0.014221061 -0.036450062 -0.034284156 -0.14631839 -0.026180819 -0.0048341807 0.06786007
-0.015441216 -0.025261382 0.08233636 0.09177833 -0.0686154 0.08474495 -0.07805566 -0.0077675837
0.029810235 0.00888301 0.06864557 0.05554924 0.060836967 0.041360818 0.021100571 0.15956682
-0.08432403 -0.04743585 0.008677729 0.0019485475 -0.07832356 -0.021817729 -0.062487777 -0.046910763
-0.06874545 -0.0088565545 0.02130872 0.03618561 0.058205415 -0.032547757 -0.057373036 -0.022554476
-0.052748926 0.037203092 -0.045912933 0.0017633074 -0.06651591 -0.08561944 -0.08316072 -0.058553003
-0.09863578 0.010049565 0.079308726 -0.03576511 -0.080769055 0.010385777 -0.03281837 -0.03933771
0.0074723302 0.012822148 -0.05219758 0.0013302368 -0.026363287 0.02094292 0.010587878 -0.0077931746
0.012588385 0.037191916 0.0010096249 0.00245558 0.044676118 0.04686289 0.06463089 0.017890006
0.0070210984 -0.022759022 -0.029285816 0.030395966 0.033265408 0.06265646 0.04941475 0.014289931
0.021505447 -0.010247008 -0.010993938 0.027376581 -0.009197394 -0.04176663 0.017655311 0.0065596225
0.0044041593 -0.016247455 0.019309936 0.07624312 -0.0393411 -0.007872336 0.0049509974 0.09709417
0.054236 0.009321739 0.06129684 0.026886908 0.047577713 0.061643086 0.07055511 -0.013425233
00000000: c8aa dfbc bcea 2d3d 341e 6abc 5e54 6a3c
00000010: 0142 b43c 31c3 553c 723c 7cbd 766f d7bc
00000020: 4155 88bc e6ea 6bbc dcf7 8e3d fcfe e63c
00000030: 220c 183d 3e63 353d b3fa f0bc 2182 113a
00000040: 415e 083d 8a51 b5bd f3e8 743a 2673 1cbc
00000050: cd30 003c 4ed3 7d3d 8c76 fe3d e875 5c3d
00000060: ac2b b83d da14 9c3d 809b a43d 0101 c43d
00000070: 682e 563d ec56 993d 78ee 913d 5802 803d
00000080: 8415 0eb9 ebd1 6bbd e6c6 adbc 15f4 64b9
00000090: 3f11 e6ba 7169 72bd 9829 8aba e10e e9bc
000000a0: a2b4 323d c2c9 0abd 4091 093c aa35 eb3c
000000b0: 4059 af3d 38c7 803c c4b9 62bc 3b27 8dbc
000000c0: 1da0 2bbd ec1f b4bc 807e 2ebd 8581 98bd
000000d0: 64b8 6c3d 4e9f f83c ad93 22bd 5fd4 123d
000000e0: cbdd 31bd 9b89 163d fbd6 ff3c b8ef 92bb
000000f0: 8e34 2cbd 6c91 163d 2d89 d23a dee1 3ebc
00000100: 320f 3cbd 85a4 523b d2d5 6b3c ee13 b6bd
00000110: 9b89 16bd a266 ea3c 856a 233d b275 a73c
00000120: 87ee 70bb 9a6f 7ebc dae8 44bd f14f 01bd
00000130: 5428 05bb 2696 903d f73d cbbc 1da7 f8bc
00000140: c590 9f3c 4903 fc3c 0990 d43c e414 c23c
00000150: 8b8a 833b 4eb1 11bd 6ea0 03bc 3993 11bd
00000160: 5b32 323d f58d 583d 32f3 d73d dabc 6c3d
00000170: 9d4c fe3b 02f3 523d 6625 6ebc 502d 48bb
00000180: f1ac 6cbd 70f8 ac3c 033f efbd bd4c a3bd
00000190: adaa e1bc 9b36 113c d102 ccbb f63e 81bd
000001a0: a601 6abd a48d 553a d4da 28bd 8820 c4bd
000001b0: bd0c 9bbd 7666 c73d cd83 abbc f49a 9abd
000001c0: faf3 733d f687 a23d 6230 753d c052 893d
000001d0: eec4 e63c 1b7a 4ebc 2e1c c13a 809a 9b3d
000001e0: 1d50 8e3c 17c4 a5bc f725 883d 7d29 993d
000001f0: 3d2c 853c a81e 2fbd f03b e83d 4384 843d
00000200: 6264 6ebd 9d53 83bd ba18 f6bd 6a40 16bd
00000210: d7df 05bd 5a89 e4bd 6e83 20bd 2210 0e3c
00000220: 5e31 d1bc c879 adba 015e f8bc f328 023e
00000230: cc44 00be 36a9 e9bd d845 0a3d 8a82 ad3d
00000240: d4a1 e7bc d9d5 c0bd 2211 383c 61d2 cf3c
00000250: 2c2f 94bc 3e60 b8bd bbc8 313d 2c19 b8bc
00000260: da2b ecbc 74ff 683c a94c 15bd 8b6d 0cbd
00000270: 7dd4 15be 2879 d6bc 0c68 9ebb 38fa 8a3d
00000280: 27fd 7cbc f5f0 cebc f79f a83d 47f6 bb3d
00000290: 3b86 8cbd c38e ad3d a5db 9fbd 3787 febb
000002a0: 9834 f43c 0b8a 113c 0c96 8c3d 9a87 633d
000002b0: 2f30 793d f669 293d 1bdb ac3c 7c65 233e
000002c0: 14b2 acbd 184c 42bd 092d 0e3c 6866 ff3a
000002d0: 1a68 a0bd 18bb b2bc 2ff3 7fbd 8025 40bd
000002e0: 6aca 8cbd 151b 11bc a08f ae3c 5d37 143d
000002f0: cd68 6e3d cc50 05bd fdff 6abd 2ac4 b8bc
00000300: 420f 58bd 4562 183d 330f 3cbd c71e e73a
00000310: 7e39 88bd 3f59 afbd 2b50 aabd 46d5 6fbd
00000320: 8e01 cabd eea6 243c 9d6c a23d 707e 12bd
00000330: 3f6a a5bd 1b29 2a3c 8e6c 06bd 9420 21bd
00000340: 73da f43b fd13 523c 21cd 55bd 575b ae3a
00000350: d2f7 d7bc 7d90 ab3c c778 2d3c e35d ffbb
00000360: 833f 4e3c 8d56 183d 6455 843a cced 203b
00000370: 4efe 363d 4df3 3f3d 335d 843d 108e 923c
00000380: 3e11 e63b 2171 babc cfe8 efbc f600 f93c
00000390: 4f41 083d 0852 803d 1f67 4a3d 5120 6a3c
000003a0: 312c b03c 11e3 27bc eb1f 34bc da44 e03c
000003b0: abb0 16bc 7c13 2bbd dfa1 903c 1af2 d63b
000003c0: c450 903b 6219 85bc df2f 9e3c 5a25 9c3d
000003d0: 2224 21bd f8fa 00bc fa3b a23b 4fd9 c63d
000003e0: 9126 5e3d 35ba 183c 6512 7b3d ef41 dc3c
000003f0: d9e0 423d 767d 7c3d 337f 903d 82f5 5bbc

conv.2.bias f4 [32]
-0.04224963 -0.028293671 -0.044078603 -0.018942235 -0.033861313 -0.06330885 -0.057275593 -0.046682175
-0.053801496 -0.0479122 -0.05749498 -0.02450493 -0.051098056 -0.054128103 -0.034679506 -0.057571962
-0.012753801 -0.03143361 -0.019098373 -0.03741243 -0.06095041 -0.03529863 -0.027087634 -0.056191485
-0.038826164 -0.026789984 -0.06743809 -0.047272682 -0.048417304 -0.079964034 -0.039395433 -0.027650572
00000000: f30d 2dbd 21c8 e7bc c48b 34bd bf2c 9bbc
00000010: 29b2 0abd 12a8 81bd d099 6abd cf35 3fbd
00000020: f55e 5cbd 953f 44bd db7f 6bbd 90be c8bc
00000030: 324c 51bd 6eb5 5dbd 190c 0ebd 94d0 6bbd
00000040: 52f5 50bc 87c0 00bd 3174 9cbc c73d 19bd
00000050: 23a7 79bd 4c95 10bd e3e6 ddbc 0b29 66bd
00000060: 2f08 1fbd ab76 dbbc fb1c 8abd 00a1 41bd
00000070: 3951 46bd 2fc4 a3bd 1b5d 21bd 7483 e2bc

conv.4.weight f4 [32, 32, 3, 3]
0.036937796 -0.05312686 -0.034830246 -0.012724411 0.011784592 -0.08714776 0.07821569 0.038580477
-0.12772578 -0.04084688 0.0106032 0.02015905 0.016664112 0.07687706 -0.09811558 0.087491535
0.019073663 -0.029741673 0.11045771 0.12297186 -0.06679742 -0.09047567 0.114985555 0.023478778
-0.059382286 0.048276227 -0.032107733 0.120398626 -0.13803267 -0.06386025 0.025676789 0.0062886965
-0.0034260456 -0.0032405006 0.049376234 0.063172676 -0.12390852 0.003927415 0.11948458 0.022084199
0.029335884 -0.06868989 0.041782323 -0.08803129 -0.12588555 0.022508541 0.02276702 -0.06313412
0.08706577 0.051324554 0.06951486 0.05669455 0.06534195 -0.04628685 -0.15998657 -0.05571088
0.03401432 0.012849949 0.018823402 0.0023193422 0.082817115 -0.05843271 -0.062292002 0.08431627
-0.0024059636 0.070229605 -0.025128298 -0.0993207 -0.08940985 0.050949298 0.13854767 -0.021280104
-0.04893488 0.08868186 0.113860644 -0.020315468 -0.008193797 -0.043796964 0.10148812 -0.03823531
0.016895158 0.053386897 -0.03001273 0.11198454 0.09909345 0.02319813 0.060566876 -0.04067467
0.13284364 0.011438991 -0.020955745 -0.04950818 0.031267695 0.016485468 0.019299323 -0.039628286
-0.021810053 -0.029788053 -0.031247206 -0.02651367 0.0061851623 0.042071003 0.0026720215 -0.039895054
-0.083094634 0.15658247 -0.023460837 0.07578781 -0.019685403 -0.07488263 0.03105133 -0.012819717
0.054258488 0.09428159 0.08110557 0.041499157 -0.020559726 -0.072154604 0.05394062 0.005983098
-0.0070764394 -0.029698757 0.09847366 0.079896785 0.01184557 -0.010844074 -0.02901927 0.056692425
0.007444839 -0.022264779 -0.018564168 -0.073851794 0.13973331 -0.0022369165 0.19548927 0.021531707
0.01863329 0.10089167 0.027995963 0.09685399 0.14477158 -0.05884134 0.10692034 0.0012061354
-0.027077045 -0.090556584 0.06763687 0.030231895 0.114878066 0.1178776 0.0865939 0.08763304
0.039045725 -0.015906861 0.058801163 0.025611978 -0.007868313 0.039606962 0.077785134 0.029592164
0.0011418067 0.02956145 0.008502496 0.12174541 0.050218794 0.07261118 0.03196525 0.13210353
0.048985433 -0.0728203 0.13660564 0.1142095 -0.024401963 0.08652754 0.046981696 -0.07737202
0.05442165 -0.024828287 0.047621995 0.043707885 0.1140212 -0.07862835 0.1042968 0.02255795
0.14902833 0.049971573 0.06453813 0.07485854 -0.03875298 -0.06412469 -0.010556127 -0.13478671
-0.010656057 -0.008124635 -0.012958696 -0.025221104 0.007606156 0.012672213 0.036552064 -0.070253946
0.035468288 -0.057952255 0.02290974 -0.028684715 -0.048341498 0.041379523 -0.013735541 0.014424881
0.100566134 0.072705 0.037971508 -0.0022035735 -0.09490447 0.054293364 0.065939635 0.15379275
-0.064035326 -0.029787833 -0.0014327184 -0.020029975 0.06746313 0.05082524 -0.0361441 -0.015140559
-0.040785637 -0.0066978084 -0.040272284 0.04050735 0.025350649 0.08236189 -0.04397693 -0.034756675
-0.0016580942 0.04112143 -0.09823999 -0.1112656 0.057491966 -0.044345893 0.06099723 0.1227621
0.058723707 0.1856705 0.11091087 -0.060885068 -0.0014656296 0.037173286 -0.057256587 -0.020846063
0.045935284 0.005103015 0.0020234408 0.029984318 -0.08630847 0.009080013 -0.0024883954 -0.0133836875
00000000: 164c 173d 8d9b 59bd 29aa 0ebd 0c7a 50bc
00000010: 2914 413c 867a b2bd 8c2f a03d 9006 1e3d
00000020: 8cca 02be 0f4f 27bd 0bb9 2d3c 9824 a53c
00000030: 2d83 883c b871 9d3d d2f0 c8bd c32e b33d
00000040: 5f40 9c3c cfa4 f3bc a737 e23d acd8 fb3d
00000050: 16cd 88bd 4f4b b9bd 8c7d eb3d 9156 c03c
00000060: d73a 73bd 4bbd 453d 6683 03bd 8e93 f63d
00000070: 7058 0dbe 2ac9 82bd 2158 d23c 6911 ce3b
00000080: 8287 60bb 945e 54bb bc3e 4a3d ad60 813d
00000090: c0c3 fdbd 8bb1 803b 55b4 f43d ece9 b43c
000000a0: cf51 f03c 49ad 8cbd f123 2b3d c049 b4bd
000000b0: 24e8 00be d563 b83c e781 ba3c 764c 81bd
000000c0: 8a4f b23d b239 523d cf5d 8e3d 8b38 683d
000000d0: 00d2 853d 4897 3dbd 85d3 23be 1731 64bd
000000e0: 9952 0b3d 9888 523c 8933 9a3c 1b00 183b
000000f0: 059c a93d 2357 6fbd e625 7fbd 02ae ac3d
00000100: 5fad 1dbb 8ad4 8f3d dcd9 cdbc a768 cbbd
00000110: 831c b7bd 36b0 503d 71df 0d3e 9d53 aebc
00000120: f16f 48bd d69e b53d c52f e93d a06c a6bc
00000130: 473f 06bc 7264 33bd 01d9 cf3d a19c 1cbd
00000140: b767 8a3c 38ac 5a3d 42dd f5bc 2758 e53d
00000150: 82f1 ca3d 010a be3c f914 783d 7c9a 26bd
00000160: 2a08 083e 9b6a 3b3c 62ab abbc 17c9 4abd
00000170: 8e12 003d 880c 873c 9d19 9e3c 4551 22bd
00000180: ffaa b2bc 1306 f4bc 24fa ffbc 3233 d9bc
00000190: e7ac ca3b a552 2c3d 151d 2f3b ff68 23bd
000001a0: 852d aabd 2857 203e f130 c0bc a436 9b3d
000001b0: 4843 a1bc 105c 99bd 5c5f fe3c ca09 52bc
000001c0: 263e 5e3d b516 c13d ad1a a63d 05fb 293d
000001d0: df6c a8bc cbc5 93bd d7f0 5c3d dd0d c43b
000001e0: 7ae1 e7bb cf4a f3bc 8fac c93d eda0 a33d
000001f0: ec13 423c 58ab 31bc d2b9 edbc 5136 683d
00000200: d6f3 f33b a064 b6bc e213 98bc 9c3f 97bd
00000210: 4016 0f3e 3b99 12bb 572e 483e 4363 b03c
00000220: d7a4 983c 4ba0 ce3d ca57 e53c 625b c63d
00000230: 003f 143e 9e03 71bd 0df9 da3d 3017 9e3a
00000240: aed0 ddbc bb75 b9bd 3385 8a3d e1a8 f73c
00000250: 3145 eb3d d069 f13d 2558 b13d f478 b33d
00000260: 69ee 1f3d 1b4f 82bc 7dd9 703d 36d0 d13c
00000270: 19ea 00bc e93a 223d d04d 9f3d 446b f23c
00000280: ada8 953a db2a f23c 0e4e 0b3c a855 f93d
00000290: 39b2 4d3d 2cb5 943d feed 023d 2646 073e
000002a0: f3a4 483d cf22 95bd 59e2 0b3e ace6 e93d
000002b0: a0e6 c7bc 5a35 b13d e16f 403d 3975 9ebd
000002c0: 3ce9 5e3d b164 cbbc 480f 433d 0a07 333d
000002d0: f283 e93d e607 a1bd 9099 d53d 73cb b83c
000002e0: e29a 183e feae 4c3d 912c 843d 6f4f 993d
000002f0: 72bb 1ebd ce53 83bd 9bf3 2cbc 8705 0abe
00000300: be96 2ebc 301d 05bc b650 54bc 7d9c cebc
00000310: 103d f93b 1d9f 4f3c 9eb7 153d 4de1 8fbd
00000320: 3247 113d 585f 6dbd 35ad bb3c 35fc eabc
00000330: bc01 46bd 937d 293d 090b 61bc 5656 6c3c
00000340: 9ef5 cd3d 5ce6 943d 0388 1b3d d469 10bb
00000350: 465d c2bd b862 5e3d 5c0b 873d d97b 1d3e
00000360: f424 83bd 9d05 f4bc 0dca bbba e715 a4bc
00000370: 1c2a 8a3d 202e 503d d60b 14bd 1b10 78bc
00000380: d70e 27bd 4a79 dbbb 8df4 24bd 09eb 253d
00000390: 2aac cf3c 5aad a83d 2721 34bd 045d 0ebd
000003a0: 6954 d9ba f26e 283d 0c32 c9bd 38df e3bd
000003b0: b27c 6b3d 0aa4 35bd 3bd8 793d b26a fb3d
000003c0: 4588 703d 6820 3e3e 3d25 e33d 9f62 79bd
000003d0: 5e1a c0ba 0443 183d e285 6abd 5dc5 aabc
000003e0: a326 3c3d 3137 a73b b49b 043b aca1 f53c
000003f0: 7fc2 b0bd 56c4 143c 5914 23bb 4147 5bbc

conv.4.bias f4 [32]
-0.054777898 0.017726745 -0.01539955 -0.04474183 -0.017128332 0.040829252 6.4290653e-06 -0.017349638
-0.024209639 -0.021127993 -0.0023170603 0.07054021 -0.03344418 -0.043668218 -0.041891206 -0.016378324
-0.0031640609 0.016656978 -0.014797386 0.033542655 0.0127077745 -0.012688258 0.028282398 -0.031777613
0.052893247 -0.031170223 -0.02319774 -0.07150521 0.09428936 -0.023498524 0.060351208 0.027546978
00000000: ca5e 60bd ae37 913c 654e 7cbc 3643 37bd
00000010: b750 8cbc 933c 273d 40b9 d736 d420 8ebc
00000020: 4b53 c6bc 9d14 adbc d2d9 17bb 6377 903d
00000030: c4fc 08bd 72dd 32bd 1d96 2bbd d62b 86bc
00000040: 225c 4fbb 3774 883c bc70 72bc 0664 093d
00000050: 4534 503c 69e2 4fbc 7db0 e73c 3e29 02bd
00000060: 97a6 583d b258 ffbc 3009 bebc 5371 92bd
00000070: c81a c13d fa7f c0bc d432 773d 33aa e13c

fc.weight f4 [128, 821]
0.10445489 0.029433148 -0.12025951 0.03844874 -0.09976667 0.13523641 0.017509969 -0.07274943
0.08201616 -0.046657052 -0.07043845 0.0027664339 0.08436047 0.08471539 0.04660014 -0.03048953
-0.044704802 0.063250266 0.018643012 -0.098775916 -0.024956133 -0.022401048 0.10664545 -0.04497596
-0.084752925 0.017609132 -0.010504601 -0.009613328 0.12208644 0.06854421 -0.070543475 -0.019336984
-0.021553675 0.039974518 0.17913175 -0.020182455 -0.066126324 0.04880765 -0.1356074 0.07280666
0.0647018 0.04549295 -0.04343797 -0.091432445 -0.015782002 -0.0027924727 -0.10361658 0.032676358
0.12595223 0.08147389 -0.0043376703 0.06424681 -0.06658323 -0.03151005 -0.13496779 -0.1540389
0.0037604577 0.049792174 -0.020694092 -0.040486258 0.06057807 -0.011803777 -0.054084867 -0.026319103
-0.045383506 0.065631256 -0.0687156 -0.07715539 0.0076873987 0.039188333 -0.06015717 0.071789145
0.091108315 0.008534164 0.036308214 0.04171578 0.061068054 -0.0349951 -0.03723994 -0.04444465
0.10392131 0.08677945 -0.006115901 -0.026884926 0.069809586 -0.0729009 0.023629876 0.076393604
0.072747424 0.10228126 0.0221074 -0.106883146 0.036155317 0.0095448075 -0.11975653 0.07058584
0.09132505 0.08557177 -0.08993715 -0.014941849 -0.019671261 0.013476478 -0.03659768 0.14747538
-0.08205535 0.02295293 -0.08139998 0.02294972 0.019981612 -0.041526053 0.118367985 0.07325783
-0.06929467 0.0023399256 0.025290359 -0.09171712 0.047187638 -0.16360164 -0.11248156 0.006477463
0.0320895 0.020101586 0.019342279 0.03483814 0.029700385 -0.082460925 -0.00062360294 0.015101722
-0.12046727 -0.023036828 -0.13357717 -0.03753052 0.016021797 -0.07696912 -0.012120995 0.058167033
-0.005565963 0.05123587 -0.00046099414 -0.134904 0.10362797 -0.09170842 -0.06855581 0.051775556
-0.092416994 -0.07027171 0.14900683 0.08428292 -0.065761074 0.15005782 0.055429813 0.07753786
0.09495719 -0.07967398 0.04266213 0.005456422 -0.06468908 0.05212892 -0.14223462 0.07511176
0.17038116 -0.1670665 -0.012175734 -0.06573919 0.02271193 -0.023764541 0.08553279 -0.016874969
0.079539 0.02424007 -0.07501977 -0.08166333 0.08147544 -0.09045255 -0.03576735 -0.13814697
-0.038335726 0.1324194 0.06663654 -0.03150257 0.09464122 0.049080182 -0.10391051 -0.091450654
-0.054864496 0.03265945 0.102381945 0.013222185 -0.10740004 0.0836426 -0.11701295 -0.16693726
-0.02494866 -0.064869866 0.091481045 -0.052148256 0.13691483 0.068798654 0.07366852 0.005662905
0.017410656 0.108403094 -0.078435436 0.14045341 -0.022960685 0.0870049 0.009523367 -0.19474769
0.027411446 -0.1733161 0.034049347 0.070092365 0.08992982 0.11696116 0.070227824 -0.00028312978
-0.029213656 -0.06535036 -0.03473176 -0.016576272 -0.030082457 -0.03089664 0.07622282 0.028603546
-0.021351824 0.054964364 0.028361928 0.04086116 -0.12762842 -0.10314512 0.03750662 0.010351203
-0.019622767 0.06585247 -0.0597456 -0.013408795 -0.12682702 0.036087364 -0.05933941 0.08290671
-0.163984 -0.05586499 -0.02088131 -0.02240425 -0.00028106838 0.007411862 -0.04789723 -0.1655469
0.08912047 -0.029257445 0.047067963 -0.1004449 -0.12893108 0.07457352 0.10388024 -0.08324257
00000000: 72ec d53d c91d f13c 9e4a f6bd 6d7c 1d3d
00000010: 7852 ccbd 6a7b 0a3e 1171 8f3c a7fd 94bd
00000020: 17f8 a73d 771b 3fbd 0942 90bd 0f4d 353b
00000030: 2fc5 ac3d 437f ad3d cadf 3e3d 2ec5 f9bc
00000040: 621c 37bd 5b89 813d 3bb9 983c 074b cabd
00000050: ce70 ccbc 6782 b7bc ee68 da3d b638 38bd
00000060: f192 adbd 0741 903c 7d1b 2cbc 3881 1dbc
00000070: 7508 fa3d e860 8c3d 1979 90bd 9868 9ebc
00000080: 5591 b0bc 52bc 233d 506e 373e ad55 a5bc
00000090: 3d6d 87bd 88ea 473d abdc 0abe a81b 953d
000000a0: 6182 843d d156 3a3d 03ec 31bd ef40 bbbd
000000b0: 4249 81bc eb01 37bb ee34 d4bd a5d7 053d
000000c0: 9ff9 003e c8db a63d 0423 8ebb d593 833d
000000d0: ca5c 88bd af10 01bd ff34 0abe 60bc 1dbe
000000e0: 0372 763b e1f2 4b3d a886 a9bc ebd4 25bd
000000f0: b620 783d a164 41bc 1888 5dbd 299b d7bc
00000100: 0ee4 39bd ae69 863d c4ba 8cbd a503 9ebd
00000110: 93e6 fb3b f283 203d 5d67 76bd 3006 933d
00000120: ff96 ba3d e1d2 0b3c ecb7 143d 2ade 2a3d
00000130: 7f22 7a3d 0657 0fbd e888 18bd 980b 36bd
00000140: b2d4 d43d 6db9 b13d e567 c8bb c73d dcbc
00000150: 54f8 8e3d 114d 95bd 7193 c13c 4074 9c3d
00000160: 9afc 943d d678 d13d 941a b53c 8de5 dabd
00000170: 9917 143d d361 1c3c e942 f5bd 4f8f 903d
00000180: a108 bb3d 4140 af3d f830 b8bd a8ce 74bc
00000190: a025 a1bc 72cc 5c3c 73e7 15bd c903 173e
000001a0: a30c a8bd c807 bc3c 08b5 a6bd 0d01 bc3c
000001b0: 7ab0 a33c 3917 2abd ea6a f23d 3408 963d
000001c0: 5dea 8dbd 7059 193b ba2d cf3c 2fd6 bbbd
000001d0: d347 413d 3087 27be bb5c e6bd e640 d43b
000001e0: 4870 033d 15ac a43c b373 9e3c 70b2 0e3d
000001f0: 394e f33c 46e1 a8bd 4979 23ba 376d 773c
00000200: 8bb7 f6bd bbb7 bcbc 74c8 08be 9ab9 19bd
00000210: 2540 833c fca1 9dbd 2397 46bc 8e40 6e3d
00000220: af62 b6bb b4dc 513d 96b1 f1b9 4624 0abe
00000230: e73a d43d a0d1 bbbd fd66 8cbd 9b12 543d
00000240: 1f45 bdbd 9dea 8fbd 3f95 183e 869c ac3d
00000250: bead 86bd c2a8 193e 5f0a 633d 2bcc 9e3d
00000260: ea78 c23d 1d2c a3bd 7cbe 2e3d c9cb b23b
00000270: b57b 84bd 2285 553d f4a5 11be 32d4 993d
00000280: 6678 2e3e 7b13 2bbe bb7c 47bc 45a2 86bd
00000290: 5f0e ba3c dbad c2bc d12b af3d 603d 8abc
000002a0: 58e5 a23d 1c93 c63c f7a3 99bd 1b3f a7bd
000002b0: 98dc a63d 303f b9bd c980 12bd 6676 0dbe
000002c0: ec05 1dbd f498 073e bd78 883d d708 01bd
000002d0: 42d3 c13d 4d08 493d 09cf d4bd 7b4a bbbd
000002e0: 98b9 60bd eac5 053d a0ad d13d dda1 583c
000002f0: 8df4 dbbd d04c ab3d 7ca4 efbd 9af1 2abe
00000300: 2261 ccbc 7eda 84bd 6a5a bb3d 6999 55bd
00000310: 6733 0c3e 4fe6 8c3d 85df 963d e48f b93b
00000320: cba0 8e3c 7102 de3d c2a2 a0bd 05d3 0f3e
00000330: 0c18 bcbc a02f b23d e507 1c3c f06b 47be
00000340: f88d e03c c779 31be 5477 0b3d 968c 8f3d
00000350: 202d b83d 5589 ef3d 9bd3 8f3d 0971 94b9
00000360: 7a51 efbc 69d6 85bd e442 0ebd f6ca 87bc
00000370: 7c6f f6bc f31a fdbc b61a 9c3d fc51 ea3c
00000380: 05ea aebc 5022 613d 4657 e83c 085e 273d
00000390: 06b1 02be c03d d3bd 8ba0 193d 1898 293c
000003a0: edbf a0bc a9dd 863d cdb7 74bd 90b0 5bbc
000003b0: f1de 01be 58d0 133d e20d 73bd feca a93d
000003c0: 6ceb 27be b0d2 64bd 480f abbc 1e89 b7bc
000003d0: 5c5c 93b9 34df f23b e32f 44bd 2085 29be
000003e0: cb84 b63d 4fad efbc 56ca 403d 0eb6 cdbd
000003f0: 8206 04be 00ba 983d 2abf d43d 157b aabd

fc.bias f4 [128]
-0.014951501 0.016909387 -0.016834365 0.15671632 0.08850235 -0.012495932 -0.021963663 0.032759324
0.031698998 -0.0019077807 0.056832902 -0.23094797 -0.047116417 0.07481418 0.048320577 0.09207463
0.0076294234 -0.094830394 -0.040245116 0.006438223 0.09792415 -0.025374586 0.07914156 -0.10403276
-0.07391019 -0.001741702 0.03689872 -0.08015132 -0.02005629 -0.0049738884 -0.036890164 -0.025295151
0.046105925 0.019763311 -0.051294647 0.08257627 0.0075516854 0.111574985 -0.15044367 -0.031094177
0.012741318 -0.033528116 0.10989453 0.118972085 0.08497514 0.03685509 0.0013966875 0.045118794
-0.1837543 0.065937765 0.042084478 0.026018564 -0.005640686 -0.00097628316 0.0724897 0.113030575
-0.15274101 -0.034106597 -0.113677844 0.052352753 0.0767989 0.040636044 0.061762676 -0.024269285
0.014890653 0.013217933 -0.10105948 -0.034212798 0.22544618 -0.16328004 0.054440968 0.021087646
0.08666537 -0.0916915 0.055738818 -0.12202913 0.06163304 0.082712844 -0.023334563 -0.00017286626
-0.0718777 -0.047414243 0.019506946 0.121353514 0.14317483 0.10287923 0.062232077 -0.12063503
-0.07878377 0.09297415 0.08767672 0.02122017 0.01384214 0.069882326 0.06192408 0.04137303
0.08038197 -0.029888311 0.09041567 0.03860034 0.014920131 0.027859326 -0.00062184886 -0.002988701
-0.10251126 0.05390632 0.07581106 0.09642475 -0.20379117 0.16176215 0.08506491 0.018873844
0.18473703 0.027171144 -0.009615736 -0.17929183 0.105143115 0.0050753835 -0.027309354 0.00684204
0.28788564 0.03389506 0.0071816747 -0.08389324 0.031697165 0.0044643497 -0.09520847 0.065230824
00000000: 24f7 74bc 8e85 8a3c 39e8 89bc 3e7a 203e
00000010: b840 b53d bdbb 4cbc 24ed b3bc a42e 063d
00000020: cfd6 013d 7f0e faba 9ec9 683d a07d 6cbe
00000030: 25fd 40bd 2d38 993d cceb 453d a091 bc3d
00000040: 3e00 fa3b 7036 c2bd 10d8 24bd bbf7 d23b
00000050: 758c c83d 5dde cfbc f814 a23d 210f d5bd
00000060: 3a5e 97bd d249 e4ba 1d23 173d 6026 a4bd
00000070: 174d a4bc 00fc a2bb 241a 17bd c737 cfbc
00000080: 91d9 3c3d abe6 a13c 561a 52bd bf1d a93d
00000090: 2174 f73b 6d81 e43d e80d 1abe 37b9 febc
000000a0: f6c0 503c c754 09bd 6210 e13d a3a7 f33d
000000b0: 7207 ae3d 5df5 163d 0e11 b73a 7cce 383d
000000c0: 162a 3cbe 610a 873d c660 2c3d e224 d53c
000000d0: 81d5 b8bb 41ed 7fba 7b75 943d 937c e73d
000000e0: 2468 1cbe 5cb3 0bbd eecf e8bd d76f 563d
000000f0: be48 9d3d fb71 263d dcfa 7c3d 61d0 c6bc
00000100: edf7 733c 0790 583c 46f8 cebd b822 0cbd
00000110: 5ddb 663e e232 27be 7efd 5e3d 00c0 ac3c
00000120: 9d7d b13d c1c8 bbbd 634e 643d 69ea f9bd
00000130: ed72 7c3d 5a65 a93d 2028 bfbc 6f43 35b9
00000140: 9e34 93bd 7035 42bd 08cd 9f3c 3188 f83d
00000150: 6c9c 123e 59b2 d23d 10e7 7e3d 800f f7bd
00000160: 6359 a1bd 3b69 be3d da8f b33d ecd5 ad3c
00000170: 25ca 623c 771e 8f3d 1ba4 7d3d c476 293d
00000180: 4d9f a43d 55d8 f4bc da2b b93d 641b 1e3d
00000190: 9173 743c 3e39 e43c 9203 23ba 15de 43bb
000001a0: 6cf1 d1bd e0cc 5c3d d442 9b3d 577a c53d
000001b0: a2ae 50be faa4 253e 8336 ae3d 529d 9a3c
000001c0: b42b 3d3e 0596 de3c 528b 1dbc 4798 37be
000001d0: 4655 d73d 674f a63b deb7 dfbc 3133 e03b
000001e0: bf65 933e 8cd5 0a3d 4154 eb3b 38d0 abbd
000001f0: e3d4 013d ae49 923b a9fc c2bd bd97 853d

layers.0.weight f4 [128, 128]
-0.007991973 -0.07515411 -0.005464939 -0.11793517 0.034161523 -0.039279755 0.007038237 0.047078513
-0.014149514 -0.019125601 -0.09199459 0.15182897 0.14314833 -0.06236253 -0.048101656 0.05978594
0.02572248 0.110876046 0.008576526 -0.06307026 0.07658556 0.055552643 0.006655347 0.15398589
0.03925767 -0.04177203 -0.04589907 -0.087655365 -0.0082635945 -0.07968449 0.028811626 0.02086887
0.06466933 0.024082188 -0.03947163 0.21858987 -0.19391559 0.053417373 0.18116973 -0.117903255
-0.053774215 -0.10244881 -0.04408413 0.012148869 -0.12115045 0.03045306 0.11879968 0.014945643
-0.014890476 -0.078146674 0.05350244 0.074824855 -0.038645957 0.030974371 -0.13695228 -0.05404763
0.057469435 0.0051640146 0.25152585 -0.057177138 -0.15011759 -0.033885576 -0.07684963 0.022876576
0.034704886 0.040268697 0.16618697 0.013056812 -0.02707731 0.111105345 -0.097773775 0.0074873324
0.12395647 0.047649503 -0.094348 -0.0067672334 -0.16295306 0.004093761 0.09489413 0.11412808
0.022308396 -0.026579008 -0.13306299 -0.11377527 0.08502769 0.07527298 -0.022913044 -0.058040082
0.077131785 -0.051433153 0.094368495 -0.007155628 -0.10451617 -0.0391684 -0.025551856 -0.033710252
0.09869651 -0.18830146 -0.12675235 -0.02076495 0.1182595 -0.012969691 -0.09573074 0.06672983
0.040861625 -0.17456228 -0.04960116 0.100848556 -0.019382194 -0.1986706 -0.00967097 0.14813305
-0.09083261 -0.054466955 0.03551027 0.12661596 0.010188818 -0.18475485 -0.09250522 -0.18092093
0.023660054 -0.12265034 -0.0031542073 -0.004243374 -0.04409334 -0.10961068 0.05234476 -0.09861441
0.013504287 0.04007502 -0.063484766 -0.059450164 -0.04265171 0.08495565 -0.0808002 -0.028281419
-0.014364694 -0.091679625 -0.08564464 0.13720347 0.078309305 -0.1950304 -0.07198976 0.009480471
-0.09496502 0.15757124 0.032738954 0.011490446 0.020529326 -0.08800805 -0.03634008 0.1460081
0.035455115 -0.044085562 -0.03970297 0.07388302 0.03233998 -0.16666077 0.048408885 0.0051992424
-0.0672235 0.0300637 0.049463443 -0.047126506 -0.04230699 -0.00014237424 0.2981457 0.017460609
-0.026356263 -0.06866679 -0.06951013 0.053934705 -0.012435339 -0.12941697 -0.11207556 -0.07577904
0.1951944 -0.039180838 -0.044299886 -0.0907459 0.029925017 0.047050327 -0.27659732 -0.031901766
0.15725937 0.0902832 0.1671617 -0.032263465 -0.058934916 -0.13126083 -0.095353976 0.12502283
-0.019623233 -0.041186333 0.10838901 -0.048956078 -0.08708188 0.21883814 -0.09141706 0.16050272
0.04048638 0.09210128 -0.028701467 0.13253546 -0.0707981 -0.094953395 0.10668521 0.07980088
-0.0105752675 -0.086005814 -0.049440246 -0.054968495 -0.08921451 -0.062291402 -0.025319137 0.0919876
0.09041119 -0.028283413 -0.10472688 -0.018688926 0.093102954 -0.12339185 0.0043251324 0.006594684
-0.049498662 -0.0035130086 -0.026402129 -0.07822996 -0.04494717 -0.0023608985 0.0663477 0.0026719451
0.020852806 -0.008179077 -0.07948935 0.0049539274 0.036309768 -0.019746697 -0.08691349 0.1536733
-0.19256288 -0.052563176 0.03207365 0.2511067 0.009673528 -0.1057234 -0.052993465 0.02681233
-0.24723013 -0.12370183 -0.15813199 0.055251863 -0.040124446 -0.007476689 -0.006679022 -0.07571693
00000000: c4f0 02bc 66ea 99bd 3b13 b3bb ff87 f1bd
00000010: f4ec 0b3d cfe3 20bd 03a1 e63b 66d5 403d
00000020: 5dd3 67bc 4bad 9cbc a967 bcbd 0e79 1b3e
00000030: 7a95 123e da6f 7fbd 3e06 45bd 1ae2 743d
00000040: f3b7 d23c fb12 e33d 8f84 0c3c fb2a 81bd
00000050: e4d8 9c3d 2b8b 633d 1915 da3b 7aae 1d3e
00000060: a7cc 203d 2619 2bbd aa00 3cbd a884 b3bd
00000070: 0764 07bc 9f31 a3bd 5c06 ec3c 31f5 aa3c
00000080: 5b71 843d 0248 c53c 01ad 21bd 06d6 5f3e
00000090: cf91 46be 2dcc 5a3d 8f84 393e 4377 f1bd
000000a0: 5a42 5cbd afd0 d1bd 9091 34bd 0d0c 473c
000000b0: ba1d f8bd b278 f93c 3f4d f33d 92de 743c
000000c0: 2ff7 73bc 5d0b a0bd 6025 5b3d c63d 993d
000000d0: 394b 1ebd f7bd fd3c 383d 0cbe 0c61 5dbd
000000e0: 1265 6b3d e536 a93b ffc7 803e 9332 6abd
000000f0: 6db8 19be 9acb 0abd 5763 9dbd a867 bb3c
00000100: b626 0e3d caf0 243d eb2c 2a3e 3dec 553c
00000110: 3cd1 ddbc 338b e33d 9e3d c8bd 4c58 f53b
00000120: e4dc fd3d 202c 433d 8639 c1bd abbf ddbb
00000130: 2bdd 26be f524 863b db57 c23d fcbb e93d
00000140: 19c0 b63c 38bc d9bc aa41 08be 0203 e9bd
00000150: ff22 ae3d b828 9a3d 23b4 bbbc 70bb 6dbd
00000160: 45f7 9d3d 92ab 52bd 4544 c13d c279 eabb
00000170: 930c d6bd 0b6f 20bd 2052 d1bc c313 0abd
00000180: 6521 ca3d 19d2 40be 5ecb 01be 421b aabc
00000190: 0932 f23d d47e 54bc 7a0e c4bd a6a9 883d
000001a0: 855e 273d 74c0 32be 962a 4bbd b089 ce3d
000001b0: 68c7 9ebc 4e70 4bbe fd72 1ebc 31b0 173e
000001c0: 7306 babd be18 5fbd 3873 113d 9da7 013e
000001d0: 00ef 263c 6030 3dbe 6073 bdbd 5643 39be
000001e0: bbd2 c13c 1a30 fbbd d1b6 4ebb 000c 8bbb
000001f0: 389b 34bd 907b e0bd 7667 563d 5af6 c9bd
00000200: 1641 5d3c b425 243d 4d04 82bd 0482 73bd
00000210: 8fb3 2ebd 3afd ad3d 937a a5bd 6fae e7bc
00000220: e559 6bbc 87c2 bbbd 7566 afbd 117f 0c3e
00000230: a160 a03d 0db6 47be 5e6f 93bd fa53 1b3c
00000240: 057d c2bd 5b5a 213e 4819 063d 6c42 3c3c
00000250: 1e2d a83c 913d b4bd 56d9 14bd 2683 153e
00000260: 6239 113d 1093 34bd 959f 22bd fb4f 973d
00000270: ed76 043d 1fa9 2abe 6548 463d 685e aa3b
00000280: 79ac 89bd 2648 f63c 2e9a 4a3d b907 41bd
00000290: 184a 2dbd 4b4a 15b9 8ea6 983e 8d09 8f3c
000002a0: 17e9 d7bc 2da1 8cbd 545b 8ebd a3ea 5c3d
000002b0: 98bd 4bbc e285 04be df87 e5bd 0b32 9bbd
000002c0: 0ae1 473e 167c 20bd cc73 35bd fdd8 b9bd
000002d0: 4f25 f53c d8b7 403d 2a9e 8dbe 6dab 02bd
000002e0: 9a08 213e 66e6 b83d 702c 2b3e b226 04bd
000002f0: bd65 71bd 3d69 06be f248 c3bd fc05 003e
00000300: e7c0 a0bc 00b3 28bd 0ffb dd3d 2b86 48bd
00000310: fc57 b2bd 1b17 603e de38 bbbd d35a 243e
00000320: 0cd5 253d 999f bc3d 571f ebbc 60b7 073e
00000330: 98fe 90bd ed76 c2bd c67d da3d a56e a33d
00000340: e343 2dbc d123 b0bd db81 4abd a526 61bd
00000350: 19b6 b6bd 4525 7fbd 146a cfbc ff63 bc3d
00000360: 8129 b93d 9eb2 e7bc 0c7b d6bd 8519 99bc
00000370: c3ac be3d deb4 fcbd d7b9 8d3b 3818 d83b
00000380: 1cbf 4abd 813a 66bb 4749 d8bc 0737 a0bd
00000390: 861a 38bd 4eb9 1abb 4ee1 873d cd1b 2f3b
000003a0: 81d3 aa3c 8901 06bc 50cb a2bd 8e54 a23b
000003b0: 8db9 143d d3c3 a1bc b3ff b1bd 895c 1d3e
000003c0: 342f 45be 7c4c 57bd a95f 033d 0f91 803e
000003d0: b87d 1e3c 8385 d8bd ad0f 59bd 88a5 db3c
000003e0: e529 7dbe 6357 fdbd 5aed 21be c74f 623d
000003f0: 8859 24bd 03ff f4bb b3db dabb 7a11 9bbd

layers.0.bias f4 [128]
-0.028593991 -0.024383144 0.022931026 -0.13469213 -0.0006623132 0.096946396 -0.06287839 -0.018675711
0.0010182271 -0.017117683 0.0542343 0.00968099 0.119930394 -0.04189037 -0.0016759823 0.06254316
-0.041970816 0.0006104019 -0.064905964 -0.12770197 -0.06247503 -0.0888302 0.14008307 0.038448747
0.06576115 0.07856425 -0.051106334 -0.07074344 -0.120598406 0.13223515 -0.07442751 -0.07588809
0.021103185 0.0134013835 0.033932135 -0.0061933496 0.03725035 -0.024872923 -0.073257394 -0.12757672
0.006883233 0.025333047 -0.10073249 -0.029211463 -0.03327825 -0.002928805 -0.040308505 -0.05131708
-0.027927311 -0.07884316 -0.031040534 0.0058566765 0.0326715 0.07497087 -0.06681651 -0.09546687
-0.057580262 -0.046164203 -0.0062693404 -0.1584221 -0.029403696 -0.08993035 -0.038618527 -0.0445792
-0.03221814 -0.002112689 -0.032232124 0.03603994 0.0034538738 -0.07980272 -0.05314758 0.025657777
0.08313602 -0.014925691 -0.12168313 -0.041905575 -0.0166016 -0.06110952 -0.027252778 -0.06360476
0.042382058 -0.041366167 -0.19188434 -0.14202867 -0.018562982 0.052755732 -0.077414766 -0.045212638
0.10512203 0.04936982 -0.030707508 -0.028376952 0.060296107 -0.01442879 -0.069528624 0.022545638
-0.052701175 -0.09083255 -0.018565305 0.053169407 -0.008450332 -0.027723303 -0.081593 -0.04007122
0.07622139 0.003108709 -0.041563295 0.01321333 0.007241672 -0.16104907 -0.12871125 -0.047262818
-0.06812079 -0.17462294 -0.014699327 0.008456605 -0.039770838 -0.0066665616 -0.026043085 -0.051018957
-0.0056025046 0.03025078 -0.0031533162 0.04624293 0.015864592 0.0010868306 -0.03389223 -0.00031368565
00000000: f23d eabc 29bf c7bc d9d9 bb3c bcec 09be
00000010: 169f 2dba d58b c63d 63c6 80bd cefd 98bc
00000020: 0876 853a 623a 8cbc c924 5e3d 049d 1e3c
00000030: 119e f53d 3d95 2bbd a2ac dbba a116 803d
00000040: 97e9 2bbd 6103 203a 6bed 84bd 4ec4 02be
00000050: d1e5 7fbd 9cec b5bd f071 0f3e 6f7c 1d3d
00000060: c8ad 863d 4be6 a03d e054 51bd f0e1 90bd
00000070: 4cfc f6bd a768 073e 736d 98bd 376b 9bbd
00000080: 96e0 ac3c 7a91 5b3c 6cfc 0a3d 95f1 cabb
00000090: d393 183d 4dc2 cbbc f907 96bd 79a3 02be
000000a0: be8c e13b 4087 cf3c d64c cebd e14c efbc
000000b0: c64e 08bd 32f1 3fbb 881a 25bd dc31 52bd
000000c0: d1c7 e4bc 8678 a1bd b848 febc 5de9 bf3b
000000d0: 8dd2 053d 548a 993d 18d7 88bd 2284 c3bd
000000e0: 48d9 6bbd ad16 3dbd 0a6f cdbb 6739 22be
000000f0: 05e0 f0bc 672d b8bd 762e 1ebd ae98 36bd
00000100: 2bf7 03bd 0a75 0abb d505 04bd 9e9e 133d
00000110: 635a 623b 9c6f a3bd 47b1 59bd 4230 d23c
00000120: 3843 aa3d e38a 74bc 0135 f9bd 2ea5 2bbd
00000130: 1400 88bc fa4d 7abd 3841 dfbc 3643 82bd
00000140: cf98 2d3d 926f 29bd 547d 44be f76f 11be
00000150: 6511 98bc 6516 583d a28b 9ebd e330 39bd
00000160: 384a d73d 0238 4a3d 508e fbbc c876 e8bc
00000170: 0df9 763d bb66 6cbc 0665 8ebd a1b1 b83c
00000180: 30dd 57bd 6a06 babd 4416 98bc 2ac8 593d
00000190: 4373 0abc fb1b e3bc 3b1a a7bd b821 24bd
000001a0: f619 9c3d 7bbb 4b3b 463e 2abd b97c 583c
000001b0: 8c4b ed3b 0cea 24be e2cc 03be a896 41bd
000001c0: ea82 8bbd 5bd0 32be 72d5 70bc 928d 0a3c
000001d0: bfe6 22bd 2c73 dabb 4f58 d5bc 41f9 50bd
000001e0: 3795 b7bb 7cd0 f73c dea7 4ebb 3a69 3d3d
000001f0: 76f6 813c fc73 8e3a 94d2 0abd 2d76 a4b9

layers.1.weight f4 [128, 128]
0.2013642 0.22218409 0.25973013 0.08241418 -0.20803258 0.025497342 0.03151255 0.25893232
-0.1650996 -0.023607131 -0.0371216 0.109411195 0.03492139 -0.24714793 -0.085183285 -0.2615683
-0.05955137 -0.23681693 0.06251829 -0.005751239 -0.11276228 -0.065737404 -0.07972614 0.026638389
-0.07252008 -0.021307679 -0.20262133 -0.052020296 -0.08362145 -0.094545655 -0.07580949 -0.035076603
-0.16860585 0.122384086 -0.23498915 -0.16586833 -0.05482785 -0.060924042 -0.0814146 0.034282584
0.026650287 0.15854618 -0.1516666 0.06545418 -0.18078154 0.05482572 0.033551548 -0.17653388
-0.13565737 0.013415578 -0.097875334 0.04060339 0.010467065 -0.13545012 -0.17159694 -0.2661199
0.30074102 -0.06268398 -0.24117847 -0.2597217 -0.027999109 0.06777002 -0.123747855 -0.4025075
0.10878874 0.0032141958 -0.0071339356 0.006423638 -0.20193078 -0.21178283 -0.23260888 -0.056511495
-0.07973615 0.15668467 -0.10466149 0.074130975 -0.23891401 -0.14105047 0.10483657 -0.0051118163
-0.10852092 0.043387543 0.11140858 -0.11161087 0.2690174 0.0057331244 0.3262249 0.10814799
-0.3258895 -0.2781329 0.31686863 -0.13421366 0.18156527 0.0051772883 -0.06380383 -0.2419689
-0.02924391 -0.11957199 -0.13440123 0.014666791 0.018255895 0.36123818 0.0051909336 -0.116609156
-0.03565429 -0.014285246 0.038277403 0.07833937 0.0349075 -0.07122729 0.0005939997 0.035680234
-0.2722564 -0.023008669 -0.29570532 -0.07814799 0.011648417 -0.20905092 0.37673703 0.29069042
0.0674709 -0.04180278 -0.032647174 -0.121402934 0.29183128 -0.037024252 0.110529356 0.003565375
0.096087605 0.22060765 -0.09483245 0.015823027 0.09288502 0.025900016 0.35325262 0.09051387
0.10616994 0.114802636 -0.022101067 -0.1724175 0.0331134 -0.041555952 -0.06491111 0.17460231
-0.0004936201 -0.07832893 -0.15567763 -0.041253753 -0.075331874 0.07924411 -0.14344367 0.06130463
-0.08647797 0.034259453 -0.09792223 -0.06817721 0.12597707 0.12798472 0.14705035 0.08135422
0.053312756 -0.08657914 -0.16472994 -0.009760665 0.24253672 -0.07065824 0.09908275 -0.03720762
-0.017807951 0.072524466 -0.09590836 0.068030015 -0.05588728 -0.05239855 0.17054226 0.0769617
0.24786913 0.0041073677 -0.051955953 -0.12398093 -0.024591701 0.21435994 0.16253877 0.17049167
0.1680573 0.052237116 0.047163635 -0.11065938 0.06489397 -0.13959023 -0.23718576 -0.17324443
0.13377826 -0.14963341 0.005156452 0.012670009 0.073584266 0.046266604 -0.2601526 -0.06915401
-0.093510084 -0.11501115 -0.054268476 -0.04770391 0.0021025708 0.14334817 0.19046222 -0.13031213
-0.18839343 -0.0632886 0.05543788 -0.16708785 -0.014969592 -0.14397548 -0.10766463 0.017975478
0.05859131 -0.063380696 -0.023379073 0.039355017 -0.14923927 0.214424 -0.09359301 0.13637532
-0.088690355 -0.13128977 -0.006016131 0.035148393 0.002552212 0.14383669 -0.0932323 0.23517096
0.09474056 -0.025441885 0.03634229 0.17295918 -0.1362907 -0.09859688 -0.058745652 0.05144665
0.013833729 0.012681559 0.030809732 0.04599983 -0.18142693 0.08626664 0.0747188 0.29460695
-0.29098177 -0.34586215 -0.034664612 -0.036541965 -0.10572478 0.178996 -0.074403085 0.11774992
00000000: 6b32 4e3e 3a84 633e 59fb 843e c4c8 a83d
00000010: 7e06 55be cddf d03c 4e13 013d c792 843e
00000020: df0f 29be be63 c1bc d20c 18bd fa12 e03d
00000030: bb09 0f3d 5914 7dbe 9374 aebd 48ec 85be
00000040: 23ec 73bd 2380 72be 9709 803d e474 bcbb
00000050: e9ef e6bd 55a1 86bd 7547 a3bd c038 da3c
00000060: 6885 94bd 718d aebc f77b 4fbe 3c13 55bd
00000070: b941 abbd 27a1 c1bd 0242 9bbd 7cac 0fbd
00000080: 03a7 2cbe 82a4 fa3d ffa0 70be 63d9 29be
00000090: 2b93 60bd 7d8b 79bd b3bc a6bd e56b 0c3d
000000a0: b451 da3c ee59 223e 7d4e 1bbe d70c 863d
000000b0: cc1e 39be ef90 603d 596d 093d 4cc5 34be
000000c0: c4e9 0abe 03cd 5b3c dd72 c8bd be4f 263d
000000d0: 0d7e 2b3c 70b3 0abe 1cb7 2fbe de40 88be
000000e0: bafa 993e 7560 80bd 7df7 76be 3efa 84be
000000f0: 635e e5bc 02cb 8a3d 846f fdbd 7715 cebe
00000100: a2cc de3d 42a5 523b cac3 e9bb 627d d23b
00000110: f1c6 4ebe 99dd 58be 0631 6ebe 9978 67bd
00000120: b54c a3bd f271 203e c358 d6bd fbd1 973d
00000130: e0a5 74be 896f 10be 8eb4 d63d 0681 a7bb
00000140: 3740 debd 23b7 313d 2e2a e43d 3d94 e4bd
00000150: a6bc 893e efdc bb3b f306 a73e b27c dd3d
00000160: fdda a6be 6f67 8ebe 9b3c a23e 4e6f 09be
00000170: 3fec 393e 3ea6 a93b 95ab 82bd b2c6 77be
00000180: ed90 efbc 29e2 f4bd 7aa0 09be fb4c 703c
00000190: 638d 953c 36f4 b83e b518 aa3b c8d0 eebd
000001a0: 3c0a 12bd aa0c 6abc c4c8 1c3d 6470 a03d
000001b0: 2bfb 0e3d 9ddf 91bd a5b6 1b3a 7025 123d
000001c0: 3165 8bbe ad7c bcbc b066 97be 0e0c a0bd
000001d0: 01d9 3e3c 7211 56be ade3 c03e 60d5 943e
000001e0: 2f2e 8a3d 6439 2bbd 0bb9 05bd 1aa2 f8bd
000001f0: e96a 953e bea6 17bd 375d e23d 11a9 693b
00000200: 94c9 c43d f9e6 613e 8437 c2bd 4b9f 813c
00000210: 803a be3d 452c d43c 87dd b43e 565f b93d
00000220: a06f d93d a51d eb3d 4c0d b5bc 378e 30be
00000230: eba1 073d 9336 2abd 1ef0 84bd f3ca 323e
00000240: 4966 01ba eb6a a0bd f569 1fbe b2f9 28bd
00000250: 9947 9abd bc4a a23d e6e2 12be 901a 7b3d
00000260: 5d1b b1bd a453 0c3d 738b c8bd 7ea0 8bbd
00000270: 2200 013e 6d0e 033e 5e94 163e 0b9d a63d
00000280: 7a5e 5a3d 6750 b1bd f7ae 28be 32eb 1fbc
00000290: 8c5b 783e 44b5 90bd e6eb ca3d 0467 18bd
000002a0: fbe1 91bc b587 943d 9a6b c4bd 5253 8b3d
000002b0: 0fea 64bd dd9f 56bd a1a2 2e3e 199e 9d3d
000002c0: 68d1 7d3e 1997 863b c4cf 54bd b7e9 fdbd
000002d0: 8974 c9bc 2c81 5b3e 9070 263e 5e95 2e3e
000002e0: 3617 2c3e 96f6 553d a82e 413d 63a1 e2bd
000002f0: 21e7 843d bef0 0ebe d3e0 72be fd66 31be
00000300: 2bfd 083e 8039 19be 74f7 a83b df95 4f3c
00000310: 59b3 963d 0d82 3d3d b932 85be 9ea0 8dbd
00000320: 3782 bfbd f78a ebbd 9f48 5ebd 2d65 43bd
00000330: 49cb 093b ddc9 123e 8708 433e 8b70 05be
00000340: 35ea 40be 749d 81bd d512 633d 1419 2bbe
00000350: 0543 75bc 4f6e 13be 467f dcbd 4f41 933c
00000360: 71fd 6f3d bdcd 81bd 7885 bfbc ba32 213d
00000370: 2ed2 18be f791 5b3e b1ad bfbd f9a5 0b3e
00000380: 4aa3 b5bd d370 06be f722 c5bb c3f7 0f3d
00000390: 0343 273b ed49 133e 93f0 bebd a8d0 703e
000003a0: 5707 c23d 806b d0bc a7db 143d 361c 313e
000003b0: ca8f 0bbe 29ed c9bd 489f 70bd b9b9 523d
000003c0: dda6 623c 50c6 4f3c b164 fc3c 516a 3c3d
000003d0: fbc7 39be 90ac b03d 2c06 993d b9d6 963e
000003e0: 90fb 94be d814 b1be 7bfc 0dbd 07ad 15bd
000003f0: 3c86 d8bd ba4a 373e a560 98bd df26 f13d

layers.1.bias f4 [128]
0.071608275 0.11017245 0.17670423 0.19865127 0.17410149 0.12708804 0.14171983 0.17645411
0.0971041 0.20981148 0.11846892 0.19190545 0.14480455 0.03974304 0.1628178 0.12081053
0.0719714 0.08025039 0.14376922 0.013088275 0.1712021 0.16588072 0.05953191 0.04334546
0.204091 0.04251353 0.014063373 0.18653408 0.043313634 0.073002115 0.08802733 0.106224515
0.08037838 0.19379191 0.10000017 0.0036447998 0.091521956 0.20773882 0.019180676 0.010339833
0.15074643 0.09249975 0.033893414 0.23522215 0.14700283 0.16349584 0.17024416 0.14582536
0.11256797 0.16682771 0.16957927 0.2190678 0.14259383 0.13372117 0.074090846 0.24285144
0.04959053 0.08679122 0.21091022 0.14494208 0.19049649 0.04252731 0.16797704 0.21084158
0.14478333 0.24734876 0.116444506 0.08731468 0.15317984 0.18290098 0.06901489 0.21205911
0.16854171 0.10177277 0.08910125 0.11915473 0.1453518 0.22943918 0.14418441 0.1743357
0.25758705 0.16266753 0.078407764 0.18714312 0.12692334 0.12639841 0.050803404 0.16164291
0.17364953 0.2099959 0.1365063 0.17205882 0.038792912 0.25808737 0.06469212 0.16060711
0.032004304 0.1392069 0.14043677 0.13004753 0.1164542 0.1730277 0.17798185 0.08493574
0.09020284 0.102041245 0.09770316 0.063218705 0.105259225 0.19801213 0.08458849 0.124881156
-0.031942237 0.08658541 0.25190043 0.09737589 0.07014291 0.13288921 0.1265103 0.24029748
0.19328707 0.076502025 0.16724749 0.064708285 0.19140996 0.19313484 0.05300499 0.012783323
00000000: 5ca7 923d 18a2 e13d f4f1 343e 3d6b 4b3e
00000010: a947 323e 5e23 023e 011f 113e 63b0 343e
00000020: 84de c63d d2d8 563e d59f f23d dd82 443e
00000030: a547 143e 99c9 223d b6b9 263e 836b f73d
00000040: be65 933d 515a a43d 3d38 133e 3470 563c
00000050: 9a4f 2f3e a3dc 293e bbd7 733d 028b 313d
00000060: 3bfd 503e ab22 2e3d 106a 663c ca02 3f3e
00000070: a369 313d 2282 953d ac47 b43d 3d8c d93d
00000080: 6c9d a43d 6371 463e e4cc cc3d 98dd 6e3b
00000090: dd6f bb3d 7cb9 543e cb20 9d3c 6768 293c
000000a0: 465d 1a3e 8270 bd3d d2d3 0a3d 13de 703e
000000b0: e987 163e 746b 273e 7c54 2e3e 3e53 153e
000000c0: 098a e63d e2d4 2a3e 30a6 2d3e 4f53 603e
000000d0: 1e04 123e 34ee 083e f1bc 973d 0cae 783e
000000e0: 711f 4b3d 98bf b13d d9f8 573e b26b 143e
000000f0: 8311 433e 1e31 2e3d 2c02 2c3e dbe6 573e
00000100: 1542 143e fe48 7d3e 757a ee3d 0ad2 b23d
00000110: 2ddb 1c3e 654a 3b3e ae57 8d3d 0626 593e
00000120: 3396 2c3e 3e6e d03d b77a b63d 6507 f43d
00000130: 1ad7 143e 1bf2 6a3e 14a5 133e 0f85 323e
00000140: 73e2 833e 5192 263e 4094 a03d 72a2 3f3e
00000150: 31f8 013e 966e 013e 3b17 503d b885 253e
00000160: 2fd1 313e 2a09 573e 4fc8 0b3e 3030 303e
00000170: 51e5 1e3d 0724 843e 4d7d 843d 3176 243e
00000180: f216 033d 418c 0e3e a8ce 0f3e 2e2b 053e
00000190: 8a7f ee3d 2c2e 313e e040 363e caf2 ad3d
000001a0: 44bc b83d 00fb d03d 9818 c83d cf78 813d
000001b0: 2692 d73d b1c3 4a3e bb3c ad3d b1c1 ff3d
000001c0: ddd5 02bd b153 b13d 18f9 803e 036d c73d
000001d0: 16a7 8f3d 1c14 083e eb8b 013e 8b10 763e
000001e0: 0ced 453e 18ad 9c3d ed42 2b3e c785 843d
000001f0: f900 443e 24c5 453e c31b 593d 2571 513c
