DDPG/actor.pt (torch_old, 151459 bytes, 12 tensors)

fc.weight f4 [128, 21]
00000000: 1ee2 523d 8b26 08be 490b 4c3e bd19 d1bd
00000010: cc8c 453e 6244 abbd 9933 c03d 500d 09be
00000020: ed1b 54bd 659d 393e 9a1f eabd 7158 d5bd
00000030: 5473 8dbd ef26 083d 91df 533e 4c0d fb3d
00000040: 8cb1 2b3e 228b 33be 11f8 2cbe 3740 b5bc
00000050: 6fc2 853d e368 3f3d eba7 2dbe 7b90 00bd
00000060: a452 8ebd bf8e 14be 86f1 06be d557 d5bd
00000070: 0e22 4ebe bfaa a53c 7a5d b93d c7f0 043e
00000080: f3a6 4b3e 0555 283d 0773 5e3c 00d0 493d
00000090: a023 573d 9900 81bd 1ff3 4fbd e1c9 f9bd
000000a0: 94dd 2d3d 67fb 1cbe d8e7 eb3b 4f09 18be
000000b0: 3da7 dc3d d31e 5e3e 5610 23be c0cd 4abd
000000c0: ac27 1abe 17c1 3e3d 57e0 ebbc b54a 443e
000000d0: a4e1 383d 3b00 493d 0509 18bd d9b7 33be
000000e0: 9dc4 f33d bacb ebbd 234a a5bd f182 d13d
000000f0: 2556 d6bd 332d 9c3d e936 5c3c 7d89 3a3d
00000100: f800 c43d dc73 26bd 9ecd 033e d705 50bd
00000110: 5ebf 343e 4deb 0ebe 91d0 afbd 302d febc
00000120: 7d8d 2abe 197c 513e a71f 19be 9ea1 7dbd
00000130: 347d 9038 a5aa c63c ddbc 26be bcd3 07be
00000140: a6cc 80bd 6224 533e 4da1 18be a0b0 913c
00000150: ba6b 95bd 19f4 3c3e b60c c43d 755a 353e
00000160: d654 9c3d c686 883d 4944 1d3e 20ae ee3b
00000170: 9438 cfbd 14d2 ccbd 51b3 babd 01b7 e6bd
00000180: dcce 14be 905a e93c 6789 493e 1e5d f33d
00000190: 806c 6a3b ed29 343e 201f d5bc 2781 113e
000001a0: eceb 03be 5d4d 5ebe 2f7f 2c3e 1af3 8c3d
000001b0: 4ab4 82bd 848f 4abe 334b 443e 4d7a cabd
000001c0: 9efa e73d 4c22 383d db3c 8cbd b0f1 79bd
000001d0: 805e 3abd 7dbf 1ebe 878d 1e3e 77ea c7bd
000001e0: 4081 4fbd d421 93bd eea3 c33d 735d 5b3e
000001f0: 16f4 e4bc 5414 5a3d 621d 143d 13e0 5f3c
00000200: 896f 263e 2a8c 2ebd f625 41be c878 2abe
00000210: be2e d83c 7858 01be ca01 56be cf49 723d
00000220: 3095 76bd ac28 92bd a3e5 b5bd 6a2b 15be
00000230: eb80 403e b4a3 da3d 106c 193e d763 a83d
00000240: 23d2 963d f8e7 30be 8dc3 20be 66ac ae3d
00000250: 2087 eabd 6e58 2ebe 2d95 f73d 8b54 8abd
00000260: eb5f 0ebe 84a5 4f3d ed84 c93d d3e2 243e
00000270: b3d1 293e a6b0 143d d1a8 013e 162f 47be
00000280: aa03 05be f5e7 093e ec9c 13be 9946 6ebd
00000290: 76fc ec3d 4459 3dbe b822 e2bc d021 4c3e
000002a0: d228 a83d c837 46be 1776 263e c081 d83c
000002b0: 2cb3 3f3d 79ce 453e 6b49 353e c088 033b
000002c0: 4800 02bd b4c5 f0bd c791 2a3e 4fdb 383e
000002d0: 48e6 1bbd f8f2 08bd 7844 d0bd 46f2 d93d
000002e0: ce40 01be 3a50 a03d 5083 4fbe baaf 9d3d
000002f0: e0df 22bc 49f9 373e 730c 343d 7039 55be
00000300: 5f84 d43d 0b30 24bd a00e a7bd 20fd cbbd
00000310: e398 25be 8069 e7bd 6176 e1bd be2c 92bc
00000320: 39eb d2bc c4f2 cd3c 7c18 183e 3e99 aabd
00000330: 6d5c cabc bf96 223e e943 2e3d e990 153e
00000340: 43bd 18be 3103 1a3e 34a8 003d b865 f7bd
00000350: 20eb 5d3e 2f90 29be 6497 2cbd f7c5 b1bd
00000360: 2586 273e 08f9 79bd bece 4ebe 00df 62ba
00000370: 0c70 18bd 0016 5dbd f0fb 80bd 2d57 f73d
00000380: 0233 12be d7ec 33be 936c 5bbe 30f2 4b3c
00000390: 8328 2b3e 5f7e c1bd fe6b d9bd f13c 473e
000003a0: 7fad 503e d189 773d 8fa7 d3bd e2f3 dbbd
000003b0: 0563 583e 36d5 a33d 2449 56bd 343d 09be
000003c0: d477 b8bd 839a 493e a2f3 f43d 6ca7 84bd
000003d0: 2703 0c3e 197c 86bd 3896 a9bd 24a7 24be
000003e0: fdee 3d3e 882f b83c 3a31 0ebe 40e4 a53b
000003f0: 4098 40bc 5c43 503d 9c8b 123d 5092 10be
0.051485173 -0.13295953 0.1992618 -0.10209987 0.19291991 -0.08362652 0.093848415 -0.13383985
-0.051784445 0.18126447 -0.11431809 -0.104172595 -0.06906763 0.033240255 0.20690753 0.122583956
0.16766948 -0.17533544 -0.16891505 -0.022125347 0.06531226 0.046730887 -0.16958587 -0.031387787
-0.06949356 -0.14507578 -0.13178071 -0.10417143 -0.20130178 0.02022302 0.09051032 0.12982474
0.19887905 0.041096706 0.013577229 0.04927063 0.05252421 -0.06298942 -0.050768968 -0.121967085
0.04244764 -0.15330277 0.007199269 -0.14847301 0.10774086 0.21691446 -0.159242 -0.049512625
-0.15054196 0.046570864 -0.028793497 0.19169123 0.045137063 0.049072485 -0.037117977 -0.17550601
0.119027354 -0.11513467 -0.08070781 0.10230053 -0.104656495 0.076258086 0.013440826 0.045541275
0.09570497 -0.040637836 0.12871405 -0.05078682 0.17651126 -0.13956948 -0.08584703 -0.031027406
-0.16655536 0.20457496 -0.1495348 -0.06192171 6.889776e-05 0.024251292 -0.16282983 -0.13264364
-0.062890336 0.20619348 -0.14905281 0.017784417 -0.07295938 0.18452491 0.09572737 0.17710288
0.07633369 0.06666331 0.1535808 0.007283941 -0.10118213 -0.10001007 -0.09116233 -0.11265374
-0.14532036 0.028485566 0.19681321 0.11882995 0.0035770237 0.17594118 -0.026015818 0.14209424
-0.12882966 -0.21709199 0.16845392 0.068823054 -0.06382044 -0.1978131 0.19169311 -0.09886608
0.11327098 0.044954583 -0.06847545 -0.061021507 -0.04550028 -0.15502734 0.15483676 -0.097615175
-0.05066037 -0.071841866 0.095527515 0.21422367 -0.02794842 0.053242043 0.036160834 0.013664263
0.16253485 -0.04261414 -0.18862137 -0.16647637 0.026389476 -0.12631404 -0.2089912 0.05915242
-0.06020087 -0.07136664 -0.0888169 -0.14567342 0.18799178 0.10675755 0.14982629 0.08222168
0.07364299 -0.17275989 -0.15699597 0.08528976 -0.11451554 -0.17025921 0.12089 -0.067544065
-0.13903777 0.050694957 0.09839807 0.16102152 0.165839 0.036301278 0.12662055 -0.19451556
-0.12989679 0.13467391 -0.1441533 -0.058172796 0.115715906 -0.18491083 -0.027604446 0.19934773
0.08210911 -0.19357216 0.16255985 0.026429057 0.04680173 0.19317044 0.17703788 0.0020070523
-0.03173855 -0.11756459 0.16657172 0.1805241 -0.03806141 -0.033434838 -0.101693094 0.10641913
-0.12622377 0.07827802 -0.20264935 0.07699533 -0.009941071 0.17966188 0.043957185 -0.20822692
0.1037681 -0.04008488 -0.08157086 -0.09960389 -0.16171603 -0.112994194 -0.11008907 -0.0178436
-0.025746929 0.025140174 0.1485309 -0.0833001 -0.024702275 0.15877818 0.042545233 0.1460606
-0.14915948 0.1504028 0.03141041 -0.12079948 0.21671724 -0.16558908 -0.042136565 -0.08680337
0.16359766 -0.06102851 -0.20196053 -0.00086544454 -0.03721623 -0.05397606 -0.06298053 0.12077174
-0.1427727 -0.17570816 -0.21428137 0.012447879 0.16714673 -0.094479315 -0.10616301 0.19456841
0.20378684 0.060434166 -0.10334694 -0.10739876 0.21131523 0.07999651 -0.052315846 -0.13402253
-0.090072304 0.19687848 0.11960532 -0.06477246 0.13673078 -0.065666385 -0.08280605 -0.16079384
0.18548198 0.022483602 -0.13885966 0.00506261 -0.011755049 0.05084549 0.035777673 -0.14118314

fc.bias f4 [128]
00000000: 0284 05be 59b7 08be bb30 4c3e 854a c43d
00000010: 05d1 e2bc 7e46 813d 96af 743c 4690 23bd
00000020: 804e 78bb b475 3f3e f505 2e3e d01f 1fbe
00000030: c2e0 95bd d95a d83d 4854 c7bc c0da 68bd
00000040: e6a9 f33d 14e6 b4bc aa70 4d3b d31e 64bc
00000050: 448d f7bd b124 583e 20dd bfbc c0b3 00bb
00000060: 6b6e 5d3e 96f1 8b3d fb68 90bc acaa d2bd
00000070: 36b6 07be 4792 08be b9ef 6fbd 0473 533e
00000080: 43fd 0a3e 085d 38be 71bc babc 7254 513e
00000090: 5625 bf3d 958f 4fbe 4ad4 86bd 68bb 463e
000000a0: 91af 16be 5451 2bbe 8e08 923d 6400 febd
000000b0: 4232 d53d 8a71 4a3e c75f 9bbd 0090 ec3c
000000c0: 1196 55be b223 fdbd 75e9 47be d2b3 bcbd
000000d0: 51c4 313e 8913 113e 0bad e13d 4c54 633d
000000e0: 4c0d 9ebd 51d0 ebbd 000c ed3b d5f2 483e
000000f0: 374a 2ebe d0a5 5f3c 719e 5b3e 6a6c 51be
00000100: 3cef 4dbe 49c1 2bbe 7b5f 513e 30c8 1a3d
00000110: 3e4c d73d 264d 29be 1056 5bbd 1a00 9d3d
00000120: 75c8 4ebe 5dad 143e 7305 133e 7bbb 2bbe
00000130: 6091 0c3d 4d92 2dbc 1736 0d3e d2f8 9dbd
00000140: 5c8e 69bd a828 b7bc c9b7 163e 76a5 123e
00000150: f2de 54be 2c9d 8dbd 49ac 253e e09b 44bc
00000160: a457 afbd ea54 16bd 6181 343e 9540 543e
00000170: 04d2 5cbe 7819 c4bd f087 44be 4171 d9bd
00000180: 3745 083d 54e8 4abe c25f 583e 1abf 5abd
00000190: a381 c0bd 9ab1 b2bd e8e5 18bd 24eb 0abe
000001a0: f668 6abd b1ae a8bb 983b ddbd 841c 283d
000001b0: 3dc2 13be e056 543e 48c8 2bbd 73e6 17be
000001c0: 4d16 abbd 001b 853c 86fe ab3d edf2 2f3e
000001d0: 6161 b73d cff3 133c 692a 5fbe 5cd3 91bc
000001e0: c8fa 563e 3b43 0dbe 3f41 2fbe d79b 453e
000001f0: 00da 8d39 7769 833d a414 783d 36c3 3dbd
-0.13038638 -0.13351192 0.19940464 0.09584526 -0.027687559 0.063122734 0.014934441 -0.03993251
-0.0037888587 0.18697244 0.1699446 -0.1553948 -0.0731826 0.10564203 -0.02433218 -0.05684924
0.1189764 -0.022082366 0.003134767 -0.013923365 -0.12087491 0.21107747 -0.02342087 -0.001963839
0.21624152 0.06833188 -0.017628184 -0.10286459 -0.13253102 -0.1333705 -0.058578227 0.20649344
0.13573174 -0.18004239 -0.022794934 0.2044237 0.09333293 -0.20269616 -0.0658346 0.19407427
-0.14715411 -0.16730243 0.07130538 -0.12402418 0.104099765 0.19769874 -0.075866275 0.028877258
-0.20858027 -0.12360324 -0.1952265 -0.092139855 0.17360045 0.14167608 0.110193335 0.055500314
-0.0771738 -0.115143426 0.0072340965 0.19623883 -0.17020498 0.013650373 0.2144716 -0.20451513
-0.20110792 -0.16772951 0.20446579 0.03778857 0.10512589 -0.16533336 -0.053548872 0.07666035
-0.20193656 0.14519258 0.14357547 -0.16770737 0.034318328 -0.010593963 0.13790165 -0.07713474
-0.05702053 -0.022358254 0.14718546 0.14320931 -0.20788172 -0.06914744 0.16179003 -0.012000054
-0.08561638 -0.036702074 0.17627479 0.20727761 -0.2156449 -0.0957517 -0.19192481 -0.106173046
0.033269133 -0.19815189 0.21130279 -0.053404905 -0.09399726 -0.08725281 -0.03732863 -0.13566262
-0.057229005 -0.005147778 -0.10802382 0.04104282 -0.14429565 0.20736265 -0.04193905 -0.14834003
-0.08353863 0.016248226 0.08398156 0.17182513 0.089541204 0.0090302965 -0.21793522 -0.01780098
0.20994103 -0.13795178 -0.17114733 0.1929773 0.00027056038 0.064166 0.06056656 -0.046328746

layers.0.weight f4 [128, 128]
00000000: a6ff 633d bb3f 5abd 5fb3 cabc 8076 343d
00000010: b02a 133d 426a 44bd d201 d1bc c681 2dbc
00000020: 31ea 5f3c 2ca3 82bd b45e a93d b7c5 febc
00000030: 20fa 4dbd 4153 9dbd 4309 173d 5e89 573c
00000040: 1a4d 83bd eb07 4fbd 9f64 973d 7857 0dbd
00000050: c068 53bd 815b 943d 3d24 abbd f5fb 923d
00000060: d325 8d3c f79d 88bc 64aa ff3b 6205 8d3c
00000070: 05ee 3c3d 6893 33bd d12a 873d 8382 8f3d
00000080: 5fbb aabd 6f0d 5b3d 908c 133d eee5 bbbb
00000090: 4deb fc3b 845e 03bd a3ce 91bd 8471 59bd
000000a0: a2b8 abbd 937e 8b3d 0113 7a3d a092 a2bd
000000b0: 9866 ea3c cdeb bd3c c65d a53a 8633 36bd
000000c0: d501 47bd 4377 803d c83d d4bc 700b 6cbc
000000d0: 1df3 8a3d 7482 83bd d776 0c3d bc00 d73c
000000e0: 38fa e1bc da50 573d 333b c43c 8022 a9bd
000000f0: 3e5b 92bc 557a 12bd 4836 753c d899 4e3d
00000100: a303 973d f0e4 713d 1634 abbd 674f 833d
00000110: 9ebe 76bd b7d2 61bd 76c3 9bbd 3d65 e03c
00000120: 9f2e 843d 28bd 8ebc 0f84 943c 8de5 83bc
00000130: 3e90 1c3c 9951 dbbb c058 a73d d6f6 83bd
00000140: c688 9abd 1a38 5a3d df7e 893d a341 0dbd
00000150: 0eaf 8fbd b811 723d ad06 743d 95b7 dd3c
00000160: c6e8 2ebd ba59 9c3d ff6a 953d 3e39 b63c
00000170: f856 a2bd 9f62 8b3d 321b 953d 974e 053c
00000180: d3c3 953c f581 ca3c 6600 ab3d 26c9 47bd
00000190: 2dd7 073d 547f 723c 083b 68bd 9277 2ebd
000001a0: 5589 8d3c 4f0b ab3d 3c5f 783d 0d37 653d
000001b0: be0b f1bb 0e40 183c 5a58 5c3d 47f9 70bd
000001c0: 4c89 f839 4773 2abd 1b8b 8bbd ec8d a23d
000001d0: a99e a73c 1ca2 aebd af46 7cbd 1372 8c3a
000001e0: 8f83 4a3a d6dc b33d c314 903d 2949 243d
000001f0: 2482 2cbd a0c5 8c3d 1f2f 95bd 058d 9cbd
00000200: 57d0 98bc 13b5 bd3b 2ab5 b03d e3bc afbd
00000210: 5176 71bd d80a 343d 2705 883c 7834 2b3d
00000220: 5125 503d 9370 84bc 98d1 4fbd 54c6 b1bd
00000230: 7151 9cbc 9578 96bd 0385 473d 99dc 9abd
00000240: 030f 333d bbe9 613d ecac a53a 0f42 a9ba
00000250: 794a 7a3d 8b1b aebd 6d6b 723c b15c f0ba
00000260: a90d 6dbc b797 823d 9120 4c3d 4f6c 95bd
00000270: 5bbd 013c ec80 5fbd 94f0 263d 9c37 54bc
00000280: c7ce a2bb 6e22 53bc 965e 2b3c 36ca 433d
00000290: ebff a13d 9164 d43c 6e50 533d 06c9 163d
000002a0: de9d 31bd d89f 233d f8f3 733d f0ca b93c
000002b0: 767f 4d3c 3945 a9bc c541 4e3c 516f 073d
000002c0: fb69 dfbb 9a1d 99bd b5da 0fbc 7556 9a3d
000002d0: 8b6e 1d3d 6f7c 573d 6d93 7abd 0406 893c
000002e0: e831 76bd d1bb 24bc 8733 82bb 19ed 7abd
000002f0: ace2 493d 7f8c d7bc 44f8 c1bb 14a5 3abd
00000300: 4236 103d c058 66bd 152d a93d 092d 483c
00000310: 0699 debc 0ff8 9b3c 0f18 ae3d 7b85 523d
00000320: f5fd bdbc b167 6e3d c0bb 8dbd b519 543c
00000330: f7d8 93bd 96cd 163d 3707 133c e41a 87bd
00000340: 734e 62bd 1b10 ad3d 4de9 26bc db75 0e3d
00000350: af04 163d 2fd5 f63c ca57 ae3d 10bc a3bb
00000360: 30c3 a33d 86a1 b9bc 5e29 e73c 7b43 39bb
00000370: d28d 25bd 94eb af3d be30 8f3d c769 713c
00000380: 7f4e 393d 5397 33bb 5c29 bc3c 85d5 8d3b
00000390: 32ba 613c 14ed b33d f0d5 8b3c 0684 d8bc
000003a0: 468e 383d 2678 81bd 3321 6c3d 7ec9 a9bc
000003b0: 1cd3 283d bff8 703d 6733 a5bb 7501 0e3d
000003c0: e8d8 883d d0f3 b13c 155a 3fbb ce0d 5fbd
000003d0: 9acf d53c 6aa3 c33c 2ec0 7f3d 1bd3 f5bc
000003e0: 7932 ad3d 9a88 a5bc ff79 a0bc c3e5 8ebd
000003f0: 8113 713d 6a9c 85bc 611f 76bc a890 48bd
0.055663727 -0.053283434 -0.024743734 0.044058323 0.03592938 -0.047952898 -0.025513563 -0.010590022
0.013666675 -0.06378779 0.08270016 -0.031100137 -0.050287366 -0.07681895 0.036874067 0.0131553095
-0.0641119 -0.05054466 0.07392239 -0.034507245 -0.05161357 0.072440155 -0.08356521 0.07176963
0.01722995 -0.016676886 0.0078022946 0.01721448 0.04612543 -0.04384175 0.065999635 0.07007315
-0.083365194 0.05347961 0.036022723 -0.005734197 0.0077184797 -0.03207256 -0.07119491 -0.053086773
-0.08384825 0.068112515 0.06105328 -0.07938123 0.028613374 0.023183728 0.0012616448 -0.04448273
-0.04858573 0.06272747 -0.025908366 -0.014407024 0.067846514 -0.06421366 0.034293022 0.026245467
-0.027585134 0.05256734 0.02395401 -0.082585335 -0.017865773 -0.035761196 0.014966555 0.050439686
0.073737405 0.059056222 -0.08359544 0.06411629 -0.06024038 -0.055132594 -0.076056406 0.027392024
0.06454205 -0.017424181 0.018129377 -0.01610067 0.009555874 -0.006693077 0.081712246 -0.064435646
-0.07545619 0.05327616 0.06713652 -0.034486424 -0.07015811 0.05909893 0.05957668 0.027065078
-0.04270246 0.076343015 0.072957985 0.022244092 -0.07926744 0.0680592 0.07280578 0.008136413
0.018281853 0.024720171 0.08349685 -0.048775814 0.033164192 0.014800865 -0.05669692 -0.0425945
0.0172774 0.08351766 0.060637698 0.055960704 -0.007356136 0.009292616 0.053795196 -0.05883148
0.0004740454 -0.041613843 -0.06813642 0.07937226 0.020461397 -0.08527014 -0.061590847 0.0010715149
0.0007725292 0.087823555 0.0703521 0.040108833 -0.0421163 0.068736315 -0.07284378 -0.07644085
-0.018654032 0.005789408 0.08628304 -0.08580949 -0.058950726 0.043955654 0.01660402 0.041798085
0.050816838 -0.01616696 -0.050736994 -0.08680406 -0.019081803 -0.07347218 0.048710834 -0.07561607
0.04371549 0.055154543 0.0012640036 -0.0012913364 0.06110618 -0.08501347 0.01479612 -0.0018338171
-0.014468589 0.063765936 0.049835745 -0.07296049 0.007918681 -0.05456631 0.040756777 -0.012952711
-0.0049684974 -0.012886627 0.010459563 0.047800265 0.079101406 0.02592686 0.051590376 0.036812805
-0.043363445 0.03994736 0.05955884 0.022679776 0.012542596 -0.02066289 0.012588923 0.033065144
-0.006818054 -0.07476349 -0.008780171 0.075360216 0.0384355 0.052608903 -0.061175752 0.016726501
-0.060106188 -0.010054545 -0.0039734277 -0.06126127 0.049288437 -0.026312111 -0.005919488 -0.045567587
0.035207994 -0.056236982 0.08260552 0.0122177685 -0.027172577 0.019039182 0.085006826 0.05139683
-0.023192385 0.058204357 -0.06920576 0.012945582 -0.07219117 0.036817156 0.008973888 -0.06596926
-0.055250596 0.084503375 -0.010187459 0.034780364 0.03662556 0.03013095 0.08512838 -0.004996784
0.079962134 -0.022660028 0.028217968 -0.0028268981 -0.040418454 0.08589855 0.06991719 0.014734692
0.045240875 -0.0027403429 0.02296894 0.004328432 0.013777303 0.087854534 0.017069787 -0.026430141
0.045057558 -0.063217446 0.05764885 -0.020725962 0.041216955 0.058830973 -0.005041528 0.03466936
0.066819966 0.021722704 -0.002919798 -0.054456525 0.026099969 0.023881633 0.062439136 -0.03000789
0.084568925 -0.020206738 -0.019589422 -0.06977417 0.05885649 -0.016309936 -0.01502213 -0.04896608

layers.0.bias f4 [128]
00000000: 21f3 94bd 5680 933d e66c 0a3d 164d 00bd
00000010: be36 9d3d 4a67 2d3c 881e ed3c 701d a1bb
00000020: b230 6b3d 00c0 c5b8 0b66 a13d e7b8 913d
00000030: 59a6 a9bd 3cb7 92bc b705 563d f7a9 79bd
00000040: 2b93 55bd d5cb a7bd d5c6 493c 126a 933c
00000050: ea27 2dbd 26b1 6a3d 265d 5a3d 2ddf 1fbd
00000060: e8ae 1cbc 187a 1f3c de4f 2ebd 69e5 6f3c
00000070: 2b69 aa3d 5bcf 6abd d9c9 51bc 4333 1a3b
00000080: 852b ad3c 32bc 183d 326d 1cbc 1c17 99bd
00000090: f85a 3abd e4f3 123d a66e 19bd 8aee d2bc
000000a0: 166c 7cbd 974c 0a3b fe44 9c3d f308 f53c
000000b0: 03cb 8f3d ec2f 49bd b208 113d 553d 1ebd
000000c0: e4e9 81bc d1db e6bc 561c 2dbd 9d17 6bbd
000000d0: fc9c dbbc ff63 393c 5ed8 3cbd 518a e73c
000000e0: 25c6 c33c b44d a23c b005 963c 837d a7bc
000000f0: c085 19bb 0069 1b3b 9ee8 bfbc 977c a23c
00000100: 6ea2 9f3c 8c87 d2bc ec59 5a3d 3b6b 813d
00000110: 47a8 ee3c 6186 a23d 8570 b1bd f711 89bd
00000120: 4a84 463d 54e5 d1bc 2193 a63c 69e6 23bd
00000130: e064 7c3d c204 85bd 20bd b03c ea1d 843d
00000140: 790c 883d 0bfd 873d bc67 f63c 6759 9f3d
00000150: a14e 87bc 7250 293d 7e5f b2bd 9da4 73bd
00000160: 909a 6dbd bc77 433d 4f3d 513d 20d6 a43c
00000170: 5f0d 45bc 7494 c6bc 86cf e53c d6d9 643d
00000180: db05 85bd cd77 02bd f41b a0bd 8a68 1d3b
00000190: 96f8 adbd 4ed7 b9bc 0452 96bc db01 b43d
000001a0: c075 8bbd fc14 95bd 5314 153d 4614 1e3d
000001b0: deb7 52bc f049 51bd 076e 8f3d 4528 89bd
000001c0: d0b4 28bc a26a b0bd 1686 eabc b894 0ebd
000001d0: 3ef0 0f3b 65c4 8f3d 475e 7dbd 61bc 02bd
000001e0: 3fb7 943d fba6 08bd 444b a9bc fc49 8f3d
000001f0: 47aa b2bd b196 fcba 5c3e df3c 272c 093d
-0.07272936 0.072022125 0.03379526 -0.031323515 0.07676457 0.010583708 0.028945222 -0.0049168393
0.057419486 -9.429455e-05 0.07880791 0.071153454 -0.082836814 -0.017909639 0.052251544 -0.060953107
-0.052142303 -0.08193175 0.012315472 0.017994914 -0.042274393 0.05729785 0.05331149 -0.039031196
-0.009563185 0.009733699 -0.042556636 0.014642098 0.083208404 -0.057326656 -0.012804472 0.002352909
0.021138916 0.037288852 -0.009547519 -0.07475111 -0.04549691 0.035877123 -0.03745904 -0.02574851
-0.061626516 0.002110278 0.07630347 0.029911494 0.07021143 -0.049117967 0.035408683 -0.03863271
-0.015858598 -0.028180989 -0.04226335 -0.057395566 -0.026808254 0.011315345 -0.04610478 0.028264197
0.023898194 0.019812442 0.018313259 -0.02044559 -0.0023425668 0.0023713708 -0.02342635 0.0198348
0.019486632 -0.0256994 0.053308412 0.06319281 0.029132975 0.07935787 -0.086640395 -0.0669288
0.048466004 -0.025622047 0.020333828 -0.040014658 0.06161964 -0.06495048 0.021574557 0.06451018
0.06643004 0.06640061 0.030078761 0.07780724 -0.016516985 0.041336484 -0.0870962 -0.05948316
-0.05800873 0.04772161 0.05108386 0.020121634 -0.012027114 -0.02424071 0.028053056 0.055871807
-0.064952575 -0.031852532 -0.07817832 0.002401861 -0.0849468 -0.022685673 -0.018349655 0.087894164
-0.068095684 -0.07279393 0.036396336 0.038593553 -0.01286122 -0.051095903 0.07003408 -0.06697134
-0.010297015 -0.086140886 -0.02862839 -0.034809798 0.0021963264 0.07019881 -0.061857488 -0.031917933
0.07261514 -0.03336237 -0.020665772 0.06996533 -0.08723884 -0.0019270984 0.027251415 0.033489373

layers.1.weight f4 [128, 128]
00000000: abbd 943c 805b 053d ac17 1ebd a3c5 e6bc
00000010: 3a3b 823d d9c1 3c3d 792f 973d cddb 18bd
00000020: 5c09 743d b2fd 4ebd 5914 9fbd 6dd9 8235
00000030: 289c 823d 310a 9cbc dd3c 2cbc 4fd8 85bd
00000040: 0635 32ba 4f44 9bbb 978f 983c afca 3f3c
00000050: 703b a1bd a422 63bd 1af7 7dbd f343 a43d
00000060: b887 33bd 00b2 20bd 6b2f dd3c 6a83 943d
00000070: 4d55 5cbd 87dc 93bd df67 73bd e1d1 4ebd
00000080: 617d 96bd e343 8b3d 90e6 38bb a5dd a63d
00000090: 2900 9dbd dd6c c5bc 4d6d 733d 1d34 43bc
000000a0: d486 e4bc 80a0 1fbd 913e 123d 807c 9f3d
000000b0: 5e1f 32bd ca46 663c 487a 11bc d3eb 023b
000000c0: da80 693d 8133 993d ca2e f3bc 9966 c33c
000000d0: 7eb6 3c3c 8ed3 80bd 975f 39bd 667d 133d
000000e0: 0949 77bd f0f2 72bd a998 b43d a498 75bd
000000f0: 1152 92bd aa94 5ebd 6345 52bd 954f 43bb
00000100: 058a d13c 8f40 05bd 679b 0a3d d087 073d
00000110: 7e34 45bd d3b1 193c 596a 9a3d 7125 183d
00000120: 1616 92bc 9677 2d3d ab98 8e3d 255d 6ebd
00000130: 90a0 723d 85cd b1bd a2ba b53c c0d7 14bc
00000140: a526 14bd 79f6 a73a 5bd9 913d dffe 9ebd
00000150: 19f7 9d3c 1d39 6dbd da04 5a3d b008 063d
00000160: 298f 113d 0fad f6bc b2ba e53b 8a24 ab3d
00000170: e6c2 6f3d 89e9 33bd 33a5 773d 9328 1b3d
00000180: 0ba0 ab3c f4a1 65bd ed8c b7bc 3afa 69bd
00000190: 13f4 88bc 039d a4bd 476b bdbc 90e8 39bc
000001a0: 316a d0bc a221 95bb 54f8 33bd b9aa 213d
000001b0: 5366 c53c 71e9 9a3b a59f 66bd e351 6c3c
000001c0: b8ed 12bd bc29 c83b 949e 2c3c fbb5 823d
000001d0: 69ac 853d 46cf 24bc 4594 023d 9f9a 113c
000001e0: d897 14bd 9101 2cbd a150 a6bc b1a1 8ebd
000001f0: 75a1 963d 36c7 353d a225 18bd adf9 a63d
00000200: 3c83 983c 858f 33bd e5e5 a53d 00ea f73a
00000210: 2232 0e3d 2b07 7dbd c807 d13c 7654 993d
00000220: 5994 a1bd b476 983c 601b 7a3c 5bf3 93bd
00000230: eade 223d 3dd2 a0bd b6d0 b1bd 321b 5e3d
00000240: 76e9 173d c06f 77bd 16e4 1c3d 0871 783c
00000250: b099 0f3d d810 36bc f6ee 3a3d 589c 73bc
00000260: c072 b2bd 9506 8e3d c231 443d 5292 173d
00000270: 0234 6e3d 7ff4 94bd b6ae 8cbd 04fd a33c
00000280: f519 c2bc 50ab e9bc 91bd 97bd 7f6b 923d
00000290: f63d 3e3d 6907 a8bd e019 c93c a2c9 4c3d
000002a0: be28 1fbd 556d 18bd 2d99 933d 965d 87bd
000002b0: 0254 27bd a0b5 843b 3f1c 47bd 5806 22bc
000002c0: 3cf2 10bd af5f 913d ace1 a83c 06b9 58bd
000002d0: d298 7c3d 01ce c0bc e27b 1b3d 8cea ffbc
000002e0: 6a73 343d a79e aa3d 8044 b23b 3b7e 2abd
000002f0: 12df 37bd c297 4dbd 2c51 acbc 7011 bebc
00000300: 3caa 9c3c 9cf0 e83c 7389 4e3d f3e6 8d3d
00000310: d07b f93c 31cf 48bd 1288 60bd 26d2 733d
00000320: 6926 afbc 3695 443d 5ab5 793d 2726 ab3d
00000330: b615 8fbd 502e ef3b cb71 a1bd 1fd8 823d
00000340: f084 383d 004f 063d 0749 a13d 94bf bfbc
00000350: 3758 8e3d a1e4 713d e097 dabc 80c4 fa3a
00000360: 08d2 0f3c a24f 6a3d 100e b7bc 7d8b 8cbd
00000370: 19eb acbd e8e9 81bc a035 b23b 8e11 88bd
00000380: e1fc 61bd 28c1 0f3c 5b54 873d 1073 7abd
00000390: a037 4fbb d202 02bd 2047 043d 9806 4abd
000003a0: 9608 e5bc a9fd b33d 3042 2fbc 2ce6 853c
000003b0: 0bdd a33d 1631 74bd c02a adba 248e 6bbd
000003c0: 10a9 a5bc ba56 483d e857 de3c aa1c 743d
000003d0: 5e89 8dbd 7c1f bebc eeee b43d 8ee5 1a3d
000003e0: 9e12 523d f4e9 a9bd ba14 33bd 42be 503d
000003f0: 93c3 abbd 003a a6bc ae3f 6abd 2ad8 7e3d
0.018156847 0.032557964 -0.038596794 -0.028170412 0.06358953 0.046083305 0.073821016 -0.037318993
0.05957924 -0.05053491 -0.07767553 9.749034e-07 0.06377441 -0.019047828 -0.010512558 -0.06535398
-0.0006798062 -0.0047383676 0.018623156 0.011706038 -0.07872665 -0.055452958 -0.062003233 0.08020773
-0.043830603 -0.039232254 0.02700015 0.07251628 -0.053792287 -0.07219797 -0.05942523 -0.050493125
-0.07348133 0.06800058 -0.0028213598 0.08147744 -0.07666046 -0.024099762 0.05943041 -0.01191428
-0.027896322 -0.038971424 0.0357042 0.07787418 -0.043486945 0.014054963 -0.008879252 0.0019976988
0.057007648 0.07480527 -0.029685397 0.023852633 0.011518119 -0.06290351 -0.045257177 0.03600826
-0.060372386 -0.059313715 0.0881818 -0.059960023 -0.07144559 -0.054340996 -0.051335704 -0.0029802073
0.025578508 -0.03253227 0.03383961 0.033088505 -0.048145764 0.0093807755 0.075398155 0.037145082
-0.017832797 0.042350374 0.06962713 -0.0581943 0.059235156 -0.08681778 0.02218372 -0.009084642
-0.036169667 0.0012814543 0.071215354 -0.077634566 0.019282864 -0.057915796 0.053227283 0.03272313
0.03553692 -0.030111818 0.007010781 0.08356579 0.05853548 -0.04392389 0.06046028 0.03788049
0.020950338 -0.056062654 -0.022406066 -0.0571234 -0.016717946 -0.0803776 -0.023122443 -0.011346951
-0.025441261 -0.0045511285 -0.043937996 0.039469454 0.024096644 0.0047275354 -0.056304593 0.01442382
-0.035871238 0.0061084908 0.010535855 0.06382366 0.06527025 -0.010059183 0.031879682 0.008886962
-0.036277622 -0.04199368 -0.020302119 -0.06964434 0.07355014 0.044379435 -0.037145264 0.081530906
0.018617265 -0.043838043 0.081004895 0.0018914342 0.03471578 -0.061774414 0.025516406 0.07486813
-0.07889623 0.01861129 0.015265316 -0.07224151 0.03976337 -0.078526 -0.086823866 0.054225154
0.03708788 -0.060409307 0.038303457 0.0151636675 0.035058677 -0.011112414 0.045638047 -0.014868818
-0.08713293 0.06934849 0.047899015 0.037004776 0.058155067 -0.072731964 -0.06869261 0.020018108
-0.023694018 -0.028524071 -0.07409204 0.071494095 0.04644581 -0.082045384 0.024548471 0.04999698
-0.038857214 -0.037213642 0.0720695 -0.06609647 -0.0408516 0.0040499717 -0.048610922 -0.009889208
-0.035387263 0.07098328 0.020615421 -0.052910827 0.06166918 -0.02353573 0.03795994 -0.03123977
0.04405538 0.08331042 0.0054402947 -0.04162429 -0.04489047 -0.050193556 -0.0210348 -0.023201674
0.019124143 0.028435044 0.05042405 0.06928816 0.030454546 -0.049025718 -0.054817267 0.059526585
-0.02138062 0.04799386 0.060963966 0.08356886 -0.06986563 0.007299222 -0.078830324 0.06388878
0.045048654 0.032790184 0.07875257 -0.023406781 0.069504194 0.05905593 -0.026683748 0.0019132048
0.008778103 0.05720485 -0.022345573 -0.06862543 -0.08443279 -0.015858606 0.0054385215 -0.06643973
-0.055172805 0.008774079 0.066078864 -0.06114489 -0.0031618848 -0.03174097 0.032294393 -0.049322695
-0.027958196 0.08788616 -0.010696933 0.016345106 0.08001145 -0.059617124 -0.0013211593 -0.057508603
-0.020222217 0.048910834 0.027141526 0.05959765 -0.06910966 -0.023208372 0.08834635 0.037816577
0.051287286 -0.08296576 -0.04372094 0.050962694 -0.08386912 -0.020291328 -0.057189636 0.06221787

layers.1.bias f4 [128]
00000000: d9d7 dcbc 7236 363d a29e 8fbd df29 88bd
00000010: c64c 583d 06d6 39bd f335 623b 1c97 573c
00000020: ce46 e5bc 90b0 673c b0a9 103c 6faa 983d
00000030: 355b a03d 4546 003d 5ab7 ff3c 592c 913d
00000040: 493a 963c 8f5d 963b 1a84 fdbc 71bd abbd
00000050: 6fdc 6c3d 3c04 063d 7312 923d d1d3 323d
00000060: 04c2 9dbd fe13 1e3d 4c27 b23d 362e 69bd
00000070: e75f 9dbb 463c 893d 954e 8b3a c516 67bb
00000080: d5c7 063d cb69 9cbd 0178 b13d 8ac7 0e3d
00000090: 9bb5 cdbc ff57 aebd 0466 06bd 446f 53bc
000000a0: 6050 06bd 1508 3abd 10b0 71bd c379 3c3a
000000b0: 3eb7 9e3d 1629 6dbb e663 e9bc 7e92 dc3c
000000c0: 561f 9c3d f816 9ebd b30e 553d 78b2 b33c
000000d0: e30a 1dbd 916f b33d e5a0 96bd f7a2 a03d
000000e0: 2f71 acbd e7a8 9dbd b80b 83bb a6dc 073d
000000f0: bc0a 893d 1c12 af3d 0b90 953d 1823 433c
00000100: 2094 4f3d 4bc7 283c 703e ab3d 25a9 763d
00000110: 02a0 82bd 1c00 f4bc ccf4 4ebd f855 213d
00000120: fe66 0fbd bd94 65bd aefb 483d c7b0 15bd
00000130: 8401 75bc a857 b1bd 83fd 863d 1a19 853d
00000140: 4c3d c93c 55a2 993d a394 c93a 2392 8a3c
00000150: bf45 9f3d 6229 58bd cb72 713d 07f2 95bd
00000160: 41d6 3a3d 52d0 963d 6ccb 813d 01e2 1fbd
00000170: 34d0 973c ae24 c03c 4e82 82bd 045f 32bd
00000180: e14a aeb9 b2fc a43c fd64 24bd 5fca 8e3d
00000190: e122 923c 401a a03d 51a6 913d 3054 343c
000001a0: 9c3b 54bd a255 603d 06de 8a3d 7eef 723d
000001b0: e0a5 a0bd 2bf6 c6bc d62e d9bc 9eca 10bd
000001c0: 0559 83bd 20db 0abb a200 91bd 691a 6d3d
000001d0: c469 853d e29d 68bb de8c 823d c1df 7b3d
000001e0: 3889 0c3d 77fe b1bc 2deb 123d 7757 8abd
000001f0: de9a 99bd 9a66 34bd 0c4a ac3c 382e 903c
-0.026958393 0.044485517 -0.07012679 -0.06648611 0.05280759 -0.045370124 0.003451702 0.013158586
-0.027987864 0.014141217 0.008829519 0.07454383 0.07829896 0.031317014 0.031215359 0.07088537
0.01833834 0.00458879 -0.03094678 -0.083857425 0.05782741 0.032718882 0.07132425 0.043659035
-0.07703021 0.038593285 0.086989015 -0.056928836 -0.004802692 0.06700949 0.0010628278 -0.0035261374
0.03290542 -0.07637366 0.08665467 0.034858264 -0.02511101 -0.08512878 -0.032812133 -0.012904946
-0.032791495 -0.045417864 -0.059005797 0.0007189775 0.077497944 -0.003618782 -0.028490018 0.026925322
0.07623164 -0.07719225 0.05201597 0.021935686 -0.03834046 0.08761514 -0.07354907 0.07843583
-0.084200256 -0.07698231 -0.0039991997 0.03316941 0.066915005 0.08548376 0.07302865 0.0119102225
0.050678372 0.010301421 0.083615184 0.060219903 -0.06378175 -0.029785208 -0.050526425 0.039388627
-0.03501033 -0.05605005 0.049068145 -0.03654554 -0.014953975 -0.08659297 0.06591322 0.06498928
0.024565361 0.075016655 0.001537938 0.016915387 0.07776975 -0.05277384 0.058947366 -0.07321554
0.045614485 0.07363953 0.06337628 -0.039033893 0.018531896 0.02345499 -0.0637251 -0.043547645
-0.00033243655 0.020140026 -0.040135372 0.06972193 0.017838897 0.07817507 0.071118005 0.0110064
-0.05181466 0.054769166 0.06780629 0.05931043 -0.07844138 -0.024287304 -0.02651159 -0.03534948
-0.064134635 -0.0021187738 -0.07080199 0.057886515 0.06514314 -0.0035494496 0.063745245 0.061492685
0.03431055 -0.021727784 0.035868812 -0.06754964 -0.07500242 -0.04404316 0.021031402 0.017600164

norms.0.weight f4 [128]
00000000: 8b00 803f 2f01 803f fffc 7f3f c801 803f
00000010: bfff 7f3f caff 7f3f 0701 803f d1fd 7f3f
00000020: 7afd 7f3f 29fc 7f3f 9000 803f 0401 803f
00000030: 7801 803f da00 803f 11fe 7f3f e001 803f
00000040: f4ff 7f3f 30fd 7f3f 8400 803f 63fd 7f3f
00000050: 85fd 7f3f e400 803f b200 803f f9fb 7f3f
00000060: 85fc 7f3f 2c00 803f 0402 803f cb01 803f
00000070: 7701 803f cc00 803f d0fb 7f3f 3efe 7f3f
00000080: e9fc 7f3f 3402 803f 24fc 7f3f 66fe 7f3f
00000090: 47fe 7f3f 4e01 803f a600 803f c2ff 7f3f
000000a0: 5401 803f 6cfc 7f3f 4601 803f f1fe 7f3f
000000b0: 2b00 803f 4b01 803f f1ff 7f3f 0202 803f
000000c0: d1ff 7f3f 42fe 7f3f cbff 7f3f 1002 803f
000000d0: 4fff 7f3f 8bfe 7f3f 1aff 7f3f feff 7f3f
000000e0: 2401 803f ca01 803f 8a01 803f fd00 803f
000000f0: 6500 803f 4afe 7f3f 43ff 7f3f 8b00 803f
00000100: 5800 803f da00 803f 3600 803f ceff 7f3f
00000110: dd00 803f 0b01 803f d200 803f be00 803f
00000120: 6f00 803f f301 803f 45ff 7f3f a401 803f
00000130: 59fc 7f3f 67fd 7f3f 3ffe 7f3f a7fc 7f3f
00000140: d3fb 7f3f 9fff 7f3f 67ff 7f3f b001 803f
00000150: 8cff 7f3f abfe 7f3f 1200 803f 89ff 7f3f
00000160: 5f01 803f bf01 803f 3501 803f 1901 803f
00000170: faff 7f3f 6f00 803f bcfb 7f3f acff 7f3f
00000180: 6efd 7f3f 3bfc 7f3f 4c00 803f 6200 803f
00000190: 0702 803f 3002 803f 0801 803f 19fe 7f3f
000001a0: ecff 7f3f dcfc 7f3f fffb 7f3f 2200 803f
000001b0: ac00 803f 70fe 7f3f fdff 7f3f 57fc 7f3f
000001c0: 26fd 7f3f 5301 803f 5dfc 7f3f e0ff 7f3f
000001d0: 6100 803f 0301 803f 58ff 7f3f 7601 803f
000001e0: c3fc 7f3f 9600 803f d800 803f 0002 803f
000001f0: edfe 7f3f c700 803f e2fe 7f3f 0d01 803f
1.0000166 1.0000361 0.99995416 1.0000544 0.9999961 0.9999968 1.0000314 0.9999667
0.9999615 0.9999414 1.0000172 1.000031 1.0000448 1.000026 0.9999705 1.0000572
0.9999993 0.9999571 1.0000157 0.9999601 0.99996215 1.0000272 1.0000212 0.99993855
0.9999469 1.0000052 1.0000615 1.0000547 1.0000447 1.0000243 0.9999361 0.9999732
0.99995285 1.0000672 0.9999411 0.99997556 0.9999737 1.0000398 1.0000198 0.9999963
1.0000405 0.9999454 1.0000389 0.99998385 1.0000051 1.0000395 0.9999991 1.0000613
0.9999972 0.9999734 0.99999684 1.000063 0.99998945 0.99997777 0.9999863 0.9999999
1.0000348 1.0000546 1.000047 1.0000302 1.000012 0.9999739 0.99998873 1.0000166
1.0000105 1.000026 1.0000064 0.999997 1.0000263 1.0000318 1.000025 1.0000226
1.0000132 1.0000595 0.99998885 1.0000501 0.99994427 0.99996036 0.99997324 0.9999489
0.9999363 0.9999942 0.9999909 1.0000515 0.9999931 0.9999797 1.0000021 0.9999929
1.0000418 1.0000533 1.0000368 1.0000335 0.99999964 1.0000132 0.9999349 0.999995
0.9999608 0.9999425 1.0000091 1.0000117 1.0000619 1.0000668 1.0000315 0.999971
0.9999988 0.9999521 0.9999389 1.000004 1.0000205 0.99997616 0.9999998 0.99994415
0.9999565 1.0000404 0.9999445 0.9999981 1.0000116 1.0000309 0.99999 1.0000446
0.9999506 1.0000179 1.0000257 1.000061 0.9999836 1.0000237 0.99998295 1.0000321

norms.0.bias f4 [128]
00000000: 735e 85b7 7457 1538 dce8 4eb8 32e4 5db8
00000010: 718a 9936 f696 5e36 b480 6638 3f3d 29b8
00000020: 2255 2338 88d7 75b8 2cf3 88b7 c7e9 fcb7
00000030: c0f4 38b8 aabd e037 ea81 f737 2d43 6a38
00000040: f513 8a35 489d 2538 b666 a336 9885 2838
00000050: 8810 1f38 2dcc dab7 59d9 aab7 4f18 8238
00000060: 1804 6038 1812 6a35 3c32 7538 6b39 5f38
00000070: 47eb 46b7 18d9 1ab8 f533 86b8 ca96 e437
00000080: adb9 4638 ced6 8bb8 7175 7a38 ddb9 cdb7
00000090: 1e30 fab7 12f4 5738 5d4d a1b7 2e33 60b6
000000a0: 93c3 2bb8 de52 6bb8 e9e9 1fb8 5944 81b7
000000b0: 2601 28b5 d825 2438 ecfe 3ab5 15a6 7eb8
000000c0: c590 90b6 cae2 40b7 24da 6f36 1408 83b8
000000d0: d5cd 8bb7 f477 3838 31f4 6937 2b0d 4235
000000e0: c6d1 0eb8 1dbf 61b8 7e9b 41b8 0d61 ec37
000000f0: b242 32b7 cf11 d937 db9a 4137 479e 6f37
00000100: 5250 20b7 756f e1b7 dc15 66b7 56a2 9db5
00000110: b2d7 d1b7 11c8 cfb7 1547 cab7 9951 b0b7
00000120: c933 0137 c407 77b8 1efc 7437 0965 4538
00000130: 59fb 5e38 cfdd 2ab8 8e74 f6b7 af58 5838
00000140: a481 8638 1cba ca36 f014 81b7 bb38 56b8
00000150: 52ab 07b8 f145 b1b7 3eaf 9435 af30 0237
00000160: 1e71 2bb8 bc1b 3838 2e95 1cb8 f467 fb37
00000170: 9cdf d235 eaae 59b8 0562 8938 5b00 0437
00000180: 5c96 2538 027f 7238 05f6 7137 cd5d 38b7
00000190: 966d 85b8 f612 8bb8 ea76 00b8 5c23 f537
000001a0: be21 38b6 7c8f 0738 0960 8738 6fb4 66b6
000001b0: 717b afb7 3898 c9b7 df3f 9035 0870 6b38
000001c0: d30a 3cb8 a1e8 27b8 1eba 6938 0d5c 0f36
000001d0: 62a2 34b7 2514 f737 f079 7038 daa2 39b8
000001e0: 6d89 2d38 fef7 b4b7 a75c d6b7 c6dd 6338
000001f0: 2be4 8937 48a0 f137 e08b 9837 d00b 09b8
-1.5898817e-05 3.5605815e-05 -4.9331094e-05 -5.290303e-05 4.575872e-06 3.3168449e-06 5.4956137e-05 -4.034978e-05
3.8941515e-05 -5.861328e-05 -1.63257e-05 -3.0149602e-05 -4.409696e-05 2.67912e-05 2.950519e-05 5.585251e-05
1.028761e-06 3.9485545e-05 4.8697357e-06 4.017874e-05 3.792395e-05 -2.6082702e-05 -2.036679e-05 6.203411e-05
5.3409574e-05 8.7198123e-07 5.8459336e-05 5.3220818e-05 -1.1856499e-05 -3.6918645e-05 -6.399296e-05 2.7249935e-05
4.7379803e-05 -6.668047e-05 5.971402e-05 -2.4524454e-05 -2.9824729e-05 5.1487303e-05 -1.922872e-05 -3.3408392e-06
-4.095172e-05 -5.6105542e-05 -3.81264e-05 -1.5409825e-05 -6.258655e-07 3.913589e-05 -6.966136e-07 -6.0712995e-05
-4.308388e-06 -1.1496895e-05 3.574075e-06 -6.2480714e-05 -1.666594e-05 4.3980734e-05 1.39447375e-05 7.2289794e-07
-3.4050805e-05 -5.382217e-05 -4.61596e-05 2.8178585e-05 -1.06251555e-05 2.5876709e-05 1.15397515e-05 1.4282362e-05
-9.555444e-06 -2.6873991e-05 -1.3714158e-05 -1.1744658e-06 -2.5015182e-05 -2.4769486e-05 -2.4113377e-05 -2.1018832e-05
7.701056e-06 -5.889662e-05 1.4602234e-05 4.7062556e-05 5.316301e-05 -4.0737734e-05 -2.937976e-05 5.1581006e-05
6.4137654e-05 6.041735e-06 -1.5387748e-05 -5.107441e-05 -3.2346063e-05 -2.1132613e-05 1.1077861e-06 7.759939e-06
-4.0874926e-05 4.389485e-05 -3.7332233e-05 2.9969939e-05 1.5711298e-06 -5.1899733e-05 6.5509266e-05 7.867896e-06
3.94791e-05 5.781558e-05 1.4422e-05 -1.0989094e-05 -6.362346e-05 -6.631568e-05 -3.0628325e-05 2.9222741e-05
-2.7437777e-06 3.232014e-05 6.4551896e-05 -3.4377697e-06 -2.0919108e-05 -2.403195e-05 1.0747425e-06 5.6132703e-05
-4.4832774e-05 -4.0032555e-05 5.5724864e-05 2.136224e-06 -1.0766644e-05 2.9454075e-05 5.7334022e-05 -4.4259104e-05
4.1374402e-05 -2.1573152e-05 -2.5553933e-05 5.432756e-05 1.6437922e-05 2.8804076e-05 1.8184946e-05 -3.2674347e-05

norms.1.weight f4 [128]
00000000: cb00 803f 85fd 7f3f 22fe 7f3f 35fc 7f3f
00000010: 3700 803f 6efe 7f3f c2fe 7f3f 6301 803f
00000020: 8bfd 7f3f 1901 803f dffc 7f3f b800 803f
00000030: 83fe 7f3f fcfc 7f3f a9fd 7f3f 13ff 7f3f
00000040: c7ff 7f3f e7fc 7f3f 8afd 7f3f 44fd 7f3f
00000050: 0101 803f b0ff 7f3f 2a01 803f 4ffe 7f3f
00000060: 21fc 7f3f 30fd 7f3f dd01 803f 93fe 7f3f
00000070: f500 803f be01 803f ed00 803f 3400 803f
00000080: bdfe 7f3f 5b01 803f fefd 7f3f 3a02 803f
00000090: 9efc 7f3f e800 803f bbfe 7f3f 5600 803f
000000a0: 1f02 803f 1702 803f c500 803f 91ff 7f3f
000000b0: b901 803f ebfb 7f3f 4c00 803f c8fc 7f3f
000000c0: 31fe 7f3f 9efc 7f3f 1802 803f 8afd 7f3f
000000d0: 2801 803f 06fe 7f3f 01fe 7f3f 48fc 7f3f
000000e0: 6901 803f ea01 803f 5401 803f 6ffc 7f3f
000000f0: b4fc 7f3f 1f01 803f bf00 803f 14fd 7f3f
00000100: 3100 803f 9fff 7f3f 5b02 803f 8701 803f
00000110: 2400 803f 56fc 7f3f 7100 803f 5c00 803f
00000120: 2001 803f 9001 803f b1fd 7f3f 4401 803f
00000130: c201 803f fcfe 7f3f f5fb 7f3f 4802 803f
00000140: 2cff 7f3f 9401 803f aafd 7f3f 6b01 803f
00000150: 75fc 7f3f 7c01 803f 10fd 7f3f 42fe 7f3f
00000160: 0b02 803f b001 803f 3100 803f aefe 7f3f
00000170: a0ff 7f3f a5fc 7f3f d200 803f cdfe 7f3f
00000180: a7fe 7f3f a201 803f 2502 803f 57ff 7f3f
00000190: 90fe 7f3f a4fd 7f3f c700 803f 2e02 803f
000001a0: 8301 803f 7201 803f c1ff 7f3f e601 803f
000001b0: eaff 7f3f e4fd 7f3f 0f01 803f 09fe 7f3f
000001c0: f001 803f 68fd 7f3f 2bff 7f3f cd00 803f
000001d0: 1d00 803f 3601 803f 9601 803f b6fe 7f3f
000001e0: e800 803f fa01 803f 47fd 7f3f cd00 803f
000001f0: cf00 803f d2fd 7f3f 4bfe 7f3f bcfd 7f3f
1.0000242 0.99996215 0.9999715 0.9999421 1.0000066 0.99997604 0.99998105 1.0000423
0.9999625 1.0000335 0.99995226 1.0000219 0.9999773 0.999954 0.9999643 0.9999859
0.9999966 0.99995273 0.99996245 0.9999583 1.0000306 0.99999523 1.0000355 0.9999742
0.99994093 0.9999571 1.0000569 0.99997824 1.0000292 1.0000532 1.0000283 1.0000062
0.99998075 1.0000414 0.99996936 1.000068 0.9999484 1.0000277 0.9999806 1.0000103
1.0000647 1.0000638 1.0000235 0.9999934 1.0000526 0.9999377 1.0000091 0.9999509
0.9999724 0.9999484 1.0000639 0.99996245 1.0000353 0.99996984 0.99996954 0.99994326
1.000043 1.0000584 1.0000405 0.9999456 0.9999497 1.0000342 1.0000228 0.9999554
1.0000058 0.9999942 1.0000719 1.0000466 1.0000043 0.9999441 1.0000135 1.000011
1.0000343 1.0000477 0.9999648 1.0000386 1.0000536 0.9999845 0.9999383 1.0000696
0.99998736 1.0000482 0.99996436 1.0000433 0.99994594 1.0000453 0.9999552 0.9999734
1.0000623 1.0000515 1.0000058 0.99997985 0.9999943 0.9999488 1.000025 0.9999817
0.99997944 1.0000498 1.0000654 0.9999899 0.99997807 0.999964 1.0000237 1.0000665
1.0000461 1.0000441 0.99999624 1.0000579 0.9999987 0.9999678 1.0000323 0.99997
1.0000591 0.9999604 0.9999873 1.0000244 1.0000035 1.000037 1.0000484 0.99998033
1.0000277 1.0000603 0.99995846 1.0000244 1.0000247 0.99996674 0.99997395 0.9999654

norms.1.bias f4 [128]
00000000: d21e e7b7 d9bb 32b8 b4fe ca37 fc01 7538
00000010: 1a99 7fb7 b1ca dbb7 05fc 9e37 f9ab 32b8
00000020: 021f 2638 7101 0bb8 ae32 34b8 46ba b937
00000030: 5cbd cbb7 35e2 4138 a15d 0738 bf45 5cb7
00000040: 1d03 51b7 b4e2 4a38 411c 1f38 3426 1e38
00000050: 5e21 b437 a4af 8f36 9061 11b8 8544 d437
00000060: 8504 7938 3128 47b8 9d93 6338 7440 edb7
00000070: bc9d ebb7 2dcb 9538 68b6 aab7 3fc8 1637
00000080: 3173 a237 b97b 0538 988d 54b8 a310 89b8
00000090: b8b5 5b38 e7e7 dfb7 28ae 3137 e0c1 6437
000000a0: f1b7 5438 2925 8238 76fe c4b7 1dca 8138
000000b0: e9a6 59b8 1023 8438 08ba 08b7 31a5 7738
000000c0: 17e7 fb37 2828 5a38 3ac2 84b8 edca 2338
000000d0: 366a 0ab8 c8f0 0c38 b8a8 0238 2710 87b8
000000e0: 8029 79b8 644b 74b8 dd1f 26b8 a4be 72b8
000000f0: b6e8 5438 6d34 0eb8 e64d a7b7 55f7 42b8
00000100: 2901 b5b6 0edf 0537 56ed 82b8 57e4 4a38
00000110: d7c5 fcb6 8b9e 76b8 3959 a537 34ab b737
00000120: 5073 0fb8 e6d5 46b8 0b77 1538 688a 1cb8
00000130: 3cc0 5138 3b37 8ab7 398b 8338 0d78 8238
00000140: 3927 7eb7 bbba 47b8 281c 1938 b2fc 2cb8
00000150: 64d5 71b8 0d55 3db8 1a9f 66b8 a04e 36b8
00000160: 5c79 82b8 d81d 4f38 3a46 0d38 e38d af37
00000170: 51e8 91b7 94b7 5938 ba82 81b8 0842 9437
00000180: 8e6f d5b7 394b 4a38 8820 85b8 3d85 3e37
00000190: f38e d637 c40e 1db8 f6ab bfb7 da1c 8b38
000001a0: 06ac 3db8 eb88 3438 5f30 5bb5 2e50 71b8
000001b0: 483e 0e38 f682 0338 c68b 1a38 eddc 0338
000001c0: 09ef 77b8 a962 2638 bf37 0238 e35b 94b7
000001d0: e496 5736 3a2f 1eb8 18d5 3738 b6a6 ae37
000001e0: 7848 e2b7 3b5a 7cb8 529e 3038 e9e5 b8b7
000001f0: a697 19b8 9326 19b8 1512 de37 7255 1bb8
-2.7551698e-05 -4.2613454e-05 2.4198882e-05 5.84144e-05 -1.5234831e-05 -2.620122e-05 1.8952423e-05 -4.259867e-05
3.9606362e-05 -3.3141525e-05 -4.2962543e-05 2.2140459e-05 -2.4287663e-05 4.6225457e-05 3.2273707e-05 -1.3129261e-05
-1.2458096e-05 4.8371687e-05 3.7934868e-05 3.7705715e-05 2.147321e-05 4.2821794e-06 -3.4661556e-05 2.5304276e-05
5.9370435e-05 -4.748273e-05 5.4258493e-05 -2.8282615e-05 -2.8087634e-05 7.142718e-05 -2.0350519e-05 8.98732e-06
1.9365545e-05 3.1824897e-05 -5.067661e-05 -6.535768e-05 5.2382908e-05 -2.669166e-05 1.0590571e-05 1.3634999e-05
5.0716048e-05 6.205805e-05 -2.3483513e-05 6.188846e-05 -5.189228e-05 6.3007814e-05 -8.1495455e-06 5.9043236e-05
3.0029141e-05 5.201265e-05 -6.330428e-05 3.9051218e-05 -3.300068e-05 3.3602846e-05 3.1151547e-05 -6.44031e-05
-5.9404876e-05 -5.8244346e-05 -3.960716e-05 -5.7874844e-05 5.0761468e-05 -3.3904264e-05 -1.9944226e-05 -4.648355e-05
-5.3943554e-06 7.979352e-06 -6.24309e-05 4.837321e-05 -7.533217e-06 -5.8798625e-05 1.971108e-05 2.1895023e-05
-3.420125e-05 -4.7406087e-05 3.5635236e-05 -3.73222e-05 5.0008515e-05 -1.64766e-05 6.272499e-05 6.221244e-05
-1.5148712e-05 -4.7619204e-05 3.6504265e-05 -4.1243336e-05 -5.7657613e-05 -4.514032e-05 -5.4984448e-05 -4.3465407e-05
-6.221488e-05 4.938044e-05 3.3682423e-05 2.0927697e-05 -1.7393528e-05 5.1907802e-05 -6.175549e-05 1.7673723e-05
-2.5443525e-05 4.823061e-05 -6.3479936e-05 1.13559045e-05 2.5577354e-05 -3.744547e-05 -2.284905e-05 6.6334105e-05
-4.522132e-05 4.304286e-05 -8.1654247e-07 -5.753355e-05 3.3913442e-05 3.13548e-05 3.6846635e-05 3.1438587e-05
-5.9112008e-05 3.966937e-05 3.1046333e-05 -1.7685763e-05 3.2125326e-06 -3.771412e-05 4.382906e-05 2.0820047e-05
-2.6975045e-05 -6.0165516e-05 4.2109117e-05 -2.204157e-05 -3.6619276e-05 -3.6513968e-05 2.6472882e-05 -3.7034457e-05

mu.weight f4 [8, 128]
00000000: 7200 2cbd 10e4 ae3d d6f7 1abc 72b2 973d
00000010: 269b 4a3d a24e aebd 46ab 1c3c c69c f33c
00000020: 122d 7c3d 0820 2537 1058 343c 6963 36bd
00000030: 2899 85bc c5db 5e3d d456 5e3d 9f8b a63d
00000040: d599 aa3d 3cc7 343d 8fa7 98bd 9923 03bd
00000050: f24b 81bd 1deb c0bc 8d3c 2b3d c214 273c
00000060: 1cb6 5f3d 3c44 ae3c ff78 a23d bbb2 313d
00000070: 0898 713a 6413 a4bc 0afe 6ebd f678 8fbd
00000080: 8a84 a53d 72c7 15bd a16f 82bd 3db2 423c
00000090: ea65 053d 6048 b33d 6db1 3c3d 0361 ae3c
000000a0: a260 8bbd 435c 1e3d cd11 00bd be45 853d
000000b0: a7c4 683d 91ed 203d 8e15 453c 74f8 81bd
000000c0: 9f23 8cbc b44b b6bc 41a6 4e3d 5247 733d
000000d0: aa75 6f3d a58e 04bd e168 3ebd 16ff abbd
000000e0: dfd9 5ebd 25c6 9bbd 8a78 803d 66c8 3bbd
000000f0: 72c3 e9bb 146d 89bd aaae 9fbd b17f f63c
00000100: 8864 18bc b0d5 323d 8b6a ae3d 3bd8 143a
00000110: 46fa 59bc 0613 13bd 7b54 acbc 727e cc3b
00000120: 96ba 713d d5fa aabd 734c 833d b83f e53c
00000130: 40b1 00bd 3353 daba b23a ad3d 57f1 653d
00000140: d9a0 0abd 1a8d 50bd b7fc 4f3d 031f 8fbd
00000150: aaf8 a63d e70d 1d3d e8bf 303c 010b c8bb
00000160: 7265 893d 2f65 2fbd b91b 97bd 837e 10bd
00000170: e5e9 4dbd 442f 613d 09f5 febc a9f7 9d3d
00000180: 6587 803c 3313 a5bd 44fc eabc cb9d 65bd
00000190: 64c5 aabd e5ed d7bb 264e 3f3d 05f6 72bc
000001a0: 6b3e c9bb 292b 933d b73f 143d 5dc0 a43d
000001b0: 0747 5cbd debb 3c3d a546 0b3b 9f84 683d
000001c0: a213 4b3d 7f1b a23d 3b6d ae3c 4625 653d
000001d0: 160a 61bd 7fdb a3bc e7b0 a53d ba2f 31bd
000001e0: 5209 963d 687e 983d 7b02 913d b2fc 9ebd
000001f0: 9b75 853d 67af 113d d927 5abd dfc6 12bd
00000200: afe1 ad3d 41c9 963d 06d7 5dbc 98fb 7dbd
00000210: 31ca 9dbd 3b40 44bc c6fc 9bbd 633f 6dbc
00000220: 79e5 623c 1070 53bc a187 b43d bd79 50bc
00000230: 397f 8cbc 7a8a 8cbd 25c4 60bd d4e1 ad3d
00000240: dc61 523c 70ef 93bd 7710 7d3d 59c1 d43b
00000250: 967b a43d 253a 693d dce5 0abc e905 303d
00000260: e4a2 25bd 1a62 603d fc4e e6bc 1cae 1bbd
00000270: 9907 00bc 2303 ce3c 60c6 8a3d 49f1 a53d
00000280: dd11 63bd fcaa 47bd 723b f73c 09bf 36bd
00000290: 35f2 873c 3ce0 73bd 357e 4abd 47e8 403d
000002a0: 4cf9 e03c d1f4 153d dc3c a3bc c868 9ebd
000002b0: 20f5 d2bb c035 3a3d 0d16 f5bc 2cfc 9d3d
000002c0: 77e8 85bd a9b9 95bc ff96 20bd b6e5 d53c
000002d0: b7da 9e3d bb0e 00bd b3df 8abd 546f 9ebc
000002e0: 8dfc a03c 603d 9f3c 5b5e 403b f609 8b3c
000002f0: 5e24 9fbd 3fa9 40bd fc18 42bd 4751 85bd
00000300: e761 e6ba f80f 29bd 2127 d8bc 9db7 05bd
00000310: b922 91bd ee2d 98bd b323 973d d2e4 353d
00000320: eb3f 81bd 49ed 5cbc e908 9cbd 2c72 5d3d
00000330: b871 85bc 2703 b03c ee4d 91bd 902e 0ebd
00000340: 80a2 c8ba f876 78bc 9354 af3d bbbb 533d
00000350: a8bd 8ebd 4771 c6bc f6b7 7a3d d708 93bc
00000360: 16b2 b03d 191e 61bd bc44 87bc e007 c1bb
00000370: 420d a3bd 5f11 afbd 79ea 033c 2dd2 95bd
00000380: 3d9c 60bd 12e9 57bd 2690 b03d a76f 8f3d
00000390: 0efb 51bd db8c a2bd 0070 93b9 f47a c03c
000003a0: a973 ba3c 69ba b2bd 49a2 203d 25bb 8fbb
000003b0: c43f 873d d933 e23c 7fb0 af3d 1040 34bc
000003c0: 788a dfbc d08a 20bd 6f41 8a3c 5eee 553d
000003d0: 0afb 973d b951 c6bb f87d 83bd 7d54 bb3c
000003e0: 6478 203c 4270 273d 07c1 123b 6586 c83a
000003f0: 6f6d 613d 4011 cdba 657a 313b 96e9 2e3d
-0.041992612 0.08539593 -0.009458503 0.074070826 0.049464367 -0.08511092 0.009562319 0.029737841
0.06156642 9.842224e-06 0.011007324 -0.0445284 -0.016308382 0.054408807 0.054282025 0.08132099
0.083301224 0.044135317 -0.07453834 -0.03201637 -0.063133135 -0.02354961 0.041805793 0.01019782
0.054617032 0.021272771 0.079332344 0.04338334 0.0009216075 -0.020028777 -0.05834774 -0.07005493
0.080819204 -0.03656716 -0.06368948 0.011883316 0.032567896 0.08754039 0.046067644 0.021286493
-0.068055406 0.038662206 -0.031266976 0.06507443 0.056828167 0.03928906 0.012029065 -0.06346217
-0.01710683 -0.022252895 0.05045152 0.05939419 0.058461823 -0.0323626 -0.04648674 -0.08398263
-0.054406997 -0.076061524 0.06272991 -0.04584541 -0.0071338946 -0.06710258 -0.077969864 0.030090185
-0.009301312 0.04366082 0.08516415 0.0005677973 -0.013304299 -0.035906814 -0.021036377 0.0062406594
0.059015833 -0.08348624 0.06411066 0.027984485 -0.03141904 -0.0016656875 0.08458461 0.056138363
-0.033844803 -0.050915815 0.050778117 -0.06988337 0.08152898 0.038343336 0.0107879415 -0.0061048274
0.06708802 -0.042821106 -0.073783346 -0.0352769 -0.050271887 0.054976717 -0.031122701 0.07713253
0.015689561 -0.080603026 -0.028684743 -0.056058686 -0.083384305 -0.0065896385 0.046705388 -0.014829163
-0.006141474 0.071859665 0.036193576 0.08044503 -0.053778674 0.0460776 0.0021251824 0.056767102
0.04957927 0.07915401 0.02129232 0.05594375 -0.05494126 -0.020002125 0.08090382 -0.043258406
0.073259965 0.07445985 0.07080551 -0.077630416 0.06516572 0.035567667 -0.053260658 -0.03583419
0.08490311 0.07362605 -0.013540035 -0.062007517 -0.077045806 -0.011978204 -0.07616572 -0.014480445
0.013848656 -0.012905136 0.08814932 -0.012724337 -0.017150508 -0.0686235 -0.054874558 0.08490339
0.012840714 -0.072234035 0.06178328 0.0064927754 0.08031385 0.056940217 -0.008477654 0.042974386
-0.040438548 0.054781057 -0.028113835 -0.03800784 -0.007814311 0.02514798 0.06776118 0.08102662
-0.055436958 -0.048747048 0.030179713 -0.04461578 0.016594985 -0.05954002 -0.049436767 0.047096517
0.027462624 0.03661043 -0.019926481 -0.07734829 -0.0064379126 0.045461416 -0.029917741 0.077141136
-0.0653848 -0.018277006 -0.0392065 0.026110511 0.0775656 -0.031264048 -0.067809485 -0.019340195
0.019651676 0.019438446 0.0029353115 0.016972523 -0.07770608 -0.047036406 -0.04738711 -0.06509643
-0.0017576785 -0.041274995 -0.026385846 -0.03264581 -0.07086701 -0.074306354 0.07379856 0.044407673
-0.063110195 -0.013484308 -0.07618887 0.05406396 -0.016289577 0.021485878 -0.07094942 -0.034712374
-0.0015307218 -0.015165083 0.08561053 0.051692706 -0.06969768 -0.024223937 0.061210595 -0.017948551
0.08627717 -0.054960344 -0.016512267 -0.0058908314 -0.07961513 -0.08548235 0.008051508 -0.073154785
-0.0548365 -0.052712508 0.08621244 0.07003718 -0.051264815 -0.07937022 -0.0002812147 0.023496129
0.02276023 -0.08726961 0.039217267 -0.004386323 0.06603959 0.027612614 0.08578586 -0.011001602
-0.027287707 -0.039194882 0.016876904 0.052229278 0.07420929 -0.0060522226 -0.06420511 0.022867436
0.009794328 0.04087854 0.0022392885 0.0015298842 0.055036005 -0.00156454 0.002708101 0.042703234

mu.bias f4 [8]
00000000: d159 d9bc 4e9b 97bd 7024 1cbb d417 7ebd
00000010: 3fd8 513d 661e a73d c0dd dd3b f174 9a3d
-0.026532086 -0.07402669 -0.002382543 -0.062034443 0.05123162 0.08160095 0.0067708194 0.07541836
