DDPG/critic.pt (torch_old, 558016 bytes, 35 tensors)

fc.weight f4 [128, 29]
00000000: 2239 bcbd 99bb a13d ee72 ce3c 035b 283d
00000010: 2c77 6a3d d6d5 a63d a574 103e 6d29 32be
00000020: 6e2e d73b 983d 57bc 7473 2c3e ae00 2e3e
00000030: 37f7 0abe 3aa4 023e 9160 4b3d d100 d1bd
00000040: 6656 3c3e db27 073e bc6b 14be dceb 183c
00000050: 2bc0 12bd 4978 edbc ebf0 cb3d d130 203e
00000060: d328 843d 7b6b 1e3d 6e8a 2c3d 4d1e 1abe
00000070: 4e4c a33d c680 0dbd 08eb 053e 2435 c4bd
00000080: 2046 98bc 3bc2 123e 3f6a 6b3c 0c7a f5bd
00000090: 1769 58bc d787 b9bd b920 c3bc f24c f1bd
000000a0: fb34 583d 1bf3 353e 2119 5d3d 5fdd ef3c
000000b0: e8b8 1ebe 86a1 c4bd 97fb 1d3d b18d a9bd
000000c0: f946 df3d 4b9a 043e 0ea8 19be 5bf2 88bc
000000d0: 80d5 16be a2da 473d f1d9 1a3c 7f1a 2abd
000000e0: 49c3 e3bc 51f4 02be 3204 e23d 511a 35be
000000f0: 774d 2b3d 8fb0 183e 19a2 e13d 4b70 233e
00000100: 1e53 293e b515 5fbd 8083 413d d5ea 9dbd
00000110: ae84 163e 6d05 f6bd eac4 5dbd 978a efbd
00000120: ab3f 3fbc 3271 3c3e 040b 043e 09be b8bd
00000130: 3d34 bcbd 5b2f c5bd c4e1 3c3e ee3e 953d
00000140: 9509 3ebc 2156 d03d 98fc 2ebe bdd3 4abc
00000150: e672 21be f9e3 9bbd 1302 c0bc 8b06 e13d
00000160: 804a be3d f5ee 163e 1204 123e fd67 bc3d
00000170: 3e1f 23bd e143 ec3c a420 c23d 59ec dabd
00000180: ecad 27be edfe 353d ea0b 35be a914 c33d
00000190: 1bd7 033e 83a0 16be e494 94bd 3134 aabd
000001a0: e53e 69bd bbfb 14be cc74 043e 768c 043e
000001b0: d4a6 01be ffac 223e a2c9 88bc 5705 723c
000001c0: 0338 b3bd d95b cebd feb4 263e 9f08 c5bd
000001d0: 0c2c bfbd 0005 563d a7ec d53d f3be e7bd
000001e0: 184f 133e aa44 333e fd78 ea3d 3c0d cfbd
000001f0: d0c0 343e 57d7 c63d b9c3 a4bd d599 b9bd
00000200: ac8f c03d 7f68 2a3e 25ad 2abe 7528 e5bc
00000210: f649 9639 3730 303e 5b23 27be 32fd a1bc
00000220: 0a07 0d3d 0051 c0bd b835 25bd 9010 2ebe
00000230: bd5b 26be 686e bc3d 7324 573d abf4 073e
00000240: ef03 da3d 7aae be3d a75a 323e e523 09be
00000250: 5848 043d 41d4 13be 3a5b d6bd c8a2 e2bd
00000260: 92cd 113e cf50 d0bd 8fcb 673b c822 89bd
00000270: 0598 1e3e c818 bdbd 34a1 043d a935 293e
00000280: 275d 093d 02bc 7fbb d02e 073e 966a 1a3d
00000290: 0eff 63bd bef6 823d f791 3abe 2402 d03d
000002a0: 192e 09be 7fe5 78bc a6e2 87bd 21b2 023e
000002b0: dd25 333d 5e8a e83d 4e11 04bc 6702 e3bd
000002c0: 6505 2ebe ee39 62ba d8b2 893d 32b9 b83b
000002d0: c437 25be 0a94 393e 83ff e6bd 63e8 8f3d
000002e0: 003e 943d c0ec 283e 81cb abbc 354a 163d
000002f0: e76f 8cbd 2a36 93bc 9e52 023e 3d02 a63d
00000300: 4111 9b3d 0c60 17be 0c7e 98bd 3a84 a13d
00000310: 15f0 263e 23a4 513d f83f f43d 2cd3 56bd
00000320: 684d 133e 8592 8ebc 2319 d73d bb28 3ebe
00000330: c9a4 e0bc c4b3 82bd 23b3 a63c 5634 e43c
00000340: 606d 25be cebe 343e ec21 00be 4d4d 6d3d
00000350: c646 d33d ebc8 8e3d 350a a43d b00a 71bd
00000360: 9a23 a63d dce4 29be 71a4 2b3e ccb9 8a3d
00000370: 3f22 88bd 633f 3d3d b897 933d d1b6 44bd
00000380: d015 2f3e 7c65 6b3d e213 3abe 95c3 cb3d
00000390: a65c f0bd 89b4 283d 69f5 68bd 8727 d13b
000003a0: 3818 00bd c55a b5bd 356a 7cbc 3d24 cabd
000003b0: 4ff5 a53d d13b 333e c0fe aebb 6889 b13d
000003c0: f356 743d 8325 cf3d 0198 f63c ce8d 94bb
000003d0: 90b6 0fbc a0ba 26be 96b8 58bb 05b8 873d
000003e0: e0d7 89bd a576 083d 832b eb3c 762c ba3d
000003f0: ff95 81bd 8d18 623d 08ea 693d a5cf d8bd
-0.09190585 0.078971095 0.025201287 0.04110242 0.057242557 0.08146255 0.14106996 -0.17398615
0.006566814 -0.013137244 0.16840917 0.16992447 -0.13570867 0.1275796 0.04965264 -0.10205234
0.18392333 0.13198797 -0.14494222 0.009333577 -0.035827797 -0.02898802 0.09958061 0.15643622
0.06453099 0.03867672 0.042124204 -0.15050621 0.07973538 -0.034546636 0.13077939 -0.09580448
-0.018588126 0.14331906 0.014368593 -0.11986169 -0.013208649 -0.090591125 -0.023819314 -0.11782254
0.0527849 0.17768519 0.053979043 0.029280363 -0.15500224 -0.09601121 0.038570013 -0.082789786
0.10902209 0.12949483 -0.15005514 -0.016717127 -0.14729881 0.04879249 0.009451375 -0.041529175
-0.02780308 -0.12788512 0.110359564 -0.1768582 0.041821923 0.14911102 0.11017246 0.15960805
0.16535613 -0.05446406 0.04724455 -0.07710806 0.14699051 -0.12012754 -0.05414287 -0.11696356
-0.0116728945 0.18402556 0.12894827 -0.09020621 -0.09189651 -0.09628173 0.18445498 0.072873935
-0.011598964 0.10172678 -0.17088544 -0.012379584 -0.15766487 -0.07611842 -0.023438489 0.10987576
0.092915535 0.14739592 0.14259365 0.09199522 -0.039824717 0.028840961 0.09478882 -0.10689611
-0.1637494 0.04443257 -0.17680326 0.09525425 0.12875025 -0.14709668 -0.07254961 -0.08310736
-0.056944747 -0.14549153 0.1293518 0.12944207 -0.12661296 0.15886305 -0.016697709 0.014771781
-0.08750918 -0.10076112 0.1627998 -0.09620785 -0.09334573 0.052250862 0.104455285 -0.113157175
0.1438564 0.17506662 0.11448858 -0.10109946 0.17651677 0.097090416 -0.08045144 -0.09062544
0.09402403 0.16641425 -0.16667612 -0.027973393 0.00028665335 0.17205893 -0.16322081 -0.019774053
0.03443054 -0.093904495 -0.040334433 -0.16998506 -0.16245933 0.09200746 0.052524995 0.13276927
0.106452815 0.093106225 0.17417394 -0.13392599 0.032295555 -0.14436437 -0.10466619 -0.11066204
0.14238575 -0.10171663 0.0035369133 -0.06696087 0.15487678 -0.09233242 0.032380298 0.16524376
0.033536103 -0.0039021973 0.13201451 0.037699305 -0.05566316 0.063947186 -0.18219744 0.10156658
-0.13396491 -0.015191435 -0.06635027 0.12763263 0.04373728 0.113545164 -0.008060766 -0.110844426
-0.16994245 -0.0008629848 0.06723565 0.0056373114 -0.16134554 0.18122879 -0.11279204 0.07026746
0.07238388 0.16496563 -0.020971062 0.036691863 -0.06857281 -0.017970163 0.12726828 0.08105896
0.0757165 -0.14782733 -0.074459165 0.07886548 0.16302522 0.051181924 0.119262636 -0.052447483
0.14384997 -0.01740385 0.10502841 -0.18570225 -0.027422326 -0.06381944 0.02034909 0.027856987
-0.16155005 0.17650911 -0.1251294 0.057935048 0.10316233 0.06971916 0.08009759 -0.058848083
0.08112259 -0.16591209 0.16761948 0.06773719 -0.06647157 0.04620303 0.072066724 -0.04802591
0.17098165 0.05746983 -0.18171647 0.09949414 -0.11736421 0.041187797 -0.056874666 0.006382886
-0.031273097 -0.088552035 -0.015406181 -0.09870193 0.081034295 0.17503287 -0.005340427 0.08668786
0.059653234 0.10114577 0.030101778 -0.004533506 -0.008771554 -0.1628213 -0.0033069006 0.06626896
-0.06730628 0.033316273 0.028707271 0.090905115 -0.063274376 0.055199195 0.057107955 -0.1058648

fc.bias f4 [128]
00000000: 32ed 8cbd 7141 043e 9898 353e db6c c53d
00000010: dc50 a43d 9190 8abd 9a73 3dbe 5ae4 5bbd
00000020: 825c b43c 44a4 373d 76ba ed3d 09c5 863d
00000030: 1759 003e a5bb 8cbb fc4a 283e bb54 00be
00000040: a239 85bd ed66 e33d 548f b93d e500 2d3e
00000050: 10ae 3b3e 65f6 9c3d 3670 0abe 40f8 c4bd
00000060: e56f 2abe 9f8f 613c 0b48 e5bd 1391 1f3e
00000070: b4c6 fbbd aa53 113c c080 ef3d 1575 ed3d
00000080: b183 f6bd de55 cb3c 0188 28be 84d7 0d3e
00000090: 763a 03be adde 97bd d4d1 c53d fff2 09be
000000a0: afa0 14bd a71a 803d 695f 0a3d f88f 2a3d
000000b0: 3c71 2d3d 400e 0abe 400d 15be d90a 2a3d
000000c0: 1912 6ebd 19e1 763d c6ce 09be 122e 4a3c
000000d0: 3fc7 e1bd 9472 d6bd 5739 1dbe 9ffd e1bc
000000e0: 3d2a e43d 3bf6 67bb 3f7a 063e 4873 d3bd
000000f0: 55a7 eebd 0f42 363e c866 e6bd c898 2abe
00000100: aebb bd3d 2a0e 06be 00d1 0a3d 1735 84bd
00000110: 7fd4 94bd 30bf 573d acd9 813d 9e1a d7bd
00000120: 8b59 313d c822 3b3e eedb 39be 0907 ec3d
00000130: 13dd a23a 9d8c e7bd e654 1c3d f3ae d83d
00000140: 80af dbbd 8cc2 1e3d 2883 a7bc 8e30 11bd
00000150: dc2f 183e 91ea e93d 3776 cabb a539 023e
00000160: 66e5 ce3d 15de 213e b580 d73d 09fe d93d
00000170: 2a55 1bbe a7a1 cebd 492b 073e 780f abbd
00000180: 724e 23be 5543 90bd e8e6 ebbd 5a44 d7bc
00000190: 5b9a f5bd 68ad c73d db95 e5bd bea1 5a3d
000001a0: 5065 c5bd 1b28 b5bd 1a73 d13b 8098 2abe
000001b0: ebd6 ba3d 3690 e5bd 4430 47bd f8ad 28be
000001c0: d240 f1bd a648 7e3c 653c 973d a33b 303e
000001d0: 87cb 46bd aa33 0d3e 80e6 c4bc 5608 8ebd
000001e0: 18fc 01bd e8f3 73bd c919 b83d ed5d 493d
000001f0: 0206 9b3d 3db4 91bd d41d ccbd 6541 c33d
-0.06881179 0.12915589 0.17733991 0.09639903 0.08023235 -0.06765855 -0.1850113 -0.05368457
0.022016767 0.04483439 0.1160783 0.0658055 0.12533985 -0.00429483 0.16434854 -0.12532322
-0.06505133 0.11103616 0.09060541 0.16894872 0.18328118 0.076641835 -0.13519368 -0.096176624
-0.16644247 0.013767152 -0.11195382 0.15582685 -0.12293759 0.008870045 0.11694479 0.11594597
-0.12036837 0.024821218 -0.16458131 0.13851744 -0.1281527 -0.07415519 0.09659162 -0.13471602
-0.036286052 0.062550835 0.033782396 0.041641206 0.042344317 -0.13481998 -0.14555836 0.04151425
-0.058122728 0.060273264 -0.13457784 0.012340086 -0.11024331 -0.10471073 -0.15353905 -0.027586756
0.11140869 -0.0035394568 0.1313257 -0.103247225 -0.1165301 0.17798637 -0.11250073 -0.16659844
0.09264313 -0.1309134 0.033890724 -0.064554386 -0.07267093 0.052672565 0.06340346 -0.10503124
0.043298285 0.18274987 -0.18150303 0.11524779 0.0012425504 -0.11306117 0.038166903 0.10580244
-0.10726833 0.038759753 -0.020448282 -0.035446696 0.14862007 0.11421693 -0.006178643 0.12717302
0.10102348 0.15807374 0.10522596 0.106441565 -0.15169206 -0.100894265 0.13200106 -0.0835256
-0.15947893 -0.070440926 -0.11518651 -0.02627771 -0.119923316 0.097498715 -0.11210223 0.053376906
-0.096384645 -0.0884554 0.006391895 -0.16659737 0.091230236 -0.11209147 -0.048630014 -0.16472614
-0.117799416 0.01552025 0.07384566 0.1721025 -0.048533943 0.1378924 -0.024035692 -0.06935184
-0.031734556 -0.05955878 0.08989293 0.04916184 0.07569505 -0.07114456 -0.09966627 0.095339574

layers.0.weight f4 [128, 128]
00000000: fcd8 6b3c bb30 07bc 2f16 3a3d 3bae 6c3d
00000010: 8915 a0bc eb6b 36bd dc4b b3bd 4ec8 a23d
00000020: d7fa a53d 0f66 5d3d 6313 2a3d d4cf 933b
00000030: ecea 403d a9bd 00bb b277 bb3c 57e3 43bd
00000040: fac2 873d 5ae1 9dbd d079 cbbc 0135 b43d
00000050: ab00 f53c 68d4 62bd c275 4c3d 9687 943c
00000060: 00ad a1bd 937b 9fbb c2aa e6bc 48fd b03d
00000070: f4d7 ac3d 78fe 873d 8309 953b fda3 623b
00000080: 3b45 433c 0d40 f53c b60d 8bbc e7e8 17bd
00000090: fb8f 323d 4132 4e3c d6dc 3a3b 6f9a 993d
000000a0: 66cf 7ebd 03ba a439 6d63 96bd 1c67 ed3c
000000b0: 0c37 df3c f525 113b 716a c3bc 78d2 abbd
000000c0: d980 1dbd 4eec a13d 17ef 633c 370f 563d
000000d0: 2a56 78bd fa33 d13c ed56 2dba 2ac1 a33d
000000e0: f13f 6abd b680 323d a61c ad3d 17a3 943d
000000f0: 1c48 3c3d 3321 563b a9e2 4bbc da08 1bbd
00000100: 5b85 b4bc 5d32 443d 9bf3 c6bc a1f9 963d
00000110: 3938 483c 9229 61bc 67e8 763c f2b4 75bb
00000120: b3cc eabc cecf 3d3c 9d26 73bc f847 a83d
00000130: bbad 18bb e345 2c3d 6b1b b13c bd42 ef3c
00000140: 3a09 6a3c 8092 1c3b 17f3 4cbc 2c4d 82bd
00000150: faa1 a43d f231 a23b f7d8 eb3c 82a6 663d
00000160: 0dc7 803c 29b5 ca3c e015 103d 4e3d 67bc
00000170: 1722 8d3c 3e53 cd3b a236 4fbd 1e0c 4dbc
00000180: fe6f ecbc b2fd 94bd 4f38 0f3c c5aa 52bd
00000190: 1173 bb3c 931c b5bc 5991 c93c e00c 563d
000001a0: 5d60 84bd 0c53 68bd f856 a43c b5ab e0bc
000001b0: 9c0b b1bc 4401 943d 4b73 c6bb 8ab1 993d
000001c0: ac8e 833d cec0 7fbd 9054 e03c e0b5 88bd
000001d0: bce6 143d 351b 763a 53aa 553d b75f acbc
000001e0: d477 c0bc 7409 80bd 63cc 863b 0f62 a5bb
000001f0: 7f7d 86bd 5b81 af3d 1563 193d 811d d1bc
00000200: 8f35 91bd d5cd 30bd ae9b a8bd 4a4e 84bb
00000210: 6ef0 ff3c f922 be3c 2f59 b7bc 856d 62bd
00000220: df7a aebd 97f6 4e3d d34e ce3c 7e86 b0bd
00000230: 231f 82bd 43b3 5a3d 3861 013c d6a3 93ba
00000240: f98b b3bd 257e c0bc 8d2f abbc eb11 303d
00000250: 4cd2 b23d 0edd 5dbd 533a 8a3d 22d4 903c
00000260: 9fb0 2c3d 6c76 8fbd 09d1 8d3d 579c 40bd
00000270: 5a07 143d 2874 80bd ec1d 6a3c 7fae 043b
00000280: d858 85bc 9687 a0bd 3183 13bc 8cf2 8ebd
00000290: 68ce 9dbd 74c8 b2bd 9839 553d 488e 04bd
000002a0: 18c4 3bbd ce58 bb3c 84f8 c03c 29a6 013d
000002b0: 3583 a5bd 7d49 51bd 06ef 813d 8e17 0bbd
000002c0: c3ea 843d 4e19 403c f8e8 32bd e04e 8a3d
000002d0: c254 4abd 05c6 63bc 55de 2f3d c16c 873d
000002e0: ecf6 54bd 3e08 90b9 0642 b93b 1026 11bd
000002f0: 4952 b0bc ee69 473d 5240 c6bc 0ebb ab3d
00000300: 4c3e 47bd d162 adbb eb44 91bd 9c5e 1c3d
00000310: 18bb 873d f7ba 9abd 2b79 08bd 26b5 aebd
00000320: 3c49 893d 77b3 4dbc 71f3 82bd 51ee 953d
00000330: 83db 8abd 343a 973d 989e aa3b 8c45 803c
00000340: 70d8 4e3d 88f1 1bba 23d1 02bd 670c 49bd
00000350: c7e0 183c c502 a8bd 59c3 bfbc 3c13 a43c
00000360: 18af aa3d 0be3 903c 0d40 70bd c86d d7bb
00000370: 3b80 8bba 159f 9b3d 9fe4 bf3c c2fc 8ebd
00000380: dfae 253d 98a4 a3bd 4260 dfbc f920 d93a
00000390: cf50 deb9 a2b2 b43d bc9f 893d da05 0d3d
000003a0: 4f5b 73bd ee21 36ba 4792 3ebd 1d58 643c
000003b0: ed36 27bc 9e8a 96bd 782d fdbc c233 403d
000003c0: 4ca7 64bd c13b 923d 9f6a a33d d73c 8b3d
000003d0: 0474 96bb 0138 52bc dfdb 8a3d c35e eb3c
000003e0: b047 8cbd ec37 a1bd c0fa 8f3d c862 a83c
000003f0: 9314 3abd 0dba 85bc 4004 753d 9232 053d
0.014394995 -0.008251364 0.045431312 0.057783347 -0.019541519 -0.044536512 -0.087547034 0.07948361
0.081044845 0.05405241 0.041522395 0.004510859 0.04709904 -0.0019644296 0.022884224 -0.04782423
0.06628986 -0.07708998 -0.024838358 0.08799172 0.029907545 -0.055378348 0.04991699 0.018131059
-0.07894325 -0.004867026 -0.028157596 0.086420596 0.08439627 0.06640333 0.004548253 0.0034582608
0.011918361 0.029937768 -0.016974311 -0.037087347 0.04359434 0.012585224 0.0028512976 0.07500159
-0.06220951 0.00031419107 -0.07343183 0.02897983 0.027247928 0.0022147868 -0.023854466 -0.08389753
-0.038452957 0.079064 0.013911984 0.052260604 -0.060629047 0.02553748 -0.0006612379 0.079958275
-0.057189886 0.04357978 0.0845273 0.072576694 0.045967206 0.0032673597 -0.012444177 -0.03785024
-0.022036245 0.047899593 -0.024286082 0.07371832 0.012220436 -0.013742821 0.0150700575 -0.0037491885
-0.028662061 0.011585189 -0.014840749 0.08216852 -0.002329691 0.042058837 0.02161952 0.029206628
0.014284426 0.0023891032 -0.012509129 -0.063623756 0.08038707 0.0049498016 0.02878998 0.056311138
0.015719915 0.024744587 0.03517711 -0.014113737 0.01722817 0.0062660268 -0.05058921 -0.012515096
-0.028861996 -0.07274951 0.008741452 -0.05143239 0.022882016 -0.022108352 0.02460544 0.052258372
-0.06463692 -0.056719825 0.020061001 -0.027425626 -0.021611981 0.07226804 -0.0060562245 0.07504566
0.06423697 -0.062439732 0.027384073 -0.06675315 0.036352858 0.00093882094 0.052164387 -0.021041734
-0.023494639 -0.06251803 0.0041137203 -0.00504709 -0.06566905 0.085695945 0.037448008 -0.025526764
-0.070902936 -0.043165047 -0.082328185 -0.004037653 0.031242575 0.023210036 -0.022381393 -0.055280227
-0.085195296 0.050528135 0.02518407 -0.08619402 -0.06353595 0.053393614 0.007896714 -0.0011264037
-0.08766932 -0.02349765 -0.020896697 0.042985838 0.08731517 -0.054165892 0.06749406 0.017679278
0.042160627 -0.07005009 0.06924636 -0.047024097 0.036139823 -0.06272155 0.0142893605 0.002024561
-0.016277716 -0.07838361 -0.009003446 -0.06979856 -0.077053845 -0.0872964 0.05205688 -0.032362252
-0.045841306 0.022869494 0.023556001 0.031652603 -0.080816664 -0.051095475 0.06344418 -0.03395801
0.0649009 0.011724783 -0.043679208 0.067533255 -0.049397238 -0.013902192 0.04293664 0.0661254
-0.051993296 -0.0002747196 0.0056536226 -0.03543669 -0.021523612 0.048685007 -0.024200592 0.08385287
-0.048643395 -0.005291321 -0.07093223 0.038176164 0.06627482 -0.07555192 -0.03331868 -0.08530645
0.067034215 -0.012554995 -0.06394089 0.07320846 -0.0678015 0.07384148 0.005206894 0.015658163
0.05049938 -0.0005948772 -0.03193773 -0.049084093 0.009330935 -0.08203653 -0.023408579 0.020028703
0.08334178 0.017686388 -0.058654834 -0.0065743662 -0.0010643074 0.07598702 0.023424445 -0.069818035
0.040449973 -0.07990378 -0.027267579 0.0016565613 -0.00042403347 0.08823134 0.0671992 0.03442941
-0.05941325 -0.0006947805 -0.04652622 0.0139370235 -0.010205966 -0.07350658 -0.03090547 0.04692436
-0.05582361 0.071403034 0.07979321 0.06798714 -0.004591467 -0.012830735 0.06780218 0.02873171
-0.06849611 -0.078719944 0.07030249 0.020554915 -0.045429777 -0.016324067 0.059818506 0.03251893

layers.0.bias f4 [128]
00000000: 4626 55bd 499a 8cbd 9cad 123d b868 87bd
00000010: ae25 393d d748 2b3d 970c 5bbd 481d ea3c
00000020: 327c 1abd 1872 ba3c 86c9 3bbd 5875 93bd
00000030: 31c8 433c 6a2b 3ebd fcc1 803d 2796 78bd
00000040: d145 11bc f36a 44bb c092 853d 4fe6 09bc
00000050: 830b 5fbd b92e abbc 852b e7bb daa2 adbd
00000060: 0d4f 96bc 4d74 7dbd 3e53 a4bd 5521 37bb
00000070: 1490 c4bc eee9 48bd 4758 113d aac3 6f3d
00000080: db22 be3c a3cb b0bd 89f9 8c3c e2de 623d
00000090: b631 553a 05f2 853d 5023 a83d ec8a 7c3d
000000a0: aeda f23a c482 47bc d775 fbbc 2955 a4bd
000000b0: 5635 5c3d fb2f 8ebc 19c4 4abc 1814 9bbc
000000c0: 1f25 b23d 22d8 923d 7926 a2bc a982 943d
000000d0: 6454 0dbd eac7 e63b 63c2 a73c 4bbe 65bc
000000e0: 29e5 64bc 510b ebbb 664b 2e3d f984 573d
000000f0: 4496 a53d ba37 c2bc f449 ea3c 9653 753d
00000100: de5e aa3d ce7f 3a3c ab7a e5bc b4a0 913d
00000110: 36d4 78bd eba5 28bd 6c2f afbd 42bc a83d
00000120: 3181 ebbb 294f 363d 72b1 06bb 7a78 733b
00000130: abda 7e3c 098a 963d 146d 853d 47fe 78bd
00000140: cbd7 42bb 877e 3b3d 4490 5fbc 4b8f 8cbd
00000150: b2c9 4bbd 90f2 a03d 7695 90bd 4b63 0fbd
00000160: d9f6 0d3c 945a 85bc 153b 563d 843b 85bc
00000170: dd07 12bd 23a6 9a3d c44e eab9 2924 88bd
00000180: fa71 4a3d 58e3 c7bc 046c babc b23b ac3b
00000190: 886b a93d 833c 85bd 8a18 423d 1b6c ce3b
000001a0: 05e8 69bd 5a73 c03c e060 8bbd 14c3 5a3d
000001b0: 294c aebd e2ab 643a b349 6c3d 8b6f cb3b
000001c0: d4a5 6b3c 7ef1 22bc 8579 08bd 1ad1 b2bd
000001d0: 663f 723d 0008 983d babc 89bc cfbd 933d
000001e0: b23b e23c ef80 ab3d 93c3 9b3c 156c 253b
000001f0: 8f84 79bd 3223 843d c91f a5bd 0965 7a3d
-0.052038454 -0.06865365 0.035810098 -0.066117704 0.04520195 0.041817512 -0.053478803 0.028578416
-0.037716098 0.022759482 -0.045846485 -0.07200116 0.011949585 -0.04642812 0.062869996 -0.06069007
-0.008866743 -0.0029970973 0.06522131 -0.008416726 -0.054454338 -0.020896303 -0.0070547485 -0.08478327
-0.018348241 -0.06187849 -0.0802369 -0.0027943451 -0.023994483 -0.049051218 0.03548458 0.05853621
0.02320998 -0.086325906 0.017208831 0.05538834 0.00081327127 0.06540302 0.0820986 0.061655924
0.0018528306 -0.012177173 -0.030695839 -0.080240555 0.053761803 -0.017356863 -0.012375855 -0.01893048
0.086984865 0.0717013 -0.019793736 0.07251484 -0.03450431 0.0070428746 0.020478433 -0.01402242
-0.013970652 -0.00717298 0.042552374 0.052617047 0.080853015 -0.023708213 0.028599717 0.059894167
0.08318876 0.01138301 -0.028012594 0.0711073 -0.060749255 -0.041173857 -0.08553967 0.08239032
-0.0071870317 0.044509087 -0.0020552543 0.0037150667 0.015555064 0.07350547 0.065149456 -0.060789373
-0.0029730673 0.045774963 -0.013645235 -0.068632685 -0.0497529 0.07858765 -0.070597574 -0.035006803
0.00866481 -0.016278543 0.05230244 -0.01626373 -0.03565203 0.07551219 -0.00044690643 -0.06647522
0.049425103 -0.024400398 -0.022756584 0.0052561397 0.08272463 -0.06505682 0.047386684 0.0062995083
-0.057106037 0.023492504 -0.06805587 0.053408697 -0.0851062 0.00087231223 0.057687473 0.0062083653
0.014382798 -0.009945272 -0.033319015 -0.08731289 0.059142493 0.07423401 -0.016813625 0.072139375
0.027616356 0.083742015 0.019014155 0.0025241424 -0.060917433 0.064520255 -0.08062703 0.06113151

layers.1.weight f4 [128, 128]
00000000: 24aa 923b a06f 23bc e77c 91bd 4c16 61bd
00000010: b7f4 a0bc 1f48 b6bc e9ab 873d 41c1 163d
00000020: 4359 993c 2eda 253d 76d4 f2bc 04a2 91bd
00000030: 2026 a2bd 1ab4 973d 197e 8dbd 4125 8dbd
00000040: b3d5 4fbd 4ee8 303c 0267 373d 111e b1bd
00000050: f16a b23d 6e42 31bc 9f6b 70bd 70ac 32bd
00000060: b7c5 3bbd 481b b43d 71f2 23bd f82b 953d
00000070: 9b8b 35bc 37df b73c 4003 0fbd 6c61 9fbb
00000080: 8b71 a83b 97a2 b1bd 68e3 1c3d 8d1f 6bbd
00000090: 6ed7 54bd 25f6 dfbc f067 653c 8a3d 00bd
000000a0: dbf6 983d 0f18 00bb b57a 283d 512b adbd
000000b0: d7ad 223d 9a37 003b b0e6 39bd 420d 9f3d
000000c0: 6bb5 47bd 247f 363c e906 5a3d 0e31 81bd
000000d0: abd3 243d 28e5 273d 4af1 e9bc c54a 923d
000000e0: 51ab 533d 65ad 1c3d a817 153d 12d6 fc3b
000000f0: eca4 3fbd d227 91bd 19e7 5eba 3588 773c
00000100: 39bb 383d 084b 273d cf16 26bd f52f 083d
00000110: 2644 61bc bb14 8bbd 7784 163d 6110 9dbd
00000120: 8d5f 85bc 4d37 283d ed88 993b 89b1 73bd
00000130: 353e a2bd e541 e33c 8e9d 6a3d 8456 c5bc
00000140: 8dbd 863d b5ba 92bc 0bac 98bc 2114 a83d
00000150: da04 d53b 2d50 1fbd 75e9 acbd 22f1 a23d
00000160: 8790 98bd bd35 9c3d 66ef b1bd 4295 bbbc
00000170: bc9e 073a 99a6 d7bc 0cf2 943d 20b3 67bd
00000180: b469 123c c16d 913d fb56 8a3d face b63c
00000190: 343e 48bd 4759 92bd be10 303b 574f 21bc
000001a0: bd22 203d dcc9 933b ac43 42bc 551a 713d
000001b0: 519f a8bd 9497 0abd 2c7d 813d b5eb 633d
000001c0: 0f19 693d 8c80 393d 2801 213d 4f88 853d
000001d0: 75fe 273d c54f 993c 29ad adbc 9c8d acbd
000001e0: 74bb 253d de37 473d 4106 3d3d ace0 a8bc
000001f0: 95b6 ac3d 6316 913d 1ff4 f3ba 62b6 92bd
00000200: 3fbc b23d 363c 6e3d 2a98 453c f81e afbc
00000210: d825 9e3d 6a94 b9bb 923c 4d3d cf8b 91bd
00000220: dc16 5cbd 7a72 a53a 931b 4c3d cf4e 95bd
00000230: 6595 8339 6e93 37bd acb8 a5bd c358 a13d
00000240: 1690 903d fefb c83c 35b3 573d e8cb 523d
00000250: 1346 b13d ce99 97bd 5bc1 19bd af98 883d
00000260: 8006 943d f08a f7bc fcac 8bbd 2720 ffbc
00000270: 01e9 8bbd fccf 87bd d8d8 523b 53aa b5bc
00000280: 3407 8cbd b726 8c3c 1673 8b3d a71f ab3c
00000290: 8613 d1bc a283 49bc e7ea 19bd cafe 123c
000002a0: 35ec 053d 5498 903d 5ef4 b13d dc5e 973d
000002b0: 2811 a73c 7c43 ae3d 87bd c33c d67a 8bbd
000002c0: 642c 20bd 7577 6f3d 3b64 81bd 867b 833c
000002d0: ecbe 4dbd 071e d43c 5ff7 5f3d 93a9 993d
000002e0: 8b8c 1abc a81e 0d3c f686 65bd 8c5e 813d
000002f0: 42f8 78bd 409a 6bbd c247 943b 284e 99bd
00000300: 7513 8a3d cca1 863d f97d 873a 5efe a23d
00000310: b6d6 45bd 11ee 40bc 4bb2 7cba ecbc 2b3d
00000320: 27a5 0e3a bd05 03bd 71af a53d 4efc 76bc
00000330: fae6 92bd f929 18bd db14 dc3b 0ff1 153d
00000340: 6e02 463d 30ec 003d 00cb 533d 6507 d83c
00000350: d39b 87bd 45a6 9ebc e064 073d 0d26 88bd
00000360: 8cf6 25bd 6b38 ce3c d730 a53d 46e4 a5bd
00000370: f562 8f3c ae11 fa3c 8590 dcbc eae3 2fba
00000380: e15e b13d eb32 a6bc 260e 8ebd cc55 2ebd
00000390: a219 44bd ec0e b5bb 0384 b3ba 94ff fbbc
000003a0: b9c1 223d ad1c 82bd acbb ab3d 6c2b 33bd
000003b0: 8e79 6dbd 80d5 f0bc f8c0 b8bc 8663 563d
000003c0: 49ba c6bc 465f b13d 11fb 173d c5b9 24bd
000003d0: 9a36 a4bd b6bc a23d 0f49 a4bd dc5c 343c
000003e0: 0459 893d fa21 ba3c 6a98 cebc 691a 8c3c
000003f0: 3d83 6c3d 3a19 3a3d 5ce5 0a3d 1a17 9abd
0.0044758487 -0.009975344 -0.07103901 -0.054952905 -0.01964794 -0.022251187 0.06624586 0.036805395
0.018719321 0.040491275 -0.029642325 -0.0711098 -0.07917428 0.074073985 -0.06908817 -0.06891871
-0.05074091 0.010797573 0.04477597 -0.08648313 0.08711804 -0.010819061 -0.058696385 -0.04362148
-0.045842852 0.08794266 -0.040026132 0.07283777 -0.011080648 0.022445304 -0.03491521 -0.0048639085
0.0051404885 -0.0867359 0.03830281 -0.057403136 -0.051963262 -0.02733905 0.014001831 -0.03130869
0.07468959 -0.001954559 0.041132648 -0.084555276 0.039716568 0.001956439 -0.045386016 0.077662006
-0.048756998 0.011138711 0.053229246 -0.063081846 0.040240925 0.040990025 -0.028557438 0.071431674
0.051677052 0.0382513 0.036399513 0.007715949 -0.04678814 -0.07087673 -0.0008503064 0.015108158
0.045100424 0.04084304 -0.040549096 0.03324886 -0.013749158 -0.067910634 0.036747422 -0.0766914
-0.016280914 0.041068364 0.0046855123 -0.059495483 -0.07922021 0.027741382 0.057279162 -0.024089105
0.06579123 -0.017911294 -0.018636724 0.08206964 0.0065008225 -0.03889482 -0.08442966 0.07956149
-0.074494414 0.07627437 -0.0868824 -0.02289832 0.00051734946 -0.026324557 0.07272729 -0.05656731
0.008936334 0.07101012 0.067548715 0.022315491 -0.048887447 -0.071459346 0.0026865448 -0.009845576
0.03909563 0.0045101475 -0.011856955 0.058863003 -0.08233512 -0.033835962 0.06322703 0.05564471
0.056908663 0.045288607 0.039307743 0.065201394 0.041014154 0.018714795 -0.021200733 -0.08425447
0.040461972 0.048637263 0.046148542 -0.020614944 0.08433262 0.07084348 -0.0018612182 -0.07163693
0.08727311 0.05816289 0.0120602045 -0.021377072 0.07722062 -0.0056634443 0.050106592 -0.071067445
-0.053732738 0.0012622618 0.049830984 -0.07290422 0.00025097575 -0.044818334 -0.08091864 0.07878258
0.07058732 0.024534222 0.05266114 0.05146399 0.08655944 -0.07402383 -0.037537914 0.06669747
0.07227802 -0.030217618 -0.068201035 -0.031143261 -0.06831551 -0.06631467 0.0032172706 -0.022175943
-0.068373114 0.017108304 0.0680906 0.020889116 -0.025522005 -0.01229945 -0.037577536 0.008971879
0.032695968 0.07060304 0.086891875 0.0739114 0.020393923 0.085089654 0.023894085 -0.068105385
-0.039104834 0.058463532 -0.063179456 0.016050112 -0.050230905 0.025893224 0.05467927 0.07503047
-0.009432922 0.008613266 -0.056036912 0.063168615 -0.060783632 -0.05752015 0.0045251558 -0.0748561
0.067419924 0.06573829 0.0010337225 0.07958673 -0.048300467 -0.011775509 -0.0009639605 0.041928217
0.000544148 -0.031987894 0.080901034 -0.015074803 -0.071729615 -0.037149403 0.0067163534 0.036606845
0.04834216 0.031475246 0.051707268 0.026370713 -0.06621518 -0.019366393 0.033055186 -0.066478826
-0.04051833 0.025173387 0.08065956 -0.0810018 0.017503241 0.030526008 -0.026924381 -0.0006709682
0.08660675 -0.020287951 -0.06936292 -0.04256229 -0.047876008 -0.0055254605 -0.0013695959 -0.030761518
0.03973553 -0.06353126 0.08385405 -0.043742582 -0.05797725 -0.02939868 -0.022552952 0.052341007
-0.02425875 0.0866075 0.03710467 -0.040216226 -0.08018227 0.0794615 -0.08021747 0.0110084675
0.067064315 0.02272128 -0.025219161 0.017102437 0.057742346 0.045434214 0.03391014 -0.075239375

layers.1.bias f4 [128]
00000000: 9c97 a03d 05ab f53c f36d 143d ab54 97bd
00000010: 5f9a ad3a b89b 9cbd 6897 493d 3a6a 8cbd
00000020: 0f8a b0bd 602f 483d 6cee 613d 4eba a3bd
00000030: 42f6 283c 31c9 dcbc b1c9 47bd 9de7 b23c
00000040: 6f13 09bd a81d a83d 8475 073d 15a1 033d
00000050: 4a6c 153d 4925 973d 579c 973d c272 7ebc
00000060: b12c 893d c4d8 953d 88c4 c2bc 0770 d23c
00000070: 652a 76bd 1941 a8bd 685a 51bc d682 17bd
00000080: f4e6 673d c319 2a3c 138b 033b c833 27bd
00000090: b723 a4bb 2738 643d 6c74 98bd 5cbe 3ebd
000000a0: 91f0 6e3d c072 d7bb f883 113b 9c96 1f3d
000000b0: 1702 0b3d 6842 0ebd 4219 513d 01b6 6a3d
000000c0: a3ae 493a fc10 a3bd eec9 983a 663e 70bc
000000d0: 5ed8 40bd 53e7 b2bd a110 adbd 6369 113d
000000e0: 54d8 13bd 2c50 95bd 3df2 8e3d a84d 693c
000000f0: 430f b0bc e469 a93d ff02 593c 9649 503d
00000100: 1964 473a 3699 9dbc 2f6a a1bc 4b2e 723d
00000110: 7f80 223d e0bd ac3c 5bc2 5d3d 9d64 bb3c
00000120: a6ef a73c 4fa0 d03c e66a 8ebd f1a8 583b
00000130: bc97 83bc 6b16 ad3d 1db5 543d 2439 b33d
00000140: 72ee c63c a4bc b23b 2227 803d 0f0a 1cbd
00000150: 08ff 4abd b63a 663d 8156 a8bd 0691 afbd
00000160: a3e9 b33d 5b2e b3bc 0c62 a0bd d65a 84bd
00000170: 49c6 23bb 9bf0 453d 429f 76bd bd34 633d
00000180: e4f1 4c3d e7c6 893c 6bb8 41bd ebab a53d
00000190: 4b76 abbd 2a63 98bd 8e0d b63c b1f2 59bb
000001a0: 732b 46bd 8939 0e3d ea24 3d3d 3c2a 47bb
000001b0: ad58 58bb e251 4b3d 507e 773c 6c7b 4f3c
000001c0: 46ff 453d c686 a3bd 4104 9dbc 04ac fbbc
000001d0: be81 47bd b816 9fbd 790b 2abd 223c be3c
000001e0: a40b 81bc b81b 80bd e034 87bd 9504 9cbd
000001f0: 936b 073d 03cc 903d c2f8 8a3d 95be 56bd
0.07841417 0.029988775 0.03623767 -0.07389196 0.0013244859 -0.076468885 0.049216658 -0.068561986
-0.086200826 0.048873305 0.055159017 -0.07994519 0.010312619 -0.026951404 -0.048776332 0.021838957
-0.0334658 0.082087815 0.033071056 0.03213604 0.036480226 0.073801585 0.07402866 -0.01553029
0.06697977 0.073167354 -0.023775354 0.025688184 -0.060099024 -0.082155414 -0.012777902 -0.03699001
0.05661674 0.010382119 0.0020071908 -0.040820867 -0.0050091404 0.055717614 -0.07444081 -0.04656826
0.05833489 -0.0065749586 0.0022203904 0.03896199 0.03393754 -0.0347313 0.05104948 0.05730248
0.00076935644 -0.07962224 0.001165686 -0.014663314 -0.047081344 -0.08735528 -0.08450437 0.035500895
-0.03609498 -0.07290682 0.06979797 0.014239706 -0.021491652 0.0827215 0.013245343 0.050851427
0.0007606163 -0.019238096 -0.019703953 0.05912618 0.039673325 0.021086633 0.05414043 0.022875125
0.020500015 0.025467066 -0.06953983 0.0033059681 -0.016063564 0.084515415 0.051930536 0.08751133
0.024283621 0.0054546166 0.06257464 -0.03809553 -0.049559623 0.056208335 -0.08219624 -0.08572583
0.08784797 -0.02187269 -0.07831201 -0.06462638 -0.0024990013 0.048325162 -0.060210474 0.055470217
0.050035372 0.016818477 -0.047295015 0.080894314 -0.08372172 -0.07440789 0.02222326 -0.0033256228
-0.04838128 0.03472284 0.046177782 -0.0030390164 -0.003301184 0.049638636 0.015105799 0.012663703
0.04833915 -0.0798469 -0.019167067 -0.030721672 -0.048707716 -0.07768005 -0.041514847 0.023222033
-0.015752621 -0.06255287 -0.06601882 -0.076180615 0.033061575 0.07070162 0.06785728 -0.052427847

layers.2.weight f4 [128, 128]
00000000: 8c2e 8a3c c5f1 adbd fd50 9e3c 8f62 7c3d
00000010: e2da 743d d521 f5bc e2b3 b83c 74c0 3a3d
00000020: 17c3 ec3c 7ea0 66bd dc02 893d d919 94bd
00000030: fa1d 8ebd 1d64 88bd ad5d 673b e8cf aa3d
00000040: 8d8f 913c b18a 65bd d14c 773b be77 13bd
00000050: 7b12 afbd 0079 80bc 31dc a5bd 5b30 c83c
00000060: 97f7 66bd 1cd3 ad3d 6c2c 753d 613e 76bd
00000070: 335b fb3b 9976 b8bb b953 893d 5648 59bd
00000080: 6fbc 1f3c 52cb 2cbd c8e0 8d3d e5bd 9d3d
00000090: 8efa c1bc cf60 88bc 2d18 7e3d 4417 9a3a
000000a0: 2817 67bd 2159 463c 8530 4b3c 701e 943c
000000b0: a9e2 6bbd ba37 a23d 2d58 363d b04b 5cbc
000000c0: a997 72bc abd5 373a 08a7 81bd 0c8e a63c
000000d0: 28a4 d9bc 1de8 593c a9d0 37bd ceff 40bd
000000e0: 10f0 8abd 6b1b 9bbc 52aa 09bd c2cf 543d
000000f0: 2276 87bd d99c 923d 62bf 6dba 951a a93a
00000100: ae65 663d 55e4 b3bd 0315 e9bc b30a a83b
00000110: fac0 83bd 3631 af3d 43e0 b1bd 5010 95bd
00000120: 8632 e6bc cbf8 ad3d 4fd0 0c3d 94b7 67bd
00000130: d0ea 19bd 1c8e 6fbd 6c35 96bc ec6e fc3c
00000140: a89b 9a3d 305c e3bb 2ee3 343c 5837 963d
00000150: 938d 233d 7d00 a7bd 8abb 953d b1fd 8fbc
00000160: 7fcf 8b3d 8efe 263d 04de 19bd 7a5f abbb
00000170: 34d5 e3bc 3c13 603d 3995 a53c 35f3 ffbc
00000180: 2754 913d bd9f 623d b10f b3bc c6cf 81bd
00000190: 0fb4 3fbd 6afd 303d 62ca be3b 62ce 3ebd
000001a0: 8d7d a4bd 0213 1cbd 8dbf 8b3d ed25 b3bd
000001b0: 8190 b9bc 2734 9c3d 5d7f 8dbd 18d8 533d
000001c0: a386 1d3c acc8 b53c 908b 3abd e22f 59bb
000001d0: b015 543d 46f8 80bd 17d2 2d3c 786d b03d
000001e0: 4eec 04bd 442b 7e3d 4078 3c3d 5278 523d
000001f0: b69c a63b 5960 7bbb b216 94bd e6ef 93bd
00000200: 5eb1 d0bc 8f4e 8d3d 08af 6abc 5fc9 89bd
00000210: bd1e 67bd e3e6 db3c 7c4d 493d a6e1 273d
00000220: 3941 8dbd 5891 443d 4b43 393d 725d 50bc
00000230: 663f 923d ff04 5ebd 0b18 a2bd 5b0d 6ebd
00000240: c164 2abd d0af 0cbd cd8f 84bd 3085 233c
00000250: 4020 2e3d 9486 4abd 3db4 92bc 91d3 2c3d
00000260: a7cd 9e3b 1bc0 693d 6f08 4c3d d4b1 0fbd
00000270: 549d 58bc 55d8 1f3c 8b10 bd3c eb45 a03d
00000280: 748d 2c3a 7cee 8c3d c565 f63c 248d 103d
00000290: 8547 2abd 185d 153c 42a6 03bd b207 963d
000002a0: 1576 41bd e3c5 993d def4 a63d 341a d63c
000002b0: ded4 82ba 6029 0f3c eb2a 54bd 1b5c e23a
000002c0: 55da cb3c a31e 82bd 859b 0b3d 7f1b d93b
000002d0: cec9 75bd b02b 953d 593f 65bd 0278 bdbc
000002e0: 582c 59bd 6a04 a8bd 722f 23bc b8cc 6d3c
000002f0: 7cf1 e13c 3443 983d 88b0 49bc fbd4 9a3c
00000300: 689b a53c d749 903c ea8c b43d 272a ee3c
00000310: 6517 87bb 5533 debc 5afd 313c e5bf 94bd
00000320: 1883 40bd 7e93 41bd e2f1 363d d38e 3d3c
00000330: 0d05 43bd 2b0f 9abc aa5e 223d 07f9 173d
00000340: 3adc b7bc 8d4d 0c3d 98ea 34bc 38ec ebbc
00000350: 9d83 483c 5577 7ebc 7b7e 7dbb 5cf0 a53c
00000360: b4ea 3b3d b340 b9bc 245c 83bd 2107 9a3d
00000370: 8256 e83c 762c ebbc 87c8 903d 0f28 793d
00000380: 4e5c a8bc dce2 523d b0e6 563c c776 92bd
00000390: 8e57 93bd 3192 50bd 1c3a 22bd 524f 62bd
000003a0: 208f 923d 64b2 2e3d 2caa 8abd b97b aabd
000003b0: d943 10bd fbf4 383c a9a6 4f3c 9838 41bd
000003c0: 6eb8 743d 7673 a53d bbe7 55bd 87b5 533d
000003d0: 3ed2 32bb 24eb 99bd b738 abbc 6649 c6b9
000003e0: 68d2 aabc 58bd 83bb 267c 8f3d eb7d 9cbc
000003f0: a55c 97bd b0e0 ad3c 7e3a 60bd ec26 f9bc
0.016867898 -0.084933795 0.019325728 0.06161743 0.059779055 -0.029923359 0.022546712 0.045593694
0.02890162 -0.0563054 0.066899985 -0.072314925 -0.06939311 -0.0665972 0.0035303638 0.08340436
0.017768646 -0.05604047 0.0037734995 -0.036002867 -0.08548447 -0.015682697 -0.08098639 0.02443712
-0.056388464 0.084875315 0.059856817 -0.060118083 0.007670784 -0.0056293723 0.06705422 -0.0530475
0.009749516 -0.04218609 0.06927639 0.07702235 -0.023679044 -0.016647724 0.062034775 0.0011756201
-0.056418568 0.012106211 0.012401705 0.01808092 -0.057589207 0.07920785 0.044517685 -0.01344578
-0.014806666 0.0007012735 -0.06330687 0.020331405 -0.026567534 0.013299969 -0.04487673 -0.047118954
-0.067840695 -0.018933972 -0.033609696 0.051955946 -0.06614329 0.071588226 -0.0009069351 0.0012901599
0.056249313 -0.08783785 -0.028452402 0.0051282286 -0.06433292 0.08554308 -0.08685353 -0.07278502
-0.028100263 0.08494719 0.034378346 -0.056571558 -0.03757745 -0.058485135 -0.01833602 0.03081461
0.0754922 -0.00693848 0.011040492 0.07334775 0.039929938 -0.0815439 0.07311161 -0.017577024
0.06826686 0.040770106 -0.037565246 -0.0052298876 -0.027811624 0.054705843 0.020212756 -0.0312439
0.07096129 0.05532812 -0.021858068 -0.06338458 -0.046802577 0.043210424 0.0058224658 -0.04658354
-0.080317594 -0.038104065 0.06823645 -0.08747468 -0.022651913 0.07627135 -0.06909058 0.051719755
0.009614619 0.022190414 -0.045543253 -0.0033140113 0.051778495 -0.062973544 0.010609171 0.086146295
-0.03245192 0.06205298 0.046013117 0.051384278 0.0050845994 -0.0038356988 -0.07230891 -0.07223491
-0.0254752 0.068997495 -0.014323957 -0.067278616 -0.0564258 0.026843494 0.04914616 0.04098668
-0.06897206 0.047990173 0.04523019 -0.012717592 0.071409985 -0.054203983 -0.07914742 -0.058118206
-0.041599993 -0.034347355 -0.0647274 0.009980485 0.042511225 -0.04944475 -0.01790821 0.042193953
0.004846293 0.05706797 0.04981273 -0.0350817 -0.013221104 0.009756167 0.023079177 0.07825836
0.00065823575 0.06881425 0.030077824 0.035290852 -0.041572113 0.009116434 -0.032140978 0.073256865
-0.047231752 0.07508447 0.081521735 0.026135541 -0.0009981652 0.008737892 -0.051798742 0.0017269881
0.024884382 -0.063535 0.03408386 0.0066255922 -0.06000691 0.07283723 -0.055968616 -0.023128513
-0.053020805 -0.08203967 -0.009960042 0.014514141 0.027580969 0.07434693 -0.012310155 0.018900385
0.020215705 0.017613335 0.0881594 0.029072834 -0.004122662 -0.027124086 0.010863626 -0.072631635
-0.04700002 -0.0472598 0.04466427 0.0115696965 -0.04761224 -0.01880606 0.03964106 0.037102725
-0.02244388 0.034253646 -0.01104226 -0.028799161 0.01223841 -0.015531381 -0.0038680125 0.020256214
0.045878127 -0.022613859 -0.06414059 0.07520891 0.028361563 -0.028707724 0.070694976 0.06082922
-0.020551827 0.05148588 0.013116524 -0.07151561 -0.07194434 -0.05092067 -0.0396062 -0.055251427
0.07156205 0.042650595 -0.06770739 -0.083243795 -0.035220955 0.011288877 0.012674012 -0.047173113
0.0597462 0.08078663 -0.05222295 0.05168679 -0.0027285959 -0.07515553 -0.020901067 -0.0003782019
-0.020852283 -0.0040203743 0.07006101 -0.019103011 -0.073907174 0.021225303 -0.054743282 -0.030414067

layers.2.bias f4 [128]
00000000: 64d9 953d 257b 66bd d1ba 15bd 76d2 8e3d
00000010: a29c 913d b7d4 92bd 0c1e 853c 29ee 32bd
00000020: 6b72 06bd 5e64 9cbd fba4 a0bd 61df 8a3d
00000030: 5c73 25bd d660 ed3c 7577 39bc 0aa4 04bd
00000040: 2763 c23b af11 8cbd 615a a0bd 2e59 49bd
00000050: 8ca8 47bd 696c 8f3d c40f 873c 7286 973d
00000060: b920 8e3d 0bd4 9b3c 3ea8 94bc 2d3a f03c
00000070: 89c0 9dbd 287e 98bd 55e4 42bd 8dcf 183d
00000080: b150 283d 6f60 81bd 9ca4 c4bc d840 923c
00000090: 9d74 763c 7be2 27bd a182 db3a 8ced 923d
000000a0: d7e3 a63d b1df 19bc 30dc 423d e536 51bd
000000b0: 5cbf a33d 3379 1bbd b470 883d 6827 1fbc
000000c0: 5ec6 7abd 4bde b0bd 126e a13d 370b 3c3d
000000d0: ea39 15bb bff6 57bd 0539 983d b279 1bbd
000000e0: 4de0 dd3b e30e 923d f4bd 95bd b65b 013d
000000f0: ec81 36bd 221e 253d 4b88 713d e644 ea3c
00000100: 0429 67bd 13b4 073d c9fe b0bd cfd4 57bd
00000110: a1a9 b13d 1eff 1ebd d987 703d dc5b da3c
00000120: 2001 953d 55cb 65bd c8de 6bbc a749 573d
00000130: 67ff abbb 4034 613d ec12 93bd 728a 9fbd
00000140: 2b2e 0cbd 4511 743d e4e2 83bc cf8e 633d
00000150: 8dc3 9abc e045 37bd 5a4e 9a3d 8a7a 97bd
00000160: 320f 503c db2e e4bc df1f cabc 410f 2f3c
00000170: 44d8 83bd a243 6d3d a9d5 263d 3245 a8bd
00000180: 831a 3d3d d0ce 9fbc 64b8 67bc 254f 213d
00000190: be47 8c3c 039b 69bc 0a86 87bd 6195 28bd
000001a0: 02c6 aa3d 15e3 d43c 5d0e 0fbd d418 5e3c
000001b0: 9d42 7e3d ad6b ba3c ab02 913d cfe8 2ebd
000001c0: 775a a23d b049 a3bd a8c9 74bb 27d5 e5bc
000001d0: f97b 60bd 886a 08bd 4822 933c 66cf 933d
000001e0: 4ce4 bbbc f2ac 783c 4b8e 36b8 e577 8f3c
000001f0: 50f3 ac3d 77d7 98bc 34da a7bc a3ec b2bd
0.073168546 -0.056269784 -0.036555115 0.06973736 0.071099535 -0.071694784 0.016249679 -0.04368416
-0.03282396 -0.07636331 -0.078439675 0.067808874 -0.04039322 0.028976839 -0.011319985 -0.032383002
0.00593223 -0.068393104 -0.078297384 -0.049157314 -0.048744723 0.070030995 0.01648701 0.0739869
0.06939835 0.019022008 -0.01814663 0.029324615 -0.07702739 -0.074459374 -0.047581036 0.03730731
0.04109258 -0.063172214 -0.024004273 0.017853186 0.015042451 -0.040987473 0.0016747304 0.07174215
0.08148926 -0.009391711 0.04757327 -0.051077742 0.07995483 -0.03795738 0.066621214 -0.009713985
-0.061224334 -0.08636149 0.07882322 0.045909133 -0.0022770115 -0.05272555 0.074327506 -0.037957855
0.0067711235 0.07131746 -0.07311621 0.031581603 -0.044557497 0.04031194 0.05896787 0.028597306
-0.0564356 0.033130717 -0.086423464 -0.052693184 0.08674932 -0.038817517 0.058723304 0.02665513
0.07275605 -0.056102116 -0.014396377 0.052560475 -0.005248952 0.05498147 -0.071813434 -0.07790078
-0.034223717 0.059586782 -0.0160994 0.055556115 -0.018892074 -0.044744372 0.075344756 -0.07396419
0.012698935 -0.027854374 -0.0246734 0.010684789 -0.06437734 0.057925828 0.040731106 -0.08216323
0.04616786 -0.019507796 -0.014143083 0.03938212 0.017124053 -0.014258149 -0.06617363 -0.041158084
0.08338548 0.025987187 -0.034925807 0.013555724 0.062075246 0.022756422 0.07080587 -0.042702492
0.07927411 -0.07973039 -0.0037351642 -0.02805574 -0.05480573 -0.03330472 0.017960683 0.072172925
-0.022936009 0.015177952 -4.3524702e-05 0.017513225 0.08444846 -0.01865743 -0.02048979 -0.08736541

layers.3.weight f4 [128, 128]
00000000: bc72 ccbc edcd 823a ea2b 9f3d 6ded 7abd
00000010: 86b4 993c 85b3 9c3d b55c a5bd 021f 30bd
00000020: 9512 71bd 19ec 833d b544 3abd 098d 983d
00000030: dfa4 803d 8210 a73c 5cb2 26bd 1b15 ccbb
00000040: c883 903d 8e04 b03d d1bd b23d fc30 0c3d
00000050: c433 5d3d 87c9 603c d845 713c c31d 0cbd
00000060: 051f 9dbd 4c81 953d 07dd f83c c797 fcbc
00000070: c997 943c ce38 a6bd 0eb8 973d 8b50 593c
00000080: b466 3dbd eda5 743c 955c 36bc de5a 65bd
00000090: 0765 acbc 142c 8bbd 8846 6a3d d982 8f3d
000000a0: 8c34 8fbd 7c21 4d3d d07a 613d e0af 263d
000000b0: c791 0f3d ca04 8b3d 7d02 a43d 170c 833c
000000c0: e391 8fbd e629 263d f3c9 a23d d2a5 633c
000000d0: 2970 f23c 83cd 3bbd 16fa d3bc c575 03bd
000000e0: 56e8 193d 055c 7d3d 37ad a23d cfa2 a5bc
000000f0: a958 99bd e4b0 6ebd 7969 873c 5688 bc3c
00000100: abf6 b4bb a3b0 873d 0cb4 d0bc 01a7 67bd
00000110: 3bcd 95bc 6cb3 51bb 3b41 1e3d ec30 1abd
00000120: e0b2 c8bc 45e6 abbd 11c1 5f3d 6fec 78bd
00000130: 6cbe 0fbc 2f14 5a3c 46a8 d33c d7d8 9cbd
00000140: b72b c5bc 7c19 ac3d 52bc 203d b586 323d
00000150: 2b09 e63c f7ac 523d 7b6d 6abd 5247 86bd
00000160: 3968 2a3d 2c95 87bd e11f 9d3d 69c6 3f3d
00000170: 51f1 a13d 2573 babc f369 91bd 2d53 203c
00000180: 3e25 53bc bdab 043c 7997 31bd d2b9 a13d
00000190: 19f2 8abd 520c a43d b20c 093d 5bc3 b43d
000001a0: cf98 9fbd 6b52 9fbd d44a 97bc 26bf afbd
000001b0: 71b5 d2bc 0c14 99bc 8a3d b4bc e6ee 9cbd
000001c0: ad70 7cbd 459a 1cbd 8224 5cbd a4b1 a63d
000001d0: 8b26 9c3c 1bd9 4cbc c28e 473d 07f9 8d3d
000001e0: 50ab 75bd 6c2d a9bd 866c 85bb 9567 503d
000001f0: 1338 34bd 2716 6bbd 4dc4 42bd 0e65 2e3c
00000200: eed6 3cbc c59b a43d d485 b0bd 4e79 4f3d
00000210: 6f78 08bd 5d6d 1f3d acfb 823b 1901 b1bc
00000220: ea24 493c 0bdc 693d 37e8 a93c b402 6bbd
00000230: 3566 5cbc 7194 8fbd 437d c33c ba7a f1bc
00000240: 82d8 d1bc 4cd1 543c 8f7b b53c c5ed dfbc
00000250: a4ee 4cbd 97ef 1abd 800d ebbc 2a46 893d
00000260: 8684 22bd 4835 16bc 691d 3dbc f1ee 683d
00000270: 699d 6abd 826c c1bc c742 1dbd 9cec 8b3c
00000280: 6b9e 583d 609f 67bd c198 1f3d 5005 b0bc
00000290: dbd2 0c3d 8e16 aabd 6cc2 94bd 2b88 5fbd
000002a0: 3a70 32bd e45e c03c 36ce 813b 83d0 34bc
000002b0: 0460 053c 4cd3 d63a 6400 a63d 189e fdbc
000002c0: c1bc 41bd ba74 ca3c 059a 92b8 b957 7b3d
000002d0: d116 3d3d 8c6f a43d 5b12 89bd e0e2 323d
000002e0: 4a23 d738 27a0 313d 4a16 abbd d46f 3f3d
000002f0: 49fd 77bc b9f3 a33d ebbb ab3d bd41 81bd
00000300: bb6c 42bc 62ab 613d 719c 0a3d 8634 95bd
00000310: 9ac0 803d 9d65 30bb fa2e c73c 8536 94bc
00000320: 9a2a f93c 188d 1fbd 2379 503d ab71 9c3d
00000330: 5c54 9bbb bbc5 8abd 053b e33b e1fa 843d
00000340: a073 b0bd 1b46 21bb 8a43 50bd e8a1 15bd
00000350: 9a0b 0cbd c2a4 44bc 74d8 1bbd a514 90bd
00000360: 2ada 02bd c425 893d a7c0 05bd 0d34 18bb
00000370: 493f 2dbd 2819 5ebd 8ddc acbc 8be1 aa3c
00000380: 28b1 aa3d 039a ac3d 71d3 443d 7a1f 813d
00000390: e807 fa3c 5e56 a2bd b126 94bd 50a7 36bd
000003a0: 469e 843d 4ac5 ef3b cba5 8cbd e914 64bb
000003b0: 3915 743d 2701 86bd 376c 7abd 4cf9 af3d
000003c0: ce0e 29ba 7019 933c 1859 0e3d 8378 973c
000003d0: 8bac 073d 5e26 4c3d 3843 2bbd afce 32bb
000003e0: 4e3a 483d f958 97bb a696 b5bb 51e9 4ebc
000003f0: 0c6c 5a3d ef8b 793d 5964 193d 807c 6cbc
-0.024957053 0.0009979584 0.07772048 -0.061261583 0.018762838 0.07651428 -0.08074323 -0.04299832
-0.05885561 0.064415164 -0.04547568 0.07448775 0.06281447 0.020393614 -0.04069744 -0.006228102
0.07056385 0.08594619 0.08727611 0.034226403 0.054004446 0.013719923 0.014726125 -0.03420807
-0.07671932 0.07300052 0.030378832 -0.030834092 0.018138783 -0.081163034 0.074081525 0.013263832
-0.046240523 0.014932138 -0.011130472 -0.05599486 -0.021044267 -0.067955166 0.05719617 0.07007379
-0.069924444 0.05008076 0.055048764 0.04069507 0.035051133 0.06788023 0.08008287 0.015996976
-0.070102476 0.0405673 0.07948675 0.013894515 0.029594498 -0.045850288 -0.025876086 -0.032094736
0.03757509 0.061855335 0.07943194 -0.020219235 -0.07487614 -0.058274165 0.016529785 0.023014229
-0.005522569 0.06625488 -0.025476478 -0.05655575 -0.018286338 -0.0031997813 0.038636427 -0.03764431
-0.024499357 -0.0839353 0.05462748 -0.060772356 -0.008773427 0.013310476 0.025837075 -0.076585464
-0.024068696 0.08403298 0.039242096 0.043585498 0.028080544 0.051434483 -0.057233315 -0.06556572
0.0416033 -0.06620249 0.07672096 0.046820078 0.079073556 -0.022759983 -0.07100286 0.009785456
-0.012887297 0.008097586 -0.043357346 0.078967705 -0.06784458 0.080101624 0.033459373 0.088263236
-0.07792818 -0.07779392 -0.018468298 -0.085813805 -0.025721284 -0.018686317 -0.022002 -0.07662754
-0.061630893 -0.03823306 -0.053745754 0.08139351 0.019061347 -0.012502934 0.04872013 0.06932264
-0.05997783 -0.08260617 -0.004071775 0.050880034 -0.04399879 -0.057394173 -0.04755049 0.0106442105
-0.011525853 0.08037523 -0.08619276 0.050652795 -0.03331798 0.038922656 0.003997287 -0.021606969
0.012276867 0.057094615 0.020740611 -0.057375625 -0.013452102 -0.07010735 0.02386344 -0.029477466
-0.025615934 0.012989353 0.022153644 -0.027335057 -0.050032273 -0.037826147 -0.02869296 0.06702836
-0.039677165 -0.009167977 -0.011542656 0.056868497 -0.057279024 -0.02361131 -0.038393762 0.017080598
0.052885454 -0.056548476 0.038964037 -0.021486908 0.034380775 -0.08305083 -0.072636455 -0.05457322
-0.04356406 0.023482747 0.00396135 -0.011036041 0.008140568 0.0016389876 0.08105543 -0.030959174
-0.04729915 0.024713863 -6.990511e-05 0.061362956 0.046164338 0.080290884 -0.06692954 0.043673396
0.00010258572 0.043365624 -0.08353861 0.046737507 -0.0151360715 0.08005471 0.08385452 -0.06311367
-0.011866744 0.055095084 0.0338406 -0.07285409 0.06286736 -0.0026916035 0.024314392 -0.018092403
0.030415822 -0.038952917 0.050896775 0.07638868 -0.004740281 -0.06775995 0.006934526 0.06493164
-0.08615804 -0.0024608437 -0.05084566 -0.03653136 -0.03419075 -0.012002172 -0.038048223 -0.07035188
-0.03194634 0.06696656 -0.03265443 -0.0023224384 -0.04229668 -0.05422321 -0.02110126 0.0208595
0.08334571 0.08427813 0.04805321 0.06304832 0.030521348 -0.079266295 -0.07233942 -0.044593155
0.06475501 0.00731722 -0.0686756 -0.0034802502 0.059590552 -0.065431885 -0.061138358 0.085924715
-0.00064490444 0.017956465 0.034752935 0.018490082 0.033123534 0.049841277 -0.04181215 -0.0027283838
0.04888373 -0.0046187607 -0.0055416403 -0.012628869 0.053325698 0.060924467 0.037449215 -0.01443398

layers.3.bias f4 [128]
00000000: ae73 e13c f2fe 9b3d 8da1 e9bc b3bc 52bd
00000010: b97b 43bd 9c26 8e3d 1a4d 0c3d d63e b3bd
00000020: 4cb4 52bd e2b0 76bd 630c c2bc 40a9 e83b
00000030: db05 ab3b d5a1 0abd 50b2 3cbd 6138 64bc
00000040: 9a8d 1dbd b1f1 0a3d be26 933d 1696 9f3d
00000050: ed55 453c f69c 88bd a17c 153c e8b5 9abd
00000060: ccb4 223d c7c1 a73c 59b8 1abd a2d0 b23d
00000070: 5708 99bc 26ba 5d3d 8d6a 4cbb 863d 263d
00000080: d526 49bd 893f 0d3d 8926 83bd 9e33 f93c
00000090: efc2 9fbc f7b2 f43c deeb 4c3d 8296 3c3d
000000a0: 72aa 153b 2f9e 883c 32a7 afbd 60b9 1d3d
000000b0: c1b5 b13d 883d 873d b210 213d 7b24 30bc
000000c0: df7c 713d 5017 9bbd 5094 2b3d 4a89 9e3d
000000d0: 52d5 a0bd 85a5 f1bb 9753 99bc 093f 40bd
000000e0: d76a 1dbc 0fab 463d 8584 9c3d feda 99bc
000000f0: 18d4 593c 0cea 173d 89ac ad3d f64c 64bd
00000100: ba2f 4b3d d7b7 95bd d77b eb3b d556 0a3d
00000110: 0c51 013d 0aa3 55bd 673b 93bc 403e 953d
00000120: a374 86bd 6185 583d 895a c03c 9d7b 92bb
00000130: e4cb fc3c f007 84bd e859 583c 74eb 0d3d
00000140: 71c5 27bd 8044 c9bc ea47 1fbd ce59 6b3d
00000150: 8432 d6bb 3716 a53d ad2e 75bd 9812 3aba
00000160: 849d 7d3d 3d48 9bbd 6b84 a2bd 9000 d43b
00000170: b10e c93c 2da2 fcbc a796 c83b 071f 9f3d
00000180: a067 8e3d 7242 3ebd eba7 c13a 0346 a8bd
00000190: a1bf 40bb 5b23 b23c 82e7 683d c79d 5b3d
000001a0: 57ad 6d3d dbcf a8bd 05b7 263d 7f8b d3bc
000001b0: d557 7ebc 7031 91bd ae65 763d 417f 453d
000001c0: 7899 93bd b640 93bd 29a5 09bd 340e 1b3d
000001d0: 09db 90bd a185 413c 9237 dbbc b613 433d
000001e0: 3fd1 44bc 0041 85bd 6249 69bd 723b 283d
000001f0: 5af8 4c3a daba 9d3d 2d69 0cbc 0f55 c1bb
0.02752098 0.07616986 -0.028519416 -0.05144949 -0.047725413 0.06940958 0.034253217 -0.087522194
-0.051441476 -0.060227282 -0.023687547 0.0071002543 0.005219204 -0.03384574 -0.04606849 -0.013929457
-0.03846512 0.0339219 0.07185124 0.077922985 0.012044412 -0.06670563 0.009123952 -0.07554227
0.039723203 0.020478142 -0.037773464 0.087312 -0.018680735 0.054132603 -0.003119144 0.040586017
-0.0491093 0.03448442 -0.064038344 0.03042012 -0.019502131 0.029870493 0.050029628 0.046041973
0.002283719 0.01667699 -0.08576812 0.038506866 0.08677245 0.06603533 0.039322563 -0.010750885
0.058956977 -0.07572806 0.04188949 0.077410296 -0.078531876 -0.007374468 -0.018716617 -0.046935115
-0.009607992 0.048502978 0.076424636 -0.018781181 0.013295196 0.03708844 0.08480174 -0.05573746
0.049606062 -0.07310455 0.0071863937 0.033774216 0.031571433 -0.05215744 -0.017972661 0.07287264
-0.065652154 0.052861575 0.02348067 -0.0044703023 0.030858941 -0.064468265 0.013205029 0.034648374
-0.04095978 -0.024568796 -0.038886942 0.05745869 -0.0065367837 0.08060878 -0.059858967 -0.00070981076
0.061917797 -0.07582138 -0.07935413 0.0064697936 0.024543138 -0.03083905 0.006121475 0.0776959
0.06953359 -0.046450086 0.0014774775 -0.08216479 -0.0029411095 0.021745374 0.056861408 0.053617265
0.058026638 -0.0824277 0.040701885 -0.025823353 -0.0155238705 -0.070895076 0.060155563 0.048217062
-0.07207006 -0.07190077 -0.033604775 0.037855342 -0.07073028 0.011811645 -0.026759896 0.04762622
-0.012012779 -0.065065384 -0.05695475 0.041072316 0.00078189897 0.07701655 -0.008569998 -0.0059000324
