DDQN/voidResults/2cyl_1000epDecay/Qpolicy800.pt (torch, 82863 bytes, 7 tensors)

fc.weight f4 [128, 17]
0	0xbd7c2970	-0.061562955
1	0x3e770772	0.24123934
2	0x3e39977a	0.1812419
3	0xbd8bbb62	-0.0682285
4	0xbe39880a	-0.18118301
5	0xbd63c1f4	-0.05560489
6	0xbe5c105b	-0.21490614
7	0xbccfa100	-0.025345325
8	0xbb8b9ae0	-0.004260406
9	0xbd3db120	-0.046311498
10	0xbdde7608	-0.108623564
11	0x3d98a4f0	0.07453334
12	0x3d6547b8	0.0559766
13	0x3e1e74dc	0.15474266
14	0x3cf00950	0.029301316
15	0xbe4b0949	-0.19827761
16	0x3e38c64a	0.18044391
17	0x3e88ffe1	0.2675772
18	0xbde5f349	-0.112280436
19	0xbd493fad	-0.04913299
20	0x3e9390c6	0.2882139
21	0x3e62bb79	0.22141828
22	0x3e20b9cc	0.15695876
23	0x3e24ce67	0.16094361
24	0x3cf68295	0.030091563
25	0x3bd823a9	0.006596048
26	0x3d902ec7	0.07040172
27	0x3d9ec259	0.077519126
28	0xbe9d976d	-0.3077959
29	0x3dc1c698	0.09461707
30	0x3e3aad55	0.18230183
31	0xbe4465cc	-0.19179457
32	0x3ded43fa	0.11585231
33	0x3d27abc0	0.040935278
34	0xbe2410a7	-0.16021977
35	0xbdfaef42	-0.12252666
36	0x3e349a7a	0.17637053
37	0xbe69525e	-0.22785327
38	0x3e3ea16c	0.18616265
39	0xbdfc67b0	-0.12324464
40	0xbd613900	-0.054986
41	0x3e302a1c	0.17203563
42	0xbe477dee	-0.19481632
43	0x3e605cde	0.21910426
44	0xbddc31c0	-0.107516766
45	0xbdd7c6c6	-0.1053596
46	0xbd5adb48	-0.05343178
47	0x3e075618	0.13216436
48	0xbe1cc47c	-0.15309328
49	0xbe72574f	-0.23666118
50	0x3e194f08	0.14971554
51	0xbdb141a7	-0.086551
52	0xbf9b3021	-1.2124063
53	0x3e9e0a5f	0.30867288
54	0x3fae1680	1.3600616
55	0xbde1e1cf	-0.11029398
56	0x3e1c92f8	0.15290439
57	0x3e387ab5	0.18015559
58	0x3e741d98	0.23839414
59	0xbe535858	-0.20639169
60	0x3dfff4e4	0.12497881
61	0x3e20eebd	0.15716071
62	0xbd2118bb	-0.039330225
63	0x3d6ef8e1	0.05834282
64	0x3ddce717	0.107862644
65	0x3e383b07	0.17991267
66	0x3e2c5b79	0.16831769
67	0x3da99351	0.082800515
68	0xbe71f06a	-0.23626867
69	0xbed36c0f	-0.4129338
70	0xbea5faa7	-0.32417795
71	0x3ec34285	0.38136688
72	0x3e00bb5b	0.1257147
73	0xbe54b6bc	-0.20772833
74	0x3e63e629	0.22255768
75	0x3e4877c1	0.19576932
76	0xbdb60686	-0.08887963
77	0x3d564774	0.052314237
78	0x3df945f8	0.121715486
79	0x3da57847	0.08079582
80	0xbe907fe5	-0.28222576
81	0xbc6d0cc3	-0.014468375
82	0xbe3d04d5	-0.18458875
83	0x3e3b77c1	0.18307401
84	0xbe0ed232	-0.1394737
85	0x3c61fcff	0.013793229
86	0xbeaecd88	-0.34141183
87	0xbd58db73	-0.052943658
88	0x3e8ecde7	0.27891466
89	0xbdaaa975	-0.083331026
90	0x3df29257	0.11844318
91	0xbe83f9bd	-0.25776473
92	0xbdfc6407	-0.12323766
93	0xbe5a33c4	-0.2130881
94	0xbe7ea2e0	-0.2486682
95	0xbd932ffa	-0.07186885
96	0x3e44a371	0.19202973
97	0x3e04eb4c	0.12980384
98	0x3e75adcc	0.2399208
99	0x3e5db33e	0.21650407
100	0xbe02671b	-0.12734644
101	0xbe6ea2b3	-0.23304252
102	0xbecaac70	-0.39584684
103	0x3e812bcd	0.2522873
104	0x3ec2b1e7	0.38026354
105	0xbe6be8cf	-0.23038028
106	0x3e85f76a	0.26165324
107	0xbe181bc1	-0.14854337
108	0xbe125d0a	-0.14293304
109	0xbde66da4	-0.11251381
110	0x3e50604d	0.20349236
111	0xbdebd46d	-0.115151264
112	0xbe6f500e	-0.23370382
113	0x3e29638e	0.16541883
114	0xbe6361f3	-0.22205333
115	0x3cc539e9	0.024075465
116	0xbad8820c	-0.0016518249
117	0xbd71059f	-0.05884325
118	0xbe6803bd	-0.22657676
119	0x3f849343	1.0357441
120	0x3f137e68	0.57614756
121	0xbf9956ba	-1.1979592
122	0xbf1b6770	-0.6070471
123	0x3e9d2cc5	0.3069822
124	0x3eddc015	0.4331061
125	0x3d9baa96	0.07600896
126	0x3dd79f43	0.10528424
127	0x3c4b0c41	0.012393058
128	0xbca86b11	-0.020558866
129	0xbe4fb64c	-0.20284384
130	0xbe99e30f	-0.30056044
131	0xbe39d8e0	-0.18149137
132	0x3dc46288	0.09589106
133	0xbdff8bf5	-0.124778666
134	0x3e14023a	0.14453974
135	0x3de6182e	0.11235081
136	0x3f56a464	0.8384459
137	0x3f850fa8	1.0395403
138	0xbf548f98	-0.83031607
139	0xbf90b5b3	-1.130545
140	0x3db40ac4	0.08791116
141	0x3e15d48e	0.14631864
142	0xbdd3a715	-0.10334603
143	0x3d31c0e3	0.04339684
144	0xbe5ed391	-0.21760394
145	0x3d5968c3	0.053078424
146	0x3d7ec111	0.06219584
147	0x3d1d1153	0.0383466
148	0x3e768d7b	0.24077408
149	0x3e920ef9	0.28527048
150	0xbc165a77	-0.009176842
151	0xbe5bb9be	-0.21457574
152	0x3e80cd1d	0.2515649
153	0xbe213901	-0.15744402
154	0x3e14406d	0.14477701
155	0x3df85fae	0.121276245
156	0xbe525d57	-0.20543419
157	0xbe217ba4	-0.15769821
158	0x3deca88b	0.115555845
159	0x3d6f7720	0.058463216
160	0xbe4ba04e	-0.1988537
161	0xbe28aa9d	-0.16471334
162	0x3cce3af3	0.025174594
163	0x3dfe1d4b	0.12407931
164	0x3e0050e7	0.12530862
165	0xbda79859	-0.08183355
166	0xbdeb98d4	-0.11503759
167	0x3d86fc8d	0.06591139
168	0x3d863ff7	0.06555169
169	0x3dec6a85	0.115437545
170	0x3d905b4c	0.070486635
171	0xbdf30e78	-0.11867994
172	0x3d922eb0	0.07137811
173	0x3e02fb0e	0.12791082
174	0xbe316212	-0.17322567
175	0xbd7ac918	-0.061226934
176	0xbe314dc8	-0.17314827
177	0x3d43bbf8	0.047786683
178	0xbe3f275e	-0.18667361
179	0xbe26fb9e	-0.16306922
180	0x3e2f01ee	0.1709058
181	0xbe1a0352	-0.15040329
182	0xbe4fb61e	-0.20284316
183	0xbda3e11a	-0.08001919
184	0x3d414d70	0.04719299
185	0xbe2bccb6	-0.1677731
186	0xbe5bd078	-0.21466243
187	0x3e7a7584	0.24458891
188	0x3c049486	0.008092051
189	0x3cecb92f	0.028896896
190	0x3e1d141e	0.15339705
191	0x3d8ddbc5	0.06926683
192	0xbdec0aea	-0.11525519
193	0x3e39c09b	0.1813988
194	0x3da94354	0.08264795
195	0xbdc2b38a	-0.095069006
196	0xbe2627d8	-0.16226137
197	0x3e06d87b	0.13168518
198	0x3de5cc53	0.112206124
199	0x3d465fc9	0.04843119
200	0xbd0205cc	-0.03174381
201	0xbe71123b	-0.2354211
202	0x3c0786a5	0.008271848
203	0xbd97f0ab	-0.07418951
204	0x3e4bb81c	0.19894451
205	0x3e5fb9d6	0.21848235
206	0x3e56b334	0.20966798
207	0xbd913fba	-0.07092233
208	0xbe710602	-0.23537448
209	0xbde45a60	-0.1115005
210	0xbdc9f1fc	-0.09860608
211	0xbcc83690	-0.02444008
212	0xbdc387e6	-0.09547405
213	0xbdf0a762	-0.11750676
214	0x3d098c60	0.033581138
215	0xbe4cc3bd	-0.19996543
216	0xbe53f208	-0.20697796
217	0xbe3e75bd	-0.18599601
218	0xbe0e1680	-0.1387577
219	0xbdd79b42	-0.1052766
220	0x3e055112	0.13019207
221	0xbe0a0bab	-0.13481013
222	0x3e0843ce	0.13307115
223	0x3d396a90	0.04526764
224	0xbdb441d4	-0.08801618
225	0xbe526d73	-0.20549564
226	0xbe19fa0a	-0.15036789
227	0xbdd5dca4	-0.104424745
228	0x3d70b280	0.05876398
229	0xbe63a7c7	-0.2223197
230	0x3cf32050	0.029678494
231	0xbe3dc19a	-0.18530884
232	0xbd74f070	-0.05979961
233	0x3dd0db84	0.10198119
234	0xbe476408	-0.19471753
235	0x3d718308	0.05896285
236	0x3d8c9404	0.06864169
237	0x3dc46210	0.095890164
238	0x3db09497	0.08622091
239	0x3e0ca161	0.13733436
240	0xbe29a1c6	-0.16565618
241	0x3e456a6e	0.19278881
242	0xbe617e73	-0.22020893
243	0xbe3fcf13	-0.18731336
244	0x3e39081c	0.180695
245	0x3e1d7cf8	0.15379703
246	0x3c7a938a	0.015293965
247	0xbc50ce7d	-0.012744543
248	0x3e5669b5	0.20938762
249	0xbe6f9757	-0.23397575
250	0xbe0d78cd	-0.13815613
251	0x3e19376d	0.1496255
252	0xbe1d504d	-0.15362664
253	0x3b8d8d2f	0.004319809
254	0x3e3dbf19	0.18529929
255	0x3e4e37ca	0.2013847

fc.bias f4 [128]
0	0xbd843d68	-0.06457025
1	0x3f9d81b0	1.2305202
2	0x3d88e340	0.066839695
3	0x3faeb4f8	1.3648977
4	0x3da9a0c5	0.082826175
5	0xbe9a9fa7	-0.3019993
6	0x3e312e69	0.1730286
7	0x3f6d1867	0.9261536
8	0x3ec073b1	0.37588266
9	0xbe2abf0c	-0.16674441
10	0xbe5e1edd	-0.21691461
11	0xbe74300f	-0.23846458
12	0x3e0ea692	0.13930729
13	0x3e2be360	0.16785955
14	0x3e5f0119	0.21777762
15	0x3e3cd280	0.18439674
16	0x3f8345cd	1.0255677
17	0xbdb0c87e	-0.08631991
18	0x3bd48257	0.0064852643
19	0x3ca55480	0.020181894
20	0xbe1b5382	-0.15168574
21	0xbe5fd464	-0.21858364
22	0x3d1bcde8	0.038038164
23	0xbe23a4b5	-0.159808
24	0xbda3116a	-0.07962306
25	0x3e911ffd	0.28344718
26	0x3ebf2ca4	0.37338746
27	0x3d04e68f	0.03244644
28	0x3ec76046	0.38940638
29	0x3e38e353	0.18055467
30	0xbcfd2613	-0.030901944
31	0x3a898a80	0.0010493547
32	0x3f79882e	0.9747342
33	0x3dbd903a	0.09256025
34	0x3e3103de	0.17286631
35	0x3f8f3d3a	1.119056
36	0x3e3dd934	0.18539888
37	0xbe4d2e06	-0.20037088
38	0xbda97784	-0.08274749
39	0x3f46aaa2	0.77604115
40	0xbd9cc594	-0.076548725
41	0x3ee7e5c3	0.45292482
42	0xbe2c0f67	-0.1680275
43	0x3d98a148	0.07452637
44	0x3f4bc13a	0.79591715
45	0x3e556ae1	0.20841552
46	0x3e56ab24	0.20963722
47	0xbc947850	-0.018123776
48	0xbe57c27c	-0.21070284
49	0xbcb4ff83	-0.022094494
50	0x3f85747c	1.0426173
51	0x3f2823f3	0.65679854
52	0xbe2be978	-0.1678828
53	0x3e70ab38	0.23502815
54	0xbbf8ca64	-0.007592486
55	0x3e86cd77	0.26328632
56	0x3e2b3d57	0.16722618
57	0xbe7cc323	-0.24683814
58	0x3f478a8e	0.7794579
59	0x3f6d70be	0.92750156
60	0x3dc9bcbb	0.098504506
61	0x3fb334c3	1.4000477
62	0x3dc9bc5c	0.0985038
63	0x3c908dd0	0.017645746
64	0xbcf5ce7d	-0.030005688
65	0x3e09b421	0.1344762
66	0xbe11447b	-0.1418628
67	0x3e2e5a6a	0.17026678
68	0xbe0b2d32	-0.1359146
69	0x3efb582f	0.49090716
70	0x3e06bc6e	0.13157818
71	0x3ebd553d	0.36979094
72	0xbe2e4ade	-0.17020747
73	0x3e734a34	0.23758775
74	0x3f808599	1.0040771
75	0x3e705881	0.23471262
76	0x3f8cb649	1.0993129
77	0xbd170334	-0.03686829
78	0xbd92e996	-0.07173459
79	0x3ef5a6dd	0.4797887
80	0x3f031c7a	0.51215327
81	0x3e815cbc	0.25266063
82	0x3ee5bfc3	0.44872865
83	0x3e21202b	0.15734927
84	0xbd93524b	-0.071934305
85	0x3c988220	0.018616736
86	0x3fb6573f	1.4245375
87	0x3dfee14d	0.124453165
88	0x3da9ab38	0.082846105
89	0xbe8fad04	-0.28061688
90	0x3fb1a4a6	1.3878372
91	0xbe4bba2b	-0.19895236
92	0xbdf4eea5	-0.1195958
93	0xbe262e80	-0.16228676
94	0xbd5c0614	-0.053716734
95	0x3df57aa0	0.119862795
96	0x3f1dcda5	0.61641914
97	0x3f090c7a	0.5353466
98	0x3e09f164	0.1347099
99	0xbdf2fc30	-0.11864507
100	0xbe3f1216	-0.18659243
101	0x3f8e3f17	1.1113003
102	0x3f5da939	0.8658634
103	0x3f38ab18	0.7213607
104	0xbd66950c	-0.056294486
105	0x3e8a1a78	0.2697332
106	0x3e706ca5	0.23478945
107	0x3f796e10	0.9743357
108	0x3e3dbf00	0.18529892
109	0xbda452f2	-0.08023633
110	0xbc21cc40	-0.009875357
111	0x3e2f627e	0.17127416
112	0x3ea8cb8a	0.32967788
113	0x3dbc17f8	0.09184259
114	0x3f8a30dc	1.0796161
115	0xbbe48cc0	-0.0069747865
116	0x3bfb1100	0.0076619387
117	0x3e966c56	0.2937953
118	0x3fe7a141	1.8096086
119	0x3e6dc994	0.23221427
120	0x3fd37d05	1.6522528
121	0x3e28bee0	0.16479063
122	0xbe2777f5	-0.16354354
123	0xbe49291e	-0.19644591
124	0x3e5ec834	0.21756059
125	0x3fae25ca	1.3605282
126	0xbd5ea49d	-0.054356206
127	0xbcb7b0ac	-0.02242311

hidden.0.weight f4 [128, 128]
0	0xbd317194	-0.043321207
1	0xbc1e43a9	-0.009659686
2	0x3d5cecbe	0.053936712
3	0xbeb3bc19	-0.35104445
4	0xbe8fefa0	-0.28112507
5	0xbd2955a0	-0.041341424
6	0xbe9090d7	-0.28235504
7	0x3e0e89b3	0.13919716
8	0x3ee05a13	0.4381872
9	0x3d789f32	0.060698695
10	0xbd361e03	-0.044462215
11	0xbdcff8c8	-0.10154873
12	0xbc8efe58	-0.017455265
13	0xbd5fdb07	-0.05465224
14	0x3d906e60	0.07052302
15	0x3d8af371	0.06784714
16	0xbd988d5d	-0.07448838
17	0x3bfee660	0.0077789277
18	0x3dad039c	0.08447954
19	0xbcfb3088	-0.03066279
20	0x3bde5cb0	0.0067859516
21	0x3ca2ffac	0.019897304
22	0xbd7f7808	-0.06237033
23	0xbc171718	-0.009221815
24	0x3d39247a	0.045200802
25	0xbe24a727	-0.16079389
26	0xbf06004c	-0.52344203
27	0x3d15d0c8	0.036576062
28	0x3e41f8ba	0.18942538
29	0xbe2d8393	-0.16944723
30	0x3b2e028f	0.0026551818
31	0x3d6a1c0a	0.057155646
32	0x3daab15c	0.0833461
33	0x3df7bc41	0.120964535
34	0x3d1892c6	0.03724935
35	0x3d8c2389	0.06842715
36	0x3da9cfa5	0.08291558
37	0xbda8a847	-0.08235221
38	0xbcb8d898	-0.022564217
39	0xbe86adc1	-0.2630444
40	0xbce9be28	-0.028533056
41	0x3e1bf783	0.15231137
42	0x3d92af55	0.07162348
43	0xbd2ca561	-0.042149905
44	0x3e9f77bc	0.31146038
45	0x3ef51643	0.47868547
46	0xbda87f3f	-0.08227395
47	0xbd3f7ea4	-0.046751633
48	0x3b243ba0	0.0025059953
49	0x3e0beb33	0.1366394
50	0x3e2c4d9d	0.16826482
51	0x3e817f32	0.25292355
52	0x3c616152	0.013756113
53	0x3cedd48c	0.029032014
54	0xbced8865	-0.028995702
55	0xbe66991d	-0.22519346
56	0xbd95e2b9	-0.073186345
57	0xbf04e3bf	-0.5191001
58	0x3d9e9e41	0.07745028
59	0x3e2d3b29	0.16917099
60	0xbdb701fa	-0.08935924
61	0x3c2ff182	0.010738732
62	0xbd439156	-0.047746025
63	0x3d5f789a	0.054558374
64	0xbcae9a56	-0.021313827
65	0xbb47cf58	-0.0030488577
66	0xbd2b23ef	-0.041782316
67	0xbd10ebc2	-0.035381086
68	0x3b911290	0.0044272617
69	0xbe7973ce	-0.24360582
70	0xbd73ccbc	-0.05952142
71	0xbeba7c8e	-0.36423153
72	0xbbf89be0	-0.007586941
73	0x3d7c767a	0.061636426
74	0x3d1f466f	0.03888553
75	0xbdb72853	-0.08943238
76	0x3e0e8c57	0.13920723
77	0xbd1462d6	-0.03622707
78	0xbd97f254	-0.07419267
79	0x3ded15dd	0.11576436
80	0xbd28c4f7	-0.041203465
81	0xbe280770	-0.16409087
82	0xbe230906	-0.15921411
83	0x3d010b5c	0.031504974
84	0x3d6c63a6	0.05771222
85	0xbbbc8260	-0.0057528466
86	0xbeca7cc4	-0.39548314
87	0xbd18c235	-0.037294585
88	0xbd58326b	-0.052782457
89	0xbe31df2b	-0.17370288
90	0xbdbf845f	-0.0935142
91	0xbd5ee41f	-0.054416772
92	0x3bb022da	0.0053752484
93	0x3d34351a	0.043995954
94	0xbdb1102b	-0.08645662
95	0x3be5d530	0.0070139393
96	0xbd6fb7db	-0.058524948
97	0x3e837ae8	0.25679708
98	0x3d2b6ff6	0.04185482
99	0xbd574d6d	-0.052564073
100	0xbcd7b0dc	-0.02632945
101	0xbd9b60df	-0.07586836
102	0xbbe1f827	-0.006896037
103	0x3cfd2b4f	0.03090444
104	0x3d0539fa	0.032525994
105	0xbd9f837c	-0.077887505
106	0xbb6bb9e7	-0.003596896
107	0xbf235094	-0.6379483
108	0xbca1844c	-0.019716404
109	0xbc1ea8f3	-0.009683835
110	0x3c8a4fd0	0.01688376
111	0xbc61a49a	-0.013772154
112	0xbdefd25f	-0.11710047
113	0x3d5ca8c2	0.053871877
114	0x3d9b5311	0.07584203
115	0x3db0596f	0.08610808
116	0xba3fea00	-0.00073209405
117	0x3e2a1319	0.16608848
118	0xbe68e63e	-0.2274408
119	0xbe505638	-0.2034539
120	0x3e1935ad	0.14961882
121	0x3cceb304	0.025231846
122	0xbd893d1f	-0.06701111
123	0xbd5c65c9	-0.053808007
124	0x3d6912b0	0.056902587
125	0xbe08a7eb	-0.13345306
126	0xbe85eb25	-0.26155964
127	0xbcc21f27	-0.023696495
128	0xbd73bf20	-0.059508443
129	0xbd49779e	-0.04918634
130	0xbd9f7858	-0.077866256
131	0xbda8f279	-0.08249373
132	0x3d360b2a	0.04444424
133	0xbc0d8658	-0.008637987
134	0xbcc24010	-0.023712188
135	0x3d80acc9	0.06282956
136	0x3d58b39e	0.05290567
137	0x3d1fd16a	0.039018072
138	0xbdac05be	-0.08399533
139	0xbd0da5d9	-0.034581993
140	0xbdb1b274	-0.08676615
141	0xbc0d5938	-0.008627228
142	0x3d848b7f	0.06471919
143	0x3da44cc5	0.08022455
144	0xbd8e92c6	-0.069615886
145	0xbd2db567	-0.042409327
146	0x3d93cba7	0.07216578
147	0xbd110e2d	-0.03541391
148	0xbb1ccea0	-0.002392687
149	0xbd9974de	-0.07492994
150	0x3bbcc010	0.0057602003
151	0x3ce2a500	0.027666569
152	0xbd2890c5	-0.041153688
153	0xbd8f6911	-0.07002462
154	0xbd28a070	-0.04116863
155	0xbcd5dd94	-0.026106633
156	0xbd4cb62e	-0.049978428
157	0x3d9644f3	0.0733737
158	0xbd17a210	-0.03701979
159	0xbd2a9523	-0.041646134
160	0xbce20402	-0.027589802
161	0x3c9176a8	0.017756775
162	0x3dadbca1	0.08483244
163	0xbd0b7892	-0.03405053
164	0xbd9f5eb9	-0.07781739
165	0x3d5c46ce	0.053778462
166	0xbbd67c00	-0.0065455437
167	0x3d942bcd	0.07234917
168	0x3dab17db	0.083541594
169	0xbd4206a0	-0.0473696
170	0xbd9d1781	-0.07670499
171	0xbd635bb7	-0.055507388
172	0x3ccf285c	0.0252878
173	0xbc918aa8	-0.017766312
174	0xbd9e32e1	-0.07724548
175	0xbd6378f3	-0.055535268
176	0xbd1a69a2	-0.037698396
177	0xbccbd054	-0.024879612
178	0xbcf2d59a	-0.029642869
179	0xbd4d5465	-0.050129313
180	0xbd417d73	-0.04723878
181	0x3d7b958a	0.06142191
182	0xbce42d6e	-0.027853694
183	0x3da78c59	0.08181066
184	0xbc8da9ac	-0.01729282
185	0x3d83998f	0.06425773
186	0x3a8fc200	0.0010967851
187	0x3d299386	0.041400455
188	0xbcbe91a4	-0.023262806
189	0xbd97bbe5	-0.07408885
190	0xbdabc4bd	-0.08387134
191	0x3ca3f040	0.020012021
192	0xbd465597	-0.04842147
193	0x3d4ee8be	0.05051493
194	0x3d24afd2	0.040206738
195	0xbcd86b78	-0.026418433
196	0x3c25e438	0.010125212
197	0x3d602172	0.054719396
198	0x3d1ec1b6	0.038758956
199	0xbc3a9c30	-0.011389777
200	0x3d9a6e2f	0.07540547
201	0xbd7cf692	-0.061758585
202	0xbbce48b0	-0.006295286
203	0xbd277a29	-0.040887985
204	0x3cbe544c	0.023233555
205	0xbd912a32	-0.07088126
206	0x3d82e2bd	0.06390903
207	0xbcf25d64	-0.029585548
208	0xbd08cbe2	-0.033397563
209	0x3d75ee7e	0.060041897
210	0xbb457840	-0.003013149
211	0x3cf164fc	0.029467098
212	0xbd333900	-0.04375553
213	0xbd804a24	-0.06264141
214	0x3b8ecc20	0.0043578297
215	0xbd5cab9f	-0.053874608
216	0xbc4d9f48	-0.012550183
217	0x3d0d30fa	0.034470536
218	0xbce2b47a	-0.027673949
219	0xbd6d3c24	-0.057918683
220	0x3cdcfd9c	0.0269764
221	0xbd2cb218	-0.04216203
222	0x3d136d78	0.03599307
223	0x3d7f070a	0.062262572
224	0x3d56f68a	0.05248121
225	0xbcd1c650	-0.025607258
226	0x3bf52f80	0.007482469
227	0xbc19c418	-0.009385131
228	0xbd8b3ca6	-0.06798677
229	0x3d92b3b5	0.07163183
230	0xbd9a08aa	-0.07521184
231	0xbd201e9d	-0.039091695
232	0xbda89a85	-0.08232597
233	0x3db012dd	0.08597348
234	0xbd862259	-0.0654952
235	0x3c8e200c	0.017349266
236	0xbcd03398	-0.025415227
237	0xbd968007	-0.07348638
238	0xbcd97394	-0.02654437
239	0xbc5634a0	-0.01307407
240	0x3d73b1ba	0.059495665
241	0xbd8fc9ec	-0.070209354
242	0xbd484dd6	-0.048902355
243	0x3bbf2e20	0.005834356
244	0x3d44200a	0.047882117
245	0xbc6106a8	-0.013734497
246	0xbcdd90e0	-0.02704662
247	0xbd7b5f5e	-0.061370246
248	0xbd17709f	-0.03697264
249	0xbcd114f4	-0.025522687
250	0xbda322fc	-0.07965657
251	0x3d57eaf6	0.05271431
252	0x3ba18990	0.004929729
253	0xbd8e7604	-0.069561034
254	0xbd6ea302	-0.058260925
255	0x3ce543d8	0.027986452

hidden.0.bias f4 [128]
0	0xbee65897	-0.44989464
1	0xbd582028	-0.05276504
2	0x3f8da542	1.1066058
3	0x3d78aded	0.060712744
4	0xbb7bb579	-0.0038407727
5	0x3fadd498	1.3580503
6	0xbcd505b6	-0.0260037
7	0x3f4fdd7c	0.81197333
8	0xbcd126fe	-0.025531288
9	0x3d931acc	0.071828455
10	0x3e7ebcb6	0.24876675
11	0x3db916b8	0.090375364
12	0x3f7e621f	0.9936847
13	0x3f91600e	1.1357439
14	0x3fb58cbf	1.4183577
15	0x3eac5929	0.33661774
16	0x3e4653a7	0.19367848
17	0x3ce942d5	0.02847425
18	0xbe38794d	-0.18015023
19	0xbc9b2920	-0.018940508
20	0x3f5268f9	0.82191426
21	0x3e29c266	0.16578063
22	0x3f93a839	1.1535712
23	0x3e30ddda	0.1727213
24	0x3d95cf40	0.073149204
25	0x3f2b09f1	0.66812044
26	0x3ee82cef	0.45346782
27	0x3d2f1048	0.042740136
28	0xbcac8e7a	-0.021064032
29	0x3efbb0b3	0.49158248
30	0xbb29c271	-0.002590325
31	0x3fd49afe	1.66098
32	0xbd357566	-0.044301413
33	0x3d5f1bf2	0.05447001
34	0xbd286092	-0.04110772
35	0xbd435fba	-0.047698714
36	0x3d40d804	0.04708101
37	0xbcd2a7d0	-0.025714785
38	0x3d692396	0.056918703
39	0xbd773059	-0.060348842
40	0x3f5c88a1	0.8614598
41	0x3e81edba	0.25376683
42	0x3e7d8e19	0.24761237
43	0xbd62c374	-0.05536218
44	0xbd12abee	-0.035808496
45	0xbd39a7c6	-0.045326017
46	0x3d4cfc3a	0.05004523
47	0x3f087c50	0.53314686
48	0x3e6f6926	0.23379955
49	0x3fe08db0	1.754324
50	0x3d9963bf	0.07489728
51	0x3d84910f	0.0647298
52	0xbd93695c	-0.0719783
53	0xbd334c36	-0.043773852
54	0x3db35a7d	0.08757494
55	0xbf6dc41c	-0.92877364
56	0x3f39c3a4	0.7256415
57	0x3c14284a	0.009042809
58	0xbf02faa9	-0.5116373
59	0x3f3065db	0.6890542
60	0xbbcaba20	-0.0061867386
61	0xbc07b882	-0.008283736
62	0x3e7f23cc	0.24915999
63	0x3de1c1e3	0.11023309
64	0x3f46318c	0.7741935
65	0xbd732c80	-0.05936861
66	0xbd525d8f	-0.051358756
67	0x3ef371de	0.4754781
68	0xbb402866	-0.0029320954
69	0xbda3b1a2	-0.07992865
70	0xbe90b7f3	-0.28265342
71	0xbd862d1c	-0.06551573
72	0xbaf99b73	-0.001904352
73	0xbdc5a45f	-0.09650492
74	0x3f3b5e35	0.73190624
75	0xbd659c01	-0.05605698
76	0x3f2440eb	0.64161557
77	0x3f671c7c	0.9027784
78	0xbd0034eb	-0.031300467
79	0x3d69d6ee	0.05708974
80	0x3f0ba236	0.5454439
81	0xbe7028b2	-0.23453024
82	0x3e8f07ae	0.27935547
83	0xbd2d1d44	-0.042264238
84	0xbd43c17f	-0.047791954
85	0xbd483ec3	-0.04888798
86	0x3d9231eb	0.07138427
87	0x3d8541c2	0.06506683
88	0xbadb4a80	-0.0016730577
89	0x3e8d68cc	0.27619016
90	0x3f0b35ae	0.54378784
91	0xbc8910c0	-0.01673162
92	0x3c8b4ba8	0.01700385
93	0x3f8fe761	1.1242486
94	0xbe7ef35b	-0.2489752
95	0xbbd93de0	-0.0066296905
96	0x3f14bedf	0.58103746
97	0xbce489df	-0.027897773
98	0x3f77e8c3	0.9683954
99	0x3d94d7b0	0.072677016
100	0xbea06987	-0.3133051
101	0xbdec3355	-0.11533228
102	0xbd3e9749	-0.046530996
103	0x3c6fd0b0	0.014637157
104	0x3dac556e	0.08414732
105	0xbea049e4	-0.31306374
106	0xbd7e47a1	-0.06208003
107	0xbd9db1e8	-0.076999485
108	0x3f9906cc	1.1955199
109	0x3e17185a	0.14755383
110	0xbbb320b0	-0.005466543
111	0x3fa02ec0	1.2514267
112	0x3d8e7f7f	0.06957912
113	0xbd97bb8e	-0.0740882
114	0x3dabc6d6	0.08387534
115	0x3d8a8c5d	0.067650534
116	0xbe7bf261	-0.24604179
117	0xbe08465c	-0.1330809
118	0x3f7287ab	0.9473826
119	0x3e10938c	0.14118785
120	0xbe5fa4ce	-0.21840212
121	0x3eb3ba84	0.35103238
122	0x3cfd68d6	0.030933779
123	0xbc9525a6	-0.018206429
124	0xba7f6786	-0.0009742904
125	0x3d6dcd07	0.058056857
126	0xbd7ed45b	-0.062214237
127	0x3f2dc16e	0.67873275

v.weight f4 [1, 128]
0	0x3f60f37d	0.87871534
1	0xbc88e0b8	-0.016708717
2	0xbec48019	-0.3837898
3	0xbc43eab3	-0.011957812
4	0xbd46c0c7	-0.04852369
5	0xbeda4335	-0.426294
6	0xbd5baaad	-0.053629566
7	0xbe84dd1e	-0.2594995
8	0xbef139e0	-0.47114468
9	0xbce850cb	-0.028358838
10	0xbda8a600	-0.08234787
11	0xbf0b523f	-0.5442237
12	0xbeab0cf0	-0.33408308
13	0xbeb638e1	-0.3559027
14	0xbef292c8	-0.4737761
15	0xbe3474d9	-0.17622699
16	0xbe099483	-0.13435559
17	0xbd8b7273	-0.06808939
18	0x3f1b1499	0.60578305
19	0xbd84c5d4	-0.06483045
20	0xbe89ca1a	-0.26912004
21	0xbd616d14	-0.055035666
22	0xbebf8320	-0.37404728
23	0xbd9ffa28	-0.078113854
24	0xbf57230e	-0.84037864
25	0xbe78960b	-0.24275987
26	0xbe0621ca	-0.13098827
27	0xbea6e0a3	-0.3259326
28	0xbd61fcbb	-0.055172663
29	0xbe97693a	-0.2957247
30	0x3c0b38bf	0.008497416
31	0xbf053ba2	-0.5204412
32	0x3d94dc04	0.07268527
33	0x3d44e01a	0.048065282
34	0xbed5abd2	-0.4173265
35	0xbf110777	-0.56652015
36	0x3d90a89f	0.07063412
37	0xbcc931c0	-0.024559855
38	0xbdc00228	-0.09375411
39	0x3d3d4445	0.046207685
40	0xbe89ef26	-0.26940268
41	0xbda29e9b	-0.07940408
42	0xbd84f7d0	-0.06492579
43	0xbeaff03d	-0.34362975
44	0x3e093d8e	0.13402387
45	0xbcfb25cc	-0.030657671
46	0xbda21397	-0.07913893
47	0xbe25ff3b	-0.16210644
48	0xbe29bba5	-0.16575487
49	0xbf0b9d1d	-0.5453661
50	0x3c24934c	0.010044884
51	0x3c5e0599	0.013551139
52	0x3d8a8719	0.06764049
53	0xbc9ab7ea	-0.018886525
54	0x3c7818f0	0.015142664
55	0x3f038e9a	0.5138947
56	0xbe666416	-0.22499117
57	0x3d4b5ba6	0.04964795
58	0x3f00a830	0.50256634
59	0xbe58c922	-0.21170476
60	0x3da25761	0.079268225
61	0xbefe5706	-0.4967577
62	0xbd06074c	-0.032721803
63	0xbe1e1343	-0.15437035
64	0xbe7c82a6	-0.24659213
65	0x3d2ef796	0.042716585
66	0xbd76fe5c	-0.06030117
67	0xbe9d8a39	-0.30769518
68	0x3ddde492	0.10834612
69	0xbcf584c6	-0.029970538
70	0x3f0f609f	0.5600681
71	0xbc773b11	-0.015089766
72	0x3cbf67e5	0.02336497
73	0x3eb952d3	0.36196002
74	0xbe7ee690	-0.2489264
75	0xbcbb03be	-0.022828933
76	0xbe594a89	-0.21219839
77	0xbe9e3e1b	-0.30906758
78	0x3d98e85b	0.07466193
79	0x3da0614b	0.07831057
80	0xbe32c0ca	-0.17456356
81	0x3f4f5a30	0.8099699
82	0xbe071f59	-0.13195552
83	0x3d8565ee	0.06513582
84	0x3d97f103	0.07419016
85	0x3d4a7cac	0.049435303
86	0xbdc8a2b2	-0.09796657
87	0xbf49d2f5	-0.7883752
88	0xbecbc90f	-0.39801833
89	0xbd9fee2e	-0.07809101
90	0xbe575eb5	-0.21032222
91	0x3d6ce327	0.057833817
92	0xbd8ce2af	-0.06879174
93	0xbeb7edcd	-0.35923615
94	0x3edfe79c	0.4373139
95	0xbcf962d3	-0.03044263
96	0xbeab0822	-0.33404642
97	0x3b8a3954	0.00421826
98	0xbe90037f	-0.28127667
99	0xbdb89961	-0.0901363
100	0x3e98e6f3	0.298637
101	0x3e147214	0.14496642
102	0xbd884b05	-0.06654934
103	0xbd61e054	-0.055145577
104	0x3cf7be70	0.030242175
105	0x3f0d477e	0.55187213
106	0x3d8208eb	0.06349357
107	0xbe1abde1	-0.15111496
108	0xbf2be93f	-0.6715278
109	0xbdc74475	-0.09729854
110	0xbbaf0cb0	-0.0053420886
111	0xbece4027	-0.4028332
112	0xbf44de1e	-0.76901424
113	0x3d62e029	0.055389557
114	0xbe232ef4	-0.1593588
115	0xbce92801	-0.028461458
116	0x3eda866b	0.42680678
117	0xbec05b20	-0.37569523
118	0xbea05949	-0.3131812
119	0xbf29d399	-0.663385
120	0x3ed9b28c	0.42519033
121	0xbdd887c3	-0.105727695
122	0xbe3f9921	-0.18710758
123	0x3d6ae39a	0.057345964
124	0x3cf13198	0.029442593
125	0x3d34ba28	0.044122845
126	0xbec2c2d4	-0.38039267
127	0xbe6fee38	-0.23430717

adv.weight f4 [8, 128]
0	0xbd466b46	-0.048442148
1	0xbd51c8df	-0.051216956
2	0x3c397cdd	0.011321274
3	0x3bc30dff	0.005952596
4	0xbb4ae7a8	-0.0030960832
5	0x3dd5ea5e	0.104450926
6	0x3cbbbe24	0.022917815
7	0x3d88952c	0.06669077
8	0xbd9d4ccd	-0.07680664
9	0x3d0f81dc	0.035035953
10	0xbd5b1b5e	-0.053492896
11	0x3cc6e5d1	0.024279507
12	0xbd0f5db4	-0.03500147
13	0x3e1a2fc2	0.1505728
14	0x3c455fc4	0.012046758
15	0x3ca68894	0.020328797
16	0x3dcd0067	0.10009842
17	0xbc411d19	-0.011786723
18	0x3cc95fe3	0.024581855
19	0x3ad04854	0.0015890696
20	0x3a0b3bc7	0.0005311337
21	0x3d7e2b41	0.06205297
22	0xbd57237b	-0.05252407
23	0xbc74fabe	-0.01495236
24	0xbe4e18d2	-0.20126656
25	0xbddc842e	-0.10767399
26	0x3c8956e9	0.016765075
27	0xbe5dfc81	-0.21678354
28	0x3ad84a1c	0.0016501579
29	0xbdf0e1eb	-0.117618404
30	0x3cdf94ef	0.027292697
31	0xbc7ef42f	-0.015561148
32	0x3b0c2238	0.00213827
33	0xbc3331c8	-0.010937162
34	0xbd97df35	-0.0741562
35	0x3ab99b0f	0.0014160591
36	0x3d30213d	0.04300045
37	0xbd430136	-0.047608577
38	0xbc8194f5	-0.015818099
39	0x3e8c6dc3	0.27427492
40	0xbbad2db1	-0.005284988
41	0xbd9b23ae	-0.07575165
42	0xbdaed44f	-0.085365884
43	0x3cc3b2e2	0.023889009
44	0xbda87211	-0.082248814
45	0xbd997746	-0.07493453
46	0x3c4d4498	0.012528561
47	0x3dabf408	0.08396155
48	0x3dd67540	0.104715824
49	0xbd2d4ccf	-0.04230958
50	0xbb9e7161	-0.004835293
51	0x3d652c32	0.05595035
52	0xbb9c5480	-0.0047708154
53	0x3cc023c2	0.02345455
54	0x3c98ed70	0.018667907
55	0x3dbeebea	0.09322341
56	0x3cc17a05	0.023617754
57	0xbb51576d	-0.003194298
58	0x3cc89131	0.024483295
59	0xbc559f28	-0.013038434
60	0xbd85d5f5	-0.0653495
61	0xbe681f43	-0.22668175
62	0x3e14e98c	0.14542216
63	0x3d61d8a6	0.055138253
64	0x3d3af473	0.04564328
65	0x3c910f9c	0.017707638
66	0x3d483f03	0.048888218
67	0x3dc90b8d	0.09816656
68	0x3da490fe	0.080354676
69	0x3db0a66d	0.08625493
70	0xbcfe2401	-0.031023027
71	0x3cead7f0	0.02866742
72	0xbcc58517	-0.024111314
73	0xbd91f915	-0.07127587
74	0x3cd83350	0.026391655
75	0x3cc70e1b	0.024298718
76	0x3d45de44	0.048307672
77	0xbd15cc67	-0.036571886
78	0x3d42c38f	0.04754978
79	0xbd5d6277	-0.05404898
80	0x3aeabb03	0.0017908517
81	0xbc0e2ba9	-0.008677402
82	0xbd58e793	-0.05295522
83	0x3d7edbb6	0.06222125
84	0x3d9ed0b7	0.07754653
85	0xbd4fe495	-0.050755102
86	0x3d142601	0.036169056
87	0xbd235d7d	-0.03988408
88	0x3dc89bb5	0.09795324
89	0x3dcaf9ec	0.0991095
90	0xbd9551a4	-0.07290962
91	0x3df83dff	0.121212
92	0xbd7e9723	-0.062155854
93	0xbb546eb6	-0.0032414622
94	0xbd33f5f9	-0.04393575
95	0x3d17b4ae	0.037037544
96	0x3e0d50d7	0.13800369
97	0x3cde7dfc	0.027159683
98	0x3d8a28a4	0.06746033
99	0xbdf355b3	-0.1188158
100	0xbd78d6b2	-0.060751624
101	0xbd95b759	-0.073103614
102	0x3d4aebce	0.049541287
103	0xbba10030	-0.0049133524
104	0x3d165f47	0.036711957
105	0xbd493d59	-0.04913077
106	0xbdab2946	-0.08357482
107	0xbd2df505	-0.042469997
108	0xbbf48286	-0.0074618487
109	0x3d60ac0e	0.054851584
110	0x3d36f862	0.04467047
111	0xbcd46d43	-0.025931006
112	0x3e55d055	0.20880254
113	0xbd80548f	-0.06266128
114	0xbbc9055b	-0.0061346716
115	0xbccd2adf	-0.025044857
116	0x3dd3a94a	0.10335024
117	0x3cd86b9e	0.026418503
118	0x3d61e139	0.05514643
119	0x3db9c0bb	0.090699635
120	0xbe3b97a9	-0.18319573
121	0xbda9f534	-0.08298722
122	0x3d19986d	0.03749888
123	0xbd3d46c7	-0.046210077
124	0xbc2078d6	-0.0097944345
125	0x3d9782c4	0.073979884
126	0x3d0c874a	0.03430871
127	0x3cb880aa	0.02252229
128	0xbda3a58c	-0.0799056
129	0xbcffbf48	-0.03121914
130	0xbdfb0f36	-0.12258761
131	0x3cf07d0e	0.029356506
132	0x3d0f1f2a	0.03494183
133	0x3d89c74c	0.06727466
134	0x3cbe1088	0.023201242
135	0x3cf759ec	0.030194245
136	0x3da22ee5	0.07919101
137	0x3bc62c67	0.0060477736
138	0xbcb7f176	-0.022454005
139	0x3d98498f	0.07435905
140	0xbc8d35c0	-0.017237544
141	0xbc1d2a55	-0.009592612
142	0xbd540b1c	-0.051768407
143	0x3da97089	0.082734175
144	0xbcb39698	-0.021922395
145	0xbc30fb6b	-0.01080213
146	0x3e3bc8fc	0.18338388
147	0xbd9d31f4	-0.076755434
148	0xbc06e33e	-0.00823289
149	0x3cc46d61	0.023977937
150	0x3c749a31	0.01492934
151	0x3c3bc831	0.011461304
152	0x3e4687c2	0.19387725
153	0xbd9fc78d	-0.07801733
154	0x3d91edac	0.071254104
155	0xbd0ac689	-0.033880744
156	0xbc48dc12	-0.0122595
157	0xbd0c4cba	-0.03425286
158	0x3d25777d	0.040397156
159	0xbcc89c65	-0.024488637
160	0x3d03867a	0.03211067
161	0x3cf6194c	0.03004136
162	0xbc18a9ea	-0.009317854
163	0x3cedf45e	0.029047187
164	0x3dab82f2	0.08374585
165	0xbc58a743	-0.013223472
166	0x3d8a0ccb	0.06740721
167	0x3c43db23	0.011954102
168	0xbc9bdb6a	-0.019025523
169	0x3d0d84fb	0.03455065
170	0x3cb62888	0.022236124
171	0x3c6537c5	0.013990347
172	0x3dd4fc65	0.10399703
173	0xbc66bb18	-0.014082693
174	0xbd2ac2f1	-0.041689817
175	0x3c93840f	0.018007306
176	0x3cfc40e9	0.03079267
177	0x3d318d75	0.043347795
178	0xbd7c00e9	-0.061524305
179	0x3d58fdf5	0.052976567
180	0xbab72840	-0.0013973787
181	0xbcc1a374	-0.02363751
182	0xbd69bc0f	-0.057064112
183	0xbc814e64	-0.01578445
184	0xbb0c7942	-0.002143458
185	0x3c54ad5f	0.012980788
186	0x3d8e507f	0.06948947
187	0x3d29a4aa	0.0414168
188	0x3d9b3029	0.07577545
189	0xbe3154ac	-0.17317456
190	0x3e27a27e	0.1637058
191	0xbd79fdbb	-0.06103299
192	0xbcc6505d	-0.024208242
193	0xbd512c55	-0.05106767
194	0x3d7be101	0.061493877
195	0x3d231e39	0.039823744
196	0x3d869b6e	0.065726146
197	0x3d2b3612	0.041799612
198	0x3cf8c157	0.03036563
199	0xbcccf216	-0.02501778
200	0x3cd62fdc	0.026145868
201	0xbe175fc5	-0.14782627
202	0xbd44db79	-0.048060868
203	0x3d084ac6	0.033274435
204	0xbc0f40ae	-0.008743448
205	0xbd7647d6	-0.0601271
206	0x3db3717c	0.0876188
207	0x3d87f59d	0.06638644
208	0x3b6fe33c	0.0036603948
209	0x3e847595	0.25870958
210	0x3d047b41	0.032344107
211	0x3da1ecb5	0.079064764
212	0xbd0333f2	-0.03203196
213	0x3d0930ad	0.033493686
214	0xbdac89dc	-0.08424732
215	0x3d82a649	0.063793726
216	0xbd54a086	-0.0519109
217	0x3cf01c5b	0.029310396
218	0x3c9faa9c	0.019490533
219	0x3db83093	0.0899364
220	0xbd67a084	-0.056549564
221	0xbd0c865e	-0.03430783
222	0xbddffd1b	-0.10936948
223	0xbdac0e84	-0.08401206
224	0x3b9be65b	0.004757685
225	0xbd0b5a39	-0.03402159
226	0x3dbb98de	0.091600165
227	0xbc86597f	-0.016400097
228	0xbe14355c	-0.1447348
229	0xbcc6422f	-0.02420148
230	0xbd8b6656	-0.068066284
231	0x3d7a5a16	0.06112107
232	0x3da554dc	0.08072826
233	0x3d62ccc1	0.05537105
234	0x3cf19d02	0.029493812
235	0x3d725714	0.059165075
236	0x3e2da525	0.16957529
237	0x3c9c150a	0.019053001
238	0xbce5837e	-0.028016802
239	0x3d549efa	0.051909424
240	0xbd924854	-0.07142702
241	0xbcffed09	-0.031240957
242	0xbcb76dfa	-0.022391308
243	0x3d178ae1	0.03699768
244	0xbe26fc9f	-0.16307305
245	0xbecca95d	-0.39972964
246	0xbd1f6623	-0.038915765
247	0xbd770653	-0.060308766
248	0x3e0b58e8	0.13608134
249	0x3cc3f892	0.023922238
250	0xbd2dbd22	-0.0424167
251	0x3d83839a	0.064215854
252	0x3d987794	0.07444683
253	0xbd8006f6	-0.06251328
254	0x3dbedba5	0.093192376
255	0xbd829fe8	-0.06378156

adv.bias f4 [8]
0	0x3d1e0bae	0.038585357
1	0x3c011ca9	0.007880368
2	0x3d804c37	0.06264537
3	0x3c703959	0.01466211
4	0xbc17671f	-0.009240895
5	0xbe1082df	-0.14112423
6	0x3e0b152b	0.13582294
7	0xbd9d001b	-0.07666036
